myrobot/src/SAC/saved_model/1217_2_actions_actionreward_3/sac_actor_1217_2_actions_actionreward_3_EP148.pt (torch, 47894 bytes, 10 tensors)

fc1.weight f4 [128, 4]
0	0x3e2301cd	0.15918656
1	0xbf25468b	-0.64560765
2	0x3de9fdb5	0.11425344
3	0x3c81fd66	0.0158679
4	0x3d175faf	0.036956485
5	0xbe0bdbad	-0.13658018
6	0x3edb9622	0.4288798
7	0x3de3f20c	0.11130151
8	0x3f348736	0.70518816
9	0xbf2f9469	-0.6858583
10	0xbf5a1286	-0.85184515
11	0x3e226a0b	0.15860765
12	0x3ef29022	0.4737559
13	0x3e82b587	0.2552912
14	0xbe5a80c4	-0.21338183
15	0xbec74eff	-0.38927457
16	0x3f971d50	1.180582
17	0x3ed9c917	0.42536232
18	0xbd88b1a8	-0.0667451
19	0xbb8f5b8e	-0.004374928
20	0xbd64064d	-0.05567007
21	0x3e9c31dd	0.30506793
22	0xbf08bf1e	-0.5341662
23	0xbe5b702d	-0.2142951
24	0xbe7de9c6	-0.24796209
25	0x3d49e0cf	0.04928666
26	0x3f8fba87	1.1228799
27	0x3ce9ebd2	0.02855483
28	0xbfd1e902	-1.6399233
29	0xbe313732	-0.17306212
30	0xbfc916ce	-1.5710084
31	0x3d4cce18	0.050001234
32	0xbf97c6fb	-1.1857599
33	0xbdc320c1	-0.09527732
34	0xbf5f1fea	-0.8715807
35	0x3d440ef7	0.047865834
36	0xbe90ea37	-0.28303692
37	0xbe64d601	-0.22347261
38	0x3f2c2f3a	0.6725956
39	0xbcd192f6	-0.025582772
40	0xbed8a6f9	-0.4231489
41	0x3e9ffccc	0.31247556
42	0xbf1c5ed1	-0.6108218
43	0xbe9e8f5b	-0.30968747
44	0x3f596a66	0.84927976
45	0xbea3fe6b	-0.32030043
46	0xbea90924	-0.33014786
47	0x3e65e710	0.22451425
48	0x3f5ae2c9	0.85502297
49	0xbeb14424	-0.346223
50	0x3efa46f8	0.4888227
51	0xbd0f3799	-0.03496513
52	0x3d87d0fe	0.06631659
53	0xbe8d8bfa	-0.27645856
54	0x3f840ba2	1.031605
55	0x3c89c706	0.016818535
56	0xbf15d46c	-0.58527255
57	0xbe0c682c	-0.13711613
58	0x3eac8b0e	0.3369984
59	0xbe1db062	-0.15399316
60	0x3e8d995b	0.27656063
61	0xbd86d2ad	-0.06583152
62	0x3efbfd7b	0.49216828
63	0x3bb5c785	0.005547466
64	0x3fe57a10	1.7927876
65	0x3eaacc85	0.3335916
66	0xbd563d10	-0.052304327
67	0x3c17650a	0.009240398
68	0xbea8fa21	-0.33003333
69	0xbf208078	-0.6269603
70	0x3e930c13	0.2872015
71	0x3d8078f4	0.0627307
72	0x3fc75096	1.5571468
73	0xbeee2765	-0.4651443
74	0x3f474e48	0.7785382
75	0x3dc130e9	0.09433157
76	0x3dcc7019	0.099823184
77	0xbee752a8	-0.4518025
78	0x3f8dfd89	1.1092998
79	0x3e67798c	0.2260496
80	0xbf225653	-0.6341297
81	0xbf4c8c7f	-0.7990188
82	0x3df106e7	0.11768895
83	0xbb34547f	-0.0027516184
84	0xbf205a75	-0.62638026
85	0xbe5bf47f	-0.21479987
86	0xbd953b65	-0.07286719
87	0xbde28e44	-0.11062291
88	0x3f65769b	0.896341
89	0xbe5dc033	-0.2165535
90	0x3eab2b28	0.33431363
91	0x3c990a91	0.018681796
92	0x391f2a2e	0.00015179135
93	0xbe249b7c	-0.16074938
94	0xbfd2a12b	-1.6455435
95	0x3c455077	0.01204311
96	0x3f2fb421	0.6863423
97	0xbe6b864b	-0.23000447
98	0x3f43a5ca	0.7642485
99	0x3c5c00b8	0.013427906
100	0xbf886f3f	-1.065895
101	0xbe6752e0	-0.22590208
102	0x3e9b6884	0.30353177
103	0xbdd4da59	-0.10393209
104	0x3f1d54ce	0.61457527
105	0xbe47a3fb	-0.19496147
106	0x3bc7aaba	0.0060933502
107	0xbc556473	-0.013024437
108	0x3f27c61d	0.6553667
109	0x3e488ab1	0.19584157
110	0x39acb39c	0.00032940216
111	0xbec409a6	-0.3828861
112	0x3f0d14ce	0.5510987
113	0xbe45ba17	-0.19309269
114	0x3dd454ef	0.10367762
115	0x3c6279d5	0.013822992
116	0x3e83aa14	0.25715697
117	0x3e5acad6	0.21366438
118	0x3edf1e79	0.43577936
119	0x3ebb942e	0.3663649
120	0x3ec716e4	0.38884652
121	0xbd50bf47	-0.050963666
122	0x3eb87200	0.36024475
123	0xbeb04b4c	-0.34432447
124	0xbf0e259a	-0.55526125
125	0x3d85b89f	0.06529354
126	0xbe3b289b	-0.18277209
127	0xbe882b9f	-0.2659578
128	0x3f86d7c5	1.0534598
129	0xbda05322	-0.07828356
130	0x3f100360	0.5625515
131	0xbc2a12b2	-0.010380434
132	0x3e04180c	0.12899798
133	0xbeeb8bda	-0.46005136
134	0x3f2a2183	0.66457385
135	0x3e2bd97a	0.1678218
136	0x3e3deff9	0.18548574
137	0xbe115e41	-0.14196111
138	0xbc2f51e8	-0.01070068
139	0xbe65e1e0	-0.22449446
140	0xbf68dc25	-0.90960914
141	0xbf087407	-0.53302044
142	0x3f288fa0	0.65844154
143	0x3e8c9671	0.27458528
144	0xbf61c62e	-0.88193023
145	0x3bcf235c	0.006321354
146	0x3e3b17b8	0.18270767
147	0xbc961be6	-0.01832385
148	0xbf63ae5e	-0.8893794
149	0xbf0c060b	-0.5469672
150	0xbfa7c32c	-1.3106437
151	0x3d8f740e	0.070045575
152	0xbd9bb519	-0.07602901
153	0x3f31321d	0.6921709
154	0x3f0c880f	0.5489511
155	0xbce8b77c	-0.028407805
156	0x3e2e3ebe	0.17016122
157	0xbeb04dfc	-0.34434497
158	0xbfcc7ee9	-1.597623
159	0x3e0ebb0f	0.13938545
160	0x3f09cea6	0.53830945
161	0xbe914b67	-0.2837784
162	0x3e2a50a0	0.16632318
163	0xbe0f0c55	-0.13969548
164	0xbe9bf2ac	-0.3045858
165	0x3ea841d0	0.3286271
166	0xbf117596	-0.56820047
167	0x3e35f74d	0.17770119
168	0x3ef33ca6	0.4750721
169	0xbe8c439b	-0.2739533
170	0x3fa67cfe	1.3006895
171	0x3d2cfcc2	0.042233236
172	0x3f9707dd	1.1799275
173	0xbd8018fe	-0.06254767
174	0x3f34b18b	0.7058341
175	0x3e09f3f9	0.13471974
176	0x3eba05bb	0.36332497
177	0xbf2a03d5	-0.664121
178	0xbf49a4f2	-0.7876731
179	0x3d5786e7	0.052618887
180	0xbf537c64	-0.8261168
181	0x3c6b7f2a	0.01437358
182	0x3e9b9d25	0.3039333
183	0x3dd5b8b3	0.10435619
184	0x3ec7c13e	0.3901462
185	0x3e08003d	0.13281341
186	0xbee03e38	-0.4379747
187	0x3cbf2639	0.023333656
188	0xbe5f5cdf	-0.21812771
189	0x3e12b23e	0.14325806
190	0xbe0a13ea	-0.13484159
191	0x3e24d194	0.16095573
192	0xbed70d6e	-0.42002434
193	0xbf0aae1a	-0.5417191
194	0xbfb7af33	-1.4350342
195	0x3de508bf	0.11183309
196	0xbf0a1141	-0.5393258
197	0x3f1858c8	0.5951047
198	0xbdc2eecc	-0.09518203
199	0xbc87792b	-0.01653727
200	0x3fb3ab32	1.403662
201	0xbeb7f98a	-0.3593257
202	0x3ec78272	0.3896671
203	0x3d2c87b5	0.042121608
204	0xbfd4166e	-1.6569345
205	0x3e170542	0.147481
206	0xbfc09b6c	-1.5047431
207	0x3df90f70	0.121611476
208	0xbf13e041	-0.5776406
209	0x3bf64fc6	0.007516834
210	0x3ea7843f	0.32718083
211	0xbe48faaf	-0.19626878
212	0x3ff753c8	1.9322443
213	0x3e9c53a3	0.3053256
214	0x3e962111	0.29322103
215	0x3c5cab4a	0.013468573
216	0x3ebc46da	0.36772805
217	0x3c662930	0.014047906
218	0x3e400978	0.18753612
219	0x3e266c85	0.16252334
220	0x3f0a442c	0.5401027
221	0x3ee31932	0.4435516
222	0x3ede8ba2	0.43465906
223	0xbb33d100	-0.0027437806
224	0xbf6df269	-0.92948014
225	0xbdf04324	-0.11731556
226	0xbf4b4834	-0.7940705
227	0x3df2d90e	0.11857806
228	0x3f595d52	0.8490802
229	0xbe65d766	-0.22445449
230	0x3f43580c	0.76306224
231	0x3e3f5aae	0.18686935
232	0xbf1f4464	-0.6221373
233	0x3ebfc7d3	0.3745714
234	0xbf337547	-0.70100826
235	0xbb1f1623	-0.002427467
236	0xbd6d2391	-0.057895247
237	0xbed2f60c	-0.41203344
238	0x3e91910e	0.2843098
239	0xbe306fa0	-0.17230082
240	0xbd86cbb8	-0.06581825
241	0xbe9b1a23	-0.30293378
242	0xbf91951a	-1.1373627
243	0x3c8ff95b	0.017574957
244	0xbee7fc77	-0.45309803
245	0x3ebeff5a	0.37304193
246	0x3c9af2a8	0.018914536
247	0xbd9713aa	-0.073767975
248	0x3fc13560	1.5094414
249	0x3e3a13a8	0.18171561
250	0xbed5cf5c	-0.41759765
251	0x3bbd2e60	0.0057733506
252	0xbde8e454	-0.11371675
253	0xbf0f5e19	-0.56002957
254	0x3ea553ff	0.32290646
255	0x3b21045b	0.0024569246

fc1.bias f4 [128]
0	0xbf741876	-0.95349824
1	0xbfb32aaf	-1.3997401
2	0x3d6ed5f8	0.058309525
3	0x3e24e959	0.1610464
4	0x3f427efe	0.75975025
5	0x3ec155d8	0.37760806
6	0xbcb1f163	-0.021721547
7	0xbe891ebf	-0.2678127
8	0xbf90f899	-1.1325866
9	0x3ef8b5fd	0.48576346
10	0xbeb5d45a	-0.35513574
11	0xbf54b723	-0.83091944
12	0x3dc4eea9	0.09615833
13	0x3fab3cd3	1.3377937
14	0xbeab5d9d	-0.3346986
15	0xbf758b4d	-0.9591568
16	0x3ebebde3	0.37254247
17	0x3fadf4b4	1.3590302
18	0x3effd246	0.49965113
19	0xbf4f6487	-0.8101277
20	0x3e86fe1d	0.26365748
21	0x3e626e08	0.22112286
22	0xbf721683	-0.945656
23	0x3f5df781	0.86705786
24	0x3e8222b2	0.25417095
25	0xbdd888fe	-0.10573004
26	0x3f3d8db8	0.7404437
27	0x3eb0dd16	0.34543675
28	0xbf1eeef8	-0.6208339
29	0xbfd2dd58	-1.6473799
30	0xbf143725	-0.57896644
31	0x3e729320	0.23688936
32	0x3fe77364	1.808209
33	0xbfc1c006	-1.5136726
34	0x3f2e43c4	0.6807215
35	0xbe7afc78	-0.24510372
36	0x3ed9343f	0.42422673
37	0xbf3b176d	-0.7308262
38	0xbf599116	-0.8498701
39	0xbf251178	-0.6447978
40	0xbe328d21	-0.17436649
41	0xbf987f06	-1.1913764
42	0xbfaa3bd9	-1.3299514
43	0xbd9c308f	-0.07626449
44	0x3e9b6c8f	0.3035626
45	0xbfa13214	-1.2593408
46	0xbf51b7df	-0.8192119
47	0xbe944efe	-0.28966516
48	0x3f99e65d	1.2023426
49	0x3f53dbfa	0.8275753
50	0x3f62551f	0.88411134
51	0xbf8ddecf	-1.1083621
52	0xbe6633e3	-0.2248073
53	0x3e83b2d5	0.25722376
54	0xbf23a2f2	-0.6392051
55	0xbf137bd1	-0.57610804
56	0x3f7b5fe8	0.98193216
57	0xbf393112	-0.723405
58	0x3f7f3a8d	0.99698716
59	0xbeab1658	-0.33415484
60	0x3f921868	1.1413698
61	0x3f42a654	0.76035047
62	0x3f829690	1.0202198
63	0x3f51adcd	0.81905824
64	0x3f7d6903	0.9898836
65	0x3f83a409	1.0284435
66	0xbf5d2019	-0.863771
67	0x3f856edd	1.0424458
68	0xbe85d900	-0.2614212
69	0x3fabe0fe	1.3428037
70	0x3f78466f	0.96982473
71	0xbf5bf392	-0.85918534
72	0xbf1fbf27	-0.6240105
73	0xbf96fe3b	-1.1796335
74	0x3f4a45c3	0.790127
75	0xbee3a036	-0.4445817
76	0x3e3d4753	0.1848424
77	0xbea11bbb	-0.3146647
78	0xbe641825	-0.22274835
79	0x3f8ac87f	1.0842437
80	0x3fab107c	1.3364406
81	0xbde5a337	-0.112127714
82	0xbf107557	-0.56429046
83	0x3edaf01c	0.42761314
84	0x3f9ae40c	1.2100844
85	0xbf411837	-0.75427574
86	0xbe012c70	-0.12614608
87	0x3f8d587f	1.1042632
88	0xbe86e75d	-0.2634839
89	0xbddb2da7	-0.10702067
90	0xbf8f26df	-1.1183738
91	0x3ec3b1ab	0.38221487
92	0x3f80f06b	1.007337
93	0xbf961d94	-1.1727777
94	0xbea1a37f	-0.3157005
95	0x3e561ba2	0.20908979
96	0xbea73120	-0.32654667
97	0xbfd8ade5	-1.6928068
98	0x3f3c8211	0.73635966
99	0xbf562d93	-0.8366329
100	0x3edf8959	0.43659475
101	0x3e9de188	0.3083613
102	0xbc4d03c8	-0.012513109
103	0x3e7aeb4b	0.2450382
104	0xbe0daa56	-0.13834509
105	0xbfa76be0	-1.3079796
106	0x3d55bd30	0.052182376
107	0x3ebfe7f7	0.37481663
108	0x3ed0cb0e	0.40779918
109	0x3faeebe7	1.3665742
110	0x3f3d48f0	0.7393942
111	0x3f137cf5	0.57612544
112	0x3f98bf2f	1.1933345
113	0x3f3ae0d4	0.7299931
114	0xbe399d31	-0.1812637
115	0xbf875fa0	-1.0576057
116	0xbe16b0bd	-0.14715858
117	0xbfd84995	-1.6897455
118	0xbddca827	-0.1077426
119	0xbf74d666	-0.95639646
120	0xbfb761c9	-1.4326717
121	0x3ce4580a	0.027874012
122	0x3ee42dfe	0.4456634
123	0xbf86ab09	-1.0520946
124	0x3f4f5060	0.8098202
125	0x3fc96f8d	1.5737168
126	0xbdab66a9	-0.0836919
127	0xbf5f37b9	-0.871944

fc2.weight f4 [64, 128]
0	0x3daf1b50	0.08550131
1	0x3cab207f	0.020889519
2	0x3b04ad5b	0.002024493
3	0x3def42e2	0.11682679
4	0x3d977b02	0.07396509
5	0x3d0cbe05	0.034360904
6	0xbc4ec211	-0.012619511
7	0x3d8ef2ed	0.06979928
8	0x3d3c910e	0.046036772
9	0xbe43094f	-0.1904652
10	0x3dc1c332	0.09461059
11	0x3d3aa7d7	0.04557022
12	0x3d772b95	0.060344297
13	0xbf49c0d8	-0.7880988
14	0xbdb73200	-0.089450836
15	0x3d673e44	0.056455866
16	0x3d85e1f9	0.065372415
17	0xbd6100dd	-0.054932464
18	0xbda706b5	-0.08155576
19	0xbd0dd6eb	-0.03462879
20	0x3cdacc44	0.02670873
21	0x3c1eb600	0.009686947
22	0xbd53de7f	-0.05172586
23	0x3f3c9b18	0.73674154
24	0x3d3ba55b	0.045811992
25	0xbd1f3ec2	-0.03887821
26	0xbd82163f	-0.06351899
27	0x3c8b5e02	0.0170126
28	0x3e4e2993	0.20133047
29	0x3d85d232	0.06534232
30	0x3cf64e00	0.03006649
31	0xbdf07c92	-0.1174251
32	0x3cd5bef9	0.02609204
33	0x3af84b6a	0.0018943374
34	0x3ce6c911	0.028172048
35	0xbdb2e228	-0.08734542
36	0xbe558e42	-0.20855048
37	0x3d3a33e7	0.045459654
38	0xbc8247ad	-0.015903318
39	0x3de4f866	0.11180191
40	0xbda52ed6	-0.08065574
41	0x3cd62060	0.026138484
42	0xbdfb08e2	-0.12257554
43	0xbcf4308f	-0.02980831
44	0x3dd9e1f3	0.106387995
45	0x3d4c97bc	0.049949393
46	0x3c564008	0.01307679
47	0xbca2e82b	-0.019886097
48	0xbd5a371a	-0.053275205
49	0xbed79cf4	-0.42111933
50	0x3d044e5c	0.03230129
51	0x3d9d3fc7	0.0767818
52	0xbe17707b	-0.14789002
53	0x3ddf42b4	0.109013945
54	0xbc8707b1	-0.01648316
55	0xbdc56440	-0.09638262
56	0xbc23304b	-0.009960244
57	0xbccbd045	-0.024879584
58	0xbe2e81d0	-0.17041707
59	0x3cf3eb26	0.029775213
60	0x3dedd9e9	0.11613829
61	0x3d0e6d66	0.0347723
62	0x3ebdceaf	0.3707175
63	0xbca95de9	-0.020674663
64	0x3de471d2	0.11154522
65	0x3c39da2b	0.011343519
66	0x3c917f6a	0.017760951
67	0x3f01e5f6	0.5074152
68	0x3d58d20a	0.052934684
69	0x3dbb5f5d	0.091490485
70	0xbd1386b6	-0.036017142
71	0x3da357d1	0.07975734
72	0xbd06728b	-0.03282408
73	0x3d49a7ee	0.049232416
74	0xbe28b368	-0.16474688
75	0x3cd60bfb	0.02612876
76	0x3dc4216f	0.095766895
77	0xbe861a14	-0.2619177
78	0xbdb38e7e	-0.087674126
79	0x3884c9b5	6.331821e-05
80	0xbf5b4aa9	-0.856608
81	0xbdc97b66	-0.098379895
82	0xbd85a05f	-0.06524729
83	0xbb89ea91	-0.0042088707
84	0x3d8733b2	0.06601657
85	0x3db46fda	0.088103965
86	0x3e5e6463	0.21717982
87	0xbe0adffe	-0.13562009
88	0x3b1c7e5a	0.0023879022
89	0x3dc1e8cd	0.09468231
90	0x3e284338	0.16431892
91	0xbde2da08	-0.110767424
92	0x3ca0caf8	0.019628033
93	0x3dae683a	0.085159734
94	0xbde7f539	-0.113260694
95	0xbc744671	-0.014909373
96	0x3ce50407	0.027956022
97	0xbc74d9c4	-0.0149444975
98	0xbf99e079	-1.2021629
99	0x3dc867eb	0.09785446
100	0xbcd63202	-0.026146892
101	0xbd80dff5	-0.062927164
102	0x3dc316a7	0.09525805
103	0xbcebb095	-0.028770724
104	0xbda5dcb9	-0.0809874
105	0x3d9095dc	0.070598334
106	0x3cbaaa2e	0.022786226
107	0x3e4799da	0.19492283
108	0xbd8a9957	-0.067675285
109	0xbf4f1437	-0.8089022
110	0x3ddd5098	0.10806388
111	0x3e6f0a80	0.23343849
112	0x3cfad806	0.030620586
113	0xbe9d6c6b	-0.3074678
114	0x3c2159cb	0.0098480685
115	0xbd64a301	-0.055819515
116	0x3d1d7774	0.038443998
117	0x3cfd18e0	0.03089565
118	0xbd3a5ba1	-0.04549754
119	0xbc853b1a	-0.016263533
120	0xbe0d34ab	-0.13789622
121	0xbd8bd2bd	-0.068273045
122	0xbe381cf0	-0.17979789
123	0xbebba6b9	-0.36650637
124	0x3c341108	0.010990389
125	0xbd4e4323	-0.050356995
126	0xbe28421e	-0.16431472
127	0xbc6d5fee	-0.014488203
128	0xbe3fa088	-0.18713582
129	0xbdb27c59	-0.08715124
130	0xbe353bd4	-0.17698604
131	0x3d01639b	0.03158913
132	0x3e6aab3c	0.22916883
133	0x3d3553ac	0.04426925
134	0xbd4d2c4d	-0.050091077
135	0xbe103f9e	-0.14086768
136	0xbcefcc41	-0.0292722
137	0x3e1a2191	0.15051867
138	0x3e71edfe	0.23625943
139	0xbd048a67	-0.032358553
140	0xbde82243	-0.1133466
141	0xbf0c508b	-0.548104
142	0xbd6be899	-0.05759487
143	0xbe3e875a	-0.1860632
144	0x3dadbb47	0.08482986
145	0xbe4703fd	-0.19435115
146	0xbdc6b9f2	-0.09703435
147	0xbdfa88f0	-0.1223315
148	0xbdf0c451	-0.117561944
149	0xbd0148f6	-0.03156372
150	0x3dc1127d	0.094273545
151	0x3e0fa40e	0.14027426
152	0xbdc25001	-0.09487916
153	0xbe55a492	-0.2086356
154	0x3e0f264c	0.13979453
155	0xbe05065d	-0.12990709
156	0x3e4a529c	0.19758075
157	0xbd429ab4	-0.047510818
158	0xbdeda4ae	-0.11603676
159	0x3d1a1c0c	0.037624404
160	0x3d55f8a6	0.052239083
161	0xbd83d36d	-0.06436811
162	0xbb4f3fd8	-0.0031623747
163	0xbc88b996	-0.016690057
164	0xbd8e1548	-0.06937653
165	0xbd2f7dec	-0.042844698
166	0xbd1aedfe	-0.037824623
167	0xbb542ede	-0.0032376568
168	0xbe178b3e	-0.1479921
169	0x3dcb0c33	0.09914436
170	0xbebc0157	-0.36719772
171	0xbcca5315	-0.02469782
172	0xbeac2654	-0.33622992
173	0xbc2bf332	-0.010494994
174	0x3dbb11e6	0.09134273
175	0xbcb10a49	-0.02161135
176	0xbdcef0cb	-0.10104521
177	0xba1b9a33	-0.0005935758
178	0xbe2183bd	-0.1577291
179	0x3d21e402	0.039524086
180	0x3d34dfb9	0.04415867
181	0x3dff7246	0.12472968
182	0x3d7d1e81	0.06179667
183	0xbd225d22	-0.0396396
184	0x3dc542c6	0.09631877
185	0xbc7c9c5f	-0.015418141
186	0x3dbfc730	0.09364164
187	0xbda2c887	-0.07948404
188	0xbd936ec2	-0.0719886
189	0x3c093ff7	0.008377067
190	0x3e950aa6	0.29109687
191	0xbe3a4943	-0.1819201
192	0x3e78b870	0.24289107
193	0x3d7434ba	0.059620596
194	0x3d6dfa0f	0.058099803
195	0x3eb1a246	0.34694117
196	0x3c95f6e8	0.01830621
197	0x3e359a1c	0.1773457
198	0xbd20c154	-0.039246872
199	0xbd96093e	-0.073259816
200	0xbdb09ceb	-0.0862368
201	0xbd87ff47	-0.06640487
202	0x3d78f169	0.0607771
203	0xbe07d4da	-0.1326479
204	0xbd59ed80	-0.053205013
205	0xbe8b4daf	-0.27207705
206	0x3cba192b	0.02271708
207	0x3c480129	0.012207308
208	0xbdf178a3	-0.11790588
209	0xbe152f28	-0.1456877
210	0xbea7f6c7	-0.32805464
211	0x3e532999	0.20621337
212	0xbdac18d0	-0.0840317
213	0xbddebccb	-0.10875853
214	0xbeaeeae8	-0.34163594
215	0xbe9a2a9b	-0.3011063
216	0x3e9d14af	0.30679843
217	0x3ea9a301	0.33132175
218	0x3e52b3bd	0.20576377
219	0xbe1e7b91	-0.15476824
220	0xbd1aca73	-0.037790727
221	0x3e3c7d23	0.18407111
222	0x3cbd20e2	0.023086969
223	0xbde342df	-0.11096739
224	0x3dd61275	0.10452739
225	0xbe305384	-0.17219359
226	0xbe0fd0ae	-0.14044449
227	0x3d93b2c1	0.07211829
228	0x3d881c40	0.06646013
229	0x3dbfc881	0.09364415
230	0xbd3a9097	-0.045548048
231	0x3dba797a	0.09105201
232	0xbde9de54	-0.11419359
233	0x3d1374e9	0.036000166
234	0xbd3ada24	-0.04561819
235	0x3e9416c2	0.28923613
236	0xbd4b1f7c	-0.049590573
237	0xbd9721ad	-0.0737947
238	0xbe22d401	-0.15901186
239	0x3e287be7	0.16453515
240	0xbd45ba37	-0.04827329
241	0xbec9955c	-0.39371765
242	0xbe26311f	-0.16229676
243	0xbc024066	-0.007949924
244	0xbc8f16d4	-0.01746694
245	0xbe1d41e6	-0.1535717
246	0x3d3054b4	0.04304953
247	0x3c8cc76b	0.017184934
248	0xbd52e051	-0.051483456
249	0xbd5a7fc8	-0.053344518
250	0xbe70a44b	-0.23500173
251	0xbe4a0ecf	-0.19732212
252	0xbdcb4d01	-0.09926797
253	0xbdc8ce76	-0.09805004
254	0xbe753f39	-0.23949899
255	0xbde6dfa4	-0.11273125

fc2.bias f4 [64]
0	0xbe62b33c	-0.22138685
1	0xbd2014c6	-0.03908231
2	0x3ee87807	0.45404074
3	0x3d2da36c	0.04239218
4	0xbec50845	-0.38482872
5	0xbf39fcf7	-0.7265162
6	0x3eba9941	0.36445048
7	0x3ebe950a	0.37223083
8	0x3ba8cd2d	0.005151412
9	0xbdeaeb94	-0.11470714
10	0xbe7cf1db	-0.24701636
11	0x3f78d93d	0.9720648
12	0x3f399cf1	0.725051
13	0xbe980818	-0.29693675
14	0x3f1fb12f	0.62379736
15	0xbf51c2e7	-0.8193802
16	0x3e87b5c7	0.26505873
17	0xbe6e9420	-0.23298693
18	0xbf1787da	-0.5919167
19	0xbd1aef11	-0.037825648
20	0xbee7fe15	-0.45311037
21	0xbef6ebfa	-0.4822691
22	0xbdf61481	-0.120156296
23	0xbd2dcb5e	-0.042430274
24	0x3da89701	0.08231927
25	0x3f5e7b06	0.8690647
26	0x3f82acd2	1.020899
27	0x3d38c210	0.045106947
28	0x3ec1aa69	0.37825325
29	0xbf787352	-0.97050965
30	0x3f277924	0.6541922
31	0xbf6933e3	-0.910948
32	0xbec2a835	-0.38018957
33	0x3e5c90f8	0.21539676
34	0x3e68ff70	0.22753692
35	0x3e4c5064	0.19952542
36	0xbe95cd30	-0.29258108
37	0x3f0760ab	0.5288188
38	0xbf369d70	-0.7133398
39	0x3f21244a	0.62946
40	0xbf803df1	-1.0018903
41	0xbf2d290a	-0.67640746
42	0x3f0fb4ba	0.5613514
43	0x3f954e30	1.1664486
44	0xbebbff2b	-0.36718115
45	0x3ec445e4	0.38334572
46	0x3e5c9fd4	0.21545345
47	0x3cfc9347	0.030831946
48	0xbf8dfac9	-1.1092159
49	0x3f1a81b6	0.60354173
50	0x3e07295a	0.13199368
51	0xbf4af474	-0.79279256
52	0xbdada6f8	-0.084791124
53	0x3ee44168	0.4458115
54	0x3e82045f	0.2539396
55	0xbebd754b	-0.3700355
56	0xbf1724fa	-0.59040797
57	0xbee8479c	-0.45367134
58	0x3f6394cc	0.8889892
59	0xbe916b37	-0.2840211
60	0x3eca1459	0.3946865
61	0x3f85786e	1.0427377
62	0xbf14f998	-0.5819335
63	0x3df02d23	0.11727359

fc3.weight f4 [32, 64]
0	0xbf043441	-0.51642233
1	0xbea5b229	-0.32362488
2	0xbdf10969	-0.11769373
3	0xbe8eb521	-0.27872565
4	0xbe081570	-0.13289428
5	0xbf119c57	-0.5687918
6	0x3e1abf7a	0.15112105
7	0x3e57f6a7	0.21090184
8	0xbf0232c5	-0.5085872
9	0xbdb07aa2	-0.0861714
10	0x3d5e5baa	0.054286636
11	0x3dda4fdb	0.106597625
12	0x3cf7c805	0.030246744
13	0xbe235ffd	-0.15954585
14	0x3db009dc	0.085956305
15	0xba2494e0	-0.00062782876
16	0x3db5188b	0.08842572
17	0xbdce27c3	-0.10066178
18	0xbe4b3208	-0.19843304
19	0x3d216da6	0.03941121
20	0x3e2a87a8	0.16653311
21	0xbedc7220	-0.4305582
22	0x3df16abb	0.11787935
23	0x3d5b4dc3	0.053540956
24	0xbeca6840	-0.3953266
25	0x3d1c79da	0.038202144
26	0xbdf3a93c	-0.11897513
27	0xbe1f1ff3	-0.15539531
28	0xbd375e8f	-0.044767912
29	0xbfacde5c	-1.3505359
30	0xbc238edd	-0.009982792
31	0xbe226b9d	-0.15861364
32	0xbea2791f	-0.31733033
33	0x3dce65b2	0.100779906
34	0x3e683904	0.22678
35	0x3ebfe13d	0.3747653
36	0xbe90d6ed	-0.28288975
37	0x3e031be0	0.12803602
38	0xbf032008	-0.5122075
39	0xbe174ac3	-0.14774613
40	0x3aae793a	0.0013311275
41	0xbdd53276	-0.10410015
42	0xbda54f1c	-0.080717295
43	0x3bf1fee4	0.0073851217
44	0xbd6f4ebb	-0.058424693
45	0xbe6219e3	-0.22080187
46	0xbeaad00a	-0.33361846
47	0xbeebbea2	-0.4604388
48	0x3e1e1d1e	0.15440795
49	0xbe9dcbc2	-0.30819517
50	0x3d62e1ed	0.05539124
51	0xbeaeec39	-0.341646
52	0x3d5bbe7c	0.053648457
53	0x3adcc357	0.0016842884
54	0xbb18d339	-0.0023319258
55	0xbe151bf5	-0.14561446
56	0xbf11c8e7	-0.5694718
57	0xbe90c320	-0.2827387
58	0xbd9203f0	-0.07129657
59	0xbe84e92c	-0.25959146
60	0xbe646742	-0.22305015
61	0x3d8998a2	0.067185655
62	0xbe8e5394	-0.2779814
63	0xbda50439	-0.08057446
64	0x3e2f75db	0.17134802
65	0xbec98464	-0.3935882
66	0x3e2c040e	0.16798422
67	0xbde4d57a	-0.1117353
68	0xbdcea0dd	-0.10089276
69	0xbf1da964	-0.61586595
70	0xbd3d5f28	-0.046233326
71	0xbe32ef18	-0.1747402
72	0xbd38e09b	-0.045136075
73	0x3e2f2239	0.17102899
74	0x3cc188c7	0.02362479
75	0x3e1e22b2	0.15442923
76	0xbc2c0465	-0.010499095
77	0x3d82c761	0.06385685
78	0xbc477477	-0.0121737635
79	0xbd96f6cd	-0.07371292
80	0x3da7ac5b	0.08187171
81	0xbde6fcc7	-0.11278682
82	0x3e01e21a	0.12683907
83	0xb996ad92	-0.0002873955
84	0x3e3c7c8b	0.18406884
85	0xbe1ebdca	-0.15502086
86	0x3e501751	0.20321395
87	0xbe1f10c4	-0.1553374
88	0xbebc6922	-0.3679896
89	0x3d521d46	0.05129745
90	0x3daa00b5	0.08300916
91	0x3e274b16	0.16337237
92	0xbe915af4	-0.28389704
93	0xbfa6f474	-1.3043351
94	0x3e08d07f	0.13360785
95	0xbe80fd13	-0.2519308
96	0xbe2e959e	-0.17049262
97	0x3e0ea5f1	0.13930489
98	0xbcb28f99	-0.021796988
99	0x3e31df5c	0.17370361
100	0xbea4e8d2	-0.32208878
101	0x3db71078	0.08938688
102	0xbeb72657	-0.35771438
103	0xbe8c9e10	-0.27464342
104	0x3d2119ba	0.039331175
105	0xbc083871	-0.008314238
106	0x3e6dfdf3	0.23241405
107	0x3e13960e	0.1441271
108	0xbe5a1504	-0.2129708
109	0xbde9eee5	-0.11422519
110	0xbe8a7da9	-0.27048996
111	0xbd53f402	-0.051746376
112	0xbdb7b910	-0.08970845
113	0xbc002e49	-0.007823535
114	0x3e6f8695	0.23391183
115	0xbd64679d	-0.055762876
116	0xbdbbac5b	-0.091637336
117	0x3a957662	0.0011403079
118	0xbcbab118	-0.022789523
119	0xbd77e744	-0.060523286
120	0x3e1abc54	0.15110904
121	0xbe95743b	-0.2919024
122	0xbccc5ee7	-0.024947597
123	0x3db409ca	0.087909296
124	0xbe50b099	-0.20379867
125	0x3e00b1a5	0.12567766
126	0x3db41bbe	0.08794354
127	0x3de22b22	0.11043383
128	0xbdab1907	-0.08354383
129	0xbe22f648	-0.15914261
130	0xbe2cb6f3	-0.16866665
131	0xbcc09147	-0.023506774
132	0xbd35f9e9	-0.044427786
133	0xbf8a77b5	-1.0817782
134	0x3ea6e5f7	0.32597324
135	0xbe5cfcfd	-0.21580882
136	0x3d8f000f	0.06982433
137	0x3d4fca54	0.050730065
138	0x3d847fb3	0.06469669
139	0x3e49ad3f	0.19694994
140	0x3e1c1d08	0.1524545
141	0x3db839dd	0.089954115
142	0x3eae936f	0.34096858
143	0xbe7c1572	-0.24617556
144	0xbdb7f470	-0.0898217
145	0xbe9f2540	-0.31083107
146	0x3d9987e4	0.07496622
147	0xbdf826cb	-0.12116774
148	0xbf961a00	-1.1726685
149	0x3cc14e4c	0.023596905
150	0xbf17be76	-0.59274995
151	0xbd76c362	-0.060244925
152	0xbe22dace	-0.1590378
153	0x3dbe7fdd	0.09301732
154	0x3d8ee3e1	0.06977058
155	0xbd90b268	-0.07065278
156	0x3ea686c1	0.32524684
157	0xbf8b1b4d	-1.0867707
158	0x3eb4eb0e	0.35335582
159	0xbe0e1350	-0.13874555
160	0xbebe65b7	-0.37186977
161	0x3e151668	0.14559329
162	0xbe39bd1c	-0.18138546
163	0xbcc95491	-0.024576457
164	0xbdd48860	-0.10377574
165	0xbbff4389	-0.0077900332
166	0xbf004dbd	-0.5011862
167	0xbe4a1e65	-0.19738157
168	0x3f34ce7e	0.7062758
169	0xbe30be63	-0.17260127
170	0xbcf14176	-0.02945016
171	0x3cb1e61b	0.021716168
172	0xbdeba9c6	-0.11506991
173	0xbda80f34	-0.08206025
174	0xbe84cdad	-0.25938168
175	0xbe0fe338	-0.14051521
176	0xbdc9f506	-0.09861188
177	0x3e7421a5	0.2384096
178	0x3f09eb6a	0.5387484
179	0x3d15667a	0.036474682
180	0xbe83b8a7	-0.25726816
181	0x3e5cffee	0.21582004
182	0xbdce8976	-0.10084812
183	0xbd7c978d	-0.061667968
184	0x3d4d9d40	0.050198793
185	0x3c204561	0.009782166
186	0x3e852d5b	0.26011166
187	0x3ef2f20e	0.47450298
188	0x3e403e24	0.18773705
189	0x3e6b4755	0.2297643
190	0xbef8cc84	-0.48593533
191	0x3ce8f29c	0.028435998
192	0x3e0e69e5	0.13907583
193	0xbcd1101f	-0.025520382
194	0x3e084b8e	0.13310072
195	0xbdc1b27c	-0.09457871
196	0x3d9262e7	0.071477704
197	0xbd5d62b5	-0.054049212
198	0x3cef17bf	0.029186128
199	0x3f2bc8a0	0.67103004
200	0x3da5bc2a	0.0809253
201	0x3c3b22d0	0.011421874
202	0xbe2d0e60	-0.16900015
203	0x3c7bf01c	0.015377071
204	0x3baf40b6	0.0053482903
205	0xbe916f49	-0.28405216
206	0x3e635d3d	0.22203536
207	0x3d9d33d1	0.07675899
208	0xbde2bcdf	-0.110711806
209	0xbe5a8fa2	-0.21343854
210	0xbe513eba	-0.20434085
211	0xbcf428ee	-0.029804673
212	0xbc360b78	-0.011111133
213	0xbe871d0c	-0.26389349
214	0x3d8237d0	0.06358302
215	0xbd2547e8	-0.04035178
216	0xbd758081	-0.059937004
217	0x3db67814	0.08909622
218	0xbec0deaa	-0.3766988
219	0x3d05ab94	0.032634333
220	0x3e6724cd	0.22572632
221	0xbe4c98c8	-0.19980156
222	0xbe051c70	-0.1299913
223	0x3e0f8929	0.14017166
224	0xbe486e2d	-0.19573279
225	0x3e4ed6e5	0.20199163
226	0x3c8409a2	0.016117875
227	0x3e61981e	0.22030684
228	0xbe3b7856	-0.18307623
229	0x3d380c58	0.044933647
230	0xbe052c3a	-0.13005152
231	0xbcf105da	-0.029421736
232	0x3da5e165	0.08099631
233	0xbc210083	-0.009826782
234	0x3eb2e0c5	0.3493711
235	0x3d0985a2	0.033574708
236	0xbdffdcb2	-0.12493266
237	0x3ead9707	0.33904287
238	0x3dada719	0.08479137
239	0xbe2ddb5d	-0.16978212
240	0x3d7a431f	0.061099168
241	0x3e1a498e	0.15067121
242	0x3df2070b	0.118177496
243	0x3e096910	0.13418984
244	0xbe3018c5	-0.17196949
245	0x3e62b33e	0.22138688
246	0xbe80cc89	-0.25156048
247	0xbd50edba	-0.051007964
248	0xbee5c564	-0.4487716
249	0xbe68b770	-0.22726226
250	0xbe3f2439	-0.18666162
251	0xbe88dda8	-0.2673161
252	0xbf2a3ccc	-0.6649902
253	0x3b411b44	0.0029465714
254	0x3d698f91	0.05702168
255	0x3db5f659	0.08884878

fc3.bias f4 [32]
0	0x3e8a0c60	0.26962566
1	0x3e32f38b	0.17475717
2	0xbe187f9e	-0.14892432
3	0x3e7b4ddf	0.24541424
4	0xbd971d3e	-0.073786244
5	0x3efe05a7	0.49613687
6	0x3e604c1d	0.21904035
7	0xbea06ec3	-0.31334504
8	0x3ee163b6	0.44021386
9	0xbebac9f3	-0.364822
10	0x3e926fec	0.28601015
11	0x3f11c2a2	0.5693761
12	0x3d0c8a83	0.034311783
13	0x3f260d2b	0.6486384
14	0x3f192e44	0.5983622
15	0x3eeb5a00	0.45967102
16	0xbdd2aa6e	-0.10286413
17	0x3f0b4fc7	0.54418606
18	0xbec79ae3	-0.38985357
19	0xbe3d4bd9	-0.18485965
20	0x3def4b4f	0.11684286
21	0x3eb779c5	0.3583509
22	0xbd6fdc1f	-0.058559533
23	0xbeb657da	-0.356139
24	0x3dfaa2dd	0.12238095
25	0x3e6ccdeb	0.23125426
26	0xbe6d04b7	-0.2314633
27	0xbef6b801	-0.4818726
28	0x3ebddd66	0.37082976
29	0x3f315228	0.69265985
30	0x3eb55229	0.35414246
31	0xbf2407b2	-0.6407424

fc_mu.weight f4 [2, 32]
0	0x3f1ab5fb	0.6043393
1	0x3fab2a3a	1.3372262
2	0xbf0478c2	-0.5174676
3	0xbe85b324	-0.26113236
4	0x3de7e91d	0.1132376
5	0xbf025f2a	-0.5092646
6	0xbd6c375b	-0.05766998
7	0x3e8fdebb	0.28099617
8	0x3f500c09	0.81268364
9	0x3f5aba7e	0.85440814
10	0xbeb92a42	-0.36165053
11	0xbf29ba3a	-0.66299784
12	0xbf00be2a	-0.5029017
13	0x3dee908f	0.11648666
14	0xbe771e14	-0.24132568
15	0x3f795083	0.97388476
16	0xbe1c9a6b	-0.15293281
17	0xbe236f7b	-0.15960495
18	0xbf8b8f2c	-1.0903068
19	0x3d189be7	0.037258055
20	0xbf46956c	-0.7757175
21	0xbd9f68e4	-0.07783678
22	0x3f37b64b	0.7176253
23	0x3e27b175	0.16376288
24	0xbf2af96c	-0.6678684
25	0xbd053e56	-0.03253015
26	0x3dd4d59a	0.10392304
27	0xbee0d999	-0.43916014
28	0x3f0f22a3	0.55912226
29	0xbdef0271	-0.116703875
30	0x3f7343ce	0.95025337
31	0x3e0a0a35	0.13480456
32	0x3faf95a3	1.371754
33	0x3ef92572	0.4866138
34	0x3e405785	0.18783386
35	0x3f80d5b2	1.0065215
36	0x3e9ecb64	0.3101455
37	0x3daa4952	0.08314766
38	0xbe3fc342	-0.18726829
39	0xbf195ed3	-0.59910315
40	0xbeedfd77	-0.4648244
41	0x3da21627	0.079143815
42	0x3dd3fb4a	0.10350664
43	0xbe899b56	-0.26876324
44	0x3e545faf	0.20739625
45	0x3f4387c8	0.7637906
46	0xbd3a8a0f	-0.04554182
47	0xbe96f6f8	-0.29485297
48	0xbea030dc	-0.31287277
49	0x3f0baea3	0.5456335
50	0x3fb0b8b4	1.3806367
51	0xbe61df07	-0.22057734
52	0xbe5522d4	-0.20814067
53	0x3ece86be	0.40337175
54	0xbd43e004	-0.04782106
55	0xbeb25014	-0.3482672
56	0x3fa9a08a	1.3252118
57	0x3ebd96db	0.37029156
58	0xbd623ddd	-0.05523478
59	0x3e370608	0.17873394
60	0xbfabd5b9	-1.3424598
61	0x3e294679	0.1653079
62	0xbf885899	-1.0652038
63	0xbe11d40d	-0.14241047

fc_mu.bias f4 [2]
0	0xbf18858d	-0.5957878
1	0x3da94581	0.0826521

fc_std.weight f4 [2, 32]
0	0xbe81fc56	-0.2538783
1	0xbda8b98b	-0.082385145
2	0x3c148ad7	0.009066305
3	0x3d9422e3	0.072332166
4	0x3e34d83d	0.17660613
5	0xbdb9a98e	-0.09065543
6	0xbe550afb	-0.2080497
7	0x3e168bc2	0.14701751
8	0x3d2509d9	0.040292595
9	0xbc8fb981	-0.01754451
10	0x3e981271	0.2970157
11	0x3ec1e9d3	0.37873706
12	0xbe13df2a	-0.14440599
13	0x3ce38e5c	0.027777843
14	0xbdcfd5f2	-0.10148229
15	0xbc99b5c8	-0.018763438
16	0x3d98cff8	0.07461542
17	0x3d1aa289	0.03775266
18	0x3e57c115	0.21069749
19	0xbdee1b9d	-0.116263606
20	0x3dd0a33c	0.101873845
21	0x3e50acbd	0.20378394
22	0xbe1341a4	-0.14380509
23	0x3d8086b4	0.062756926
24	0x3e33500e	0.17511007
25	0x3e0dd298	0.13849866
26	0xbe65f17a	-0.22455397
27	0xbccd6a37	-0.025075061
28	0xbdc9b446	-0.098488376
29	0xbecd26de	-0.40068716
30	0x3eb4cf18	0.3531425
31	0x3dbe0526	0.09278326
32	0x3d364c3a	0.04450629
33	0x3d0d301d	0.034469713
34	0x3d8a628a	0.06757076
35	0x3e798ca3	0.24370055
36	0x3e649e68	0.22326052
37	0x3cea14e4	0.028574415
38	0xbe959e91	-0.2922254
39	0x3d955fc5	0.07293657
40	0xbda59162	-0.0808437
41	0x3dc99a78	0.09843916
42	0xbdcd5b11	-0.10027135
43	0xbdb4a3fa	-0.088203385
44	0x3d0a098b	0.033700507
45	0x3ea62c27	0.3245556
46	0xbdfc95b0	-0.12333238
47	0xbcdb71d7	-0.026787682
48	0xbdc3b68a	-0.09556301
49	0x3dac9947	0.08427673
50	0x3e4f8b33	0.20267944
51	0xbe32bac4	-0.17454058
52	0x3cbed085	0.02329279
53	0xbcde98fb	-0.027172556
54	0xbd79cbba	-0.060985304
55	0xbd0f4b6a	-0.03498403
56	0xbd713959	-0.05889258
57	0xbc715963	-0.014730784
58	0xbda7bffd	-0.08190916
59	0x3dd70a46	0.105000064
60	0x3d65760e	0.05602079
61	0x3e12b70a	0.14327636
62	0xbc955efd	-0.01823377
63	0x3e189418	0.14900243

fc_std.bias f4 [2]
0	0xbf4f93ad	-0.8108471
1	0xbf34cc34	-0.7062409
