myrobot/src/SAC/saved_model/1207_2/sac_actor_1207_2_EP104.pt (torch, 47638 bytes, 8 tensors)

fc1.weight f4 [128, 4]
000000 89 77 56 be 36 08 85 be 89 a8 a9 bf 71 26 8c 3d
       -0.20944037 -0.25982827 -1.3254558 0.068432696
000010 a0 20 07 bf c3 11 d1 3d 08 7c 77 bf 82 68 af be
       -0.52784157 0.10208466 -0.9667363 -0.3425942
000020 ce aa 13 bf e2 48 96 3c c1 95 53 bf f6 7e 9c bd
       -0.576825 0.0183453 -0.8265038 -0.076414034
000030 58 06 0c bf 18 4f 52 3d e5 b5 5a 3d ea 42 71 be
       -0.5469718 0.05134496 0.053396124 -0.23560682
000040 1b 17 92 3f 0e 46 dc 3b 1c 72 af be 41 82 30 3c
       1.1413301 0.0067222184 -0.34266746 0.010773242
000050 e6 e7 3f 3e 27 b2 10 3f 10 1b 5c 3f d3 e1 08 bd
       0.18740806 0.5652184 0.85978794 -0.033418488
000060 e7 ec df 3e aa 3d 9a 3e 24 e5 87 bf 25 9d af bc
       0.4373543 0.3012517 -1.0616803 -0.021437237
000070 d7 e7 40 3f b6 22 54 3e 2f bb 64 3f e0 9f 70 3e
       0.7535376 0.20716366 0.8934812 0.23498487
000080 92 35 73 bf bd ba 81 be 60 7c 30 bc 04 b7 c4 3e
       -0.95003617 -0.25337783 -0.010771841 0.3842088
000090 d5 ab 9a be b5 58 44 3d 59 40 ee bf 42 24 88 3c
       -0.30209222 0.04793616 -1.8613387 0.016618852
0000a0 6a c3 96 3f ab 3c 8b 3d ef 8f b1 3d 4d 8c 9f be
       1.1778386 0.06798681 0.08670031 -0.31161729
0000b0 78 6c 7a 3f ea ae 2d be cb 96 b1 3e 4f 66 60 3e
       0.9782176 -0.16961256 0.34685358 0.21914028
0000c0 d3 d0 6e 3e c2 66 6b be bb f5 03 3f 60 27 cb 3b
       0.23321848 -0.22988418 0.5154683 0.006199762
0000d0 80 6e b3 3f 5c 65 4e bf 83 eb 12 3e 6b c1 d0 be
       1.4018097 -0.8062341 0.14347653 -0.40772566
0000e0 74 e2 6a 3e 81 7d 9c be 79 a6 7f 3d 2d 34 92 3e
       0.22937948 -0.30564502 0.06241462 0.28555432
0000f0 b2 79 d8 3d de 22 f4 3e 39 1b 85 3f 4a ae 5f bc
       0.105700865 0.47682852 1.0398933 -0.013652394
000100 6a 79 ec 3e 69 d7 75 3d b4 1f 51 3f 39 dd 24 3e
       0.46186382 0.060019884 0.81689 0.16100015
000110 82 31 35 3f 8f ec 1f 3e b9 1b 47 3e d3 f1 b3 3e
       0.7077867 0.15617584 0.19444169 0.35145435
000120 46 00 97 be 0a 30 e7 bd 8c 9e ae 3e 81 2f 46 3e
       -0.29492396 -0.112884596 0.34105337 0.19354059
000130 f7 21 21 bf c4 c2 1b 3e c1 f4 34 be e4 64 37 3d
       -0.6294245 0.15211016 -0.17671491 0.04477395
000140 ef 90 3e 3e 45 cb 1c bf 16 52 b6 3e c8 d3 b2 be
       0.18609975 -0.61247665 0.35609502 -0.349272
000150 18 1c d2 be dc 29 8a be 29 9f 87 3f e7 56 bf bb
       -0.4103706 -0.2698506 1.0595447 -0.005839217
000160 51 21 f1 3e e0 ac 9a 3d 21 80 78 be 9b 7a bb 3e
       0.4709573 0.075525045 -0.24267627 0.36616978
000170 01 b3 5d 3e 53 ba 37 3d 62 6d c1 be d4 66 8b 3e
       0.21650316 0.044855427 -0.37778765 0.2722689
000180 80 c7 a7 bd ea e2 7a be c0 52 0f 3e d5 e6 a0 3e
       -0.081923485 -0.24500623 0.1399641 0.3142611
000190 bf 70 40 bf 08 36 b7 3e 0d 99 b9 3d 1c d7 9f 3e
       -0.75172037 0.3578341 0.09062395 0.31218803
0001a0 08 63 9e 3f b7 ee f6 3d 4d 72 ef 3e 93 0e 77 be
       1.2373972 0.1205725 0.46766892 -0.24126653
0001b0 54 57 59 be 98 40 e6 be 35 84 9d bf 51 c1 98 3e
       -0.2122472 -0.44971156 -1.2305971 0.2983499
0001c0 e6 78 1e be 13 54 b6 be 9f d2 88 bf e0 fe 1a bd
       -0.15475807 -0.3561102 -1.0689276 -0.037840724
0001d0 fa 12 24 bd a0 d3 10 bf a8 94 78 3e 11 59 34 3e
       -0.04005716 -0.56572914 0.24275458 0.17612101
0001e0 ef fc 17 3f 45 6e 19 3f 40 09 5f 3e ed 63 ca bc
       0.5937032 0.5993388 0.21780872 -0.024705851
0001f0 3e 01 60 bf 1d a6 e6 be e7 ed b6 bf 7e 60 d4 3d
       -0.87501895 -0.4504861 -1.4291352 0.10369967
000200 02 fb 0f 3f ca 75 20 3e f7 40 7b bf 2f da 2e be
       0.5624238 0.15669933 -0.98146003 -0.17075418
000210 2c 88 3a bd 7a 89 6e 3e 32 bf dd 3e 8f 84 50 3e
       -0.04554002 0.2329463 0.43309933 0.20363067
000220 55 ef 0a 3e cb df a7 3e c9 0e 80 3d 77 3f 6a be
       0.1356786 0.32787928 0.0625282 -0.22875772
000230 1c f0 7f 3e 06 18 c9 3c 58 0e 3c bf 20 af 81 be
       0.24993938 0.024547588 -0.73459387 -0.25328922
000240 d2 18 42 be ba 7b 8a be bc da ec 3e 67 1b 8d be
       -0.1895478 -0.2704752 0.4626063 -0.2755997
000250 67 ac 75 bf bb 00 da be 74 34 a3 bf 9e c4 30 3e
       -0.9596619 -0.42578682 -1.2750382 0.17262504
000260 cb ac 4b 3f de b7 cb be b5 69 27 3e b6 76 8d 3d
       0.79560536 -0.39788717 0.16348918 0.06907408
000270 d9 d6 39 3e f4 7e 42 be b4 d2 6f 3f c3 33 e6 bb
       0.18148364 -0.18993741 0.9368088 -0.0070252134
000280 8c 2d 81 3e dd 5c 63 3e 1b 81 87 3f d9 2a ec ba
       0.25230062 0.22203393 1.0586275 -0.0018018141
000290 21 d9 08 3e 5f 74 36 3e 20 5f ed be dd 99 19 be
       0.13364078 0.1781783 -0.46361637 -0.150001
0002a0 df 19 eb 3e b7 0f 91 be cf 89 fc be bb a4 7b be
       0.45918176 -0.28332302 -0.4932389 -0.24574558
0002b0 64 96 d3 3e 94 19 6a 3e ec 2d 54 3f da cb 3e be
       0.41325676 0.2286132 0.8288257 -0.1863245
0002c0 6f 87 60 3f c3 5e 69 be cd 2c 37 bf dc 8f 44 3e
       0.87706655 -0.22790055 -0.71552736 0.19195503
0002d0 6f d8 77 be d1 8b 89 be 98 5a 61 3f 24 f4 fe 3d
       -0.24203657 -0.26864484 0.8802886 0.1244891
0002e0 66 5f 73 3d 37 28 9e 3d 01 4a 85 bf fe 77 b2 be
       0.05941715 0.07722514 -1.0413209 -0.34857172
0002f0 52 0a 3d bf 7f 47 d9 3e ab df a7 bf 52 7c d0 3c
       -0.7384387 0.4243736 -1.3115133 0.025449906
000300 84 74 b0 3e dc 15 f0 3e 75 12 f8 3e e1 9e b2 bb
       0.34463894 0.46891677 0.48451582 -0.0054510687
000310 44 04 08 bf 79 07 ea 3d 73 50 fd 3c e5 8b b3 be
       -0.5313151 0.114272065 0.03092215 -0.3506767
000320 7e 94 33 bf 85 a3 8e be a8 17 72 bf 7a 06 43 3e
       -0.70148456 -0.2785913 -0.94567347 0.1904544
000330 f8 26 10 be 45 0f 59 be 2d d1 10 3f 80 a6 c4 be
       -0.14077365 -0.21197231 0.56569177 -0.3840828
000340 3d d0 ad 3e 53 b7 4b 3d 00 65 6f 3f 2c 71 a0 3d
       0.33947936 0.04973538 0.9351349 0.07834086
000350 0a 0c ec be 12 c2 42 3e 60 56 8a be 45 79 b0 3d
       -0.46102935 0.19019344 -0.27019024 0.0861688
000360 54 06 7d 3f 3a 32 80 bd 86 e4 4c 3e 8a 1e 05 bc
       0.9883778 -0.0625958 0.2000905 -0.008124957
000370 80 da a0 bf d4 ca f9 3d 23 9e ae 3e 2a 99 a1 3d
       -1.2566681 0.121968895 0.34105024 0.07890542
000380 05 4e ca bd f3 37 28 3d c2 22 4e 3f 89 31 fa 3c
       -0.09878162 0.041068982 0.80521786 0.030541198
000390 bd 0c a0 3f b3 4f 51 3d 48 fd 17 3f e9 e4 7e 3e
       1.2503887 0.051101398 0.5937085 0.2489201
0003a0 fb 03 3b 3f 13 22 13 3f 6c 6b 4e bf f8 5f 08 3c
       0.7305295 0.5747387 -0.8063266 0.008323662
0003b0 62 5a 20 bf 73 a7 ce 3e 95 56 9c bf d8 2d 46 bc
       -0.62637913 0.4036213 -1.2213923 -0.012095891
0003c0 a7 8d be bd e5 73 34 3e 8e 1e 2b bf 39 7d a3 be
       -0.09304362 0.17622335 -0.668435 -0.31931475
0003d0 cf 02 29 3f 24 3d 10 be d8 de 96 3e 68 26 82 3d
       0.6601991 -0.14085823 0.2946689 0.06354982
0003e0 8c 14 8d 3d 0c cd e3 3e c4 1a f4 be 5d e5 e1 be
       0.06888685 0.44492376 -0.4767667 -0.44120303
0003f0 98 fa 82 be e4 c5 65 3e 42 f2 0d 3f 00 89 f1 be
       -0.25581813 0.2243877 0.5544778 -0.47174835

fc1.bias f4 [128]
000000 42 89 1c bf ce 21 70 3e 04 ac 39 3f 3a de d7 be
       -0.6114694 0.23450395 0.725281 -0.42161733
000010 48 6b a0 3f 39 65 96 bd 9b 6a 34 3e 28 56 8f 3f
       1.253274 -0.073435254 0.17618792 1.1198168
000020 85 46 ce bf ae a0 7a 3e b3 47 04 bf 01 76 ab 3f
       -1.6115271 0.24475357 -0.51671904 1.3395387
000030 55 ff 74 3f cf a7 01 3e 5b f3 f5 3d 6e 35 86 3f
       0.95702106 0.1266167 0.12009307 1.0485055
000040 94 cf 00 bf d6 49 63 3f f1 f0 93 bf e7 15 d2 bf
       -0.5031674 0.8878454 -1.1557904 -1.6412934
000050 5a 87 75 bd 98 bc bc 3e 7d 8b 8b 3f c9 0b 8a 3e
       -0.059943534 0.36862636 1.0901943 0.26962116
000060 a9 ea 3f bf 79 1f a0 bf 05 06 a3 be 3d 6b 11 3f
       -0.7496744 -1.2509605 -0.3184053 0.5680426
000070 14 41 84 bf 05 bf 94 3f df 8e a6 be f0 41 26 bf
       -1.033236 1.1620795 -0.32530877 -0.6494436
000080 0a 7e e6 3e 8e 69 c0 3f 5e ff 8d 3f 11 f5 75 be
       0.45018035 1.5032213 1.1093557 -0.24019267
000090 6f e1 19 3f 88 2c 65 be 1c 93 e5 be 6c 77 18 bf
       0.6010961 -0.22380269 -0.44838798 -0.59557223
0000a0 71 ca 52 be 96 92 8f be bc 65 39 3d 44 66 39 3f
       -0.20585038 -0.28041524 0.045263037 0.7242167
0000b0 31 4c 6c bf cd 33 8f bf bd 7c 0e 3f dd 5f 4f bf
       -0.9230376 -1.1187683 0.55659086 -0.8100565
0000c0 6b 62 96 3f 72 46 14 be 7a 6d c8 be fd d9 b5 3e
       1.1748785 -0.14479998 -0.39146024 0.35517874
0000d0 6a 43 e0 be 7d 8f d5 bf 9b f8 d8 bd 8b bc 4e bf
       -0.43801433 -1.6684414 -0.10594293 -0.80756444
0000e0 69 35 26 3f cd 25 39 3f 4d 70 8c be ca c7 4c 3f
       0.6492525 0.72323304 -0.2742943 0.79992354
0000f0 23 79 8f be f4 98 94 bf 8a 83 28 3f 33 4d f4 be
       -0.28022107 -1.1609178 0.6582571 -0.47715148
000100 33 09 cc be b9 48 41 be 21 69 be 3e 56 0a 03 bf
       -0.39850768 -0.18875398 0.37189582 -0.51187646
000110 95 4b 61 be 06 95 32 be ec c0 33 3f 91 31 e9 3f
       -0.22001489 -0.1743966 0.7021625 1.8218251
000120 23 38 0d 3c 2f fc 13 bf 26 99 a2 3e 82 3c 5b be
       0.008619341 -0.57806677 0.31757468 -0.214098
000130 16 26 06 3e 19 03 8e 3e 7e 45 20 3f 20 f5 12 be
       0.13100466 0.27736738 0.62606037 -0.1435132
000140 7f 4c 91 3e 96 17 20 bf 5a 59 8e 3f c9 0c ac 3f
       0.28378674 -0.6253599 1.1121018 1.3441402
000150 6f 70 97 3e b8 e6 8c bd c2 d7 80 3d 42 63 2c 3f
       0.29577968 -0.068799436 0.062911525 0.67338955
000160 06 a9 51 be 3b 29 21 3f a7 64 1b bf 60 4d 87 3e
       -0.20474634 0.6295354 -0.6070046 0.2642622
000170 93 05 07 bf 68 0b 82 3f a5 6b 0b bf b1 50 4b 3d
       -0.5274288 1.0159731 -0.5446113 0.0496375
000180 45 1a ec be 85 2a 78 bf b7 bf 7e bf 01 7e a8 be
       -0.46113792 -0.9693988 -0.99511284 -0.32908633
000190 0a a6 42 3d 89 75 0d bf 66 94 97 bf 28 89 6c bf
       0.04752163 -0.5525747 -1.1842163 -0.92396784
0001a0 95 21 ab bd a6 48 23 bf 50 29 af bf 69 ae fa be
       -0.08356015 -0.6378273 -1.3684483 -0.4896119
0001b0 57 66 0f bf 1f 35 5c 3e 14 7e 97 bf a1 59 22 3f
       -0.56015533 0.21504639 -1.1835351 0.6341801
0001c0 88 6a 13 3d 8c 9f c4 bf 41 bc 14 3e fb d1 df 3c
       0.035990268 -1.536119 0.14524938 0.027321806
0001d0 ca d6 f3 3e c2 5d b9 be 85 7a 9d bd 05 0e 1c bf
       0.4762481 -0.36204344 -0.07689384 -0.6095889
0001e0 65 a3 c6 3d 32 b1 e3 be c2 e1 52 3e ca 29 17 be
       0.09699134 -0.44471127 0.20593932 -0.14762035
0001f0 e1 fe 1b bf 08 54 85 3e c2 a0 2e be e7 db 34 bf
       -0.6093579 0.26040673 -0.17053512 -0.70648044

fc2.weight f4 [64, 128]
000000 ae 34 a3 bd d4 25 cb 3e 82 21 bd 3e a2 35 81 be
       -0.07969032 0.39677298 0.36939627 -0.2523623
000010 36 f2 eb 3e 71 c6 90 be a6 f0 96 3e f8 32 b4 3b
       0.4608323 -0.282764 0.29480475 0.00549924
000020 f0 18 50 bd c1 3c 01 3e 3d 13 dd 3e 49 46 31 3d
       -0.050805032 0.12620832 0.4317874 0.04327992
000030 6a de a8 3e 6f ac 8a 3f a4 5f 4f 3d 8a 8a ee bd
       0.32982188 1.0833873 0.05062832 -0.11647518
000040 60 58 94 bd 03 65 94 bd d9 9f 85 bd 9f 33 86 3c
       -0.07243419 -0.07245829 -0.06524629 0.016382037
000050 52 3c 30 3e 2e 42 15 3e db cd 24 bd 5e 73 bc 3d
       0.1721051 0.14576027 -0.04023538 0.09201692
000060 e8 7f b0 3c 0a 5a 9e bd 5d d2 3b 3e 35 76 ad 3d
       0.021545365 -0.07732017 0.18341966 0.08469812
000070 08 57 20 3b 4d c4 03 bd 44 3a 9e 3d 1f 90 12 bd
       0.0024465937 -0.03216963 0.07725957 -0.035781976
000080 b5 65 be bb e7 93 c8 bb 00 38 5d bd 2d 09 b5 3d
       -0.0058104643 -0.006121147 -0.054008484 0.08839641
000090 0a 6a d4 3d 31 4b d3 bd f4 f5 28 3e 66 ab 45 3e
       0.10371788 -0.10317076 0.16500074 0.19303665
0000a0 96 18 56 be 6e ae 23 3e 0d eb 1a 3d 0a 07 85 3d
       -0.20907816 0.15984508 0.03782182 0.06495483
0000b0 46 57 1e 3c ec ae 39 3d 8c cc 5a 3e fc c9 b2 3d
       0.009664362 0.045332834 0.21367091 0.08729932
0000c0 26 3f b8 3c 58 2b fb bd 76 a1 99 bd cb e7 8d bd
       0.022491049 -0.122641265 -0.07501499 -0.069289766
0000d0 61 e8 70 bd 5a ab 06 3d 45 33 a3 3e 7b d5 39 be
       -0.058815364 0.032878257 0.31875053 -0.18147843
0000e0 d0 f4 dc bc 14 06 15 3c 2f 6f 54 3e 0c 1e a5 3e
       -0.026972204 0.009095687 0.20745538 0.32249486
0000f0 72 06 6c 3e 0d 93 82 3d 6f 2b 3b bd 5d 8d a3 bd
       0.23049334 0.06375704 -0.04569572 -0.07985947
000100 db 18 b0 3e 94 55 aa 3e 34 a9 7d bc 4e 9f 63 bd
       0.34393963 0.33268416 -0.015482236 -0.055571847
000110 84 7c 18 3d 9b 6e 5d bc 9f 94 f7 3c e7 e6 db 3d
       0.037228122 -0.01351514 0.030222235 0.107374005
000120 ea f1 b0 3e 5b f0 c3 bd 13 79 9e bd ab 0c 79 3e
       0.34559566 -0.095673285 -0.07737937 0.24321239
000130 3c f6 9e 3e 32 a3 41 be 1e 08 7d 3d 08 71 ed 3d
       0.31047237 -0.1890991 0.06177532 0.115938246
000140 66 b3 e6 bd 2c e5 8c bd 84 21 f9 bd 53 00 4d 3e
       -0.11264686 -0.068796486 -0.12164596 0.20019655
000150 c7 53 39 3d 88 99 62 3d a0 4a 3d 3e c7 fc 82 3b
       0.045245912 0.0553222 0.18485498 0.0039974186
000160 d3 2d 8b bc 6d 5f 5c 3c 01 44 55 3e 72 f6 c4 39
       -0.016989624 0.013450486 0.20826723 0.0003756765
000170 16 bd 27 ba 58 b6 86 3c 99 51 1f be 1c 17 65 bd
       -0.00063987204 0.01644437 -0.15558471 -0.055930242
000180 56 a1 1c 3e 7e 0b b1 3d 81 b0 81 bd e2 27 69 3e
       0.1529592 0.0864477 -0.063324936 0.2276912
000190 c2 b7 98 3d 14 ab bf bc d8 19 65 be ab 8a 43 3d
       0.07456924 -0.023397006 -0.2237314 0.047739666
0001a0 92 d2 99 3e 8d ba cb bd a4 c9 34 3c d1 25 2f 3d
       0.30043465 -0.09947691 0.011034403 0.042760674
0001b0 6f 96 1d bc 9b f2 a0 38 9c 73 4d bd a8 d9 eb 3c
       -0.009618386 7.674583e-05 -0.05015908 0.02879031
0001c0 8d 3e 33 bd 2e 06 23 be 96 f1 ce 3d 53 ca 36 3e
       -0.043760825 -0.15920326 0.101046726 0.17850618
0001d0 fc 99 c5 bd a4 2e ff bd 99 4e d1 bd ed 9c e6 bd
       -0.09648511 -0.12460068 -0.102200694 -0.112604
0001e0 26 5d c0 3c 38 2a 59 ba 56 19 b9 3e a1 12 39 be
       0.023481917 -0.0008284184 0.36152142 -0.18073513
0001f0 f4 71 18 bc 65 71 e6 bd ea 0b 81 3e 30 0b ca bc
       -0.009304512 -0.11252097 0.25204402 -0.024663538
000200 98 89 68 3c 57 d4 91 3e d4 4d bb 3e 0a f5 c0 bd
       0.014192961 0.28482315 0.36582816 -0.094217375
000210 32 6b 00 3e 03 30 d9 bc bd 46 e0 3d 2f 27 88 3d
       0.12540892 -0.026512152 0.10950992 0.06648099
000220 7f 80 18 be 98 47 90 3e dd 8c f6 3d 31 87 a9 3d
       -0.14892767 0.28179622 0.12038586 0.08277739
000230 77 3d cd bc 9a d5 94 3e f0 9a d9 3c 5a 56 f8 bc
       -0.025053723 0.29069215 0.026563138 -0.030314613
000240 87 76 aa bb 77 35 25 3d ab 12 a3 bd aa 0a 9c bd
       -0.005202118 0.04033419 -0.07962545 -0.076192215
000250 b5 ee 8d 3d b1 e2 8f 3d 44 c4 85 3d be dc ed 3d
       0.069302954 0.0702566 0.06531575 0.11614369
000260 a2 28 0a bd db 7f ed bd 32 ef 88 bb b1 50 ba bd
       -0.033730157 -0.11596652 -0.004178905 -0.09097422
000270 d9 f3 e8 3c 60 2a 83 bc 48 8b cf 3b 7b 7f 34 ba
       0.028436588 -0.016011417 0.0063337423 -0.0006885451
000280 94 63 65 3e 25 b2 9a bc a7 b1 dc 3d 9f 72 49 3e
       0.22401267 -0.018883774 0.10776072 0.1967263
000290 11 eb 89 3e 35 d9 60 bd ef 39 1c be 70 a1 b1 bd
       0.26937154 -0.054894645 -0.15256475 -0.0867337
0002a0 1f 15 8b be 01 e3 86 bc 2c 8f 50 3d 89 55 26 bd
       -0.27164552 -0.016465666 0.05091779 -0.040608916
0002b0 fa 2f 9c bd 28 b1 1e be 83 da d7 3e b0 44 4b 3e
       -0.07626338 -0.15497267 0.421589 0.19850421
0002c0 6a 9c 20 3c 0e ae 8e bd a7 6f bd bd 1f d4 81 3d
       0.009802917 -0.06966792 -0.092498116 0.06339287
0002d0 25 c4 3e be 37 ac de bd e8 9f dc 3d 26 ce b3 bd
       -0.1862951 -0.10872691 0.10772687 -0.08779554
0002e0 e2 71 05 be 33 a3 c6 3a 7d 58 c1 3d 5a af 33 3e
       -0.13031724 0.0015154838 0.09440706 0.1754736
0002f0 1c 59 61 3d db d7 07 3d 83 b4 7f 3c 42 fb c8 be
       0.055016622 0.03316484 0.015607002 -0.39254194
000300 b6 f8 4b 3e f7 00 77 bd d9 72 be 3d b3 df 0f bf
       0.19919094 -0.060303655 0.09299249 -0.5620071
000310 ca 37 cc bc bc 6d c6 3d 49 e6 91 bc 9a bf c7 3c
       -0.024928946 0.09688899 -0.017810004 0.024383355
000320 e4 a5 8d 3e 0f 4f 72 bc 37 1e f0 bd 05 e8 43 3d
       0.27665627 -0.014789357 -0.11724513 0.047828693
000330 e4 41 89 3e 84 a6 7a bc 27 ee e9 3c 34 23 45 bc
       0.26808083 -0.0152984895 0.028555943 -0.012032319
000340 35 b3 70 bd 03 5f 3e 3e 45 1c 51 3d e0 0c 1c 3e
       -0.058764655 0.18590932 0.05105235 0.15239286
000350 6b d6 d7 bd b2 82 f4 3d 23 2c 10 3e 87 89 a7 3e
       -0.10538944 0.11938991 0.14079337 0.32722113
000360 f7 85 a6 bd 3c 8e 2f 3e 2a 32 35 3d 7d 1c 02 3e
       -0.081310205 0.17144102 0.044237293 0.1270618
000370 1e 45 27 bb b5 a1 b5 bc e4 16 7a bd 26 76 c8 3c
       -0.0025523375 -0.022171834 -0.061056986 0.0244704
000380 05 23 8c 3c 04 b8 df bc df 09 e7 bd b7 8f ed bd
       0.017106542 -0.027309425 -0.1128118 -0.11599677
000390 7d e8 b4 3c 4a 09 92 bb 33 98 4e be 09 9b cf 3d
       0.022083515 -0.0044566737 -0.20175247 0.101369925
0003a0 a2 4f 69 3e 9d 3c 8a be 46 61 4c bd fc 49 37 bd
       0.22784284 -0.2699937 -0.049897455 -0.04474829
0003b0 0a 3f 12 be 42 aa da bd 74 5c 2d 3b e4 6b 77 bd
       -0.1428186 -0.10677005 0.0026452811 -0.060405627
0003c0 f2 19 d4 bd 5c 25 be bc 2d fe 87 3b 98 e4 23 3e
       -0.10356511 -0.023211174 0.004150173 0.1600517
0003d0 1a 95 cb 3c 45 20 fd bc c9 a3 97 bd c9 46 e8 3d
       0.02485137 -0.030899176 -0.074042864 0.11341626
0003e0 dd 87 e9 bd 8b 49 3a 3f 2d 10 59 3e 00 3e d4 3d
       -0.11402867 0.7276847 0.21197577 0.10363388
0003f0 4f c2 fe bc f0 d8 b3 bd e8 f7 51 3d 81 ac b1 bd
       -0.031098513 -0.08781612 0.051261812 -0.08675481

fc2.bias f4 [64]
000000 30 ba c3 3d 32 9d 13 3e ee 7d 3e be c3 6d e5 3d
       0.09556997 0.14415434 -0.18602726 0.11202576
000010 1c 54 b2 be 64 77 52 be b1 74 59 bf b7 d8 82 3e
       -0.34829795 -0.20553356 -0.8494368 0.25555965
000020 e5 07 f8 3e e4 3b 00 bf 36 51 3b be 65 5d e6 be
       0.48443523 -0.50091386 -0.18292698 -0.4499313
000030 a6 6d 82 bf c5 96 65 bf af 29 27 be ab 06 0b 3e
       -1.0189712 -0.8968318 -0.16324495 0.13576762
000040 3a 40 e0 3d 37 25 74 3f 0c 43 13 3f 02 f4 5e bf
       0.1094975 0.95369285 0.5752418 -0.87091076
000050 fa dd 28 3f 79 fa 74 bf 94 33 34 3e e4 16 cb 3e
       0.6596371 -0.9569469 0.175978 0.39665902
000060 ef b9 af 3e b5 61 3f 3f 0f 61 90 3e bb 39 04 3e
       0.34321544 0.74758464 0.2819905 0.12912647
000070 db e1 44 3f 53 07 0b bf cb d0 71 3f f4 fb 0d be
       0.7690713 -0.5430805 0.9445922 -0.13865644
000080 69 43 f4 3d 72 0c 77 3f df 10 3e 3f cf 64 bc 3e
       0.1192692 0.96503365 0.74244493 0.3679566
000090 2f 77 22 3f 0d 8e 17 3d b0 0f cf 3e fd 4c 8c 3e
       0.6346311 0.037000705 0.40441656 0.27402487
0000a0 0a ad b9 3c cd 1e 9f 3d 2e b2 34 bf 51 b1 99 bd
       0.02266552 0.07769547 -0.7058438 -0.075045235
0000b0 2d 23 08 3c 23 c3 07 3e 85 c9 28 3f 04 16 b2 3e
       0.008309168 0.13258033 0.65932494 0.34782422
0000c0 f2 2b 61 bf c9 81 ec 3e a2 77 27 bf 4c f7 3b 3e
       -0.8795768 0.46192768 -0.6541692 0.18356055
0000d0 cb 6f 8f 3e 39 4c 63 3f da 8c 8b 3e aa ee 5c 3e
       0.2801498 0.8878818 0.272559 0.21575418
0000e0 ed 35 b8 3e ed b4 4c 3e fd 36 e6 bd 75 23 a9 3e
       0.35978642 0.19990893 -0.11240957 0.33034864
0000f0 62 84 86 3e 50 96 06 3f 5e 93 b2 be 48 0c 27 3e
       0.26272875 0.5257311 -0.34878057 0.16313279

fc3.weight f4 [32, 64]
000000 f1 49 8a bd fa 85 96 bc 3b d5 32 3e 78 7c 0c bd
       -0.067523845 -0.018374432 0.17464153 -0.03429839
000010 20 04 be 3e 1a 4c 0c be 54 57 b1 be f3 64 43 bd
       0.37112522 -0.13700905 -0.3463694 -0.047703695
000020 66 d4 4e 3e 80 2c 2c bb 50 05 81 bc c9 92 5e 3e
       0.20198211 -0.0026271641 -0.015749604 0.21735682
000030 6f 4b ac bf e0 d8 67 be ad 31 55 3e eb 92 49 be
       -1.346052 -0.22641325 0.20819731 -0.19684951
000040 86 17 d1 3d 9b 66 15 3e 0f 75 97 3d fc 41 38 3d
       0.10209565 0.14589922 0.07395374 0.044984803
000050 1e a4 5c 3d 54 0e 17 be c4 3a a7 3d 98 df 42 bd
       0.05386745 -0.1475156 0.081655055 -0.047576517
000060 fc 21 35 3d 95 a7 f8 bc f0 51 eb bd 88 19 8b 3d
       0.044221863 -0.030353347 -0.11490238 0.06791979
000070 31 b4 26 3e 28 23 bb bd 98 e1 1e 3e 9b 36 73 be
       0.16279675 -0.09137565 0.15515745 -0.23751299
000080 d7 10 28 be 28 b4 bf 3d 45 60 61 be da 86 ca 3b
       -0.16412674 0.09360534 -0.2200938 0.0061806263
000090 62 41 c5 bd 85 12 b3 3c b5 05 bb bd 8f 4c 28 3e
       -0.096316114 0.021859417 -0.09131948 0.16435455
0000a0 11 82 2a be c0 e4 93 bd 25 ba 90 bf d0 c5 eb bd
       -0.16651179 -0.07221365 -1.1306807 -0.11512339
0000b0 b1 05 0f be 31 7d 15 be 16 80 bd bd cd b8 31 be
       -0.13967015 -0.14598538 -0.09252946 -0.17355652
0000c0 f2 8f b0 bf 5f a9 98 3d d0 a4 04 bc a8 c0 11 be
       -1.3793929 0.0745418 -0.008095935 -0.14233649
0000d0 2f 5c 2f 3d f6 3a 0a 3e d7 cf 52 3e fb d9 02 bf
       0.042812523 0.13499054 0.20587097 -0.5111386
0000e0 84 24 ae be 88 1d d5 bd 68 f0 1a 3d 46 44 6d be
       -0.34012234 -0.10406023 0.037826926 -0.23170575
0000f0 79 c1 74 3e ce c1 70 3d 6a 97 a4 3d d0 08 12 3e
       0.23901929 0.058778577 0.080366924 0.14261174
000100 80 36 0b 3e 0f d8 01 be 79 b7 0a be 85 b4 92 3c
       0.13595009 -0.12680076 -0.13546552 0.017908344
000110 a3 97 1a be 20 ef 63 3e c2 a6 c0 be 76 d3 8f 3d
       -0.15096907 0.22259188 -0.37627226 0.07022755
000120 f5 6f 85 bd 35 28 78 bd 59 00 b1 bd d7 f3 e8 3d
       -0.06515495 -0.06058522 -0.086426444 0.11374634
000130 3b 68 81 bf 4a 3d 92 bf 54 ba 3e be 4a a3 b5 3d
       -1.0109934 -1.1424954 -0.18625766 0.088690355
000140 ab c5 2c bd e8 9c 37 3e a9 fa 99 3e 10 c1 31 be
       -0.0421807 0.17930949 0.3007405 -0.17358804
000150 00 09 83 3b 27 71 31 be c1 dd 72 3d 15 b5 22 3e
       0.0039988756 -0.1732832 0.059293512 0.1588939
000160 99 9d 23 be f3 93 b2 3e 86 f7 8b be 65 11 34 3e
       -0.15978087 0.348785 -0.27337283 0.1758476
000170 f7 27 94 bd 5d f8 e2 bd 4d b4 51 3e ef e2 bb 3d
       -0.07234185 -0.11082528 0.20478936 0.091741435
000180 f8 e0 e2 3c 03 92 d2 3d a5 5c 0a 3f 48 f9 f0 3a
       0.027695164 0.10281756 0.54047614 0.0018384838
000190 23 61 f7 3d ee 9b 8d be 0d 6f 23 3e 6f 90 47 bd
       0.12079074 -0.27658027 0.15960331 -0.048721727
0001a0 7d 7f 1c 3d a9 26 56 3d c8 a5 c1 be f0 dd 1e bd
       0.03820752 0.052282963 -0.37821794 -0.038785875
0001b0 41 06 47 3e 71 5a 45 3c 07 b5 f8 bc a3 0b f2 3d
       0.1943598 0.012045489 -0.030359758 0.11818626
0001c0 8b af a7 bf 54 a1 41 3c 42 6e 2c be 3d f3 82 be
       -1.3100446 0.011818249 -0.16838935 -0.255762
0001d0 fe 8e b0 bd 45 9c c1 3e d9 69 8a be a1 8d ea 3e
       -0.086210236 0.37814537 -0.2703388 0.4581118
0001e0 8c e6 65 3e ed 07 23 be f1 c1 c1 bd 5f b8 27 3e
       0.22451228 -0.15920992 -0.094608195 0.16378926
0001f0 1d 6d 34 3e a9 cf e8 3c fc 1b 51 be c0 47 3f bd
       0.17619748 0.028419333 -0.20420831 -0.046699286
000200 e3 e0 fc bd d4 64 31 3e 59 f2 4a 3d 96 cf 4a 3d
       -0.12347581 0.17323619 0.049547527 0.049514376
000210 19 79 c1 3b 33 e9 98 bd 25 08 94 be 66 aa 3c 3d
       0.0059043285 -0.07466354 -0.28912464 0.046060942
000220 6d b4 93 bc 65 8b 9a bd 78 4d 23 3d 85 3c f5 ba
       -0.01803037 -0.07546119 0.0398688 -0.0018710053
000230 cc cf fb be bd 27 15 be f1 41 09 3d bd 26 1d be
       -0.49181974 -0.1456594 0.033510152 -0.15346809
000240 39 41 73 bd fe fc af 3d a4 33 a8 3d 20 f6 2b 3d
       -0.059388373 0.08593176 0.08212975 0.04198277
000250 e8 65 67 be 09 ed 04 be df fc 4f 3c 88 1e 15 bd
       -0.22597468 -0.12981047 0.0126945665 -0.03640607
000260 91 78 fd bd 08 02 68 3e ca 7e ec 3e 55 c5 00 3e
       -0.12376512 0.22657025 0.46190482 0.12575276
000270 19 8e 77 bf 5c 21 a1 3d b0 e6 15 bd 96 51 cd 3d
       -0.967012 0.07867691 -0.036596954 0.10025327
000280 14 dc 28 3e 07 91 1d be 93 de c1 3c 55 3e 84 3c
       0.16490203 -0.15387355 0.023665702 0.016143003
000290 bf 6f 3e 3b bb a2 0c be b5 7e e9 3d 79 5b 12 3d
       0.0029058305 -0.13733952 0.114011206 0.035731766
0002a0 3f a6 88 3d c5 a9 34 3e 41 ec 2d be 67 2f 8e 3b
       0.06672334 0.17642887 -0.16984655 0.004339147
0002b0 8d 21 76 be 19 3b 33 bd 61 f0 97 be f4 d8 5d bd
       -0.24036236 -0.04375753 -0.29675582 -0.05416198
0002c0 e0 72 0e bf 52 a6 f9 be 4f 30 62 bc 36 45 c2 3e
       -0.55644035 -0.48759705 -0.013805463 0.3794343
0002d0 e6 b9 0b be 72 24 14 3e 09 bc b1 be cb 64 ce 3d
       -0.13645133 0.14467028 -0.34713772 0.100778185
0002e0 b6 24 95 3e 02 35 1c 3e 91 2e 01 bd 42 80 17 3d
       0.2912957 0.15254596 -0.03153855 0.03698755
0002f0 ea 1c 0b 3d 1c 62 8c bf 9f d4 8f 38 ff 7e a6 3d
       0.03396312 -1.0967441 6.858375e-05 0.08129691
000300 12 eb 6a bf 50 43 d2 bd d1 7b 44 3d 82 2f c4 3c
       -0.9176494 -0.10266745 0.047969643 0.023948435
000310 d4 9e 04 bc 5a 96 ae 3d a6 0d 3f 3d 05 4a e2 bd
       -0.008094508 0.08524771 0.046643876 -0.11049274
000320 4d 5b c3 3d 86 61 70 be f9 a7 a7 3d cb 2d 5c 3c
       0.095388986 -0.23474702 0.08186335 0.013438652
000330 47 2f c7 bd e1 68 4d 3d d4 5b 12 3e c9 ce cc bc
       -0.09725814 0.05014885 0.14292842 -0.025000947
000340 27 f1 01 ba 21 3d 84 3c 0c 64 a0 3d 48 c0 2e be
       -0.0004956894 0.01614243 0.078315824 -0.17065537
000350 35 48 43 3d 36 93 fb 3c 4a 93 f2 be 85 6b 12 be
       0.047676284 0.030709844 -0.47377998 -0.14298828
000360 c1 76 20 3e a0 85 d6 3d b5 90 0c 3f c1 1a da 3d
       0.15670301 0.10474706 0.54908305 0.10649634
000370 a6 a2 04 be 15 f6 89 bc b2 b5 64 3c b3 e6 a2 3d
       -0.1295267 -0.016840974 0.013959335 0.07954159
000380 4c cf f5 3d 82 16 40 be a3 0e d8 be 29 82 9b 3d
       0.12002429 -0.18758586 -0.42198667 0.075931855
000390 ad dd fa be 1a 59 04 3e f1 14 46 be 40 ac ed 39
       -0.4899725 0.12924615 -0.19343926 0.000453325
0003a0 86 18 24 3e 8f d8 81 3d a6 dd c0 bd dd 40 87 3d
       0.1602498 0.063401334 -0.09417276 0.066041686
0003b0 37 7f 39 3e 94 4c 8c 3d 42 61 ea 3d 58 94 23 bf
       0.18114935 0.068505436 0.11444332 -0.6389823
0003c0 d4 dc 4e bd 9d 40 86 3d 34 41 c8 3c 66 e7 a2 3e
       -0.050503567 0.06555293 0.024445154 0.31817168
0003d0 cc dd 3a 3e 11 ff 13 3d 90 a4 4e 3d 0e 9e 38 3e
       0.18248671 0.036131922 0.050449908 0.18029043
0003e0 e2 a0 92 3d 30 78 a0 3d e6 44 b6 3d f2 db 09 3e
       0.07159592 0.07835424 0.0889986 0.13462809
0003f0 f6 dc 79 3d a0 3c 1f bd 09 76 b4 bd b5 5a 81 bd
       0.06100174 -0.038876176 -0.08811576 -0.06316129

fc3.bias f4 [32]
000000 0e a1 20 3d 1e d9 08 3f 55 d3 99 3e 9e f7 33 3e
       0.039216094 0.53456295 0.30044046 0.17574927
000010 a0 af b3 3d c0 3b 0f be 6e 49 94 3d f9 1a 27 3e
       0.08773732 -0.13987637 0.07240568 0.16318883
000020 a7 fa 0b 3f 95 a8 d7 be cc 13 d4 3e 41 70 21 be
       0.5467934 -0.42120805 0.41421354 -0.15765478
000030 83 b4 68 be ed 57 fc 3e 7e ac 7b 3e 0c 2d 16 3e
       -0.2272511 0.49285832 0.2457752 0.14665622
000040 a2 62 c8 be ea dd ff 3e a9 57 b3 3e 64 0f 01 3e
       -0.3913775 0.49973994 0.35027817 0.12603527
000050 d2 6c b2 3e ba 70 8c 3d 92 ee 1b 3f 04 74 c5 be
       0.34848648 0.068574384 0.60910904 -0.38565075
000060 bb f7 7c bd f6 18 8a 3e a4 cf c5 3e 72 44 24 3d
       -0.06175969 0.2697217 0.3863498 0.040104337
000070 45 e0 4f 3e 76 87 a1 3e c9 f6 85 3e 59 0a 0e 3e
       0.20300396 0.3154866 0.26164845 0.13871135

fc_mu.weight f4 [1, 32]
000000 e3 0f 2b 3f f9 cb aa 3f 04 75 ad bf 9d 91 1d be
       0.66821116 1.3343498 -1.3551335 -0.15387578
000010 26 03 1a bf 7a 89 9a be fe f8 ef 3c 3b 53 97 bf
       -0.60161054 -0.3018301 0.029293533 -1.1822275
000020 03 a3 39 be eb db 8f 3d 82 f3 75 3f eb ec 7b 3e
       -0.1812859 0.07024368 0.9607469 0.24602096
000030 43 2e e5 3d 21 85 eb bd 60 e9 ef be 63 77 ca be
       0.11190464 -0.11500002 -0.46857738 -0.3954421
000040 c7 4b 1e 3d ad 98 68 be 7d 0a 9c bf a8 91 d7 3c
       0.038646486 -0.22714491 -1.2190701 0.026314571
000050 13 27 b1 bf b0 38 42 3e 26 4e 8b be ce 80 a7 3d
       -1.384005 0.18966937 -0.2720806 0.081788644
000060 8d 4b 04 be af c7 8a bf 87 d8 ae bd 91 5c 8e be
       -0.12919445 -1.0842189 -0.08537393 -0.27804998
000070 40 8c c0 3e 5e 82 2e bf 3f e7 3d bf d0 dc 61 bf
       0.37607002 -0.68167675 -0.7418098 -0.8822756

fc_std.weight f4 [1, 32]
000000 1e 64 83 bd 3d 99 a9 3d 09 47 95 3d a3 74 c1 3c
       -0.0641558 0.08281181 0.072889395 0.023615187
000010 2f 21 04 3e 4b b6 3d 3e 90 e4 11 be a6 be 53 3d
       0.12903284 0.1852657 -0.14247346 0.05169549
000020 f9 22 c0 bd 2f ee 6c 3d bb d8 4b 3c c6 93 a1 3d
       -0.093816705 0.057844337 0.012441809 0.07889514
000030 e3 6a 59 3e 49 52 0a 3d 32 34 9f 3d 0a 54 ad bc
       0.2123218 0.03376988 0.07773627 -0.021158237
000040 65 db d1 3d 0a c1 1a bd 49 b0 8e 3e eb 0a e4 3d
       0.10246924 -0.037781753 0.2786887 0.11134895
000050 07 36 04 3e 9d f0 e6 bd 51 03 0e 3d b9 51 80 3c
       0.12911235 -0.11276362 0.03467113 0.015663968
000060 7d 2d 55 3d 88 47 8e 3e 02 e8 a3 bd 60 dd a7 bd
       0.052045334 0.2778895 -0.08003236 -0.08196521
000070 8e 80 30 3c 03 71 11 3e fc 0e ad bc d9 02 3c bc
       0.010772837 0.14203267 -0.02112531 -0.011475288
