myrobot/src/SAC/saved_model/1207_2/sac_actor_1207_2_EP326.pt (torch, 47638 bytes, 8 tensors)

fc1.weight f4 [128, 4]
00000000: 433d 45be c923 85be 9bda 0dc0 2a03 0b3d
00000010: bd5a e8be 595e 22be 1f43 8ebf c7bf 4bbe
00000020: a5ae 2fbf f58a a2bc eead 9fbf 00e9 49bb
00000030: b4e3 f5bd 85e9 90bf 607d 1f3e 07c3 a1bd
00000040: 7807 a53f 2485 7e3c e9fc 6abe 5807 35b9
00000050: 3f0b 103d 6901 123f e042 983f 1c18 50bc
00000060: 6e2e 283f 3cef a23e ca83 c2bf 11ff 09bc
00000070: 3e70 3f3f 86a1 e23d 0b75 5c3f ea4d 0a3e
00000080: 3451 83bf a906 a4be 95b5 9fbe 90c7 9a3e
00000090: a430 8dbe e2a3 3ebc 9f2a 2bc0 1434 a83c
000000a0: 5ed6 c43f db9c 043f 76cf f63d be63 f0bd
000000b0: 7c76 803f 65e3 bfbe 1525 a73b 050b e939
000000c0: 9f0f da3e c93a 87be f8e9 443f 1d16 633a
000000d0: a84d a03f a9b4 97be 79b8 cf3e a6e1 23be
000000e0: 633b e43e 0db4 14bf f355 00bf 08a6 bf3c
000000f0: bd95 073e 3fef e73e 1274 ad3f 9b7f 9fbc
00000100: 3fc3 063f 3afc 5dbd db13 3f3f b6cd 973c
00000110: c513 563f 42be cc3c ccc5 be3c 29c9 593e
00000120: c01f b9be ee5d 7fbe 38fb cf3d 6029 b33d
00000130: d296 39bf d021 123e 9d82 74be bd1a f93c
00000140: 9564 5a3f d996 54bf 9422 ae3e 0d8f 39be
00000150: aa54 0bbf 0f3e 6dbe bd6f a73f 3b71 d43c
00000160: f93a 0b3f e816 73bd b254 ffbe feb2 5e3e
00000170: b55d f33d 8712 8bbe 78cd 5cbf d530 aeba
00000180: 8482 38bd 616d dbbe dca3 55bf fd28 013d
00000190: 8f20 53bf 6944 813e 753b e0bd 4614 523e
000001a0: 74d6 ef3f 5e0b 233e 477a 3d3f bb8a 06bd
000001b0: b0fd b4be 9984 07bf 26b7 ecbf 445d 2c3e
000001c0: e3b0 f0bd 8fa4 97be 1bc2 89bf 234d f23b
000001d0: a35a 54bd f750 3bbf c062 6c3d b6cd 873d
000001e0: 05e9 413f 9101 483f 4afd 0c3f 1edf ec3c
000001f0: 3939 63bf fac2 efbe 8176 13c0 dc4c 603d
00000200: 29f0 4c3f d15f b33e e10f 14bf 8e12 d4bc
00000210: 3795 90bd 71d9 a33d 2afe 2ebd 1002 253d
00000220: 0901 7bbd 3176 ac3e b1e7 bf3d 2115 44bd
00000230: c8f7 9e3d 90c5 933d b979 57bf 1674 52be
00000240: ab4e 9fbe 1b3b 5cbd 3b66 063f ce80 57be
00000250: 2bc4 98bf 2833 02bf ac0a edbf 7b4a 793d
00000260: 8d75 893f 3af7 33bf c34f f13d 77af db3c
00000270: 9a2e 023f f10d 8fbe d564 db3f 0442 aa3c
00000280: a461 793e 1f6c 483e 83d4 ae3f 9de3 10ba
00000290: 4701 73bd e382 8a3e 7cae 23bf d01b 06bc
000002a0: 64fd 123f 4d19 91be 21ff 84be a87d e1bb
000002b0: 34d6 323f 38a0 363e f9c7 903f 5d54 e8bb
000002c0: 22fb 883f b045 99be 743a 8cbf 73c5 2c3d
000002d0: d378 7cbe 2069 c5be 35ab 4d3f ea2c 2c3d
000002e0: 5e61 c03d fb68 f5bb d462 7cbf c9f7 31be
000002f0: 4e2c 45bf 6444 c13e 9dcb dcbf df3a ad3c
00000300: ec71 b83e 7feb e43e bbee fd3e ac65 b7bc
00000310: c732 27bf 0532 e63c accc fd3c d86e 9dbd
00000320: 92d4 3bbf ce4e d1be 4656 e8bf cddd 373d
00000330: 6bb3 2bbe b5c3 fcbe f03c 0a3f 745c a3be
00000340: d939 943e 86b1 9d3d 6b05 823f e8f2 be3b
00000350: 00c4 edbe 39a0 0b3e 0f64 cebe 80bf 3e3d
00000360: 3de1 9f3f d6c7 ddbb 0baa 703d da36 93bb
00000370: 733e b2bf a4d8 893d 48aa 0b3b 6f12 f93c
00000380: 3eab fabc b1f4 98bd 7826 943f b9bc e83b
00000390: bab7 ad3f 3516 04be cc17 d73e 8dba 813d
000003a0: 9668 aa3f f071 233f d2b9 41bf c29c 103c
000003b0: e4e8 29bf 3d80 ba3e 9b2c dbbf e991 79bc
000003c0: b626 14be a5fb 133e 0758 34bf 414c 74be
000003d0: 6c73 343f 97f7 31be adf3 b93e ecdb 3e3d
000003e0: 5708 95bd 431c f23e 78ad 2bbf 49cd a0bd
000003f0: 5953 44be bee3 17bd d4bc 033f 0445 42be
-0.1926165 -0.26003864 -2.2164676 0.033938564 -0.45381728 -0.15856303 -1.1114234 -0.19897376
-0.6862586 -0.01984165 -1.2474954 -0.0030809045 -0.120063215 -1.1321265 0.1557517 -0.07898527
1.2892904 0.015534673 -0.2294804 -0.00017264241 0.035166975 0.570334 1.1895409 -0.012701061
0.65695846 0.31823146 -1.5196469 -0.008422629 0.74780643 0.110659644 0.86116093 0.13506284
-1.0259156 -0.3203633 -0.31193224 0.3023038 -0.27576172 -0.011635752 -2.6744764 0.020532645
1.537792 0.5180184 0.12051289 -0.11737774 1.0036159 -0.37478176 0.005100856 0.00044449433
0.42590043 -0.26412037 0.7691951 0.0008662658 1.2523699 -0.2963002 0.4057043 -0.16004047
0.44576558 -0.58087236 -0.5013115 0.0233946 0.13240714 0.45299718 1.3551047 -0.019470027
0.5264167 -0.05419562 0.7463967 0.018530708 0.83623916 0.024993066 0.023287676 0.21268143
-0.36157036 -0.24938175 0.10155338 0.08748126 -0.7249576 0.14270711 -0.2387795 0.030408258
0.85309726 -0.83042675 0.34010756 -0.18120976 -0.5442606 -0.23168205 1.3080975 0.025932899
0.5438686 -0.059348017 -0.49869305 0.21747968 0.118831076 -0.27162573 -0.8625102 -0.00132897
-0.045046344 -0.42856887 -0.83453155 0.03153323 -0.82471555 0.25247505 -0.109488405 0.20515546
1.8737321 0.15922305 0.74014705 -0.032847147 -0.35349798 -0.529367 -1.8493392 0.16832453
-0.117524885 -0.29617736 -1.0762361 0.0073944493 -0.05184425 -0.7317042 0.057711363 0.06631033
0.75746185 0.7812739 0.5507399 0.028914984 -0.8875919 -0.46828443 -2.304108 0.0547608
0.80053955 0.3503404 -0.5783673 -0.025887754 -0.070597105 0.08000458 -0.04272286 0.04028517
-0.061280284 0.33683923 0.093703635 -0.047871713 0.07762104 0.072154164 -0.8417011 -0.20552096
-0.31114706 -0.053767305 0.5249974 -0.21045229 -1.1934866 -0.5085931 -1.8518882 0.060862046
1.0738999 -0.7029911 0.117827915 0.026817067 0.5085236 -0.27940324 1.7140146 0.020783432
0.24353653 0.19572495 1.3658603 -0.0005527081 -0.05932739 0.27052984 -0.6393812 -0.008185342
0.57417893 -0.28339615 -0.25975898 -0.0068814345 0.698581 0.17834556 1.1311027 -0.007090135
1.070164 -0.2993598 -1.0955338 0.04218049 -0.24655466 -0.38556767 0.80339366 0.04203502
0.09393571 -0.0074893213 -0.985883 -0.17379679 -0.7702073 0.3774749 -1.7249638 0.021146236
0.36024415 0.4471092 0.495962 -0.022387348 -0.65311855 0.028100023 0.030981384 -0.076871574
-0.7337123 -0.40880436 -1.8151329 0.04488926 -0.16767661 -0.49368063 0.53999233 -0.31906474
0.28950384 0.076998755 1.0157903 0.0058272965 -0.464386 0.13635339 -0.40310714 0.046569347
1.2490612 -0.006768207 0.058755916 -0.004492623 -1.3925308 0.06730774 0.0021311212 0.030404298
-0.030599233 -0.07468546 1.157424 0.0071025756 1.3571694 -0.12899096 0.42010343 0.0633441
1.3313167 0.6384573 -0.75674164 0.0088264365 -0.6637099 0.36425963 -1.7122988 -0.015232542
-0.14467892 0.14451464 -0.7044682 -0.23857214 0.7048862 -0.17379604 0.36318722 0.046596453
-0.07276981 0.47287187 -0.6706157 -0.07851655 -0.1917242 -0.037082426 0.51460004 -0.1897164

fc1.bias f4 [128]
00000000: 6f7e 4cbf 0579 533e 0f19 6b3f db5c e8be
00000010: 1a0d c73f fa52 5dbe 0043 933e 7c6b a83f
00000020: d3e9 00c0 3949 463e 2a68 5abf 2a16 bc3f
00000030: 1169 9e3f 0afa 9b3e e6e6 fdbd 82ca a63f
00000040: 51a6 43bf ee7f 873f 5189 d1bf 86d0 ffbf
00000050: 2ba4 11be 59db 943d 588f 9f3f b034 a63e
00000060: 15a4 93bf 1b1d dcbf bd3d a6be 830a 253f
00000070: eaef 9abf 53ae b23f 516f c5be 09e6 5abf
00000080: 0903 803f 8c9f d93f 5dda b43f b8ad fbbe
00000090: 2080 3d3f a32b b9be b5a7 1dbf 17e0 08bf
000000a0: c160 d7be 6d54 6fbe 6bcb 353e 85a6 6e3f
000000b0: a171 91bf c422 bebf 477a 543f 27b5 88bf
000000c0: c266 bc3f d08d 96be ecce 2ebf 9166 933e
000000d0: 4b15 1dbf 1bd4 03c0 8b86 12be 5418 a3bf
000000e0: 0e70 253f d22b 663f 0f40 b4be 3bec 7a3f
000000f0: 3f6e e1be 6c1e b6bf 135a 183f 47fc 88bf
00000100: a402 12bf d792 1ebf fa5e 1b3f 598e c3be
00000110: 641d b8be fa4f ffbe 7b75 4a3f 54c3 0840
00000120: 4764 2e3d 7925 44bf 55a0 473f dae7 4abf
00000130: f942 803e dfdc d43e 90c3 333f 8d6f c6bc
00000140: ff9c df3d 28f5 3cbf 8b46 b03f 960f d23f
00000150: 61e4 babb b965 babe 6bab cb3c dc6b 7f3f
00000160: 9f55 f7be 1866 2b3f ad59 4fbf f31f 023e
00000170: f5b4 19bf eec3 983f 6c24 6ebf bdf7 b7be
00000180: dc21 1cbf 076a a0bf 4367 bcbf 4700 debe
00000190: 034b 9cbe 4d77 3cbf 8193 c2bf b433 9dbf
000001a0: ef1c 033e 56e1 6dbf 8c36 ebbf bc1e 7dbf
000001b0: b462 36bf 39ee 5dbb 3959 babf 5c61 513f
000001c0: 418f bc3d 6447 f4bf 51a9 fb3e 6b27 8d3e
000001d0: 38d5 c93e d57e 78be 555f c3bd 4c25 59bf
000001e0: 9887 eabc 41fa 34bf c387 eabe 4785 a6be
000001f0: d3d3 76bf 09eb c43e 3fc0 d7bd 3c0a 8ebf
-0.7988042 0.20651634 0.9183511 -0.45383343 1.5550873 -0.21613684 0.28762054 1.3157802
-2.0142715 0.1936387 -0.8531519 1.4694264 1.2375814 0.30464202 -0.12397556 1.303055
-0.76425654 1.0585916 -1.6370031 -1.9985511 -0.14222781 0.072684 1.246562 0.32462072
-1.1534449 -1.7196382 -0.32468978 0.64469165 -1.2104466 1.395945 -0.3856149 -0.85507256
1.0000926 1.7001815 1.4129139 -0.49155974 0.7402363 -0.36166105 -0.61584026 -0.53466934
-0.42066005 -0.2337205 0.17753379 0.9322284 -1.1362802 -1.485436 0.8299908 -1.0680283
1.4718859 -0.2940507 -0.6828449 0.2878919 -0.61360615 -2.059821 -0.14309137 -1.2741799
0.64624107 0.89910614 -0.35205123 0.9801671 -0.44029424 -1.4228034 0.5951244 -1.0701989
-0.5703528 -0.6194281 0.606918 -0.3819454 -0.35959923 -0.49865705 0.7908551 2.136922
0.0425761 -0.7661968 0.7797902 -0.7926003 0.25051096 0.4157476 0.7022028 -0.024223113
0.109186165 -0.7381158 1.3771528 1.6411006 -0.0057034944 -0.36405733 0.024862012 0.99773955
-0.4830751 0.6695266 -0.8099621 0.127075 -0.60041744 1.1934793 -0.93024325 -0.35931197
-0.60989165 -1.2532357 -1.4719013 -0.43359587 -0.3052598 -0.7361954 -1.5201265 -1.2281404
0.12804006 -0.9292196 -1.8376021 -0.9887502 -0.7124436 -0.0033863916 -1.4558479 0.81789184
0.09207011 -1.9084287 0.49152616 0.27569136 0.39420485 -0.24267133 -0.095396675 -0.84822536
-0.02862911 -0.7069436 -0.45806703 -0.32523558 -0.9641697 0.38460568 -0.10534715 -1.1096873

fc2.weight f4 [64, 128]
00000000: a439 72bd f2f8 8f3e 6d64 283f 8bec 7cbf
00000010: 3a70 8e3e c45a 9dbe 3afe eb3e 1c58 febb
00000020: b18c 4bbc aaf1 203e 0828 243f 9735 40b9
00000030: 3251 4b3e 3e6b 9d3f d376 17bd a096 11be
00000040: 3ae7 e7bd 8f61 2ebd 08f4 75bd 9954 d9bd
00000050: c423 123e 85ec 8d3d 481a 0e3c 45c9 ac3d
00000060: 4d45 6d3d a24e a8bd bf17 67bd 75c1 4a3e
00000070: e93a 083d b221 03bd 6083 e03c 49ef 983d
00000080: a8a2 043e 2168 e53c 396b bc3b e287 c53d
00000090: d6b5 993d 5ac2 f1bd d63b da3d 7dc7 26be
000000a0: 5b8e a8be 7f76 31be 212a 0f3e 8879 2fbb
000000b0: 24e6 a63b 59f6 65bd 19a6 133f c498 f7bd
000000c0: 50d7 683c af93 dfbe ba4d 7bbd e87a 13be
000000d0: 52a5 30be ee45 fcbd 3c3e 123e 11f9 93be
000000e0: 74bd a2bd 1680 18bd 9bcc ca3d d45e 123f
000000f0: 5cbc 253e cbc3 063e a009 9a3d f485 55bc
00000100: 6b0c 8d3e d5c3 bf3e 0923 b63d 7d80 e4bd
00000110: 3400 cabd 9abc 343d 0249 083e 0a8a cb3d
00000120: 1550 b03d 9902 67be 365b 11bf a9c7 5c3e
00000130: f11d bc3d 7247 f3bd 6660 c63c cb1b 183d
00000140: e013 0abe 8bf5 0ebe 86b7 99bd e2b4 143e
00000150: ce8f dd3b 36b1 ef3d fd5f 8b3c 1d19 d63e
00000160: dff2 313d f1e7 643e e36a 3d3e a282 3ebe
00000170: 8a2e 34be 9dfc ab3c 81e3 c6be 1295 16bd
00000180: 6b94 163d 9e4d bcbd 83c6 423b 6cee 913e
00000190: 6d46 243e bbbe 71bd d47d b5be a5c0 c5bd
000001a0: 3bd2 953e 02be 4fbe 13b6 883c d42c 1ebd
000001b0: 95d3 16be 93a0 06bd bdc4 a9be 147c 5dbe
000001c0: 2c94 fcbd bcfc 03be 8c97 05bd 01f4 ae3e
000001d0: c3db 12be 4f52 83be f5a6 69bd d41d 86bd
000001e0: c364 8abc e796 f5ba ca95 813e 8f3c c9be
000001f0: 93c8 da3c 002c 04be 52fa c03d 3676 0bbb
00000200: cc76 b6bd 6f8f a03e 72b2 063f 216b d3bd
00000210: 783e 743e a8fe 09be f742 c33c fd04 b53d
00000220: c41a 8fbd 69bf 39be 5dbd cb3c 02b9 1b3e
00000230: c5ee 13bd cdef d13e b79a 433c 96e8 8ebd
00000240: fec4 cabc d809 b13d c1b2 d83d 9982 49be
00000250: d602 8b3d ab09 29be 69e0 103e e224 ca3d
00000260: ce25 9ebd 53d4 f2bd f0e4 30bd 1605 513b
00000270: f1ad 5a3d b652 153d dbcd 73bd fa7f 3dbd
00000280: 6f2b de3e 3b4f 573d e098 bc3d fd23 113e
00000290: 9963 d83e b74b efbe deef 6ebe d23f 37bf
000002a0: ff6a f7be 92f6 b1be 68f7 83be 9266 09be
000002b0: e9a3 bb3d 1f88 72be 9472 453f e8e5 02bc
000002c0: 3429 013c 9c9a 81bd c10d 55be ca4e cdbe
000002d0: 3e1a 07bf 4220 82be 82f4 7e3d b64e 16be
000002e0: c519 4abe 3e6a 303d 070e 803d d942 523e
000002f0: a889 913d 9a56 6f3e 9e90 db3d 78ca c7be
00000300: ede3 b8bd be49 783c 8452 ca3d 4a66 16bf
00000310: 6002 37be d6c1 6b3d 88ec 0dbe d4f3 113d
00000320: 9cae ad3e f3f8 14bd d8cf 37be 19b3 29bd
00000330: 9229 8a3e 438a 22bd 535e 253d a84c 47bf
00000340: f3d1 20be 6877 bfbe a9ac be3d 02f1 f83d
00000350: ff4f 91be 2919 563c 01dd c3be e1db 3d3f
00000360: 98bc aabc 234c 8c3e f01a 173e 91e0 933e
00000370: ebf5 4cbe 7b79 21bd 91b5 f43c 6071 e13d
00000380: 752a a2bd 0818 87be 10a5 d6bb 87c7 c8be
00000390: b749 0b3d 39c0 cebb 664b dfbe f5c1 923e
000003a0: 24a0 ebbd 3f9f 21bf e766 90bc 601b 1abe
000003b0: ee7d 2cbe 59ac 1ebe 4555 a2bc 4a22 61ba
000003c0: fa0a cfbe a298 2abe 0e28 21bf 7d8c 123e
000003d0: 7e14 18bd fe69 0fbb cce0 f3bd 1fe8 a9bd
000003e0: 9d49 08be 5ae5 2e3f f395 fa3d 6a8c 813d
000003f0: 3ea5 8dbe bca1 c4bc 93f2 9c3e 218d 31be
-0.059137 0.28119618 0.6577824 -0.98798436 0.27819997 -0.3073331 0.46092397 -0.0077619683
-0.01242368 0.15717188 0.6412358 -0.0001833051 0.19855192 1.2298353 -0.036978554 -0.14217615
-0.113234 -0.042573508 -0.06004718 -0.10611839 0.14271456 0.06929878 0.008673258 0.084368266
0.05792742 -0.08218123 -0.05641913 0.1980036 0.033259306 -0.032014556 0.027406394 0.07467515
0.12952673 0.028003754 0.0057500866 0.09645058 0.075053856 -0.11804648 0.10655944 -0.16287036
-0.3292111 -0.17330359 0.13980915 -0.002677532 0.005093353 -0.05614314 0.5767532 -0.120896846
0.014211491 -0.4366736 -0.061353423 -0.14402354 -0.17250565 -0.123180255 0.14281553 -0.2890096
-0.079462916 -0.037231527 0.09902307 0.57175946 0.16185135 0.13160627 0.07521367 -0.013032425
0.27548537 0.37454095 0.08893401 -0.1115732 -0.0986332 0.044125177 0.133091 0.09938438
0.086090244 -0.22559585 -0.567798 0.2156054 0.09185398 -0.118788615 0.024215888 0.03713588
-0.13484144 -0.13960855 -0.075057074 0.14522126 0.0067615276 0.11703722 0.017013544 0.41816035
0.04344451 0.22354104 0.18497805 -0.1860452 -0.17595878 0.020994479 -0.38845447 -0.03676326
0.036762636 -0.09194492 0.0029720373 0.28502214 0.1604249 -0.059019785 -0.35447562 -0.09655885
0.29261956 -0.20287326 0.016688382 -0.03861697 -0.1472915 -0.03286798 -0.33157912 -0.21629363
-0.12332949 -0.1288938 -0.03261523 0.34170535 -0.14341645 -0.25648734 -0.05704399 -0.06548658
-0.01689375 -0.0018736989 0.25309592 -0.39304015 0.02670697 -0.1290741 0.09422745 -0.0021280176
-0.089093775 0.3135943 0.52616036 -0.103231676 0.23851955 -0.1347605 0.023835642 0.08838842
-0.06987527 -0.18139423 0.024870569 0.15207294 -0.03611638 0.41003266 0.011938742 -0.06977956
-0.024752136 0.08644456 0.105809696 -0.19678725 0.0678765 -0.16507594 0.14148106 0.09870316
-0.077220544 -0.11856904 -0.04318708 0.00318939 0.05338854 0.036455832 -0.05952249 -0.046264626
0.43392512 0.052565794 0.09208846 0.14173885 0.42263487 -0.46737453 -0.2333369 -0.7158176
-0.4832382 -0.3475843 -0.25774693 -0.13418034 0.09162123 -0.23684739 0.7712796 -0.007989384
0.007883359 -0.063283175 -0.20806028 -0.40099174 -0.5277442 -0.25415236 0.0622449 -0.14678463
-0.19736393 0.04307007 0.062526755 0.20533313 0.07106334 0.2337288 0.10720943 -0.3902166
-0.090278484 0.0151543 0.0987902 -0.5874983 -0.17872 0.057557903 -0.13859761 0.035632923
0.3392228 -0.03637023 -0.1795038 -0.041430566 0.2698484 -0.039682638 0.040373158 -0.77851343
-0.1570509 -0.37395787 0.09310276 0.121553436 -0.28381345 0.013067522 -0.3825455 0.74163634
-0.020841882 0.27401838 0.1475637 0.28882268 -0.20015685 -0.039422493 0.029871734 0.11007953
-0.07918254 -0.26385522 -0.0065504387 -0.39214727 0.034005847 -0.006309536 -0.43612212 0.28663602
-0.11505154 -0.63133615 -0.017627193 -0.15049505 -0.16844913 -0.15495433 -0.01981605 -0.00085881783
-0.40438062 -0.16659787 -0.62951744 0.14311405 -0.037128918 -0.0021883245 -0.11908111 -0.08296227
-0.13309331 0.6831871 0.12235632 0.0632561 -0.27665132 -0.024002902 0.3065382 -0.17338993

fc2.bias f4 [64]
00000000: f97f 273e 4f0a 853e 5acf 8cbe 784d b23d
00000010: 3478 acbd 131f 59bd 6a7e 91bf 35c1 ba3e
00000020: 8dc6 583f f509 f0be acb6 89be 5b23 08bf
00000030: f274 a6bf 9171 8fbf 281b c6bd 0c6e 24be
00000040: 0951 ad3e 4ee9 983f 3090 413f 0e12 66bf
00000050: 3bd6 923f 693d 99bf c11b 033e 75dd 1a3f
00000060: 2659 573e bd0e 803f fd43 093e d77b 8a3e
00000070: 7f48 943f b8a4 60bf 8daf 953f abfd 9abe
00000080: e7f0 3d3e edb7 b33f 5c8e 5f3f 78e3 fa3e
00000090: 4245 4f3f 37f5 383e 0ff7 f63e 2e1b 553f
000000a0: 9294 e2bd 23c4 3d3d e73c 79bf 3264 4dbe
000000b0: 96be 5d3d dfcd 983d f8fa 643f fe12 e83e
000000c0: ad14 7ebf a2ae 423f 2390 41bf aa71 813e
000000d0: 4f74 aa3e b49b 873f 774a d03e 4622 d53e
000000e0: f2a7 a43e 1d5e 0e3e 2790 2b3d a930 a43e
000000f0: c9c8 b23e df3e 0b3f e637 d1be 6fa2 a13d
0.16357411 0.25984427 -0.27501947 0.08706182 -0.084213644 -0.05300815 -1.1366704 0.3647553
0.84677964 -0.46882597 -0.2689718 -0.5317895 -1.3004439 -1.1206533 -0.096731484 -0.16057605
0.33850887 1.1946199 0.7561064 -0.898713 1.1471628 -1.1971866 0.12803556 0.60494167
0.21030101 1.0004498 0.13404842 0.27047607 1.1584624 -0.8775134 1.1694199 -0.30271658
0.18548928 1.4040505 0.873266 0.4900167 0.80965054 0.18062292 0.48235366 0.832446
-0.11063494 0.04632963 -0.97358555 -0.20057753 0.054136835 0.07461142 0.8944545 0.4532699
-0.992503 0.7604772 -0.7561056 0.2528203 0.3329186 1.0594392 0.40681812 0.4162771
0.32159382 0.13903089 0.04188552 0.32068375 0.34918812 0.5439281 -0.4086296 0.0789231

fc3.weight f4 [32, 64]
00000000: 5212 08bd de47 113e ae0c b13d 5c1d 593d
00000010: 80c3 503f 1bcf 8abe dbd3 b2be 4ef6 17bf
00000020: b548 ae3e e28b 1e3e e46b 1dbf 5aa9 e53d
00000030: 0e90 a5bf ccce 51be 0967 163e 7acd e7be
00000040: d3f2 713d 3760 a43d b5ae a53d 979d 00bd
00000050: adfe 123e 9526 20be c15e d33d a03c b8bd
00000060: 39ed dd3d 3e8e 05be cb60 76be 0cf9 2dbc
00000070: 298e 7e3e 46c6 8ebe fa98 033e 84fc 91be
00000080: 5b3a e43a 8f34 373e 0c2b e8be 0ede 3c3d
00000090: 8962 983d ed6f ce3d 02a7 0fbd 80d8 8e3e
000000a0: 751e 92be df61 dfbd 847e 6abf d436 8fbe
000000b0: 9bee 7bbe 7162 11be 460a cd3d 65af 2fbe
000000c0: 80f3 8bbf fbcc a93e b20d 5b3d bedf 88be
000000d0: 7d52 15ba ea25 fcbd 92ad 8e3e 5528 ccbe
000000e0: ec67 11bf cbcd 52be 6846 093e 817a e5be
000000f0: 38ad 183e 470d d0bb af0f 4c3e 4b8a d1bc
00000100: e5c9 7ebb 9e19 be3d 9f1c aabd cfc9 243e
00000110: f1ff e1bd addc 0d3e 7cdf e9be b4cd 013e
00000120: 62b8 99bd 6233 39be 705d 53be 42e9 b83d
00000130: a142 85bf f32b a0bf 3e2e 243d ce90 d53c
00000140: 580f 89be 7988 833e 8797 bc3e 5b87 f9bd
00000150: 58ef 2f3e 8f55 9ebe 3219 95be 925a 3abd
00000160: 2bb2 34be fce7 c93e 1e0d 65be 2930 703e
00000170: 107e 97be 572f f5bc f017 5e3e 0689 b1bc
00000180: 5c18 763e 2790 0d3e d06f 1b3f 533c acbd
00000190: b95d 10bd fa71 45be ccf2 813e b6b1 db3b
000001a0: c890 dd3d 261f 7e3d cba5 d3be 3eba 86bc
000001b0: fc1f 883e ec76 5a3d fa8e d7bb 59c4 443e
000001c0: a845 9dbf 398d e13d 1707 9cbe 97fd 36bd
000001d0: f260 5fbe 4306 f13e b878 9abe da55 143f
000001e0: b2d5 dc3e 7bc5 20bd 2d2b 0cbf b99e 483e
000001f0: 4e38 533e 7af0 623d cff9 c6be 2ae5 2f3c
00000200: ab29 d1bd 2778 943d 57d2 be3d 27db 2d3d
00000210: f8ad 92be ecd2 65be 51b7 94be fb43 083c
00000220: b3f6 45be 07fd 2ebe 8206 1c3d 9f18 643d
00000230: a757 ecbe 7f8f 2bbe 84f4 073c b43d f8bd
00000240: 5403 17be c665 b33d 40f7 1a3d ca03 eb3d
00000250: 09b9 09be 6b3a 33be 62e0 15be f3a5 92bc
00000260: 97bb a43c 63a7 633e 825d 0b3f bd85 d83d
00000270: 4e7e 98bf bdcc 443d 39c0 23bd 6fa8 1d3e
00000280: 1472 153e 0a58 fabd fce9 e63d 05a1 8a3d
00000290: f0b8 a93d c03e 86be 48d7 b33d 63b7 b7bc
000002a0: b52c 013e 10c3 5e3e 28d7 2fbe 6a2f e73d
000002b0: 0462 65be af0e 18be b0ab 4abf fdf1 8dbe
000002c0: bb5b 08bf ef6e 00bf f737 5abd 233e c83e
000002d0: 78d1 adbd 6e12 013e 62f7 c4be 1087 98bc
000002e0: dff7 cf3e 84b2 353e 41b1 0dbe 15f8 f83d
000002f0: 465d 3c3e 5e2f 86bf 5148 ee3c 26ca c43d
00000300: 7a75 93bf 08ee afbd 2dc6 d1be 9fca 9bbc
00000310: e93d 3c3d ff66 92be 15e2 343e d0fe 94be
00000320: d8b1 66bd e567 91be 11ae b33e 27fe 50bb
00000330: dc2b 54be 2cc0 353d c073 153f bcd1 b6bd
00000340: e382 ac3e 9e3e 23be 0014 083d b3bf 72bf
00000350: 829c 2c3e 094c 8bbd 5c12 d9be 6815 3bbf
00000360: c4bd 153e ff3f d1bc 5ac7 283f ced8 103e
00000370: f838 123d 493c e4bc 3ba2 333e 29c3 8c3b
00000380: f25a 623d 5509 9c3d 7295 bcbe 6b01 12bd
00000390: 6064 b3be f68f 433e 7af3 75be e598 253e
000003a0: 38b6 8b3e 30c2 0a3b 6eb0 7fbe 368d 1f3e
000003b0: b541 5d3e 4f7a da3d b392 5e3e dd7f 60bf
000003c0: f190 a6bd cf93 273e 6223 cfbd 4c6f c63e
000003d0: a505 e03d e055 4d3e b559 08bb 22a1 453c
000003e0: 1ab7 5c3c f725 3c3e f0e4 aebb a4f6 9f3e
000003f0: e169 143e 95bc 12be 7192 6cbe dd4a 8dbd
-0.033220597 0.14187571 0.086449966 0.053006515 0.8154831 -0.27111134 -0.34927258 -0.59360206
0.34039846 0.15483049 -0.61492753 0.11213942 -1.2934587 -0.20489043 0.14687742 -0.45273954
0.059069466 0.08026164 0.08089963 -0.03140029 0.14354964 -0.15639718 0.10320807 -0.08995938
0.10836262 -0.13042542 -0.24060361 -0.010618459 0.24858917 -0.27885646 0.12851325 -0.28512967
0.0017412411 0.17891143 -0.45345342 0.046110205 0.07440669 0.10079942 -0.03507138 0.2789955
-0.28538862 -0.10907339 -0.915993 -0.27971518 -0.2460274 -0.14197709 0.10011725 -0.17156751
-1.0933685 0.331642 0.053479858 -0.26733202 -0.00056961906 -0.12311919 0.278668 -0.3987452
-0.567992 -0.20586316 0.13405764 -0.44820026 0.14909828 -0.006349239 0.19927858 -0.025578639
-0.0038877663 0.0928223 -0.0830624 0.16092609 -0.11035145 0.13853712 -0.45678318 0.12676126
-0.07505871 -0.18086007 -0.20641112 0.090288654 -1.0410959 -1.2513412 0.040083162 0.026070025
-0.2676952 0.25690058 0.36834356 -0.1218402 0.17181146 -0.3092465 -0.29120785 -0.04549653
-0.1764609 0.39434803 -0.22368285 0.23455872 -0.29588366 -0.0299298 0.21688819 -0.021671783
0.2403273 0.13824521 0.6071749 -0.084099434 -0.03524563 -0.1928176 0.25380552 0.0067045344
0.108186305 0.062041424 -0.41337427 -0.01644623 0.26586902 0.05333607 -0.0065783234 0.19215526
-1.2286882 0.11013264 -0.3047416 -0.044675436 -0.21814325 0.4707509 -0.30170226 0.579435
0.43131787 -0.039250832 -0.5475338 0.19591798 0.20626947 0.055405118 -0.38862464 0.010735789
-0.10213026 0.0724948 0.09317463 0.042445328 -0.28648353 -0.22443742 -0.2904611 0.008316989
-0.1933239 -0.1708871 0.038092144 0.055687543 -0.46160623 -0.16753958 0.008298043 -0.12121144
-0.14747363 0.08759646 0.037833452 0.11475332 -0.13449492 -0.17502753 -0.14636377 -0.017901396
0.020108981 0.22231822 0.54439557 0.105723836 -1.1913545 0.048046816 -0.03997824 0.15396284
0.14594299 -0.12223823 0.11275098 0.06768993 0.08287227 -0.2621975 0.08781296 -0.022426313
0.1261471 0.21754098 -0.1717192 0.112883404 -0.22400671 -0.14849351 -0.79168224 -0.27723685
-0.5326497 -0.5016927 -0.05327603 0.39109907 -0.084872186 0.12604687 -0.38469988 -0.01861909
0.40618798 0.1774388 -0.13837148 0.12156693 0.18394956 -1.0483205 0.029087218 0.09608869
-1.1520226 -0.08590323 -0.4097151 -0.019017516 0.04595748 -0.28594205 0.17664368 -0.29100657
-0.05632195 -0.28399578 0.3509374 -0.0031889768 -0.20719856 0.044372723 0.58379745 -0.089267224
0.3369361 -0.15941855 0.0332222 -0.9482376 0.16856578 -0.06801612 -0.4239682 -0.7307954
0.14623171 -0.025543211 0.65929186 0.14145204 0.03569886 -0.027860777 0.17542355 0.004295726
0.055262513 0.076189674 -0.36832768 -0.035645884 -0.35037518 0.19097885 -0.2401866 0.16171606
0.2728746 0.0021172874 -0.24969646 0.15581211 0.21607096 0.1066786 0.21735649 -0.87695104
-0.08133114 0.16364978 -0.101141706 0.38756788 0.109385766 0.2005229 -0.0020805423 0.012062343
0.013471389 0.18373857 -0.00533735 0.3124286 0.14493515 -0.14329751 -0.23102738 -0.06899045

fc3.bias f4 [32]
00000000: 7516 ad3e 788f 1c3f 4174 6a3e 58db 9e3e
00000010: 1bcd dabc 5dfe 1ebe bea3 87be 536e c73d
00000020: 0847 303f 79e7 b0be 6aa8 183f ea59 423d
00000030: 43ac 9bbe 544c 5fbd 1285 bd3e fe13 fb3d
00000040: 8d34 8dbe 2bbb 113f 572f 8c3e d725 783d
00000050: 02b2 8b3e 9d66 b5be bc8c 333f 1547 dabe
00000060: 3a91 19bd 223f 523e 96f4 db3e 6a74 c1bd
00000070: 9c82 6e3e c56f c33e 4251 d63d f186 433e
0.33806196 0.61156416 0.2289591 0.3102672 -0.02670913 -0.1552672 -0.26492113 0.097378395
0.68858385 -0.345516 0.5963198 0.04744903 -0.30404863 -0.05451615 0.37015587 0.122596726
-0.27579156 0.5692622 0.27379867 0.060582962 0.27284247 -0.3542985 0.7013662 -0.42632356
-0.037492014 0.20531896 0.42960042 -0.09446032 0.23292011 0.3817121 0.104647174 0.19094445

fc_mu.weight f4 [1, 32]
00000000: a9b5 293f 9725 d63f ce4d adbf 9461 22bf
00000010: e8ea 0bbf 757b a5be 22bd 61be 1d1e 97bf
00000020: cb28 04be 2520 843d 4508 7f3f 01d3 253e
00000030: fda7 d03e 2489 97be 3f5c a4be 8b78 b2be
00000040: d63d d83d fd06 3bbe 36c9 9cbf ebb6 103f
00000050: 20bd b1bf d937 9b3e f004 9ebe c4be 683d
00000060: e6aa 7fbe 03ae 8bbf df78 42be 39ad aebe
00000070: cec7 d43e dafc b7bf bf7e 35bf 5e9b 8fbf
0.66292816 1.6730222 -1.3539369 -0.6343014 -0.54655313 -0.32320753 -0.22044805 -1.1806065
-0.12906186 0.064514436 0.99621993 0.16193773 0.40753165 -0.29596817 -0.32101628 -0.34857592
0.10558669 -0.18264385 -1.2248905 0.5652911 -1.3885841 0.30316046 -0.30863142 0.056822553
-0.24967536 -1.0912479 -0.18991421 -0.34116533 0.4155869 -1.4374039 -0.70896524 -1.1219289

fc_std.weight f4 [1, 32]
00000000: 464e a53d 2e9a 5c3e bdda 063e 84f6 013e
00000010: 3743 b73e 0bed 083e a06e 563d 315a dc3d
00000020: 9e23 8c3c 48b8 78be 1545 f23c 1326 c2bb
00000030: dc45 de3d bce8 b53b 3e24 99bc e188 0d3e
00000040: bacf ce3c 7a58 823c 3a3d ca3e 2c53 af3e
00000050: 0bf1 303e 10c1 cfbd dd05 d93d 38a3 1f3e
00000060: c930 803a f16b d83e 4a2f a6be db10 03bd
00000070: 308a eabd 0cf6 623b 8366 92bd c362 9dbd
0.0807157 0.2154319 0.1316938 0.12691694 0.35793468 0.13371675 0.052351594 0.1075939
0.017106827 -0.24289048 0.029573957 -0.005924949 0.10853168 0.0055514257 -0.01869404 0.13821746
0.025245536 0.01591133 0.39499837 0.34243143 0.1727945 -0.101442456 0.105968215 0.15589607
0.0009780164 0.42269853 -0.32457954 -0.031998497 -0.114521384 0.0034631519 -0.07148459 -0.07684853
