myrobot/src/not_using/DDPG/save_DDPG_models/1008_1/DDPG_Critic_EP914.pt (torch, 287970 bytes, 32 tensors)

fc1_state.weight f4 [128, 4]
000000 08 a5 25 3f 6a d3 b7 3e 05 5f a0 bf 3d fb 39 bb
       0.6470494 0.35903484 -1.2528998 -0.002837851
000010 74 9f f2 3f 70 34 3d 40 d1 b3 4e be 2d c4 06 3d
       1.8954911 2.9563255 -0.20185782 0.03290193
000020 62 cc 16 bf 95 1a 2b c0 16 e6 cb 3e 42 c1 98 be
       -0.58905613 -2.6734974 0.3982398 -0.29834944
000030 95 68 3c 40 ba 1f 74 bf a5 8c c4 be f4 a9 cf be
       2.9438832 -0.9536091 -0.38388553 -0.4055935
000040 70 b8 1c c0 b2 c1 16 40 81 2c 1f 3f 39 ac 85 3e
       -2.4487572 2.3555722 0.6217728 0.26107958
000050 43 43 53 bf 1d 97 94 bf 5e 62 52 3f a1 7d cb 3f
       -0.8252451 -1.1608616 0.82181346 1.5897714
000060 00 9d f7 3f b6 b7 cb 3e a1 52 80 3f e0 d3 2b 3c
       1.9344788 0.39788598 1.0025216 0.010487527
000070 e9 11 99 bd 41 17 be bd be 5d d5 bd 3b 81 85 3c
       -0.07474119 -0.09281779 -0.104182705 0.016296973
000080 6f 4b b6 3f a5 09 92 3d eb e1 d9 bf b1 07 20 bd
       1.424177 0.07130746 -1.702207 -0.039069835
000090 19 50 18 40 73 8b 10 40 a4 5c 89 3e fb e0 09 3d
       2.3798888 2.2585113 0.26828492 0.033661824
0000a0 e7 2e a4 3e 1d 9a a8 3f 2e ae 3f 3c c7 ed 41 bf
       0.32067034 1.3172032 0.0116992425 -0.75753444
0000b0 1a b3 e2 3f f4 c2 56 be 12 dd f4 bc b8 96 d5 be
       1.7710907 -0.20972806 -0.02989057 -0.41716552
0000c0 30 fe c8 3c 13 35 31 3f 6d 39 11 bf 3c 7d 36 be
       0.024535269 0.6922161 -0.5672825 -0.1782121
0000d0 d6 df 3d 3f ac 66 ba 3f f4 d5 ba be c8 19 28 be
       0.7416967 1.4562583 -0.36491358 -0.16416085
0000e0 2d 42 38 3f 62 4c 8c 3f 57 62 e6 bf 08 3f db 3b
       0.71975976 1.096081 -1.7998761 0.0066908635
0000f0 67 cf 08 40 08 db 04 40 71 25 96 3d 13 d8 48 3f
       2.1376588 2.0758686 0.0733136 0.78454703
000100 4d 16 0d bf 6b 33 63 3f d3 bf 52 3d 9c 24 17 3c
       -0.55112153 0.8875033 0.05145247 0.009225037
000110 6e fe 9d bf c7 0e 25 c0 12 f0 2b 3f 2e 89 1b bd
       -1.2343271 -2.579027 0.67163193 -0.03797262
000120 9e 6b 88 3f 12 83 0b 40 3b a2 bb 3f 3c 5c d9 bd
       1.0657842 2.179875 1.4658884 -0.106132954
000130 dc 84 5d 3f 21 30 11 3f bc 02 02 40 2d 2b 0d 3e
       0.8653085 0.56714064 2.031417 0.13786002
000140 dc d2 1a bf e7 af 85 c0 5b bf c1 3e c7 a8 4e 3e
       -0.60477996 -4.1777225 0.37841305 0.20181571
000150 70 5f 02 40 c4 86 bf 3f 2f b4 8a bf b5 31 59 3d
       2.037075 1.4963002 -1.0836238 0.05302592
000160 de 7d 79 c0 40 9e b4 3f ce 2b 19 3f d1 40 53 3d
       -3.8983073 1.4110794 0.59832466 0.051575486
000170 83 c2 b9 3d ba c4 14 be 65 8a 29 bf 3f 31 4e be
       0.09070303 -0.1452817 -0.662268 -0.20135973
000180 c2 2d 8a 3e eb 4e 1e 3c 4f e8 88 bd 77 d8 49 be
       0.26988035 0.00966237 -0.06684934 -0.19711481
000190 bb 5c a4 bf 09 f3 f7 bd aa 70 ed bc 99 18 4f bd
       -1.2840799 -0.12106902 -0.028984386 -0.050560568
0001a0 06 05 90 be 49 71 48 bf 75 09 e7 bc 9b 4c 35 be
       -0.28128833 -0.7829786 -0.028202752 -0.17705004
0001b0 71 23 c2 bf 6e a4 9b 3f 82 4e 83 3f 2a 42 a9 3c
       -1.5167066 1.2159555 1.0258334 0.020661432
0001c0 0a a7 c7 3f 37 a0 ab bf 27 f7 66 c0 12 7a 0a 3e
       1.5597851 -1.3408269 -3.608835 0.13523129
0001d0 83 2a 61 be 02 fd a2 3f 7e 9e 27 3f 91 4e 72 bf
       -0.21988873 1.2733462 0.65476215 -0.9465113
0001e0 cf fa 13 c0 60 12 53 bf 52 26 36 c0 5d 4d dd 3d
       -2.3121831 -0.82449913 -2.846089 0.108057715
0001f0 15 be dc 3e 4f d1 bb be 50 38 67 bf fc fc ab be
       0.4311377 -0.36683127 -0.903203 -0.3359145
000200 3c ed b3 be 54 ed 70 c0 cd d6 75 bf 7c ce 11 3f
       -0.35141933 -3.7644854 -0.96030885 0.56955695
000210 d3 94 9b be 7c 5c 28 c0 34 fe f6 3e b3 1a a9 3b
       -0.3038698 -2.6306448 0.48240817 0.0051606535
000220 4a 36 7c 40 a5 d4 bd bf 5e 0b 0c 3f 4d 02 e8 3c
       3.9408135 -1.4830519 0.54704845 0.02832141
000230 1d dc c7 3e 8e cd 96 3f 8c 3a e6 3d 1a f3 b8 bd
       0.3903512 1.178148 0.11241636 -0.09030743
000240 b3 1c de 3f 20 a7 83 3f f3 18 89 3f 10 ae 58 3c
       1.7352508 1.0285378 1.0710739 0.0132250935
000250 c6 a2 04 bf 7f 52 af 3d 0f fd 5b c0 f8 4c 8a 3d
       -0.5181087 0.08560657 -3.4373205 0.06752962
000260 a4 1c a7 3f 2b 26 85 bf cb 6a 91 3f b7 bc 5c bf
       1.3055615 -1.0402273 1.1360716 -0.86225456
000270 26 b2 d3 3f dc 41 9a 3f a6 a6 20 be 1f 85 d9 ba
       1.6538742 1.2051349 -0.15688571 -0.0016595459
000280 ee 95 46 bf e6 d2 1c 3f 47 75 40 be 5e b4 7d bd
       -0.77572525 0.61259305 -0.18794738 -0.06193959
000290 57 c4 f7 3c 6c e7 dd 3f 0f 6e b1 3e 34 66 18 be
       0.03024499 1.7336249 0.3465428 -0.14882737
0002a0 36 ea 0b 40 16 3a 20 3e f1 40 96 3e 2e ff 29 3c
       2.18617 0.15647158 0.2934642 0.010375781
0002b0 5d cb 4f 3f c3 2e 3a bf c3 f9 3e 3e fe 6c 64 bf
       0.8116968 -0.727276 0.18649964 -0.8922881
0002c0 0d e7 98 3f 50 48 b7 bd 94 a2 d6 3d 33 91 e9 bd
       1.1945511 -0.089493394 0.10480228 -0.11404648
0002d0 af ac 9e 3f 5c e1 65 bf 6f ab 9d 3f cd 59 df bd
       1.2396449 -0.89796996 1.2317942 -0.109058
0002e0 f5 12 87 bf 39 ae 1a bf db 3c a2 bf e7 2f 30 3d
       -1.055266 -0.6042209 -1.2674822 0.043014433
0002f0 6a 5d e5 3f 17 3c ef 3e d7 13 06 40 ca f0 c1 3c
       1.7919133 0.46725532 2.094961 0.023674387
000300 cb b1 d4 3f b5 87 3c bd cc 58 83 3f da fa 2e bd
       1.6616758 -0.046027858 1.0261474 -0.0427197
000310 d6 7e c5 bf 38 4c fe 3f 16 ef 9e bf 7c 39 ce 3d
       -1.5429332 1.986701 -1.2416713 0.10069558
000320 ea 23 4a bf 70 75 78 be 98 f4 d1 bf 1e 1c 7b 3d
       -0.7896105 -0.24263549 -1.6402769 0.06130611
000330 28 36 05 3f f0 89 04 be 9e 16 59 3f 31 44 90 be
       0.5203576 -0.12943244 0.84800136 -0.28177026
000340 02 38 96 bf 1d 1f b7 bf da 6e ad bf 8e a5 e3 3c
       -1.1735842 -1.430637 -1.3549454 0.027788904
000350 f9 8e f1 bf 24 95 12 40 7c aa 80 3e 01 f8 15 3f
       -1.8871757 2.2903528 0.2513007 0.5858155
000360 ce d5 61 3f 63 61 ae 3f 13 f3 9c 3f f6 3c 98 bd
       0.88216865 1.362347 1.226168 -0.074335024
000370 d8 b4 1a 3f be 85 c1 bf 78 b5 8e 3f 3b 65 84 3c
       0.60432196 -1.511894 1.114913 0.016161552
000380 71 ee c1 bf 78 89 07 c0 ef 06 81 bf 0f cf b3 3d
       -1.5150892 -2.1177654 -1.0080241 0.08779728
000390 78 42 8a be d3 f0 bf be 90 3c 46 3e 23 74 8e be
       -0.27003837 -0.37488422 0.1935904 -0.2782298
0003a0 55 c4 5e 3f f8 38 9c c0 2c 00 a4 3f 62 57 12 3e
       0.8701833 -4.881954 1.2812552 0.14291146
0003b0 72 5d dd 3d 8d e0 0c 3f a9 b8 7b c0 53 ec 4e 3d
       0.10808839 0.5503014 -3.9331458 0.050518345
0003c0 39 a1 5f bf c3 12 2f c0 5b 31 32 3e f6 82 33 3d
       -0.8735538 -2.7355201 0.1740164 0.043826066
0003d0 71 6e 67 bf a0 01 02 c0 46 6a cd 3d ac ab 94 be
       -0.90402895 -2.0313492 0.10030036 -0.29037225
0003e0 40 c6 91 bf 0e 6e e4 bf 8d 2b 5c 3f b1 72 a0 3c
       -1.1388626 -1.7846086 0.86003953 0.01958594
0003f0 56 4e 03 c0 8e bd d9 3f 01 09 02 bf cb 6b be 3f
       -2.0516562 1.7010972 -0.5079499 1.4876646

fc1_state.bias f4 [128]
000000 ed a6 95 be 60 91 bb be 3a 0e fc be 9d ed 9c 3f
       -0.29228917 -0.3663435 -0.49229604 1.2260014
000010 91 31 42 bf 00 15 78 bd 8f 65 ac 3e c5 fe 87 3e
       -0.7585688 -0.060566902 0.33671233 0.2656156
000020 15 95 8b 3e 17 2b d6 be 46 34 45 3e ec b3 34 3f
       0.27262178 -0.4182975 0.19258222 0.7058704
000030 64 90 1d 3f b4 ff f1 3d db e3 07 3f 82 16 17 bf
       0.6154845 0.118163496 0.53082055 -0.5901872
000040 39 79 87 be 4b bb fb 3c 4b b5 6e be 7e 85 8a bf
       -0.26459673 0.030728957 -0.23311345 -1.0821989
000050 d0 0c 13 3f 5f 10 4b bf 7f 1b ab be 71 5c 28 3f
       0.57441425 -0.79321855 -0.33419415 0.65766054
000060 8d 5e 4b 3f 2e b4 7f 3d 44 d4 d4 3e 93 2c 46 bf
       0.7944115 0.062427692 0.41568196 -0.77411765
000070 63 fd b3 3e 18 89 2c bd 5a 24 e1 be 56 e7 95 be
       0.35154256 -0.04212293 -0.43973047 -0.29278058
000080 f0 dc 12 3f 4c 95 0d 3f 64 12 89 3e a4 2b 51 3e
       0.57368374 0.55305934 0.26771843 0.20426804
000090 73 c2 35 bf ec 45 81 3f 0c 2d ba be ac 0c 92 3f
       -0.7099983 1.0099463 -0.36362493 1.1410117
0000a0 9b b1 59 3f 84 63 16 bd 0a 4d a3 bf a8 ef 1a 3f
       0.8503663 -0.036716 -1.2757885 0.60521936
0000b0 43 b8 33 3e 70 8c 16 3f a2 ad c4 bf a9 48 78 be
       0.17550759 0.5880804 -1.5365489 -0.24246468
0000c0 f9 6d 9e be 2e 2e 23 bf d2 27 8c bf 13 fe 27 bf
       -0.30943277 -0.6374234 -1.0949652 -0.6562206
0000d0 21 58 46 bf 45 f9 6d bf 61 a3 23 3f 98 29 2d 3f
       -0.77478224 -0.9295848 0.6392117 0.6764159
0000e0 57 94 0d bf 91 90 7a 3e 9f 68 0a 3f b3 33 2d 3f
       -0.55304474 0.2446921 0.5406589 0.6765701
0000f0 0f 47 fb be 23 f3 09 3e ec c7 d0 bd 22 ad 8b bf
       -0.4907765 0.13471656 -0.10194382 -1.0912211
000100 2b b4 77 bf cf 3f 8f 3e 34 49 c6 bd a9 9e 0e 3f
       -0.9675929 0.2797837 -0.09681931 0.55710846
000110 4f fb 4d 3e 6c 5d 4a 3f 70 f8 4d bf 28 96 d6 bd
       0.20115398 0.790488 -0.8045721 -0.10477859
000120 ab 7a b2 3f 2f 7d d8 be 9c 77 32 bf b3 bc 05 3f
       1.3943685 -0.42283008 -0.6971376 0.5224106
000130 73 22 0e 3e b1 cc e6 3e 19 e9 af bf cc a5 23 3f
       0.13880329 0.45078042 -1.3743011 0.6392486
000140 96 56 74 bf fc 9b 20 3f 20 5a 5b bf 96 2a 58 bf
       -0.9544462 0.62738013 -0.85684395 -0.8443998
000150 b5 24 68 be 07 23 8d be 10 e4 50 be 44 60 6f be
       -0.22670253 -0.27565786 -0.20399499 -0.23376566
000160 99 8d 56 3f 8e 75 85 3f ec 58 95 3f 49 66 b1 3d
       0.8380981 1.04265 1.1667762 0.086620875
000170 f9 f1 9d be 86 62 38 3e 07 ca f8 3e 3b e1 4a 3f
       -0.30848673 0.18006334 0.48591635 0.79249924
000180 ab 9f 9f bd d7 55 05 3f be 7d bd 3d 4f ef b7 3e
       -0.07794126 0.52084106 0.09252499 0.35924765
000190 fa 80 13 3d 65 4c 5b 3e 37 aa 52 3d ec 4d 32 bf
       0.036011674 0.21415861 0.05143186 -0.6965015
0001a0 f2 59 a7 3d e3 d9 02 be 69 a9 93 bf eb 87 5c 3e
       0.081714526 -0.1277843 -1.1536075 0.21536224
0001b0 e6 4e 22 bd b6 66 2c 3d 46 84 8d 3c 6e 17 fc be
       -0.039626025 0.04209014 0.017274987 -0.49236625
0001c0 73 a6 b7 3d a7 cb 87 bf 12 33 1c 3f 83 74 35 bd
       0.089672945 -1.0609025 0.6101543 -0.044300567
0001d0 17 7b 9d 3b 92 df 0e 3f 8b 46 64 3f 38 5a 4a bf
       0.004805933 0.5580989 0.8917014 -0.7904391
0001e0 8e 15 3d 3f 7e e1 52 3d e1 fd 83 bf 69 7e b3 3e
       0.73861015 0.051484577 -1.0311853 0.3505738
0001f0 df 7d b2 be fc cc 0b 3f d9 ed 28 bf 2d d2 93 bf
       -0.34861657 0.54609656 -0.65987927 -1.1548516

bn1_state.weight f4 [128]
000000 af d2 33 3f 09 66 db 3f 03 ac 90 3f 8d 3c 9e 3f
       0.7024335 1.7140514 1.1302494 1.2362229
000010 61 c6 68 3f a7 ce e3 3e 4c 1c 62 3f 82 f5 13 3c
       0.909277 0.444936 0.8832443 0.009030702
000020 76 f7 c9 3f c6 04 44 3f 11 f1 87 3f c1 6f 94 3f
       1.5778644 0.76569784 1.0620443 1.1596605
000030 3d 44 35 3f 3f 8b 8b 3f a5 7e ed 3f 42 83 08 3f
       0.7080725 1.090187 1.8554274 0.53325284
000040 4e 9d 0e 3f bc 73 89 3f 96 98 83 3f 25 10 56 3f
       0.5570878 1.0738444 1.028094 0.83618385
000050 ab 0b 8d 3f 5c 51 85 3f 6d 45 6a 3f db d5 18 3f
       1.1019186 1.0415454 0.91512185 0.5970132
000060 3f f4 63 3f b4 67 80 3f f0 c2 76 3f 06 13 84 3f
       0.89044565 1.0031648 0.963912 1.0318305
000070 8c c1 18 3f d0 34 78 3f 21 41 41 3f 02 4d f1 3e
       0.5967033 0.96955585 0.75490004 0.47129065
000080 18 2c 58 3f f9 e2 d7 3f 46 01 8f 3f 9f 1b 9b 3f
       0.8444228 1.6866142 1.1172264 1.2117804
000090 1c 96 fe 3e 23 39 fc 3f a5 67 ff 3e 9e da a1 3f
       0.497239 1.9704937 0.49883762 1.2644842
0000a0 eb 58 a8 3f ca 86 87 3f 72 d7 53 3f 4b fc d1 3e
       1.3152136 1.0588009 0.8275062 0.41012797
0000b0 2c 14 af 3f f4 8f 16 3f b2 36 05 3f f5 04 96 3f
       1.3678031 0.58813405 0.52036583 1.1720263
0000c0 cd 6b 97 3f b1 ec 38 3f 97 67 d7 3e 23 f5 21 3f
       1.1829773 0.7223616 0.4207122 0.63264674
0000d0 77 e8 d9 3e d7 b5 3a 3f ac cf 81 3f bb 66 7e 3f
       0.4256017 0.72933716 1.0141501 0.99375504
0000e0 44 09 87 3f 84 3b 27 3f 4c fe 9f 3f 1f f0 19 3f
       1.0549703 0.6532519 1.249948 0.6013202
0000f0 45 d8 5d 3f 06 68 b8 3f db 5b 88 3f d4 32 03 3f
       0.86658126 1.4406745 1.0653032 0.5124943
000100 c8 da 9c 3f f3 0d 2e 3f 16 b9 96 3e e1 c7 67 3f
       1.2254267 0.67990035 0.29438084 0.90539366
000110 17 71 a1 3f 13 eb 36 3f e0 44 db 3f f3 94 5b 3f
       1.2612637 0.71452445 1.7130394 0.85774153
000120 2b 75 af 3f d5 13 81 3f f7 8d c3 3f f2 08 ba 3f
       1.3707632 1.0084177 1.5277699 1.453398
000130 a5 f8 8e 3f e0 ce 2b 40 30 ff 9d 3e a1 db 67 3f
       1.116963 2.6845016 0.30858755 0.905695
000140 8e 38 a4 3f b5 b9 da 3f 7b 61 88 3f 12 f6 26 3f
       1.2829759 1.7087923 1.0654749 0.65219223
000150 c5 58 85 3e 65 ea 8b 3f 84 e5 19 3f 5f b0 8f 3f
       0.26044288 1.0930907 0.6011584 1.1225699
000160 2c 8f 2f 3f a2 65 7c 3f dd 6c ca 3f 08 5e 61 3f
       0.6857784 0.9859258 1.5814472 0.88034105
000170 14 1a 8b 3e 18 ee 89 3f b7 55 15 40 15 fb 6b 3f
       0.27168334 1.0775785 2.3333566 0.92179996
000180 ce 8c 73 3f 2b a2 6d 3f e7 ee 6a 3f 9b 86 07 3f
       0.95136726 0.92825574 0.91770786 0.52939767
000190 14 4e 71 3f 20 58 d2 3e 52 df 98 3f 23 fb 31 3f
       0.9425976 0.4108286 1.1943152 0.6952383
0001a0 a9 20 42 3f 44 5f 04 3f 7c 9b 03 3e 87 24 09 3f
       0.75831085 0.51707864 0.12852281 0.5357136
0001b0 27 7d 72 3f 61 54 ad 3f 03 03 8c 3f d0 b1 54 3f
       0.9472222 1.3541375 1.0938419 0.8308382
0001c0 9f b6 13 3f 8b 48 74 3f fb 87 93 3f c5 c0 19 3f
       0.5770053 0.9542319 1.1525873 0.6005977
0001d0 cb e3 e9 3e 74 87 58 3f 15 30 85 3f c5 71 88 3f
       0.45681605 0.84581685 1.0405298 1.065972
0001e0 c0 1d 8f 3f 95 83 80 3f 27 1d b8 3f 8d d7 da 3f
       1.1180954 1.0040156 1.4383897 1.7097031
0001f0 eb 9b 22 40 4a 52 6b 3f 90 96 53 3f 72 5c d5 3d
       2.5407665 0.9192244 0.82651615 0.10418023

bn1_state.bias f4 [128]
000000 6c 24 21 be 23 08 d3 be e7 2e 3d be 23 f8 6a 3f
       -0.1573655 -0.41217145 -0.18474923 0.91784877
000010 e2 f7 fc be b4 74 bf be 48 97 32 3e ed 40 55 bd
       -0.4940787 -0.37393725 0.17440522 -0.05206387
000020 a7 2f 5e 3e 90 6e 22 bf eb 59 ef bd e3 41 15 3f
       0.21697865 -0.63449955 -0.11687072 0.5830366
000030 f4 6b ef 3e 3f 53 0c 3f 59 98 49 3e 64 74 f0 be
       0.4676205 0.54814523 0.19687022 -0.469638
000040 d2 4c 6c bd 5a 19 ba bd 5e 1a 5a 3e 02 01 1a bf
       -0.05769045 -0.09086867 0.21299121 -0.6015779
000050 83 7f 12 3f e4 6a d5 be 70 f1 cf bd 70 cc 80 3f
       0.5722582 -0.41683114 -0.101534724 1.0062389
000060 d5 cf ba 3e 19 de d3 3e 32 06 83 3e 07 8a aa be
       0.36486688 0.41380385 0.25590664 -0.33308432
000070 06 9d 20 3f 8a 69 60 be d9 3e 14 be 6b 77 34 3e
       0.627396 -0.2191526 -0.144771 0.1762368
000080 0a 42 13 3f 37 0d 71 3e ce 11 cc 3e 86 a3 65 3d
       0.5752264 0.23540197 0.39857334 0.05606415
000090 b9 25 0f bf ce 7a 4a 3f 27 ef 3e be 05 aa 6a 3f
       -0.55916935 0.79093635 -0.18645917 0.9166568
0000a0 74 00 05 3f a7 53 df bd b2 96 43 bf 2a 77 18 3e
       0.51953816 -0.10904627 -0.7640182 0.14889207
0000b0 30 2d 1e 3e fd 55 c8 3e 61 9c ad bf 58 60 8c 3d
       0.15446925 0.39128104 -1.3563348 0.068543136
0000c0 85 15 18 be 6f bd 19 bf ef b3 14 bf fb 2e ee be
       -0.14851959 -0.6005468 -0.58087057 -0.46520218
0000d0 b0 9b 4e bf d0 39 05 bf 65 60 a1 3e a2 2d 01 3f
       -0.8070631 -0.5204134 0.31518856 0.50460255
0000e0 54 2d 28 be 59 b4 47 bd a5 5d fe 3e b4 09 71 3e
       -0.16423541 -0.048755977 0.4968082 0.23538858
0000f0 78 63 de bd 7c 6a cc bd 30 d8 39 3e 1e 4c 8c bf
       -0.10858816 -0.09981248 0.18148875 -1.0960729
000100 82 ba 05 bf 12 ae c0 3e 5b 44 e5 be bf 76 ea 3d
       -0.52237713 0.37632805 -0.44778714 0.1144843
000110 bb 19 8c 3d 81 5c 17 3f a8 68 c0 be 0e 7e 57 bc
       0.06840845 0.59125525 -0.37579846 -0.013152612
000120 8e c0 69 3f 9b 72 ae bc ac d0 e6 be 46 58 11 3f
       0.9130944 -0.021294883 -0.4508108 0.5677532
000130 23 41 77 3e 47 4a 24 3f 99 fb 82 bf d7 36 45 3e
       0.24145941 0.6417584 -1.0233032 0.19259201
000140 1e 6e 01 bf 2e 11 8a 3e a2 60 e6 be b7 aa ca be
       -0.5055865 0.26966232 -0.449956 -0.3958337
000150 b6 ea 46 bd f6 01 47 3d ae 6c 1c bf 83 7b 55 3e
       -0.04856368 0.048585854 -0.6110333 0.20847897
000160 cc 52 eb 3e 41 58 24 3f 72 ea 49 3f 90 ac 36 3e
       0.45961607 0.64197165 0.7887336 0.17839265
000170 c4 66 13 3e e2 21 f9 3e 4d 02 1e 3f 16 17 d2 3e
       0.1439467 0.48658663 0.6172226 0.41033238
000180 ee a9 68 bd ac 35 0d 3f 32 4f c8 be 2e ba ed 3b
       -0.056802683 0.5516002 -0.3912292 0.0072548604
000190 ea 99 a7 be 88 55 19 be 68 12 9d 3d 23 52 41 bf
       -0.32734615 -0.14974034 0.07669526 -0.75515956
0001a0 05 12 a1 3e bf 1c 92 3e e9 b1 4e bf 6b b2 b6 3e
       0.3145906 0.28537557 -0.8074022 0.35682997
0001b0 6d e2 72 bc b5 88 84 3e 51 29 f0 bd 5d 2b 37 be
       -0.014824492 0.2588555 -0.117266305 -0.17887636
0001c0 69 1d 08 3e 5c 88 22 bf 20 22 f2 3e da 23 37 3e
       0.13292469 -0.6348932 0.4729166 0.1788477
0001d0 38 76 39 3e fa 73 be 3e 01 c3 04 3f 3a 0f ea be
       0.18111503 0.37197858 0.5186005 -0.45714742
0001e0 15 34 c8 3e 46 88 95 bc e0 c7 39 bf 9e 2a d1 3e
       0.39102235 -0.018253457 -0.7257061 0.40852827
0001f0 d1 01 4d be 82 52 9d 3e 92 da 48 bf 25 c1 27 bf
       -0.20020224 0.3072701 -0.7845851 -0.6552909

bn1_state.running_mean f4 [128]
000000 00 00 00 00 00 00 00 00 00 00 00 00 00 00 00 00
       0.0 0.0 0.0 0.0
000010 00 00 00 00 00 00 00 00 00 00 00 00 00 00 00 00
       0.0 0.0 0.0 0.0
000020 00 00 00 00 00 00 00 00 00 00 00 00 00 00 00 00
       0.0 0.0 0.0 0.0
000030 00 00 00 00 00 00 00 00 00 00 00 00 00 00 00 00
       0.0 0.0 0.0 0.0
000040 00 00 00 00 00 00 00 00 00 00 00 00 00 00 00 00
       0.0 0.0 0.0 0.0
000050 00 00 00 00 00 00 00 00 00 00 00 00 00 00 00 00
       0.0 0.0 0.0 0.0
000060 00 00 00 00 00 00 00 00 00 00 00 00 00 00 00 00
       0.0 0.0 0.0 0.0
000070 00 00 00 00 00 00 00 00 00 00 00 00 00 00 00 00
       0.0 0.0 0.0 0.0
000080 00 00 00 00 00 00 00 00 00 00 00 00 00 00 00 00
       0.0 0.0 0.0 0.0
000090 00 00 00 00 00 00 00 00 00 00 00 00 00 00 00 00
       0.0 0.0 0.0 0.0
0000a0 00 00 00 00 00 00 00 00 00 00 00 00 00 00 00 00
       0.0 0.0 0.0 0.0
0000b0 00 00 00 00 00 00 00 00 00 00 00 00 00 00 00 00
       0.0 0.0 0.0 0.0
0000c0 00 00 00 00 00 00 00 00 00 00 00 00 00 00 00 00
       0.0 0.0 0.0 0.0
0000d0 00 00 00 00 00 00 00 00 00 00 00 00 00 00 00 00
       0.0 0.0 0.0 0.0
0000e0 00 00 00 00 00 00 00 00 00 00 00 00 00 00 00 00
       0.0 0.0 0.0 0.0
0000f0 00 00 00 00 00 00 00 00 00 00 00 00 00 00 00 00
       0.0 0.0 0.0 0.0
000100 00 00 00 00 00 00 00 00 00 00 00 00 00 00 00 00
       0.0 0.0 0.0 0.0
000110 00 00 00 00 00 00 00 00 00 00 00 00 00 00 00 00
       0.0 0.0 0.0 0.0
000120 00 00 00 00 00 00 00 00 00 00 00 00 00 00 00 00
       0.0 0.0 0.0 0.0
000130 00 00 00 00 00 00 00 00 00 00 00 00 00 00 00 00
       0.0 0.0 0.0 0.0
000140 00 00 00 00 00 00 00 00 00 00 00 00 00 00 00 00
       0.0 0.0 0.0 0.0
000150 00 00 00 00 00 00 00 00 00 00 00 00 00 00 00 00
       0.0 0.0 0.0 0.0
000160 00 00 00 00 00 00 00 00 00 00 00 00 00 00 00 00
       0.0 0.0 0.0 0.0
000170 00 00 00 00 00 00 00 00 00 00 00 00 00 00 00 00
       0.0 0.0 0.0 0.0
000180 00 00 00 00 00 00 00 00 00 00 00 00 00 00 00 00
       0.0 0.0 0.0 0.0
000190 00 00 00 00 00 00 00 00 00 00 00 00 00 00 00 00
       0.0 0.0 0.0 0.0
0001a0 00 00 00 00 00 00 00 00 00 00 00 00 00 00 00 00
       0.0 0.0 0.0 0.0
0001b0 00 00 00 00 00 00 00 00 00 00 00 00 00 00 00 00
       0.0 0.0 0.0 0.0
0001c0 00 00 00 00 00 00 00 00 00 00 00 00 00 00 00 00
       0.0 0.0 0.0 0.0
0001d0 00 00 00 00 00 00 00 00 00 00 00 00 00 00 00 00
       0.0 0.0 0.0 0.0
0001e0 00 00 00 00 00 00 00 00 00 00 00 00 00 00 00 00
       0.0 0.0 0.0 0.0
0001f0 00 00 00 00 00 00 00 00 00 00 00 00 00 00 00 00
       0.0 0.0 0.0 0.0

bn1_state.running_var f4 [128]
000000 00 00 80 3f 00 00 80 3f 00 00 80 3f 00 00 80 3f
       1.0 1.0 1.0 1.0
000010 00 00 80 3f 00 00 80 3f 00 00 80 3f 00 00 80 3f
       1.0 1.0 1.0 1.0
000020 00 00 80 3f 00 00 80 3f 00 00 80 3f 00 00 80 3f
       1.0 1.0 1.0 1.0
000030 00 00 80 3f 00 00 80 3f 00 00 80 3f 00 00 80 3f
       1.0 1.0 1.0 1.0
000040 00 00 80 3f 00 00 80 3f 00 00 80 3f 00 00 80 3f
       1.0 1.0 1.0 1.0
000050 00 00 80 3f 00 00 80 3f 00 00 80 3f 00 00 80 3f
       1.0 1.0 1.0 1.0
000060 00 00 80 3f 00 00 80 3f 00 00 80 3f 00 00 80 3f
       1.0 1.0 1.0 1.0
000070 00 00 80 3f 00 00 80 3f 00 00 80 3f 00 00 80 3f
       1.0 1.0 1.0 1.0
000080 00 00 80 3f 00 00 80 3f 00 00 80 3f 00 00 80 3f
       1.0 1.0 1.0 1.0
000090 00 00 80 3f 00 00 80 3f 00 00 80 3f 00 00 80 3f
       1.0 1.0 1.0 1.0
0000a0 00 00 80 3f 00 00 80 3f 00 00 80 3f 00 00 80 3f
       1.0 1.0 1.0 1.0
0000b0 00 00 80 3f 00 00 80 3f 00 00 80 3f 00 00 80 3f
       1.0 1.0 1.0 1.0
0000c0 00 00 80 3f 00 00 80 3f 00 00 80 3f 00 00 80 3f
       1.0 1.0 1.0 1.0
0000d0 00 00 80 3f 00 00 80 3f 00 00 80 3f 00 00 80 3f
       1.0 1.0 1.0 1.0
0000e0 00 00 80 3f 00 00 80 3f 00 00 80 3f 00 00 80 3f
       1.0 1.0 1.0 1.0
0000f0 00 00 80 3f 00 00 80 3f 00 00 80 3f 00 00 80 3f
       1.0 1.0 1.0 1.0
000100 00 00 80 3f 00 00 80 3f 00 00 80 3f 00 00 80 3f
       1.0 1.0 1.0 1.0
000110 00 00 80 3f 00 00 80 3f 00 00 80 3f 00 00 80 3f
       1.0 1.0 1.0 1.0
000120 00 00 80 3f 00 00 80 3f 00 00 80 3f 00 00 80 3f
       1.0 1.0 1.0 1.0
000130 00 00 80 3f 00 00 80 3f 00 00 80 3f 00 00 80 3f
       1.0 1.0 1.0 1.0
000140 00 00 80 3f 00 00 80 3f 00 00 80 3f 00 00 80 3f
       1.0 1.0 1.0 1.0
000150 00 00 80 3f 00 00 80 3f 00 00 80 3f 00 00 80 3f
       1.0 1.0 1.0 1.0
000160 00 00 80 3f 00 00 80 3f 00 00 80 3f 00 00 80 3f
       1.0 1.0 1.0 1.0
000170 00 00 80 3f 00 00 80 3f 00 00 80 3f 00 00 80 3f
       1.0 1.0 1.0 1.0
000180 00 00 80 3f 00 00 80 3f 00 00 80 3f 00 00 80 3f
       1.0 1.0 1.0 1.0
000190 00 00 80 3f 00 00 80 3f 00 00 80 3f 00 00 80 3f
       1.0 1.0 1.0 1.0
0001a0 00 00 80 3f 00 00 80 3f 00 00 80 3f 00 00 80 3f
       1.0 1.0 1.0 1.0
0001b0 00 00 80 3f 00 00 80 3f 00 00 80 3f 00 00 80 3f
       1.0 1.0 1.0 1.0
0001c0 00 00 80 3f 00 00 80 3f 00 00 80 3f 00 00 80 3f
       1.0 1.0 1.0 1.0
0001d0 00 00 80 3f 00 00 80 3f 00 00 80 3f 00 00 80 3f
       1.0 1.0 1.0 1.0
0001e0 00 00 80 3f 00 00 80 3f 00 00 80 3f 00 00 80 3f
       1.0 1.0 1.0 1.0
0001f0 00 00 80 3f 00 00 80 3f 00 00 80 3f 00 00 80 3f
       1.0 1.0 1.0 1.0

fc1_action.weight f4 [32, 2]
000000 bc ff 0c 40 c3 b0 62 bf 2e 7f c0 bf ed 6c 8f be
       2.2031088 -0.88550967 -1.5038812 -0.2801279
000010 f9 6a 9d bf e5 95 51 3f 80 35 dd 3d e4 8d 67 bf
       -1.229827 0.81869346 0.1080122 -0.9045088
000020 e2 ae 0b bf ac e2 bd 3f a0 d7 01 c0 81 f0 34 3f
       -0.54563725 1.48348 -2.0287857 0.7067948
000030 df c0 0b 3f 6d 76 63 3f b7 1d 8e be 93 45 f7 be
       0.5459117 0.8885258 -0.27757046 -0.48295268
000040 b8 48 ef 3f 1f fa ae 3f 2d 50 c0 be 52 7f c2 be
       1.8694067 1.3670081 -0.3756117 -0.37987763
000050 10 fe f9 3e 36 6a e6 bf 76 71 0b bf d7 84 c4 3f
       0.48826647 -1.8001163 -0.5447 1.535304
000060 45 30 61 bf f4 9d 11 bf d7 05 7b 3f 4a 53 c0 3f
       -0.8796428 -0.5688164 0.98055786 1.5025418
000070 0d 1b 3f bf ca 63 87 be b5 fb da be 78 c7 bc 3f
       -0.7465065 -0.2644332 -0.42770162 1.4748373
000080 27 02 90 3f 28 cc 0c be ee 10 c5 3f dc f4 ae 3f
       1.1250657 -0.13749754 1.5395792 1.3668475
000090 93 2e 75 3e da e9 6a 3e 10 2c 3d c0 26 d2 8d bf
       0.23943548 0.2294077 -2.9558144 -1.1079757
0000a0 fa d0 94 bf 2f e3 8d 3f 7e cf d7 3e 47 0e 86 be
       -1.1626275 1.1084956 0.4215049 -0.26182768
0000b0 ed 2a 28 3e ba 04 ce 3d bd 40 9d 3f 1f ba 0a 3f
       0.16422625 0.10059495 1.2285382 0.5419025
0000c0 6d 55 31 3e d7 de 0f be bf 0f 66 bf cd 60 8e bf
       0.17317744 -0.1404985 -0.89867777 -1.1123291
0000d0 b6 b3 66 be ea cc 9f bf d3 70 a0 bf 19 43 b2 be
       -0.22529492 -1.248441 -1.2534431 -0.34816816
0000e0 ee 6a bc bf b6 b8 29 c0 15 b2 8f 3f 0b dc e0 3f
       -1.4720132 -2.6518989 1.1226221 1.7567152
0000f0 35 c0 7a be b5 a3 1a 40 44 62 d1 be d6 32 bd 3e
       -0.24487384 2.416242 -0.40895283 0.36952847

fc1_action.bias f4 [32]
000000 8d 2f 8c 3f 83 f8 1a bf 80 f8 4d bf ae 92 93 3f
       1.0952011 -0.6053545 -0.80457306 1.1529138
000010 c1 cc 4e 3f 69 9b db bd 2d 84 56 3f 32 95 c5 bf
       0.8078118 -0.107230015 0.83795434 -1.5436156
000020 0c 92 a5 3e 26 11 96 3f fc f0 2c 3e 27 3d 76 3f
       0.32337987 1.1723983 0.16888803 0.9618706
000030 49 6b cd 3f 4d 1c 6b 3f a8 9c 19 bf 9b 3d 60 be
       1.6048366 0.9184006 -0.60004663 -0.218985
000040 28 2e d2 3f eb 43 a6 3d 66 4e a8 bf 08 c3 34 3e
       1.6420336 0.08118423 -1.3148925 0.17652524
000050 04 fb dd 3f a5 a4 c6 bf 41 7e 91 bf 39 01 6e 3f
       1.7342229 -1.5518996 -1.1366655 0.92970616
000060 eb db 35 3f 2a 9b c8 3f 13 ef be 3f f1 5b 00 bf
       0.71038693 1.5672352 1.491671 -0.5014029
000070 2d 56 a4 3f 70 90 cf 3f 7b e8 e6 3e 13 09 8f 3f
       1.2838799 1.6215954 0.45099244 1.1174644

bn1_action.weight f4 [32]
000000 e7 37 bd 3f 3d 4b c9 3f b3 59 c7 3f 44 4d 15 40
       1.4782685 1.5726086 1.5574249 2.332841
000010 fb f1 c9 3f 9f fd b9 3f 11 e9 b1 3f 52 3c e2 3f
       1.5776972 1.4530524 1.3899251 1.7674658
000020 96 c3 b7 3f e9 c8 e6 3f 19 07 d5 3f fc 79 d0 3f
       1.4356563 1.8030063 1.6642791 1.6287227
000030 f6 28 f0 3f c5 a6 b8 3f 17 7b ef 3f 26 dd f6 3f
       1.87625 1.4425894 1.8709439 1.9286239
000040 c3 4d c9 3f 36 8a c0 3f bb 61 01 40 bf d1 bf 3f
       1.5726856 1.5042179 2.02159 1.4985884
000050 50 ba e2 3f a4 d3 ef 3f 92 41 00 40 80 92 af 3f
       1.7713108 1.8736463 2.004002 1.3716583
000060 0a 42 ca 3f 69 b7 e7 3f 25 f4 14 40 2e 97 bd 3f
       1.5801404 1.8102847 2.3274014 1.4811761
000070 bd 5b bb 3f f0 38 c0 3f 13 4a b6 3f 6b e5 ec 3f
       1.4637371 1.5017376 1.4241356 1.8507513

bn1_action.bias f4 [32]
000000 f1 1e 02 3f ee b3 0f 3d 5c 37 2f be b6 9e 67 3f
       0.5082846 0.035083704 -0.17110962 0.9047655
000010 24 3b 7c 3f 5f 31 b4 3c 83 9f 7c 3f 47 55 63 bf
       0.9852774 0.021996198 0.98680896 -0.88802
000020 3f 6f 20 3f ec f7 4f 3f 20 64 0f 3f 80 22 78 3f
       0.6266975 0.81237674 0.56012154 0.9692764
000030 f2 c8 8b 3f 9d 24 6b 3f 57 3f 88 bd 1c 66 65 3d
       1.0920699 0.9185274 -0.06652706 0.056005582
000040 b7 78 73 3f 1c 43 09 3f 10 d3 5d bf ce f9 cd 3d
       0.9510607 0.53618026 -0.8665018 0.10057412
000050 e7 4a 8c 3f 3f 39 5c bf a8 d8 63 bf d1 64 61 3f
       1.0960358 -0.8602485 -0.89002466 0.8804446
000060 3a c6 52 3f ea 63 7e 3f ce 3b 6b 3f f2 59 a8 3d
       0.8233372 0.99371207 0.9188813 0.08220281
000070 a0 88 43 3f de 54 90 3f e6 04 5f 3f 4c c8 81 3f
       0.7638035 1.12759 0.8711685 1.0139251

bn1_action.running_mean f4 [32]
000000 00 00 00 00 00 00 00 00 00 00 00 00 00 00 00 00
       0.0 0.0 0.0 0.0
000010 00 00 00 00 00 00 00 00 00 00 00 00 00 00 00 00
       0.0 0.0 0.0 0.0
000020 00 00 00 00 00 00 00 00 00 00 00 00 00 00 00 00
       0.0 0.0 0.0 0.0
000030 00 00 00 00 00 00 00 00 00 00 00 00 00 00 00 00
       0.0 0.0 0.0 0.0
000040 00 00 00 00 00 00 00 00 00 00 00 00 00 00 00 00
       0.0 0.0 0.0 0.0
000050 00 00 00 00 00 00 00 00 00 00 00 00 00 00 00 00
       0.0 0.0 0.0 0.0
000060 00 00 00 00 00 00 00 00 00 00 00 00 00 00 00 00
       0.0 0.0 0.0 0.0
000070 00 00 00 00 00 00 00 00 00 00 00 00 00 00 00 00
       0.0 0.0 0.0 0.0

bn1_action.running_var f4 [32]
000000 00 00 80 3f 00 00 80 3f 00 00 80 3f 00 00 80 3f
       1.0 1.0 1.0 1.0
000010 00 00 80 3f 00 00 80 3f 00 00 80 3f 00 00 80 3f
       1.0 1.0 1.0 1.0
000020 00 00 80 3f 00 00 80 3f 00 00 80 3f 00 00 80 3f
       1.0 1.0 1.0 1.0
000030 00 00 80 3f 00 00 80 3f 00 00 80 3f 00 00 80 3f
       1.0 1.0 1.0 1.0
000040 00 00 80 3f 00 00 80 3f 00 00 80 3f 00 00 80 3f
       1.0 1.0 1.0 1.0
000050 00 00 80 3f 00 00 80 3f 00 00 80 3f 00 00 80 3f
       1.0 1.0 1.0 1.0
000060 00 00 80 3f 00 00 80 3f 00 00 80 3f 00 00 80 3f
       1.0 1.0 1.0 1.0
000070 00 00 80 3f 00 00 80 3f 00 00 80 3f 00 00 80 3f
       1.0 1.0 1.0 1.0

fc2.weight f4 [200, 160]
000000 6c f3 0c 3e e3 bc 66 3e 1a b6 d9 3d 17 35 a4 3d
       0.13764733 0.22532992 0.10630436 0.080179386
000010 9a 6e 10 be a6 55 56 be 42 8d 5b 3d 6c cd 83 bd
       -0.14104691 -0.2093111 0.05360151 -0.064356655
000020 17 95 a6 be 97 e4 4a be 93 2a 81 be ff ef 6c 3f
       -0.32535622 -0.19813763 -0.25227794 0.92553705
000030 f9 ad 20 3e 5b 7f 6a 3c 15 31 88 3d f2 82 6a be
       0.15691365 0.0143125905 0.06649987 -0.22901514
000040 c0 02 a2 be 4e 32 46 3d 77 38 1a be 23 da 56 be
       -0.31642723 0.048387818 -0.15060602 -0.2098165
000050 a0 de a0 3d c4 f7 3e 3e 3a ee 6b be 77 a7 c4 3d
       0.07854962 0.18649203 -0.23040095 0.09602254
000060 ea 3c 03 3f 15 9f c3 be cf 11 4e 3f 3d 91 1a be
       0.5126482 -0.38207307 0.80495924 -0.15094467
000070 4d 90 42 3d 2d b5 88 3e 28 1d 60 3e a9 f1 cd 3d
       0.047500897 0.26700726 0.21886122 0.10055859
000080 a1 dd 23 be 87 d8 88 3e 11 3f a0 bd 95 c2 9d 3c
       -0.16002513 0.26727697 -0.07824529 0.019257823
000090 49 c7 8a be 1c 8b b4 3e 39 fb 63 3e a5 6c af 3e
       -0.27105168 0.35262382 0.22263803 0.34262577
0000a0 e8 8d 00 be 31 47 07 be 97 db 2d be d7 fb 3a 3f
       -0.12554133 -0.13210751 -0.16978298 0.7304053
0000b0 c5 58 74 3e e9 3d e3 3d 54 1d fd 3d 83 06 1c be
       0.23861988 0.11095793 0.123591095 -0.15236859
0000c0 40 59 49 3e d5 4a a6 3d 1f 9f 41 3e 01 6f 1a 3e
       0.19662952 0.08119742 0.18908356 0.15081407
0000d0 d8 4c 37 3e b7 a6 dc be bf f0 8f bd 34 6a f3 bc
       0.17900407 -0.43095943 -0.070283405 -0.029713728
0000e0 bc ea 0b 3e 52 a0 d2 bb df d5 ae bc ab 69 ab 3d
       0.13663763 -0.006427803 -0.021342216 0.08369764
0000f0 d3 0c 9d 3d f6 1d a0 3e 67 ba 8b 3d e8 ce 3c bd
       0.07668462 0.31272858 0.06822663 -0.04609576
000100 28 fc f0 bd 56 da 1f 3e e8 19 d8 bd 26 f8 49 3e
       -0.11766845 0.15610632 -0.10551816 0.19723567
000110 b6 de 85 be 02 fa 70 3e 2b 6f 10 be fc 4c 46 bd
       -0.26146477 0.2353287 -0.14104907 -0.04841326
000120 6c 17 8d bd 45 9e 11 bd fb 3f 08 be 5b 1e 87 3b
       -0.06889233 -0.03555133 -0.13305657 0.0041234917
000130 63 89 64 bd 80 a1 07 3f 13 0e 30 bc e2 32 6e bd
       -0.055795085 0.52980804 -0.010745543 -0.058153994
000140 ad ce c0 bc 6a 3b d3 be 57 8c d1 be ee 2f d8 3d
       -0.02353605 -0.41256267 -0.40927383 0.10556017
000150 40 29 bb 3d 95 aa 3c bd 1e 3d 44 be 8e 18 11 be
       0.09138727 -0.046061117 -0.1916394 -0.14169523
000160 0e 20 34 3e 2a d4 98 bc 82 f1 93 3e 4c a2 00 3d
       0.17590353 -0.018655855 0.28895193 0.03140478
000170 ea 3c 19 be 91 59 c3 bd 5e 4d 06 3f c0 49 95 3e
       -0.14964643 -0.09538568 0.524618 0.2915783
000180 19 ef 13 be 26 91 e8 3e c9 58 4d be 2a 9f a8 bc
       -0.14446677 0.4542324 -0.200534 -0.020583708
000190 37 d6 93 be f3 78 2a be 02 4d c8 3e 0a c5 af be
       -0.2887437 -0.16647701 0.39121252 -0.34330016
0001a0 84 95 9e 3e 9e c1 f7 3d d1 c0 f0 bd 7d 5b 60 3c
       0.30973446 0.120974764 -0.11755527 0.0136936875
0001b0 be b4 77 be 31 49 a6 bd d0 7e 04 3c 7f 92 c1 bd
       -0.24190041 -0.08119429 0.008086875 -0.0945177
0001c0 83 6c 73 3e 1a bc 98 3d ce b5 11 3f a0 a5 67 3e
       0.23771863 0.074577525 0.56918037 0.22621775
0001d0 e1 d1 29 bd 31 e5 a5 bd c8 2b 1f 3f d1 81 be 3d
       -0.04145992 -0.081003554 0.6217618 0.09302104
0001e0 4c 64 ac bd 5f 97 2f bf f0 6e 4a be 35 57 d7 be
       -0.084175676 -0.6859035 -0.19768882 -0.4205872
0001f0 f1 51 a0 be 49 40 35 3e 0b c0 98 be e0 b1 aa 3d
       -0.31312516 0.17700304 -0.29834017 0.08334708
000200 39 8d 94 3e 90 70 5d 3e 5a a2 12 be 08 5e a4 3d
       0.29013994 0.2162497 -0.14319745 0.080257475
000210 d3 70 09 be 76 d3 d0 3d e8 b5 75 3e ac 1e b1 bd
       -0.13421945 0.10196583 0.23995173 -0.08648428
000220 88 60 f9 3e 65 67 a5 be c1 fa ad 3d 33 92 41 be
       0.4870646 -0.32305446 0.08495093 -0.18903427
000230 f8 a9 99 be 8f 7f 24 3e 02 3a ea 3d 08 10 96 be
       -0.30012488 0.16064285 0.11436845 -0.29309106
000240 93 86 99 3e e8 81 b6 3e f3 f9 29 3e 21 ba dd 3d
       0.29985484 0.35645986 0.16599254 0.10826517
000250 8f 42 d2 be 51 c9 79 3e d4 f9 ba 3d 12 9f c8 3d
       -0.41066405 0.24393202 0.09129682 0.09795965
000260 8e 44 4d 3e 3a 0b e9 bd 20 39 07 bc 0c 72 c1 3d
       0.20045683 -0.113790944 -0.008253366 0.09445581
000270 a4 5f d2 bd 64 45 48 3e ac fb dd 3d 56 12 58 be
       -0.10272148 0.1955772 0.10839018 -0.21100745
000280 3e 75 bf 3d fb 60 33 3e 6b 90 12 3e 50 75 57 3f
       0.09348534 0.17517464 0.14312904 0.8416338
000290 f0 90 b3 be 36 57 24 be 55 c9 d8 3d ad 91 aa bc
       -0.35071516 -0.16048893 0.10585276 -0.020821417
0002a0 bf 7c 92 3e 2d 79 72 3d 89 74 95 3d 0e f8 0e 3f
       0.286108 0.059197593 0.07297618 0.5584725
0002b0 60 33 63 3e ef d6 d7 3e 2c 1f 43 3e 56 65 49 3c
       0.22187567 0.4215617 0.1905486 0.012292227
0002c0 cb 57 22 be 1f 5a f7 bc a3 3d 79 3d 82 bc 3a bd
       -0.15853803 -0.03019434 0.060849797 -0.04558993
0002d0 8a 50 3b be 33 47 dc 3d 2a 72 51 be 8d 7c c7 3e
       -0.18292442 0.10755768 -0.20453706 0.38962212
0002e0 ed ff 12 3d 26 03 e0 bd f1 24 96 3e 6a d7 e0 be
       0.0358886 -0.109381005 0.2932506 -0.43914348
0002f0 f2 65 2f 3e 53 4e 91 3e 62 50 67 3d 33 38 0d 3f
       0.17128733 0.2838007 0.056473143 0.5516388
000300 a0 08 2a 3d c3 d6 74 3e b6 aa 3a 3d b0 d7 b7 3d
       0.04151213 0.2391005 0.04557296 0.08976686
000310 83 4a 10 bd 5b c2 1d 3e 8a e0 22 bc c0 58 47 3e
       -0.03522731 0.15406172 -0.00994123 0.19467449
000320 e1 1b 92 be df d5 2c 3e 3a a7 1c 3e 8d 89 d7 3c
       -0.28536895 0.1687846 0.15298167 0.026310707
000330 32 fc 24 3f 41 3e 88 3e ec 93 9d be dc d0 5b be
       0.6444732 0.26609996 -0.30776918 -0.21466392
000340 88 0c 69 3e b3 66 17 be 0e a7 53 3d c9 46 57 be
       0.22758687 -0.1478527 0.051672988 -0.21023096
000350 b0 5a 99 3c 25 08 92 be 5d 81 ea 3d bd 43 d8 bd
       0.018720001 -0.2852184 0.11450455 -0.10559795
000360 3a 7e 49 3d e0 37 a3 3e aa c2 a3 3e 9d c7 ae be
       0.049192645 0.31878567 0.31984454 -0.34136668
000370 a3 9a 64 3d 43 8b 2b 3e 20 ef 6b be 5a a0 02 be
       0.055811536 0.16752343 -0.23040438 -0.12756482
000380 7d a7 a8 3e 53 80 bd 3e f1 f0 d9 bd ea b8 b2 bd
       0.32940283 0.37011966 -0.10641659 -0.08726676
000390 02 c7 4d 3b 82 ff a5 3e 87 37 ab bd 63 69 0a 3e
       0.0031399135 0.324215 -0.083602004 0.13516764
0003a0 ab ec 04 3e 23 bb 9d 3e 1b 6a 9a 3e 78 95 ac be
       0.12980907 0.30806836 0.30159077 -0.33707786
0003b0 47 6b 1a 3e 9b 14 21 be fc 01 10 be f4 c9 22 ba
       0.15079986 -0.15730517 -0.14063257 -0.0006209903
0003c0 6f 92 16 3e 22 a9 45 3e ce 45 35 bd a0 76 31 bc
       0.14704297 0.193028 -0.044256024 -0.010831505
0003d0 45 76 1b be df 42 63 3e a7 e2 7a bd 2c 6d c6 3d
       -0.15181835 0.22193478 -0.06125131 0.09688792
0003e0 64 c1 ff 3e a8 4d 69 be 11 91 bc 3d 34 6b 9f 3e
       0.49952233 -0.2278353 0.09207357 0.31136477
0003f0 b1 5e 35 3e 8b 5a ae 3d 08 90 15 3e c7 be 2a 3e
       0.17711903 0.085133635 0.14605725 0.16674338

fc2.bias f4 [200]
000000 36 d1 38 3d c8 10 08 be af c1 b0 be af 8b 81 3e
       0.045121394 -0.13287652 -0.3452277 0.25301883
000010 7d c2 c8 bd 14 f7 bf be a6 d1 10 3f 32 cc f4 3d
       -0.09802721 -0.37493193 0.565699 0.1195301
000020 d4 63 c8 3d b1 e2 bb 3e 6c b4 5c 3e ef 11 05 3f
       0.09784666 0.3669639 0.215532 0.5198049
000030 38 9d 3b 3f c4 32 c0 3d f9 3f af 3c a3 93 76 3e
       0.7328677 0.09384683 0.02139281 0.24079756
000040 40 7b a8 3e 37 9a 97 be c9 5a 43 bf 87 57 38 be
       0.32906532 -0.29609844 -0.763104 -0.18002139
000050 d1 e1 56 3e 17 7c a2 3e 16 e8 da bc 55 d4 e6 bd
       0.2098458 0.31735298 -0.026721995 -0.11270968
000060 03 94 6e 3f f1 40 85 bf 32 16 ac be bc 8d 85 3f
       0.931946 -1.0410444 -0.33610684 1.0433879
000070 cc 1d 38 3d 93 ca 0d 3f 6c c1 1d 3f 70 b7 16 3e
       0.04495029 0.5538723 0.61623263 0.14718413
000080 bd de b7 3e e6 4b 52 bf d8 61 46 3f 6a 54 71 be
       0.35912123 -0.8214706 0.7749305 -0.23567358
000090 13 e5 5d be 19 a5 16 bf 5b b0 5d bf 25 09 0c bf
       -0.21669416 -0.5884567 -0.8659722 -0.54701453
0000a0 68 57 ba 3e b1 e8 ab be 10 3c 7b 3e 3e ae 94 bd
       0.3639481 -0.33575967 0.24534631 -0.072597966
0000b0 7d 26 54 be 2b c2 1c 3f b7 15 5e be a4 fe 19 bf
       -0.20717807 0.61233777 -0.21687971 -0.60154176
0000c0 84 eb 97 be a4 af 71 3e 1f f5 5c be dc 3d 02 3e
       -0.29671872 0.23602158 -0.21577881 0.1271891
0000d0 63 d3 48 bd 2a 9f 7c 3e 86 c7 84 3c b1 4a f4 be
       -0.04902972 0.24670091 0.016208421 -0.47713235
0000e0 29 02 6b 3e b8 c3 60 3a 1e 78 8d bf 0d fe 22 be
       0.22950043 0.0008574086 -1.1052282 -0.15917225
0000f0 85 d1 29 3f 82 60 66 bd 01 fe 37 bf a9 af af 3e
       0.66335326 -0.05624438 -0.71871954 0.34313706
000100 47 51 b7 be cd 1e 3f bd 39 45 5a bf e0 f6 95 be
       -0.35804197 -0.046660233 -0.85261875 -0.29289913
000110 10 f0 91 be 26 95 97 bd ef 17 59 3f c0 96 54 bf
       -0.28503466 -0.07401495 0.84802145 -0.83042526
000120 bd 1e 2e bf be 96 07 bf 1c 03 22 3e c7 cb 6c bd
       -0.6801565 -0.5296439 0.15821499 -0.057811525
000130 ea fa 15 bf cc 37 d8 be da e9 22 bf f7 8f 8d be
       -0.5858599 -0.4223007 -0.6363808 -0.276489
000140 1d 0b 9f bd 54 cd 42 bd f7 0f 57 bb 62 06 9b 3d
       -0.077657916 -0.047559097 -0.0032815912 0.07569577
000150 98 da a3 3d f8 8e 6f 3e 66 56 57 bf d4 58 51 bd
       0.08000678 0.23394382 -0.8411621 -0.051110104
000160 1b cb 1f 3f 0d 4b 94 be e9 f2 60 3a 2d 54 9d 3e
       0.6241929 -0.2896351 0.00085811183 0.30728284
000170 25 b4 4c bf e0 29 b6 bd 0a 02 ab be 5b 07 ff be
       -0.7996238 -0.08894706 -0.33399993 -0.498103
000180 50 82 38 bf 52 36 2f bc ea 7d 83 3e 9c a3 1d bf
       -0.7207384 -0.010694103 0.25682002 -0.61577773
000190 8f 5a 05 3f 9b e9 02 3e bb dd 0c 3e bf f6 99 be
       0.52091306 0.12784426 0.13756458 -0.30071065
0001a0 2b b8 83 3e c1 5e 2a 3f ce f5 b0 3e 52 2e 66 bf
       0.25726447 0.66550833 0.34562534 -0.8991443
0001b0 ff 46 4e be 83 a7 88 bd 11 52 18 bf c5 b7 6d be
       -0.2014427 -0.06672575 -0.59500223 -0.23214634
0001c0 16 5b 04 3f 32 26 2c bf f4 1e 6a 3f fb 9e 26 3f
       0.51701486 -0.6724578 0.9145348 0.65086335
0001d0 4f 43 36 bd f4 34 67 3e 74 9e ac be 50 83 fa 3b
       -0.044497784 0.22578794 -0.3371464 0.007645048
0001e0 b0 fa 1d 3e 18 eb 1c bf 03 a6 19 3f 14 2a 8a bf
       0.15427661 -0.61296225 0.6001894 -1.0794091
0001f0 04 92 a9 3e bf 5e 44 bf 04 b7 04 3f 77 cb 61 3e
       0.33119214 -0.7670707 0.5184176 0.22050272
000200 ce 9d bd bd aa 1c 6a 3d b0 6c a8 be 5b 53 96 3e
       -0.092586145 0.057156242 -0.32895422 0.2936047
000210 49 a6 de 3e 4f 16 18 be 89 ce 2f be 2e 58 8a 3f
       0.4348624 -0.1485226 -0.1716863 1.080816
000220 f2 7e b1 be f2 b8 ef 3d ad 96 8a 3e 86 96 77 3e
       -0.34667164 0.117051974 0.27068081 0.24178514
000230 27 f1 4e 3f 97 47 c2 3e a5 c6 3b 3e 59 ca 98 3e
       0.8083672 0.37945244 0.18337496 0.2984188
000240 84 bc 02 3f 3b 72 6b 3e 14 7b 66 3f 9f fa a4 bd
       0.510689 0.22992794 0.9003155 -0.08055615
000250 85 6c 3b bc 8a 0e 1d 3e 00 b0 9b bd 67 6b 73 3d
       -0.011439447 0.15337577 -0.07601929 0.0594286
000260 38 ed 4a bb 05 7f 21 3f e1 8b a5 3e 0d d6 0e 3f
       -0.0030964147 0.6308444 0.32333282 0.55795366
000270 ae 7f ca be 18 60 b0 3e 37 16 47 3e 5e 6b 5d 3d
       -0.39550537 0.34448314 0.19442068 0.05405747
000280 82 6c 92 bc 78 21 49 3d 7d 6a bb 3e 17 d6 de 3d
       -0.017874006 0.049104184 0.36604682 0.10880678
000290 6e 3e 3f 3f 2d 6e 5e bd 0d 4b f7 bd 87 06 6a 3d
       0.74704635 -0.05430429 -0.12074862 0.05713513
0002a0 67 f5 8d 3e 9b 6f d0 be 8b 3e 0b 3f f3 d9 85 bd
       0.2772629 -0.40710148 0.5439231 -0.06535711
0002b0 1d e5 d8 3e e8 e8 24 bf 51 1e 21 3e 60 35 0a bf
       0.423623 -0.64417887 0.15734221 -0.53987694
0002c0 5f 21 57 bf 67 0a 95 3e 91 e8 15 be c1 c6 e5 bc
       -0.84035295 0.291095 -0.14639498 -0.028048875
0002d0 3a 03 8c bf 9e 30 21 3c 85 aa 97 3e 8e 73 54 3e
       -1.0938485 0.009838251 0.29622284 0.20747206
0002e0 64 17 62 3d 48 64 ff be 20 d0 bb 3e 3f 22 8e be
       0.05519809 -0.49881196 0.36682224 -0.27760503
0002f0 11 18 88 3f da 4b 89 3e 41 01 95 3e 1c ed 24 3f
       1.0632344 0.26815683 0.2910252 0.644243
000300 06 73 5a bd 9a 99 94 bd 63 e8 0d 3f 2a 25 3d bf
       -0.05333235 -0.0725586 0.5543272 -0.7388483
000310 1c 47 40 3f de c8 dc 3e cd 84 44 bf ca a4 0c bf
       0.75108504 0.43122 -0.7676514 -0.5493895

bn2.weight f4 [200]
000000 51 ac 97 3f db 8a 7e 3f 6e 85 1b 3f 35 c0 46 3f
       1.1849462 0.99430627 0.6075047 0.77637035
000010 3a 9d a4 3f ac e7 bb 3f ed 10 48 3f 44 97 72 3f
       1.2860482 1.4680076 0.78150827 0.94762063
000020 a4 7a 71 3f ba 0d 89 3f e2 0d 20 3f b5 7a b9 3f
       0.9432776 1.0707314 0.62521183 1.4490572
000030 11 54 3b 3f fe e1 8c 3f a3 8d c3 3f d8 da 7c 3f
       0.7317515 1.1006467 1.5277599 0.9877143
000040 94 de 49 40 fa fc 29 3f 57 27 95 3f 14 bc 8e 3f
       3.15421 0.66401637 1.165263 1.1151147
000050 70 ff 93 3f 96 7d 8c 3f 75 e2 74 3f 58 28 62 3f
       1.1562328 1.0975826 0.95658046 0.8834281
000060 93 1c 85 3f bf 39 77 3f 40 78 41 40 64 15 2f 3f
       1.0399345 0.9657249 3.0229645 0.68392015
000070 e5 df 9b 3f d6 5d 93 3f a4 b2 65 3f 3c 0b a1 3f
       1.2177702 1.1513011 0.8972571 1.2581553
000080 7c fb b1 3f 91 4e 73 3f 1e 61 46 3f 49 fd 6b 3f
       1.3904872 0.9504176 0.7749194 0.9218336
000090 50 37 a1 3f ff 17 7a 3f fa 2f 68 3f d1 f7 20 3f
       1.2595005 0.97692865 0.90698206 0.6287814
0000a0 99 59 f0 3f 47 12 2d 3f b8 1b 86 3f ff 31 d4 3f
       1.8777343 0.67606014 1.0477209 1.6577758
0000b0 14 38 90 3f 2c fc 55 3f 53 b4 6c 3f 99 79 5e 3f
       1.1267114 0.8358791 0.9246265 0.86904293
0000c0 92 28 29 3f 64 7b 5d 3f a4 63 4a 3f db 0d ad 3f
       0.6607753 0.86516404 0.7905829 1.3519853
0000d0 1d 0c 56 3f a8 04 34 3f 6a a0 b2 3f 9a c9 9f 3f
       0.83612233 0.70319605 1.3955204 1.2483399
0000e0 e6 be b3 3e 34 30 d2 3f fd f9 a0 3f 4a 2d 8b 3f
       0.3510658 1.642096 1.257629 1.0873196
0000f0 39 47 da 3f 3d 6c 9d 3f 64 d1 7c 3f b0 df 68 3f
       1.7052985 1.2298657 0.98757005 0.9096632
000100 ba 02 56 3f c4 6a 90 3f e8 31 ae 3f 98 e7 41 3f
       0.8359791 1.1282582 1.360898 0.7574401
000110 df 1d 8d 3f be 17 e1 3f 57 2c ac 3f 8a bb a9 3f
       1.1024741 1.758537 1.3451031 1.3260357
000120 99 a1 9b 3f 4a da 3a 3f 12 69 c6 3f bb 94 81 3f
       1.2158691 0.7298933 1.5500815 1.0123514
000130 f9 03 ab 3f 86 96 81 3f f0 7e c3 3f 03 a7 83 3f
       1.3360587 1.0124061 1.5273113 1.0285343
000140 d8 a1 82 3f af 83 7a 3f 0a b3 72 3f 25 7b 83 3f
       1.0205641 0.97857183 0.9480444 1.0271956
000150 be 8b b6 3f 20 cb 85 3f b7 cc 2f 3f fc 75 95 3f
       1.4261396 1.0452614 0.68671745 1.1676631
000160 b4 63 28 3f 69 fb 22 40 e2 b2 d5 3f 2d 1e 9a 3f
       0.65777135 2.5465949 1.6695216 1.2040459
000170 34 62 ac 3f 53 c0 b9 3f 1f 15 ee 3f 2c 5e 86 3f
       1.3467469 1.4511818 1.8600196 1.0497489
000180 22 28 9f 3f 4a f2 d6 3f 75 af 87 3f 40 75 79 3f
       1.2434123 1.6792691 1.060042 0.97444534
000190 16 ba 90 3f 60 15 92 3f 77 80 5c 3f 7d bd 93 3f
       1.1306789 1.1412773 0.8613352 1.1542202
0001a0 a9 90 9a 3f 02 f6 6a 3f 9a 0b 5f 3f 0d 6e c8 3f
       1.2075397 0.9178163 0.8712708 1.5658585
0001b0 15 cf 81 3f f8 cd a6 3f ba 81 d4 3e 20 bc b9 3f
       1.0141321 1.3031607 0.41505224 1.4510536
0001c0 9c 10 00 3f 6e 20 22 3f 82 70 6e 3f a4 04 41 3f
       0.50025344 0.63330734 0.93140423 0.75397706
0001d0 27 f5 a6 3f 3d 87 47 3f 05 ff 46 3f 43 8f 99 3f
       1.3043565 0.7794073 0.7773288 1.1996845
0001e0 9d 93 92 3f 65 06 8b 3f fd d8 c6 3f 41 e9 a4 3f
       1.1451298 1.0861326 1.553497 1.2883683
0001f0 b2 da 74 3f db 71 67 3f 17 8f 17 3f fd 3e 86 3f
       0.956462 0.90408105 0.5920271 1.0487972
000200 d3 2b 84 3f 0d 86 40 3f c5 b6 5e 3f ec 7f 84 3f
       1.0325874 0.75204545 0.86997634 1.0351539
000210 03 65 ed 3f f4 9a 88 3f 5b f6 ac 3f 24 1d a9 3f
       1.8546451 1.0672288 1.3512682 1.3212018
000220 c7 4d 6a 3f ac 00 a8 3f b8 43 cf 3f b3 14 86 3f
       0.9152493 1.3125205 1.6192541 1.0475067
000230 bd 50 55 3f f2 2f 9b 3f dc b2 8d 3f 68 ce bf 3f
       0.8332632 1.2124007 1.1070209 1.4984865
000240 ab c5 1d 3f cb 02 8d 3f e8 27 6b 3f f0 b2 90 3f
       0.6162974 1.1016477 0.9185777 1.1304607
000250 38 b5 89 3f 88 d3 c7 3f 6e 4f f0 3f 1c 28 5a 3f
       1.0758429 1.5611429 1.877424 0.8521745
000260 cc cc ac 3e 8a df 4b 3f 24 31 1c 40 ad fc 84 3f
       0.33749998 0.7963797 2.4404993 1.038961
000270 0c 9c 8d 3f 93 56 9d 3f 34 04 81 3f 28 09 b6 3f
       1.1063247 1.2292045 1.0079408 1.4221544
000280 6b f4 5c 3f 90 db c1 3f b5 fe 9e 3f 1e a2 b9 3f
       0.8631045 1.514513 1.242148 1.4502599
000290 31 b3 4f 3f 5c e7 a8 3f 1d dd 80 3f 4a 08 e9 3f
       0.811328 1.3195605 1.0067478 1.8205655
0002a0 78 8f 4a 40 95 05 22 3f 4b 54 63 3f b5 0e d8 3e
       3.1650066 0.6328977 0.88800496 0.4219872
0002b0 b7 f0 89 3f bf d0 83 3f 19 63 8a 3f c1 ea a0 3f
       1.0776585 1.0298079 1.0811492 1.2571641
0002c0 64 4f 8a 3f 26 bc 3b 3f 12 67 5c 3f 0d a1 e3 3f
       1.0805478 0.73333967 0.8609477 1.7783524
0002d0 c1 90 9a 3f 6a 78 d7 3f 62 c2 9e 3f 15 3a 9c 3f
       1.2075425 1.6833622 1.2403071 1.2205225
0002e0 b8 b0 9e 3f 90 5b a3 3f bf cb 67 3f 64 e6 44 3f
       1.239768 1.2762318 0.90545267 0.7691405
0002f0 57 a2 89 3f 24 63 99 3f e4 9c 99 3f 50 79 64 3f
       1.0752667 1.198338 1.2001004 0.8924761
000300 91 18 95 3f a1 12 9a 3f 03 4c 90 3f 8a 4c 3a 3f
       1.1648122 1.2036935 1.1273197 0.7277304
000310 32 a7 51 3f 7f 90 b6 3f 31 f3 3d 3f 0b a6 58 3f
       0.81895745 1.4262847 0.74199206 0.8462836

bn2.bias f4 [200]
000000 fe 68 c9 3c cc b9 5e bd 78 ff be be a1 7c 90 3e
       0.024586197 -0.05437641 -0.37304282 0.28220084
000010 76 0a a6 bd e4 55 b2 be 4e 9a 07 3f 55 be 2f 3e
       -0.08107464 -0.34831154 0.52969825 0.1716245
000020 76 23 7c 3d 1c 88 9b 3e 60 3e 2a 3e b5 5a 0b 3f
       0.061557256 0.3037728 0.16625357 0.5443528
000030 04 a4 2f 3f 1b 1f c8 3c b7 8a 18 bc 5d 6a 6a 3e
       0.68609643 0.024428895 -0.009310416 0.22892137
000040 d1 db ba 3e b4 e5 76 be fa 46 4b bf 7a fe e7 bd
       0.36495832 -0.24111062 -0.79405177 -0.113278344
000050 15 be 95 3e 60 1a 84 3e a6 25 5d 3d 34 e3 ab bd
       0.29246584 0.25801373 0.053990982 -0.08392945
000060 b3 e2 6b 3f d9 ae 86 bf 66 d4 be be ae 84 7c 3f
       0.9214279 -1.0522109 -0.37271422 0.98639953
000070 25 89 cb 3c a4 3e 23 3f d5 0b 14 3f f8 c5 d5 3d
       0.024845669 0.63767457 0.57830554 0.1043815
000080 52 47 94 3e aa bf 61 bf 18 54 3a 3f ef f2 20 be
       0.28960663 -0.8818308 0.72784567 -0.15717672
000090 e0 d9 1e be 86 57 02 bf 7d f8 4b bf f1 ca 08 bf
       -0.155128 -0.509148 -0.7967604 -0.53434664
0000a0 43 32 c8 3e 57 16 8e be 75 0f 58 3e 0a b3 ba bc
       0.39100847 -0.2775142 0.21099646 -0.02279045
0000b0 14 cd 36 be 8f d2 22 3f 89 c9 6f be 04 36 15 bf
       -0.17851669 0.63602537 -0.23416723 -0.58285546
0000c0 1f 44 9b be ba 32 5d 3e 75 cf 2b be 84 99 4a 3e
       -0.3032541 0.21601382 -0.16778357 0.19785124
0000d0 4d 86 c0 3c 7f a0 7e 3e 34 58 06 bd 2d d5 f4 be
       0.02350154 0.24865912 -0.03279896 -0.4781889
0000e0 8e e4 6f 3e f7 16 d7 3b 0b 66 8d bf 1e bc 2b be
       0.2342703 0.006564017 -1.1046766 -0.1677098
0000f0 6f bd 28 3f e1 40 05 3c 37 6c 30 bf 04 c2 aa 3e
       0.6591405 0.008133144 -0.6891512 0.33351147
000100 2f 29 ba be e1 af 62 3c ba db 51 bf fe 99 65 be
       -0.36359546 0.013835878 -0.819759 -0.22422025
000110 52 15 86 be 51 2c 60 3b 10 f5 54 3f fc 44 49 bf
       -0.2618814 0.0034206102 0.83186436 -0.78620887
000120 ea 25 3d bf bc 31 f5 be f0 4c 18 3e 8f 25 cb bc
       -0.7388598 -0.47889507 0.148731 -0.024798183
000130 68 76 03 bf a8 a7 f4 be c9 25 2f bf 4d 18 6a be
       -0.5135255 -0.47784162 -0.6841703 -0.22860833
000140 62 76 bf bd 00 64 c7 bd d4 a8 a4 bc 04 bc 23 3c
       -0.093487516 -0.0973587 -0.020100035 0.009993557
000150 0f 8f 20 3d a3 b1 91 3e d4 0a 64 bf c2 e8 a8 bd
       0.03919893 0.2845584 -0.8907902 -0.0824752
000160 1d 23 21 3f 2b 5d a5 be 13 8a 70 3d d3 5d b2 3e
       0.62944204 -0.32297644 0.058725428 0.34837207
000170 ce 23 4c bf d2 19 15 be 1c dc 90 be 54 3a 00 bf
       -0.79742134 -0.14560631 -0.2829293 -0.50089
000180 78 cc 3a bf e3 74 15 3d 3d 84 84 3e 14 e5 14 bf
       -0.72968245 0.036488425 0.2588214 -0.58162045
000190 de 9a 0f 3f 55 50 cf 3d 4f 1e 07 3e c6 26 83 be
       0.56095684 0.10122744 0.13195156 -0.2561552
0001a0 8a 91 ae 3e f3 b1 31 3f 15 53 a3 3e e3 79 51 bf
       0.34095412 0.69412154 0.31899324 -0.8182661
0001b0 af 64 7c be 2f a9 92 bd 85 fb 00 bf 0c f2 34 be
       -0.24647783 -0.071611755 -0.5038379 -0.17670459
0001c0 c4 9a ed 3e d6 90 1d bf 85 26 76 3f ba b3 22 3f
       0.4640714 -0.6154913 0.96152526 0.6355549
0001d0 ee 4a a4 bc 1f 0c 63 3e 83 aa b6 be 37 15 9a 3d
       -0.02005526 0.22172593 -0.35676965 0.07523578
0001e0 2e 24 d9 3d fc 5a 12 bf 2f 60 0a 3f 7c 65 80 bf
       0.10602604 -0.5717008 0.54053015 -1.003097
0001f0 0d 12 a3 3e f5 07 3b bf ce b9 ee 3e 94 26 1b 3e
       0.3184971 -0.73059016 0.46626133 0.15151435
000200 06 35 1f be b3 1d 03 3e f6 45 83 be 99 dc b1 3e
       -0.1554757 0.12804298 -0.25639313 0.34738615
000210 8c c0 c3 3e 62 fe f0 bd c5 f0 52 be 6e 80 81 3f
       0.3823284 -0.1176727 -0.20599659 1.0117319
000220 76 35 d3 be ed 73 9a 3d 61 c2 94 3e c9 c6 41 3e
       -0.41251725 0.07541642 0.2905455 0.18923487
000230 7d 7c 4c 3f f2 66 cd 3e 2b 26 19 3e 73 3f b1 3e
       0.79877454 0.40117604 0.14955966 0.3461872
000240 8b 87 18 3f 14 3c 25 3e dc 75 5e 3f b2 36 8f bc
       0.5958182 0.16136199 0.8689859 -0.017482135
000250 9e 83 b9 3b ee a6 b4 3d 27 d9 e6 bd 39 9d c9 3d
       0.005661442 0.08820902 -0.11271887 0.09844441
000260 09 72 0c 3d cd 78 24 3f 7d 37 c6 3e f1 19 22 3f
       0.03428844 0.6424683 0.3871421 0.63320833
000270 5e 8e c9 be 60 17 d7 3e cf 0f 56 3e 06 8f e1 3d
       -0.3936643 0.4201002 0.20904468 0.11013608
000280 17 99 fd bc 48 a4 f4 3d 02 d4 b1 3e 3a 82 29 3e
       -0.030956788 0.11945397 0.34732062 0.16553584
000290 69 77 34 3f 0d 33 e9 bc 51 43 18 bd ff 82 f8 3d
       0.70494705 -0.028466726 -0.037173573 0.121343605
0002a0 3a a7 b1 3e d9 97 d0 be a9 d2 1a 3f 04 ff bd bd
       0.34697896 -0.4074085 0.6047769 -0.09277156
0002b0 65 a0 b5 3e 37 6b 2b bf e6 7c c3 3d d9 37 02 bf
       0.35473934 -0.6696047 0.09545307 -0.50866467
0002c0 b4 5d 57 bf f7 44 b6 3e 48 3a 5d be 11 03 04 3d
       -0.84127355 0.3559949 -0.21604264 0.032229487
0002d0 a1 fe 8d bf 29 69 49 3d e2 2e ba 3e 00 9b 84 3e
       -1.1093332 0.049172554 0.36363894 0.25899506
0002e0 45 17 e5 3d d0 a8 05 bf c4 10 a5 3e b7 43 48 be
       0.11186079 -0.5221071 0.32239354 -0.19557081
0002f0 6f f8 83 3f 72 ba aa 3e a1 18 93 3e af b7 1c 3f
       1.0310191 0.3334537 0.28729728 0.6121778
000300 06 4e 88 bd 18 5a d3 bd a5 88 ff 3e d1 a0 38 bf
       -0.06655507 -0.103199184 0.4990894 -0.72120386
000310 4f 3d 4e 3f cc a0 c0 3e 99 f2 2d bf 0f 9b 1d bf
       0.805623 0.37622678 -0.679483 -0.61564726
