myrobot/src/not_using/DDPG/save_DDPG_models/1008_1/DDPG_Actor_EP512.pt (torch, 134484 bytes, 26 tensors)

fc1.weight f4 [128, 4]
00000000: 9228 833e 8d82 80bf 5127 bebe c493 9f3e
00000010: 006e 38bb 546e ce3f 4bc6 babf 04b3 393f
00000020: 8a59 d43e 3e9a 6a3f b764 133f 48b9 9cbf
00000030: 2546 e43f db99 edbe 4784 9c3f 6997 283d
00000040: 1d33 7abf 3a6c 063f 9140 c9bd 7d98 b63e
00000050: 7792 0cbf 5f00 4e3f 8962 acbe fcf4 b53d
00000060: 40f7 013d 74ff 72bc 1738 b03e 50ee 763f
00000070: 1d05 98be 424d 813f 6c11 6a3f ed3f 953f
00000080: 18ef 603f 435b bdbe ba70 71be 5e51 83bf
00000090: 1f92 103f ca5e 0740 f24d 48bf 5a60 263e
000000a0: 939f 81bf b900 33be 3937 903e 5e05 71bf
000000b0: 70f7 a6bf 5985 64bf 66e2 d1be fcca 6b3f
000000c0: 5e55 8f3e 6259 f83e 3055 d1bf 1fda 903f
000000d0: fc96 85bf 13e6 c03e e959 c7be 863d b2bc
000000e0: f481 943f ea1d 763e 1e6a 8abf 8d64 113f
000000f0: 01c3 29be bf4d 803f 0954 cfbd ccd4 2dbf
00000100: 2557 1b3d 28b6 0cbe 0d84 f3bf 1e90 6c3f
00000110: 6dc3 f53d b8c6 643e f70a 63be ad93 4a3f
00000120: f23b babf 97a4 1fbf 3e31 ff3f b5ba 493e
00000130: b3df d4be 94a7 d53e f4c1 d9be 183f ab3e
00000140: d0ec c4bf b3aa 46be 856d 47be 1600 8bbd
00000150: ade7 333f f338 4c3f da6b 85bf 24fb 12bd
00000160: 7e17 ed3f 6119 8a3f 8f01 dfbe 9d39 1f3f
00000170: 885d aabf 18eb f43d d7da c53e 61b0 25bf
00000180: 7518 bfbf 0b93 26bf ad58 923f e062 e03d
00000190: 6274 78be e834 97bf 8c9e bf3f 5bd3 e13b
000001a0: f4ee 473e 24a8 b1bf 1eb2 fe3e ac6b 6ebf
000001b0: 6298 633e dfce 8a3e bc03 babf cd4f 5f3d
000001c0: 48dd e2be 85d1 4ebf 0c28 653e 037a 0fbf
000001d0: 0015 393f fb3c 0fbf 67ca 303e 7df0 99be
000001e0: 9d21 2a3f 0604 08bf f2d6 04bf 1887 a8bf
000001f0: 251e 9abf 81c7 4e3e a8d7 033f a2a9 b4be
00000200: d1ee 9f3e 927c 8cbf 6b4f 90bf b2d8 52bf
00000210: 716a 963e 7474 fabe cf98 ba3f fba0 ab3e
00000220: 21fc dfbe 3c10 0fc0 5c53 df3c db58 1d3b
00000230: 5997 01be bc07 1fbf 42b8 963d 0bdc 423e
00000240: c27c e9be 22b2 0abe 88a3 4f3f 0073 383f
00000250: 3d03 3ebf a8f2 2b3f 110b 803f d2aa 643f
00000260: 3129 6b3d f175 183f cf79 78bc 75a4 17bf
00000270: 8e49 733e 6715 cfbe 2c5c 94bf f1fd 5bbe
00000280: ab43 1fbe c39a aa3f e848 193e 0c98 ad3c
00000290: 5496 b33e 0937 563e 13cc 12c0 62a7 1abc
000002a0: 2a16 5d3f 14b2 44be 32b1 0f3f cc6c bbbf
000002b0: bc8a 913f 398f a93e 3f95 49bf 7d9c 963c
000002c0: a079 b83e 1d27 5a3f 5ebe bd3e 6002 e63e
000002d0: 6bc9 323f 24ef acbe f87d 98be 81d1 163f
000002e0: 4c10 05bc db1a eebd 9831 7d3d ae5a 953f
000002f0: a135 0f3e 4d2d 9c3f 0ae0 f3be e5e0 733d
00000300: 4b97 0cc0 65c5 443e c2a9 ad3d 354e bc3b
00000310: 1ae4 d13e 61bf 2e3f 91b2 e73e 2ae3 0cbc
00000320: 8320 92bd fbdd 9c3e 7e63 3c3e e57d 453f
00000330: 65df 58bf a576 77bf 6aac 433f 60d3 303d
00000340: 42ec 9fbe 0ee6 89bf a79c 2d3f fbb1 403f
00000350: 458d 5ebf 539f 80be 95ce c1bf 7b32 5a3c
00000360: 179d 39bd 2c3d c43d 3f6b 0440 d1fc a03f
00000370: 84d1 4f3f f6d1 253f 98cf 5dbf 4114 843e
00000380: 16bc 9a3f caf8 22bf 7e80 62bf 2d4e 3fbe
00000390: 8ad7 0ebf 9aab 3c3e 1ec8 8b3e 4167 4bbf
000003a0: c595 303f 5ac3 1b3f 1468 b33f e323 5dbf
000003b0: 4e02 843e 7aab c9be d96f 0cbe e35b 29bf
000003c0: 4fc1 713f 0ddb c23f ef17 843e 4e0a 233c
000003d0: 9dba 85bf e80e c73d 9a9c 1440 be1c 04bf
000003e0: 3bc2 48bf b214 b5be 089b 0d3c c53d b1be
000003f0: 7d44 eebd c469 3dc0 860e 29bd bc87 22bb
0.2561689 -1.0039841 -0.3713937 0.31167424 -0.0028141737 1.612742 -1.4591764 0.7253878
0.41474563 0.91641605 0.57575554 -1.2244043 1.7833906 -0.46406445 1.2227868 0.04116002
-0.9773424 0.5250889 -0.09826768 0.35663214 -0.5491099 0.80469316 -0.33668926 0.08884618
0.031729937 -0.014831413 0.34417793 0.96457386 -0.296914 1.0101702 0.91432834 1.1660134
0.8786483 -0.3698369 -0.23578158 -1.0259206 0.56472963 2.1151605 -0.78243935 0.16247693
-1.0126823 -0.17480744 0.28167132 -0.94148815 -1.3044262 -0.8926597 -0.4099304 0.92106605
0.27994817 0.48505694 -1.6354122 1.1316565 -1.0436702 0.37675533 -0.38935784 -0.021757852
1.1602159 0.24034849 -1.0813634 0.56794053 -0.16578294 1.0023726 -0.1012345 -0.6790283
0.037924904 -0.13741362 -1.9024674 0.92407405 0.12000165 0.2234143 -0.22172152 0.79131585
-1.4549544 -0.6236052 1.9936903 0.1970013 -0.4157692 0.41729414 -0.42530787 0.33446574
-1.538477 -0.19401054 -0.19475372 -0.06787126 0.70275384 0.797744 -1.0423539 -0.035884038
1.8522794 1.0788995 -0.43555877 0.62197286 -1.3309793 0.11958903 0.38643524 -0.6472226
-1.4929339 -0.6506812 1.1433312 0.10956359 -0.24263147 -1.1813021 1.497026 0.0068916506
0.19524747 -1.3879437 0.49745268 -0.93133044 0.22226098 0.27110955 -1.453239 0.054519463
-0.4430945 -0.8078845 0.22378558 -0.5604555 0.7229767 -0.55952424 0.1726471 -0.3006629
0.6645754 -0.5313114 -0.5189048 -1.3166227 -1.2040449 0.20193292 0.5150094 -0.3528567
0.3123689 -1.0975516 -1.1274236 -0.823619 0.29378083 -0.48916972 1.4577883 0.33521256
-0.43747047 -2.2353659 0.027261429 0.002400926 -0.12655391 -0.62121177 0.07359363 0.19029252
-0.45602995 -0.13544515 0.81108904 0.72050476 -0.7422369 0.6716714 1.0003377 0.8932315
0.05741233 0.59554964 -0.01516576 -0.59235317 0.23758528 -0.40446016 -1.1590629 -0.2148359
-0.15553157 1.332848 0.14969218 0.021190666 0.3507563 0.20919432 -2.2937057 -0.009439321
0.86361945 -0.19208556 0.56129754 -1.4642577 1.1370463 0.33117083 -0.78743356 0.018385166
0.36030293 0.8521593 0.370593 0.44923687 0.6983859 -0.337762 -0.29783607 0.5891343
-0.008121561 -0.11626216 0.061814874 1.1668298 0.13985302 1.2201325 -0.47631866 0.059540648
-2.1967342 0.19215925 0.08479644 0.0057466277 0.4099434 0.6826077 0.45253423 -0.008599082
-0.07135107 0.30638108 0.18397328 0.77145225 -0.84715873 -0.9666541 0.7643496 0.043170333
-0.31234938 -1.0773332 0.6781716 0.75271577 -0.8693431 -0.25121555 -1.5141169 0.0133177
-0.04531583 0.0958198 2.0690458 1.2577153 0.8117907 0.647735 -0.8664489 0.25796703
1.2088649 -0.6366087 -0.88477314 -0.18682165 -0.55797637 0.18424836 0.27301115 -0.7945443
0.6897853 0.6084496 1.4016137 -0.86382884 0.25783008 -0.3938864 -0.13714541 -0.66155833
0.9443559 1.5223099 0.2579951 0.009951187 -1.0447575 0.0971964 2.3220582 -0.5160636
-0.7842137 -0.35367352 0.008642919 -0.3461744 -0.11634157 -2.9595804 -0.041273616 -0.0024800142

fc1.bias f4 [128]
00000000: b3f6 c5be 8e63 cf3d 095e 913e 9018 2ebb
00000010: 1a69 c83e 8fea 80be 91f8 b1be d288 bd3e
00000020: a521 5e3e fa07 91be 9803 81be f4e5 bb3e
00000030: 530c e5be 3b34 63bd dfff 90be 9548 afbc
00000040: 0934 013e 6bf8 ddbd 240d 9fbe 5743 abbc
00000050: 1685 f13e fdf4 cbbe 0874 f3bd 4656 a8be
00000060: 24c7 8abe 2159 b6be e758 043e e98d debe
00000070: 3994 c03d 2349 adbe 68a3 84be 321b a73e
00000080: a15d 58bd 8c82 1cbd dd65 10bf 34d7 ccbe
00000090: dc6b 78be 1b64 b9bc e35d 2dbe 1c04 bc3d
000000a0: ac4a 4ebc 3cb6 92be 0618 6e3e 1b4e dd3e
000000b0: 013b d43e daa5 b5be 35c5 683d c9b5 903e
000000c0: 8d5b 513d 5464 cd3e 7192 9cbe 736d bcbe
000000d0: 0508 ce3e 546c e73e f16f 7d3e b12b 84bd
000000e0: ac08 d4bb 1628 c1be 5998 43bd 10c7 fa3b
000000f0: 04d7 0e3f 729c 253b d093 183c 2009 f83e
00000100: 7527 df3e ce0b bd3e 38f6 a93e 3987 a9be
00000110: 2084 efbd ceb2 763e 07ef 60bd 52ef b4be
00000120: dbbd 57be 4226 eb3e fd96 d53e e372 e8bc
00000130: 447a 77bd e526 3ebe 5e8a a83e aafb dfbd
00000140: 5022 f33d 3a04 7f3e 0db2 ad3d 3f14 0ebe
00000150: ff56 6ebe 17f5 6f3d 7d7b dc3e fa6c 82bd
00000160: 7db1 943e 4407 a13e facd 9cbe 91be 0e3e
00000170: 7fc3 debe daae c93c de8f f53e c45f 2e3e
00000180: 41dd 5dbd dd61 a2be b9f0 bfbe 3bf3 083e
00000190: b7de 013f e3d1 9cbd 7599 adbe 6ab1 45be
000001a0: 2e43 41be d0b2 acbe 1dad c6be c667 80be
000001b0: 2d88 e8be 1bc9 413e 5dcd 26be 8ff4 b83e
000001c0: 8c01 5b3b b591 96be 373a a7be fc34 e8be
000001d0: b717 063f e967 aabd 0258 febe 3972 3bbe
000001e0: d5bf a7be b1bf b83e 60a5 ddbe 5b69 1b3e
000001f0: 2a04 c13e 4f83 cdbe 800a 59be f94c 8d3e
-0.3866478 0.101264104 0.28392056 -0.0026564933 0.39142686 -0.25178954 -0.34759954 0.37018448
0.21692522 -0.28326398 -0.25198054 0.36698878 -0.44735965 -0.055469733 -0.28320214 -0.021396914
0.12617506 -0.108383976 -0.31064713 -0.020906134 0.4717185 -0.3983535 -0.118873656 -0.3287832
-0.27105057 -0.35614875 0.12924539 -0.43467644 0.09403271 -0.3384486 -0.2590592 0.32637936
-0.052823666 -0.038210437 -0.5640543 -0.40007937 -0.24259895 -0.022630742 -0.16930346 0.09180471
-0.012591045 -0.2865466 0.23251352 0.43223652 0.41451266 -0.35478097 0.056828696 0.2826369
0.0511127 0.40115607 -0.30580476 -0.36802253 0.40240493 0.45199835 0.24749734 -0.06453646
-0.0064707603 -0.37725896 -0.047752712 0.0076531246 0.5579684 0.002527025 0.009312585 0.48444462
0.4358479 0.3692307 0.33195662 -0.3311098 -0.11695123 0.24091646 -0.054915454 -0.35338837
-0.21068518 0.45927626 0.41716757 -0.028375095 -0.060419336 -0.18569525 0.32918066 -0.10936673
0.11871779 0.24903956 0.08481226 -0.13874911 -0.23275374 0.058583345 0.43062964 -0.06368442
0.29041663 0.31450856 -0.30625898 0.13939883 -0.43508527 0.024619509 0.47961324 0.17028719
-0.054166082 -0.3171529 -0.37488344 0.13374035 0.5073046 -0.0765722 -0.3390614 -0.1930596
-0.18873283 -0.33730173 -0.3880395 -0.25079173 -0.45416394 0.18924372 -0.16289277 0.36124083
0.003341767 -0.2940804 -0.32661602 -0.45352924 0.52379936 -0.083206005 -0.4967652 -0.18305291
-0.32763544 0.3608375 -0.43290234 0.15176909 0.3769849 -0.40139243 -0.21195412 0.27597788

bn1.weight f4 [128]
00000000: 3cae 453f 4c08 383f d1cb 3b3f 8ebe 353f
00000010: c147 133f f714 2a3f b3c1 173f 3bc6 453f
00000020: f900 433f 4ce2 1a3f 205b 353f 0c53 073f
00000030: a226 f23e c9a3 763f b344 263f e625 323f
00000040: 4601 233f ece6 253f 8a51 563f b8ef e63e
00000050: b608 483f 9a80 8c3f 1a5b 333f 74a0 2f3f
00000060: 3584 283f 9ea4 6a3f fe00 443f 0b02 133f
00000070: 63e6 193f 092d 2f3f 1116 313f 1f1e 313f
00000080: b286 283f 55f3 303f 2564 fc3f b90e 2f3f
00000090: 3b95 2b3f a206 173f 664a 303f 8a22 293f
000000a0: f552 383f d8f6 1b40 e145 283f 116f 313f
000000b0: 165a c53e 8646 2b3f 5336 dc3e e4d7 373f
000000c0: a806 c83f 489c 8a3f b0ac 0b3f b484 463f
000000d0: 7b8e 133f a12e 283f 2651 263f c5fc 1b3f
000000e0: 1dc9 4f3f df2a 1d3f 8bdf 2a3f cf7f 063f
000000f0: 4876 893f 86b7 233f cca5 193f b00c fb3f
00000100: 0771 0e3f 7e51 563f e5a2 7f3f aebb f63e
00000110: 25da 303f 6c11 2c3f cc3b 383f 0dbc 1b3f
00000120: 9337 1b3f 43ba 513f 9a88 183f 7976 073f
00000130: 0397 ab3f 17f3 3c3f a95d 213f edb8 3b3f
00000140: 3a39 1f3f 7751 463f e1c0 323f 4a50 413f
00000150: 3f69 1c3f a54f 2a3f 416b 183f 9f5d 193f
00000160: 0d63 333f 185a ac3f 1109 2a3f 05c2 5a3f
00000170: 57b2 243f 8872 343f b2e3 153f 6ddd 933f
00000180: 4f88 6b3f 54b8 7c3f e4c7 523f b9ee 583f
00000190: 9803 293f 1cc4 233f 3153 4a3f 3180 303f
000001a0: b5f7 273f 8d28 2d3f 213d 2d3f 6513 3f3f
000001b0: 01dd 9b3f d815 2a3f 12cc 373f 7cf7 853f
000001c0: 88ad 1b3f e4ba 8f3f e5f8 c83f 0926 f83f
000001d0: f740 1c3f 0b35 373f 4716 383f cf2f 243f
000001e0: 6b6c 2e3f d716 1e3f 914e 943f 8f5c 243f
000001f0: 1b4a 983f 78ca 473f 5a49 8e3f 991d 423f
0.77218986 0.7188766 0.73357874 0.7099389 0.5753136 0.6643824 0.59279937 0.772556
0.7617336 0.6050155 0.7084217 0.52861094 0.472951 0.96343666 0.64948577 0.6958908
0.6367382 0.64805484 0.8371817 0.45104766 0.7813829 1.0976746 0.70060885 0.6860421
0.6582673 0.91657436 0.76564014 0.5742499 0.6011717 0.68428093 0.69174296 0.69186586
0.6583053 0.69121295 1.9718062 0.6838184 0.6702458 0.58994496 0.68863523 0.6606833
0.7200158 2.4369411 0.65731627 0.693101 0.38545293 0.66904485 0.43010196 0.718138
1.5627031 1.0828943 0.54560375 0.7754624 0.5763928 0.6569615 0.6496757 0.6093257
0.8116625 0.6139354 0.6674735 0.5253877 1.0739222 0.6395191 0.6001861 1.9613247
0.55641216 0.837181 0.9985793 0.48190063 0.6908286 0.67214084 0.7196624 0.6083382
0.60631675 0.8192484 0.5958344 0.5291515 1.340546 0.73808426 0.6303354 0.7332905
0.62196696 0.77468055 0.6982556 0.75513136 0.6109809 0.6652778 0.59538656 0.5990848
0.70073014 1.3464994 0.66420084 0.854523 0.64334625 0.7048726 0.5855056 1.1551949
0.92004865 0.9871876 0.8233626 0.8473926 0.6602111 0.63971114 0.7903319 0.68945605
0.65612346 0.6764 0.676714 0.7463897 1.217682 0.6643958 0.7179576 1.0466151
0.6081166 1.122891 1.5700957 1.9386607 0.6103663 0.7156531 0.7190899 0.6413545
0.6813418 0.617536 1.1586477 0.64203733 1.1897615 0.7804332 1.1116135 0.7582641

bn1.bias f4 [128]
00000000: c809 33be 7bba d03d 7f3c 46be e4f0 e9bc
00000010: 73cd ddbe c64a a6be 8b19 893d 2470 c73d
00000020: aa43 973c f3db 1fbf 1664 e0be abfd b5be
00000030: cfc6 10bf 524a 893c 3abf 79be 2ee4 eabe
00000040: 4a98 c23b d8c6 8fbe e966 963d e41f 91be
00000050: 2824 8e3d b7c4 dcbd 6f2d 22be fac7 b1be
00000060: 1875 9dbe fbbd 5abc c72e 33be 8401 c7be
00000070: 334e b3be 21a2 bebe aff3 28be 2254 e1be
00000080: b8a6 0abf 2294 0ebe c270 a7bd 42f3 91be
00000090: 3d49 73bd a36d 343d 24ed b1be 8242 81be
000000a0: e1d9 c3be c4c6 ccbe 07ba f9be 665e 9fbe
000000b0: c01c 03bf 0a5d 4ebe 6ab7 f2be 09b2 6dbe
000000c0: 241d 633f 07ec ab3e e091 1bbf e0f4 89be
000000d0: ec46 a23e d4db c3be 05df b0be d573 14be
000000e0: dea2 d3bc 85a1 0ebf 6fee 0fbf b71a 0abf
000000f0: 67fc 153e ff37 f4be dc2e 13bf dde5 8abf
00000100: 632a 04bf 552d a1be 2556 3e3e 1eb8 2e3e
00000110: db1e a6be 6fb8 853d 3275 9fbd 12ef acbe
00000120: cc41 a8be ab9b 83be 8b76 aabe 8b00 acbe
00000130: 09e9 043c 70bd fbbe b1dd e63c 9850 d5be
00000140: 9b3d 74be ed22 90be b1ef a5be 19b7 0fbf
00000150: 5fcd ebbe d81a fdbe 1b45 b7be 4359 c0be
00000160: 0b04 3fbf 7f23 a63d 4bf7 ebbe 4411 88bb
00000170: 20d0 20bf 1185 4abe 83eb 3abf 2bab 0fbd
00000180: 739d a13c de57 43bc 0aa6 2a3e 40bb 40be
00000190: 7c28 9fbe 7cc6 96bd 7242 1bbe 3410 f9bd
000001a0: 515c c6bc 7c67 10be 5eb0 343e 9a8f 723d
000001b0: 84aa d1bd 60db eebe 5dc9 e6be b73d bcbd
000001c0: d387 d4be b5a6 4a3d 763a 9abd 7f1f f23e
000001d0: 689a d2be fcf5 94bd a183 82be 6fb5 a6be
000001e0: 3131 98be fa47 38bf e330 a33f 251e 0fbf
000001f0: 5b4f 933e 458f 1ebe eb2a 373c 0d05 cabe
-0.174842 0.10191818 -0.19359015 -0.028557248 -0.43320808 -0.32478923 0.06694325 0.09738186
0.018464882 -0.6244499 -0.4382636 -0.35545096 -0.5655336 0.016759071 -0.24389353 -0.45877212
0.0059385644 -0.28081393 0.07343847 -0.28344643 0.0694049 -0.10779708 -0.15837644 -0.34722883
-0.30753398 -0.013350959 -0.17498313 -0.38868344 -0.350206 -0.3723307 -0.16499208 -0.440095
-0.5416064 -0.13923696 -0.08175804 -0.28505903 -0.059396017 0.04404987 -0.34751236 -0.25246054
-0.38252166 -0.39995396 -0.4877474 -0.31126708 -0.51215744 -0.20152679 -0.4740556 -0.23212446
0.8871634 0.33578512 -0.6076946 -0.26944637 0.31694734 -0.38253653 -0.3454515 -0.14497311
-0.025834497 -0.5571521 -0.56223196 -0.53947014 0.14647065 -0.47698972 -0.57493377 -1.0851399
-0.51627177 -0.31479898 0.18587549 0.17062423 -0.32445416 0.065293185 -0.07786025 -0.33776146
-0.328627 -0.25704703 -0.33293566 -0.33594164 0.008112201 -0.49167967 0.028181883 -0.4166305
-0.23851626 -0.28151646 -0.32409433 -0.5613876 -0.46055123 -0.49434543 -0.3579491 -0.375681
-0.74615544 0.08112239 -0.46087107 -0.004152449 -0.62817574 -0.19777323 -0.7301561 -0.035075348
0.019728398 -0.011922805 0.16664901 -0.1882143 -0.31085575 -0.07362077 -0.15162066 -0.121612936
-0.024213942 -0.14101976 0.17645404 0.05921898 -0.102376014 -0.46651745 -0.45075503 -0.09191459
-0.41509876 0.04947539 -0.07530682 0.47289655 -0.41133428 -0.0727348 -0.2549105 -0.32560298
-0.2972503 -0.7198483 1.2749294 -0.5590537 0.2877148 -0.1548434 0.011179666 -0.39456978

bn1.running_mean f4 [128]
00000000: 56ff c841 3f1a 8742 fe45 dcc2 eaf2 9240
00000010: 728e 0c42 bc7e 1641 850e b442 b6e6 e242
00000020: 1c32 c2c2 5b9d 8a41 6261 adc2 795f a742
00000030: 07fb ca42 eca6 babf d311 4642 cfa0 73c2
00000040: 55b2 a142 7a80 9242 e4ae b441 53ba f941
00000050: 80fd b5c0 e13a 9fc0 b70a 6742 3d01 69c2
00000060: d2d8 4441 5e87 b93f 93db b0c2 cc3f bf3f
00000070: 01d9 53c2 18e5 ecc1 35fe fac2 df90 eec1
00000080: b839 a4c2 a676 0542 0f88 a3c0 37c1 8041
00000090: 4b59 8942 b9e8 ae42 8b81 57c2 23d7 bec1
000000a0: dc58 b040 e849 d4c0 d256 07c3 f4b8 323e
000000b0: 57fd 3242 996f 5142 e190 d842 c585 ea40
000000c0: 9cb0 3040 581b 0040 7d19 9142 f33d 7a40
000000d0: a169 8b42 e409 03c0 7fe5 f442 e525 b541
000000e0: 6c0d afc1 164a 91c2 579d 97c2 2a7e 7bc2
000000f0: a433 a040 0fba 24c2 5174 01c2 b491 d2c0
00000100: d4c6 85c2 46c3 65c1 fd02 2d40 9923 2042
00000110: 4e86 e2c2 75ff 8042 7864 ce42 bcff 43c2
00000120: 55ca 6bc2 c06d 8cc2 40f9 0f43 f2ff ad42
00000130: 1916 a6c0 60db 25c1 1653 b242 5996 60c2
00000140: e5c6 ce41 b8da 94c2 d096 80c2 d3ce 72c1
00000150: 52a2 5342 b267 2c42 5ad6 9042 434b 3b42
00000160: 3802 64c1 6fb1 4bc0 00e7 a6c2 04e4 71c2
00000170: 48de f0c2 6575 5942 0221 1dc3 8b07 1740
00000180: e293 38c0 70d9 54c1 4205 6140 f533 e940
00000190: 3591 f141 5c2d 05c2 8059 00c0 b1e0 11c2
000001a0: 268d b242 8795 f941 40e0 d341 b952 053f
000001b0: 8e22 fa3d 2475 38c1 9c5d a4c2 fa38 f2be
000001c0: a931 f2c1 91fe cd40 6114 54c0 88b0 eec0
000001d0: 7384 8cc2 9d7a 3f41 ac59 0ac3 685a 88c2
000001e0: 1da8 0bc2 85eb 54c2 6b54 cbbf 4392 b2c2
000001f0: 1cee eebf 8c66 1ac2 be4f eabf 3f7c 84c1
25.124676 67.55126 -110.1367 4.5921526 35.139107 9.405941 90.02836 113.45061
-97.09787 17.326834 -86.6902 83.68647 101.49029 -1.458219 49.517406 -60.90704
80.848305 73.25093 22.585396 31.215979 -5.687195 -4.9759374 57.760464 -58.25121
12.302935 1.4494436 -88.428856 1.4941344 -52.961918 -29.611862 -125.4965 -29.820738
-82.11273 33.365868 -5.1103587 16.094343 68.6744 87.45454 -53.876507 -23.855047
5.510847 -6.6340218 -135.33914 0.17453367 44.747402 52.358982 108.28297 7.3288293
2.7607794 2.001669 72.54978 3.910031 69.70631 -2.0474787 122.448235 22.643503
-21.881554 -72.6447 -75.807304 -62.873207 5.006304 -41.181698 -32.36359 -6.580286
-66.888336 -14.360174 2.7033074 40.034763 -113.262314 64.49894 103.19623 -48.99974
-58.94759 -70.214355 143.97363 86.99989 -5.1901975 -10.366058 89.16228 -56.146824
25.847116 -74.427185 -64.294556 -15.175494 52.908516 43.101265 72.418655 46.823498
-14.250542 -3.1827047 -83.45117 -60.47267 -120.43414 54.364643 -157.12894 2.3598354
-2.884026 -13.303085 3.515946 7.2875924 30.195902 -33.294296 -2.0054626 -36.469425
89.27568 31.198011 26.484497 0.5207935 0.12213622 -11.528599 -82.18283 -0.47309095
-30.274248 6.437325 -3.3137438 -7.459049 -70.25869 11.967435 -138.35028 -68.176575
-34.914173 -53.23 -1.5885137 -89.28567 -1.8666415 -38.600143 -1.8305585 -16.560667

bn1.running_var f4 [128]
00000000: b6ff e343 0e15 1845 6a13 cd45 14de 2d41
00000010: ab80 0644 c62d 2142 41a1 7345 8f2c ad45
00000020: 48c1 8945 a83e 1843 5ec1 6f45 6074 6745
00000030: eefd b545 3e0d 3c40 b5bb bc44 6eca f744
00000040: f608 7b45 607f 2845 774a f742 d96f f943
00000050: b9fa 9841 d855 2441 0894 d444 a932 e744
00000060: 00b3 2142 c9d1 aa41 3aef 6945 b1b9 3242
00000070: 3823 a944 c5c5 c143 ee59 e145 644d 1044
00000080: 09f4 2745 f6b6 ca43 b8bb d241 f83e 1d43
00000090: 2b26 0345 c2ea 4745 7d53 bc44 7dc3 1b43
000000a0: a02e 2141 4312 1642 fdad 1046 2859 2b41
000000b0: 30a6 4c44 6304 bf44 b5ce b445 4f87 d741
000000c0: 1248 1640 301d b240 9d16 1c45 d294 3a41
000000d0: 11a9 1245 5698 b441 8a4d c345 f1e7 a543
000000e0: 7967 ee42 3f61 2b45 b421 5745 3378 e544
000000f0: 80e4 4741 5b1d b244 4e1c ff43 304c 3842
00000100: 95b3 df44 b858 2142 08fc 0f42 c4b5 7c44
00000110: d9c5 d845 531b fb44 70e2 a945 307a 8044
00000120: 3c35 ed44 5d4d 0a45 9f86 1e46 fd34 7845
00000130: 47cf f840 639f 4542 e57f 7b45 ffb6 ca44
00000140: 1b29 f143 896f 3545 b3ec 0545 6d0c 1843
00000150: aeae dd44 0d49 6444 d395 0f45 ec0a dd44
00000160: 5455 e542 2055 4940 7a05 5445 bcb2 f144
00000170: 3edf d245 cf09 d844 37d9 3a46 5c54 d340
00000180: 80b4 3541 c678 4042 754f 0842 8e71 1741
00000190: 1c4c 0b44 0e56 a843 2b0a 9240 d016 ce43
000001a0: f6b2 9645 65b7 2244 62aa 6043 e3ea 8340
000001b0: bd86 0b41 2763 9442 e5b4 3c45 7fbd d141
000001c0: 37e9 0544 d3a4 ce40 da96 fc40 1cf7 cd41
000001d0: 6dfa 0945 ef7b 2943 d053 0246 0039 2745
000001e0: 187e 1244 797d bf44 542f 1540 cff1 8345
000001f0: 9c47 8a3f 818d c243 769d f241 66e4 4043
455.99774 2433.316 6562.427 10.866718 538.01044 40.2947 3898.0784 5541.57
4408.16 152.24475 3836.0854 3703.2734 5823.741 2.9383082 1509.8658 1982.3259
4016.56 2695.961 123.64544 498.8738 19.122423 10.270958 1700.626 1849.5831
40.424805 21.352434 3742.9517 44.68134 1353.1006 387.54507 7211.241 577.2092
2687.2522 405.42938 26.34166 157.24597 2098.3855 3198.6724 1506.609 155.76363
10.073883 37.517834 9259.497 10.709267 818.5967 1528.1371 5785.8384 26.941069
2.3481488 5.566063 2497.4133 11.661333 2346.5667 22.574383 6249.6924 331.81204
119.202095 2742.078 3442.1064 1835.7562 12.493286 1424.9174 510.22113 46.0744
1789.6119 40.33664 35.996124 1010.8401 6936.731 2008.8539 5436.3047 1027.8184
1897.6636 2212.8352 10145.655 3971.3118 7.7753024 49.40565 4023.9934 1621.7186
482.32114 2902.971 2142.7937 152.04854 1773.4587 913.1414 2297.364 1768.3413
114.66666 3.1458206 3392.3423 1933.5854 6747.9053 1728.3065 11958.304 6.604048
11.356567 48.117943 34.077595 9.465223 557.1892 336.6723 4.563741 412.17822
4822.37 650.86554 224.66556 4.1224227 8.720395 74.19366 3019.306 26.217527
535.644 6.45762 7.8934145 25.745659 2207.6516 169.48412 8340.953 2675.5625
585.9702 1531.921 2.3310137 4222.226 1.0803103 389.1055 30.326885 192.89218

fc2.weight f4 [128, 128]
00000000: 5955 943d 3aa9 f2bd 97ae 97bd 30e6 be3c
00000010: d258 1cbe ca7c 5f3d c3ba 863c a66f f9bd
00000020: 30f5 cf3c 80c5 383d a893 873c a9ef 07be
00000030: 639c 49be 3796 653b 9248 1abd 3ad0 b2bd
00000040: f67d 81bd 6aaa 05be becb fbbd 9c04 12bd
00000050: b985 00be 249a c3be bc88 71bd d365 2fbd
00000060: bb19 2dbe 2da1 883e 96d7 b63c 173a 9b3d
00000070: 4767 363e b44f a03d c6e9 b7bc e236 e1bd
00000080: 1285 993e 2bb4 1fbb 0438 143f 53ae 55be
00000090: 31e1 2abc 6e78 a83c 891d 3b3e d544 be3c
000000a0: 661f 683d 1817 babe 57ca 053e 72b3 763e
000000b0: bd3b 1fbe 65e1 17bc 5814 0dbe fa7e ad3d
000000c0: c7a0 e6bd 145d c13d e522 29bd c3c7 b0be
000000d0: 3b08 ad3c 2f98 f8bd 80a6 94bd 5e78 68bd
000000e0: 90ad e5bd 4a2c 69bd 5688 0abd 383f d4bc
000000f0: f108 dabe 89ec 1e3e 07ea e8bd 4204 763f
00000100: c954 9d3e 5268 c63e 81a7 7cbd 4b9e d13d
00000110: 73f4 b33d f8d5 703e 6de9 19be 7820 143e
00000120: e2ea 2ebe bfd4 a53d 5bd9 01be 5f4b 0c3e
00000130: 9a6a 91bd 2329 7a3e e291 163d 15de ffbd
00000140: 3092 59be 5b54 823d 0537 2cbe 64d2 69be
00000150: 018e 023d c07a 6dbe f5fe 42be af44 323d
00000160: 413d e5bd 2f6c 52be 79fd cb3d b5b7 d8bd
00000170: 3c25 6c3d cee9 0ebe 3dbe 193e 778d a53e
00000180: 469a c2bd 9d4b 8fbe bddc 3f3d f332 0f3d
00000190: 595b 933e 3542 b3bd ecc9 143e 5d3f bb3d
000001a0: 3afa d2bc d057 fbbd 692d 91bc 1547 b3bd
000001b0: af88 5c3d 8812 373c 2311 2c3e 683c 6e3e
000001c0: 49fd 86be 0382 8ebe 17a8 053f 29bd 4d3b
000001d0: 9b45 913d 982e a4bd e1ce fa3b 6c51 9dbd
000001e0: d4d5 4e3d bd1e 0b3e b362 ad3e 9088 49bc
000001f0: f1f6 38be cf03 6e3c f5b4 573e 6194 c33d
00000200: 74dc da3d c51b b5bb b332 77be efeb 32bd
00000210: 6b81 98bd 4975 8f3c bf34 a6bd b173 0e3d
00000220: cf66 e43b 9a56 5b3e 7111 9bbe 07a0 223d
00000230: 5ffb 6bbd 8225 57be 7471 c5bd 369f b0bd
00000240: 62b8 b93d 7960 bfbd 570c 3abe f5d4 afbc
00000250: deea 96be 2072 07be e2ec d0bd 4029 67be
00000260: 2051 2b3b d525 cebe 9b55 a3be cd60 1d3d
00000270: bf10 c1be 4df4 cbbe bad5 34be 4a81 47be
00000280: 9dc3 b4bd c7a4 88bb 3e9d 193d 348a 44bc
00000290: 879c fa3d 24a3 ae3c 6217 aabe 01d0 8bbe
000002a0: a27c 42be fb86 a53d 2dd2 9abe 429f 37be
000002b0: 056b 103e 3e78 3e3d 68dc 01be afd2 cc3b
000002c0: 84ad 35bc da9c 593d 4b41 58be ebe4 5e3d
000002d0: 143a 8f3c 16d3 3e3d 0b0e ddbd 1acb be3c
000002e0: c340 45be f740 c5be 2a1d 93be aee8 00be
000002f0: 6b7b 88be fc91 90be dbf2 6abe e9d1 9b3e
00000300: 36da 50be 3113 eabe dec6 6dbd 0d97 1cbd
00000310: 12dd a9be 900a 03be b187 10be 08e6 62be
00000320: 37c6 61bc f67b c9be 2f9e 183e bc10 063e
00000330: 2239 a13c 6e31 7abe c6df 483d 429c d9bd
00000340: 2a55 66be ef77 b4be 6a69 bebd 15c6 8ebe
00000350: 4658 2a3e 1b38 993d 6497 813c e897 e0bd
00000360: a136 eebe 59f2 5b3e c692 8dbe 6e57 7c3d
00000370: 33fd 9dbe f2ce 0d3e 1a3e a6be d056 713e
00000380: c7d5 113c e5b5 abbe 1e5e c9bc 6ba9 bebd
00000390: 3170 34be e26f 71be c4e9 b33e 63cb b4be
000003a0: 9116 5e3e 921f 59be c6df 15be 8bdd f8ba
000003b0: f726 e03d f7bd 9cbd cb81 d4bd 0ed3 91be
000003c0: 1abb 303d a9f3 15be 9f7e 31bd 22b2 433e
000003d0: b278 ddbe 14de b0bd 1bac 33be 2604 453b
000003e0: 5cec 3cbe 103a 49be 60a4 96be 1574 b6be
000003f0: 1595 de3d 0f44 f2be 9b1a c6bd 0c9e 12be
0.07242841 -0.11848684 -0.07406347 0.023303121 -0.15268257 0.054562367 0.016446477 -0.121794984
0.02538547 0.045110226 0.0165499 -0.13275017 -0.19688563 0.0035032162 -0.037666865 -0.08731122
-0.06322853 -0.13053289 -0.1229472 -0.035648927 -0.12551011 -0.38203537 -0.05896829 -0.042821717
-0.16904347 0.26685467 0.022319596 0.07579439 0.17812835 0.07827702 -0.022450339 -0.10996796
0.29984337 -0.0024368863 0.57897973 -0.2086728 -0.010429666 0.020565238 0.18272986 0.023226181
0.05667057 -0.36345744 0.13065468 0.2409189 -0.15550132 -0.009270047 -0.13777292 0.084714845
-0.112611346 0.09441581 -0.041293044 -0.34527406 0.021122089 -0.12138402 -0.0725832 -0.056755416
-0.11214745 -0.056927003 -0.033821426 -0.025909051 -0.42584947 0.15519919 -0.11372762 0.96100247
0.30728748 0.38751465 -0.06168318 0.1023527 0.08786859 0.23519123 -0.15030451 0.14465511
-0.17081788 0.08097219 -0.12680571 0.13700627 -0.07100411 0.24429755 0.03676022 -0.12493531
-0.21247172 0.06363746 -0.16817863 -0.22834164 0.031873707 -0.23191357 -0.19042571 0.043522533
-0.11193324 -0.20549081 0.099604554 -0.10581914 0.057652697 -0.13956377 0.15013976 0.32334492
-0.095020816 -0.27987376 0.04684137 0.0349607 0.2878063 -0.08752862 0.14530152 0.09142945
-0.025754083 -0.12272608 -0.017721849 -0.08753792 0.05384129 0.011173852 0.16803412 0.2326523
-0.26365116 -0.27833566 0.5220961 0.0031393266 0.07093354 -0.080166996 0.0076540564 -0.076815456
0.05049689 0.13585944 0.33864364 -0.012300625 -0.1806295 0.014527275 0.21065123 0.095497854
0.10686579 -0.005526992 -0.24140434 -0.043682035 -0.074465595 0.01751198 -0.08115529 0.0347783
0.0069702636 0.21419755 -0.30286744 0.039703395 -0.057612773 -0.21010402 -0.0964078 -0.08624117
0.09068371 -0.093445726 -0.1816877 -0.02146385 -0.29476064 -0.13227129 -0.10201432 -0.2257433
0.0026140884 -0.4026324 -0.3190125 0.038422395 -0.3770809 -0.39834824 -0.17659655 -0.19482914
-0.08826373 -0.0041700336 0.037503473 -0.011995841 0.122368865 0.021318026 -0.33220965 -0.27307132
-0.18992856 0.08082386 -0.30238476 -0.17931846 0.14103325 0.04650139 -0.12681735 0.0062507014
-0.011088733 0.0531281 -0.21118657 0.054417532 0.017483748 0.046588026 -0.10793694 0.023290206
-0.19262986 -0.38526127 -0.28733188 -0.1258876 -0.2665666 -0.28236377 -0.22944205 0.30433586
-0.20395741 -0.45717767 -0.058050983 -0.03822999 -0.33176476 -0.12796998 -0.14114262 -0.22158062
-0.013780168 -0.39352387 0.14904092 0.13092321 0.019680563 -0.24432918 0.049041532 -0.10625507
-0.22493425 -0.35247752 -0.0929745 -0.278855 0.16635236 0.074814044 0.015819259 -0.10966474
-0.46526054 0.21479167 -0.27651042 0.061606817 -0.30857238 0.13848475 -0.32469255 0.23568273
0.008901066 -0.33537212 -0.024581011 -0.09309658 -0.17620923 -0.23577836 0.35139287 -0.35311422
0.21688296 -0.2120345 -0.14636144 -0.0018986923 0.10944932 -0.076534204 -0.103763185 -0.28481334
0.043147184 -0.1464373 -0.043333646 0.19110921 -0.43256146 -0.08636108 -0.17546122 0.0030062287
-0.18449539 -0.19651055 -0.29422283 -0.3563544 0.10868279 -0.4731755 -0.09673043 -0.14318103

fc2.bias f4 [128]
00000000: d5ad 19be f034 ed3d 1395 763e a81e 6bbb
00000010: bfe8 223e 7675 30be f7f4 a13e ea73 0a3e
00000020: 1848 003d ae11 08be 4716 173d 1d54 a83d
00000030: d005 c43d 2983 e13d 2853 10bd 3b82 053e
00000040: eb36 c0bc c20c 1c3e 7915 dbbd b0d0 e9bd
00000050: 3d55 49bd 4982 4dbd 106f cc3c 4452 6b3c
00000060: f610 b6bd 856d bc3d 05d6 803d 875c e83d
00000070: 8e17 533d d451 403d 1f07 c33c 87ca 553c
00000080: 2ad5 6dbd 5262 cabd 7af9 dabb 9db6 993e
00000090: a15a 003c 03f4 91bb 5029 9e3d 2647 543e
000000a0: e21a c43b dc3c e3bd 164b 963d 7bd5 da3d
000000b0: 64b6 723d 5bd1 31be 76e0 04be f756 813c
000000c0: 4be8 9e3d 5c90 b7bd fdcf 7e3d cec7 3dbd
000000d0: 3c39 383d 8962 0d3e f870 c3bc 7378 88bd
000000e0: 1a4d 4b3d 8c3c 13be 073c 16be 12e3 123c
000000f0: b025 03be d9ba 39bd aa09 08bd 2c7e d4bd
00000100: 372d 813e 3d35 10bd 71bc ffbd adf4 263e
00000110: fdb5 16bd eb42 cebd e142 103d b77e 4fbc
00000120: cb6c 643d 4d39 4cbd 2dde 36be 3fb9 fcbd
00000130: e418 c8bd aa10 2ebd 9dfd 9b3c 96cb 3bbe
00000140: b81f d4ba 2f99 ecbd 4e63 813c c213 2abe
00000150: 40ea 493d 0324 8bbd ff98 23be 5b38 4abd
00000160: 7a9b 3a3c e1f1 e93d 53aa 62bd c41f f93c
00000170: d4a2 34be 9e2a debc ef88 e2bd 77ad 133d
00000180: ea80 cfbd 113a 90bd bb8e 9bbd 573b 3bbc
00000190: ca0b 903d f4e0 09be 5a9d cf3d babb dabc
000001a0: 15ab 93bc ffee 13be 132f 9a3d b3dc 393d
000001b0: ee34 9b3d 98a0 613e 2206 0c3c db4c ba3d
000001c0: e184 233d 7db8 3f3e 2401 a73d 1a92 073e
000001d0: 5102 c2bb 18cf 96bd 67e8 b03d 5f8a a6bd
000001e0: e43f 2cbc 4d2a 8d3d f59c a3bc 7099 e4bc
000001f0: 251a f4bc 1bfc edbc e2ae f23d 2522 fdbd
-0.15007718 0.11582363 0.24080305 -0.0035876427 0.15909098 -0.17232308 0.31632206 0.1352078
0.031318754 -0.13287994 0.03688648 0.08219168 0.09571421 0.11011345 -0.035235554 0.1303796
-0.023463687 0.15239242 -0.10697455 -0.11416757 -0.049153555 -0.050173078 0.024955302 0.014362875
-0.08889954 0.09200577 0.06290821 0.11345773 0.051536135 0.046953037 0.023807107 0.013048775
-0.058064617 -0.09882034 -0.006682572 0.30022135 0.007834108 -0.0044541373 0.077227235 0.20730266
0.00598465 -0.110955924 0.0733854 0.106852494 0.059255973 -0.17365019 -0.1297625 0.015788538
0.0775915 -0.08963081 0.06221007 -0.046333127 0.044976458 0.1380712 -0.023857579 -0.06663599
0.049634077 -0.14378566 -0.14671336 0.008965271 -0.12807345 -0.045344207 -0.03321234 -0.10375628
0.2522981 -0.035207022 -0.12487114 0.16304274 -0.03679465 -0.10071357 0.03522003 -0.0126644885
0.055767816 -0.049859334 -0.17858191 -0.123400204 -0.097703725 -0.04249636 0.01904183 -0.1833938
-0.0016183769 -0.11552655 0.015794422 -0.166091 0.049295664 -0.06793978 -0.15976332 -0.04937015
0.011389608 0.11423088 -0.055338215 0.030410655 -0.17640239 -0.02711993 -0.11061274 0.0360541
-0.1013201 -0.07042325 -0.07595583 -0.011427722 0.070334986 -0.13464719 0.10137434 -0.026700843
-0.018025914 -0.14446639 0.0752851 0.04537649 0.07578455 0.22033918 0.008546384 0.0909669
0.039921645 0.1872272 0.081545144 0.13239327 -0.0059206863 -0.07363719 0.08638077 -0.08131861
-0.01051328 0.06892834 -0.019972304 -0.027905196 -0.029797623 -0.029050877 0.118497625 -0.12360028

bn2.weight f4 [128]
00000000: a794 7c3f 9a60 593f 8d92 843f 7d60 6d3f
00000010: 5047 ac3f d732 743f b0e8 b13f c261 5b3f
00000020: 1cd3 433f 6706 4f3f 02b7 373f cb5a 583f
00000030: 2af8 643f 5d16 423f 5b67 673f 9eda 503f
00000040: a63f 673f 6555 303f 6cf7 6c3f d552 403f
00000050: 1f82 693f c0d3 5c3f 3446 553f fdb1 463f
00000060: 66e9 653f a2e8 7a3f fa2b 553f 8052 603f
00000070: 02b8 523f 66e1 343f e314 893f 9961 6f3f
00000080: 5816 553f 13ee 403f 9c86 5b3f 9add 8f3f
00000090: fc49 443f c6fb 523f 03ad 3c3f 6e38 6c3f
000000a0: c97b 5b3f 94f9 413f 09b9 813f a54f 5d3f
000000b0: a092 483f f791 563f 6e87 4c3f 8612 6f3f
000000c0: e68a 393f 455a 2d3f 53fd 263f f7a2 4c3f
000000d0: 9006 3f3f 9399 823f 41d6 6f3f 610c 913f
000000e0: ff09 743f 2e68 693f a17f 5f3f dd2d 523f
000000f0: d1db 823f 29f6 543f f080 593f a0b9 593f
00000100: cf80 853f 706f 843f 6cd7 3f3f 19b3 7d3f
00000110: ad71 343f 60b8 463f 6b6b 203f b66c 5a3f
00000120: 2179 803f db46 7f3f 3284 5c3f 076b 503f
00000130: 06d5 373f aebe 3c3f 8a69 6e3f d7e9 5b3f
00000140: 80d1 643f 8898 903f 5009 643f 60c6 403f
00000150: c860 813f 8f80 5d3f a10b 573f c5e1 573f
00000160: cfd5 4c3f 3a09 513f 1cc5 813f 45df 4d3f
00000170: 5d05 313f 9f75 723f 3483 8e3f 5853 633f
00000180: 978c 6d3f a194 2f3f 65c8 613f 311a 693f
00000190: 6ae4 5f3f 9bc7 4b3f d1da 753f f7be 313f
000001a0: 1c79 3b3f 850f 403f 5c41 4f3f 23ca 463f
000001b0: cd7b 723f a3ac 6c3f 5ec3 613f a694 803f
000001c0: 7c67 4e3f 64a4 4e3f fb7f 963f 6a34 593f
000001d0: ff0d b23f fcc0 6e3f 9da2 783f b3d9 793f
000001e0: ffae 5e3f 2fba 8d3f 289f 673f 13a2 563f
000001f0: 334d 6a3f 855c 593f e981 523f 2c32 4b3f
0.98664325 0.8491303 1.0357224 0.92725354 1.3459263 0.95390075 1.3899136 0.8569604
0.76494 0.80869144 0.7176362 0.8451354 0.8944117 0.75815374 0.9039208 0.81583583
0.90331495 0.688803 0.92565036 0.7512639 0.91214174 0.86260605 0.83310246 0.7761534
0.8980926 0.9801122 0.8327023 0.87625885 0.82312024 0.7065643 1.0709499 0.935083
0.8323722 0.7536327 0.8575227 1.1239502 0.7667539 0.82415426 0.73701495 0.92273605
0.85735756 0.7577145 1.0134593 0.8644965 0.7834873 0.83816475 0.7989415 0.9338764
0.7247757 0.67715865 0.6523029 0.79936165 0.7461939 1.0203117 0.936863 1.1331903
0.9532775 0.9117459 0.8730412 0.8210123 1.0223333 0.8318811 0.8496237 0.85048866
1.0429934 1.0346508 0.7493808 0.99101406 0.70485955 0.77625084 0.62663907 0.8532213
1.0036966 0.9971749 0.86139214 0.8141331 0.7180942 0.73728454 0.9312979 0.85903686
0.8938217 1.1296549 0.8907671 0.75302696 1.010766 0.8652429 0.8400212 0.8432887
0.80013746 0.81654704 1.0138278 0.8041881 0.6914881 0.94710726 1.113379 0.8879905
0.9279265 0.68586165 0.881964 0.9105559 0.8745791 0.7960145 0.9603701 0.69432014
0.73231673 0.7502368 0.80959105 0.77652186 0.94720155 0.9245092 0.8818873 1.0045364
0.80626655 0.8071959 1.1757807 0.848456 1.3910521 0.9326322 0.9712313 0.9759781
0.8698577 1.1072444 0.9047723 0.83841056 0.91524047 0.849068 0.8222948 0.7937343

bn2.bias f4 [128]
00000000: 940e c53c 465b fbbd 26d0 96bf e95a 20bd
00000010: c965 2cbd 4497 f1bd 4aba 9fbf 93ec e1be
00000020: 6b4a 0fbf 0827 11bf 8583 ccbe f070 9bbe
00000030: e729 4dbf b8ee 12bf 0278 a5be b203 a33d
00000040: bb6e 8bbe 2fa0 c13d 809e 1cbf 2c9c 513d
00000050: d4ec 29be beed a4be 7e27 6bbe 9a23 2dbe
00000060: 6052 09bf 32e2 e53d 236f 85be b197 b33e
00000070: 0235 b5bd 964c 83be c6e4 5a3e ae11 b2bd
00000080: 27b0 75be db6b 753b cc53 07bf 410e 5fbd
00000090: 00e2 68bf d9da d4bd 2741 fcbe ca1f 17bf
000000a0: 2dfd c6be df28 10be b904 fabc 41c9 27be
000000b0: 3d78 88be 411e b1be c876 28be 5eba b3be
000000c0: a86c b4be 09e0 9ebe da6c 51be 4905 f5be
000000d0: ed2b abbe 7a56 96bd 8035 663b b1c3 053d
000000e0: f63f 5fbe 3d7f d2be 1756 15be ff5f 4dbe
000000f0: 3c98 e2be 1c0f 22bf dea2 7f3a 5750 e5be
00000100: c306 b2be 145e a1bc 4d5e d8be dd42 8dbe
00000110: dac1 c9be 70f0 c3be 0fa8 1abf 25ac adbe
00000120: 904d 203e 5607 853c 42ec 5abe f507 01be
00000130: 36d8 0fbe 69d0 66be 93b2 ea3d cab1 e4be
00000140: 3301 edbe 43a8 b8bb 9a3f a7be 6810 4fbf
00000150: 2bcd 5abe 5aab b8bc ef76 42be 4659 debe
00000160: 12f5 a0be e69d 8bbe 7663 a2be 05d9 98be
00000170: 67f0 a4be a569 f03c 058c f7be b5ac 6ebe
00000180: 9179 c7be 37f1 b8be d4c7 8fbe 9696 ca3d
00000190: 0b8e 24bd aa6c 3b3e dcca 0cbf 5956 e9be
000001a0: f41c 58be 1c75 51be 7b68 b3be d87b f2be
000001b0: cbe8 ed3d 7984 b6be 95cd 1fbe aa0d f0bd
000001c0: d877 94be c145 f3be d9df 743e 7c4b c7be
000001d0: a0fc d9be 0f12 fdbd 96b4 47be ff66 cc3e
000001e0: f83c efbe 98ec 71be ef7a e9bd df8a 87be
000001f0: 727f a8be c9ed 20be 361e 66be 9d70 f2be
0.024054803 -0.122732684 -1.1782272 -0.0391492 -0.042089257 -0.1179643 -1.2478726 -0.44125804
-0.5597293 -0.5670018 -0.3994409 -0.30359602 -0.8014206 -0.57395506 -0.3231812 0.07959689
-0.27232918 0.09454381 -0.6117935 0.051174328 -0.16594249 -0.32212633 -0.22964284 -0.16908112
-0.5364132 0.11224784 -0.26061353 0.3507667 -0.08848001 -0.25644368 0.21376333 -0.086947784
-0.23992978 0.003744832 -0.5286224 -0.054456953 -0.9096985 -0.103933044 -0.49268457 -0.5903288
-0.38865033 -0.14078091 -0.03051983 -0.16385366 -0.26654235 -0.34593394 -0.16451561 -0.35103124
-0.35239148 -0.310303 -0.2045168 -0.47855595 -0.3343195 -0.07340713 0.0035127103 0.03265733
-0.21801743 -0.411127 -0.14583622 -0.20056151 -0.4425677 -0.63304305 0.0009751747 -0.44787857
-0.34770784 -0.01969818 -0.42259446 -0.27590075 -0.3940571 -0.38269377 -0.6041269 -0.33920398
0.15654588 0.01623885 -0.21379188 -0.12600692 -0.14047322 -0.2254044 0.114598416 -0.44666892
-0.46289977 -0.0056352927 -0.32665712 -0.8088441 -0.21367328 -0.022542644 -0.18990682 -0.43427485
-0.31436974 -0.27268904 -0.31716508 -0.29853073 -0.32214662 0.02934725 -0.48349014 -0.2330807
-0.38959935 -0.36121532 -0.28082144 0.09892003 -0.040174525 0.18303171 -0.5499704 -0.4557369
-0.21104795 -0.2045483 -0.3504065 -0.4736011 0.11616667 -0.35647944 -0.15605767 -0.11721356
-0.28997684 -0.47514156 0.23913516 -0.38924778 -0.4257555 -0.1235696 -0.19502482 0.3992233
-0.46726203 -0.2362541 -0.11400401 -0.26473138 -0.32909733 -0.15715708 -0.22472462 -0.47351542

bn2.running_mean f4 [128]
00000000: d045 1c3e 42ec 09c0 006c 0b40 4b8a dabe
00000010: 0a66 923f c4ce 70bf 770f 7d3f 71e5 313e
00000020: 7029 de3f d149 9a3f cd66 1fbe 8af5 c13d
00000030: 1855 bd3f c771 8bbe d296 a93e f082 c7bf
00000040: 8229 8abf 3c6f 94bf d72f db3f 5b1b 0fc0
00000050: 48a6 aabf d160 e1bf 535c 0dc0 a522 21bf
00000060: a4cd 2240 8ce5 90bf 16ed 263f 6b56 d5bf
00000070: a6f7 c4bf 4cf9 8ac0 cf02 03c0 216d cfbe
00000080: eed9 ef3e cbdf 9abf e028 a73f 88ed 91bf
00000090: 2539 a73f 7da8 9fbf ff31 28bf 8848 a53f
000000a0: 68be 5bbf 9e5e c9bf 5ebf b0bf d9cd af3e
000000b0: 8bb9 76bf 9a6b 3ebf 9ed0 bbbf d211 10bb
000000c0: 113c f73e 75a6 89be d096 26bf b19b 873f
000000d0: 796a afbf 1e2d 32bf c6a9 38bf 2ed0 8cbd
000000e0: 2e0a 303f 84b0 2240 5125 183f be83 44bf
000000f0: e9e3 b93e e688 71bf 7c13 1ec0 3849 a3bf
00000100: 22b5 13bf eee6 35c0 5e0a 13c0 0a51 6d3d
00000110: e660 56bf 5f64 16c0 2298 093f 4960 6a3f
00000120: 46d8 5cbf 0e4e 78bf a825 0ec0 e0d9 273e
00000130: 652f cdbf 982b c5bf e954 b3bf 8806 883e
00000140: 6514 8d3f 1a0a 7d3f ff88 3b3f aa84 2940
00000150: a8f6 93bf 0e52 e0bf 29a6 10c0 9cd7 15bd
00000160: d275 afbf a2f2 5f3f 5327 923f c5ce c3bf
00000170: 2aa6 593e 20d2 22c0 38a2 62bf ebf8 fb3f
00000180: 441f 1d40 1f0a acbf 332c 683f 0099 ddbe
00000190: d759 64bf 68f1 91bf cb2f a03f d82e 0d40
000001a0: cccb cf3f cfd7 08c0 94eb 10c0 681a d63f
000001b0: 2d7a ecbf 4b64 703e f2a4 323f 92fa 4ebf
000001c0: 7ddf f3be d31e 973f 806b cc3d 5845 cf3f
000001d0: 5079 253f 62c1 71bf 96e1 713d 1203 26c0
000001e0: 6617 333f 7b08 123f e02e 09c0 9631 7abf
000001f0: 0c66 12bf eb08 95bf 498e 57c0 450b da3f
0.15261006 -2.155045 2.1784668 -0.42683634 1.143739 -0.940655 0.9885172 0.17372681
1.7356396 1.2053777 -0.15566559 0.09470661 1.4791594 -0.27235243 0.3312288 -1.5586834
-1.0793917 -1.1596446 1.7123975 -2.2360446 -1.3331995 -1.7607671 -2.20876 -0.6294349
2.5438013 -1.1320052 0.65205514 -1.6666998 -1.5388076 -4.3429317 -2.0470464 -0.40512946
0.46845955 -1.2099546 1.3059349 -1.1400614 1.3064314 -1.2473294 -0.6570129 1.291276
-0.8583741 -1.5732 -1.3808401 0.34336737 -0.96376866 -0.74382937 -1.467304 -0.0021983278
0.48288015 -0.2688481 -0.6507387 1.0594388 -1.3704368 -0.69600093 -0.72134054 -0.068756446
0.6876553 2.5420237 0.5943194 -0.7676352 0.36306694 -0.94349515 -2.4699392 -1.275672
-0.5769826 -2.8422198 -2.2975078 0.057938613 -0.83741605 -2.3498762 0.5374776 0.9155317
-0.8626751 -0.969941 -2.2210484 0.16391706 -1.6030089 -1.5403929 -1.4010288 0.26567483
1.1021849 0.9884354 0.73255914 2.6487222 -1.1559649 -1.7525041 -2.2601416 -0.036582574
-1.3707831 0.87479603 1.1418251 -1.5297476 0.21254793 -2.544075 -0.88528776 1.9685339
2.4550333 -1.3440589 0.9069244 -0.43280792 -0.89199585 -1.1401796 1.2514585 2.205984
1.6234069 -2.138172 -2.2643785 1.6726809 -1.8474785 0.23475759 0.69782937 -0.8085109
-0.47631446 1.1806282 0.099814415 1.6193037 0.64638233 -0.94435704 0.059053026 -2.5939374
0.6995758 0.5704419 -2.143486 -0.9773191 -0.5718696 -1.1643347 -3.3680594 1.7034689

bn2.running_var f4 [128]
00000000: e89c 1140 a06e f040 74c7 603f 8ddb b63f
00000010: a8af cb3f 6e84 593f 1303 0b3f 115f cf3f
00000020: aabc 6a40 00dc be3f d29b 4e40 5a18 603f
00000030: 9b9b 613f e0c6 2940 c211 203f 62e1 dd3f
00000040: c499 8940 0cec cb40 f03c de3f 1284 3e40
00000050: 1c23 b13f 8f5e 8d3f 3e1b 0341 2c5e d140
00000060: 98f7 d33e fbb9 3f40 7634 973f 4c7f c73f
00000070: 05c0 2440 eafe b541 3aaf 8b40 ecac 9840
00000080: e80d 2440 a272 7b3f 663f e53f 5acf 5b40
00000090: e141 473f c8e4 1441 f3bf 1b40 85f9 0d3f
000000a0: 7215 0e40 f1c2 8740 f4e6 993f c4f7 db40
000000b0: 68a1 0040 9840 9d3f 8eb2 ce40 db27 af3f
000000c0: 33e6 0540 e05f 9140 2ad1 ca40 c9f1 1140
000000d0: 91c5 d540 f9b3 cd3f 3ebf 0740 3b2c 4740
000000e0: bd19 403f 76e5 8a3f 7a07 dc3f d7fd 6340
000000f0: f82e e93f 2e20 2340 6211 8040 645a 3b3f
00000100: 4f66 1340 4a3c 913f 7e15 3840 3a01 b93f
00000110: 664c 0141 8c59 f93f 9bf0 c940 dffd 2840
00000120: bf4a 8a3f 2347 8440 fbeb 8540 bd47 5640
00000130: e936 fc40 57ba a840 ede4 7840 eaba 4f3f
00000140: 7508 883f c19a 993f 3314 773f b67e 8540
00000150: 0562 3b40 28b5 8041 836e 2841 b3c9 da3f
00000160: d3a3 4f40 e713 6f40 220e 903f 7e2d 1540
00000170: 0627 013f c07c 0541 5aad 3140 b6a2 4840
00000180: 5bb0 9f3f 0514 d63f 7c74 0d40 c1dd bc3f
00000190: 84e1 cf3f b878 aa3f 71f8 4f3f 5b0e 0940
000001a0: 9fb0 bc40 6702 4241 eeb3 bb3f 286e 6d3f
000001b0: 807f 2640 3273 1740 c2b6 1240 2bdd a940
000001c0: ff75 9d3f a5f3 153f 2581 d23f 98cf 653f
000001d0: 6cb0 c83f f82a 3740 94e8 4b40 b9da e13f
000001e0: 3a73 2e3f 44e5 3040 b14d 953f ddba 8b40
000001f0: cc5d ed40 c0d5 fe40 0d3b 9540 0fdf 0c40
2.2752018 7.513504 0.8780434 1.4285752 1.5912981 0.84967697 0.54301566 1.6200887
3.6677651 1.4910889 3.2282605 0.8753716 0.8812806 2.6527634 0.62527096 1.7334406
4.30002 6.3725643 1.7362347 2.976811 1.383884 1.1044482 8.194151 6.5427456
0.41399837 2.9957263 1.1812885 1.5585723 2.57422 22.74947 4.36514 4.7711086
2.5633488 0.9822179 1.7909973 3.4345307 0.778349 9.305855 2.4335907 0.5545886
2.220059 4.2425466 1.2023606 6.873995 2.0098515 1.2285337 6.459296 1.3684038
2.0921752 4.5429535 6.3380327 2.2803824 6.680367 1.6070548 2.1210475 3.1120746
0.75039274 1.0851276 1.7189782 3.5623682 1.8217459 2.548839 4.002122 0.731848
2.3031194 1.1346524 2.8763118 1.4453499 8.081152 1.9480453 6.310621 2.640495
1.0804061 4.1336837 4.185056 3.3481286 7.881703 5.2727466 3.8889725 0.81144583
1.0627581 1.2000352 0.96515197 4.1717176 2.9278576 16.088455 10.52698 1.7092804
3.244374 3.7355897 1.1254313 2.3309016 0.5045017 8.342957 2.7762055 3.134931
1.2475694 1.672486 2.2102346 1.4755174 1.6240697 1.331809 0.81238467 2.1415012
5.89656 12.1255865 1.4664285 0.9274621 2.601532 2.366406 2.2924047 5.308248
1.2301635 0.585749 1.6445662 0.8976989 1.567884 2.8619976 3.1860704 1.7644874
0.6814457 2.7639933 1.1664335 4.3665605 7.4177 7.9635925 4.6634583 2.2011144

fc3.weight f4 [64, 128]
00000000: 152c 843c 462d 9f3e 6267 693e 9af0 dabe
00000010: a383 8e3e f5e6 923c fb14 083e a712 763c
00000020: 85b2 7e3c 39f2 323d cad7 963e 1887 81be
00000030: 92ff de3d eb56 19be 9d5a d23e 7cd1 0d3e
00000040: d9aa cfbe adbc b1be d6e1 17be 2f6c 18bc
00000050: 5a58 f9bc d7a6 19bf c148 59be c3b1 a83e
00000060: 8067 c43d d14a 08be ca63 11bd ae18 a5ba
00000070: 80ae bcbd a6f0 c83b 955c f83d 74dd 983e
00000080: b6d9 a33c 006f 563e 8294 91be 302b 593e
00000090: b17e bdbd 9bb4 bb3d 5b26 353d 988b c03d
000000a0: cc88 153e ca31 cbbb f6e4 28be b097 73be
000000b0: 4fe5 9e3d fc35 e5bd 1991 27be 7af2 24be
000000c0: 3c11 a93d 1ada 1f3e c7c0 563e 83fe a73e
000000d0: 93d0 733e 98e7 bebd c095 643e 1925 2c3e
000000e0: 51bd b3be c077 963d 6f34 0cbe 8384 6abb
000000f0: 2e83 73be aefc d13c 069c 29bc 279c 023e
00000100: 0e33 2b3d 273b 243d 65a1 a03c 68db b5be
00000110: ffa7 07be 4494 893d 4931 09be 7366 1ebe
00000120: de4a 25bd 8f54 2ebd 0631 8f3d a98f 09be
00000130: 11eb b63d e3e0 ecbc 9373 f9bc 1554 553e
00000140: 7b5e 0ebe 8b6a 0d3e 1392 833e 59de 44be
00000150: 4680 683e 987f 7d3e 4676 5f3e 8a71 25be
00000160: 791c b93d c66d 12be 0ed1 febe 9552 89be
00000170: 9cee 38bc 8fa3 0a3e 0ca3 d03d 9b20 90be
00000180: 2e10 2fbe b7d4 233d 8bdb f7bc 68cc f3bd
00000190: d383 f9bd 8be2 4e3e 0aad bdbd 89c9 b8be
000001a0: 9946 683e b731 a13d fec0 1cbc a3be 85be
000001b0: 0323 b9bd 6452 6bbc d1b2 993c d3b5 0abc
000001c0: db37 993d e071 3f3e 55cd 3bbe 078f 893e
000001d0: 0c6f a13d d4aa 93be 333f 8d3e 59a9 c33c
000001e0: b875 22bd be33 663d 28da 93be f82e 95bd
000001f0: 1b25 05be 17a8 963e 408a a23b cb0b 7d3d
00000200: 87f7 8ebe b8f2 be3d e52d 36bd a654 ee3d
00000210: 4662 48bd dc84 95bd 3aca 55bf 3d03 90bb
00000220: 70cb 193d eea2 03be 0308 1a3d da80 dcbd
00000230: 20b4 87bd ca9e b03b 0703 db3d a41f 25bd
00000240: c008 b53d 7b77 9e3e 1bb5 a8bd 423c 0f3d
00000250: 9b1d 94bd d97a 7ebd 220d e4bd 7c4b 913c
00000260: 0732 0c3e 4d30 0a3e 5c3b 74be 0788 b7bd
00000270: 3622 e93c 7233 87bd 5d13 ba3d d9d9 6dbe
00000280: deb4 203e 417f a53d 9dbe 353d 3e77 acbe
00000290: 62f6 a13e 12bd 0c3e 7cec 293e 13a8 c53d
000002a0: b651 2c3e fda8 8fbe 7724 80bd c929 a7be
000002b0: 7222 063d 9ccd f2bd e0b4 8b3c de33 15be
000002c0: 062f 2d3b f15d 9f3e 9bb5 c9bd 6eee 673d
000002d0: 764d 863d 026e fabd 1b88 cabe 3b7c e33c
000002e0: 72c0 a2bd 5502 043e 4c88 f13c 0c1f 3dbe
000002f0: 0518 303e e8fc 5abe ba6c 6bbd 3892 163d
00000300: d6b0 a1be 74d2 17be 0b4b 473d c3d6 27bd
00000310: 9e71 483e 6827 8b3d 8f8b 483e 5d7e a33c
00000320: 5e3a 4cbe 74fb 04bd 5d47 c13c 006c 563e
00000330: 4585 57bd 790e 5d3d 8510 103d 0387 bd3c
00000340: 09ec c73d f99b 063d effa 61be cf66 fa3d
00000350: 199d 07bc 9078 ce3d 4f18 a93d bc00 bbbd
00000360: 34a4 633c 96a0 513e 8ebb 5c3b 28ac f93d
00000370: 4c64 9bbe ea38 863e e1d6 c5bd 4ddb 1b3d
00000380: d527 35bd 5284 403d 0deb 09be 069c 14bd
00000390: 948f 843c 9864 0d3b c6b6 bc3d 153e c13e
000003a0: 313a 1bbd 254e 013e 09e5 e7bc f2de b83b
000003b0: 4be1 9abd 5502 a03d 5f84 c2ba 133e 843e
000003c0: 3d2f abbd 1207 6e3d 57da 123e 9bad 2e3d
000003d0: 26a9 5bbe f772 f639 5dc9 d6bb f9b0 efbd
000003e0: 5be6 813e ab0a c83d 823f ff3b 4168 cdbd
000003f0: dc90 87bd b44e 76bd 83b5 a03d 9f37 123e
0.016134301 0.31089228 0.22793344 -0.4276169 0.27834806 0.017932395 0.13289253 0.0150190955
0.015545492 0.043688033 0.2946151 -0.2529838 0.1088859 -0.14974563 0.41084757 0.13849443
-0.40560034 -0.3471426 -0.14832243 -0.009303137 -0.030437637 -0.600202 -0.2121916 0.3294812
0.095900536 -0.1330979 -0.035495557 -0.0012595856 -0.09212971 0.006132203 0.121270336 0.29856455
0.020001274 0.2094078 -0.28433615 0.21207881 -0.0925268 0.09165307 0.04422603 0.094016254
0.14602965 -0.0062010037 -0.16493592 -0.23788333 0.07758581 -0.11191937 -0.16363944 -0.16108122
0.0825524 0.15610543 0.20971976 0.32811365 0.23810034 -0.09321517 0.2232275 0.16811027
-0.35105374 0.07347059 -0.13691877 -0.003578455 -0.2378051 0.025633182 -0.01035214 0.1275488
0.041796736 0.040095475 0.019608209 -0.35518956 -0.13247679 0.067177325 -0.13397707 -0.15468769
-0.040354602 -0.04256111 0.06991772 -0.13433708 0.08931554 -0.028915828 -0.030450618 0.20832856
-0.13903229 0.13810174 0.25697383 -0.19225444 0.22705182 0.24755704 0.21822461 -0.16156593
0.09038634 -0.14299688 -0.4976887 -0.26820818 -0.011287358 0.13538955 0.10187349 -0.28149876
-0.17096016 0.039997783 -0.030256053 -0.11904222 -0.121833466 0.20203607 -0.0926152 -0.3609126
0.22683181 0.078708105 -0.009567497 -0.26122007 -0.09039881 -0.014362905 0.018762024 -0.008466202
0.07481357 0.18695784 -0.18340047 0.26866934 0.07882509 -0.2884127 0.2758728 0.023884462
-0.039663047 0.05620169 -0.28877378 -0.07284349 -0.13002436 0.29425117 0.0049603283 0.061778825
-0.27923223 0.09323639 -0.044477362 0.11637239 -0.048921846 -0.073007315 -0.835117 -0.0043949173
0.03754753 -0.12855121 0.037605297 -0.10766764 -0.06626153 0.005390023 0.10693937 -0.040313378
0.088395596 0.3095053 -0.08237668 0.034969576 -0.07232209 -0.062128875 -0.111353174 0.017736189
0.13690959 0.13494988 -0.23850769 -0.08961492 0.028458696 -0.06601609 0.090857245 -0.23227634
0.15693995 0.080809124 0.044371236 -0.33684725 0.31633288 0.13744 0.16594118 0.09651198
0.16828045 -0.28058615 -0.06256955 -0.32649067 0.032747693 -0.11855623 0.017054021 -0.14570567
0.0026425733 0.3112636 -0.098490916 0.05662387 0.06557743 -0.122280136 -0.39556965 0.027769199
-0.07946862 0.12891515 0.029483937 -0.18468875 0.17196663 -0.21385539 -0.057476737 0.03676054
-0.31580228 -0.14826375 0.04865555 -0.040976297 0.19574592 0.067946255 0.19584487 0.019957716
-0.1994414 -0.032466367 0.023593599 0.20939636 -0.05261733 0.05396888 0.035172004 0.023135668
0.09761817 0.03286359 -0.2206838 0.122266404 -0.008277201 0.10081589 0.082565896 -0.091309994
0.01389413 0.20471415 0.0033681127 0.12191039 -0.30349958 0.26215297 -0.096601255 0.03805094
-0.04422744 0.04700119 -0.13468571 -0.036281608 0.016181745 0.002157485 0.09214549 0.37742677
-0.037897293 0.12627466 -0.028307455 0.0056418115 -0.075625025 0.07812945 -0.0014840475 0.2582861
-0.08358619 0.05811221 0.14341103 0.04264603 -0.21451244 0.00047006432 -0.006554766 -0.11703677
0.2537106 0.0976766 0.007789553 -0.100296505 -0.066194266 -0.06013365 0.078471206 0.1427903

fc3.bias f4 [64]
00000000: d6fe 293e 8d52 1fbe 197e 423a 1916 d0bd
00000010: feac ec3d 1d53 3ebd 1b2e bf3d f869 dcbc
00000020: 9084 613e 73e1 a73d b546 043d d66e 633d
00000030: bde7 673e 273f 943c 890c e7bc fd00 58bc
00000040: 80f6 a13d 6761 323e cff8 3fbe c570 983c
00000050: 71a7 5c3d ebe9 cfbc 9b9e 33bd cdd7 233e
00000060: da55 c73c f356 1f3c b2aa bebd b8d5 e33d
00000070: f956 a7bc 5b88 22bd 438e b2bd 85cd 583e
00000080: 3fa6 463d 18a2 6d3e 9f6e f9bd 632a 5a3c
00000090: 1286 013d 0c85 b1bd 1568 eebc 1a01 e43c
000000a0: b5b0 64be 1bf4 37be 1a30 81bd 9e8b bfbd
000000b0: fa3f 523d 830b 84bd ac3a 30be d9db 323d
000000c0: 3f2e 10bd 31db 5d3c 9ee0 613d f3d9 983e
000000d0: d1c9 9e3d 4188 4abe b16f df3d 81ed c13d
000000e0: 2061 5c3d e5e1 333d 7b7c 323e e68d 4abe
000000f0: af5b a4bd 7f47 c2bc ff9a 0dbc 4a6f c0bd
0.16601118 -0.15558834 0.0007419303 -0.10160465 0.11556433 -0.04646598 0.09334966 -0.026905999
0.22023225 0.08197298 0.032293994 0.055525623 0.22646995 0.01809652 -0.02820422 -0.013183829
0.07908344 0.17419969 -0.18747257 0.01860846 0.053870622 -0.025380095 -0.04385243 0.1600029
0.02433293 0.00972532 -0.09309901 0.11124748 -0.020427214 -0.03968082 -0.087185405 0.2117215
0.04849839 0.23206365 -0.121793024 0.01331577 0.031622 -0.08667955 -0.029102365 0.027832557
-0.22333033 -0.17964213 -0.06308003 -0.09352802 0.051330544 -0.06447508 -0.17209882 0.043666694
-0.035200354 0.013541029 0.055145852 0.29853782 0.07753337 -0.19778539 0.10909975 0.094691284
0.053803563 0.0439166 0.17430298 -0.19780692 -0.080253 -0.023715733 -0.008642911 -0.09396227
