myrobot/src/not_using/DDPG/save_DDPG_models/1008_1/DDPG_Critic_EP1240.pt (torch, 287970 bytes, 32 tensors)

fc1_state.weight f4 [128, 4]
0	0x3f8a298f	1.0793933
1	0x3ed8b5e9	0.42326286
2	0xbfd88f5c	-1.691875
3	0x3c4392b6	0.011936834
4	0x3fe5e5be	1.7960737
5	0x4051e4f6	3.2795997
6	0xbdaeba81	-0.085316665
7	0x3cd42d90	0.025900632
8	0xbf15b2e3	-0.58476084
9	0xc02fc11f	-2.7461622
10	0x3ecf2d81	0.40464404
11	0xbe8b86c1	-0.27251247
12	0x403435e6	2.8157897
13	0xbf91d175	-1.1392046
14	0xbf45b839	-0.77234226
15	0xbeb79740	-0.35857582
16	0xc01e6845	-2.475114
17	0x4026b4aa	2.6047769
18	0x3f20fd03	0.62886065
19	0x3e6d07bf	0.23147486
20	0xbf5e86ca	-0.8692442
21	0xbf72192b	-0.94569653
22	0x3f5167f5	0.8179925
23	0x3fc252cb	1.5181516
24	0x4011d2a9	2.2784827
25	0x3ec53265	0.3851501
26	0x3f4ab324	0.79179597
27	0xbcb1f6b5	-0.021724084
28	0xbef0569e	-0.46941084
29	0xbf001499	-0.5003143
30	0x3c61e59e	0.013787655
31	0x3c988886	0.018619787
32	0x3fd9cfa8	1.7016497
33	0x3e1df1f7	0.15424334
34	0xbfe9c198	-1.8262205
35	0x3c77df29	0.015128889
36	0x4013d38b	2.3097866
37	0x402190e8	2.5244694
38	0x3e74d9b0	0.23911166
39	0x3cf96dfb	0.03044795
40	0x3f20b194	0.6277096
41	0x3fb58808	1.4182138
42	0xbcc41664	-0.023936458
43	0xbf2a93da	-0.66631854
44	0x3fe7c9c1	1.8108445
45	0xbec9d148	-0.3941748
46	0xbe1aef1a	-0.15130273
47	0xbeb80144	-0.35938466
48	0x3e800492	0.25003487
49	0x3f83243f	1.0245436
50	0xbf060ea6	-0.523661
51	0xbdad364c	-0.08457622
52	0x3f7cfa62	0.98819554
53	0x3fd486a5	1.660359
54	0xbedc038d	-0.4297146
55	0xbda19863	-0.078903936
56	0x3f2fc3a7	0.68657917
57	0x3f95a18c	1.1689925
58	0xbfea8615	-1.8322169
59	0xba544321	-0.0008097161
60	0x400bfabf	2.1871793
61	0x40080d02	2.125794
62	0x3d24baaa	0.04021708
63	0x3f30ca71	0.690589
64	0xbf586490	-0.84528446
65	0x3f9259bd	1.1433636
66	0xbc70ba51	-0.014692859
67	0x3babadd2	0.005239227
68	0xbfb01d89	-1.3759013
69	0xc02dc8ee	-2.7153888
70	0x3f20fe97	0.62888473
71	0x3c03618f	0.008018865
72	0x3f88869e	1.0666082
73	0x4013711f	2.3037794
74	0x3fb7b933	1.4353393
75	0xbdf19d73	-0.11797609
76	0x3f7e4cd6	0.9933599
77	0x3f042ab3	0.51627654
78	0x3ff9dbf8	1.9520254
79	0x3d7ab1c9	0.061204705
80	0xbf1a3390	-0.6023493
81	0xc08fee46	-4.497836
82	0x3ebfaf53	0.3743845
83	0x3e39eaf8	0.1815604
84	0x3ff47428	1.9097948
85	0x3fef80be	1.8711164
86	0xbf7f999e	-0.99843776
87	0x3d9cf1a5	0.076632775
88	0xc07f61e4	-3.9903498
89	0x3fb295f2	1.395201
90	0x3f1ab580	0.604332
91	0x3bd9bc69	0.0066447747
92	0xbd52d406	-0.051471733
93	0xbe36ca9d	-0.17850728
94	0xbef62040	-0.4807148
95	0xbe563c64	-0.20921475
96	0x3eba0668	0.36333013
97	0x3e37867d	0.17922397
98	0xbdc1af76	-0.09457295
99	0xbd1673fd	-0.03673171
100	0xbfae6099	-1.3623229
101	0x3e565c95	0.20933755
102	0xbd21a4b3	-0.03946371
103	0xbc83344c	-0.016016148
104	0xbe8c32b7	-0.27382442
105	0xbf4d40d2	-0.8017703
106	0xbc321f28	-0.010871686
107	0xbdb7fed1	-0.08984149
108	0xbfc27ad9	-1.519374
109	0x3fa4dc8a	1.2879803
110	0x3f82f7cc	1.0231872
111	0x3c35fb53	0.011107284
112	0x3fdf89cd	1.7463928
113	0xbfbb750e	-1.4645097
114	0xc0785f3d	-3.880813
115	0x3ce95aa8	0.028485611
116	0xbe6bec44	-0.23039347
117	0x3fbc15ec	1.469419
118	0x3f1f88ca	0.623181
119	0xbf565022	-0.8371602
120	0xc0164ebd	-2.3485558
121	0xbf6dd8ce	-0.9290894
122	0xc0353dd7	-2.8318994
123	0x3db5d68b	0.088788114
124	0x3e8ee789	0.27911022
125	0xbf0642a9	-0.52445465
126	0xbf6591b6	-0.8967546
127	0xbe7d0e0d	-0.24712391
128	0xbea5f4ab	-0.3241323
129	0xc0857eaa	-4.171712
130	0xbf8f972d	-1.121801
131	0x3efcaea2	0.49351984
132	0xbe8b4aad	-0.2720541
133	0xc03cf85e	-2.9526591
134	0x3efcd4d8	0.49381137
135	0x3b894704	0.004189374
136	0x407dfc9f	3.9685438
137	0xbfd4d71b	-1.6628145
138	0x3f0d9907	0.55311626
139	0x3d1fb5b2	0.038991638
140	0x3ee2915e	0.4425153
141	0x3fa590b1	1.2934781
142	0x3d9c083d	0.07618759
143	0xbd9697bb	-0.07353159
144	0x401740b3	2.363324
145	0x3f926774	1.1437821
146	0x3f6ffd6b	0.9374606
147	0xbdda0a6f	-0.10646521
148	0xbf76ead7	-0.9645209
149	0x3e5be0e0	0.21472502
150	0xc055d63e	-3.3412013
151	0x3d56c170	0.05243057
152	0x3fa7fa79	1.3123313
153	0xbf852cdd	-1.0404316
154	0x3f8d0139	1.1015998
155	0xbf43f9ea	-0.76553214
156	0x3fcf764c	1.6207976
157	0x3fab27d6	1.3371532
158	0xbe9da5de	-0.3079061
159	0xbda7407f	-0.081665985
160	0xbf44fad4	-0.76945233
161	0x3f16a354	0.5884297
162	0xbe925a2a	-0.28584415
163	0xbd9d23d7	-0.076728515
164	0x3e1d0b4a	0.15336338
165	0x3feb4428	1.8380175
166	0x3e8d0d42	0.27549177
167	0xbe6bfaa3	-0.23044829
168	0x4031ec6a	2.7800546
169	0x3e179f2a	0.1480681
170	0x3e9b4c1d	0.30331507
171	0x3d2808b6	0.041023932
172	0x3f556b2a	0.83366644
173	0xbf4fed7e	-0.8122176
174	0x3e275a78	0.16343105
175	0xbf2a37b9	-0.66491276
176	0x3fc9f9b0	1.5779324
177	0x3da46f81	0.0802908
178	0x3d66487e	0.056221478
179	0xbc2a2b5e	-0.010386316
180	0x3fbf26f2	1.493376
181	0xbf032b12	-0.51237595
182	0x3f94f5cb	1.163751
183	0xbd4d869f	-0.050177213
184	0xbf857960	-1.0427666
185	0xbec10bb9	-0.37704256
186	0xbfd424be	-1.6573713
187	0x3d9ce6b7	0.07661193
188	0x3fe58aa9	1.7932941
189	0x3f1cbd9d	0.61226827
190	0x4006e1a8	2.107523
191	0x3c6e1342	0.014530959
192	0x40019cb1	2.0251887
193	0x3e6daf0b	0.23211305
194	0x3f643e9b	0.8915803
195	0x3c1b0d7e	0.009463666
196	0xbfcf4517	-1.619296
197	0x4007eb18	2.123724
198	0xbf97a5ea	-1.1847508
199	0x3d59ac3b	0.053142767
200	0xbf78f9a5	-0.9725593
201	0xbe4a1f51	-0.19738509
202	0xc004b987	-2.0738237
203	0x3d11d332	0.035601802
204	0x3f15ff51	0.58592707
205	0xbd056676	-0.032568417
206	0x3f533b86	0.825127
207	0xbe7b204c	-0.24524039
208	0xbfb59253	-1.418528
209	0xbfb22821	-1.3918496
210	0xbfdcadd0	-1.7240543
211	0x3d2c1695	0.042013723
212	0xbfed8bf7	-1.8558339
213	0x40212656	2.5179648
214	0x3e73ab83	0.23795895
215	0x3f065e4c	0.52487636
216	0x3f6d8551	0.9278155
217	0x3fc2df7d	1.5224453
218	0x3f97edff	1.1869506
219	0xbd8c9de9	-0.068660565
220	0x3f214c4d	0.6300705
221	0xbfcdcc7b	-1.6078027
222	0x3f8c69f9	1.096984
223	0x3c8806b0	0.016604751
224	0xbfc6e05f	-1.5537223
225	0xc01bd470	-2.4348412
226	0xbf820b89	-1.015977
227	0x3d97227b	0.073796235
228	0xbec5f3e9	-0.3866265
229	0xbee791a2	-0.45228297
230	0x3e3c8c33	0.18412857
231	0xbe87d0fd	-0.26526633
232	0x3f7376ba	0.9510304
233	0xc0a73283	-5.224916
234	0x3f9e810d	1.2383133
235	0x3e0350ce	0.12823793
236	0x3db74901	0.08949471
237	0x3e5b74fb	0.21431343
238	0xc0969363	-4.7054915
239	0x3c918f27	0.017768456
240	0xbf6d97a8	-0.92809534
241	0xc040966e	-3.0091815
242	0x3e54ccc7	0.20781241
243	0x3d41657e	0.04721593
244	0xbf546be7	-0.82977146
245	0xc00c5d0f	-2.1931798
246	0x3dad9f5e	0.084776625
247	0xbe934ae8	-0.28768086
248	0xbf99ac74	-1.2005754
249	0xbffe8f85	-1.9887549
250	0x3f551c7e	0.832466
251	0x3c607558	0.013699852
252	0xc004ba65	-2.0738766
253	0x3ff36ab4	1.9016938
254	0xbf0635d1	-0.5242587
255	0x3fb2faef	1.3982829

fc1_state.bias f4 [128]
0	0xbe9e36d9	-0.3090122
1	0xbec5e4d6	-0.3865115
2	0xbef9d5e3	-0.48795995
3	0x3f87fe54	1.062449
4	0xbf574318	-0.8408675
5	0xbe25ba75	-0.16184409
6	0x3e517f7d	0.20458789
7	0x3eb68e8e	0.35655636
8	0x3ee083c7	0.43850538
9	0xbef85c88	-0.48508096
10	0x3e305f6b	0.17223899
11	0x3f08e5f6	0.5347589
12	0x3f52cd29	0.823443
13	0x3ebc776a	0.36809856
14	0x3f18fd97	0.5976195
15	0xbf3d142f	-0.7385892
16	0xbeafb3d7	-0.34316894
17	0x3de5367b	0.11192032
18	0xbe209a2e	-0.15683815
19	0xbfa3093b	-1.2737192
20	0x3f259467	0.6467957
21	0xbf36535d	-0.7122095
22	0xbef71dc4	-0.48264897
23	0x3f5d3a75	0.86417323
24	0x3f6d217a	0.92629206
25	0x3dc381d7	0.09546249
26	0x3f067638	0.5252414
27	0xbf63de6e	-0.89011276
28	0x3e9067a5	0.28204075
29	0x3bcc2911	0.0062304814
30	0xbeb55777	-0.35418293
31	0xbe652a6c	-0.22379464
32	0x3f01b05e	0.5065974
33	0x3f344c14	0.70428586
34	0x3e9cd9fe	0.30635065
35	0x3e9bbe89	0.30418804
36	0xbf33806f	-0.7011785
37	0x3f948a24	1.1604657
38	0xbeee7a1d	-0.4657754
39	0x3f9297bb	1.1452554
40	0x3f4c9376	0.7991251
41	0xbd992871	-0.07478417
42	0xbfa98436	-1.3243473
43	0x3eb7c0b4	0.35889208
44	0x3e4fa268	0.20276797
45	0x3f4789ce	0.7794465
46	0xbfce2070	-1.6103649
47	0xbe941fbd	-0.28930464
48	0xbe6b7d13	-0.22996931
49	0xbf381975	-0.71913844
50	0xbf9cfa47	-1.2263879
51	0xbf34a9c0	-0.7057152
52	0xbf44d81f	-0.76892275
53	0xbf848b54	-1.035502
54	0x3f1eddff	0.6205749
55	0x3f3d4ad7	0.7394232
56	0xbed0d351	-0.40786222
57	0x3e8fcfd0	0.28088236
58	0x3f0ebe2b	0.55758923
59	0x3f1e2876	0.6178049
60	0xbeb4e883	-0.35333642
61	0x3de974de	0.11399244
62	0xbd5c8ba0	-0.053844094
63	0xbf995ad2	-1.1980841
64	0xbf8872da	-1.066005
65	0x3e75ec48	0.24015915
66	0xbe8ee600	-0.2790985
67	0x3f2a0b86	0.66423833
68	0x3de632c5	0.11240152
69	0x3f709335	0.9397462
70	0xbf5bce81	-0.85861975
71	0xbde80894	-0.11329761
72	0x3fbc42e5	1.4707915
73	0xbecadd0a	-0.39621764
74	0xbf18be31	-0.5966521
75	0x3f0f3ad6	0.5594915
76	0x3e84bb1f	0.25924012
77	0x3f1669b5	0.58755046
78	0xbfc11217	-1.5083646
79	0x3f384556	0.719808
80	0xbf5d2101	-0.86378485
81	0x3f65e728	0.8980584
82	0xbf6690a1	-0.90064436
83	0xbf649da8	-0.89303064
84	0xbdba70cb	-0.09103545
85	0xbe44575c	-0.1917395
86	0xbec7a5a5	-0.38993564
87	0xbe250809	-0.16116346
88	0x3f828993	1.0198234
89	0x3f84418f	1.0332507
90	0x3fa0fe12	1.2577536
91	0x3e04312d	0.12909384
92	0xbe64d179	-0.22345532
93	0x3e5480b3	0.2075222
94	0x3f1d24f9	0.6138454
95	0x3f64b831	0.89343554
96	0xbd65af7f	-0.05607557
97	0x3f00479a	0.50109255
98	0xbc7fca2d	-0.015612167
99	0x3ee77cff	0.45212552
100	0xbd0d021c	-0.03442584
101	0x3da29778	0.079390466
102	0x3db0eaac	0.0863851
103	0xbf4ab2e5	-0.7917922
104	0x3e48475b	0.1955847
105	0xbdf75c31	-0.12078131
106	0xbfa7eb0d	-1.3118607
107	0x3ecb31c8	0.39686418
108	0x3c022099	0.007942342
109	0x3e249226	0.16071376
110	0x3da454a9	0.0802396
111	0xbeb83fba	-0.3598612
112	0x3e07766a	0.13228765
113	0xbf92f113	-1.147982
114	0x3f23e5b2	0.6402236
115	0x3d0034dd	0.031300414
116	0xbe33a596	-0.17543635
117	0x3f1af15f	0.60524553
118	0x3f862d05	1.0482489
119	0xbf4f5de2	-0.8100263
120	0x3f59e042	0.85107815
121	0x3deb9ad7	0.11504143
122	0xbf93118c	-1.148973
123	0x3ee89acd	0.45430604
124	0xbed1cc43	-0.40976152
125	0x3f188975	0.5958474
126	0xbf4245c8	-0.7588773
127	0xbf93c7f2	-1.1545393

bn1_state.weight f4 [128]
0	0x3f7207b9	0.94543034
1	0x3fd9a896	1.7004573
2	0x3f909b69	1.1297427
3	0x3f9f7a0b	1.245912
4	0x3f6416e5	0.89097434
5	0x3ec2b849	0.38031223
6	0x3f35fdf6	0.7109064
7	0xbe4ed78c	-0.20199412
8	0x3fe09f86	1.7548683
9	0x3f3b2d50	0.73116016
10	0x3f811676	1.008498
11	0x3f8f1961	1.117962
12	0x3f873cfc	1.0565486
13	0x3fb6aa62	1.4270747
14	0x3fdb7bf3	1.7147201
15	0x3ee3aa3f	0.44465825
16	0x3f1e5947	0.61854976
17	0x3f89c101	1.0762025
18	0x3f815f79	1.0107261
19	0x3f3bff4e	0.7343644
20	0x3f8cea31	1.100897
21	0x3f81f12a	1.0151722
22	0x3f61d2ef	0.88212484
23	0x3f1bc1f6	0.60842836
24	0x3f7092bc	0.939739
25	0x3f802c1b	1.001346
26	0x3f5f901b	0.8732926
27	0x3f7bb2dd	0.983198
28	0x3f2fe36b	0.6870639
29	0x3f6c735f	0.9236354
30	0x3f326b9e	0.6969546
31	0x3ec3a090	0.38208437
32	0x3f48a11f	0.7837085
33	0x3fe6553d	1.7994763
34	0x3f86315c	1.0483813
35	0x3f9ddc2c	1.2332816
36	0x3f127f25	0.5722526
37	0x3ff3196e	1.8992136
38	0x3ee5a0d5	0.44849268
39	0x3fa9de84	1.3271031
40	0x3fa2e719	1.2726775
41	0x3f872053	1.055674
42	0x3f87d590	1.0612049
43	0x3e1ecfcf	0.1550896
44	0x3fc10e8e	1.5082567
45	0x3efc46fb	0.49272904
46	0x3f083cb5	0.5321763
47	0x3f9161ba	1.1357949
48	0x3f93f9be	1.156059
49	0x3f245961	0.6419888
50	0x3ef1a87d	0.4719886
51	0x3f1b1378	0.6057658
52	0x3eee4f5f	0.4654493
53	0x3f2caec9	0.674542
54	0x3f7a57da	0.977903
55	0x3f62921d	0.885042
56	0x3f83fa49	1.0310756
57	0x3f1fb23b	0.62381333
58	0x3fa11ad2	1.258631
59	0x3f8ff067	1.124524
60	0x3f5d4603	0.86434954
61	0x3fb8be6c	1.4433112
62	0x3f8093da	1.0045121
63	0x3edca3b6	0.43093652
64	0x3f99ec87	1.2025307
65	0x3f8f9d32	1.1219847
66	0x3dbfd5ad	0.09366927
67	0x3f702c03	0.93817157
68	0x3fa38ecb	1.2777952
69	0x3f83a472	1.028456
70	0x3fdc1fe0	1.7197227
71	0x3f5077bc	0.814327
72	0x3faf2240	1.3682327
73	0x3f7d0666	0.9883789
74	0x3fcfcf82	1.6235201
75	0x3fb9ddbf	1.4520797
76	0x3f90909f	1.1294135
77	0x40270097	2.609411
78	0x3e96a0f0	0.2941966
79	0x3f44d76a	0.76891196
80	0x3f9a7474	1.2066789
81	0x4001cd9e	2.0281749
82	0x3f894377	1.0723714
83	0x3f27b6d2	0.65513337
84	0x3ec06f0b	0.3758472
85	0x3f86178a	1.0475934
86	0x3f185fa2	0.59520924
87	0x3f90cc15	1.1312281
88	0x3f46d180	0.7766342
89	0x3f788b92	0.9708797
90	0x3fc7824d	1.558664
91	0x3f5f966f	0.8733892
92	0x3e934d97	0.28770134
93	0x3f897fac	1.0742087
94	0x401a8b47	2.4147508
95	0x3f6420cc	0.89112544
96	0x3f706f58	0.939199
97	0x3fa857ad	1.3151757
98	0x3f622463	0.8833677
99	0x3ee7db80	0.45284653
100	0x3f6a174b	0.9144179
101	0x3e98581c	0.29754722
102	0x3f955e95	1.1669489
103	0x3f25fd5e	0.6483973
104	0x3f2cd88e	0.67517936
105	0x3f0cb3a0	0.54961586
106	0x3cf85074	0.0303118
107	0x3f12f3ba	0.5740315
108	0x3f69194b	0.9105422
109	0x3fd7920e	1.6841447
110	0x3f903ee6	1.1269195
111	0x3f496df7	0.7868342
112	0x3f3e0920	0.74232674
113	0x3f8af2ac	1.0855308
114	0x3f8e8d31	1.1136838
115	0x3ee63b8f	0.44967315
116	0x3e8068ed	0.25080052
117	0x3f503d4b	0.81343526
118	0x3f701237	0.93777794
119	0x3f887eae	1.066366
120	0x3fae3823	1.3610882
121	0x3f7bd122	0.98365986
122	0x3fb38537	1.4025029
123	0x3fd6f0df	1.6792258
124	0x40275580	2.6145935
125	0x3f5b637b	0.8569867
126	0x3f488528	0.7832818
127	0x3e38eb1d	0.18058439

bn1_state.bias f4 [128]
0	0xbe2f2c7f	-0.17106818
1	0xbedc2661	-0.4299803
2	0xbe35711e	-0.17718932
3	0x3f40f6d4	0.7537663
4	0xbf1265c7	-0.5718655
5	0xbeee9e17	-0.46604988
6	0x3d3b4236	0.04571744
7	0xbda936b3	-0.08262386
8	0x3ec48722	0.38384348
9	0xbf322ef3	-0.6960289
10	0xbe0c2d3f	-0.13689135
11	0x3ed2e6de	0.41191763
12	0x3f2cf01e	0.6755389
13	0x3f4c5d64	0.7983
14	0x3e87ecca	0.26547843
15	0xbf1c04e2	-0.6094495
16	0xbe063ffd	-0.13110347
17	0xbbe2dc77	-0.006923254
18	0x3e9575ea	0.29191524
19	0xbf49c0fb	-0.7881009
20	0x3f25f837	0.6483187
21	0xbeaa26a6	-0.3323261
22	0xbe7ba811	-0.24575831
23	0x3f9b13a7	1.2115372
24	0x3efebec9	0.49754933
25	0x3ee624ae	0.4494986
26	0x3ebae0b6	0.36499566
27	0xbee41089	-0.44543865
28	0x3f104811	0.56359965
29	0xbe2b14ae	-0.16707107
30	0xbd5f85ca	-0.05457095
31	0x3e71ba1e	0.23606154
32	0x3f036492	0.51325333
33	0x3ec6cf3d	0.38829985
34	0x3ee1445c	0.43997467
35	0x3e2252cc	0.15851897
36	0xbf0bdb9f	-0.5463199
37	0x3f718120	0.94337654
38	0xbe8f67d9	-0.28008917
39	0x3f6c2f4c	0.9225967
40	0x3ef063e1	0.46951202
41	0xbe13b95c	-0.14426178
42	0xbf4f2ead	-0.80930597
43	0xbdc3761b	-0.09544011
44	0x3e3b7763	0.18307261
45	0x3f162db4	0.5866349
46	0xbfb610cd	-1.4223877
47	0x3cc7e626	0.024401736
48	0xbd89b8a5	-0.06724671
49	0xbf2d331d	-0.6765612
50	0xbf3453cf	-0.7044038
51	0xbf02193b	-0.5081975
52	0xbf4b8718	-0.7950301
53	0xbf1edc4d	-0.620549
54	0x3e9919d0	0.29902506
55	0x3f126152	0.5717975
56	0xbc7de0cb	-0.015495489
57	0xbc14f253	-0.009090978
58	0x3f045f8a	0.5170828
59	0x3e399f18	0.18127096
60	0x3d0828ab	0.03324191
61	0xbdf36e1c	-0.11886236
62	0x3e6f17b2	0.23348883
63	0xbf98dee4	-1.1943021
64	0xbf1e30b1	-0.6179305
65	0x3eae2cc0	0.34018517
66	0xbf1c6afb	-0.6110074
67	0x3e65902b	0.22418277
68	0xbc9c855a	-0.019106556
69	0x3f3d6bd0	0.73992634
70	0xbedad9ef	-0.42744395
71	0xbc8a60ad	-0.016891802
72	0x3f7e0912	0.9923259
73	0x3c15aab8	0.009134941
74	0xbeb28563	-0.3486739
75	0x3f1b9616	0.6077589
76	0x3ebaf320	0.36513615
77	0x3f47a462	0.77985203
78	0xbf927375	-1.1441485
79	0x3e89e7fe	0.26934808
80	0xbed2fa99	-0.41206816
81	0x3f0a6d95	0.5407346
82	0xbefad2f7	-0.48989078
83	0xbee0669b	-0.43828282
84	0x3db3f4c7	0.08786922
85	0x3e0aecc0	0.13566875
86	0xbf4a8c92	-0.79120743
87	0x3e91a709	0.2844775
88	0x3f24ab65	0.6432403
89	0x3f23008f	0.6367273
90	0x3f61434d	0.8799332
91	0x3e664ff5	0.22491439
92	0x3e697e7a	0.22802153
93	0x3f0480e0	0.5175915
94	0x3f3f2f5b	0.74681634
95	0x3f01b9c5	0.50674087
96	0xbd013c58	-0.03155169
97	0x3f089e6d	0.5336674
98	0xbefd4c20	-0.4947214
99	0x3dd8639a	0.105658725
100	0xbec96359	-0.3933361
101	0xbe8ba0a8	-0.27271008
102	0x3de630e2	0.112397924
103	0xbf582488	-0.8443074
104	0x3ed8623e	0.42262453
105	0x3e94078e	0.28912014
106	0xbf674612	-0.90341294
107	0x3f09e815	0.53869754
108	0x3d185908	0.03719428
109	0x3ec1b8b8	0.37836242
110	0xbd52a0ed	-0.051423002
111	0xbd2a8e68	-0.041639715
112	0x3e3492e0	0.17634153
113	0xbf37df69	-0.7182527
114	0x3f0149fe	0.5050353
115	0x3e802a23	0.25032148
116	0xbaa19120	-0.0012326576
117	0x3ed92017	0.42407295
118	0x3f2d073d	0.6758917
119	0xbef21c2b	-0.47287115
120	0x3f016c29	0.50555664
121	0x3d39afd1	0.045333687
122	0xbf5735d5	-0.84066516
123	0x3f03b29c	0.5144441
124	0xbe84ee64	-0.25963128
125	0x3eb8bfbc	0.36083782
126	0xbf60e13a	-0.8784367
127	0xbf212af4	-0.62956166

bn1_state.running_mean f4 [128]
0	0x00000000	0.0
1	0x00000000	0.0
2	0x00000000	0.0
3	0x00000000	0.0
4	0x00000000	0.0
5	0x00000000	0.0
6	0x00000000	0.0
7	0x00000000	0.0
8	0x00000000	0.0
9	0x00000000	0.0
10	0x00000000	0.0
11	0x00000000	0.0
12	0x00000000	0.0
13	0x00000000	0.0
14	0x00000000	0.0
15	0x00000000	0.0
16	0x00000000	0.0
17	0x00000000	0.0
18	0x00000000	0.0
19	0x00000000	0.0
20	0x00000000	0.0
21	0x00000000	0.0
22	0x00000000	0.0
23	0x00000000	0.0
24	0x00000000	0.0
25	0x00000000	0.0
26	0x00000000	0.0
27	0x00000000	0.0
28	0x00000000	0.0
29	0x00000000	0.0
30	0x00000000	0.0
31	0x00000000	0.0
32	0x00000000	0.0
33	0x00000000	0.0
34	0x00000000	0.0
35	0x00000000	0.0
36	0x00000000	0.0
37	0x00000000	0.0
38	0x00000000	0.0
39	0x00000000	0.0
40	0x00000000	0.0
41	0x00000000	0.0
42	0x00000000	0.0
43	0x00000000	0.0
44	0x00000000	0.0
45	0x00000000	0.0
46	0x00000000	0.0
47	0x00000000	0.0
48	0x00000000	0.0
49	0x00000000	0.0
50	0x00000000	0.0
51	0x00000000	0.0
52	0x00000000	0.0
53	0x00000000	0.0
54	0x00000000	0.0
55	0x00000000	0.0
56	0x00000000	0.0
57	0x00000000	0.0
58	0x00000000	0.0
59	0x00000000	0.0
60	0x00000000	0.0
61	0x00000000	0.0
62	0x00000000	0.0
63	0x00000000	0.0
64	0x00000000	0.0
65	0x00000000	0.0
66	0x00000000	0.0
67	0x00000000	0.0
68	0x00000000	0.0
69	0x00000000	0.0
70	0x00000000	0.0
71	0x00000000	0.0
72	0x00000000	0.0
73	0x00000000	0.0
74	0x00000000	0.0
75	0x00000000	0.0
76	0x00000000	0.0
77	0x00000000	0.0
78	0x00000000	0.0
79	0x00000000	0.0
80	0x00000000	0.0
81	0x00000000	0.0
82	0x00000000	0.0
83	0x00000000	0.0
84	0x00000000	0.0
85	0x00000000	0.0
86	0x00000000	0.0
87	0x00000000	0.0
88	0x00000000	0.0
89	0x00000000	0.0
90	0x00000000	0.0
91	0x00000000	0.0
92	0x00000000	0.0
93	0x00000000	0.0
94	0x00000000	0.0
95	0x00000000	0.0
96	0x00000000	0.0
97	0x00000000	0.0
98	0x00000000	0.0
99	0x00000000	0.0
100	0x00000000	0.0
101	0x00000000	0.0
102	0x00000000	0.0
103	0x00000000	0.0
104	0x00000000	0.0
105	0x00000000	0.0
106	0x00000000	0.0
107	0x00000000	0.0
108	0x00000000	0.0
109	0x00000000	0.0
110	0x00000000	0.0
111	0x00000000	0.0
112	0x00000000	0.0
113	0x00000000	0.0
114	0x00000000	0.0
115	0x00000000	0.0
116	0x00000000	0.0
117	0x00000000	0.0
118	0x00000000	0.0
119	0x00000000	0.0
120	0x00000000	0.0
121	0x00000000	0.0
122	0x00000000	0.0
123	0x00000000	0.0
124	0x00000000	0.0
125	0x00000000	0.0
126	0x00000000	0.0
127	0x00000000	0.0

bn1_state.running_var f4 [128]
0	0x3f800000	1.0
1	0x3f800000	1.0
2	0x3f800000	1.0
3	0x3f800000	1.0
4	0x3f800000	1.0
5	0x3f800000	1.0
6	0x3f800000	1.0
7	0x3f800000	1.0
8	0x3f800000	1.0
9	0x3f800000	1.0
10	0x3f800000	1.0
11	0x3f800000	1.0
12	0x3f800000	1.0
13	0x3f800000	1.0
14	0x3f800000	1.0
15	0x3f800000	1.0
16	0x3f800000	1.0
17	0x3f800000	1.0
18	0x3f800000	1.0
19	0x3f800000	1.0
20	0x3f800000	1.0
21	0x3f800000	1.0
22	0x3f800000	1.0
23	0x3f800000	1.0
24	0x3f800000	1.0
25	0x3f800000	1.0
26	0x3f800000	1.0
27	0x3f800000	1.0
28	0x3f800000	1.0
29	0x3f800000	1.0
30	0x3f800000	1.0
31	0x3f800000	1.0
32	0x3f800000	1.0
33	0x3f800000	1.0
34	0x3f800000	1.0
35	0x3f800000	1.0
36	0x3f800000	1.0
37	0x3f800000	1.0
38	0x3f800000	1.0
39	0x3f800000	1.0
40	0x3f800000	1.0
41	0x3f800000	1.0
42	0x3f800000	1.0
43	0x3f800000	1.0
44	0x3f800000	1.0
45	0x3f800000	1.0
46	0x3f800000	1.0
47	0x3f800000	1.0
48	0x3f800000	1.0
49	0x3f800000	1.0
50	0x3f800000	1.0
51	0x3f800000	1.0
52	0x3f800000	1.0
53	0x3f800000	1.0
54	0x3f800000	1.0
55	0x3f800000	1.0
56	0x3f800000	1.0
57	0x3f800000	1.0
58	0x3f800000	1.0
59	0x3f800000	1.0
60	0x3f800000	1.0
61	0x3f800000	1.0
62	0x3f800000	1.0
63	0x3f800000	1.0
64	0x3f800000	1.0
65	0x3f800000	1.0
66	0x3f800000	1.0
67	0x3f800000	1.0
68	0x3f800000	1.0
69	0x3f800000	1.0
70	0x3f800000	1.0
71	0x3f800000	1.0
72	0x3f800000	1.0
73	0x3f800000	1.0
74	0x3f800000	1.0
75	0x3f800000	1.0
76	0x3f800000	1.0
77	0x3f800000	1.0
78	0x3f800000	1.0
79	0x3f800000	1.0
80	0x3f800000	1.0
81	0x3f800000	1.0
82	0x3f800000	1.0
83	0x3f800000	1.0
84	0x3f800000	1.0
85	0x3f800000	1.0
86	0x3f800000	1.0
87	0x3f800000	1.0
88	0x3f800000	1.0
89	0x3f800000	1.0
90	0x3f800000	1.0
91	0x3f800000	1.0
92	0x3f800000	1.0
93	0x3f800000	1.0
94	0x3f800000	1.0
95	0x3f800000	1.0
96	0x3f800000	1.0
97	0x3f800000	1.0
98	0x3f800000	1.0
99	0x3f800000	1.0
100	0x3f800000	1.0
101	0x3f800000	1.0
102	0x3f800000	1.0
103	0x3f800000	1.0
104	0x3f800000	1.0
105	0x3f800000	1.0
106	0x3f800000	1.0
107	0x3f800000	1.0
108	0x3f800000	1.0
109	0x3f800000	1.0
110	0x3f800000	1.0
111	0x3f800000	1.0
112	0x3f800000	1.0
113	0x3f800000	1.0
114	0x3f800000	1.0
115	0x3f800000	1.0
116	0x3f800000	1.0
117	0x3f800000	1.0
118	0x3f800000	1.0
119	0x3f800000	1.0
120	0x3f800000	1.0
121	0x3f800000	1.0
122	0x3f800000	1.0
123	0x3f800000	1.0
124	0x3f800000	1.0
125	0x3f800000	1.0
126	0x3f800000	1.0
127	0x3f800000	1.0

fc1_action.weight f4 [32, 2]
0	0x40117d1e	2.2732615
1	0xbf5de968	-0.86684275
2	0xbfc03afb	-1.5018
3	0xbec66485	-0.38748565
4	0xbfa0ceed	-1.2563149
5	0x3f79a65c	0.9751947
6	0x3e1f4cec	0.15556687
7	0xbf60df7f	-0.8784103
8	0xbf0a6946	-0.54066885
9	0x3fbd4180	1.4785614
10	0xc011972b	-2.2748516
11	0x3f2d63a8	0.6773019
12	0x3f03dd48	0.51509523
13	0x3f74e7f5	0.9566644
14	0xbe91939d	-0.28432932
15	0xbef1f650	-0.47258234
16	0x3fc2026b	1.5156988
17	0x3fe3754d	1.7770172
18	0xbea18aa7	-0.31551096
19	0xbec0d719	-0.37664106
20	0x3f13ab31	0.5768309
21	0xbfe446eb	-1.7834142
22	0xbf09955b	-0.53743523
23	0x3fc58aea	1.5433018
24	0xbf47d414	-0.7805798
25	0xbf119e4b	-0.5688216
26	0x3f65ce45	0.8976787
27	0x3fcf1c5b	1.6180528
28	0xbf3be8c2	-0.73402035
29	0xbe934269	-0.28761604
30	0xbed7e055	-0.4216334
31	0x3fe78b75	1.8089434
32	0x3f911f17	1.1337613
33	0xbda46913	-0.08027854
34	0x3fc08274	1.5039811
35	0x3fb67cdf	1.4256858
36	0x3e3afd5d	0.18260713
37	0x3e599e84	0.21251875
38	0xc0427e48	-3.0389576
39	0xbfc1f5b2	-1.5153105
40	0xbf8da29c	-1.106525
41	0x3f8ca2f3	1.0987228
42	0x3eca7f98	0.3955047
43	0xbe79a2a9	-0.24378456
44	0x3df02689	0.117261
45	0x3dd82101	0.1055317
46	0x3f893442	1.0719073
47	0x3f21001b	0.62890786
48	0x3e469b5e	0.19395205
49	0xbd74ee1a	-0.059797384
50	0xbf4bdec1	-0.7963677
51	0xbf992b59	-1.1966354
52	0xbe22c69f	-0.1589608
53	0xbf9dfe3f	-1.2343215
54	0xbfa606b6	-1.2970798
55	0xbbd80ff5	-0.006593699
56	0xbf78da60	-0.97208214
57	0xc0373d78	-2.8631268
58	0x3f8a1f1d	1.0790745
59	0x3fed10d7	1.8520764
60	0xbeac3465	-0.33633724
61	0x4019cd24	2.4031458
62	0xbebc605b	-0.36792263
63	0x3eba35b4	0.36369097

fc1_action.bias f4 [32]
0	0x3f8d29cc	1.102838
1	0xbf2c7331	-0.6736327
2	0xbf549e28	-0.8305383
3	0x3f9837e8	1.1892061
4	0x3f5ad9e1	0.85488707
5	0xbe2568b0	-0.16153216
6	0x3f5d627f	0.8647842
7	0xbfca421b	-1.5801424
8	0x3ec49feb	0.38403258
9	0x3f9a5b7a	1.2059166
10	0x3e3edc54	0.18638736
11	0x3f8109f7	1.0081166
12	0x3fd118de	1.6335714
13	0x3f6f99f1	0.9359427
14	0xbf205d8e	-0.62642753
15	0xbe65e024	-0.22448784
16	0x3fd29ada	1.6453507
17	0x3c5a19a0	0.013311774
18	0xbfaba14a	-1.3408597
19	0x3e15d999	0.14633788
20	0x3fe24796	1.7678096
21	0xbfcbe86f	-1.5930308
22	0xbf95e190	-1.1709461
23	0x3f7e34bb	0.9929921
24	0x3f3a5225	0.7278159
25	0x3fcc6b91	1.5970327
26	0x3fc307e9	1.5236789
27	0xbeac56ac	-0.33659875
28	0x3fa71eeb	1.305631
29	0x3fd0d992	1.6316397
30	0x3f005f1d	0.5014513
31	0x3f93980d	1.1530777

bn1_action.weight f4 [32]
0	0x3fc22482	1.5167391
1	0x3fd01b0c	1.6258254
2	0x3fd6127c	1.6724391
3	0x40177693	2.3666122
4	0x3fcd87ff	1.6057128
5	0x3fd9faf6	1.7029712
6	0x3fb4ec6b	1.4134649
7	0x3fe69c48	1.8016443
8	0x3fae731e	1.3628881
9	0x3fe9afd5	1.8256785
10	0x3fd85c28	1.6903124
11	0x3fd4bcf4	1.6620164
12	0x3ff0c5d1	1.8810369
13	0x3fb9c0af	1.4511927
14	0x3ff4c022	1.9121134
15	0x40135a8e	2.302402
16	0x3fc9d663	1.5768551
17	0x3fba3963	1.4548763
18	0x4002960f	2.0404088
19	0x3fd3752b	1.6520132
20	0x3fe44891	1.7834646
21	0x3ff43221	1.9077798
22	0x40020843	2.0317543
23	0x3faf2ad8	1.368495
24	0x3fcbc046	1.5918052
25	0x3fe9bb57	1.8260297
26	0x4016a262	2.353661
27	0x3fb840ac	1.4394736
28	0x3fb7c23a	1.4356148
29	0x3fc1bc93	1.5135673
30	0x3fba35a0	1.4547615
31	0x3fefd9bb	1.8738321

bn1_action.bias f4 [32]
0	0x3f04ce0a	0.5187689
1	0xbd034c5f	-0.032055255
2	0xbe489009	-0.19586195
3	0x3f717039	0.94311863
4	0x3f848552	1.0353186
5	0xbd005de3	-0.031339537
6	0x3f822d1a	1.0170014
7	0xbf6d61c6	-0.92727315
8	0x3f309c8e	0.68988883
9	0x3f59415a	0.84865344
10	0x3f145149	0.5793653
11	0x3f825b18	1.018405
12	0x3f8fc9d7	1.1233472
13	0x3f706b6d	0.9391392
14	0xbdbd0abe	-0.092305645
15	0x3d52505b	0.051346164
16	0x3f7514d3	0.957349
17	0x3ef096f6	0.46990174
18	0xbf6514fa	-0.8948513
19	0x3d92d8b9	0.07170243
20	0x3f90f0a3	1.1323436
21	0xbf676396	-0.9038633
22	0xbf6d4055	-0.9267629
23	0x3f726a1a	0.9469315
24	0x3f580975	0.8438943
25	0x3f835823	1.0261272
26	0x3f73fbe2	0.9530622
27	0x3e7e237a	0.2481822
28	0x3f49ae97	0.7878203
29	0x3f920406	1.1407478
30	0x3f6cb676	0.92465913
31	0x3f86aedf	1.0522116

bn1_action.running_mean f4 [32]
0	0x00000000	0.0
1	0x00000000	0.0
2	0x00000000	0.0
3	0x00000000	0.0
4	0x00000000	0.0
5	0x00000000	0.0
6	0x00000000	0.0
7	0x00000000	0.0
8	0x00000000	0.0
9	0x00000000	0.0
10	0x00000000	0.0
11	0x00000000	0.0
12	0x00000000	0.0
13	0x00000000	0.0
14	0x00000000	0.0
15	0x00000000	0.0
16	0x00000000	0.0
17	0x00000000	0.0
18	0x00000000	0.0
19	0x00000000	0.0
20	0x00000000	0.0
21	0x00000000	0.0
22	0x00000000	0.0
23	0x00000000	0.0
24	0x00000000	0.0
25	0x00000000	0.0
26	0x00000000	0.0
27	0x00000000	0.0
28	0x00000000	0.0
29	0x00000000	0.0
30	0x00000000	0.0
31	0x00000000	0.0

bn1_action.running_var f4 [32]
0	0x3f800000	1.0
1	0x3f800000	1.0
2	0x3f800000	1.0
3	0x3f800000	1.0
4	0x3f800000	1.0
5	0x3f800000	1.0
6	0x3f800000	1.0
7	0x3f800000	1.0
8	0x3f800000	1.0
9	0x3f800000	1.0
10	0x3f800000	1.0
11	0x3f800000	1.0
12	0x3f800000	1.0
13	0x3f800000	1.0
14	0x3f800000	1.0
15	0x3f800000	1.0
16	0x3f800000	1.0
17	0x3f800000	1.0
18	0x3f800000	1.0
19	0x3f800000	1.0
20	0x3f800000	1.0
21	0x3f800000	1.0
22	0x3f800000	1.0
23	0x3f800000	1.0
24	0x3f800000	1.0
25	0x3f800000	1.0
26	0x3f800000	1.0
27	0x3f800000	1.0
28	0x3f800000	1.0
29	0x3f800000	1.0
30	0x3f800000	1.0
31	0x3f800000	1.0

fc2.weight f4 [200, 160]
0	0x3d79fa7c	0.061029896
1	0x3ea1ea8a	0.31624252
2	0xbc374df2	-0.011188017
3	0x3d444c9f	0.047924634
4	0xbe262ec5	-0.16228779
5	0xbe6c75fe	-0.23091885
6	0x3d080021	0.033203248
7	0xbd7243e6	-0.059146784
8	0xbe8c6703	-0.27422342
9	0xbd851aa6	-0.064992234
10	0xbf04821b	-0.51761025
11	0x3f522b51	0.82097346
12	0x3ca238bc	0.019802444
13	0xbd370215	-0.04467972
14	0x3cbab311	0.022790464
15	0xbe5e9569	-0.21736683
16	0xbe988b9b	-0.2979401
17	0xbcf4520b	-0.029824277
18	0xbe735680	-0.23763466
19	0xbe8afe29	-0.27147034
20	0xbc3d2e7f	-0.01154673
21	0x3e96f5eb	0.29484496
22	0xbecd40b7	-0.40088436
23	0xbdabb48f	-0.08384048
24	0x3ec612ee	0.38686317
25	0xbf18b9d4	-0.5965855
26	0x3f281fd8	0.6567359
27	0xbe558ee9	-0.20855297
28	0x3e22b671	0.15889908
29	0xbd64b858	-0.055839866
30	0x3e0a747a	0.13520995
31	0x3e2385d2	0.15969017
32	0xbe6396fa	-0.22225562
33	0x3e4379ef	0.19089483
34	0xbcf1eb07	-0.029531015
35	0xbd486736	-0.048926555
36	0xbe1a8188	-0.15088475
37	0x3e95bfe7	0.29247972
38	0x3db01a17	0.08598726
39	0x3ea417d6	0.32049435
40	0xbe8fac96	-0.2806136
41	0xbe7cf463	-0.24702601
42	0xbc50ed19	-0.012751841
43	0x3f1188b1	0.568492
44	0x3ea79871	0.3273349
45	0xbc23f840	-0.010007918
46	0x3d437cfa	0.04772661
47	0xbe65d4d2	-0.22444466
48	0x3e4d9430	0.2007606
49	0xbc019460	-0.0079089105
50	0x3e9e3e81	0.30907062
51	0x3d19cbce	0.03754788
52	0x3e02f1e3	0.12787585
53	0xbee49c4c	-0.44650495
54	0xbe33156c	-0.1748864
55	0xbe88a25e	-0.26686376
56	0x3ca67b3c	0.020322435
57	0xbeb2404f	-0.3481469
58	0xbe129f60	-0.14318609
59	0x3e836457	0.2566249
60	0xbdb4f399	-0.08835525
61	0x3e619490	0.22029328
62	0xbe28d7ef	-0.16488622
63	0xbda206a1	-0.079114206
64	0x3c952d98	0.018210217
65	0x3eb606d0	0.35552073
66	0xbe125587	-0.14290439
67	0xbe65614a	-0.22400394
68	0xbede8b05	-0.43465438
69	0x3e8ea46d	0.27859822
70	0xbdb95cf1	-0.0905093
71	0xbdc4cc7f	-0.09609317
72	0xbe9cd678	-0.30632377
73	0xbe6cfc6e	-0.2314317
74	0xbecd2deb	-0.40074095
75	0xbe8f39a6	-0.2797367
76	0xbe0b9cb0	-0.1363399
77	0x3ee2a7ed	0.44268742
78	0xbdae37a2	-0.08506705
79	0xbc787b77	-0.015166155
80	0xbe5222ba	-0.2052106
81	0xbeb92eab	-0.36168417
82	0xbeb2e9a5	-0.34943882
83	0x3db4e885	0.08833412
84	0xbd86f102	-0.06588937
85	0xbddfeb40	-0.10933542
86	0xbeccd5b3	-0.4000679
87	0xbe6f40f2	-0.23364618
88	0xbd81f2e7	-0.06345158
89	0xbdfddc56	-0.12395541
90	0x3e7ec910	0.24881387
91	0xbd760733	-0.06006546
92	0xbea9891a	-0.33112413
93	0xbea13b3d	-0.31490508
94	0x3ea3b17f	0.31971356
95	0x3e9d8d88	0.30772042
96	0xbeb2e005	-0.34936538
97	0x3ef62c1a	0.48080522
98	0xbe6d6bfb	-0.23185723
99	0xbe3f882c	-0.18704289
100	0xbe7ce264	-0.24695736
101	0xbe6ec8c1	-0.23318769
102	0x3f020c16	0.5079969
103	0xbeb637f6	-0.3558957
104	0x3ebbb752	0.366633
105	0xbd2dcc78	-0.042431325
106	0xbb0f226e	-0.002184059
107	0xbe586d1e	-0.21135375
108	0xbedf1275	-0.4356877
109	0xbe5801fa	-0.21094504
110	0x3caa518e	0.020790841
111	0xbe35e42e	-0.17762825
112	0x3dd349c8	0.10316807
113	0x3e76512a	0.24054399
114	0x3e922adb	0.2854832
115	0x3e92d293	0.2867628
116	0x3d9ae492	0.075631276
117	0xbe1c7817	-0.15280186
118	0x3eba8b62	0.36434466
119	0x3e30b7ae	0.17257568
120	0xbea5131b	-0.3224114
121	0xbf592078	-0.8481517
122	0xbe8a6652	-0.2703119
123	0xbf0da24d	-0.55325776
124	0xbebce103	-0.3689042
125	0xbe3e8f81	-0.1860943
126	0xbea0a70d	-0.3137745
127	0x3dd94c95	0.1061031
128	0x3e6d3c15	0.2316745
129	0x3ce0e53d	0.02745306
130	0xbeaaf3bb	-0.33389077
131	0xbdd0554d	-0.1017252
132	0xbe805cc5	-0.25070778
133	0x3d9643ee	0.07337175
134	0x3e2c9c70	0.16856551
135	0x3cac5025	0.02103431
136	0x3efd0ea9	0.49425247
137	0xbf094364	-0.53618455
138	0xbe262102	-0.16223529
139	0xbe9b5af1	-0.3034282
140	0xbf13cdc5	-0.57735854
141	0x3df4c670	0.119519114
142	0x3e87fdac	0.26560724
143	0xbdc71641	-0.097210415
144	0x3e549917	0.20761524
145	0x3ec174eb	0.37784514
146	0x3eaf64a6	0.34256476
147	0xbcf180c9	-0.029480355
148	0xbf1a5f96	-0.603021
149	0x3ed18f1b	0.40929493
150	0x3e82622e	0.2546553
151	0x3d1521f6	0.03640934
152	0x3d941b6d	0.072317936
153	0xbef67ecf	-0.48143622
154	0xbe802a16	-0.2503211
155	0xbda8d56e	-0.082438335
156	0xbea437b5	-0.3207375
157	0x3e0e38a6	0.13888797
158	0x3d84e446	0.06488852
159	0xbebfb02a	-0.3743909
160	0xbe7ab527	-0.24483167
161	0x3dfb0bcc	0.122581095
162	0x3e5a0a73	0.21293049
163	0x3f711816	0.9417738
164	0xbed6c7de	-0.41949362
165	0xbe840bb9	-0.25790194
166	0x3e253146	0.16132078
167	0xbcbc859e	-0.023012932
168	0x3eb1f5d4	0.34757864
169	0x3abb0670	0.0014268886
170	0x3c8c2202	0.01710606
171	0x3f33f880	0.70301056
172	0x3ead854d	0.33890763
173	0x3ef1d8a1	0.47235587
174	0x3e3583ff	0.17726134
175	0xbda66882	-0.08125402
176	0xbdd4168f	-0.10355865
177	0x3da636ab	0.08115896
178	0x3e29f52b	0.1659743
179	0xbd47d239	-0.04878447
180	0xbe8bcd11	-0.2730489
181	0x3da81fa0	0.08209157
182	0xbd9f46e7	-0.077771954
183	0x3f145c77	0.5795359
184	0x3de51844	0.11186269
185	0x3e125b7f	0.14292715
186	0x3f558366	0.83403623
187	0xbeaf2b08	-0.34212518
188	0xbc251af4	-0.010077227
189	0x3e9883c2	0.29788023
190	0x3df90bb6	0.12160437
191	0x3f115c07	0.5678105
192	0xbcc9ff04	-0.024657734
193	0x3ebaf70a	0.365166
194	0x3d9f41d5	0.07776228
195	0x3e3f2849	0.18667711
196	0x3a9e0287	0.0012055197
197	0x3d725d31	0.059170906
198	0x3db4e3dc	0.08832523
199	0x3e89e320	0.26931095
200	0xbd52d980	-0.051476955
201	0x3e8886d3	0.26665363
202	0x3d8184cd	0.06324158
203	0x3e1b63cd	0.1517479
204	0x3f3a2de8	0.727263
205	0x3eca4f5d	0.39513674
206	0xbe7eae54	-0.24871188
207	0xbe18daf9	-0.14927281
208	0x3e9b7cc5	0.3036863
209	0xbdec412f	-0.1153587
210	0x3c96ba02	0.018399242
211	0xbe929486	-0.2862894
212	0x3c350191	0.011047737
213	0xbebb143d	-0.36538878
214	0x3e609215	0.21930726
215	0xbd0b176c	-0.033957884
216	0x3de6b11b	0.11264249
217	0x3ef09846	0.46991175
218	0x3e96f704	0.29485333
219	0xbec457d7	-0.38348266
220	0x3e16eefd	0.14739604
221	0x3e5996de	0.21248958
222	0xbe01cc12	-0.12675503
223	0xbe542163	-0.20715861
224	0x3e9f525e	0.3111753
225	0x3f0b9947	0.5453076
226	0x3bb9a50e	0.005665428
227	0x3d2c3deb	0.042051237
228	0x3dc42cd4	0.09578863
229	0x3f32bd98	0.6982055
230	0xbdcaef2f	-0.09908902
231	0x3c2faf42	0.010722937
232	0x3efcdedc	0.49388778
233	0x3ec6777b	0.3876303
234	0x3efd2fda	0.4945057
235	0xbe54abb7	-0.20768629
236	0x3dff82b1	0.12476099
237	0xbe92c11a	-0.2866295
238	0x3dac5df3	0.08416357
239	0xbda5b2f2	-0.08090772
240	0x3e3abd50	0.1823628
241	0x3e7ede84	0.2488957
242	0xbddce8e5	-0.107866086
243	0x3d0a2d8c	0.033734843
244	0xbe98e13e	-0.29859346
245	0x3e2f5fae	0.17126343
246	0x3e3447b5	0.17605479
247	0x3d967ce8	0.07348043
248	0x3f3cb5c8	0.73714876
249	0xbebc4d01	-0.367775
250	0x3e82c9bb	0.25544533
251	0x3ed12fe8	0.40856862
252	0x3e7b4d01	0.24541093
253	0x3e0975d6	0.13423857
254	0x3e38da06	0.1805192
255	0x3e577188	0.21039402

fc2.bias f4 [200]
0	0xbdc51019	-0.09622211
1	0xbd9af77a	-0.07566734
2	0xbeb9c58f	-0.36283538
3	0x3e13d236	0.14435658
4	0xbdf8dc48	-0.1215139
5	0xbe73e57e	-0.23818013
6	0x3ed5b63b	0.41740593
7	0x3e2e2152	0.17004898
8	0x3e987580	0.29777145
9	0x3e507d48	0.20360291
10	0x3e820ba9	0.2539952
11	0x3f127853	0.5721485
12	0x3f38ca5e	0.7218379
13	0x3dc55587	0.09635454
14	0xbbd32d47	-0.0064446065
15	0x3e2d5de2	0.16930345
16	0x3eab2663	0.33427724
17	0xbeae36fc	-0.34026325
18	0xbf5194e3	-0.8186781
19	0xbe5ef9e2	-0.2177501
20	0x3e516ee6	0.2045246
21	0x3e896e81	0.2684212
22	0xbca7da4f	-0.02048984
23	0xbcd940cc	-0.026520155
24	0x3f5262f9	0.8218227
25	0xbf9d7c0e	-1.2303483
26	0xbebb40ba	-0.3657282
27	0x3f6f6f05	0.9352878
28	0x3ad63031	0.0016341266
29	0x3f0c0485	0.54694396
30	0x3f28aa4f	0.6588487
31	0x3eaa8849	0.33307102
32	0x3ecb54af	0.39713046
33	0xbf600358	-0.875051
34	0x3f6660d0	0.89991474
35	0xbe96dcf5	-0.29465452
36	0xbe9c89ab	-0.30573782
37	0xbf41ea37	-0.7574801
38	0xbf5128d1	-0.81702906
39	0xbf02b2e0	-0.5105419
40	0x3edd65fe	0.43241876
41	0xbedfcc87	-0.4371073
42	0x3ee56226	0.44801444
43	0xbe31a977	-0.17349802
44	0xbdf8d7cc	-0.12150535
45	0x3f1ac4b9	0.60456425
46	0xbea9041f	-0.33010957
47	0xbf01efd4	-0.50756574
48	0xbe71af3a	-0.23602
49	0x3ec2e98c	0.38068807
50	0xbe028d1b	-0.1274914
51	0x3de9f3b6	0.11423437
52	0xbda9d1e9	-0.0829199
53	0x3e0a77e6	0.135223
54	0x3d334e5b	0.043775897
55	0xbf1c5505	-0.6106723
56	0x3e224686	0.15847215
57	0xbd0b3bb3	-0.03399248
58	0xbf9d2708	-1.2277536
59	0xbe32822f	-0.17432474
60	0x3f377268	0.71658945
61	0xbdb1dca9	-0.08684666
62	0xbf595774	-0.8489907
63	0x3ee3082a	0.44342166
64	0xbedadaa5	-0.42744938
65	0xbd1a89e6	-0.037729166
66	0xbf54c3eb	-0.8311145
67	0xbee78147	-0.45215818
68	0xbe526edb	-0.205501
69	0x3da8e370	0.08246505
70	0x3f5ba656	0.85800683
71	0xbf4e6f38	-0.80638456
72	0xbf67f523	-0.90608424
73	0xbedadcd6	-0.4274661
74	0x3d449329	0.047991905
75	0xbe2cd8fe	-0.16879651
76	0xbf2f2645	-0.6841777
77	0xbf11adfb	-0.569061
78	0xbf2af782	-0.66783917
79	0xbe8266d3	-0.25469074
80	0xbe17b1c3	-0.14813904
81	0xbe1a505f	-0.15069722
82	0x3d1d3e79	0.038389657
83	0x3d843d4b	0.06457003
84	0x3dc7d2d1	0.09757007
85	0x3e701bd0	0.2344811
86	0xbf329f6d	-0.69774514
87	0xbda0cef5	-0.07851974
88	0x3f0d2e89	0.5514913
89	0xbe9b92e8	-0.30385518
90	0x3d80afc6	0.06283526
91	0x3e9fdaa4	0.31221497
92	0xbf78966d	-0.9710453
93	0x3c8e01b0	0.017334789
94	0xbe2fafdb	-0.17156927
95	0xbf117c0a	-0.56829894
96	0xbf5b8d21	-0.8576222
97	0x3c0f3b99	0.0087422365
98	0x3e819252	0.25306946
99	0xbf46e26a	-0.7768923
100	0x3f16a94a	0.58852065
101	0x3dc63fd9	0.09680147
102	0x3e723f13	0.23656873
103	0xbe6bfd5e	-0.2304587
104	0x3ef7c5eb	0.48393187
105	0x3f39b1e8	0.7253709
106	0x3ede1c19	0.43380812
107	0xbf2e601f	-0.6811542
108	0xbe317e50	-0.1733334
109	0x3bdef1d3	0.00680373
110	0xbf099a15	-0.53750736
111	0xbebea26f	-0.37233302
112	0x3ec14fd2	0.3775621
113	0xbf58e522	-0.8472463
114	0x3f6a2191	0.9145747
115	0x3f2e1c7e	0.68012226
116	0xbe08947e	-0.13337895
117	0x3e88bb25	0.2670528
118	0xbe9902bb	-0.29884896
119	0x3d719fea	0.058990397
120	0x3e52daae	0.20591232
121	0xbf1c8ae5	-0.61149436
122	0x3f1ebe25	0.6200889
123	0xbf6b0f4f	-0.91820234
124	0x3e9fb811	0.3119512
125	0xbf76fa38	-0.96475554
126	0x3f0eeece	0.5583314
127	0x3e4f714e	0.20258066
128	0x3d5cdf21	0.05392373
129	0xbdc70c44	-0.09719136
130	0xbed42978	-0.41437888
131	0x3ea24eb1	0.31700662
132	0x3ecef6ff	0.40422818
133	0xbe8f3fbb	-0.2797831
134	0xbde50106	-0.11181836
135	0x3f6a3f94	0.9150326
136	0xbec52d39	-0.38511065
137	0x3e6f643b	0.23378079
138	0x3e7ec831	0.24881054
139	0x3e70b553	0.2350667
140	0x3f528ecb	0.82249135
141	0x3eb15ac7	0.3463957
142	0x3e66a978	0.22525585
143	0x3ea4d686	0.32194918
144	0x3f0c8b23	0.54899806
145	0x3d4b02f1	0.049563352
146	0x3f5d16a8	0.86362696
147	0xbde2063a	-0.11036344
148	0xbdaccf02	-0.08437921
149	0x3e0eebfc	0.13957208
150	0xbc142938	-0.00904303
151	0x3d04ad39	0.03239176
152	0x3dafd4c5	0.085855044
153	0x3f0516c1	0.51987845
154	0x3f07aad4	0.5299504
155	0x3eea7d31	0.45798638
156	0xbec63658	-0.38713336
157	0x3ea9890f	0.3311238
158	0x3e3a3501	0.18184282
159	0xbc6f4cb3	-0.014605689
160	0x3e1435f0	0.144737
161	0x3e4a44da	0.19752827
162	0x3e9a7368	0.30166173
163	0x3e144d2c	0.14482564
164	0x3f4074a7	0.75178
165	0xbdfd5a51	-0.12370742
166	0xbe6291cc	-0.2212593
167	0x3daa7233	0.08322563
168	0x3e8e8924	0.27839005
169	0xbe9e01c3	-0.3086072
170	0x3f15f044	0.5856974
171	0xbc1a2487	-0.009408123
172	0x3ea48de4	0.32139504
173	0xbf69125b	-0.91043633
174	0x3defc5f5	0.11707679
175	0xbf04ad26	-0.51826704
176	0xbf769ce7	-0.96333164
177	0x3e6d8097	0.23193584
178	0xbc85b9de	-0.01632398
179	0x3dbb350e	0.09140979
180	0xbf9472a5	-1.1597487
181	0x3d1a1f71	0.03762764
182	0x3e2413cf	0.16023181
183	0x3ec2efc3	0.3807355
184	0x3d94d711	0.07267583
185	0xbee7f823	-0.453065
186	0x3ec38724	0.38189042
187	0xbec19a41	-0.37813
188	0x3f8620fd	1.0478817
189	0x3e88d716	0.26726598
190	0x3e3c1266	0.18366393
191	0x3f2dab63	0.6783964
192	0x3dafe9f3	0.08589544
193	0xbde7bed9	-0.11315698
194	0x3f177c1d	0.59173757
195	0xbf6cf212	-0.9255687
196	0x3f3da9e7	0.74087375
197	0x3f46fa64	0.77725816
198	0xbf5aeec5	-0.85520583
199	0xbf1e0573	-0.61727065

bn2.weight f4 [200]
0	0x3f9f75d0	1.2457829
1	0x3f80dacb	1.006677
2	0x3f2faf2f	0.68626684
3	0x3f57f29a	0.84354556
4	0x3fbb7608	1.4645395
5	0x3fb02c82	1.3763583
6	0x3f091c66	0.5355896
7	0x3f8d8b6c	1.1058173
8	0x3f8d0351	1.1016637
9	0x3f90d072	1.1313612
10	0x3f1677d2	0.5877658
11	0x3fa6e747	1.303933
12	0x3f359ad8	0.709394
13	0x3f988a6e	1.1917245
14	0x3fbb1f82	1.461899
15	0x3f72b649	0.94809395
16	0x40590691	3.3910258
17	0x3f150fc3	0.58227175
18	0x3f9c2769	1.2199527
19	0x3fa4912d	1.2856804
20	0x3f995108	1.1977854
21	0x3f9d62bf	1.229576
22	0x3f49c477	0.78815407
23	0x3f90064b	1.125192
24	0x3f581ec1	0.84421927
25	0x3f87e617	1.0617093
26	0x4046b77d	3.1049492
27	0x3f0c3619	0.54770046
28	0x3faa9512	1.3326743
29	0x3f7fcc0b	0.9992072
30	0x3f59179e	0.8480166
31	0x3f65709b	0.8962495
32	0x3f978b4d	1.1839386
33	0x3f7f785c	0.9979303
34	0x3f2f1c19	0.6840225
35	0x3f72202f	0.9458036
36	0x3fa5f74a	1.2966092
37	0x3f77d4fc	0.96809363
38	0x3f6d7d83	0.9276964
39	0x3f1d75a8	0.61507654
40	0x3fe07934	1.7536988
41	0x3f5367a2	0.82580006
42	0x3f7e53e1	0.9934674
43	0x3fa695c9	1.3014461
44	0x3f93ede6	1.1556976
45	0x3f52b5f1	0.8230887
46	0x3f5f6cc3	0.8727533
47	0x3f5838e0	0.84461784
48	0x3ed060cf	0.4069886
49	0x3f7e1137	0.9924502
50	0x3f17d12c	0.59303546
51	0x3fa8d6aa	1.319051
52	0x3f5ca050	0.8618212
53	0x3f0ff1df	0.5622844
54	0x3fa19d07	1.2626046
55	0x3f85773e	1.0427015
56	0x3f0a77fe	0.54089344
57	0x3fdd7dd1	1.7304021
58	0x3fa4a147	1.2861718
59	0x3f9f2422	1.2432902
60	0x3fd1fdd5	1.6405588
61	0x3fa0de56	1.2567852
62	0x3f73f61f	0.95297426
63	0x3f59e7c6	0.85119283
64	0x3f87b083	1.0600742
65	0x3f96ba0e	1.1775529
66	0x3faa0e6a	1.3285649
67	0x3f4515fb	0.76986665
68	0x3f7fa2c0	0.9985771
69	0x3fd8dc9e	1.6942327
70	0x3f95e345	1.1709982
71	0x3faf9842	1.371834
72	0x3f8ae51c	1.0851169
73	0x3f7e43d5	0.99322253
74	0x3fce1bdf	1.6102256
75	0x3f9836a7	1.1891679
76	0x3fcc69dc	1.5969806
77	0x3f8f663f	1.1203078
78	0x3fb937f4	1.44702
79	0x3f85a369	1.0440494
80	0x3f94088b	1.1565107
81	0x3f953ce0	1.1659203
82	0x3f866a89	1.0501262
83	0x3f7d73f5	0.9900506
84	0x3fbe6d55	1.4877115
85	0x3f8474a9	1.0348102
86	0x3f265b8d	0.64983445
87	0x3fa8086a	1.3127568
88	0x3f241ea2	0.6410924
89	0x401990ce	2.3994632
90	0x3fb9ee4f	1.4525851
91	0x3f991bac	1.196157
92	0x3fd45ae8	1.6590242
93	0x3fbaa730	1.4582272
94	0x3ff15cac	1.8856406
95	0x3f80d349	1.0064479
96	0x3f8b8f54	1.0903115
97	0x3fb2b96b	1.3962835
98	0x3f8ea2c7	1.1143426
99	0x3f9d5c25	1.2293745
100	0x3f976f1e	1.1830785
101	0x3f81f385	1.0152441
102	0x3f7052fa	0.9387661
103	0x3f82872c	1.0197501
104	0x3f7f9897	0.9984221
105	0x3f68c9b6	0.90932786
106	0x3f4fb05b	0.8112847
107	0x3fbf72eb	1.4956945
108	0x3f8982bd	1.0743023
109	0x3f9263da	1.1436722
110	0x3f2387e1	0.6387921
111	0x3fb142cb	1.3848509
112	0x3ef36171	0.4753528
113	0x3f3e9707	0.744492
114	0x3f5524d2	0.8325931
115	0x3f3837d8	0.7196021
116	0x3fb46fc7	1.4096612
117	0x3f369e20	0.7133503
118	0x3f2a458d	0.66512376
119	0x3fa31c9e	1.2743108
120	0x3f65163b	0.89487046
121	0x3f8bad2b	1.0912222
122	0x3fce3477	1.6109761
123	0x3f96d7c3	1.1784595
124	0x3f95d10f	1.1704425
125	0x3f9dafcd	1.2319275
126	0x3f223a20	0.6336994
127	0x3f918f9e	1.1371953
128	0x3f5f72b4	0.872844
129	0x3f762dec	0.9616382
130	0x3f4bfe21	0.79684645
131	0x3fa410e6	1.2817657
132	0x4015ceeb	2.3407543
133	0x3f8ed42c	1.11585
134	0x3fab004d	1.3359467
135	0x3f89ffee	1.0781229
136	0x3f48f2eb	0.78495663
137	0x3f981e43	1.1884235
138	0x3fbfb1fb	1.497619
139	0x3f76540b	0.9622199
140	0x3f3ddc8b	0.74164647
141	0x3fa15524	1.2604108
142	0x3f8d513d	1.1040417
143	0x3fb9cfc9	1.4516536
144	0x3f19ca5a	0.6007439
145	0x3f9116c0	1.1335068
146	0x3f430e57	0.76193756
147	0x3f85a6eb	1.0441564
148	0x3f8f35e4	1.1188321
149	0x3ff9f815	1.9528834
150	0x3fe612e3	1.7974514
151	0x3f385f35	0.72020274
152	0x3e37c2f1	0.17945458
153	0x3f155271	0.5832892
154	0x40095267	2.1456544
155	0x3f6c3e9f	0.9228305
156	0x3f67b6c8	0.9051328
157	0x3fa91c04	1.3211675
158	0x3f870ae8	1.0550203
159	0x3fbe1e20	1.4852943
160	0x3f412ea6	0.75461805
161	0x3fa185c6	1.261895
162	0x3f849f85	1.0361181
163	0x3fc51900	1.5398254
164	0x3f76fc1b	0.9647843
165	0x3fba13a6	1.4537246
166	0x3f823629	1.0172778
167	0x3fcc164e	1.5944307
168	0x4043d2b7	3.059736
169	0x3f30ae72	0.6901618
170	0x3f62178b	0.88317174
171	0x3f11e356	0.5698751
172	0x3f72f655	0.9490712
173	0x3f62d134	0.8860047
174	0x3f929188	1.1450663
175	0x3f99b666	1.2008789
176	0x3f9aa7fd	1.2082516
177	0x3f564acf	0.837079
178	0x3f4cd05b	0.80005425
179	0x3fdba124	1.7158551
180	0x3fc42d90	1.5326405
181	0x3fb4dd63	1.4130062
182	0x3f9b1188	1.2114725
183	0x3faf60f4	1.3701463
184	0x3f9f438e	1.2442491
185	0x3fa5cd7b	1.2953333
186	0x3f6bd1fb	0.9211728
187	0x3f4a7a12	0.79092515
188	0x3f64cf51	0.8937884
189	0x3f9ed903	1.2409977
190	0x3f8b0ec6	1.0863883
191	0x3f6cca8a	0.9249655
192	0x3f9db6dd	1.232143
193	0x3fa0979e	1.254627
194	0x3fa3bd91	1.2792226
195	0x3f61cecc	0.8820617
196	0x3f311398	0.6917052
197	0x3f9e5b0c	1.2371535
198	0x3f326b19	0.6969467
199	0x3f2e0a48	0.6798444

bn2.bias f4 [200]
0	0xbdf0b9b5	-0.11754171
1	0x3b883a8f	0.0041573714
2	0xbec5677d	-0.38555518
3	0x3e33fdd9	0.17577304
4	0xbdd4aa86	-0.10384087
5	0xbe566d8b	-0.20940225
6	0x3ec5b880	0.38617325
7	0x3e662cce	0.22478029
8	0x3e86f4b7	0.26358578
9	0x3e11fd4e	0.14256784
10	0x3e5737b8	0.21017349
11	0x3f198b5e	0.5997828
12	0x3f2e31c3	0.6804468
13	0x3cd4aa9c	0.02596026
14	0xbd10dbf4	-0.035366014
15	0x3e23b499	0.15986861
16	0x3ebdea0d	0.3709263
17	0xbe8fe99f	-0.28107926
18	0xbf58b7e8	-0.8465562
19	0xbe1a3715	-0.15060075
20	0x3e936905	0.2879106
21	0x3e57f5cf	0.21089862
22	0x3d7f35c0	0.06230712
23	0x3bb67ed1	0.005569317
24	0x3f50c2a5	0.81547004
25	0xbf9e81f0	-1.2383404
26	0xbecdcf6e	-0.4019732
27	0x3f62b4ab	0.8855693
28	0xbc88f21a	-0.016717006
29	0x3f221aed	0.63322335
30	0x3f200de3	0.6252119
31	0x3e960347	0.29299375
32	0x3ea8e7a6	0.32989234
33	0xbf6e951c	-0.9319627
34	0x3f5bd543	0.85872287
35	0xbe5a510d	-0.21319981
36	0xbe7827e7	-0.24233972
37	0xbf2cc690	-0.6749048
38	0xbf3e625b	-0.7436883
39	0xbefe3ae3	-0.49654302
40	0x3eebc4c1	0.4604855
41	0xbebfcb05	-0.3745958
42	0x3ed5cdc4	0.4175855
43	0xbdfa7cd7	-0.122308426
44	0xbdba9e40	-0.09112215
45	0x3f216dab	0.63057965
46	0xbeb07423	-0.34463605
47	0xbef87a53	-0.48530826
48	0xbe74b9cb	-0.23899
49	0x3eb9f574	0.36320078
50	0xbd97666a	-0.07392581
51	0x3e3f70a2	0.1869531
52	0xbbf232e6	-0.0073913215
53	0x3e11cc61	0.1423812
54	0xbb78ed0f	-0.0037983095
55	0xbf1bf332	-0.6091796
56	0x3e2daa38	0.16959465
57	0xbce52b2f	-0.027974693
58	0xbf9cc191	-1.2246572
59	0xbe3991f3	-0.18122081
60	0x3f36df66	0.7143463
61	0xbca7c4ec	-0.020479642
62	0xbf50fc0a	-0.8163458
63	0x3edfd4c4	0.43717015
64	0xbedcd970	-0.43134642
65	0x3ccb8ee1	0.024848403
66	0xbf4be44a	-0.79645216
67	0xbec356fe	-0.38152307
68	0xbe3853de	-0.18000743
69	0x3e253220	0.16132402
70	0x3f5840c0	0.844738
71	0xbf425cad	-0.7592266
72	0xbf763151	-0.96169
73	0xbec069b0	-0.37580633
74	0x3d1b3e4d	0.03790121
75	0xbe096de1	-0.13420822
76	0xbf1c1759	-0.60973126
77	0xbf1f57aa	-0.6224314
78	0xbf36f47f	-0.7146682
79	0xbe517ce7	-0.20457803
80	0xbe251511	-0.16121317
81	0xbe4ccc4e	-0.19999811
82	0x3cc0e6c0	0.02354753
83	0x3aac7c1f	0.001315955
84	0x3d6c074b	0.057624143
85	0x3e936360	0.28786755
86	0xbf3e2481	-0.7427445
87	0xbddc50d0	-0.10757601
88	0x3f0fb28d	0.5613182
89	0xbeac44af	-0.3364615
90	0x3dfb089a	0.122575
91	0x3eb5ec9a	0.35532075
92	0xbf778823	-0.96692103
93	0xbd1c527b	-0.038164597
94	0xbdf41de3	-0.11919763
95	0xbf119b19	-0.56877285
96	0xbf5d2032	-0.8637725
97	0x3d6acd42	0.057324655
98	0x3e83ce0a	0.25743133
99	0xbf3d9399	-0.7405334
100	0x3f215333	0.63017577
101	0x3d9478fe	0.0724964
102	0x3e6eb912	0.23312786
103	0xbe3c7a25	-0.1840597
104	0x3f1238da	0.57118
105	0x3f421a91	0.7582179
106	0x3ed25316	0.41079015
107	0xbf18f542	-0.59749234
108	0xbe5d6718	-0.21621358
109	0x3b5d67d2	0.0033783806
110	0xbee1015c	-0.4394635
111	0xbea24eb4	-0.3170067
112	0x3ea8d31b	0.3297356
113	0xbf4a8d31	-0.7912169
114	0x3f777e7a	0.9667736
115	0x3f2b555d	0.6692713
116	0xbddc5774	-0.10758868
117	0x3e88585b	0.2662991
118	0xbea11722	-0.3146296
119	0x3e025398	0.12727201
120	0x3e23c8bc	0.15994543
121	0xbf118645	-0.56845504
122	0x3f0fe929	0.5621515
123	0xbf56d4e2	-0.83918583
124	0x3e9a3bad	0.30123654
125	0xbf6d08ba	-0.9259144
126	0x3f031932	0.5121032
127	0x3e0b28f0	0.13589835
128	0xbbf0c586	-0.0073477654
129	0xbccebbc2	-0.025236014
130	0xbeae0bd5	-0.33993402
131	0x3ebe6c00	0.37191772
132	0x3eb52438	0.35379195
133	0xbe7cd3e0	-0.24690199
134	0xbe15ed49	-0.14641298
135	0x3f594d86	0.84883916
136	0xbee4fc84	-0.44723904
137	0x3e452f9f	0.19256447
138	0x3e8a3112	0.26990563
139	0x3e3de245	0.18543346
140	0x3f5183ef	0.8184194
141	0x3ebd3cc9	0.36960438
142	0x3e457748	0.19283783
143	0x3ebd31da	0.36952096
144	0x3f2400c4	0.6406367
145	0xbc8f8a12	-0.017521892
146	0x3f5644d7	0.8369879
147	0xbd35585a	-0.04427371
148	0xbd8568ad	-0.06514106
149	0x3d9a1290	0.07523072
150	0xbd39fb54	-0.0454057
151	0x3d95a858	0.073075
152	0x3dec07c7	0.11524921
153	0x3f093a4e	0.5360459
154	0x3f188333	0.59575194
155	0x3f097b71	0.5370398
156	0xbec451f7	-0.38343784
157	0x3ed1176a	0.40838176
158	0x3e4b7be0	0.19871473
159	0x3d28d618	0.0412198
160	0x3e0b10b7	0.13580595
161	0x3e8a2aca	0.2698577
162	0x3e920464	0.28518975
163	0x3e4f88d6	0.20267043
164	0x3f367a2b	0.71280164
165	0xbdc82819	-0.09773273
166	0xbe0aef13	-0.13567762
167	0x3e17dfe5	0.14831503
168	0x3eb2bc04	0.3490907
169	0xbe9bc850	-0.30426264
170	0x3f269c1a	0.6508194
171	0xbcf73764	-0.03017778
172	0x3e8227e3	0.25421056
173	0xbf6f7cfb	-0.9355008
174	0x3d6afb4a	0.057368554
175	0xbef7fa17	-0.4843299
176	0xbf76756b	-0.96272916
177	0x3e994812	0.29937798
178	0xbda9ab37	-0.0828461
179	0x3e1cd5e0	0.15315962
180	0xbf960b65	-1.1722227
181	0x3d9df806	0.07713322
182	0x3e6b8daa	0.2300326
183	0x3ede0612	0.43364006
184	0x3e052bfe	0.13005063
185	0xbef2a003	-0.47387704
186	0x3eadd6b1	0.3395286
187	0xbe9620ed	-0.29321995
188	0x3f82866f	1.0197276
189	0x3eaae095	0.33374467
190	0x3e39b3f0	0.18135047
191	0x3f269908	0.6507726
192	0x3d98e4e4	0.074655324
193	0xbe11f4ca	-0.14253536
194	0x3f09f89b	0.53894967
195	0xbf675866	-0.9036926
196	0x3f4cfbe5	0.8007186
197	0x3f39b7a3	0.7254583
198	0xbf433098	-0.76246023
199	0xbf2deae4	-0.6793654
