myrobot/src/SAC/saved_model/1209_3_decresing_alpha/sac_actor_1209_3_decresing_alpha_EP280.pt (torch, 47639 bytes, 8 tensors)

fc1.weight f4 [128, 4]
00000000: fd07 f3be 3e79 c7be c29f 44bf 5b69 d13c
00000010: 935d 393f 0dc3 3d3f eda1 453f 53c8 00bd
00000020: 0349 8e3f 7a5c 00bd dae7 a6bc b06e 5cb8
00000030: aaf3 dbbe 33cd 98bd 8efa bf3f b37f e73c
00000040: 9d7e 15bd 402b 18bd c505 74bf 4415 24be
00000050: 4e32 cd3e 5565 343e 1165 fabe 4b75 4b3c
00000060: 42ee fd3e 0645 22be d795 823d a1ee 243e
00000070: a5e1 593f 3fac e2bc 0ab5 5d3e 6ea7 343d
00000080: db0c 3f3f 4f0c 053f dbcf 58bf cedf 4fbd
00000090: db3d 083e 67bd 00bf 7d7e 87be 2841 143e
000000a0: 98ee 193f c87a 343d 12fb 8f3f f97f 7abc
000000b0: 4342 5c3f ebca d73d b7ef bd3e 0cd1 b9bd
000000c0: eae7 663e 7ef6 a7bc 4212 283f 90d6 9bbd
000000d0: 78b1 4dbf 8542 c7bd 7ffb 97be 14eb ae3c
000000e0: 523a 68bf 30ff e2be 2acf debe 36d5 ed3b
000000f0: 07f5 c3be 5bce b23d d0e5 03bf e693 8ebe
00000100: 41b0 42bf f472 ee3e f77a 88bf 1d1d 3fbd
00000110: befb 2bbf bc74 e03e d1ae ac3f 7f96 2c3d
00000120: 5b1d 48be 1688 203e a17a 81bf 536c 743d
00000130: 2d62 10bf 85d3 0a3f 6b3e 01bd 6726 95bd
00000140: 795b 1bbd 36a0 23bf 5dfa 3dbf 8451 463d
00000150: bc6d 8e3e 8afc 7fbe 3c25 5dbf f583 44be
00000160: bbf6 713d 5a09 01be c785 d6bf 22dc d33c
00000170: 3895 e4be 2234 f83e c98f ae3f d3e9 2a3d
00000180: 3f76 413e 7b99 283e 5378 95bf 2c1f 67bb
00000190: e852 963c 674f d43d 4ae7 89be 8a5e 04be
000001a0: 74a9 00bf 9bd1 293f 0abc 10be 8183 1ebe
000001b0: d3a1 633e cc29 bfbd 1fa3 233f 9b28 553e
000001c0: 821e 9f3f 5d0b 2d3d 148d 293f f061 fcbd
000001d0: f636 18be 25cc 1d3f ab2d 2cbf fb20 7bb9
000001e0: 5482 143f 6ade a43e 14d6 b03f 3cc5 a3bc
000001f0: 0b0a f6be 0641 bdbe 3ab1 b9bf 02fc 9b3e
00000200: 7872 873d 461c 14bf 4e70 1dbf 4f86 dc3c
00000210: 3c56 30bf 3cae 83be d838 a8bf 9740 1c3d
00000220: b598 57be e185 de3d f155 d2be 6543 583e
00000230: ee81 46bf 6486 1ebe c20e 7dbd bae9 dd3b
00000240: 6e8c 75bf 74ce 323e ea2a 83be a610 2ebc
00000250: c3ca 293c 7f2e c53d b21e e2bf 02d4 863d
00000260: 7960 f3bc bcf3 053e 5d80 34be 8f55 7f3b
00000270: 0b20 273f e0fa 9f3e 9459 c4be 35dd 2abb
00000280: 0950 4bbb 3562 0f3f acfa 173f 291f 2cbc
00000290: 951d 5f3f 0d9b fd3e c1a7 cdbf ebe2 163c
000002a0: 93a9 9c3f 09f1 4f3e e984 093d c031 c7be
000002b0: 0d4b d9be d040 febe 3420 01c0 713b 673c
000002c0: 351c 183e 2575 8fbd 3c88 24bf 8c79 33be
000002d0: 7435 b63e ddba 193f 15fc b7bd 8db3 0abd
000002e0: 870b a43e ab68 983d 9dbd a6bf e04a 033c
000002f0: 4b3a 283f a634 89be 7cd9 403f 06ac 203d
00000300: 4b9c 05be 77db 51be 954d 04bf d785 8e3d
00000310: 51ac 09bf 3213 b13e 3707 9cbf 9054 11bd
00000320: 384a 813f 5840 3a3e d0e7 9ebf 1647 963c
00000330: be1b dcbe e65d 9f3e 09c1 cd3e 47bc 3c3e
00000340: fc1f c5be 0277 133f babe 57be d15b fbbc
00000350: ef11 c8be d2a6 f9bc e245 32bd 4e21 a8bd
00000360: ee4f b4bf 6eb5 213d f1b0 4bbc 8949 993d
00000370: 9f4b eabe 8de8 8ebe ae78 d53e eafd 57be
00000380: 421c 8a3f d16e 973e b760 37bf 5524 0c3b
00000390: 1439 1e3f b3f4 bbbe 0d2b 77bf d15a e43d
000003a0: b54c d9be 9835 233f 2a22 d23e 5571 08be
000003b0: 0fed 9ebe 46f5 883e 51f5 463f d304 703c
000003c0: a7b1 44bf 848f 64be c525 39bf bfb7 b5bd
000003d0: c483 e53e e67a e4bc efc3 123f fe57 e33d
000003e0: aad5 3cbf e3d8 60be 129a 50bf 0ad4 1f3d
000003f0: 8cd9 c7be 350f 073e 9180 99be 7ebd 46be
-0.47467032 -0.38959688 -0.7680627 0.025562933 0.7240841 0.7412575 0.77200204 -0.031441044
1.1116031 -0.031338193 -0.020374227 -5.2555173e-05 -0.42959338 -0.07461014 1.4998338 0.028259134
-0.0364977 -0.03715062 -0.95321304 -0.16023737 0.40077442 0.1761678 -0.48905233 0.012418102
0.4959584 -0.15846643 0.06376236 0.16106655 0.8510993 -0.027670024 0.21651092 0.044104986
0.7462899 0.51971906 -0.8469216 -0.050750546 0.13304846 -0.50289005 -0.2646369 0.1447798
0.6012969 0.044062406 1.1248496 -0.0152893 0.8603861 0.105367504 0.3709695 -0.09073076
0.22549406 -0.020503279 0.6565286 -0.07609284 -0.8034892 -0.097294845 -0.29684064 0.021352328
-0.9071399 -0.44335318 -0.4351743 0.0072580827 -0.3827288 0.087307654 -0.5152254 -0.27847213
-0.7605019 0.46572077 -1.0662526 -0.046658624 -0.67181003 0.4383906 1.349085 0.04213571
-0.19542448 0.15676913 -1.0115548 0.05967362 -0.56399804 0.54229003 -0.031553667 -0.07282715
-0.037929032 -0.6391634 -0.7421015 0.048417583 0.27818096 -0.2499868 -0.8638494 -0.19190963
0.05907319 -0.12601224 -1.6759576 0.025861803 -0.44645095 0.48477274 1.363763 0.0417269
0.18892764 0.16464798 -1.1677345 -0.0035266383 0.01835008 0.10366707 -0.26934272 -0.12926689
-0.50258565 0.6633546 -0.14134231 -0.15479852 0.222297 -0.09334144 0.6392078 0.20816271
1.2431185 0.042247165 0.66230893 -0.123233676 -0.14864716 0.61639625 -0.67257184 -0.00023949512
0.58011365 0.32200938 1.3815331 -0.01999151 -0.48054537 -0.3696367 -1.450721 0.30465704
0.0661363 -0.5785564 -0.6149949 0.026919512 -0.68881583 -0.25718868 -1.3142347 0.038147535
-0.21054347 0.10865379 -0.41081193 0.21119459 -0.77542007 -0.15480953 -0.061781652 0.006772247
-0.95917404 0.17461568 -0.25618678 -0.0106240865 0.010363284 0.09628009 -1.7665617 0.06583406
-0.029709088 0.13081259 -0.17627092 0.003896091 0.6528327 0.3124609 -0.38349593 -0.002607179
-0.0031023046 0.5600923 0.5936687 -0.010505476 0.87154514 0.49532357 -1.606682 0.009209375
1.223925 0.20306791 0.03357402 -0.38905144 -0.42440072 -0.49658823 -2.0175905 0.014113293
0.1485451 -0.070047654 -0.6427038 -0.17526835 0.35587656 0.60050756 -0.08983628 -0.03386264
0.32040045 0.07441839 -1.3026615 0.008013457 0.6571395 -0.2679798 0.75331855 0.039226554
-0.13047902 -0.20493875 -0.5168088 0.06959122 -0.5377856 0.34584957 -1.2189702 -0.035481036
1.0100775 0.18188608 -1.2414494 0.018344443 -0.42989916 0.31126326 0.40186337 0.18431197
-0.38500965 0.57603467 -0.2106885 -0.03068343 -0.39076182 -0.030475054 -0.043523677 -0.08209477
-1.4086893 0.039479665 -0.012432323 0.07484729 -0.4576082 -0.27911797 0.41693634 -0.21092954
1.0789874 0.29576734 -0.7163195 0.002138396 0.61805844 -0.36710128 -0.96550065 0.11150134
-0.42441335 0.6375365 0.4104169 -0.13324483 -0.31040236 0.2674963 0.77718073 0.014649588
-0.76833576 -0.22320372 -0.72323257 -0.088729374 0.44827092 -0.027890634 0.5733022 0.111007676
-0.73763525 -0.21957736 -0.8148509 0.039020576 -0.39033163 0.13189395 -0.299809 -0.19408223

fc1.bias f4 [128]
00000000: 56b1 7cbe 9f78 9c3e cd27 5c3f 8da2 663f
00000010: 3c35 b3bf 35ee 38bf 1704 e4bf 67d3 ab3e
00000020: b074 59bf ee43 04c0 5f4a 8d3f b192 51bf
00000030: 9d23 993f 7ca0 423f 01d8 363f 5fa1 30bf
00000040: f5a2 3d3e 7bad 5dbf be9c ea3e be82 b63e
00000050: 5ef3 773e 353b 4c3f 275d 78bf e2f6 50bf
00000060: 51f1 b13f 3d01 e3bf abfb ad3f aab2 f03f
00000070: bd6d 3cbf b982 8fbf d9bb a23f 67bd c3bf
00000080: 16c0 77bf be21 84bf c5ad d23f f74a f03f
00000090: 840a 793f 4afd f0bf cfef 33bf f921 783f
000000a0: 0057 47bf 3e3b 8ebe 5fc9 d43e 5fc4 05be
000000b0: e6ce 783f 9b76 2b3f 6d77 a1be 373f e2be
000000c0: 2353 e4bf 9121 1c3e 996c e6bd 8449 04c0
000000d0: b038 0f3f a154 22bf 5644 13c0 b389 8e3e
000000e0: 2f5c 443f 399c 863f 2cfe 95be 168a 513f
000000f0: 78fc cebf ed71 3c3e 9d9f af3f 8c8f 81be
00000100: 2f26 9ebd 8be3 5c3f 8e58 a53f d46e a63f
00000110: f25c 8cbf 413b e6bd b793 fbbf 03cd 9e3f
00000120: b635 8c3f 1e1b f53f b197 d0bf 591a 00c0
00000130: fb49 933a 26b6 b93f 0fc1 063d 574d bd3f
00000140: 6497 81bf ee8c 09bf 8f68 57bf b9d5 d9bf
00000150: bdc2 08bf 915a 05bf 9311 243f fc88 443f
00000160: 51d8 fe3e 53f1 74bf d073 19bf 3387 623d
00000170: cc9b b9bf bb0c b1bf 6167 67bf 0069 afbf
00000180: b931 d33f 6e5e 963f b090 33bf ee28 9abf
00000190: 1955 5b3e 4469 abbf b9f4 8dbf fa9d 52be
000001a0: 2aef 26bf 4616 5e3d f2e7 533f 3864 49bf
000001b0: 9835 36bf 441c 373f 0004 c03f a5d9 0140
000001c0: 90f8 4f3f eac5 b83f b49a 853e 795b a9be
000001d0: b3e6 e33c 6df3 77be ddaf a1bd 0b79 73bf
000001e0: 1446 bd3f ef2f 433e 7f41 3fbe a113 e2bf
000001f0: c968 d9bf 7eb0 99bf 1b52 2bbe 257c 873f
-0.24677023 0.30560777 0.8599823 0.9009178 -1.4000621 -0.72238475 -1.7813748 0.33559725
-0.84943676 -2.066646 1.1038321 -0.8186446 1.1963993 0.7602613 0.71423346 -0.6899623
0.18519194 -0.86592835 0.4582271 0.35646623 0.24213931 0.7977784 -0.9701714 -0.81626713
1.3901769 -1.7734753 1.3592428 1.8804524 -0.7360495 -1.1211768 1.2713577 -1.5292176
-0.96777475 -1.0322797 1.645928 1.8772877 0.9728167 -1.8827298 -0.70287794 0.9692684
-0.77867126 -0.27779573 0.41559884 -0.13063191 0.971907 0.6697785 -0.31536427 -0.44188854
-1.7837871 0.1524718 -0.11251182 -2.066987 0.55945873 -0.63410383 -2.301046 0.2783943
0.7670316 1.0516425 -0.2929548 0.8185133 -1.6170797 0.18402834 1.3720585 -0.2530483
-0.07722127 0.86284703 1.291765 1.3002572 -1.0965865 -0.112417705 -1.9654454 1.2406315
1.0953891 1.91489 -1.6296293 -2.0016081 0.0011237258 1.4508712 0.03289896 1.4789227
-1.0124326 -0.53730667 -0.8414392 -1.7018348 -0.5342215 -0.5209132 0.64089316 0.7677152
0.4977441 -0.9568073 -0.5994234 0.055304717 -1.450067 -1.383201 -0.9039212 -1.3703918
1.6499549 1.1747568 -0.7014265 -1.2043741 0.21419181 -1.33915 -1.1090308 -0.20568076
-0.65208685 0.05422046 0.82775795 -0.78668547 -0.7117553 0.71527505 1.5001221 2.028909
0.8123865 1.4435399 0.26094592 -0.330776 0.027819967 -0.24213953 -0.078948714 -0.9510657
1.4787011 0.19061254 -0.18677329 -1.766224 -1.6985103 -1.2006986 -0.1673054 1.0584761

fc2.weight f4 [64, 128]
00000000: 8c93 3abd 058d b33d 13d0 873e 1e80 72be
00000010: ead0 ea3d 156a 37be c192 7dbd 7fdb d6bd
00000020: 2929 083e adb7 cebd c880 953d a4ff a8bd
00000030: a73c 473e 4665 213e 75d5 cf3d ee92 c63d
00000040: ce7f b43d 8938 3ebe 61e6 8dbd 7d68 69be
00000050: 2b22 38be a8bc 2a3e fa20 00be 0e94 20bd
00000060: e788 0dbe 4181 963d 6e2c 2fbe dcb4 6dbd
00000070: dbb0 0c3d 0db8 a53d 7725 153e 5342 b3bd
00000080: 5696 d13c eda2 f83d 365a f9bd 8ef2 81bf
00000090: 0929 01bf 04d8 0dbd a586 21bd 732a 973e
000000a0: ee5e c2bc 181f 063e 7744 61bd 1e51 4e3d
000000b0: c135 d3bd abb1 8a3d 8620 3fbd 8690 c13e
000000c0: b11d 01be c7a4 9f3e 7616 12be cc61 bebd
000000d0: bd9b 703d 5d2e 913d ba59 923d d042 673e
000000e0: 211a 463e c021 25be c547 30be 6668 5c3e
000000f0: 76b3 293e 24f5 60be b1f4 fcbd 9e6f 83bd
00000100: 3a09 1c3d 8485 d83d b0aa 3f3d 6cf8 54be
00000110: c590 efbd 1a5d 0e3f 2435 cdbc 138f a63d
00000120: 23a0 21be 17e1 563d 54f6 6e3d 1e2a 04bd
00000130: ad1a a73e 0ad2 6abe 1763 db3c 8bc9 debc
00000140: 3e01 d8bd 8328 953a 0fe5 d1bc 2732 e3bc
00000150: b33c 27be 0e0a 123f af3d 86bd a1c9 49be
00000160: e606 1ebc f24e 0f3e b94e d83b faa7 bdbe
00000170: 33e5 1cbe a603 cfbd 1c0d e9bc 24eb b8bd
00000180: f581 7bbe 0aec 903e 73f6 483e 6ccf e2bd
00000190: 8d32 833d fce6 bcbd 3a24 733e 70ff 17be
000001a0: a10e 363f 5220 fb3d 59f0 893d f20c 08be
000001b0: 060d 103e b539 c63e 2586 dabd 7d3b a3bd
000001c0: 06bc aabd ad11 20bf 09ee abbe 95d0 cf3d
000001d0: 5f02 3abd ad97 383e c1ce 9dbd 3d77 a5bd
000001e0: f83e 29be 8d05 c83d 9903 3cbe 13c8 3cbe
000001f0: 6f13 36be e99b 7bbd 6414 55bd 2504 7dbe
00000200: c8f7 9abc 4018 823d bc47 8cbd 39ac 313d
00000210: ba86 51bc 2d83 7c3d d7f9 b73d 012a 553d
00000220: 1a40 173f a1c2 753d 22e2 febd 7ea2 2bbe
00000230: f1ef 7ebe b318 74bd d2d2 053d f6ae 9c3d
00000240: 33be 9cbe 890d a33e 3829 0f3d d99f 41bd
00000250: 3141 db3c e046 59bd 7ebe a6bb 8332 473e
00000260: a447 1bbf 943c 12bd a02d f33d 8709 3e3d
00000270: 187a 5bbe c503 d03d 534c 1b3e 3c24 c83c
00000280: 286a 9d3c aac2 833d 5fad 023d b461 ddbe
00000290: e095 dcbd 9a50 b1bc 6749 9d3d 37fc a0bd
000002a0: 443c 7bbe 5ba1 65bd 79e8 73bd 45cd 3dbd
000002b0: 3403 f53c 45da 633e 50ac 073d c01a ccbe
000002c0: d407 23bd cf5d 87bd 12c5 053c 80bb 04bd
000002d0: 917a 6dbd 9924 a23d 98ab 243e ea85 31be
000002e0: eadc 13be af0e babd 08af 8dbe 328e e1bd
000002f0: 1ba3 9b3c cecc a63d 1259 f1bd d897 51bd
00000300: 3b30 d9bd 0c03 133d 01c5 cb3d 95d9 41bc
00000310: 8d0a 9dbd 8979 933d 8a06 813d 2afc 94bd
00000320: f25b 82bd bc6e 08bf 4967 d53e 2892 db3d
00000330: 6d3e 84bc af43 b2be e49c b33d 2616 5fbd
00000340: bcee acbd c9c8 383d ceea c43d fc8b 36bc
00000350: ac4c d6bc 4dbe 843e 80ec ccbd ec21 7b3d
00000360: 3c63 54bd d52d cd3e 6733 b8bd af4c 083d
00000370: 647e dd3c 1a74 a33d f35b 813d 7199 f3bc
00000380: 2bcc e0bd 22e7 6abc 7666 7b3e 2487 7f3e
00000390: af74 293e 23e2 323e 4e79 ad3e 5ade 823d
000003a0: 24c3 5d3e 5038 8a3d 4092 5c3d 793b b13d
000003b0: 3688 7abb 3b0b cbbe 12b5 fbbb 57ce abbe
000003c0: f041 1fbd c5cf d4be ed52 be3b a340 b33d
000003d0: 0e34 18be 0b95 853d f5c5 0ebb f8a8 ca3d
000003e0: c6d4 c7bd 6e2a aabd 2e0b 0c3e e71a 9fbc
000003f0: 3e33 143c f16a a33d e751 a0bd 5ff5 04bd
-0.045550868 0.08767132 0.26525936 -0.23681685 0.114656284 -0.17911561 -0.061907534 -0.10491084
0.13296951 -0.10093627 0.07299954 -0.082518846 0.19456731 0.15761289 0.101481356 0.09695993
0.08813439 -0.18576254 -0.06928707 -0.22793765 -0.17981784 0.16673529 -0.1251258 -0.039203696
-0.13821755 0.07348872 -0.17106792 -0.05803381 0.03434835 0.080917455 0.14565073 -0.08752885
0.025584381 0.121404506 -0.121754095 -1.0152147 -0.5045324 -0.034629837 -0.039435048 0.29524574
-0.023726907 0.13097799 -0.054996934 0.050370328 -0.10312987 0.06772169 -0.046661876 0.37805575
-0.12608983 0.31180403 -0.1426638 -0.09295997 0.058742274 0.07088921 0.0714602 0.2258408
0.19345905 -0.16126156 -0.17214878 0.215242 0.16572365 -0.21968514 -0.12351359 -0.06417774
0.038094737 0.10572341 0.04679364 -0.2079789 -0.116975345 0.5561081 -0.025049753 0.08132758
-0.15783744 0.052460756 0.058340386 -0.03226673 0.3263754 -0.22931686 0.026780648 -0.027195713
-0.10547112 0.0011379871 -0.025621919 -0.027733875 -0.16331749 0.5704659 -0.06554734 -0.19705822
-0.009645199 0.13994959 0.0066011813 -0.37042218 -0.15321808 -0.10108118 -0.028448634 -0.090292245
-0.24561293 0.28305084 0.19625263 -0.11074719 0.06406126 -0.09223744 0.23744288 -0.14843535
0.7111607 0.12262024 0.06735296 -0.13286188 0.14067468 0.38715902 -0.10670117 -0.07970331
-0.08336644 -0.6252697 -0.33580044 0.10147206 -0.045412418 0.1802661 -0.07705451 -0.080793835
-0.16527927 0.09766684 -0.18360747 -0.18435697 -0.17780851 -0.061427984 -0.0520214 -0.24708612
-0.01891698 0.063522816 -0.0684962 0.043377135 -0.012788469 0.061648536 0.089832 0.05204201
0.59082186 0.060000066 -0.12445475 -0.16761205 -0.24896218 -0.059593868 0.032671757 0.07650559
-0.3061386 0.31846264 0.03495142 -0.047271583 0.026764484 -0.053046107 -0.0050886264 0.19452862
-0.6065619 -0.035702303 0.11873937 0.046395805 -0.21433294 0.10156969 0.15165834 0.02443134
0.019215658 0.064336136 0.03190362 -0.43238604 -0.10770774 -0.02164488 0.07680016 -0.07860606
-0.24534708 -0.056062084 -0.059547875 -0.04633834 0.029908754 0.22251232 0.033123314 -0.3986416
-0.039802387 -0.066096894 0.008164661 -0.032405376 -0.057978217 0.07917137 0.16081083 -0.1733624
-0.14439741 -0.09084832 -0.276726 -0.1101345 0.018998673 0.08144532 -0.11784567 -0.0511702
-0.10604902 0.035891578 0.09949685 -0.011831661 -0.07668028 0.07200915 0.06300075 -0.07274659
-0.063651934 -0.5329397 0.41680363 0.107212365 -0.016143048 -0.34817263 0.08770159 -0.05446448
-0.084439725 0.04511336 0.09615098 -0.011141773 -0.026159607 0.25926438 -0.10006046 0.061311647
-0.05185245 0.4007403 -0.08994179 0.033276256 0.027037807 0.07981129 0.06316366 -0.029736253
-0.10976442 -0.014337333 0.24550804 0.24953896 0.16548418 0.17469077 0.3388161 0.063900664
0.21656471 0.06749022 0.053850412 0.08653922 -0.003822816 -0.39657006 -0.0076814974 -0.33555862
-0.038881242 -0.41564766 0.0058082254 0.08752563 -0.14863607 0.06522568 -0.0021785472 0.098955095
-0.0975738 -0.08308874 0.1367614 -0.019422008 0.00904542 0.07979382 -0.07828122 -0.032460567

fc2.bias f4 [64]
00000000: 569d 30bf 1353 36bf 9b9f 25bf efb5 833f
00000010: 0759 f2be 0dba c83e f7ef 373e c073 113f
00000020: 4253 b7be 12b6 c03d 5096 3dbf 5ad7 103f
00000030: 3c87 93bf 75c9 333f 4288 993d 0b6b a3be
00000040: 6cf1 3dbe 0fbc 0b3e 57f2 4b3e 505f 8e3e
00000050: f5e9 2c3d 03c4 743f 788b b0bf c7a9 333f
00000060: 6225 a63f d863 d43e 440c 12bf 5410 5e3f
00000070: e162 d13e dfda 1dbf 0a23 d23e 0a73 9abd
00000080: 862e 6cbe 6d4a fdbe 61da 16bf 8b82 0cbd
00000090: b7bf 703f b955 3dbf 5f30 043f 5805 3abd
000000a0: 7948 66bb 9f81 ec3e a776 593f 8e46 4f3f
000000b0: f1ce 8abe 2652 68bf b54a 2cbf daac a13e
000000c0: 54d4 983e f446 93bf 6318 2ebf 55ef 08bf
000000d0: ff26 043f e25b 453f d474 333f 307f 9abe
000000e0: d3a7 863f 28f2 823e 1b8d 04be dcfc 96bf
000000f0: c3dd 003f ba3e ab3e 141e a0be 6024 2dbf
-0.68990076 -0.7122051 -0.64696664 1.0289897 -0.47333547 0.39204445 0.17962633 0.56817245
-0.35805708 0.09409727 -0.74057484 0.565786 -1.1525645 0.70229274 0.07496692 -0.31917605
-0.18549126 0.13645957 0.19916664 0.27807093 0.042215306 0.9561159 -1.3792562 0.70180935
1.2980158 0.41482425 -0.57049966 0.86743665 0.4089575 -0.61662096 0.41042358 -0.07541473
-0.23064622 -0.49470845 -0.5892697 -0.034304183 0.94042534 -0.7395893 0.5163631 -0.045415252
-0.0035138412 0.46192643 0.84946674 0.8096703 -0.2711101 -0.9075035 -0.67301494 0.31577188
0.29849494 -1.1506028 -0.6800596 -0.5349019 0.51622003 0.7709333 0.7010014 -0.3017516
1.0519966 0.25575376 -0.12944452 -1.1795917 0.5033838 0.33446294 -0.31272948 -0.6763363

fc3.weight f4 [32, 64]
00000000: f00c 61be e8c4 5abe 86b1 9d3e 5955 04bd
00000010: b8bf 84be 3740 82be 5e54 483d 1c18 54be
00000020: 77d0 25be c7e3 c7be 8d61 3a3d 024a 68be
00000030: 89d6 c8bd faab 99be ca82 27bd 494a debd
00000040: a5e0 c0bc a8a4 26be 70be 0a3e bfbb 47be
00000050: fda9 c6be aac1 02bf f151 92bd 0fcc 98be
00000060: f6c4 283e cbd0 c3bd 2c82 65be 1d9f 143d
00000070: 3767 0ebe 7a86 49bd 940c 72bc 4107 2d3e
00000080: 9f69 efbd 8390 57be 0215 47be f61a 843b
00000090: baca a3bd 9c47 dc3d 51fc 453e 3950 563e
000000a0: 03e3 1e3c 2ccc 97bd 40e4 fb3d cbbe 423e
000000b0: 5b3e cebd c1c4 61be 91b6 5fbe 2767 dc3b
000000c0: 1b67 9cbe 7336 cd3d 4b33 993e 77a9 ccbd
000000d0: 9038 123e ade7 49bd 6119 243c ccb8 92bc
000000e0: aeaf 833e 747e 28be 729c c9bd 1261 9d3c
000000f0: ef43 f73d 8826 afbd a552 6abb 3814 80be
00000100: a897 5d3e 1614 1cbe 0ea6 1cbd add5 903e
00000110: 8136 3f3e e45e 713e 4d4b e738 dd8c c53c
00000120: 60ac ec3e 8897 8d3d a7a2 fdbd 9ae4 6b3a
00000130: 6236 06bf 356c dc3b 624b 07bc fabb cabe
00000140: cf52 0dbe 3d8e 68be 470c febc e7ee 2b3d
00000150: 5578 843c ce05 4a3d c265 a93e 3214 013d
00000160: c44e 96bd 0d55 a63c 553f cd3d 374f 94bd
00000170: 4ddf 133e d63b 04be f3ad 463e 911a 2ebd
00000180: fcf6 a83e c40c f43a 6b5c bcbe 899a 923e
00000190: fe75 a23e 015f 45bc 3d0b b73e f8fb 0e3b
000001a0: 5f3d 24be 9165 b73e a662 063f 0afa ce3e
000001b0: c63b 83be f84f 903d 9d44 c03e 02be 94bd
000001c0: cbf6 763e 0fbd 5dbf ca5f 04be 3622 9a3c
000001d0: 7488 d53e b210 483e f9f6 f13a 0315 3dbe
000001e0: 1dab f43d 1028 1a3e 5861 7c3e 8575 97be
000001f0: 5a8f 563e e04f 1bbd 064b 033c dbf7 973e
00000200: cb8d 433d 86ec 50bc ae94 d1bd f607 56be
00000210: 46cf 06bd 69b1 ecbe e355 b53c bbc4 413e
00000220: 65fc 54be be0d 5e3e 939d 203e dbcf 1bbc
00000230: 2e37 cc3c 0882 2dbd 5298 41bf d9a7 08be
00000240: a9bd a13d cea3 7dbe 2572 e3bd 0f9e 02bf
00000250: cd36 5cbe 4e9e bdbd 737e f43a 8f69 fcbc
00000260: c92e afbd 9b0d 24be 0836 863e 9aab 82be
00000270: 8307 9bbe 0870 683d c70a 94be 2902 213e
00000280: c0dc 56bd 7f2a e1bd 2f09 763c cb85 e4bd
00000290: ab41 60bd cfd4 6c3e 7028 32bd 25e6 46bd
000002a0: 0be6 37be 097f 05bc 0ab6 bbbe 7aef e43d
000002b0: bd21 99bd 83ac 1abe 6678 d3bd e4bb 83be
000002c0: d057 2cbd 5046 d13d b0b4 3e3e 37ea d8bb
000002d0: a374 1b3d 1628 7ebe afa2 fbbd d570 e33d
000002e0: 6758 263e 85b9 30be 6603 bfbd 94eb 4ebd
000002f0: 7be3 1abe 7449 b0bd 28e5 73bd b0ac 65bd
00000300: e0c1 03bd 7b25 323d b6ff ad3e 9bb0 f8be
00000310: 21c9 04be 9a04 fb3d 8534 d4bd d6d0 4dbe
00000320: 368e 7b3d 5916 dfbc 627a 673f 7882 0c3e
00000330: c72d 843e 4eb7 46be 698b a8bd f962 bc3d
00000340: 57d5 2f3e 0a29 1fbe 821a 083d 2386 c5bd
00000350: a914 80be 351b d9be 934d c73d d1ba 81be
00000360: 84a3 bebe 94be 57bd cf26 773d 0a01 d3bb
00000370: d4a1 0c3e bbd4 ca3e 0ac9 86bd e806 ea3e
00000380: ed5c bf3c 4e8d 0e3b 9889 febc fa47 0f3e
00000390: d0ae 9bbe d53a 323f f533 7d3e 1544 933e
000003a0: 44cc 403e 90b3 9e3b f8bf 3b3e d959 7d3d
000003b0: 52e2 81bd 4d8d 013e 1603 bb3d 693f afbd
000003c0: 8999 17bc aa98 e33d bd32 4ebd 88cf 933d
000003d0: 7cb6 2c3e b720 b4be 87a6 b7bc 4282 dd3e
000003e0: d9cb c0bd 3b7b 6b3d 06a4 913c d675 b0bc
000003f0: cbb7 88bd b8cc 723d 2567 d33d 0d51 6a3c
-0.21977592 -0.21364176 0.30799502 -0.032307956 -0.2592752 -0.25439617 0.048908584 -0.20712322
-0.16192804 -0.39040968 0.045503188 -0.22684482 -0.09806544 -0.3001402 -0.040896215 -0.108540125
-0.023544619 -0.16273749 0.13549209 -0.19505213 -0.38801566 -0.5107676 -0.07144535 -0.29843184
0.16481385 -0.095613085 -0.22412938 0.036284555 -0.13906561 -0.049200512 -0.014773507 0.16897298
-0.116900675 -0.2105122 -0.19441608 0.0040315343 -0.079976514 0.10755846 0.19334532 0.2092904
0.0096976785 -0.074119896 0.122993946 0.19018094 -0.10070487 -0.22047712 -0.21846987 0.006726164
-0.30547413 0.10020151 0.29921946 -0.0999326 0.1427939 -0.04929321 0.010015816 -0.017910384
0.2571997 -0.16454488 -0.09844293 0.019211326 0.12073504 -0.08552271 -0.0035754826 -0.25015426
0.21639884 -0.15242037 -0.0382443 0.28288022 0.18673135 0.23571354 0.00011028964 0.02411502
0.46225262 0.06913668 -0.12384539 0.0008998603 -0.5242673 0.0067267665 -0.008257719 -0.3959654
-0.1380112 -0.2271051 -0.031011714 0.041975882 0.01617066 0.049321942 0.33085448 0.0315134
-0.07339242 0.020304227 0.10021845 -0.072416715 0.14440651 -0.1291345 0.19402294 -0.042505804
0.33000934 0.0018619527 -0.3678926 0.28633526 0.31730646 -0.0120465765 0.35750762 0.0021817666
-0.16039036 0.35819677 0.52494276 0.4042514 -0.2563154 0.07046503 0.37552348 -0.072628036
0.24117582 -0.86616606 -0.12927166 0.018815141 0.41705668 0.19537619 0.0018460444 -0.18465047
0.119467 0.15054345 0.24646509 -0.29581848 0.20953122 -0.03791797 0.008013492 0.29681286
0.047742646 -0.012751704 -0.102334365 -0.20901474 -0.032912515 -0.46229103 0.02213568 0.18922703
-0.20799406 0.2168493 0.1568511 -0.009510006 0.024928655 -0.042360336 -0.7562305 -0.13345279
0.07897503 -0.24769518 -0.11105756 -0.5102243 -0.2150528 -0.0925871 0.0018653407 -0.030812053
-0.085538454 -0.16020815 0.26213098 -0.25521547 -0.30279168 0.056747466 -0.28914472 0.1572348
-0.052456617 -0.109944336 0.015016838 -0.111583315 -0.054750126 0.23128055 -0.043495595 -0.048559327
-0.17958848 -0.008147963 -0.36662322 0.11178489 -0.07477138 -0.1510487 -0.103256986 -0.25729287
-0.042075932 0.10218489 0.18623614 -0.0066197175 0.03795303 -0.24819979 -0.12286889 0.111055054
0.1624466 -0.1725827 -0.0932682 -0.050517634 -0.1512584 -0.0860776 -0.059544712 -0.05607289
-0.032167315 0.043492775 0.33984154 -0.4857224 -0.1296735 0.12256737 -0.1036158 -0.20099196
0.06141492 -0.027232336 0.90421116 0.13721645 0.25816175 -0.19405863 -0.082297154 0.09198565
0.17171226 -0.15542999 0.033228405 -0.09644725 -0.25015762 -0.4240357 0.09731593 -0.25337842
-0.37234128 -0.052671984 0.060339745 -0.006439333 0.13733608 0.39615425 -0.06581314 0.45708394
0.02335974 0.0021751705 -0.03107147 0.139923 -0.3040681 0.6962102 0.24726851 0.2876288
0.18827921 0.004843183 0.18334949 0.061853264 -0.06341995 0.12651558 0.09131448 -0.085570164
-0.009252914 0.11113103 -0.050341357 0.07217318 0.16866487 -0.3518121 -0.022418274 0.4326344
-0.09413881 0.05749057 0.017778408 -0.021540564 -0.06675681 0.059277266 0.10322408 0.014301551

fc3.bias f4 [32]
00000000: b2fa 143e 4f3b c83e 16df eabd 2bb6 74bf
00000010: 6134 cd3e ca43 33be a862 59b8 18e9 0abf
00000020: 1e4a 8d3e d053 90bb df1b e5be f8c8 d2bd
00000030: 3f63 8ebe 7a4f 3f3f 9fda 61bd 91ba ce3e
00000040: 72cb 8b3e c6ea 12be 7ee3 3cbc be4b c7be
00000050: 5567 10be 4c09 5f3f 0aa1 a73e 2e4d 97be
00000060: 26af bf3e 6cb9 5b3f dcc2 453f 4f0a 4b3e
00000070: d4da 143d 02ec 7b3e a9b8 e3be 237c c83c
0.14548758 0.3910775 -0.114683315 -0.95590466 0.40079024 -0.17506328 -5.1828712e-05 -0.5426192
0.2759561 -0.0044045225 -0.44747826 -0.10292238 -0.27810094 0.74730647 -0.055140134 0.40376714
0.27303654 -0.14347371 -0.011528848 -0.38924974 -0.14101918 0.8712356 0.3274005 -0.2955107
0.37438315 0.85829806 0.77250457 0.19828151 0.036341503 0.24601749 -0.44476822 0.024473256

fc_mu.weight f4 [1, 32]
00000000: 2ce2 b73e 96ae 043f c4ef 3d3e 74f9 5d3f
00000010: f8ec 60bd 3514 a4be b4ae 0abf 6082 183f
00000020: cd30 b13d 5094 a9be cad1 2a3f a11b 99bd
00000030: 866c 0bbf ab6f 7d3f 967e a33e 2cf2 883f
00000040: 825c 61bf 48ec 77be ad18 4ebf d515 5ebf
00000050: 7826 f0be a63f 583f f6d1 023f ab4b 33bf
00000060: 3a15 fe3e 8c0a 1b3f afc6 41bf 92cc a3be
00000070: 856e 063f 6481 1ebf 6bae dd3e cf1c 21bf
0.35914743 0.51828897 0.18548495 0.8670876 -0.05491349 -0.32046667 -0.54172826 0.59573936
0.08651886 -0.33120966 0.6672636 -0.07475973 -0.5446247 0.98998517 0.31932515 1.0698905
-0.8803178 -0.24211228 -0.805064 -0.86752063 -0.4690435 0.8447212 0.51101625 -0.70037335
0.4962557 0.6056297 -0.7569379 -0.31992012 0.5251239 -0.61916184 0.43297133 -0.62934583

fc_std.weight f4 [1, 32]
00000000: 3d40 07be e869 473c e3ad 9b3d 30da e0bd
00000010: b734 44be 4a1f 753d ed70 993d e92b 813d
00000020: 8044 8d3d 8a75 8b3c e94f e7bd bcb3 f03d
00000030: 66b8 473b 3e7b 673d 3c06 65bd cb5f ba3d
00000040: dc82 f4bd fa4a 56bd 0a6a 26bd c2dd e43e
00000050: 16f1 733d 302f 053e 2daf 803c 573e 46bc
00000060: a8cc 8d3d a6e7 d43d 2298 bd3d 1290 91bc
00000070: 9151 f43d 6795 cebd de0a 3f3d 6240 ee3d
-0.13208099 0.012171246 0.07601526 -0.10979116 -0.19160734 0.059844293 0.07492242 0.06307203
0.06897831 0.01702382 -0.112945385 0.117530316 0.00304749 0.056514017 -0.05591415 0.09100302
-0.11939022 -0.052317597 -0.04062847 0.44700438 0.05955609 0.13006282 0.01570853 -0.012099824
0.06923801 0.10395746 0.09257533 -0.017768893 0.1192962 -0.1008709 0.046641223 0.11633374
