myrobot/src/SAC/saved_model/1216_2_actions_timereward/sac_actor_1216_2_actions_timereward_EP258.pt (torch, 47894 bytes, 10 tensors)

fc1.weight f4 [128, 4]
00000000: 79f2 83bf 4f98 fcbc 45b4 14bf 409f eb3c
00000010: da92 d1bc 33d9 f43e 3279 ccbf cae8 4a3b
00000020: 22aa 1ebf 1b4e 343f 39f7 2d3e 6d75 0ebc
00000030: 83f3 333f ba63 7f3e 07d7 19bf fa8f 173a
00000040: 5c65 123f a37c 183e 4ad2 cdbf 5e1b 8e3c
00000050: bc25 f4be 5397 c6be 3a2a d8bf b5f6 093d
00000060: 4d28 873f b5fd cf3e 6778 993e 3894 04bd
00000070: 749b c2bd 3a0f 4d3e 67d3 94be 1baf e9bb
00000080: 0485 50bf 2b41 bdbd a3e7 d8bf 7154 193b
00000090: 0087 79bf 8381 08bd ae42 dbbe df39 183c
000000a0: c112 39be 4705 b63e c7fd 3a3f ff77 a6bc
000000b0: 9e96 3cbe e70a c9bf 86fd a13e 6ba6 843c
000000c0: 8acf 14bf 0af6 b33c 576a 93bc f8d4 073c
000000d0: cfdf 223f 54d9 a13e a6aa dfbe f019 61bc
000000e0: b1aa 07c0 fa54 cbbe e8dc e83e 8e83 f73c
000000f0: cdc2 1cbf a6a1 27bf 4d37 923b 6d8b f93b
00000100: f63e c8be 33e5 31be 372f 15be daea 0f3b
00000110: cf80 ed3e 0d04 adbb 768e d73e a5a8 2f3c
00000120: 155e a63f b11b 25bf 3ddd 683c 2f22 193b
00000130: 8c80 46bf 1e5d bfbe 9d61 a6bf 5b14 583d
00000140: 74e1 cabe 9bec 45bf afe5 a73e c750 853c
00000150: 8fa3 893f b060 c8be 2422 cdbe f0a2 4c3c
00000160: 5d61 c33f 799e d4be 8586 45bf 1c79 9d3c
00000170: 9d37 903f 1f37 873d 5631 58bf d22b ed3b
00000180: 4c02 95bf d400 3f3d 5ca2 e63d a3ee f13d
00000190: 0af4 50bf 668d a5be 6913 c13f f98e 5a3c
000001a0: 9fdf 94bf fe4c e6bd f07c d2bf 65ce 803c
000001b0: 2a82 c63f 6fd3 d23e 44fe dfbd b3d6 94bc
000001c0: c69b 88bf db26 52bc c208 143f 24c9 583b
000001d0: b907 f3be 4224 bfbd 171d 093f a288 7abe
000001e0: 66e8 f43c 145e 9a3e a2a4 6bbf 846b 823c
000001f0: d98b e0bf 608c ee3e 4354 49bf 27b4 c3bb
00000200: c03d eb3e ba03 2a3d 695f 8d3e 49ea 63bc
00000210: ec33 97bf 9198 813e ae1e 853f 2a64 5bbc
00000220: 2e06 d4be 8b69 493e e2cc 1e3e 1a2a 0ebe
00000230: 8bab 3f3e 5f6f 703e 7943 93bf 6551 f8bc
00000240: ecf2 f23f 7ec2 a43e 3a53 4a3e 74c6 aebc
00000250: 27c7 853e 0c08 a83e c29a c33d 9c16 3cbe
00000260: 130a 283f abb8 26bf f4ab acbf 22b0 be3c
00000270: a911 ce3c 9298 b93e 23f7 2fbf 2a35 53bd
00000280: 0623 783f 9953 033f ded7 343c 6874 9ebd
00000290: 1af5 c83f d4b7 2cbe e26c 913e acc5 553c
000002a0: 8072 37bf b416 a33e 0b87 27bf 88a9 12bc
000002b0: e699 633d 6323 d83d 619b aebf f532 d53c
000002c0: 224f e9bf f57f e43d 8db9 04bf 4042 8d3c
000002d0: 78d9 3d3e afc4 a5be 844c 42bd 5f7e d4bc
000002e0: 4752 603f 9c2d 75bf 6c8b 483e d124 34bd
000002f0: 80e2 c7bf e9c1 f7bd 43de 253e dfe9 493c
00000300: 3bd3 773f 12ad f43e ee28 8fbe 7145 90bd
00000310: c09e 673f ea90 1c3f bd3c b6bf 25c3 bb3a
00000320: 861d 223f 8cee afbf 0449 9d3e b1a3 e1bd
00000330: b45c a03e 7263 443e 25cb ab3e e742 a6bc
00000340: 1612 82bf 5b55 60bf 12d7 763e 9de7 923b
00000350: af7c 0abf 38d7 8a3d cb06 8d3d 6454 753d
00000360: ec03 4f3f 9c7a e9bd 9492 2bbf d62d aa3b
00000370: 3cd7 04bf d72a df3d 2b86 86bd 743b 4cbe
00000380: e4b3 2dbf 18b1 703e 8ada e73d 747d 2fbc
00000390: fa64 17be 6fca cbbe 4784 31c0 b50e 963c
000003a0: a4a5 c43e 2c09 e53e 8dbf cdbf e260 05bc
000003b0: efd1 fbbf 7e0a 423e 985e b6be ca06 97bc
000003c0: 029e 963e c2af 63bd f4c5 f53e 0b7a a83c
000003d0: 73a3 243f cfb2 833e aa71 7fbf 6811 e43c
000003e0: 14be f53f 86f1 9fbe dcb1 2b3f d34a 423b
000003f0: 2d6e 753e 5a04 af3e 38e5 b6bd b4cf 9bbc
-1.0308372 -0.030834345 -0.5808757 0.02876246 -0.02558272 0.4782196 -1.5974486 0.0030961507
-0.6197835 0.7043168 0.16988839 -0.008694989 0.70293444 0.24940386 -0.6009373 0.0005781647
0.5718591 0.14891295 -1.60798 0.017347034 -0.4768504 -0.38787326 -1.6887887 0.033682544
1.0559174 0.4062325 0.29974672 -0.032367915 -0.095023066 0.2002534 -0.29067537 -0.00713147
-0.81452966 -0.092409454 -1.694569 0.0023396278 -0.9747162 -0.033326637 -0.4282431 0.009291141
-0.1807356 0.355509 0.73043483 -0.02032089 -0.18416831 -1.5706452 0.31638736 0.016192636
-0.5812918 0.021967907 -0.017995043 0.008290522 0.63622755 0.3161112 -0.43684882 -0.013739094
-2.1197932 -0.3971327 0.45481038 0.030214097 -0.6123474 -0.6548103 0.004462159 0.007615498
-0.39110535 -0.17372589 -0.14568792 0.002196005 0.46387336 -0.005280024 0.42100877 0.01072136
1.2997462 -0.6449538 0.014212904 0.0023366322 -0.77539897 -0.3737573 -1.2998539 0.052753787
-0.39625132 -0.77314156 0.32792422 0.01627387 1.0753039 -0.39136267 -0.4006511 0.012490019
1.5264088 -0.41527155 -0.77158386 0.019222789 1.1266972 0.066023104 -0.8445028 0.00723789
-1.1641326 0.04663165 0.11261436 0.118130945 -0.81622374 -0.3233444 1.5084049 0.013339751
-1.1630744 -0.11245154 -1.6444378 0.015723417 1.5508473 0.41176936 -0.10937169 -0.018168783
-1.0672538 -0.012826647 0.57825863 0.0033078874 -0.4746683 -0.093330875 0.5356001 -0.24466184
0.029895972 0.301499 -0.92048085 0.015920408 -1.7542678 0.46591473 -0.786442 -0.0059724036
0.4594555 0.04150746 0.27611855 -0.013910838 -1.181272 0.2531171 1.0399988 -0.01339058
-0.41410965 0.19669168 0.15507844 -0.13883248 0.18717782 0.23479985 -1.1504966 -0.03031225
1.8980384 0.32179636 0.19758311 -0.021334864 0.26128504 0.3281864 0.09551002 -0.18368
0.6564037 -0.6512553 -1.3489976 0.023277346 0.025154905 0.36249214 -0.68736476 -0.051564373
0.9692844 0.51299435 0.011037795 -0.077370465 1.5699799 -0.16867 0.28403383 0.013047617
-0.7165909 0.3185326 -0.65440434 -0.008951552 0.05556669 0.105536245 -1.3641168 0.026025275
-1.8227274 0.11157218 -0.5184563 0.017243505 0.18539989 -0.3237662 -0.047436252 -0.025939165
0.87625545 -0.9577272 0.19584435 -0.043980423 -1.5615997 -0.12097532 0.16198067 0.012323826
0.9680669 0.47788292 -0.27960914 -0.07044495 0.9047661 0.6115862 -1.4237286 0.0014325125
0.633263 -1.3744674 0.3071977 -0.1101755 0.31320727 0.1917856 0.33553424 -0.020295573
-1.0161769 -0.8763024 0.2410548 0.004483177 -0.540965 0.06779331 0.06886061 0.059894934
0.8086536 -0.11400339 -0.67020535 0.0051934524 -0.5189092 0.10896843 -0.06568559 -0.19944555
-0.67852616 0.23505056 0.1132098 -0.010711063 -0.14784613 -0.39802882 -2.7736986 0.01831756
0.38407624 0.4473356 -1.6074082 -0.008140774 -1.9673442 0.18949315 -0.35619044 -0.018435854
0.29417425 -0.055587538 0.4800259 0.020566007 0.64311904 0.25722358 -0.9978281 0.027840331
1.9198632 -0.31238955 0.67068267 0.002964665 0.2396781 0.34183007 -0.08930439 -0.019019939

fc1.bias f4 [128]
00000000: 8a8c 5bbf d411 703f 17a9 edbe 7704 2b3f
00000010: c089 163f 5bb7 3b3f 5faa c03d 234b 333f
00000020: 4245 c93f 297f 5c3f e408 623f d985 e13d
00000030: 6649 47bf 8868 34bf 25e8 993d 3430 123f
00000040: 4e59 a93f 39ed 9bbf b44d 823f da11 efbf
00000050: 1e59 fabe 6392 c63f 0e53 6f3f 2462 51bf
00000060: cc1e 90bf f1fd 373e 0b8b b1be 0ce7 b63f
00000070: d26e c9be 2596 06bf e98d d8be 4741 923f
00000080: dd3d 793f 76c0 253f 1a15 13bf 5d2b a9be
00000090: 76c9 f8be 3f62 183f 6033 443f 6ded 8b3e
000000a0: d21d 2bbd f2ed eebf dd27 28bf 3512 4abe
000000b0: d3df 073f 16a5 bd3f b45e 083f 7e8a 0dbf
000000c0: cb9d ba3d 6ca6 89bf b3aa 363e 1bca c03f
000000d0: 7b68 b83c ad35 debf 4e51 b63f d117 ee3e
000000e0: 8df8 32bf ce87 7cbe 761f c03e db8e 903f
000000f0: 5772 0abf ab61 ddbf b637 8b3d 4443 483f
00000100: 3ff0 053f e1f0 bebf dac6 e63d 78d8 1f3f
00000110: 68da cf3f 61a0 b43f 9a5f a93e b89a c0bf
00000120: ddff 68bf 9cde 3bbf e05b d8bf 7c84 3c3f
00000130: 3cc5 d3bf d031 a83f f798 9dbf f946 4b3f
00000140: 839d 46bf 28df 653f 22bb 26be 7a4e 473f
00000150: c33e bebe a042 d9bf cb0f de3d d9c9 d73e
00000160: 65a4 433e 1752 503f 08a5 36bf 5b26 0bbf
00000170: 16ee 0d3f fd73 0d3f 64e2 cfbe f27e 5bbe
00000180: a949 bf3e 89fc 7f3f 50f2 7abf d58d 94bf
00000190: 84db 0abf d3b2 c53f c2e1 afbd 0dcd 82bf
000001a0: 19a5 64bf 3f3e d83f 31ab 343e fb83 af3e
000001b0: 1dfe adbf 76f6 ae3f d37a 7b3f a4df bdbe
000001c0: e60c ef3d 0ff2 61be 45bd 653d fc2c 463f
000001d0: a7c9 58be 62fd 9fbf b0e0 d33e 1d2f 793d
000001e0: 648c 913f ea7b 7ebf c26e b6bf a475 253f
000001f0: 46e7 31bf 5dee 98bf 7f3c 523f 8502 babf
-0.8576132 0.93777204 -0.46418068 0.6680369 0.5880394 0.73326653 0.09407496 0.70036525
1.5724261 0.8613153 0.88294816 0.110118575 -0.7784637 -0.70472 0.07514981 0.571048
1.3230379 -1.218177 1.0179963 -1.8677323 -0.48896116 1.5513424 0.93486106 -0.81790376
-1.1259398 0.17967965 -0.34676394 1.428926 -0.39342362 -0.5257285 -0.4229577 1.1426171
0.9736002 0.647468 -0.57454073 -0.33040896 -0.48591202 0.5952491 0.7664089 0.2732958
-0.041776486 -1.8666365 -0.65685827 -0.19733508 0.53075904 1.4816005 0.53269506 -0.5528945
0.09112128 -1.0753913 0.17838554 1.5061678 0.022510758 -1.736013 1.4243562 0.46502545
-0.6991051 -0.2466118 0.37524003 1.1293596 -0.5408072 -1.7295431 0.067977354 0.7822764
0.5231971 -1.491726 0.11268397 0.6243968 1.6238527 1.4111444 0.3308075 -1.5047216
-0.91015416 -0.7338655 -1.6903038 0.73639655 -1.6544566 1.3140202 -1.2312306 0.7940517
-0.77584094 0.89793634 -0.16282323 0.7785412 -0.37157258 -1.6973457 0.10842856 0.42146185
0.1910568 0.8137526 -0.7134557 -0.543554 0.55441415 0.5525511 -0.4060241 -0.21435145
0.37360886 0.99994713 -0.9802599 -1.1605784 -0.54241204 1.5445198 -0.08587982 -1.0218827
-0.8931442 1.6893996 0.1764343 0.3428038 -1.3593174 1.3668964 0.9823429 -0.37084687
0.11672382 -0.22064994 0.056088705 0.7741239 -0.21170674 -1.2499201 0.4138236 0.060835946
1.1370969 -0.9940783 -1.4252551 0.6463263 -0.6949352 -1.1947743 0.8212356 -1.4532019

fc2.weight f4 [64, 128]
00000000: ea8c 213d 4ea5 21be 41c8 2cbe 67fb 35be
00000010: eff7 89bd 19b3 7a3e 7ec2 a9be a1ea e7bd
00000020: 773a 153f 01a2 5abd c91e 8ebe c388 e0bc
00000030: bd82 d23d 1380 85be a642 a53d 71d0 1abc
00000040: 987c 423d 5ea9 18be d328 693c 4e8a 8d3d
00000050: 3c52 87be da03 433d afb9 c73d c533 343d
00000060: acad 16be a83c cbbd 8af4 03bd aab0 d7bc
00000070: 40c7 30be 429b c2bd eb8b a8bd d0cf 153e
00000080: 4951 20bd 6313 4bbe f763 f2bd 16aa 2cbe
00000090: fac7 f5bc e126 1ebe dfe9 283e ba5d 4cbe
000000a0: b317 d3be 68f2 95be 1d64 c43d 0bac bb3d
000000b0: 161c 9c3d abeb 383e 2968 11be 5228 153e
000000c0: 387f 83be b32f d8be 3daf 0dbe 757d 37be
000000d0: 8fe4 16bc 7e55 09be f18e 34bd 03f1 193d
000000e0: f58b 9ebd 0b6b 2d3f 1dd0 6e3e 11bf 36be
000000f0: 7698 a8bd f996 ef3c d30b 95be ad84 9bbe
00000100: 7146 a9be b5cb d6bd fb50 fbbd 5ed4 c13d
00000110: b23a 633e b6e9 dd3e d2ea 2fbe a26d 33be
00000120: 793f 36bd 350a 46be ca11 183d fabf bd3d
00000130: f6b5 88be 6b3c 21bf c33a 7a3e ce46 d4bd
00000140: 177e b2bd 70d9 b0be 1a67 02bf ac3b 013d
00000150: 122e 1a3c 793c 66be ad8b bbbb c9b6 cfbe
00000160: 52fd 8bbd 5e27 933c 4d5c 80bd 7357 b1bd
00000170: 6c92 863d 00ca 71be 0cef 5abd 9248 44bc
00000180: 4e45 c6be ca28 cebd f366 59bd 7cd6 41be
00000190: e481 b3bd 37ac ac3e cf11 7cbe 142f d2bd
000001a0: a3cd 143e b6ed fbbc 6a6e a33e e177 5a3e
000001b0: 1dbb fbbd 1491 4bbf 13a7 8c3e 5a80 a93c
000001c0: 3306 a8bd d18b 55be b4e4 313e 973f 853e
000001d0: ef6a 97be e8bd 9dbe 1633 e3bd 009f 25be
000001e0: c57f c43d 1d5d 0dbd 89e6 43be c7cf d33e
000001f0: 7288 4cbd 1d68 28be bea9 8c3e 94e5 7cbd
00000200: 045b 433e 171c 1ebd 2081 613c 6e21 6abd
00000210: d3da 1cbf 6b04 8ebe 1a46 cc3d 14fe 843d
00000220: ff80 58bf 09e9 d53d 49e4 8abd 74e4 073d
00000230: 68a3 903d 900a 763e 8f90 903e b5f4 2cbd
00000240: 06ab 7bbf 5779 e13c e31a 28be 6d91 1a3c
00000250: 63b9 3f3e bea0 05bf 8acb 1bbf 6261 a8bf
00000260: 4036 96ba 7ae8 c0be c67f 71be 4adb 04bd
00000270: c3c6 b03e 995f 9b3e bc94 b3bc 6629 8cbd
00000280: 5470 073d ad48 63bd 4289 1c3e 00b9 71be
00000290: 91c0 873d 5ac1 21be 5fe4 61be f9bf 3d3d
000002a0: 2fc5 20bd 0ad7 9ebd bc62 f53d e9e8 33be
000002b0: 724f f83c 5272 c7bd 0e10 82be 2711 213e
000002c0: adf7 253d ea59 833d ab41 12be b6f9 aabc
000002d0: a520 773e 2374 af3d 7d07 b4be 975d 7d3d
000002e0: 4658 8c3e 7eb2 9abe b02e adbd e357 31bd
000002f0: 5be0 b13d ad1f 2ebe 49f3 62be b524 0c3c
00000300: 6095 11be 974f 883e a6d0 dabd 6668 0abf
00000310: 5400 a2be 88de 24bf a4ee 40bc b57f a73a
00000320: f7db 213e 34f1 d33d be29 a63d 705b 12be
00000330: ef6a cd3d a41f a4bd c6bc be3d ab87 58bd
00000340: 6884 2a3e a99c abbe 7653 ed3d b93b 3bbf
00000350: 4589 c43d ad57 743c 54bf 87bc a283 8bbc
00000360: b5ca 3dbf cbde a7be 924e fb3e dcf5 983d
00000370: 9a31 0a3e b9de 01be 21c6 11bd 85d3 0b3e
00000380: 7201 053e bb7d 2bbd cc98 c93c a3d3 4dbd
00000390: 23e9 973e 665e 38bf 3e57 8a3d 3309 8139
000003a0: d516 72be f4d2 e1bf e84b 7dbe 338a d23c
000003b0: 0ea7 7c3e fc7e 97bd 77b7 4abe 5189 fabc
000003c0: 02e5 41bd 2664 febe b543 41bd 58a0 a73c
000003d0: 22d6 8d3d 1c3e 0cbd 0723 303e 7012 303e
000003e0: 977c ecbd 9ae8 f1bc 5c42 3d3d 3793 5b3d
000003f0: 35df 123e b030 413e c1af 76bf 9030 89bd
0.039441027 -0.15785715 -0.16873266 -0.17771684 -0.06736743 0.24482383 -0.33156198 -0.11324049
0.58292335 -0.053377155 -0.27757862 -0.027408963 0.102788426 -0.26074275 0.08069353 -0.00944911
0.047482103 -0.14908358 0.014230925 0.06911145 -0.26429927 0.047611095 0.09752213 0.043994684
-0.14714688 -0.09923679 -0.032215632 -0.026329357 -0.17263508 -0.09502269 -0.08229812 0.14630055
-0.03914002 -0.19831614 -0.11835473 -0.16861758 -0.030002583 -0.15444519 0.16495465 -0.19957629
-0.4122902 -0.29286504 0.095894076 0.09163674 0.076225445 0.1805865 -0.1419989 0.14566162
-0.25682998 -0.42223892 -0.1383638 -0.17918952 -0.009209766 -0.13411519 -0.044081632 0.037583362
-0.077415384 0.6774146 0.23321576 -0.17846324 -0.082322046 0.029246794 -0.29110584 -0.3037466
-0.33061555 -0.10488073 -0.12271305 0.09464334 0.22190359 0.4334237 -0.1717942 -0.1752229
-0.044494126 -0.19339831 0.03712634 0.09265132 -0.26701325 -0.62982816 0.24436478 -0.103650674
-0.08715456 -0.34540892 -0.5093857 0.03155105 0.009410398 -0.22484006 -0.0057234378 -0.40569142
-0.068354264 0.017963108 -0.06267605 -0.08659258 0.065708965 -0.23612213 -0.05345063 -0.011980193
-0.3872475 -0.10066374 -0.053076696 -0.18929476 -0.08765009 0.3372514 -0.24616168 -0.10262886
0.14531569 -0.030752998 0.31920177 0.21334793 -0.122915484 -0.79518247 0.27471218 0.020691086
-0.082043074 -0.20854117 0.173724 0.26025078 -0.2957377 -0.3080895 -0.11093728 -0.16173935
0.095946826 -0.034512628 -0.19130911 0.4136946 -0.049934812 -0.16445966 0.27473253 -0.06174238
0.19077688 -0.038601007 0.013763696 -0.057160787 -0.612714 -0.27737746 0.09974308 0.06493774
-0.8457183 0.104448386 -0.06781823 0.033176854 0.07062417 0.24027467 0.2823529 -0.04222556
-0.98307836 0.02752368 -0.16416506 0.009434086 0.18723063 -0.521984 -0.6085745 -1.3154719
-0.001146026 -0.37677366 -0.23583898 -0.032435693 0.34526643 0.30346373 -0.021921508 -0.068438336
0.03306611 -0.05548923 0.15286735 -0.23605728 0.06628526 -0.15796414 -0.22059773 0.046325658
-0.03925055 -0.07755859 0.11981723 -0.17569317 0.03031132 -0.09738602 -0.25402874 0.157292
0.040519405 0.06413634 -0.14282863 -0.020871025 0.24133547 0.08567073 -0.35161963 0.061856832
0.27411097 -0.30214304 -0.084561706 -0.043296706 0.086853705 -0.17004271 -0.22163118 0.0085536735
-0.14217138 0.26623222 -0.10684328 -0.5406555 -0.31640875 -0.64402056 -0.011775646 0.0012779149
0.15806566 0.1034874 0.081134304 -0.14292693 0.100301616 -0.080138475 0.093133494 -0.052863758
0.16652071 -0.3351796 0.115881845 -0.73138005 0.095964946 0.014913482 -0.016570725 -0.01703054
-0.7413743 -0.32787165 0.49083382 0.07468769 0.13495484 -0.12682618 -0.03558934 0.13654907
0.12988833 -0.041867953 0.024608992 -0.05025066 0.29670057 -0.7201904 0.067549214 0.0002461165
-0.23641522 -1.7642503 -0.24735987 0.025700664 0.24673101 -0.07397267 -0.19796549 -0.030583056
-0.04733754 -0.49685782 -0.04718371 0.0204622 0.06925608 -0.03423892 0.17200862 0.17194533
-0.11547201 -0.029529858 0.046205863 0.053607192 0.14342959 0.18866229 -0.9636193 -0.06698716

fc2.bias f4 [64]
00000000: 2e4e 643e ee28 e4be a0db 65be b17a 083f
00000010: bfc6 b9be 1008 923d 020e c13e dcfd 4fbe
00000020: a07d f53d 8820 b7be e750 ac3d 75b8 13be
00000030: 6685 2a3d f952 bcbe 640e 293f c9d0 c0be
00000040: 0a9e 883e 4538 af3e 8059 023f 53fa 2fbd
00000050: 2f30 b4bd 785a 873f d4d9 b4be 7caf c73e
00000060: 11a7 b9bd 51d4 f33e 447b f4be 270a 1abf
00000070: 932d 03bf 9e73 123f 8e26 1e3e 81ae 48bd
00000080: 2237 48bf a3b5 973d 076d c13e 3ab4 45be
00000090: 8638 06be 75c1 023f 2ae5 60bf 0456 ce3e
000000a0: 1c2e 92bd 1915 843e 3b75 3fbd 9d15 43bf
000000b0: 7938 59bd 10c1 2b3f d557 1f3f 1340 2e3f
000000c0: 47f7 0e3f 8d2a 65bf 8809 55bf a359 7e3e
000000d0: 3c1a 893d ae96 8cbd 4421 10bf 8f46 e8be
000000e0: 36b2 003f dd91 443f 50f5 b23e 018b a33e
000000f0: 7606 84bf 0ffe af3e 3d27 e43e 5860 023f
0.22295448 -0.44562477 -0.22447062 0.5331221 -0.36284444 0.07130444 0.37706 -0.20311683
0.11986852 -0.35767007 0.084138684 -0.14425834 0.041631125 -0.36782053 0.66037583 -0.3765929
0.26683074 0.34222618 0.50917816 -0.042963337 -0.08798253 1.0574484 -0.3532244 0.3900107
-0.090650685 0.47622922 -0.47750294 -0.6017174 -0.51241416 0.5720767 0.15444395 -0.048994545
-0.78209126 0.07407691 0.37778494 -0.19307032 -0.131075 0.5107644 -0.87849677 0.403
-0.07137701 0.25797346 -0.04674266 -0.76204854 -0.053032372 0.67091465 0.62243396 0.6806652
0.55846065 -0.8951805 -0.8321767 0.24838881 0.06694457 -0.06864677 -0.5630076 -0.45366332
0.5027193 0.7678507 0.34952784 0.3194199 -1.0314472 0.3437352 0.44561186 0.5092826

fc3.weight f4 [32, 64]
00000000: 4d5a 03bd 498a e6be d1f2 e23d 492d 6ebd
00000010: 4c0e 26be 343d 31be 6aea b33c 2344 22be
00000020: 648b 683e 0952 52be 6e79 e83d ee8b 523e
00000030: 71b8 8d3e 433a 2c3d 3468 d93b 6ee8 783d
00000040: 3d8c a1be c380 3abf 6a63 5ebd a47e aebe
00000050: 7572 b8bd 34d7 c3be c417 a83d 6cf1 59bd
00000060: bee7 d2bd 1365 1ebe 2b55 05bd 1ef9 9b3e
00000070: 224c 54bd ac59 183e ff61 1a3f 4053 503e
00000080: 4173 e53d 52bf 06be 7069 5fbe 6d47 bbbf
00000090: 54ec 593d b932 b0bc b51b a33d a98d b33c
000000a0: 1d3d 98be 99ac c93d 451f ab3e ed40 d6bd
000000b0: 7426 fb3d cff0 c3be 44e3 e9bc 1499 28be
000000c0: 01a0 46be 7798 82be 91ce 0dbd 2e24 363e
000000d0: 153a 86bd e66a abbe f687 073d 5b71 cabd
000000e0: 5eb1 a9be 2cb6 aa3d d97f c93e 60fa d53c
000000f0: a676 d4bd e8bb c5bd b6d7 4f3d 7718 c7bd
00000100: 5169 213e faad b3be a502 783e f709 91be
00000110: 1a5a abbe cf8f b6bc 6dd9 523d c5e9 0c3e
00000120: ac5a 6b3e 54bf b7be ce4e b8be c4b7 b33c
00000130: 505d ac3e fda0 a33e e27b 29be 53e4 28be
00000140: 98f8 8cbe 8fd3 30be 479e 27bd eccc ff3d
00000150: 1645 3c3e 4ee8 0abe 0ceb 50bd 84c2 09bf
00000160: 46f9 16bd 9b64 77be 0735 453d e341 023e
00000170: 6d05 b5be 4320 5d3e bab0 be3e c568 9e3b
00000180: 3d8d d03c 67ee 42bd 32fe 4d3e ab36 283d
00000190: c91b 06bd 58d1 d73d 8887 35bd 9894 4cbe
000001a0: 2da8 c0bd 92e9 86bd c6e3 913d 7604 023d
000001b0: a2d7 4d3e 4d30 60bc 7495 c63c fc8a a8be
000001c0: a0a5 173f a68c c3be 7b1f 37be 5795 a2be
000001d0: 0443 833e 2924 8d3d 6233 ffbe 06d1 35be
000001e0: 1720 84be 1031 513e aca2 c6bd 1315 ea3d
000001f0: 6905 d93d 3155 0bbe 7aaf 52be 5c71 9d3e
00000200: 6afc f3be ce17 d4be 96b9 993e 5dde 7dbe
00000210: 6222 543e 7935 b1bd 091b 44bd 0e7a 513e
00000220: 6a2c bd3e 346a c5be 10bd 61bd ce4a 7ebe
00000230: b4c8 ae3d a3b3 04be 4eff 463d f12b debc
00000240: c3ea 8abe 9c49 41bf 1146 6dbd c4a2 9cbd
00000250: 92d6 943d 1a49 ac3d dc0a 8cbe 54ea 133e
00000260: 267c 053e 1eac d03d 7ab6 6c3d b077 56bd
00000270: 08ec e4bd e056 f33e 1ba2 89bd c952 90bd
00000280: f630 03be abba 4c3d d97e 2abe 651a 24bf
00000290: 2c45 2b3d b3a2 20be c33c b4bd 9b74 303e
000002a0: eeee 1fbe e428 abbc 089d 843d 39e7 37be
000002b0: ee5d d43c 0d9b 40c0 3e63 1e3e 6c3b 08be
000002c0: 252e a03e 4b04 09be cf42 30be 783d 2c3e
000002d0: 6c54 15be 6696 b6be b997 88be c97e 9e3d
000002e0: 73f0 adbe 7501 2c3f f85c 38be 172b 3a3e
000002f0: 8039 81bc 247c 98be 1459 04bf 8cc3 3f3e
00000300: dad7 12bf 82f7 81be ece5 8b3e 4e39 76be
00000310: 84ad 8abe 4b27 88be 7105 96bd 75ef d03c
00000320: 6e5e 153d 134e be38 3b8f 6e3d 6940 253e
00000330: fdad 98be 1f64 8abe 14ed 87bd f342 77be
00000340: c0de 61be 3017 18bc 57af a8be 5ac1 12bd
00000350: ba6d 34be 49e3 943d 0753 663d 5b81 aabe
00000360: e9fe c63b d191 bd3c bc69 963c d1fc 6f3d
00000370: 522e 853d 47cb c2be 4db5 0cbe 01ef 20bf
00000380: c08e 843d dd8f 423c 9c11 41bd f061 423e
00000390: 03ed 903c 3c37 08be e91f 413e b366 7a3e
000003a0: 5651 6ebe e35c e0be 073f e5bd 1f10 233c
000003b0: 6274 5fbe b5b8 84bc f42f b6bc d23a 173d
000003c0: 2a04 53be 801f b4be 82c0 543e f004 38bd
000003d0: 4e39 0e3c cbac 91bd 13e9 1bbd cfc5 9cbd
000003e0: cd58 a33e 4697 3e3e a2de fb3d b0c7 e33d
000003f0: 85b8 9f3e 9c0a 4cbd babf ff3e 900a b13c
-0.03206854 -0.45027378 0.1108147 -0.058148656 -0.16216391 -0.17308503 0.021962363 -0.15846305
0.22709423 -0.20539106 0.11351286 0.20561191 0.2767978 0.04204775 0.0066347364 0.060768537
-0.31552306 -0.72852725 -0.054294027 -0.34080994 -0.09006206 -0.38250124 0.08207658 -0.053208753
-0.102981076 -0.15468244 -0.032551926 0.304635 -0.05183042 0.14877957 0.6030578 0.20344257
0.112036236 -0.1315892 -0.21817565 -1.4631172 0.053203896 -0.021508561 0.07964269 0.021918135
-0.29734126 0.098473735 0.33422294 -0.10461602 0.12263194 -0.3826966 -0.028550752 -0.16464645
-0.19396974 -0.25506946 -0.034620825 0.17787239 -0.06554047 -0.33479995 0.033088647 -0.09884902
-0.33143133 0.08335528 0.39355353 0.026120365 -0.10374193 -0.09654981 0.050742827 -0.09721463
0.15762831 -0.3509367 0.24219759 -0.28327915 -0.3346718 -0.02228537 0.051476885 0.13761051
0.22983807 -0.3588816 -0.35997623 0.021938212 0.33664942 0.31958762 -0.16551164 -0.16493349
-0.27533412 -0.17268203 -0.04092243 0.124902576 0.18385729 -0.1356518 -0.05100541 -0.5381243
-0.03685882 -0.24159472 0.048146274 0.12720446 -0.35355702 0.21594338 0.37244207 0.004834267
0.025457973 -0.04759064 0.20116499 0.04106776 -0.03274134 0.10537976 -0.044318706 -0.19978559
-0.09407077 -0.06587519 0.071235225 0.031742536 0.20101789 -0.013683391 0.024241187 -0.32918537
0.592371 -0.38193244 -0.17883103 -0.31754562 0.25637066 0.068916626 -0.4984389 -0.17755517
-0.25805733 0.20428872 -0.09698996 0.11429801 0.10596735 -0.13606717 -0.20574751 0.3075055
-0.47653514 -0.41424412 0.30024403 -0.24791856 0.20716241 -0.08652777 -0.047877345 0.20456716
0.36947948 -0.3855759 -0.055111945 -0.24833223 0.08534375 -0.12959151 0.04858332 -0.027120562
-0.27132234 -0.75502944 -0.05792815 -0.076482326 0.072674885 0.084123805 -0.27352035 0.14444858
0.1303564 0.10189079 0.05779121 -0.052360237 -0.11177832 0.47527218 -0.06720372 -0.0704704
-0.12811646 0.049982708 -0.16649951 -0.64102775 0.041814014 -0.15687065 -0.08800652 0.17231981
-0.15618488 -0.020893522 0.06475264 -0.17959298 0.025923695 -3.0094635 0.15467545 -0.13303918
0.31285205 -0.13380544 -0.17212985 0.16820323 -0.14582986 -0.3566162 -0.26678255 0.07739026
-0.3397251 0.67189723 -0.18004215 0.181805 -0.015774488 -0.29782212 -0.5169842 0.18726939
-0.57360613 -0.25384146 0.27323854 -0.24045298 -0.27085507 -0.26592478 -0.073252566 0.025504807
0.03646701 9.0744485e-05 0.058242064 0.16137852 -0.29820243 -0.2702951 -0.06637016 -0.24146633
-0.22057629 -0.009282872 -0.32946274 -0.035828926 -0.17619982 0.07269914 0.056231525 -0.33301815
0.006072868 0.02314082 0.018360965 0.058590714 0.065029755 -0.38045713 -0.13741036 -0.6286469
0.0647254 0.01187512 -0.047135934 0.18982673 0.017691141 -0.1330232 0.18859829 0.24453239
-0.23273215 -0.43820867 -0.11193662 0.009952574 -0.2182174 -0.016201356 -0.022239663 0.03692133
-0.20607057 -0.35180283 0.20776561 -0.044926584 0.008680655 -0.07113036 -0.038064074 -0.076549165
0.31903687 0.18612394 0.12298323 0.11122072 0.31195465 -0.049814805 0.49950963 0.021611482

fc3.bias f4 [32]
00000000: 1641 013f 56ce a33d 72e2 363f afa5 0d3e
00000010: 22ea 04bf 84c2 1b3e 78b7 143d 3fff ae3e
00000020: 3c57 d8bd bcb4 8dbe c3b4 993e 8f63 cd3d
00000030: 5410 5ebe 8223 973d 6867 a0be 00ba db3e
00000040: ac02 e3bd 68e1 633e 7f62 21bf 3ef2 883e
00000050: 5c3b 303e 2b2a 54be 7e0e d0bd 2e3f 86be
00000060: fc08 9f3e 5b37 82be fc1b 813e 2b1a 613e
00000070: 4551 963e 8535 22be ebb1 b53d 0015 153e
0.5048994 0.0799834 0.7143928 0.13832735 -0.5191976 0.1521092 0.036307782 0.34179112
-0.10563514 -0.27676952 0.30020723 0.10028755 -0.21685916 0.073798195 -0.31328893 0.42915344
-0.11084494 0.22253954 -0.6304092 0.26747316 0.17210144 -0.20719211 -0.10159014 -0.26220077
0.31061542 -0.25432858 0.25216663 0.21982639 0.2935888 -0.15840729 0.08871826 0.14558792

fc_mu.weight f4 [2, 32]
00000000: ad58 11bf 4398 003e 4086 8bbf 2f37 223e
00000010: cde1 0c3f bdf2 6f3e d95e cd3e 5dbb 413f
00000020: 1724 6d3e 77f2 ea3e 49ae 4e3e f459 413f
00000030: 6d9b afbd e2c6 fcbe d1bc 973e 01b4 e3be
00000040: ac27 bcbe 88ed f0be 17ab a0be 0739 41be
00000050: f96a f33e eae7 01bf ace5 b13e efbb debd
00000060: 530e 24bd 04e0 adbe 4700 f6bc 6e14 093e
00000070: c46f ee3e 1317 26bf c848 c43f e53c acbe
00000080: 7bc2 cd3d 15cd a53e 7f5a 09bf 3436 333e
00000090: 630e 4cbe 3e4f 93be 7f74 243e ec13 2e3e
000000a0: d28d 273e 58ef 813d 06c3 2bbf f4b1 2a3d
000000b0: 1591 4abe 66a5 0abe a5d4 863f ad58 a33d
000000c0: db73 dfbc 8bfc d5bd e0a7 983d b35f a3be
000000d0: 7e1e edbe 4005 923e 7676 3cbe 7fc1 213f
000000e0: 4a02 2d3f b763 6abd 2c46 e33e 1c08 333e
000000f0: a23f 7bbe f1e6 37be 9a66 81be 68b5 273e
-0.56775934 0.12558083 -1.0900345 0.15841363 0.55032045 0.23432441 0.40111426 0.7567652
0.23158298 0.4588811 0.20183672 0.7552788 -0.08574567 -0.49370486 0.29636243 -0.4447327
-0.36749017 -0.47056222 -0.3138053 -0.1886941 0.4754255 -0.507445 0.34745538 -0.10875689
-0.040052723 -0.33959973 -0.03002943 0.133867 0.46569645 -0.6487896 1.5334711 -0.3364021
0.1004686 0.32383028 -0.5365371 0.17501146 -0.19927363 -0.28771394 0.16060065 0.16999787
0.16362694 0.06344479 -0.6709446 0.041673616 -0.19781907 -0.13539657 1.0533644 0.07975898
-0.027276924 -0.104485594 0.074538946 -0.3190895 -0.46312326 0.2851963 -0.18404564 0.63185877
0.6758162 -0.057224 0.44389474 0.17483562 -0.24535993 -0.17959191 -0.2527359 0.16377795

fc_mu.bias f4 [2]
00000000: 62b5 1c3c 73fa 983e
0.009564729 0.29878578

fc_std.weight f4 [2, 32]
00000000: 3245 9c3c 0c83 a93d 8e11 0c3e 66f5 52bd
00000010: 220c 14bd 9402 cc3e f8e6 0d3e c891 0c3e
00000020: 71c9 423f b9c1 3dbe 9d0b 76be c79f 34be
00000030: 2479 55bd a307 88bd ed67 1fbe bd03 ba3d
00000040: f2e5 d13d 0b0d 103e 1422 e3bd 0dc8 11be
00000050: 409b 3dbe aa68 1bbe 9f4c a63c fee2 ecbd
00000060: c989 033e d034 333e 92c6 c23d 1226 febd
00000070: 3de9 95bd 1c38 03be 67b9 3b3e 159a 343d
00000080: cea1 943d bae2 3a3e b296 9dba 5a3f c0bc
00000090: b57e 52bd f913 d23d 0e15 29be 03a4 0dbe
000000a0: 4f9d 553f 7cc2 adbd 2369 cabd d4f0 f7bc
000000b0: df22 6fbb 25c6 8d3d ba48 453d 957f 37bd
000000c0: e671 d63d 1b87 2bbe ecc1 2b3e 09fb 013e
000000d0: 9370 b43d 034e fcbc 165a 8a3c 4827 71be
000000e0: b33d c63d e40e 103d 6663 d33d da2f 073d
000000f0: f8d1 02be d409 8a3d 3c09 e83b df42 bf3d
0.019075964 0.08276948 0.13678572 -0.05150356 -0.036144383 0.39845717 0.13857639 0.13727486
0.76088625 -0.1853093 -0.24027868 -0.17639075 -0.05211748 -0.066420816 -0.15566988 0.09082744
0.10248937 0.14067475 -0.11090484 -0.1423647 -0.18516254 -0.15176645 0.020300208 -0.11566733
0.1284553 0.17500615 0.095105305 -0.12409605 -0.07319877 -0.12814373 0.18332444 0.044092257
0.07257424 0.18250552 -0.001202306 -0.023467708 -0.05139037 0.10257716 -0.16511938 -0.13832097
0.8344316 -0.084843606 -0.098833345 -0.030266203 -0.003648929 0.06922559 0.04816506 -0.044799406
0.10470943 -0.16750757 0.16773194 0.12693419 0.08810534 -0.030798918 0.01688866 -0.23550141
0.09679737 0.03517045 0.10321693 0.03300462 -0.12775409 0.06740156 0.007081179 0.093389265

fc_std.bias f4 [2]
00000000: cd59 64be c644 7ebe
-0.22299881 -0.24830922
