myrobot/src/SAC/saved_model/1216_2_actions_timereward/sac_actor_1216_2_actions_timereward_EP402.pt (torch, 47894 bytes, 10 tensors)

fc1.weight f4 [128, 4]
000000 8d 8f aa bf 3e 38 36 bb 40 1a 21 bf 5c fb 96 3c
       -1.3325058 -0.002780452 -0.6293068 0.018430404
000010 1f 98 d8 bd 1e a9 f2 3e 12 05 df bf fe d4 39 bd
       -0.1057589 0.4739465 -1.7423422 -0.04536914
000020 e0 16 1b bf 9f 2c 30 3f cb 24 41 3e 70 e6 d3 bc
       -0.6058178 0.68818086 0.18861692 -0.025866717
000030 61 e5 6e 3f eb 6f 9e 3e e3 aa 45 bf b5 5f 05 bc
       0.93318754 0.30944762 -0.7721388 -0.008140494
000040 3a 2b 5d 3f 9a 9d 11 3e 43 b8 e0 bf 42 70 6c 3b
       0.86394083 0.14220276 -1.7556232 0.0036077653
000050 a3 0b cb be 0e 4b 3f be 6a ef fd bf 09 22 bf 3c
       -0.39657316 -0.18680975 -1.9838688 0.023331659
000060 c3 75 ac 3f 09 e9 af 3e 8c 2f 31 3e cf ff 9e bc
       1.3473438 0.3435748 0.17303294 -0.019409088
000070 58 9c 8a bd 74 b9 49 3e b1 ed a2 be c7 4e 31 bc
       -0.067681015 0.19699651 -0.3182197 -0.010822005
000080 2f db ee be f3 c5 40 bd f8 f5 02 c0 be ec 8c 3b
       -0.466516 -0.04706378 -2.0462627 0.004300683
000090 c9 75 9d bf 1d 20 a9 bd a2 ab d5 be b0 f3 f1 3a
       -1.230157 -0.08258078 -0.41732508 0.0018459465
0000a0 3b e2 99 3d d4 e9 ba 3e 74 86 11 3f b1 fa b3 bc
       0.07513853 0.36506522 0.56845784 -0.021970125
0000b0 f3 82 a1 be c4 ae 19 c0 c7 d6 cf 3e 65 8c 9d 3b
       -0.3154522 -2.4012918 0.4059355 0.004807996
0000c0 ca e4 50 bf a9 31 04 3d da 48 ab bc b7 a4 32 3c
       -0.81599104 0.032273922 -0.020908762 0.010903529
0000d0 ec a2 6b 3f 4c 50 a0 3e e9 1f f5 be ba ea 6a bc
       0.92045474 0.31311262 -0.47875908 -0.01433819
0000e0 c0 d4 0e c0 a9 15 a9 be 67 13 c1 3e 0a 25 b4 3c
       -2.2317352 -0.33024338 0.37710115 0.021990318
0000f0 14 1c 93 be b4 49 cc bf 05 a8 50 3c e1 c6 45 39
       -0.2873236 -1.5959992 0.0127353715 0.00018861472
000100 74 5d 20 bf f4 f8 14 be 11 c2 ad bd ed e6 90 bc
       -0.626426 -0.14548093 -0.08484281 -0.017688239
000110 c8 0d 2e 3f 4c fa 66 bd 8c d9 c7 3e a6 cd 97 ba
       0.6798978 -0.056391045 0.39033163 -0.0011581674
000120 91 fc f7 3f c6 b2 48 bf 6a 16 92 3d a2 c1 42 3b
       1.9373952 -0.78397787 0.071331814 0.0029717465
000130 b0 08 83 bf 27 1e 8d be 9c 9e ac bf 3a 48 2d 3d
       -1.0237026 -0.27562067 -1.3485904 0.04230521
000140 52 12 de be a9 01 a2 bf 95 68 da 3e 2a 59 f6 3b
       -0.43373352 -1.2656757 0.42657915 0.0075179534
000150 9f 90 9a 3f 13 a2 fb be f6 ae 0b bf 62 a6 ac 3b
       1.2075385 -0.4914709 -0.54563844 0.005268858
000160 05 d9 c9 3f 5d 7d 07 bf 2f 3b 39 bf 73 2d 48 3c
       1.5769354 -0.52925664 -0.7235593 0.012217867
000170 0c 50 95 3f 7d 09 12 3e 38 4e 6e bf a9 3b e7 3b
       1.1665053 0.14261432 -0.930881 0.0070566726
000180 c4 0d 8e bf b9 9d 36 3d 0e 75 f3 3d d5 e2 a2 3d
       -1.1097951 0.04458401 0.11887561 0.07953421
000190 08 2f 6d bf f4 1e 76 be eb 06 b6 3f ce 2d 6e 3c
       -0.9264989 -0.24035245 1.4220861 0.014537288
0001a0 0c 6d b4 bf 86 4e 40 be 29 e5 e3 bf 4d db a3 3c
       -1.4095778 -0.18779954 -1.7804309 0.020002032
0001b0 bb 60 d7 3f 9c a9 c2 3e 98 56 dd bd 7f 6a ac bc
       1.6826395 0.38020027 -0.10807532 -0.021046875
0001c0 cd 7b 9f bf 93 31 8a bc 49 10 08 3f e7 ce 35 3c
       -1.2459656 -0.016869342 0.5314985 0.011096693
0001d0 e9 54 23 bf 05 83 aa 3c 48 a7 e6 3e b3 56 ba bd
       -0.6380144 0.020814428 0.450495 -0.09098568
0001e0 44 88 17 3e 94 bc b9 3e 46 33 77 bf 1e f2 63 3c
       0.14798075 0.36276686 -0.9656261 0.013912706
0001f0 48 d5 c9 bf b7 ec ec 3e 88 f4 2b bf 62 97 ed bb
       -1.5768213 0.4627435 -0.6717 -0.0072507123
000200 61 94 43 3f 44 20 93 bd c9 e9 9f 3d b9 f7 cf bb
       0.76398283 -0.071838886 0.07808263 -0.0063466695
000210 ef 59 a1 bf d6 59 68 3e c8 06 64 3f 43 4b 23 bd
       -1.260557 0.2269052 0.8907285 -0.039866697
000220 cd 2a c6 be a0 0b 76 3e 47 89 02 3e 89 51 b3 bc
       -0.3870453 0.24027872 0.1274768 -0.021889465
000230 f6 55 17 3e 4d 98 9b 3e f1 b8 95 bf e1 9d c6 bc
       0.14778885 0.30389634 -1.1697065 -0.024245204
000240 da 36 04 40 50 21 a1 3e 6e 5e 5c 3e 32 f4 d0 bc
       2.0658479 0.31470728 0.21520397 -0.025507066
000250 b6 2e ad 3e 72 e5 8d 3e d5 23 61 3d e7 a1 e6 bd
       0.338247 0.27714115 0.054965813 -0.11261349
000260 ea 53 69 3e 3a 81 88 bf 19 6f b1 bf cc ff f6 3c
       0.22785917 -1.0664437 -1.3862029 0.03015127
000270 14 23 1d 3e ad cb a0 3e 35 6e 62 bf 73 4d 63 bd
       0.15345412 0.31405392 -0.8844941 -0.055493783
000280 48 a8 9e 3f 8d 1e 07 3f ae 81 36 3d b2 fb 15 bd
       1.2395105 0.5278099 0.044557266 -0.03661699
000290 6e 8a c4 3f 06 cd b9 be bb 42 e3 3e 79 a6 20 3c
       1.5354745 -0.36289233 0.4438685 0.009805315
0002a0 48 03 33 bf 57 c6 ae 3e 49 0a 23 bf 47 2d 89 bd
       -0.6992688 0.34135696 -0.6368757 -0.06698089
0002b0 b0 d5 1f 3e 93 58 38 3e 19 61 b9 bf 9a 80 d2 3c
       0.15608859 0.18002538 -1.4482757 0.025696088
0002c0 5f bf df bf 40 e9 54 3e 6b 3a 29 bf 6d 97 52 3c
       -1.7480277 0.20792103 -0.66104764 0.0128534855
0002d0 d8 48 4a 3e d3 c3 1c bf 82 b5 25 bd 63 04 31 bc
       0.1975435 -0.61236304 -0.040456302 -0.0108042685
0002e0 4b e5 43 3f c1 97 ce bf 45 bb 46 3e 03 ef 2e 3b
       0.7652175 -1.6140062 0.19407375 0.0026692755
0002f0 d8 a3 ee bf 6b 1f d7 bd b9 a9 d0 3d 15 1b 8c 3c
       -1.8643751 -0.105040394 0.10188622 0.017102757
000300 dd 9c a7 3f 8f 4c cb 3e 2f cf 2d be 89 ed df bc
       1.3094746 0.39706847 -0.16973566 -0.027334945
000310 6b 1a 39 3f 3d 11 10 3f 90 0b cb bf 93 ba 61 3a
       0.72305936 0.56276304 -1.5862904 0.00086108706
000320 f8 2d 95 3f 25 d0 c9 bf f3 12 a9 3e 2b 2f 41 3b
       1.1654654 -1.5766646 0.3302227 0.0029477577
000330 43 bc be 3e bd d6 18 3e 3f 11 3a 3e cc 0b 8d bc
       0.37253007 0.14925666 0.18170641 -0.01721754
000340 7a 17 91 bf be 24 ed bf 62 ef 92 3e f0 06 47 3c
       -1.133529 -1.8526838 0.2869826 0.01214765
000350 18 4a 3e bf 64 ba b8 3d c2 b4 ee 3d 96 b8 75 3c
       -0.7433181 0.09019926 0.116555706 0.014997622
000360 fc 9c ac 3f 65 1c 21 3c 38 e9 40 bf fd c2 0c bc
       1.3485408 0.00983343 -0.75355864 -0.008591411
000370 b6 e7 f0 be 7d ba 22 3d 92 af 88 bd 49 56 fe bd
       -0.4705178 0.03972863 -0.066741124 -0.12418801
000380 7b 31 7d bf e6 62 f5 3d cb 1c cd 3d 3b 89 f3 bb
       -0.98903626 0.11981754 0.100152574 -0.0074321306
000390 92 80 fc be 8c 96 99 be 56 e7 38 c0 ef 4a 9a 3c
       -0.4931684 -0.2999767 -2.8891196 0.01883456
0003a0 68 0f 34 3f 73 25 d3 3e 57 b0 de bf 4e cb d3 b9
       0.7033601 0.4123951 -1.7397565 -0.0004039653
0003b0 f7 b6 1d c0 cf da 9d 3b b7 9a aa be e1 2e 8f b9
       -2.4642923 0.004817344 -0.33321163 -0.00027310013
0003c0 c8 d6 0d 3f d8 f4 1c be 14 fe b6 3e 44 d3 af bb
       0.55405855 -0.15327775 0.3574072 -0.005365761
0003d0 d3 71 72 3f 01 b5 c2 3e 4b 01 61 bf 63 8d 9b 3c
       0.9470493 0.3802872 -0.878926 0.018988317
0003e0 fa 05 ed 3f ef db 9c be c3 f3 51 3f 3d 8f 5b bc
       1.8517449 -0.30636546 0.82012576 -0.01340085
0003f0 0f a0 7d 3e 65 8b 9a 3e 75 2f 99 bd 3d d1 92 bc
       0.24768089 0.30184475 -0.07479755 -0.017922038

fc1.bias f4 [128]
000000 38 96 7d bf aa 63 6c 3f 5b c5 0b bf c0 f4 30 3f
       -0.9905734 0.92339575 -0.54598016 0.6912346
000010 08 a3 1a 3f 0a 2a 4f 3f 49 5d bd 3d b1 9e 44 3f
       0.60405016 0.8092352 0.09246308 0.76804644
000020 47 68 d6 3f 42 c3 80 3f 03 d7 46 3f 38 a1 04 3f
       1.6750573 1.0059588 0.7767183 0.518085
000030 d9 c6 88 bf db 5e 42 bf 33 c2 10 be 30 18 7e 3f
       -1.0685683 -0.7592599 -0.14136581 0.9925566
000040 83 9d b1 3f 3c 94 bf bf 7c 1d 7a 3f a7 97 01 c0
       1.3876194 -1.4967113 0.9770124 -2.0248811
000050 09 f3 ef be e9 0c c8 3f 28 03 92 3f 57 dd 69 bf
       -0.4686511 1.562894 1.1407213 -0.9135336
000060 91 1e a1 bf 44 4b 23 3e 05 ed bc be 23 df c2 3f
       -1.2587453 0.1594668 -0.36899582 1.5224346
000070 2a 83 19 bf a6 99 07 bf 0d 05 d5 be e9 80 a5 3f
       -0.59965765 -0.52968824 -0.41605416 1.2929965
000080 05 c2 7f 3f b7 2e 03 3f d2 67 26 bf 96 be c7 be
       0.99905425 0.51243156 -0.6500217 -0.39012593
000090 58 0f fa be 5d 87 20 3f ed 89 5b 3f 76 a4 8d 3e
       -0.4883983 0.6270655 0.85757333 0.27664536
0000a0 62 38 9e 3d 12 0c 01 c0 66 f9 29 bf e9 1e 32 be
       0.07725598 -2.0163617 -0.66396177 -0.17394604
0000b0 06 a8 08 3f 6c e6 c9 3f 46 a2 43 3f aa f2 69 bf
       0.53381383 1.5773444 0.76419485 -0.913859
0000c0 e2 43 a7 3e f3 10 8c bf 78 56 e3 3e 88 94 ca 3f
       0.32668978 -1.0942672 0.44401908 1.5826578
0000d0 ff c1 67 3e be d7 f3 bf d4 4c c3 3f d3 fe 2c 3f
       0.22632597 -1.9050214 1.5257821 0.6757633
0000e0 68 a5 44 bf 75 1f 67 be 02 37 0a 3f 8d e7 89 3f
       -0.7681489 -0.22570594 0.53990185 1.0773789
0000f0 d9 8b 34 bf f1 f4 e4 bf 43 f5 a4 3e 92 82 47 3f
       -0.7052589 -1.788725 0.3221837 0.7793361
000100 92 7f 0c 3f 5f d3 d0 bf ce 8e 77 3e d4 b0 2e 3f
       0.54882157 -1.6314505 0.2417557 0.6823857
000110 bf fa e1 3f 3a db c1 3f 62 c1 dd 3e 5d 20 da bf
       1.7654647 1.5145028 0.43311602 -1.7041126
000120 9e 08 55 bf 08 fb 70 bf f1 8e e9 bf a4 96 8b 3f
       -0.83216274 -0.94133043 -1.8246747 1.0905347
000130 40 41 f6 bf d7 3b b1 3f f4 4f 92 bf aa 10 82 3f
       -1.9238663 1.3846387 -1.143065 1.0161335
000140 63 1d 2d bf 64 cf 6b 3f 33 df 11 be 56 38 61 3f
       -0.67622966 0.9211333 -0.142453 0.87976587
000150 cc b6 85 be 15 1e eb bf c0 d8 4d 3e a1 6d fc 3e
       -0.26116025 -1.8368555 0.20102215 0.4930239
000160 b4 11 93 3e 37 a3 79 3f 30 d4 33 bf fb 28 3f bf
       0.28724444 0.9751467 -0.7024565 -0.74671906
000170 70 c0 86 3f 77 4f 31 3f 48 79 cd be 62 dc a8 3c
       1.0527477 0.6926188 -0.40131593 0.0206129
000180 f0 d6 f3 3e 62 d2 60 3f 12 fe 98 bf 62 6b 9b bf
       0.47624922 0.8782102 -1.1952536 -1.2142146
000190 ae b8 f7 be db 4d d9 3f d6 cf 5e 3d 4a 68 9a bf
       -0.48383087 1.6976885 0.054397427 -1.2063076
0001a0 66 45 8e bf b2 d2 e7 3f 20 8c 17 3e 79 2a 87 3e
       -1.1114929 1.8111174 0.14799547 0.26399592
0001b0 ef ef b0 bf 8c 32 b6 3f 8d 16 81 3f bb 47 d1 be
       -1.3823222 1.4234176 1.0085007 -0.40875039
0001c0 25 81 bc 3d 0e 9f f9 bd 01 65 41 3d 79 80 62 3f
       0.0920432 -0.121885404 0.047215465 0.88477284
0001d0 e3 17 80 be 00 7d ae bf 9e 17 0f 3f ad e3 ce 3a
       -0.25018224 -1.3631897 0.5589541 0.0015784405
0001e0 fc ad a1 3f ad a7 91 bf 45 3e de bf e8 3a 3b 3f
       1.2631221 -1.1379296 -1.7362753 0.7313676
0001f0 eb ea 47 bf 66 1c ba bf f7 a2 3c 3f d6 b9 c2 bf
       -0.7809283 -1.4539917 0.73686165 -1.5212963

fc2.weight f4 [64, 128]
000000 9c 42 58 3d c3 dc 2c bd cc 5c bc bd 68 85 a3 be
       0.0527979 -0.042202722 -0.09197387 -0.31937718
000010 96 1b 89 bc 8c 28 70 3e a2 1b b9 be c0 69 a0 3b
       -0.016736787 0.23452967 -0.36153895 0.004895419
000020 dc 93 13 3f 65 e6 dd bb 2f 34 68 be be e0 c0 be
       0.5764749 -0.00677185 -0.22676156 -0.37671465
000030 6e d3 ac 3d 49 ee 08 be c0 02 45 3d 52 70 29 bf
       0.084387645 -0.13372149 0.048098326 -0.6618701
000040 65 a2 73 3d 87 47 b4 bc 32 09 eb 3d 3c 4f 48 3d
       0.059481043 -0.022006763 0.11476363 0.04890369
000050 f9 da de be 40 fe e5 bc 50 21 85 bc 20 40 25 be
       -0.43526438 -0.028075337 -0.016251236 -0.16137743
000060 94 ed 1e be bd 13 06 be 6e 85 d4 bd 2d d5 3d bd
       -0.15520316 -0.13093467 -0.10377012 -0.04634588
000070 3e ab 27 be d8 f9 b9 bd d6 25 ef bc 7d 9c 3f 3e
       -0.16373917 -0.09080857 -0.029192846 0.1871204
000080 b3 2f 7d bd dd 4f 55 be b2 bb 84 bc 57 ee 29 be
       -0.061813068 -0.20831247 -0.016202781 -0.16594826
000090 6e a4 10 bc 6e 9d 3c be 05 ec 2d 3e 9d 79 37 be
       -0.008828266 -0.1841943 0.16984566 -0.17917486
0000a0 e6 cf d7 be d5 9c fb bd f9 c2 a1 3e 18 81 dd 3d
       -0.421508 -0.12285773 0.31594065 0.10815638
0000b0 9d e2 c2 3d b1 52 3f 3e b3 63 cb be 8c 03 e5 3d
       0.09515879 0.18683888 -0.39724502 0.11182317
0000c0 17 8f c7 be 34 69 db be b9 1d af be 27 4a 63 be
       -0.38976356 -0.428537 -0.34202364 -0.22196256
0000d0 b8 4a a1 be fa ca 15 be 15 23 2e be a5 53 ff 3d
       -0.31502318 -0.1462821 -0.1700557 0.12467126
0000e0 53 c6 aa 3d 55 f8 16 3f ae 40 da 3e 1d e8 14 be
       0.083386086 0.58972675 0.42627472 -0.14541669
0000f0 78 75 c3 bd dc 7b 19 3d 0e c2 91 be bf 44 80 be
       -0.0954389 0.037471637 -0.28468364 -0.2505245
000100 7f f5 bc be 97 e7 f2 bd f5 f6 09 be db 81 f8 3d
       -0.3690605 -0.118605785 -0.13473113 0.12134143
000110 fd 1e b2 bd c6 d2 dc 3e 5d 17 03 be 5f 73 39 be
       -0.08697317 0.43129557 -0.12801881 -0.18110417
000120 53 bc 86 be 55 f8 f4 ba 83 78 8c 3b 8f e4 71 bd
       -0.26315555 -0.0018689731 0.004286827 -0.05905586
000130 98 6c 8c be 1e 32 23 bf b4 dd 44 3e b1 1e 9e bd
       -0.274266 -0.6374835 0.19225198 -0.07720698
000140 5f c6 39 be 88 64 fa be ce 92 ff be 0b 58 16 3e
       -0.18142079 -0.48904824 -0.4991669 0.14682023
000150 72 e7 91 bd 0e d3 80 be 78 7f 5b 3c 0d 29 d7 be
       -0.07124223 -0.25161022 0.01339709 -0.42023507
000160 91 9b 22 be 3a 35 3c bc 5c 19 e5 bd eb 9b cc bd
       -0.15879656 -0.0114873 -0.111864775 -0.099906765
000170 09 c7 19 bf 9d b7 d2 be 2d 4c 5c bd 7a cb 0e bd
       -0.6006933 -0.4115571 -0.053783584 -0.03486202
000180 61 d4 ca be 1f d0 81 bd e0 4d 4d bb bb 83 9b be
       -0.39615157 -0.06338524 -0.0031326935 -0.3037394
000190 c3 0e 52 be 60 e6 b2 3e e3 6b 2c be 3d 82 0b 3c
       -0.20513444 0.34941387 -0.1683803 0.008514938
0001a0 79 09 0d 3e 02 cb 98 bc 08 8d 09 3f ad ae 61 3e
       0.13773145 -0.01865149 0.5373082 0.2203929
0001b0 93 01 ff bd 50 73 53 bf 9e d2 97 3e ce 30 12 bd
       -0.12451472 -0.8259783 0.29652876 -0.035691075
0001c0 24 d9 c5 bd 78 4c 91 be 10 a9 3f 3e aa ab 36 3b
       -0.09660557 -0.28378654 0.18716836 0.0027873316
0001d0 d6 43 a3 be 80 f0 04 be 77 3a 22 be 62 2c 30 3b
       -0.31887692 -0.12982368 -0.15842615 0.0026881923
0001e0 08 00 dd 3d b4 10 5e bd e0 aa 4d be 08 f9 f2 3e
       0.107910216 -0.054215148 -0.20084715 0.4745562
0001f0 3d b7 8c 3d 21 41 42 be e2 fd b4 3e e6 09 8c bd
       0.068708874 -0.18970157 0.35349947 -0.068378255
000200 ba 61 cc 3e 3b ef 4d bc 8c 56 bc 3c eb 6d e1 bc
       0.3991831 -0.012569244 0.022990488 -0.027518233
000210 b1 d7 43 bf e7 ab 3a bd 2e c3 c2 3d a9 1d d1 3d
       -0.76500994 -0.045574095 0.09509884 0.10210735
000220 e3 6d 18 bf 04 7c 84 3e be a0 43 bd 31 d2 8f bd
       -0.59542674 0.25875866 -0.047760718 -0.07022513
000230 10 42 09 3c 88 94 26 3e 45 bc 88 3e b0 f7 06 be
       0.008377567 0.16267598 0.26706138 -0.13180423
000240 80 32 32 bf 27 74 82 3d 17 90 34 be b9 f5 28 bd
       -0.69608307 0.063698106 -0.17633091 -0.041249964
000250 1a 31 05 3e a4 55 14 bf b4 ad 2c bf a7 74 a8 bf
       0.13007012 -0.5794318 -0.6745255 -1.31606
000260 55 bc 42 3c cb fd e2 be ed c1 16 bd 6e e2 a8 bc
       0.011885722 -0.44334254 -0.036806036 -0.020615783
000270 ac 25 ae 3e ad 33 89 3e 64 d3 96 bc a4 39 5b bc
       0.34013116 0.26797238 -0.018411346 -0.013380442
000280 ab 57 c8 3d ba ae 18 bd a3 4b 93 3d 06 ae 16 bf
       0.09782346 -0.037276007 0.07192161 -0.5885929
000290 d9 0c 1b bd 04 4d f2 bd 3b 89 21 be b6 62 a0 3d
       -0.03785405 -0.11831096 -0.15775006 0.078313276
0002a0 6b 71 09 bd 10 8c f0 bd e4 dc 25 3d 41 8b 79 be
       -0.03355543 -0.11745465 0.04049386 -0.24369527
0002b0 49 60 b3 3d 6e 4f d9 bd a9 43 83 be b8 66 b6 3d
       0.08758599 -0.10610853 -0.25637558 0.08906311
0002c0 ce cb 88 3d a1 73 3e bb b6 60 54 be af 89 ba 3c
       0.06679498 -0.002906062 -0.20740017 0.02277073
0002d0 9b 4c e3 3d 0c b0 b5 3e cc 4e 14 be 79 d6 a7 3d
       0.11098596 0.35485876 -0.14483184 0.08195204
0002e0 c5 b8 52 3e 75 9d 77 bd b4 97 75 bd 64 92 01 3d
       0.20578296 -0.060452897 -0.05995913 0.03163375
0002f0 39 0c 30 3d a6 e2 66 be d5 33 a0 be e5 18 bf 3c
       0.042980406 -0.22547397 -0.31289545 0.0233273
000300 2a e8 cf bd b6 70 ec 3e ba 79 b8 bd d8 86 42 bf
       -0.10151704 0.46179742 -0.090075925 -0.75987005
000310 71 c9 4e be ae f2 17 bf 63 38 ee 3b 3b da 12 bd
       -0.20194031 -0.59354675 0.0072699054 -0.035852652
000320 83 2d b1 3d dc 8e 56 3d 63 e1 97 3e d0 b0 cd bd
       0.08651259 0.052382335 0.29664144 -0.1004349
000330 65 ed ac 3d 13 0d 89 bd b3 3f ce 3d 33 2a 2d 3d
       0.08443717 -0.06691947 0.100707434 0.042276572
000340 99 20 fc 3c 21 36 c1 be 21 7e b3 3d 6e 12 70 bf
       0.030777263 -0.3773661 0.087642916 -0.9377812
000350 1d bd 1a be de 76 6e bd 93 77 e4 bd 9c eb 8b 3c
       -0.15111203 -0.05821883 -0.111556195 0.01708012
000360 5e c3 8e bf 60 a7 23 be a4 29 a6 3e 8d 3c cc bb
       -1.1153371 -0.15981817 0.32453644 -0.006232804
000370 59 79 9e bc 37 9d 20 be 9b ab e8 bd 54 21 80 bd
       -0.019344972 -0.15684973 -0.11360856 -0.06256357
000380 9f 92 e4 3d 73 1c 62 be bd e6 b1 3c e2 64 80 bd
       0.11160778 -0.22081165 0.02171647 -0.06269242
000390 aa af 9a 3e 05 e9 9c be a8 97 08 3d 4b 2b 4a be
       0.30212146 -0.3064653 0.033347756 -0.19743077
0003a0 57 6d 2b be a5 0d e2 bf ca d2 d3 be 8b 36 5b 3e
       -0.16740929 -1.7660414 -0.41371757 0.21407525
0003b0 6e 9f 5a 3e 58 ca 44 bd ff 05 e8 bc 0b c7 5e bd
       0.2134988 -0.048044533 -0.028323172 -0.05438904
0003c0 56 9b 79 be 02 c7 4f bf b6 a5 af bd e6 a3 2c bd
       -0.24375662 -0.81163037 -0.08576529 -0.042148493
0003d0 3a 7b 90 3d 2c 57 14 be f6 48 0b 3e c5 cd 1f 3e
       0.070547536 -0.14486378 0.13602051 0.15605839
0003e0 97 97 3b bd 08 e3 e6 bc 07 33 3d 3e 07 51 74 be
       -0.045798864 -0.028184429 0.18476497 -0.23859034
0003f0 3d fa 08 3e da e6 1f 3e cc e1 7b bf 44 4f 37 3d
       0.13376708 0.15615407 -0.98391414 0.044753328

fc2.bias f4 [64]
000000 e0 50 60 3e 74 38 bb be a5 51 b4 be f9 54 d7 3e
       0.21905851 -0.36566508 -0.3521854 0.42057016
000010 3f 0b 93 be f2 d3 c1 3d fd 55 d5 3e 1c 37 ab be
       -0.28719518 0.094642535 0.41667166 -0.33440483
000020 7d 21 0b 3e 2d ea ab be 5a 09 bf 3d 73 15 61 be
       0.13586994 -0.335771 0.093279555 -0.21980838
000030 b5 f4 d3 3d f3 78 b0 be b3 e6 2c 3f 5b 39 e2 be
       0.103494085 -0.34467277 0.6753952 -0.44184384
000040 ae 41 7c 3e 18 4e b4 3e 12 99 fe 3e 77 3a 8f bd
       0.2463443 0.3521583 0.49726158 -0.06993573
000050 70 25 ff bd 80 8e 86 3f 3c 00 99 be 38 d2 a4 3e
       -0.124583125 1.0512238 -0.2988299 0.32191634
000060 e2 60 71 be 94 4f f2 3e fa ee e8 be 99 de 21 bf
       -0.23572114 0.47326338 -0.45494825 -0.6323028
000070 88 0b 2d bf 94 36 22 3f 8c 74 03 3e 8e 12 d5 bd
       -0.6759572 0.6336453 0.12837428 -0.1040393
000080 10 cb 4c bf c7 e3 9f 3d 66 bb e1 3e a4 eb b8 bd
       -0.7999735 0.07807117 0.44088286 -0.0902932
000090 ff 50 e8 bd 44 a0 08 3f 3b 4a 79 bf d5 50 bb 3e
       -0.11343574 0.53369546 -0.9737889 0.36585107
0000a0 53 d1 9f bc 04 b8 9d 3e fc e1 eb bd 14 34 1c bf
       -0.019508993 0.30804455 -0.115177125 -0.61016965
0000b0 51 74 07 be d3 45 3e 3f ac 40 36 3f 36 ef 38 3f
       -0.13227965 0.74325293 0.7119243 0.72240007
0000c0 ee 31 06 3f 42 4c 81 bf a7 a9 3a bf 15 ec 00 3e
       0.52419937 -1.0101397 -0.7291512 0.12590058
0000d0 8d bd 3d 3d 7c 70 61 be 17 7a 34 bf be 32 17 bf
       0.046323348 -0.22015566 -0.70498794 -0.590618
0000e0 f0 0a da 3e 87 0e 46 3f d3 a8 c3 3e 57 6e 8a 3e
       0.4258647 0.77365917 0.3821474 0.27037308
0000f0 10 be 8e bf c4 e2 86 3e 63 ba e1 3e 66 2e f3 3e
       -1.1151752 0.26344883 0.44087514 0.47496337

fc3.weight f4 [32, 64]
000000 5a 97 d6 bd c9 0f 96 be e0 00 8f 3e a0 3a d9 bd
       -0.10478087 -0.29308918 0.27930355 -0.10606885
000010 96 2f df 3d b4 42 13 bd e6 26 63 bd 95 90 9d 3c
       0.10897748 -0.035952285 -0.05545702 0.019233981
000020 2c aa c7 3d 7c 41 90 be c0 91 95 3d 73 5d ee 3d
       0.097492546 -0.2817496 0.0730319 0.11638918
000030 13 d0 c3 3e 70 2a 12 3e ae 55 a2 bd 04 87 d7 bd
       0.38244686 0.14274001 -0.07926498 -0.10523799
000040 bb 9e 61 be 08 41 cf be 36 4e 24 be 8f 57 53 bf
       -0.22033207 -0.40479302 -0.1604546 -0.8255548
000050 9b 97 26 bd 84 ea a4 be 48 80 16 3e 07 cf b5 3e
       -0.040671926 -0.3221017 0.14697373 0.35509512
000060 57 88 dc be 57 e9 a4 be ad 67 06 bd bd e3 33 3d
       -0.4307277 -0.32209274 -0.032813717 0.04391836
000070 3c 51 bd bd ee dc 48 3e 5e a1 19 3f 14 4b 81 3e
       -0.0924401 0.19615528 0.6001185 0.25252593
000080 25 cf 06 3e fb 0f 3f be c4 1b e6 be 02 78 a3 bf
       0.13164957 -0.1865844 -0.44943058 -1.2770998
000090 a6 76 b2 3b e7 b2 dd 3d 3c df 98 3d 92 c6 27 be
       0.005446273 0.108251385 0.074644536 -0.16384342
0000a0 17 c2 6a be 8a 9a 63 3d ff d5 f0 3e c7 86 6d be
       -0.22925602 0.0555673 0.47038266 -0.23195945
0000b0 a1 4a 79 3e 17 d9 9b be 10 84 db 3d 17 5e 61 be
       0.24344875 -0.30439064 0.10718548 -0.22008549
0000c0 4f 2e ec bd d6 57 58 be 15 6c 1f be 1b a3 46 3e
       -0.1153227 -0.21127257 -0.15568574 0.19398157
0000d0 a3 93 30 3f e0 24 37 be 77 24 8b 3d 92 f5 8c bd
       0.68975276 -0.1788516 0.067940645 -0.06882776
0000e0 24 55 68 be 6d 89 33 3e ee b9 e7 3e 28 89 af bc
       -0.22688729 0.17532893 0.4525904 -0.021427706
0000f0 dd 4a 0f be fc b4 c6 3d 1f 1c 08 3c cd 66 c1 bd
       -0.13993402 0.09702489 0.008307486 -0.09443436
000100 f5 82 82 3e 45 b3 7e be ca 7c af 3e 17 dc 05 bf
       0.25490537 -0.24873073 0.34274894 -0.52288955
000110 a4 d3 94 be 11 ef f0 3d 66 74 01 3e 08 61 61 3e
       -0.2906772 0.11764348 0.12642059 0.2200967
000120 48 af 96 3e d2 b0 d0 be 83 0c 42 bf 3a 85 0e 3e
       0.29430604 -0.40759903 -0.7580034 0.1391801
000130 ca 1e c6 3e 72 71 9f 3e 17 28 88 be 1c af 97 be
       0.38695365 0.3114124 -0.26593086 -0.29625785
000140 b8 0a 72 3e 14 42 7e be 69 aa 84 3b fa 0d 5e 3e
       0.23636901 -0.24829894 0.004048635 0.21685019
000150 d1 9e 85 be 60 3a 99 bc 00 5d b9 bd 05 9c 2c bf
       -0.2609773 -0.018704593 -0.090509415 -0.67425567
000160 e8 21 18 bc 8c f6 b3 be 47 a9 58 be 63 41 b4 bc
       -0.009285428 -0.35149038 -0.21158324 -0.022003835
000170 7c fd d9 be 97 13 9a 3e ae 56 3a be 37 e1 03 be
       -0.42576206 0.3009307 -0.18197128 -0.12878881
000180 d3 90 f1 bd 38 e4 33 be 37 1e a3 3e a0 55 3f 3d
       -0.11795201 -0.17567527 0.3185899 0.046712518
000190 cb 7a ac 3c 6d 5f 98 3d 5c 14 71 be c7 39 66 be
       0.021054646 0.07440076 -0.23542923 -0.22482978
0001a0 04 19 a9 bd a3 75 90 be 28 4f 1b 3e 4c c0 d5 3d
       -0.082567245 -0.2821475 0.15166914 0.10437068
0001b0 12 78 a2 3e 03 49 fb 3b 26 c0 27 bd 85 5a 9f be
       0.3173223 0.007668616 -0.04095473 -0.31123748
0001c0 99 b6 34 3f 87 3a 6c be 47 31 c3 bd 14 0e 7b be
       0.7059112 -0.23069201 -0.09530883 -0.24517089
0001d0 db 78 b4 3d 16 6d 88 3e 6b b5 5e bf 9f a4 d5 be
       0.08812114 0.26645726 -0.8699557 -0.41727158
0001e0 ce 8d 1f 3e 0a 56 5c 3e 74 fa 21 be eb 02 95 3d
       0.15581438 0.21517196 -0.15818197 0.07275947
0001f0 12 56 ef 3c 2b 86 8e be f3 7b 18 bc 24 b5 98 3d
       0.029215846 -0.27836737 -0.009306896 0.07456425
000200 f4 27 02 bf 0e 3c ac bd b7 e2 44 3e 83 2f ed bd
       -0.50842214 -0.08409892 0.1922711 -0.11581328
000210 3a af 0c 3e 88 f1 39 be 05 38 52 bd a3 ef 3b 3d
       0.13738719 -0.18158543 -0.051322956 0.045882832
000220 da 6c 3c 3e c3 5c ba be 30 88 81 bd 52 bc dc be
       0.18400899 -0.36398897 -0.06324804 -0.43112427
000230 4e 49 0f 3e f5 80 a6 bc 62 50 30 be 9b ed 68 bd
       0.13992807 -0.020325163 -0.17218164 -0.056867223
000240 9b 66 99 be ca e6 71 bf 59 7d 44 bd 57 13 86 bd
       -0.29961094 -0.9449278 -0.047971103 -0.065466575
000250 58 cc c6 bb 3a 4c 62 3e bb 95 58 be 84 ae c0 3d
       -0.00606684 0.2209939 -0.21150868 0.09408286
000260 bb 34 2a bc 8b 8b ab bd 81 76 6f 3d 06 1d 7f bd
       -0.0103885485 -0.08376225 0.058462624 -0.06228354
000270 57 90 11 be b2 41 ee 3e f9 d2 f9 bd 97 df 1f 3c
       -0.14215218 0.46534497 -0.12198443 0.009757898
000280 aa 9c c4 bd 5a de 53 bd 8f 0c b6 be e7 3f 38 bf
       -0.09600194 -0.051725723 -0.35556456 -0.7197251
000290 b3 dd a6 3c c4 fe cd 3d 3b 4f 41 be 71 cd 82 bd
       0.020369386 0.10058358 -0.1887788 -0.06386841
0002a0 8b c2 06 be bf 40 5e bd 43 b6 ef 3d 74 77 97 bb
       -0.1316015 -0.054260965 0.117046855 -0.004622394
0002b0 47 12 50 3d da 89 6e c0 86 88 a5 3d 45 d5 5b be
       0.05079868 -3.7271638 0.080826804 -0.21468075
0002c0 42 54 0b 3d cb b3 49 be 05 44 ff bd af 2f 0e 3e
       0.0340159 -0.19697492 -0.124641456 0.13885377
0002d0 0d c6 b2 3e 26 00 d2 be 27 71 06 bd d5 75 9e be
       0.34916726 -0.41015738 -0.032822754 -0.30949274
0002e0 84 b1 f5 be 5f 83 3c 3f 85 a7 a6 be 93 68 59 3d
       -0.47986996 0.73637956 -0.32549682 0.053078245
0002f0 95 83 a1 bd b6 d4 9e be b0 9a 11 bf 5d ce 27 3e
       -0.078864254 -0.3102166 -0.5687666 0.16387315
000300 bc 0b 22 bf af 1c 5e be 47 1c ab 3e 4b 25 c1 be
       -0.63299155 -0.2169063 0.3342001 -0.37723765
000310 f3 96 c8 be c2 ad a0 be 2b 10 25 be 11 d9 80 3e
       -0.39177665 -0.31382567 -0.16119449 0.2516561
000320 f7 8d ec 3d 60 c4 92 3d dd 90 b6 3d 7b e2 60 3e
       0.11550515 0.07166362 0.08914349 0.21961395
000330 79 b8 87 be 25 19 12 be 75 82 72 3b 22 90 d8 bd
       -0.2650793 -0.14267404 0.0037004028 -0.10574366
000340 81 00 d1 bd 86 67 34 3d 34 06 d1 be 4e ae 97 bd
       -0.10205174 0.04404404 -0.40825045 -0.07406293
000350 96 9a 87 bc cb 2c 71 3e 87 e5 43 3d cb e6 bd be
       -0.016553205 0.23552243 0.047826316 -0.37090144
000360 e5 6f 8a bc 34 fd 82 3d 5b b5 ca bd 1b ac 37 3e
       -0.016899059 0.06395951 -0.09897872 0.17936747
000370 34 9a 62 bc b1 98 76 be 69 19 b7 3c cb 48 40 bf
       -0.01383071 -0.24081685 0.022350984 -0.75111073
000380 e2 b7 2c 3e b7 fa dc 3d 7b 2a 60 bd c8 5f 97 3e
       0.1686702 0.107900076 -0.054728013 0.29565263
000390 7c b0 e6 3d da 7e 35 be 44 4c 14 3e 59 4a 94 3e
       0.112641305 -0.17724171 0.14482218 0.28962973
0003a0 38 aa 79 be dc 98 dc be 7d c7 c5 bd 40 6a d5 3c
       -0.2438134 -0.43085372 -0.0965719 0.02605164
0003b0 56 a5 45 be 35 93 51 3d 5f 40 82 be b4 56 a2 be
       -0.19301352 0.05116578 -0.25439736 -0.31706774
0003c0 32 b9 4e bf 28 65 7a be 82 58 44 3e c4 a8 1b 3d
       -0.80751336 -0.2445265 0.19174388 0.038002744
0003d0 ac 47 97 3e 23 bf 67 3d a6 1f 1d 3c dc e5 60 be
       0.2954687 0.056578767 0.009590065 -0.21962684
0003e0 92 20 61 3e 32 cc 2a 3e ce 69 79 3e 3f 46 80 bd
       0.21985081 0.16679457 0.24356768 -0.062633984
0003f0 af 8f a4 3e 42 b0 ea bd 64 a5 f8 3e 10 c3 d6 3d
       0.32140872 -0.114594 0.48563683 0.10486424

fc3.bias f4 [32]
000000 81 f2 e1 3e d4 e6 28 3d 19 ac 34 3f 7d 0f 1a 3e
       0.44130328 0.04123576 0.705751 0.15044971
000010 69 6a ce be 05 6d 59 3e 1d e8 0d 3e ce 48 a8 3e
       -0.4031556 0.21232994 0.13858075 0.32868046
000020 a6 27 b0 be 44 5b 94 be 78 db b7 3e 08 2f 30 3e
       -0.3440525 -0.2897588 0.3590963 0.17205441
000030 15 fe d6 bd 8b ac e2 3c a3 60 aa be f2 94 cb 3e
       -0.10497681 0.027670166 -0.33276853 0.39762074
000040 25 7e ec bd 28 de 30 3e 7b 97 2b bf bf f5 66 3e
       -0.11547498 0.17272246 -0.67028016 0.22554682
000050 73 ad 31 3e dc 0a 5b be 16 00 d8 3d ec 93 b5 be
       0.17351322 -0.21390861 0.105468914 -0.35464418
000060 9e 3a 99 3e 29 86 4f be 6d 0d bb 3e db 9b 66 3e
       0.29927534 -0.20266022 0.3653368 0.22520392
000070 64 41 cc 3e dc 94 17 be b0 a0 8b 3e 63 bb 66 3d
       0.3989364 -0.14802879 0.27271032 0.05633105

fc_mu.weight f4 [2, 32]
000000 1a a0 fa be 8d da 61 bc 4c 24 a9 bf 8b 76 23 3e
       -0.48950273 -0.013785017 -1.3214202 0.1596319
000010 17 77 ef 3e 16 63 58 3e 2c 82 ab 3e c0 62 63 3f
       0.46770546 0.21131548 0.3349775 0.88822556
000020 91 16 9e 3e a2 0a c2 3e 86 b6 56 bd 5b ed 3f 3f
       0.30876592 0.37898737 -0.05242016 0.7497155
000030 3e f8 c5 bd da 28 f6 be 1f 1e 0c 3e 27 75 c1 be
       -0.09666489 -0.48078042 0.13683365 -0.37784693
000040 d2 df b2 be 05 ec 02 bf e7 55 f8 be 78 75 4c be
       -0.34936386 -0.5114139 -0.48503038 -0.19966686
000050 00 af ea 3e b6 f8 de be 75 89 cb 3e 95 c7 82 bd
       0.4583664 -0.43549126 0.3975331 -0.063857235
000060 71 ea f0 3d 3f 7b 79 be db 45 af bb c7 a5 a4 3d
       0.11763466 -0.24363421 -0.0053489036 0.08039432
000070 ce f5 b3 3e 24 27 18 bf db 41 cf 3f 25 73 8a be
       0.35148472 -0.59434724 1.6191972 -0.27040973
000080 fe 7d 1e 3d 8f a6 15 3f fe 82 0e bf 2c d4 4f 3e
       0.038694374 0.58457273 -0.5566863 0.20295781
000090 b2 7c 63 be ed c6 74 be 24 79 05 3e 72 ae 26 3e
       -0.22215536 -0.23904009 0.13034493 0.16277483
0000a0 14 2d 4e 3e 82 1f 2c 3e a0 8f 18 bf 22 79 6d 3c
       0.20134383 0.16808894 -0.59594154 0.014494212
0000b0 b5 9c 82 be db a7 3b be ae 3c 87 3f af 6b ac bb
       -0.25510183 -0.1832575 1.0565393 -0.0052618603
0000c0 ed 23 fb bc dd cb 73 be 46 35 02 3e 74 a9 a3 be
       -0.03065678 -0.23808236 0.12715635 -0.3196522
0000d0 f9 ca 0e bf 67 f3 dd 3d e6 51 38 be 63 b3 47 3f
       -0.5577846 0.10837441 -0.17999992 0.780081
0000e0 b6 d6 55 3f 09 1e ad bd 1c ab 1d 3f e1 23 a2 3c
       0.8353075 -0.084529944 0.6158922 0.019792499
0000f0 55 fa b6 be 4d 09 35 be 4a a6 01 3f 61 30 5e 3e
       -0.35737863 -0.17679329 0.5064436 0.21698143

fc_mu.bias f4 [2]
000000 1a f6 58 bc 49 63 bf 3d
       -0.013242269 0.09345109

fc_std.weight f4 [2, 32]
000000 e7 75 f7 bd c5 0e e5 3d 1d 3e 0a 3e a9 d0 be bd
       -0.12083035 0.11184458 0.13500257 -0.093171425
000010 f5 e1 87 3c ff ea e0 3e c4 6e 73 3e 0e 4e f7 3e
       0.016587237 0.43929288 0.23772722 0.48301739
000020 ad df 89 3f c6 be 12 be df d4 2e be 3d 5a 11 be
       1.0771385 -0.14330587 -0.17073391 -0.1419458
000030 4a 3b c8 3c 69 25 01 3d 3a 42 b1 bb a2 b6 75 3e
       0.024442334 0.031529818 -0.005409506 0.2399545
000040 4f ae 63 3d d7 0a 32 3e 9d 7d 19 bd ca 8a 91 be
       0.055586156 0.17386948 -0.03747331 -0.284262
000050 c8 ae 26 be 81 39 b1 be f7 e4 90 3e ae cf 81 be
       -0.16277611 -0.34614184 0.28299686 -0.2535376
000060 1c 04 ba 3d f2 0a 5b 3e 4a f2 00 3e 26 ff 83 be
       0.09082815 0.21390894 0.12592426 -0.257806
000070 82 47 ab bd e0 47 fa bd 04 78 47 3e e9 be 93 bc
       -0.083632484 -0.1222074 0.19479376 -0.018035369
000080 f8 ec 09 3c f7 89 85 3d cf a7 f2 3d 7f 96 62 3b
       0.008418314 0.06520455 0.11848413 0.0034574566
000090 3a ce 8e bd d3 e9 b4 3d 8c a4 b3 bd 73 0f 26 bd
       -0.06972928 0.08833661 -0.08771619 -0.040542077
0000a0 8e a5 76 3f e0 63 06 bd 05 a1 0c 3e 2f d3 9b 3a
       0.96346366 -0.032810092 0.13733299 0.0011888499
0000b0 2e 9b 89 bd 15 49 6e 3d d9 8b a0 bd 54 0f 26 bd
       -0.06719051 0.058175165 -0.07839174 -0.04054196
0000c0 97 30 64 3d 64 10 f6 3b 76 2f ff bd ea 84 54 3d
       0.0557104 0.007509278 -0.12460224 0.05188457
0000d0 12 1a 51 3c 8e 6e b1 3d a7 70 d3 3d 2c 9e a2 bd
       0.012762563 0.08663665 0.10324221 -0.07940325
0000e0 9e f8 6d 3d dd 41 9d ba 06 af 92 3d 79 69 dd 3d
       0.058098428 -0.0011997778 0.07162289 0.10811133
0000f0 60 12 19 bd c1 5f 4a bd 90 b8 b0 3d 77 a2 21 3e
       -0.03737104 -0.049407724 0.086289525 0.15784632

fc_std.bias f4 [2]
000000 09 c4 b1 be c4 af 89 bd
       -0.34719875 -0.06722978
