myrobot/src/SAC/saved_model/1216_2_actions_timereward/sac_actor_1216_2_actions_timereward_EP422.pt (torch, 47894 bytes, 10 tensors)

fc1.weight f4 [128, 4]
00000000: 2047 acbf acdd 3838 650a 27bf 459a 763c
00000010: 5236 fbbd e356 ec3e af7d e0bf 8dce 2ebd
00000020: 5fd7 16bf f570 2c3f 7d32 463e 564b 7ebc
00000030: df8c 763f e109 aa3e a455 3ebf 9523 3cbc
00000040: 0dcc 5e3f f9c5 223e c327 ecbf b35a be3b
00000050: f82d b3be e58c 14be 7936 05c0 9895 8e3c
00000060: 9f4c aa3f 47d5 b53e 9511 1b3e c23d a3bc
00000070: cd9e 3cbb b3be 443e 76b4 a4be 7ac3 2abc
00000080: 06bc e5be b5de 3bbd 690c 06c0 ce4b 793a
00000090: 1998 9fbf 5951 d4bd 0fd2 e6be ddb2 49bb
000000a0: 4ff8 873d 06bc b23e c2d7 0e3f 2ef2 04bd
000000b0: eb03 a3be a438 1dc0 cc00 d33e 7733 9a3b
000000c0: 4223 50bf 86fd f63c 279e 47bd 2ef4 303c
000000d0: 316c 6b3f 1e35 9e3e 47b7 05bf da56 79bc
000000e0: 9ba5 10c0 395b b1be 7af3 b33e 4d7a 993c
000000f0: 8011 86be 3d3a d5bf ac89 1c3b edab 273a
00000100: 54e4 23bf eb61 06be f2cf c5bd b1d8 b2bc
00000110: 9f3c 283f b10b 92bd 0827 d83e f730 0a3b
00000120: b283 fd3f 9d61 4abf 9c5b be3d 014d 0a3b
00000130: 149c 82bf a98a 84be b9bc a9bf 23e5 233d
00000140: 534a f2be 7e89 a8bf c0af de3e 8b1d e6bb
00000150: 702d 9c3f 875d fabe 1457 1cbf 08fa 193c
00000160: 814a cd3f 2b0a 07bf 1b48 40bf 045a 8b3c
00000170: 74cb 963f 4cdb 053e b553 6bbf 9efb 2f3b
00000180: 94a1 8bbf bb9e cd3c 22cf ef3d 6f8e 983d
00000190: fead 72bf 7ee6 69be 28a0 b73f 6d58 273c
000001a0: 58ed b5bf 1bad 73be b142 e7bf b455 4f3c
000001b0: 9298 d93f 4df0 bf3e 123b f5bd 5c5f b4bc
000001c0: 0d6b a0bf 6978 57bb 7fa6 093f 2b76 2e3c
000001d0: be1a 27bf ff94 903d f708 df3e 7589 f5bd
000001e0: 465f 163e 75c1 b83e edd0 6ebf c497 733c
000001f0: 5fc0 c6bf f926 ef3e 70ab 2cbf 8bd1 1ebc
00000200: 7368 463f c09c 8cbd 258b a03d d11a 04bc
00000210: 7100 a2bf 21b2 703e 2d47 633f 167b 00bd
00000220: ad0e bfbe 1e33 8c3e cfee 113e 1e22 aebb
00000230: eaf8 123e 8e03 953e 297f 9abf cc21 febc
00000240: e296 0540 7532 a03e 4363 553e 18d1 cebc
00000250: 6669 b53e bde4 863e 6ffa 683d 6664 04be
00000260: 6c36 943e 01b1 85bf 3531 b6bf dd63 013d
00000270: f275 123e bbf3 9c3e 35c1 6ebf bcfe 36bd
00000280: e288 9f3f e938 0a3f 65a8 743d d28d 09bd
00000290: d331 c93f 69f5 afbe 83b8 e23e 97c5 113c
000002a0: 70a1 37bf 5dc0 b33e c6d1 21bf 09ce 66bd
000002b0: 68f0 2e3e 0acf 383e 3287 bfbf 9e6f 893c
000002c0: 22a2 dbbf 7670 533e 24d6 2dbf 4948 553c
000002d0: 126c 503e 083c 28bf 7d54 36bd 58e6 5cbc
000002e0: e0d4 5c3f b048 d4bf f329 373e be18 3b3b
000002f0: 9c30 ebbf 450a dabd 89d4 df3d 7618 9e3c
00000300: ffc8 a33f 319f cd3e 5fd1 3cbe 1db1 d4bc
00000310: 725f 3b3f b3d0 0e3f 6c01 cabf 6533 063b
00000320: 2510 a43f 1329 d9bf 3311 8c3e bb7d 6f3b
00000330: cf46 bf3e 8fa5 133e b70a 203e 22d1 6ebc
00000340: 7b59 93bf cc51 f4bf 796b 983e a583 5c3c
00000350: eb7b 47bf e171 c83d a11a 123e 2f3e 733c
00000360: 14f7 b93f 6818 cc3c 3cf3 47bf 02eb ddbb
00000370: 443c e9be 2387 6f3c 4778 7abd 0753 ffbd
00000380: 68d4 82bf 59c2 ea3d 5111 d53d 70f0 e2bb
00000390: dd3e 0bbf 4e44 9dbe e6c4 38c0 e714 d43c
000003a0: 503f 363f c6ef e43e eff2 e3bf 667f 94bb
000003b0: 9646 24c0 e6d0 07bc b2c2 c9be 289d 54b8
000003c0: beca 1c3f b002 0fbe 5ac6 b13e 629c 47bb
000003d0: 414a 763f 2c66 c83e bf16 67bf a416 af3c
000003e0: 91ff f23f 17b9 97be f770 533f 5498 62bc
000003f0: 105b 7e3e c11a 9a3e e235 a0bd 02dc c4bc
-1.3459206 4.4075467e-05 -0.65250236 0.015051429 -0.1226622 0.4616004 -1.7538356 -0.04267745
-0.5892238 0.6735986 0.19355197 -0.015520891 0.963087 0.33210662 -0.7434943 -0.011483093
0.87030107 0.15895833 -1.8449634 0.005809152 -0.3499601 -0.14506872 -2.0814497 0.017405316
1.3304633 0.3551428 0.15143426 -0.01992691 -0.0028781176 0.19213371 -0.3216893 -0.010422582
-0.44870013 -0.045866687 -2.0945075 0.0009509892 -1.2468292 -0.10367078 -0.45082137 -0.0030776777
0.06639158 0.34909075 0.5579797 -0.032457523 -0.31838927 -2.456582 0.41211545 0.004705842
-0.813038 0.030150186 -0.04873481 0.0108004045 0.9196196 0.308999 -0.52232784 -0.015218461
-2.2601078 -0.3463991 0.35146695 0.018735075 -0.26185226 -1.6658398 0.002388577 0.00063961634
-0.64020276 -0.1312329 -0.09658803 -0.021831842 0.657175 -0.07131136 0.42217278 0.0021086314
1.9805815 -0.79055196 0.09294817 0.0021103027 -1.0203881 -0.2588704 -1.3260719 0.040013444
-0.4732233 -1.3166959 0.43493462 -0.0070225648 1.2201366 -0.4889948 -0.6107037 0.009397991
1.6038362 -0.5274989 -0.75110024 0.017010696 1.1780839 0.13071936 -0.919246 0.0026852856
-1.0908685 0.025100103 0.11709429 0.07449042 -0.9479674 -0.22841832 1.4345751 0.010213953
-1.4213057 -0.23796503 -1.8067228 0.012654711 1.6999686 0.37488022 -0.119741574 -0.022018127
-1.2532669 -0.0032878167 0.5376968 0.010648291 -0.6527518 0.07059669 0.43561527 -0.119891085
0.14684781 0.36085096 -0.93287545 0.014867727 -1.5527457 0.4670942 -0.6744909 -0.009693514
0.77503127 -0.06865835 0.0783904 -0.008063034 -1.2656385 0.23505451 0.8878048 -0.031367384
-0.37315884 0.2738275 0.14251254 -0.0053141257 0.14352766 0.29104275 -1.2070056 -0.031021975
2.0873342 0.31288496 0.20838647 -0.025246188 0.35431975 0.26346388 0.056879457 -0.12928924
0.2894777 -1.0444642 -1.4233767 0.031589378 0.14302805 0.30654702 -0.9326356 -0.044676527
1.2463648 0.5399309 0.059730906 -0.033582516 1.571833 -0.3436692 0.44281396 0.008897207
-0.7173071 0.351077 -0.63210714 -0.056348834 0.17083895 0.18047729 -1.4963133 0.016776856
-1.7158854 0.20648369 -0.6790488 0.013017722 0.20353726 -0.657166 -0.044514168 -0.013482653
0.8626232 -1.6584682 0.17887096 0.0028548683 -1.837421 -0.1064649 0.1092921 0.019298773
1.2795714 0.40160516 -0.18439244 -0.02596336 0.73192513 0.557872 -1.5781684 0.002047741
1.2817427 -1.696566 0.27356872 0.0036543447 0.3735871 0.14418624 0.15629087 -0.014576228
-1.1511682 -1.9087462 0.29769495 0.013459121 -0.7792346 0.09787346 0.1426797 0.014846369
1.4528527 0.024913982 -0.7810552 -0.0067724 -0.45553792 0.014619621 -0.06114986 -0.12467008
-1.0221071 0.1146285 0.104036935 -0.006925635 -0.54392797 -0.30716175 -2.8870177 0.025888873
0.7119036 0.44714183 -1.7808512 -0.0045317886 -2.5668082 -0.008289551 -0.39406353 -5.0691102e-05
0.6124686 -0.13965869 0.34721643 -0.0030458202 0.9620705 0.3914045 -0.9026908 0.0213731
1.8984243 -0.296334 0.82594246 -0.013830263 0.24839425 0.30098537 -0.07822777 -0.02403069

fc1.bias f4 [128]
00000000: 587e 82bf f0cb 5f3f 1779 0fbf 68f5 3b3f
00000010: 5b54 233f b298 563f f610 b43d 7fb3 413f
00000020: b2d2 d83f 1fbc 783f 7f33 453f 4967 093f
00000030: 0c90 8ebf fe0e 4cbf 77c5 31be e78d 7f3f
00000040: e274 b23f 89c3 bfbf fe42 7d3f a7a5 02c0
00000050: 1199 f5be d0d3 c83f 166a 943f badb 69bf
00000060: f00a a6bf 5354 173e c42b d1be 8358 c33f
00000070: 19c1 1fbf 1129 05bf 9992 d5be 78d5 a73f
00000080: 90db 813f feab 043f ffb6 24bf 2879 d2be
00000090: 4b09 d7be fa2d 1f3f e49e 613f fdf2 883e
000000a0: ec3f 013e 9683 ffbf 39ef 28bf b8f0 2ebe
000000b0: a2c8 063f 1ad0 c93f 43f6 473f db12 74bf
000000c0: 81a6 c13e 597b 90bf 7a5b de3e 5851 cc3f
000000d0: 2745 763e f8a7 f5bf d37a c33f 0dcc 343f
000000e0: 1d10 40bf 20ab 63be 25c1 113f 071e 853f
000000f0: eb33 35bf e431 e5bf 8379 a73e 5d6c 4b3f
00000100: 4d12 103f 6b06 d5bf 53b6 893e 9681 293f
00000110: 2b19 e53f 78e5 c43f 13aa de3e e94f dfbf
00000120: 9e60 5dbf e009 78bf 5e40 ecbf f80c 903f
00000130: a752 f9bf 4dde b03f 38f7 96bf 088a 7b3f
00000140: 6e5d 2dbf bdad 6b3f 3f55 2dbe 62f0 5c3f
00000150: ac04 91be cc6b eebf 1c0a 573e 2c7b fc3e
00000160: f399 a23e d897 793f 3006 34bf 4490 4fbf
00000170: cfac 873f 4e0a 3c3f 5ff0 bebe 60ce 3d3d
00000180: 3696 073f 8784 633f 3655 9fbf c02a 9abf
00000190: 8c72 f9be d94d dd3f d9f7 643d ae9f 9cbf
000001a0: 813f 92bf bf91 eb3f 20da 173e 8705 663e
000001b0: 35c9 b3bf 4848 b63f cbc8 833f 6996 dcbe
000001c0: 2717 cc3d bd4a b2bd 2e70 183d 9f18 693f
000001d0: 1953 92be 8e67 b4bf 1a35 163f 5d8d 38bb
000001e0: 26a8 a03f 6c84 95bf 161c e3bf 3fbd 473f
000001f0: e8ff 49bf 5545 c0bf 1393 443f fa84 c3bf
-1.0194807 0.8742056 -0.56044143 0.73421335 0.6380059 0.83826745 0.087922975 0.75664514
1.6939299 0.9716205 0.770317 0.53673226 -1.113771 -0.79710376 -0.17360483 0.998259
1.394192 -1.4981548 0.98930347 -2.0413606 -0.47968343 1.568964 1.1594875 -0.913509
-1.2972088 0.14778261 -0.40853703 1.5261387 -0.6240402 -0.5201579 -0.41713408 1.311202
1.014513 0.5182494 -0.6434173 -0.4110806 -0.41999277 0.6217953 0.8813307 0.26747885
0.1262204 -1.9962032 -0.65990025 -0.17084014 0.5264989 1.5766633 0.7811014 -0.9534127
0.37822345 -1.1287643 0.43429166 1.5962324 0.24049817 -1.9191885 1.5271858 0.70623857
-0.75024587 -0.22233248 0.5693534 1.0399789 -0.70782346 -1.790585 0.32709894 0.79462224
0.56277925 -1.6642584 0.26896915 0.6621336 1.7898306 1.5382528 0.4348913 -1.7446262
-0.8647555 -0.9689007 -1.8457143 1.1253958 -1.9478348 1.3817841 -1.1794195 0.98257494
-0.6772069 0.9206198 -0.1692705 0.86304295 -0.28323877 -1.8626647 0.2099995 0.49312723
0.3175808 0.9749732 -0.7032194 -0.81079507 1.0599612 0.73453224 -0.37292764 0.046339393
0.5296358 0.88874096 -1.2447879 -1.2044296 -0.48720205 1.7289382 0.05590043 -1.223623
-1.142563 1.8403853 0.14829302 0.22463046 -1.4045779 1.4240808 1.0295652 -0.43083504
0.099653535 -0.087056614 0.037216358 0.91053194 -0.28579023 -1.4094102 0.58674777 -0.002816043
1.2551315 -1.1681037 -1.7742946 0.7802314 -0.78906107 -1.5021158 0.7678692 -1.5274956

fc2.weight f4 [64, 128]
00000000: 9407 903d 57c9 b5bc 63b9 97bd d2c9 b6be
00000010: 946e 96bd 64c9 673e 3e27 b3be 2326 b83b
00000020: 65d3 0f3f 5704 12bc 062f 6bbe 52cb bcbe
00000030: 29f8 c43d 1830 03be f5dc 2b3d 1199 28bf
00000040: 09d1 113d 5e42 193c f64d a33d 0865 5c3d
00000050: b8c8 cfbe 7d2c 9cbd bd67 3fbd 8f85 07be
00000060: 4d07 25be 82d8 0ebe 0f33 bebd fceb 74bd
00000070: dce1 26be 2977 dfbd d17f 36bd c1ba 433e
00000080: da9d efbd 75b8 61be e2a2 0abc b40c 12be
00000090: f7e8 693c 4777 20be 409e 183e 5fb7 0bbe
000000a0: f1fa ccbe 86c1 00be 9c52 a53e 6884 b63d
000000b0: 2c96 c33d 5986 273e 97c7 d2be 9c72 f23d
000000c0: 3991 c2be 5933 c7be 1a20 b1be a678 74be
000000d0: 0cf8 89be 5822 e2bd d826 73be 2791 dc3d
000000e0: 724e 973d 9df7 173f 9553 de3e e02c 15be
000000f0: cbda b3bd dbd3 253c 94ca 86be 86aa 81be
00000100: de8a b4be ee3c f2bd cbce d9bd b951 c63d
00000110: 3bb4 0abe 6021 d23e 8f28 d3bd 45d7 3fbe
00000120: 19dd 62be 22d8 e83a 4be2 6fbb 28d1 8ebd
00000130: 1aa5 76be 4dd2 1cbf dfe4 5a3e ec15 96bd
00000140: 43f3 28be 4f55 0bbf 8553 f4be 2cc0 013e
00000150: d0fb ccbd 7146 86be f8df 543c c8cb d0be
00000160: 70c1 20be dd4b e8bc 6778 e4bd e70d afbd
00000170: 00de 1ebf da12 d4be 8502 4abd ddc0 9b3b
00000180: cf21 b7be a802 d6bd ef3b 16bc 7913 9bbe
00000190: 1532 5dbe 7709 ac3e 526b 25be cc05 603d
000001a0: 5749 123e 0bae 25bd a658 0d3f 7bcc 5b3e
000001b0: 14e2 76bd 6d43 56bf 6908 863e 52b2 78bd
000001c0: 7ebe 09be 536c 92be 89aa 3f3e 2fcf bebb
000001d0: dcd4 a8be 35d4 b6bd 00c7 21be a7ae 7f3c
000001e0: 1118 c53d a193 5cbd eeb5 43be de19 e53e
000001f0: 08cd c53d 0282 71be a634 b23e 7dfd c6bd
00000200: e472 cc3e bcdc 41bc 98cd c23c ad5e 09bd
00000210: 7611 47bf c558 8c3c 330d c43d 5fb9 c83d
00000220: fcfe 15bf 89b6 833e 444c 51bd 67aa 01be
00000230: 10cc e43c 5c01 503e 504c 883e 0ae2 1dbe
00000240: e792 31bf 2212 993c b0e2 60be acb6 7ebd
00000250: 9035 ae3d 2ec8 17bf a9c1 32bf e3dc a8bf
00000260: 1e93 76bc f3e3 f0be dcb5 223c b803 93bc
00000270: 011b a63e d8eb 6c3e 196b 09bd f27b 55bc
00000280: c7de 2c3d 9a21 26bd dde0 8b3d 313b 10bf
00000290: ee3d 0dbc 5965 b7bd 89bc 08be 8a79 d13d
000002a0: 3b29 0fbd 26d2 1dbe 287c 793d e4a9 8bbe
000002b0: e11e ad3d a421 28be 3210 8dbe aaf5 ae3d
000002c0: 10b4 933d 2ac5 c6bb 7187 64be 9e15 593c
000002d0: 7e75 5b3d 16f0 bc3e 4aec 12be f7db c23d
000002e0: b9a1 543e 15f4 ed3c 0963 83bd da02 143d
000002f0: 1ca5 8b3b 0e1e 81be 4e99 bfbe 5c20 a63c
00000300: 54dd 08be 7f87 e73e 73fe 1ebe 8a06 2ebf
00000310: e5c4 50be fc4b 17bf 00ce b73b 37a0 9abd
00000320: 06e2 273d a968 4d3d dcee 9f3e e6fd cfbd
00000330: 4a49 ac3d a510 9cbd 9350 e13d 011a 0d3d
00000340: ef1c e63c 5eb3 d6be 68c3 993d 0395 5abf
00000350: 69e7 c4bd 4c47 a4bd e34c 8fbd 9dba d43c
00000360: 2627 8fbf 3123 34be 426e a43e ecba 903c
00000370: 2cbe cfbc f3be 38be 3c87 c2bd d609 8abd
00000380: fd41 ec3d 1d65 8bbe 8daf ac3c a6dc b7bd
00000390: b2ce 9b3e 05c5 b1be 46b5 843c 7df6 24be
000003a0: 3ff3 2dbe 5b10 e8bf 538d c7be 96e9 563e
000003b0: 80d5 593e 7c79 87bd bc4b 82bd 6f1a f1bd
000003c0: 0349 96be f8a2 63bf 9a42 febd c94c d6bc
000003d0: fc8c 993d d0d7 16be e4ea d83d 9aa3 1c3e
000003e0: a54e ffbc 77fa 23bd 7f69 3d3e 891d 69be
000003f0: 852a 083e db42 933d 6a03 6dbf 5329 873c
0.070326954 -0.022190733 -0.074084066 -0.35700852 -0.0734531 0.22635418 -0.34990877 0.0056197806
0.5618194 -0.0089121675 -0.22967157 -0.3687387 0.09617645 -0.12811315 0.041958768 -0.6585856
0.035599742 0.009354202 0.07973854 0.05380729 -0.40582824 -0.07625673 -0.046729792 -0.13234542
-0.16116066 -0.13949779 -0.092870824 -0.059795365 -0.16297096 -0.109114 -0.04455549 0.1911421
-0.1170003 -0.22043021 -0.008461686 -0.14262658 0.014276735 -0.156705 0.14904118 -0.1364417
-0.40035203 -0.12573823 0.32289588 0.08911973 0.095501274 0.16359843 -0.411679 0.11838266
-0.3800142 -0.38906363 -0.34594804 -0.23874149 -0.26947057 -0.11041707 -0.23745286 0.10769873
0.07388009 0.593622 0.43423143 -0.145679 -0.08781966 0.010121311 -0.2632643 -0.25325412
-0.35262197 -0.11828028 -0.10635146 0.09683556 -0.13545315 0.41041088 -0.1031047 -0.18734463
-0.22154655 0.0017764608 -0.0036603387 -0.06973487 -0.24086419 -0.61258394 0.2137637 -0.073284
-0.16499047 -0.54427046 -0.4771997 0.12670964 -0.10008967 -0.26225618 0.012992851 -0.40780473
-0.1569879 -0.028356487 -0.111557774 -0.085475735 -0.62057495 -0.41420633 -0.04931881 0.0047532157
-0.3576798 -0.104497254 -0.009169563 -0.30288294 -0.21601136 0.3360097 -0.1615422 0.05469303
0.1428579 -0.040449183 0.5521339 0.21464722 -0.0602742 -0.83696634 0.2617829 -0.060716935
-0.13451573 -0.2859827 0.18717398 -0.005823038 -0.329749 -0.08927194 -0.15798569 0.015605605
0.09623731 -0.053851727 -0.1911237 0.44746298 0.09658247 -0.2358475 0.34805793 -0.09716318
0.39931405 -0.011832412 0.023779675 -0.033537555 -0.7776102 0.017132172 0.0957283 0.09800982
-0.585922 0.257252 -0.051098123 -0.1266266 0.027929336 0.20313019 0.26620722 -0.15418258
-0.6936478 0.018685404 -0.21961474 -0.06218593 0.0850631 -0.59289825 -0.6982675 -1.3192409
-0.015049724 -0.4704891 0.009931054 -0.01794611 0.32442477 0.23136842 -0.033549402 -0.013030039
0.042204645 -0.04055939 0.06829999 -0.5634032 -0.008620722 -0.089548774 -0.1335317 0.1022826
-0.03495143 -0.15412197 0.06090942 -0.27278054 0.08453155 -0.16419083 -0.2755142 0.085429505
0.072120786 -0.0060659843 -0.22317292 0.013249783 0.053578846 0.3690192 -0.1434795 0.09514611
0.20764817 0.029047051 -0.06415374 0.036135532 0.004261626 -0.25218242 -0.3742165 0.020279102
-0.1336568 0.45220563 -0.15526752 -0.6797873 -0.2038761 -0.5910032 0.005609274 -0.0755009
0.040987037 0.05014864 0.31236923 -0.10155849 0.08412416 -0.07620362 0.110016964 0.034448627
0.028089968 -0.4193372 0.07507974 -0.85383624 -0.096144505 -0.08021411 -0.06997087 0.02596789
-1.1183822 -0.1759155 0.3211537 0.017667256 -0.025359236 -0.18041591 -0.0949845 -0.06740157
0.11536024 -0.2722558 0.021079803 -0.08977632 0.30431134 -0.34720626 0.01619972 -0.16109653
-0.16987322 -1.8129991 -0.3897501 0.20987543 0.2127285 -0.06614968 -0.063621014 -0.1177262
-0.2935258 -0.88920546 -0.12415047 -0.02615966 0.07497594 -0.14730763 0.10591677 0.15296784
-0.03116543 -0.040033784 0.18497275 -0.22765173 0.1329747 0.07190486 -0.92583334 0.016499197

fc2.bias f4 [64]
00000000: 186d 4d3e 7ba9 c7be 21ea b8be 330e d43e
00000010: 8824 8cbe a674 9a3d e74a dd3e a763 b7be
00000020: 543f 053e 69fc a7be 9dec e13d 0a73 58be
00000030: 142a d53d c7af a9be 902c 2e3f 8f06 e3be
00000040: 5759 773e 32f2 b93e 9188 fc3e d7f4 9fbd
00000050: 170a 02be e0d3 873f 7f95 94be 5562 a83e
00000060: f790 5dbe 5e50 f33e 0dac f0be f79a 26bf
00000070: 0eb5 31bf 7db9 243f 6acb db3d a096 9fbd
00000080: acf3 4dbf 0344 b43d a4c3 e63e 7dec 8fbd
00000090: 580e 0fbe 50e0 0a3f 7022 7bbf 0ecd b83e
000000a0: 68b2 2fbd 0fc0 923e e9c6 f6bd 5f7a 1dbf
000000b0: 24ac 0dbe 5ffa 423f 2cfd 373f 1a4b 3c3f
000000c0: c1d5 073f 2083 80bf 39f8 36bf 5684 113e
000000d0: a18f 3c3d db92 7abe 9f64 38bf 060e 18bf
000000e0: 32a2 d63e c2ec 453f 20a1 c83e 6c97 8f3e
000000f0: 27ff 8ebf 6c5c 823e 39df e43e 42c7 f33e
0.20061147 -0.3899649 -0.36116126 0.41417083 -0.2737162 0.0754178 0.43221208 -0.35818216
0.13012439 -0.3280976 0.110314585 -0.21137634 0.104084164 -0.3314192 0.68036747 -0.4434094
0.24155174 0.36317593 0.49322942 -0.07810371 -0.12699161 1.0611534 -0.29020306 0.3288752
-0.21637331 0.47522253 -0.47006264 -0.6508021 -0.6941689 0.6434553 0.107321575 -0.07792401
-0.8044994 0.08802035 0.45071137 -0.070275284 -0.13970315 0.54248524 -0.9809942 0.36093944
-0.04289475 0.28662154 -0.12049658 -0.6151485 -0.13835198 0.76163286 0.71870685 0.73552096
0.5306054 -1.0040016 -0.7147251 0.14210638 0.046035413 -0.24470083 -0.72028536 -0.593964
0.4192062 0.7731439 0.3918543 0.28045213 -1.1171616 0.25461137 0.44701555 0.4761296

fc3.weight f4 [32, 64]
00000000: 1783 d3bd eb9d a3be 491c 9d3e e696 dabd
00000010: bc69 9f3d e7cc aebc 0238 0cbd 3553 7d3c
00000020: a908 d53d 6891 92be a299 b53d 6c54 063e
00000030: 3393 c43e 111d f63d 5142 0dbd 2362 b5bd
00000040: f849 57be b444 abbe 1d6c 50be eed5 36bf
00000050: c750 36bd 2910 a8be 4961 353e e0c4 ac3e
00000060: fe0e c7be 2e91 97be 34a2 4ebd bf24 a4bc
00000070: 88b9 1dbe 2cb8 4a3e e3ee 113f 2a34 733e
00000080: 245d 013e c0c8 56be 8937 e1be 3418 a0bf
00000090: 5604 49bb 3c65 303e a096 b33d 5eec 3cbe
000000a0: 6e8a 5bbe df0a 443d a28e ef3e b7c8 67be
000000b0: b63f 743e c03a 95be 4a43 ed3d 0918 80be
000000c0: 7fa2 84bd ca12 6ebe 2294 36be 2d64 943e
000000d0: 9473 2d3f 5126 44be 4e98 073d bb80 453c
000000e0: b044 75be b934 3c3e e614 df3e abc7 3ebd
000000f0: 3b4b 17be 30d5 e33d 6267 1abd 53e9 d0bc
00000100: c383 393e 53fb 4cbe 7a95 c73e 75cb dfbe
00000110: 0596 b7be 85aa 393e 1bcb 4e3e f24f 873e
00000120: af04 b03e 8f1c d9be 1cb2 60bf e239 f63d
00000130: 97bb c53e 7dc0 a63e bf87 9ebe cdc5 b2be
00000140: cc3f 683e 6dfb 65be ebc7 7ebd 5b52 363e
00000150: 5178 4abe ef99 42bd df26 3ebd 5d93 28bf
00000160: 2110 70bd b71d c9be 962d 79be 9345 8fbb
00000170: fa5f f5be 0efd 963e 1e1b 5bbe 8517 dabd
00000180: 63f8 aabd f0a0 e1bd 598b 913e e4b0 563d
00000190: 0961 7b3d 43ef 933d b213 6bbe da88 6cbe
000001a0: 359a 123d 9c38 92be f827 123e e692 063e
000001b0: 0f01 9a3e 32ea 1bbb 6f05 0fbd 87df a9be
000001c0: 5d0a 2d3f c411 80be 4912 62be fd6a 8ebe
000001d0: 0d68 7a3e 7e45 9d3e 3a51 5abf e900 96be
000001e0: 2955 4b3e f7ec 563e ce7a 27be 6a39 803d
000001f0: fd10 f33c 7216 83be 3eaf dbbc 8d7e 513d
00000200: c52e f4be 19b5 b5bc b88c 673e d702 c4bd
00000210: 6660 ba3d 5fff 05be bc78 0ebd d428 023d
00000220: 08a6 443e ae48 b5be aa53 88bd 2589 d3be
00000230: 05fd da3d 0847 25bc 4432 58be 9b68 abbd
00000240: d406 97be 28c8 6cbf ade6 48bd a3f6 8cbd
00000250: 0f80 efb6 b704 743e e4e6 46be 4052 7e3d
00000260: c63c 0fbd 042c cbbd 8ce9 5c3d 0811 63bd
00000270: df15 03be 22e7 f13e ab72 0dbe cfcc be3c
00000280: 31fe 0bbe 0fd9 88bd 056d c2be b63e 35bf
00000290: 861d 8c3d bfab d03d a435 4cbe 2fdf 91bd
000002a0: ab6e 05be c734 2cbd 975e f73d fe14 ac3c
000002b0: e7c9 603d c491 6fc0 d830 5c3d dcb6 3bbe
000002c0: 43cb 56bd 3b8d 4cbe 601b dfbd e588 cf3d
000002d0: e25a 953e 5ca0 c5be 7e48 29bd 4354 dfbe
000002e0: f92a f7be ee94 3a3f f6c7 aabe 490b ff3c
000002f0: 940e 4fbd 16a5 9fbe defd 0ebf 68dd 2e3e
00000300: 1a7c 20bf 1340 7abe 6585 ad3e bc32 b9be
00000310: 6f17 c5be ca21 cabe 7840 0bbe 7c04 6e3e
00000320: c456 0d3e 4095 e43d 79f6 e33d f708 2d3e
00000330: 6949 9fbe c5ce 0cbe 0878 ad3b 4937 35b9
00000340: 33f8 adbd c578 4b3d bcbb d1be bfd1 02be
00000350: d68a 543b b692 603e ebd5 a73c 4d9a c5be
00000360: 74ea 2f3d aa1b 853d a57b 14be be84 3a3e
00000370: 3638 98bc 0c87 90be 4961 463d 9399 4dbf
00000380: 0605 573e ba86 373d 7327 20bd a0f9 8a3e
00000390: 6d43 9b3d c7dc 42be b83d 133e 95bf 903e
000003a0: fa52 67be 2696 c9be 2254 cfbd 2fbe 933d
000003b0: 5392 48be c040 473d afce a0be 93ab 9dbe
000003c0: aeb6 33bf 38f7 7ebe 0681 3f3e 032f a0bc
000003d0: f7dc 8f3e 3fe7 993d b0a9 113d 89e2 05be
000003e0: 03c1 6b3e 2803 2f3e 6d71 8d3e 8927 0ebe
000003f0: 7174 a23e fef4 8bbc 8c8d e63e 4a10 153e
-0.10327738 -0.3195642 0.30685642 -0.10673313 0.07783839 -0.02133794 -0.0342331 0.015461733
0.104020424 -0.2862656 0.08867194 0.13118142 0.38393554 0.12017263 -0.034487072 -0.08856609
-0.2102431 -0.33450854 -0.20353742 -0.7142018 -0.04451063 -0.3282483 0.17712893 0.33743954
-0.38878626 -0.2960295 -0.050447658 -0.020037053 -0.15402806 0.19796818 0.5700514 0.23750368
0.12633187 -0.20975018 -0.43987682 -1.2507386 -0.003067275 0.17226118 0.08768964 -0.18449542
-0.21439525 0.04786193 0.46788508 -0.2263516 0.23852429 -0.29146385 0.115851 -0.25018337
-0.06476306 -0.23249355 -0.17829946 0.28982678 0.67754483 -0.19155242 0.033104233 0.0120546175
-0.23951983 0.18379487 0.43570632 -0.046577137 -0.14774792 0.11124647 -0.03769625 -0.025501883
0.1811667 -0.20017748 0.3898123 -0.43709913 -0.35856643 0.18131454 0.20194666 0.2642818
0.34378573 -0.424046 -0.87771773 0.12022759 0.38619682 0.32568732 -0.3096294 -0.34916535
0.22680587 -0.22459193 -0.062202375 0.17804854 -0.1977246 -0.047510084 -0.04642379 -0.6584986
-0.05860913 -0.39280483 -0.24333796 -0.0043723076 -0.47924787 0.2948994 -0.21397063 -0.10649017
-0.08348157 -0.110170245 0.28426626 0.05241479 0.061371837 0.0722337 -0.22956732 -0.2309908
0.035791595 -0.28558815 0.1427306 0.13141975 0.30078933 -0.0023790714 -0.03491729 -0.3317835
0.6759394 -0.25013554 -0.22077288 -0.27816 0.24453755 0.3071708 -0.8528019 -0.2929757
0.19856705 0.20988832 -0.1635544 0.06260951 0.029671187 -0.25603062 -0.02681696 0.05114608
-0.47691932 -0.02218108 0.22612274 -0.09570854 0.09100418 -0.13085698 -0.03478311 0.031777218
0.19203961 -0.35407013 -0.06656583 -0.4131557 0.10692791 -0.010087736 -0.21112925 -0.08369561
-0.29497397 -0.92492914 -0.049048115 -0.0688298 -7.137663e-06 0.23829924 -0.19424015 0.06209016
-0.034970067 -0.09920505 0.053933665 -0.055436164 -0.12801312 0.47246653 -0.13813274 0.02329102
-0.13671185 -0.06682026 -0.379738 -0.70798814 0.06841569 0.10189008 -0.19942337 -0.07122647
-0.13030498 -0.04204252 0.120785885 0.021006104 0.05488005 -3.7432718 0.05375752 -0.18331474
-0.05243994 -0.1997575 -0.10893893 0.101335324 0.291709 -0.38598907 -0.0413289 -0.43618974
-0.48274973 0.728835 -0.33355683 0.03113331 -0.050551012 -0.31180638 -0.5585612 0.17076647
-0.62689364 -0.24438505 0.33890834 -0.3617152 -0.3849444 -0.39478904 -0.13598812 0.23243898
0.1380263 0.1116128 0.11130995 0.16897951 -0.31110695 -0.13750751 0.00529385 -0.000172821
-0.08494606 0.04967572 -0.40963542 -0.12775324 0.0032431385 0.21930966 0.020487746 -0.38594285
0.0429482 0.06499417 -0.14500292 0.182147 -0.018581491 -0.28228033 0.048432622 -0.8031246
0.2099801 0.04480622 -0.03910012 0.27143574 0.0758122 -0.19029532 0.14379013 0.28271165
-0.22590247 -0.39372367 -0.10123469 0.07214009 -0.19587068 0.048645735 -0.31407687 -0.30794963
-0.7020062 -0.24898994 0.18701562 -0.019553667 0.2809827 0.0751481 0.035562217 -0.13074698
0.23022847 0.17091048 0.276256 -0.13882269 0.31729463 -0.017084595 0.45029867 0.14556995

fc3.bias f4 [32]
00000000: f970 e93e 5104 3c3d 81de 353f cb7d 123e
00000010: 3199 c9be 6e05 803e ae60 f83d b3a1 ab3e
00000020: bcd2 cebe 42d2 9abe 1830 b23e 2cf2 4c3e
00000030: b52c bbbd 5f01 433b 7657 aabe f4a8 cc3e
00000040: cd0f 03be 22a1 323e 3287 29bf eaf5 713e
00000050: 950e 393e d532 76be 1ace 053e 4735 c9be
00000060: 38f3 8f3e 8b64 42be dc4d b43e 17fc 5f3e
00000070: f968 e83e ed4a 09be f54e 8b3e 2e33 3c3d
0.45594004 0.045902554 0.7104264 0.14305799 -0.39374688 0.25004143 0.12127815 0.33521804
-0.40395153 -0.3023854 0.34802318 0.20014256 -0.091393866 0.0029755456 -0.33269852 0.3997265
-0.12798996 0.1744428 -0.66221917 0.23628965 0.18071969 -0.24042828 0.13066903 -0.3929846
0.2811525 -0.18983667 0.35215652 0.21873508 0.45392588 -0.13407488 0.27208677 0.045947246

fc_mu.weight f4 [2, 32]
00000000: c490 ecbe 0b44 283b 2f9d a9bf c288 323e
00000010: f1c1 e93e dfed 6f3e 0414 a93e 36f4 693f
00000020: e872 a23e 2025 cf3e a442 cdbd 9ae9 3d3f
00000030: 21db b5bd e70f f5be b5c1 503d 229a d0be
00000040: 1c86 b3be 0709 fbbe 2f0b efbe 2e1f 41be
00000050: b032 f63e 9edf eabe 7239 d73e 027c 8bbd
00000060: 3cbc ce3d 32d9 53be 16d5 aebc 7a26 9e3d
00000070: 15fb b03e 53ed 17bf 9a07 d23f b675 89be
00000080: c782 acba aec2 173f 0e6a debe f626 443e
00000090: 591b 59be a7c9 89be 2e92 cb3d 984e 063e
000000a0: a6d0 5c3e f53a 183e fe5e 23bf bc9e 723c
000000b0: f1d1 7cbe 26cb 3cbe 7f88 943f 0488 11bd
000000c0: 03a1 a0bc eecb 81be fe66 dc3d 6aa8 9dbe
000000d0: dfd7 22bf 0586 203e 26d5 22be a0bb 433f
000000e0: eecd 513f 9df4 a5bd da5f 2d3f 9b59 293c
000000f0: bc0d b2be 0cb3 22be 3a1e 093f f497 6c3e
-0.46204197 0.0025675322 -1.3251094 0.17434981 0.45655778 0.23430584 0.33023083 0.9138826
0.31728292 0.40458012 -0.10022476 0.7418457 -0.08879686 -0.47863695 0.050965983 -0.40742594
-0.35063255 -0.49030325 -0.4668822 -0.1885955 0.48085546 -0.4587373 0.42036015 -0.06810762
0.100944966 -0.20688322 -0.021341842 0.077221826 0.3456656 -0.59346503 1.640857 -0.2684762
-0.0013161533 0.5928143 -0.43440288 0.19155487 -0.21201839 -0.2691166 0.09939991 0.13115919
0.21563968 0.1486624 -0.6381682 0.014808353 -0.24689461 -0.1843687 1.1604155 -0.035530105
-0.019608026 -0.25350899 0.10761832 -0.30792552 -0.63610643 0.15676124 -0.15901622 0.7645817
0.8195485 -0.08103297 0.6772438 0.010336305 -0.34776103 -0.15888613 0.5356175 0.2310484

fc_mu.bias f4 [2]
00000000: d624 46bc 2165 813d
-0.012093743 0.06318117

fc_std.weight f4 [2, 32]
00000000: e254 1abe 466e 9b3d d962 4e3e 7d6c d4bd
00000010: a13c dc3b aca9 da3e eb9b 5b3e b6f3 003f
00000020: c810 873f 8134 28be 48bc 07be 5240 adbd
00000030: 6baf 423c 2f87 333c cece fabc 0759 4a3e
00000040: 8bdb 963d f4b6 4f3e 6746 f5bd af23 95be
00000050: ceb0 27be 1fba c7be 718f a93e e6cc 40be
00000060: 4d28 3f3d cc72 473e dc4d 003e d74a 5bbe
00000070: 9ef5 ecbd c3f2 0fbe 404c 713e 66e9 703c
00000080: bd48 9c3c 8235 3f3d ac3c 373e ad4c dd3c
00000090: 63cb 96bd 8011 883d c0f2 bdbd ceb2 813d
000000a0: bce7 7f3f f717 17bc 241b 893d 9f55 2a3b
000000b0: 6d80 b8bd 1ccf c53d cf86 b1bd 3dc9 3dbb
000000c0: 896e ad3d 966e d63c c8e9 90bd e91d 3b3d
000000d0: 1eb8 c0bc bd1f bc3d 3761 4c3d c7b9 84bd
000000e0: d3d1 d43c 8e04 9bbc 0c61 f33d 3359 e83d
000000f0: f078 3bbd 16a0 3dbc 2576 573d a703 1f3e
-0.15071443 0.07589392 0.20154895 -0.10372255 0.0067210947 0.42707574 0.21446197 0.50371873
1.0551996 -0.16426279 -0.13255417 -0.08459534 0.011882643 0.010957523 -0.03061619 0.19760524
0.07366093 0.20284635 -0.11976319 -0.29128787 -0.1637604 -0.39009187 0.3311725 -0.18828163
0.046669293 0.19477385 0.12529701 -0.21415268 -0.11570285 -0.1405745 0.23564243 0.014704084
0.019077653 0.04668189 0.17894238 0.0270141 -0.07363012 0.06643963 -0.092748165 0.063329324
0.99962974 -0.009222022 0.0669463 0.0025990976 -0.0900887 0.096586436 -0.08668291 -0.0028959059
0.084683485 0.026175778 -0.0707584 0.04568282 -0.023525294 0.09185741 0.0498974 -0.06480747
0.025978958 -0.01892307 0.118837446 0.113451384 -0.04576963 -0.011573812 0.052602906 0.15528737

fc_std.bias f4 [2]
00000000: cbca b9be fcd9 f1bd
-0.3628753 -0.11809155
