myrobot/src/not_using/DDPG/save_DDPG_models/1118_2/DDPG_Critic_EP428.pt (torch, 204354 bytes, 32 tensors)

fc1_state.weight f4 [128, 4]
0	0xbefd2f4a	-0.4945014
1	0xbf83f330	-1.030859
2	0x3fcb698d	1.5891587
3	0xbf32ee53	-0.69894904
4	0x3f72b0c5	0.9480098
5	0x400131ad	2.018657
6	0xbf1d3b61	-0.6141873
7	0x3e395de3	0.18102221
8	0xbfa43f0c	-1.283174
9	0xbf3aa14d	-0.72902375
10	0x3d975b32	0.07390441
11	0xbf1102eb	-0.5664508
12	0x3f053d82	0.5204698
13	0xc01b5e55	-2.4276326
14	0xbfa8732e	-1.316015
15	0x3e4f90ea	0.20270124
16	0xbfb7ed8d	-1.436937
17	0x3e4f55df	0.20247601
18	0xbfbcb6f7	-1.4743336
19	0x3f1a98ce	0.6038941
20	0x390969f1	0.00013104804
21	0x3f449aa0	0.7679844
22	0xbf55154b	-0.83235615
23	0xbf4dd873	-0.804084
24	0xbf1baacc	-0.6080749
25	0x3f144ffe	0.5793456
26	0xbf9a823b	-1.2070993
27	0x3f139c69	0.5766054
28	0xc0325c61	-2.7868884
29	0x3fc39009	1.5278331
30	0xc045c3c8	-3.0900745
31	0x3f343155	0.70387775
32	0x3c90f6ac	0.017695747
33	0x3ea1568d	0.31511346
34	0xbeaa9e72	-0.3332401
35	0xbef3fa52	-0.47651917
36	0x3f4ff8a6	0.8123878
37	0xbff737ad	-1.9313866
38	0xbfdbc6e1	-1.7170068
39	0xbef54c92	-0.4790998
40	0x3fde34cd	1.7359864
41	0x3fb22d93	1.3920158
42	0x3dafe552	0.08588661
43	0x3b121067	0.0022287609
44	0x3fb1bd03	1.3885807
45	0x3e1a8433	0.15089492
46	0xbfd5caee	-1.6702554
47	0xbf2596f9	-0.6468349
48	0x3fe8decd	1.8192993
49	0xbfc647aa	-1.549062
50	0x3f9e7535	1.2379519
51	0x3dbe361b	0.092876635
52	0x3f9515d3	1.1647285
53	0xbfe28f1c	-1.7699924
54	0x3f81d49d	1.014301
55	0x3f7684ee	0.96296585
56	0x3f005b9d	0.5013979
57	0x4000475a	2.004355
58	0xbaeff7b2	-0.0018308072
59	0xbec02059	-0.3752468
60	0xbf17e83e	-0.5933875
61	0xbffa58a5	-1.9558302
62	0x3f08377d	0.5320967
63	0x3e97fc55	0.29684702
64	0xbe75d628	-0.24007475
65	0xbf393e82	-0.72361004
66	0x3f730c83	0.94940966
67	0x3f14f468	0.58185434
68	0x3f214ab0	0.6300459
69	0xc0133992	-2.3003888
70	0x3f8a6079	1.0810691
71	0x3e976104	0.29566205
72	0x3ee7901a	0.45227128
73	0x3f3193bf	0.6936607
74	0xbf4f6206	-0.81008947
75	0xbf014dd0	-0.5050936
76	0x3f0dd42c	0.55401874
77	0xc02f7066	-2.7412353
78	0xc001946e	-2.0246844
79	0x3f0a169e	0.5394076
80	0x3e4ecced	0.2019536
81	0xbfaf34be	-1.3687971
82	0xc04af68f	-3.1712987
83	0x3de74f4a	0.1129442
84	0xbe930320	-0.28713322
85	0x3f77392c	0.9657161
86	0xbf60ed4a	-0.87862074
87	0xbe470701	-0.19436266
88	0x3f1bc9aa	0.6085459
89	0xbf87b2c8	-1.0601435
90	0x3f048fe5	0.51782066
91	0x3dbba564	0.09162405
92	0xbf1a74ec	-0.6033466
93	0xbd26ee6a	-0.040754713
94	0xbf1febf4	-0.6246941
95	0xbec2e917	-0.38068458
96	0xc05966a3	-3.3968894
97	0xbd800bd4	-0.06252256
98	0xbfd901dd	-1.6953694
99	0x3dd85363	0.1056278
100	0xbf2eb9d5	-0.6825231
101	0xbeeb31d7	-0.45936462
102	0xbf3cb168	-0.737082
103	0x3e619b0e	0.22031805
104	0x3f58b6f2	0.8465415
105	0xbfa90e2e	-1.3207452
106	0x3e788d97	0.24272762
107	0xbe7aecbf	-0.24504374
108	0x3d7d8fa1	0.061904553
109	0xbe6cf91a	-0.231419
110	0x3f5ef149	0.8708692
111	0xbf342be4	-0.7037947
112	0x3f1a5c35	0.60296947
113	0xbeda59f2	-0.42646748
114	0x3f2d6f3b	0.6774785
115	0xbf0edba2	-0.55803883
116	0xbff2fe72	-1.89839
117	0x400d2acd	2.2057374
118	0xbfefff9f	-1.8749884
119	0x3eee9c11	0.46603444
120	0xbf4d0692	-0.8008815
121	0xbfccd066	-1.6001098
122	0xbf127143	-0.57204074
123	0x3dc64e42	0.09682895
124	0x40214094	2.5195665
125	0x3f973a04	1.181458
126	0xbbd7955d	-0.006579085
127	0x3e3d842a	0.18507448
128	0x3cf091d2	0.029366408
129	0xc01368c2	-2.303269
130	0x3daf5274	0.085606486
131	0xbde9e6ee	-0.114209995
132	0xbf7baa8c	-0.9830711
133	0xbfacc2f4	-1.3496995
134	0x3f4ffb52	0.8124286
135	0x3d836775	0.06416217
136	0x3ea9e34c	0.33181226
137	0xbf3594db	-0.7093026
138	0xc039aaeb	-2.901057
139	0x3eb16afd	0.34651938
140	0xbfaab1a4	-1.3335462
141	0xbfeea164	-1.8643003
142	0xbfd5ba7a	-1.6697533
143	0x3fb96cc6	1.448632
144	0xc003f1ec	-2.0616407
145	0xbf88bc9b	-1.0682558
146	0xc03b02fa	-2.9220567
147	0x3e1aa2b2	0.15101126
148	0x3dd33e3a	0.10314603
149	0xc013ae1a	-2.3075013
150	0x3ed57ce9	0.4169686
151	0x3ca33ea5	0.019927332
152	0xbb7da838	-0.0038705003
153	0xbfcc8589	-1.5978252
154	0xbf85b65e	-1.0446279
155	0xbf93d4fa	-1.154937
156	0x3f1dae82	0.615944
157	0xbff71874	-1.9304338
158	0xbf7ce644	-0.9878886
159	0x3f07ae8e	0.53000724
160	0x3eda2586	0.42606753
161	0xbffc3403	-1.9703373
162	0xbfa052d8	-1.2525282
163	0x3eb8307b	0.35974488
164	0xbf4fd33e	-0.81181705
165	0x3ea11e42	0.31468397
166	0xc00014d9	-2.0012724
167	0xbf2269cc	-0.63442683
168	0x407d23d4	3.9553118
169	0xbfa56d0b	-1.2923902
170	0x3e40a1ee	0.18811771
171	0x3ec2890f	0.37995192
172	0x3fc0642f	1.5030574
173	0xbe5ad259	-0.21369304
174	0xbf922e8a	-1.1420453
175	0xbf88859a	-1.0665772
176	0x3f2883f2	0.6582633
177	0x3ffac105	1.9590155
178	0x3e390bd4	0.18070918
179	0xbd47bba5	-0.048762936
180	0xbf9b7264	-1.2144284
181	0x3fd27aa3	1.6443676
182	0xc01c8838	-2.4458141
183	0x3ddcde8d	0.10784636
184	0x3fe5d709	1.7956249
185	0xbe69bf73	-0.22826938
186	0x3ed98530	0.42484426
187	0xbf0de71a	-0.5543076
188	0x40055c8b	2.0837734
189	0xbfe6d1c7	-1.8032769
190	0x3f34b453	0.7058765
191	0x3f1a1029	0.6018091
192	0x3f0cfe75	0.5507577
193	0x3f98d218	1.1939116
194	0x3f10ecbb	0.5661122
195	0x3f86a6f5	1.0519701
196	0xbebd9a20	-0.3703165
197	0xbf1734f2	-0.59065163
198	0xbf3d773e	-0.74010074
199	0xbf30dca0	-0.6908665
200	0x3e221ba7	0.15830861
201	0xbd0bbe85	-0.03411724
202	0x3f8671b5	1.0503451
203	0xbe434522	-0.19069341
204	0x3f0a5529	0.54036194
205	0xbe797fec	-0.24365205
206	0x3fbea088	1.489274
207	0x3e4117f0	0.18856788
208	0x3eba97c1	0.36443904
209	0x4001e196	2.0293937
210	0xbea23403	-0.31680307
211	0x3b6eebf2	0.0036456552
212	0x3fe72543	1.8058246
213	0xbf301242	-0.6877786
214	0x3d1def7d	0.038558472
215	0xbe04d6df	-0.12972592
216	0x3f554a46	0.8331646
217	0x3f881a8a	1.0633099
218	0xbf323543	-0.6961252
219	0xbf4b5274	-0.7942269
220	0x3fc2a226	1.5205734
221	0x400b88a0	2.180214
222	0xc0102224	-2.2520838
223	0x3f7d9cbd	0.9906729
224	0x3ec25a17	0.37959358
225	0xc0373a7f	-2.8629453
226	0xbf0323aa	-0.51226294
227	0xbe7acafd	-0.24491496
228	0xc011d8a4	-2.2788477
229	0x3fcd09a6	1.601857
230	0x3ffb91a9	1.9653827
231	0x3ced2a79	0.028950917
232	0x3d1a4b71	0.037669603
233	0xc024b211	-2.5733683
234	0xbd4513c6	-0.04811456
235	0xbeee8121	-0.46582893
236	0xbf4ed266	-0.8078979
237	0xbf8e7e0b	-1.1132215
238	0xbf109ea1	-0.5649205
239	0xbf184139	-0.5947452
240	0x3f06efa4	0.5270941
241	0xbfbb5a47	-1.4636925
242	0x40405382	3.005097
243	0x3e17c2c9	0.14820398
244	0xbf4a5aac	-0.79044604
245	0xbf9e5009	-1.2368175
246	0x3f806514	1.0030847
247	0x3d46f58f	0.048574027
248	0x3f0ad6c8	0.5423398
249	0xbfc44183	-1.5332493
250	0x3fbc2887	1.4699868
251	0x3f270793	0.6524593
252	0xbfa98b7d	-1.3245693
253	0xbdcbe546	-0.0995584
254	0xbf861014	-1.0473657
255	0x3e80a930	0.2512908

fc1_state.bias f4 [128]
0	0xbd253743	-0.040335905
1	0xbf38fbad	-0.72259027
2	0x3e41a477	0.18910395
3	0x3e0b7bbe	0.13621423
4	0x3ea1e827	0.3162243
5	0x3f0176d4	0.5057194
6	0xbda0db06	-0.078542754
7	0xbd9b65d6	-0.07587783
8	0x3e39bfe9	0.18139614
9	0xbdd69234	-0.10477105
10	0x3dded111	0.1087972
11	0x3f38e5c6	0.72225606
12	0x3ea6e73f	0.32598302
13	0xbe8d7c35	-0.27633825
14	0xbc784351	-0.015152768
15	0xbf3a1411	-0.7268687
16	0xbeb44557	-0.35209152
17	0xbf24a7d8	-0.6431861
18	0x3f3ead7e	0.7448348
19	0x3e8d24eb	0.2756723
20	0x3f66347c	0.89923835
21	0x3e674403	0.22584538
22	0x3f2744f9	0.6533962
23	0x3ed5fd3f	0.41794774
24	0xbf1fc544	-0.6241038
25	0x3f37b337	0.71757835
26	0xbe88602c	-0.26635873
27	0x3df82593	0.12116542
28	0xbec259fe	-0.37959284
29	0xbe7b2719	-0.24526633
30	0x3f8beee5	1.093228
31	0xbf706466	-0.93903196
32	0x3db715d4	0.0893971
33	0x3ef68a85	0.48152557
34	0x3f6659aa	0.89980567
35	0x3eb32479	0.34988764
36	0x3f29fb8b	0.6639945
37	0xbef4da63	-0.47822866
38	0x3ec6c690	0.38823366
39	0xbe337f57	-0.17529045
40	0x3efa5572	0.48893315
41	0x3f3d4df0	0.7394705
42	0x3e4c307a	0.19940367
43	0x3ed4414c	0.41456068
44	0xbe560786	-0.20901307
45	0x3d9a5886	0.07536416
46	0x3ec7c1f0	0.3901515
47	0x3e8e5464	0.2779876
48	0xbf3ad60f	-0.7298288
49	0x3f52a47a	0.8228222
50	0xbabe4d0a	-0.0014518809
51	0xbf8fe187	-1.12407
52	0xbdd6e5df	-0.10493063
53	0x3e966d4e	0.29380268
54	0xbe385de5	-0.18004568
55	0xbec525c2	-0.3850537
56	0x3eab13b6	0.33413476
57	0xbf1761cb	-0.59133595
58	0x3f807c9b	1.0038027
59	0xbebee443	-0.37283525
60	0x3e1933e1	0.14961196
61	0xbf45f508	-0.77327013
62	0xbef2e46d	-0.474399
63	0xbf921457	-1.1412457
64	0xbf62e61b	-0.88632363
65	0xbeb416e2	-0.35173708
66	0xbf839e88	-1.0282755
67	0xbf8069fe	-1.0032346
68	0x3d937478	0.07199949
69	0x3eb6e444	0.35721028
70	0xbe6af959	-0.22946681
71	0xbba37f00	-0.004989505
72	0x3ce1c1e1	0.027558269
73	0x3f78c174	0.97170186
74	0xbf90befa	-1.1308281
75	0xbea351fc	-0.31898487
76	0x3dd369e1	0.10322929
77	0xbc8db10f	-0.017296342
78	0x3e23f5bf	0.16011713
79	0x3d465cb1	0.04842824
80	0xbdf9f835	-0.12205545
81	0x3ca80b23	0.020513123
82	0xbf4209db	-0.7579629
83	0x3f2e1d96	0.68013895
84	0xbbe5b3a1	-0.007009939
85	0xbe026e59	-0.12737407
86	0x3f25a5af	0.6470594
87	0xbeea9258	-0.45814776
88	0x3eeb49f9	0.45954874
89	0xbefdc5a3	-0.49564847
90	0x3e4cced0	0.20000768
91	0x3e24f5d9	0.16109408
92	0xbf3dd547	-0.7415356
93	0xbf892312	-1.0713828
94	0xbe94e913	-0.29084072
95	0xbd6b7820	-0.057487607
96	0xbeb173e5	-0.34658733
97	0x3f28f9d4	0.6600621
98	0x3e983d18	0.2973411
99	0xbf0f99db	-0.5609414
100	0x3f0d6c43	0.5524332
101	0xbf0f7b01	-0.56047064
102	0xbe724697	-0.2365974
103	0xbf85a365	-1.0440489
104	0x3e4eae68	0.20183718
105	0xbf1aabe1	-0.60418516
106	0x3e347ca3	0.1762567
107	0xbe18088c	-0.1484701
108	0xbd1f6886	-0.03891804
109	0xbe801622	-0.25016886
110	0x3d1e3ffc	0.03863524
111	0xbf9ccdc4	-1.2250295
112	0x3dd5abf5	0.10433189
113	0x3f515195	0.8176511
114	0xbe2d4d59	-0.16924037
115	0xbef7e680	-0.48418045
116	0x3f4ab0d9	0.791761
117	0xbf657691	-0.8963404
118	0x3eebd528	0.46061063
119	0x3f21f293	0.63260764
120	0xbeb5456e	-0.35404533
121	0x3ee76128	0.45191312
122	0xbf38b490	-0.72150517
123	0xbf20dab9	-0.62833744
124	0x3ec323f5	0.3811337
125	0xbecb006c	-0.3964876
126	0xbf3ac2c4	-0.7295344
127	0xbd1dc077	-0.038513627

bn1_state.weight f4 [128]
0	0x3f874501	1.0567933
1	0x3f7d9c5c	0.9906671
2	0x3fba955a	1.4576828
3	0x3f828c89	1.0199138
4	0x3f135871	0.57556826
5	0x3f6ae590	0.91756535
6	0x3f1572d5	0.58378345
7	0x3f56abff	0.83856195
8	0x3f71c748	0.94444704
9	0x3f684b99	0.9074035
10	0x3ff7daa4	1.9363599
11	0x3f8c854a	1.0978177
12	0x3fc1cb4d	1.5140167
13	0x3f56ecfe	0.8395537
14	0x3fcb30e9	1.5874301
15	0x3f4fe37c	0.8120649
16	0x3f0fed7b	0.5622174
17	0x3f8238e0	1.0173607
18	0x3fa001bb	1.2500528
19	0x3f600d63	0.87520427
20	0x3fc8f304	1.5699162
21	0x3fdac6d9	1.7091933
22	0x3f3884b0	0.72077465
23	0x3f8dd1e7	1.1079682
24	0x3f92adfb	1.1459345
25	0x3f28c400	0.6592407
26	0x3f9c535d	1.221294
27	0x3f64a07d	0.89307386
28	0x3f64968b	0.8929221
29	0x3f714bef	0.9425649
30	0x3f596bdd	0.8493021
31	0x3f78b645	0.9715312
32	0x408b5133	4.353662
33	0x3fae50a4	1.361836
34	0x3f55e433	0.8355133
35	0x3f37b28a	0.71756804
36	0x3f9a8554	1.2071939
37	0x3ff78a21	1.9339029
38	0x3f43dd7a	0.7650982
39	0x3f410be6	0.7540878
40	0x3f091cc8	0.5355954
41	0x3f81bb38	1.013526
42	0x3f7838cf	0.96961683
43	0x3f786439	0.9702793
44	0x3fc697ae	1.5515039
45	0x3f9ca2e3	1.2237209
46	0x3f6c0577	0.9219584
47	0x3f66a591	0.90096384
48	0x3f48e018	0.7846694
49	0x3f3ea93d	0.7447699
50	0x3f43cc4d	0.76483613
51	0x3f4fa2b7	0.8110766
52	0x4027e668	2.623438
53	0x3fc36222	1.5264323
54	0x3f939cc9	1.1532222
55	0x3f6e78e2	0.931532
56	0x3f882f6a	1.063947
57	0x3fd2f7fd	1.648193
58	0x3fa60328	1.2969713
59	0x3f281d00	0.6566925
60	0x3f935c06	1.1512458
61	0x3fc0c80c	1.506105
62	0x3f6b8294	0.9199612
63	0x3f3d9211	0.74051005
64	0x3f4eeb6f	0.80827993
65	0x3f7be340	0.9839363
66	0x3f81ee9d	1.0150944
67	0x3f4d5507	0.80207866
68	0x3f896e19	1.0736724
69	0x3f87fb7b	1.0623621
70	0x3f875a38	1.0574408
71	0x3f5bd923	0.858782
72	0x3f5592ef	0.8342733
73	0x3ff57b09	1.9178172
74	0x3ef9d2fa	0.48793775
75	0x3f6d5675	0.9271005
76	0x3fa10489	1.2579509
77	0x3f879a1e	1.0593908
78	0x3f92de9d	1.1474186
79	0x3fea2449	1.8292323
80	0x3f789b71	0.97112185
81	0x3f2a51fc	0.6653135
82	0x3f67cad3	0.9054386
83	0x3f7a1046	0.9768108
84	0x3f8d9b28	1.1062975
85	0x3f2b86d1	0.6700259
86	0x3f52b076	0.8230051
87	0x3f75b0a3	0.9597265
88	0x3f5ee1d3	0.8706333
89	0x3f96512d	1.1743523
90	0x3f59470f	0.8487405
91	0x400df227	2.2179048
92	0x3f2e00cf	0.67969984
93	0x3f701f44	0.9379771
94	0x3f6f1803	0.93396014
95	0x3f579a99	0.8422027
96	0x3fa19fd5	1.2626902
97	0x3f8fe51e	1.1241796
98	0x3f7adaa4	0.9798987
99	0x3f5e4ac2	0.8683282
100	0x3f80758a	1.003587
101	0x3f832412	1.0245383
102	0x3f71f8da	0.9452034
103	0x3f6b47ac	0.9190624
104	0x3f641b55	0.89104205
105	0x3fa94c1b	1.322635
106	0x3fb328ff	1.3996886
107	0x3fd05433	1.6275696
108	0x3f8d1424	1.1021771
109	0x3f4970f6	0.7868799
110	0x3f53ab5a	0.82683337
111	0x3f59d412	0.8508922
112	0x3f789f99	0.97118527
113	0x3fc68d04	1.5511785
114	0x3f865046	1.0493248
115	0x3fddd51b	1.733066
116	0x3f731eda	0.9496895
117	0x3f49e30c	0.7886207
118	0x3f34d2f8	0.7063441
119	0x3f4679ad	0.7752941
120	0x3fdd47a7	1.7287492
121	0x3f445dfe	0.7670592
122	0x3f3c959e	0.736658
123	0x3f66631b	0.8999497
124	0x3f54fcfe	0.83198535
125	0x3f9a825b	1.2071031
126	0x3f4e8194	0.8066647
127	0x3e0a49a9	0.13504662

bn1_state.bias f4 [128]
0	0xbe41f554	-0.18941242
1	0xbf38ed1b	-0.72236794
2	0x3cb7ce45	0.022437224
3	0x3e650010	0.22363305
4	0xbd91a2c7	-0.071111254
5	0x3ee7c6f3	0.45268974
6	0x3e9c856e	0.3057055
7	0x3b90dca5	0.004420834
8	0x3e5e5879	0.21713437
9	0x3ec325c2	0.38114744
10	0xbcdc37d9	-0.026882099
11	0x3e81cf11	0.25353292
12	0x3e95737d	0.29189673
13	0x3d6f7257	0.058458652
14	0x3d09b83b	0.03362296
15	0xbf31fd1d	-0.69526845
16	0xbf0c5403	-0.5481569
17	0xbe0f27c1	-0.13980009
18	0x3e9f937a	0.31167203
19	0x3ee97717	0.4559867
20	0x3f612aad	0.87955743
21	0x3e30040c	0.17189044
22	0x3ed1366a	0.40861827
23	0x3e793d63	0.24339823
24	0xbea399e6	-0.31953353
25	0x3e8e5374	0.27798045
26	0xbe687499	-0.22700728
27	0xbe81f1ed	-0.25379887
28	0xbdba5fe3	-0.0910032
29	0xbdca9fb7	-0.098937444
30	0x3f4829e1	0.781889
31	0xbf2f3718	-0.6844344
32	0x3e9e0eb2	0.30870587
33	0x3ebfe7cc	0.37481534
34	0x3f2e718c	0.6814201
35	0x3f00d4cc	0.503247
36	0x3ecabca6	0.39597052
37	0xbde73145	-0.11288694
38	0x3f11e06e	0.5698308
39	0x3e9bbcd9	0.30417517
40	0x3f39ddf3	0.7260429
41	0x3efae945	0.49006096
42	0xbc9611ed	-0.018319095
43	0x3e986689	0.29765728
44	0x3e1a2554	0.15053302
45	0x3cb8eea2	0.022574726
46	0xbd8a6479	-0.06757445
47	0x3e4ec650	0.20192838
48	0xbf87a2b5	-1.0596529
49	0x3f2416cc	0.64097285
50	0xbe927881	-0.28607562
51	0xbf985fd5	-1.1904246
52	0xbdf86eec	-0.12130532
53	0x3e935f88	0.28783822
54	0x3e25529e	0.16144797
55	0xbe810b48	-0.2520392
56	0x3eab3365	0.33437648
57	0xbeafc058	-0.34326434
58	0x3f16ed34	0.58955693
59	0xbdf23b5a	-0.11827727
60	0xbe1a282e	-0.1505439
61	0xbea072c5	-0.31337562
62	0xbdbf8b01	-0.09352685
63	0xbf694905	-0.91127044
64	0xbf250298	-0.6445708
65	0xbdefd8fa	-0.11711307
66	0xbf0f8bc5	-0.56072646
67	0xbf1d4f59	-0.614492
68	0x3dcc22c7	0.09967571
69	0x3c5a6d4b	0.013331722
70	0x3e08510e	0.1331217
71	0xbe83bff3	-0.25732383
72	0x3e14bf01	0.14525987
73	0x3f08b931	0.5340758
74	0xbf381400	-0.7190552
75	0xbd27c6e4	-0.04096116
76	0xbe499936	-0.19687352
77	0xbba94f0e	-0.0051668948
78	0xbc6d929c	-0.014500286
79	0x3d1c2cd5	0.038128693
80	0xbe4ad106	-0.19806299
81	0x3ec347be	0.38140672
82	0xbec5b8e9	-0.38617638
83	0x3e720939	0.2363633
84	0xbe90d3fe	-0.28286737
85	0x3d8474d2	0.06467594
86	0x3ec224b4	0.37918627
87	0xbe2824d9	-0.16420306
88	0x3d137c04	0.036006942
89	0xbe7ed6a6	-0.2488657
90	0xbe357330	-0.17719722
91	0xbe81613c	-0.25269496
92	0xbed5045d	-0.4160489
93	0xbf115f31	-0.56785876
94	0xbedb158b	-0.42789873
95	0x3deb91fd	0.115024544
96	0x3d3ebcfa	0.04656694
97	0x3ebc014d	0.36719742
98	0xbca5e1ce	-0.020249274
99	0xbf0c1029	-0.5471216
100	0x3e48bf09	0.19604124
101	0xbe69eb5e	-0.22843692
102	0xbf18d344	-0.59697366
103	0xbf0d61e3	-0.5522749
104	0x3d1ebe0d	0.038755465
105	0xbe5b86fa	-0.21438208
106	0x3e50e6ad	0.20400496
107	0x3d98ce95	0.074612774
108	0x3e23b3b9	0.15986528
109	0x3e12808f	0.14306854
110	0x3d05b370	0.032641828
111	0xbf51cd47	-0.81953853
112	0xbe0b727b	-0.1361789
113	0x3ecdda01	0.40205386
114	0xbe8e671c	-0.2781304
115	0xbe97c9fb	-0.29646286
116	0x3ed35f36	0.41283578
117	0xbf360ac7	-0.71110195
118	0x3e22b82f	0.15890573
119	0x3eefd608	0.4684298
120	0xbe25cebf	-0.16192149
121	0x3e5e0763	0.21682505
122	0xbf618130	-0.8808775
123	0xbe86147d	-0.26187506
124	0x3e41ff64	0.1894508
125	0xbe3086c4	-0.17238909
126	0xbf46c463	-0.7764341
127	0x3d2d5d52	0.042325325

bn1_state.running_mean f4 [128]
0	0x00000000	0.0
1	0x00000000	0.0
2	0x00000000	0.0
3	0x00000000	0.0
4	0x00000000	0.0
5	0x00000000	0.0
6	0x00000000	0.0
7	0x00000000	0.0
8	0x00000000	0.0
9	0x00000000	0.0
10	0x00000000	0.0
11	0x00000000	0.0
12	0x00000000	0.0
13	0x00000000	0.0
14	0x00000000	0.0
15	0x00000000	0.0
16	0x00000000	0.0
17	0x00000000	0.0
18	0x00000000	0.0
19	0x00000000	0.0
20	0x00000000	0.0
21	0x00000000	0.0
22	0x00000000	0.0
23	0x00000000	0.0
24	0x00000000	0.0
25	0x00000000	0.0
26	0x00000000	0.0
27	0x00000000	0.0
28	0x00000000	0.0
29	0x00000000	0.0
30	0x00000000	0.0
31	0x00000000	0.0
32	0x00000000	0.0
33	0x00000000	0.0
34	0x00000000	0.0
35	0x00000000	0.0
36	0x00000000	0.0
37	0x00000000	0.0
38	0x00000000	0.0
39	0x00000000	0.0
40	0x00000000	0.0
41	0x00000000	0.0
42	0x00000000	0.0
43	0x00000000	0.0
44	0x00000000	0.0
45	0x00000000	0.0
46	0x00000000	0.0
47	0x00000000	0.0
48	0x00000000	0.0
49	0x00000000	0.0
50	0x00000000	0.0
51	0x00000000	0.0
52	0x00000000	0.0
53	0x00000000	0.0
54	0x00000000	0.0
55	0x00000000	0.0
56	0x00000000	0.0
57	0x00000000	0.0
58	0x00000000	0.0
59	0x00000000	0.0
60	0x00000000	0.0
61	0x00000000	0.0
62	0x00000000	0.0
63	0x00000000	0.0
64	0x00000000	0.0
65	0x00000000	0.0
66	0x00000000	0.0
67	0x00000000	0.0
68	0x00000000	0.0
69	0x00000000	0.0
70	0x00000000	0.0
71	0x00000000	0.0
72	0x00000000	0.0
73	0x00000000	0.0
74	0x00000000	0.0
75	0x00000000	0.0
76	0x00000000	0.0
77	0x00000000	0.0
78	0x00000000	0.0
79	0x00000000	0.0
80	0x00000000	0.0
81	0x00000000	0.0
82	0x00000000	0.0
83	0x00000000	0.0
84	0x00000000	0.0
85	0x00000000	0.0
86	0x00000000	0.0
87	0x00000000	0.0
88	0x00000000	0.0
89	0x00000000	0.0
90	0x00000000	0.0
91	0x00000000	0.0
92	0x00000000	0.0
93	0x00000000	0.0
94	0x00000000	0.0
95	0x00000000	0.0
96	0x00000000	0.0
97	0x00000000	0.0
98	0x00000000	0.0
99	0x00000000	0.0
100	0x00000000	0.0
101	0x00000000	0.0
102	0x00000000	0.0
103	0x00000000	0.0
104	0x00000000	0.0
105	0x00000000	0.0
106	0x00000000	0.0
107	0x00000000	0.0
108	0x00000000	0.0
109	0x00000000	0.0
110	0x00000000	0.0
111	0x00000000	0.0
112	0x00000000	0.0
113	0x00000000	0.0
114	0x00000000	0.0
115	0x00000000	0.0
116	0x00000000	0.0
117	0x00000000	0.0
118	0x00000000	0.0
119	0x00000000	0.0
120	0x00000000	0.0
121	0x00000000	0.0
122	0x00000000	0.0
123	0x00000000	0.0
124	0x00000000	0.0
125	0x00000000	0.0
126	0x00000000	0.0
127	0x00000000	0.0

bn1_state.running_var f4 [128]
0	0x3f800000	1.0
1	0x3f800000	1.0
2	0x3f800000	1.0
3	0x3f800000	1.0
4	0x3f800000	1.0
5	0x3f800000	1.0
6	0x3f800000	1.0
7	0x3f800000	1.0
8	0x3f800000	1.0
9	0x3f800000	1.0
10	0x3f800000	1.0
11	0x3f800000	1.0
12	0x3f800000	1.0
13	0x3f800000	1.0
14	0x3f800000	1.0
15	0x3f800000	1.0
16	0x3f800000	1.0
17	0x3f800000	1.0
18	0x3f800000	1.0
19	0x3f800000	1.0
20	0x3f800000	1.0
21	0x3f800000	1.0
22	0x3f800000	1.0
23	0x3f800000	1.0
24	0x3f800000	1.0
25	0x3f800000	1.0
26	0x3f800000	1.0
27	0x3f800000	1.0
28	0x3f800000	1.0
29	0x3f800000	1.0
30	0x3f800000	1.0
31	0x3f800000	1.0
32	0x3f800000	1.0
33	0x3f800000	1.0
34	0x3f800000	1.0
35	0x3f800000	1.0
36	0x3f800000	1.0
37	0x3f800000	1.0
38	0x3f800000	1.0
39	0x3f800000	1.0
40	0x3f800000	1.0
41	0x3f800000	1.0
42	0x3f800000	1.0
43	0x3f800000	1.0
44	0x3f800000	1.0
45	0x3f800000	1.0
46	0x3f800000	1.0
47	0x3f800000	1.0
48	0x3f800000	1.0
49	0x3f800000	1.0
50	0x3f800000	1.0
51	0x3f800000	1.0
52	0x3f800000	1.0
53	0x3f800000	1.0
54	0x3f800000	1.0
55	0x3f800000	1.0
56	0x3f800000	1.0
57	0x3f800000	1.0
58	0x3f800000	1.0
59	0x3f800000	1.0
60	0x3f800000	1.0
61	0x3f800000	1.0
62	0x3f800000	1.0
63	0x3f800000	1.0
64	0x3f800000	1.0
65	0x3f800000	1.0
66	0x3f800000	1.0
67	0x3f800000	1.0
68	0x3f800000	1.0
69	0x3f800000	1.0
70	0x3f800000	1.0
71	0x3f800000	1.0
72	0x3f800000	1.0
73	0x3f800000	1.0
74	0x3f800000	1.0
75	0x3f800000	1.0
76	0x3f800000	1.0
77	0x3f800000	1.0
78	0x3f800000	1.0
79	0x3f800000	1.0
80	0x3f800000	1.0
81	0x3f800000	1.0
82	0x3f800000	1.0
83	0x3f800000	1.0
84	0x3f800000	1.0
85	0x3f800000	1.0
86	0x3f800000	1.0
87	0x3f800000	1.0
88	0x3f800000	1.0
89	0x3f800000	1.0
90	0x3f800000	1.0
91	0x3f800000	1.0
92	0x3f800000	1.0
93	0x3f800000	1.0
94	0x3f800000	1.0
95	0x3f800000	1.0
96	0x3f800000	1.0
97	0x3f800000	1.0
98	0x3f800000	1.0
99	0x3f800000	1.0
100	0x3f800000	1.0
101	0x3f800000	1.0
102	0x3f800000	1.0
103	0x3f800000	1.0
104	0x3f800000	1.0
105	0x3f800000	1.0
106	0x3f800000	1.0
107	0x3f800000	1.0
108	0x3f800000	1.0
109	0x3f800000	1.0
110	0x3f800000	1.0
111	0x3f800000	1.0
112	0x3f800000	1.0
113	0x3f800000	1.0
114	0x3f800000	1.0
115	0x3f800000	1.0
116	0x3f800000	1.0
117	0x3f800000	1.0
118	0x3f800000	1.0
119	0x3f800000	1.0
120	0x3f800000	1.0
121	0x3f800000	1.0
122	0x3f800000	1.0
123	0x3f800000	1.0
124	0x3f800000	1.0
125	0x3f800000	1.0
126	0x3f800000	1.0
127	0x3f800000	1.0

fc1_action.weight f4 [32, 2]
0	0x3e79cb56	0.24393973
1	0xbf9e97c9	-1.2390071
2	0xbe03b87e	-0.12863347
3	0x3ecaf551	0.39640287
4	0xbf0fc665	-0.561621
5	0x3f9d343b	1.2281564
6	0xbf8656fc	-1.0495296
7	0xbee4c3fc	-0.44680774
8	0x3fd38a16	1.6526515
9	0xbf2945e8	-0.66122293
10	0xbf1b69d3	-0.6070835
11	0x3f5cd895	0.8626798
12	0x3ea944b8	0.3306024
13	0xbec635b3	-0.38712844
14	0xc018a290	-2.384922
15	0xbf539f97	-0.8266539
16	0xbf0ad11e	-0.5422534
17	0xbdd68316	-0.104742214
18	0x3ebd1c41	0.3693562
19	0xbd04d6d8	-0.032431453
20	0xbf54060d	-0.8282173
21	0x3f98b0cd	1.1928955
22	0xbece75ab	-0.4032415
23	0xbc6be00a	-0.014396677
24	0xbf2306e6	-0.636824
25	0x3f240182	0.640648
26	0xc03b8a14	-2.9303026
27	0x3e6d544b	0.23176686
28	0x3f41da62	0.7572385
29	0x3f52a0f1	0.8227683
30	0x3fc6deb0	1.5536709
31	0xbd88b911	-0.066759236
32	0x3eb64497	0.35599205
33	0xbf919dd5	-1.1376292
34	0x3fca75b6	1.5817173
35	0x3f82cbf8	1.0218496
36	0x3f114b51	0.5675555
37	0x3dd3ce18	0.10342044
38	0xbdc2de5f	-0.0951507
39	0xbf9a81e3	-1.2070888
40	0x3f5abea8	0.8544717
41	0x3f99115a	1.195842
42	0xc004104b	-2.0634944
43	0xbf85955c	-1.0436206
44	0xbc37e50d	-0.011224044
45	0x4021f80c	2.5307646
46	0x3d39b946	0.045342706
47	0xc028f6a9	-2.640055
48	0x4002527a	2.036284
49	0x3efc20a6	0.4924366
50	0xbe2a5af0	-0.16636252
51	0x3faf18b9	1.367942
52	0xbea22bb1	-0.3167396
53	0x3ff0ce89	1.881303
54	0x3f3c6e53	0.7360584
55	0x3fa941c5	1.3223196
56	0xbf5fbc84	-0.87397027
57	0x3f0d1e6e	0.55124557
58	0xc005209e	-2.0801158
59	0x3fbb3f7c	1.4628749
60	0xbf320e02	-0.69552624
61	0xbfd5aae1	-1.6692773
62	0xbf8a4fdc	-1.0805621
63	0x3fb63c6a	1.4237187

fc1_action.bias f4 [32]
0	0xbf937038	-1.1518621
1	0x3fd48a52	1.6604712
2	0xbf511aec	-0.81681705
3	0xbf313787	-0.69225353
4	0xbf02d43d	-0.511051
5	0xbeda3703	-0.42620096
6	0x3f71778f	0.94323057
7	0x3ed45358	0.41469836
8	0x3f4c6ce7	0.7985367
9	0x3f81848b	1.0118574
10	0x3f6ecc4a	0.9328047
11	0x3f9e579b	1.2370485
12	0x3fc33643	1.5250934
13	0x3ecf6891	0.40509465
14	0x3f78c98e	0.9718255
15	0x3ebfcc7b	0.37460694
16	0x3f7035f9	0.93832356
17	0x3f8acdc6	1.0844047
18	0x3f9fa8e8	1.2473421
19	0x3f8a3cbf	1.0799788
20	0x3f880e7a	1.0629418
21	0xbe3398fc	-0.17538828
22	0x3f0e6a5f	0.5563106
23	0x3fa2b508	1.2711496
24	0x3f2e94b7	0.6819567
25	0x3f338a7a	0.70133173
26	0x3fb4345a	1.4078476
27	0x3f0b65a7	0.54451984
28	0x3f852852	1.040293
29	0xbf490ff9	-0.7854
30	0xbe80811a	-0.25098497
31	0x3e00261e	0.1251454

bn1_action.weight f4 [32]
0	0x3feb072f	1.8361567
1	0x3ff8d0a5	1.9438673
2	0x3ff9938b	1.9498152
3	0x3fdf86f9	1.7463065
4	0x3fb6918f	1.4263171
5	0x3fc2d04c	1.5219817
6	0x3fd65fef	1.6748027
7	0x3fb36d9a	1.4017823
8	0x3fbcadd0	1.4740543
9	0x3fd915ec	1.6959815
10	0x3fbd9bc6	1.4813163
11	0x400ab912	2.1675458
12	0x40085b10	2.130558
13	0x3fb0f0b5	1.3823458
14	0x3fc5ce94	1.5453668
15	0x3f9e33cc	1.2359557
16	0x3fd8f1c4	1.6948781
17	0x3fb2abf5	1.3958727
18	0x3fd5c21f	1.6699866
19	0x4023ad44	2.5574503
20	0x3fc13fb2	1.5097563
21	0x3fc97bde	1.5740926
22	0x3fdfaf1d	1.7475315
23	0x403189cb	2.7740352
24	0x3fb02565	1.3761412
25	0x3fde8f05	1.7387396
26	0x3fee6cc1	1.8626939
27	0x3fa5c979	1.295211
28	0x3fc4b512	1.5367758
29	0x3fc2b985	1.5212866
30	0x40188fc6	2.3837752
31	0x3f9c405e	1.2207143

bn1_action.bias f4 [32]
0	0xbf5056d9	-0.8138252
1	0x3f75e964	0.9605925
2	0xbe09558b	-0.13411538
3	0xbde307d0	-0.110854745
4	0x3e23d1e0	0.1599803
5	0xbe0fc6ea	-0.14040723
6	0x3f80b84c	1.0056243
7	0x3f432d07	0.7624058
8	0x3f6fc7dd	0.9366434
9	0x3f6e0cc3	0.9298822
10	0x3f65b44e	0.8972825
11	0x3f86b272	1.0523207
12	0x3f84de0b	1.0380262
13	0x3f4d4420	0.80182076
14	0x3f8ca18d	1.0986801
15	0x3f4c3549	0.79768807
16	0x3f765f80	0.9623947
17	0x3f8f6a3b	1.1204294
18	0x3f761ca8	0.96137476
19	0x3f62dc77	0.8861765
20	0x3f7a7eaf	0.97849554
21	0x3ea8dbbb	0.3298014
22	0x3f4f2bc7	0.80926174
23	0x3f853ec7	1.0409783
24	0x3f5f2f0f	0.8718118
25	0x3f80b2bf	1.0054549
26	0x3f6cf81e	0.92566097
27	0x3f8cb1d0	1.0991764
28	0x3f84b561	1.0367852
29	0xbe2cdf51	-0.16882063
30	0x3d948be0	0.072532415
31	0x3f3e3afb	0.7430875

bn1_action.running_mean f4 [32]
0	0x00000000	0.0
1	0x00000000	0.0
2	0x00000000	0.0
3	0x00000000	0.0
4	0x00000000	0.0
5	0x00000000	0.0
6	0x00000000	0.0
7	0x00000000	0.0
8	0x00000000	0.0
9	0x00000000	0.0
10	0x00000000	0.0
11	0x00000000	0.0
12	0x00000000	0.0
13	0x00000000	0.0
14	0x00000000	0.0
15	0x00000000	0.0
16	0x00000000	0.0
17	0x00000000	0.0
18	0x00000000	0.0
19	0x00000000	0.0
20	0x00000000	0.0
21	0x00000000	0.0
22	0x00000000	0.0
23	0x00000000	0.0
24	0x00000000	0.0
25	0x00000000	0.0
26	0x00000000	0.0
27	0x00000000	0.0
28	0x00000000	0.0
29	0x00000000	0.0
30	0x00000000	0.0
31	0x00000000	0.0

bn1_action.running_var f4 [32]
0	0x3f800000	1.0
1	0x3f800000	1.0
2	0x3f800000	1.0
3	0x3f800000	1.0
4	0x3f800000	1.0
5	0x3f800000	1.0
6	0x3f800000	1.0
7	0x3f800000	1.0
8	0x3f800000	1.0
9	0x3f800000	1.0
10	0x3f800000	1.0
11	0x3f800000	1.0
12	0x3f800000	1.0
13	0x3f800000	1.0
14	0x3f800000	1.0
15	0x3f800000	1.0
16	0x3f800000	1.0
17	0x3f800000	1.0
18	0x3f800000	1.0
19	0x3f800000	1.0
20	0x3f800000	1.0
21	0x3f800000	1.0
22	0x3f800000	1.0
23	0x3f800000	1.0
24	0x3f800000	1.0
25	0x3f800000	1.0
26	0x3f800000	1.0
27	0x3f800000	1.0
28	0x3f800000	1.0
29	0x3f800000	1.0
30	0x3f800000	1.0
31	0x3f800000	1.0

fc2.weight f4 [128, 160]
0	0x3e03e18b	0.12879007
1	0xbddbe9f0	-0.107379794
2	0x3e340457	0.1757978
3	0xbda30661	-0.07960201
4	0xbe7779c9	-0.24167551
5	0xbdcf4038	-0.10119671
6	0xbe151618	-0.1455921
7	0xbe766ab8	-0.24064147
8	0x3d3189f0	0.043344438
9	0x3d011eb3	0.031523418
10	0x3e51a0df	0.20471524
11	0xbe21bc16	-0.15794405
12	0xbc10ef57	-0.008846126
13	0xbdffcb72	-0.12489976
14	0xbebc9e53	-0.36839542
15	0xbe9b913d	-0.30384246
16	0xbe5abaf5	-0.21360381
17	0xbe43e635	-0.19130786
18	0xbe3ec588	-0.1863004
19	0xbe1bea60	-0.15226126
20	0x3e98c18b	0.29835162
21	0xbe6f6ac1	-0.23380567
22	0x3da315b4	0.07963124
23	0x3f354394	0.7080624
24	0xbd85010b	-0.064943396
25	0xbe00cddc	-0.12578529
26	0x3dd6c3ab	0.104865395
27	0xbe7cf83d	-0.2470407
28	0xbdfba594	-0.12287441
29	0xbd15a3ac	-0.036533043
30	0x3e605a3f	0.21909426
31	0xbe9628f4	-0.2932812
32	0x3ed8acec	0.4231943
33	0xbe7fef67	-0.24993668
34	0xbd720042	-0.059082277
35	0xbd2fff6d	-0.042968202
36	0x3e8e572e	0.27800888
37	0x3e910027	0.2832043
38	0x3e466725	0.19375284
39	0xbe46202e	-0.19348213
40	0xbdac11cd	-0.08401833
41	0x3ebf30f1	0.37342027
42	0x3e67745f	0.22602986
43	0x3ecdc6fa	0.4019087
44	0xbdbec07b	-0.093140565
45	0xbd60807e	-0.05481004
46	0x3e24ff87	0.16113101
47	0x3cb4d3ae	0.022073593
48	0xbe959708	-0.2921679
49	0xbebbf051	-0.36706784
50	0xbe26706a	-0.1625382
51	0xbeb3e24e	-0.35133594
52	0x3a9e70d6	0.0012088071
53	0x3ed635be	0.41837877
54	0xbe410b86	-0.18852052
55	0x3c639534	0.013890553
56	0x3e408620	0.18801165
57	0xbe90d883	-0.28290185
58	0x3ff61262	1.922436
59	0x3db6fca2	0.08934905
60	0xbe049ee3	-0.12951235
61	0xbe8b35c2	-0.2718945
62	0xbd97a138	-0.07403797
63	0xbd81e9c3	-0.06343415
64	0xbd700f7e	-0.058608525
65	0xbdbab5fb	-0.09116741
66	0xbce4490f	-0.027866868
67	0xbce316ac	-0.027720772
68	0x3e292386	0.16517457
69	0xbcbf91d6	-0.02338497
70	0xbe969164	-0.294078
71	0x3c877a96	0.016537946
72	0xbe21bfef	-0.15795873
73	0x3e068964	0.13138348
74	0xbe406805	-0.1878968
75	0xbdc494be	-0.09598683
76	0xbe25f07e	-0.16205022
77	0x3e2c1a44	0.16806895
78	0x3ed0d4f7	0.4078748
79	0x3e4a1b30	0.19736934
80	0xbd3e93dc	-0.04652773
81	0xbd4e3e9c	-0.050352678
82	0x3e6083b4	0.21925241
83	0xbe366674	-0.1781252
84	0xbe8d21fc	-0.2756499
85	0xbd543845	-0.051811475
86	0xbdd92a3c	-0.10603759
87	0xbc5e52e9	-0.013569572
88	0x3e328bb8	0.17436111
89	0x3d8f4319	0.0699522
90	0xbe91858e	-0.28422207
91	0x3f10e879	0.56604725
92	0xb9f7cc1f	-0.00047263593
93	0xbe852146	-0.26001948
94	0xbe42acf8	-0.19011295
95	0x3dd03978	0.10167211
96	0xbec18010	-0.37793016
97	0x3dc23a69	0.09483797
98	0x3ee085c0	0.43852043
99	0xbe7d2f51	-0.24725081
100	0xbce62482	-0.02809358
101	0x3e849e23	0.259019
102	0xbe485f89	-0.19567694
103	0xbe554678	-0.20827663
104	0xbdfc56d0	-0.12321246
105	0xbe011ac9	-0.12607874
106	0x3cb9a470	0.022661418
107	0x3cc93a8d	0.024564052
108	0xbe06645a	-0.13124219
109	0xbda10e88	-0.078641
110	0xbd62867c	-0.055304036
111	0xbe204da9	-0.15654625
112	0xbeb85cc3	-0.36008272
113	0xbdef4778	-0.116835535
114	0xbdb0a742	-0.08625652
115	0x3dd5724f	0.10422193
116	0xbdd1c081	-0.10241795
117	0xbe130470	-0.14357162
118	0xbe2cdcc8	-0.16881096
119	0xbea67e28	-0.32518125
120	0xbe946acf	-0.28987738
121	0x3e616b6c	0.22013634
122	0xbe498ca5	-0.19682558
123	0x3d20923d	0.039201964
124	0xbe841b00	-0.2580185
125	0xbe0e5e53	-0.1390317
126	0xbed2f852	-0.41205078
127	0x3e1651bf	0.14679621
128	0xbe9f35eb	-0.31095824
129	0x3e574d64	0.21025616
130	0x3d09e0bc	0.03366159
131	0x3e48bc0e	0.19602987
132	0xbe08e19e	-0.13367316
133	0x3e8ed17e	0.27894205
134	0x3cfdc8ac	0.030979477
135	0x3ed23799	0.41058043
136	0x3ec7fe53	0.3906122
137	0x3e592ccd	0.21208496
138	0x3ed85067	0.42248842
139	0x3e8961d4	0.2683245
140	0x3de65ebb	0.11248537
141	0x3ed88b80	0.4229393
142	0x3dc9aded	0.09847627
143	0xbdb7b51d	-0.089700915
144	0x3e96beca	0.29442436
145	0xbe4c3539	-0.19942178
146	0x3df3a337	0.11896365
147	0x3e0e0e81	0.1387272
148	0xbdbf5ffd	-0.0934448
149	0x3ea276ea	0.3173135
150	0x3e0e5639	0.13900079
151	0x3eb13a16	0.3461463
152	0xbe5d6a83	-0.21622662
153	0x3e6b939f	0.23005532
154	0x3e2435da	0.16036168
155	0x3d8d7869	0.06907732
156	0xbcb071c4	-0.021538623
157	0x3ea7a1b0	0.32740545
158	0x3eb4eb54	0.3533579
159	0x3e99fcad	0.3007559
160	0x3afa9b59	0.0019119784
161	0x3e407bc8	0.18797219
162	0xbf070e1e	-0.52755916
163	0xbebe5931	-0.37177423
164	0xbe3f35ee	-0.18672916
165	0x3d2b6bfb	0.041851025
166	0xbb45d45a	-0.0030186386
167	0x3d288a3c	0.041147456
168	0x3e954749	0.2915595
169	0x3e1e71e4	0.15473133
170	0x3f02f5d9	0.51156384
171	0x3e491799	0.19637908
172	0x3ea1aa42	0.3157521
173	0x3df6a34e	0.12042867
174	0x3e8de920	0.27716923
175	0xbdf38f24	-0.11892536
176	0x3e1750ad	0.14776869
177	0xbe75ac97	-0.23991619
178	0xbb0a7e4c	-0.0021132408
179	0x3c8fbeb2	0.017546985
180	0xbeb7a278	-0.3586614
181	0xbe809c56	-0.25119275
182	0xbdc27344	-0.094946414
183	0xbe61be8a	-0.22045341
184	0xbf2251e4	-0.63406205
185	0xbe8041f7	-0.25050327
186	0xbebaf7b0	-0.36517096
187	0x3db4b83e	0.08824204
188	0xbca451f5	-0.020058611
189	0x3dda0528	0.10645515
190	0xbeb301c3	-0.34962282
191	0x3e8108d7	0.25202057
192	0xbfe9f36c	-1.8277411
193	0xbeadf667	-0.33977053
194	0xbdc65923	-0.0968497
195	0x3d4c81b8	0.049928397
196	0xbee84dc9	-0.45371845
197	0xbe280e9e	-0.16411826
198	0x3dd8f92d	0.105944015
199	0xbe4d7c27	-0.20066892
200	0xbe23a8f7	-0.15982424
201	0xbe396d0e	-0.18108007
202	0x3e07a72a	0.13247362
203	0x3ead0945	0.33796135
204	0x3dd2d7a9	0.1029504
205	0x3d500924	0.050789967
206	0x3e0fc8ce	0.14041445
207	0xbe3f8d46	-0.18706235
208	0xbd9965e1	-0.07490135
209	0x3e910ea9	0.28331497
210	0xbe0f2e80	-0.13982582
211	0x3dba588f	0.090989225
212	0x3d50432b	0.050845306
213	0x3e7ba961	0.24576332
214	0xbd870cb5	-0.065942205
215	0x3d79d8ba	0.060997702
216	0xbd8b7088	-0.06808573
217	0xbe465a2f	-0.1937034
218	0xbf40a3ba	-0.75249827
219	0xbe0be35c	-0.1366095
220	0x3e1763cf	0.14784168
221	0xbd9bef06	-0.076139495
222	0x3c2f0a90	0.010683671
223	0x3dce6b4a	0.100790575
224	0xbbe5e2f0	-0.0070155784
225	0x3de58ad4	0.1120812
226	0xbe0ac540	-0.13551807
227	0xba473f88	-0.00076007145
228	0xbe8c9949	-0.27460697
229	0x3d960b87	0.073264174
230	0x3dc38809	0.09547431
231	0xbd01da51	-0.031702343
232	0x3b46a993	0.0030313476
233	0x3e4234dc	0.18965477
234	0xbe4fb889	-0.20285238
235	0xbe3ef683	-0.18648724
236	0xbca4d9a1	-0.020123305
237	0x3dc04e57	0.09389942
238	0xbd9233dd	-0.071387984
239	0xbdbb01d8	-0.09131211
240	0xbdd37638	-0.10325283
241	0xbb028db9	-0.00199209
242	0xbd426cbf	-0.04746699
243	0xbdb3a342	-0.08771373
244	0x3e929c7f	0.28635022
245	0xbde2c1c1	-0.11072112
246	0xbda4a0c4	-0.08038476
247	0xbe1dfae9	-0.15427746
248	0x3d912f2e	0.07089077
249	0xbee8673e	-0.45391268
250	0xbd105993	-0.035241675
251	0x3e883f2c	0.26610696
252	0xbda011cf	-0.07815897
253	0x3d31beb3	0.043394756
254	0xbdc0f918	-0.09422511
255	0xbd68b7e6	-0.056816004

fc2.bias f4 [128]
0	0x3e5f5163	0.2180839
1	0xbc3f28cf	-0.011667444
2	0x3f772275	0.9653695
3	0x3c680a00	0.01416254
4	0xbe6cd7fe	-0.2312927
5	0xbd4a961a	-0.049459554
6	0xbf946ed4	-1.1596322
7	0x3e7e76ab	0.24849956
8	0x3f4293c1	0.76006705
9	0x3e6af10e	0.22943518
10	0xbed591d3	-0.41712818
11	0x3f26b379	0.65117604
12	0x3ea84809	0.32867458
13	0xbdb0edd6	-0.086391136
14	0xbe0a2de6	-0.13494071
15	0xbe4e2511	-0.20131327
16	0x3d3f38a0	0.04668486
17	0x3e259758	0.16171014
18	0xbe119c3c	-0.14219755
19	0xbee8b9f7	-0.4545438
20	0xbd699f59	-0.05703673
21	0x3dd00aae	0.10158287
22	0x3d7c64eb	0.06161968
23	0x397ed2b5	0.00024301822
24	0xbf56ffba	-0.8398396
25	0xbe7746de	-0.24148127
26	0xbe367980	-0.17819786
27	0x3ea12a0f	0.314774
28	0xbf3f7f0b	-0.7480323
29	0xbe3e6725	-0.18594034
30	0xbf64ace1	-0.8932629
31	0x3e43eb82	0.19132808
32	0xbbdaec75	-0.00668102
33	0x3ecc58c7	0.39911482
34	0x3e23f50c	0.16011447
35	0x3d942f1c	0.07235548
36	0xbdb421de	-0.08795522
37	0x3e2656f8	0.16244113
38	0x3ea7559a	0.32682496
39	0x3dc51c05	0.09624485
40	0xbe07ad50	-0.13249707
41	0x3e8aca50	0.27107477
42	0xbea9b21d	-0.33143702
43	0x3f906f23	1.1283916
44	0xbe559c8c	-0.20860499
45	0xbce3a0e5	-0.027786681
46	0xbefe6a4a	-0.49690467
47	0x3f598ec8	0.8498349
48	0xbd957a22	-0.072986856
49	0x3d98232f	0.07428586
50	0xbcaf6f6f	-0.02141544
51	0x3e172e3c	0.14763731
52	0x3e180a37	0.14847647
53	0xbdb97b90	-0.09056771
54	0xbd63f1e5	-0.05565061
55	0x3e452fff	0.1925659
56	0xbe1df8d0	-0.15426946
57	0x3e7ed26a	0.24884954
58	0x3f11a841	0.5689736
59	0xbda941d1	-0.082645066
60	0x3dc02849	0.09382684
61	0xbe5b4035	-0.21411212
62	0xbf472d3a	-0.77803385
63	0x3e75ade7	0.2399212
64	0x3f051ea0	0.51999855
65	0x3e7f214f	0.2491505
66	0x3d4406af	0.047857936
67	0xbd656483	-0.05600406
68	0x3d943b6e	0.07237898
69	0xbef3ec1d	-0.47641078
70	0xbe89d457	-0.26919815
71	0xbe2dfe07	-0.16991435
72	0x3d61c9d7	0.05512413
73	0x3e8aa775	0.27080885
74	0x3b7fa036	0.0039005405
75	0xbbe523c2	-0.006992788
76	0x3ea910fa	0.33020765
77	0x3e0319e7	0.1280285
78	0xbe0c073a	-0.13674632
79	0x3ee89b3d	0.45430937
80	0x3e8f1cd0	0.2795167
81	0x3f56fb58	0.8397727
82	0x3f033a57	0.51260895
83	0x3d8dfcf9	0.06933016
84	0xbe8252f3	-0.2545391
85	0x3db974bb	0.09055468
86	0xbc81dded	-0.015852893
87	0x3f021c88	0.50824785
88	0x3e40e516	0.1883739
89	0xbe3c6cec	-0.18400925
90	0x3edf5cde	0.4362554
91	0xbd8971a7	-0.067111306
92	0x3e63e4c3	0.22255234
93	0xbcab4211	-0.020905526
94	0xbf14d914	-0.58143735
95	0xbd249a50	-0.040186226
96	0x3cc4fd1c	0.024046473
97	0x3e833b82	0.25631338
98	0xbc97bc55	-0.01852242
99	0x3e499dbe	0.1968908
100	0xbd0e9fa6	-0.03482022
101	0xbe56dfdf	-0.20983838
102	0xbddb2556	-0.10700481
103	0xbe821e34	-0.25413668
104	0x3e6b6e10	0.22991204
105	0xbd9b6560	-0.07587695
106	0x3d766c7d	0.060162056
107	0xbf121ed2	-0.5707828
108	0xbcd92c5c	-0.02651041
109	0x3d0e92a1	0.034807805
110	0x3e4912ea	0.19636121
111	0x3d92254d	0.07136021
112	0x3e834559	0.25638846
113	0xbdd3f6ba	-0.10349794
114	0xbf293adb	-0.6610543
115	0x3f2cc0d7	0.6748175
116	0x3e559be5	0.2086025
117	0x3f055dd9	0.52096325
118	0x3a4f03d2	0.00078969926
119	0xbdeb7a2a	-0.1149791
120	0xbf373a17	-0.71573013
121	0x3e898e30	0.26866293
122	0xbee7b432	-0.45254666
123	0x3e6f6462	0.23378137
124	0xbf387ee2	-0.7206861
125	0x3e80d20e	0.2516026
126	0xbe04caed	-0.12968035
127	0x3ec20794	0.37896407

bn2.weight f4 [128]
0	0x3f9fbe1e	1.2479894
1	0x3f75db02	0.96037304
2	0x3f6bd611	0.92123514
3	0x3f8eb25e	1.1148183
4	0x3fdad960	1.7097588
5	0x3f86db9f	1.0535773
6	0x3f66bf94	0.90136075
7	0x3fa9e7f3	1.327391
8	0x3f5fcffe	0.87426746
9	0x3f86fbed	1.0545632
10	0x3f6b9571	0.92024904
11	0x3fc28824	1.5197797
12	0x3fb3a854	1.4035745
13	0x3f990261	1.1953851
14	0x3f596a6e	0.84928024
15	0x3f732804	0.94982934
16	0x3f8a5b81	1.0809175
17	0x3f8a5f90	1.0810413
18	0x3f6c6a58	0.9234977
19	0x3f608da2	0.87716115
20	0x3f906d36	1.1283329
21	0x3f8c96bb	1.0983499
22	0x3f5e561d	0.8685015
23	0x3f90cb0b	1.1311964
24	0x3f791029	0.97290283
25	0x3faf947f	1.3717192
26	0x3ebb04a9	0.36526993
27	0x3f9e82a1	1.2383615
28	0x3f8c72f9	1.0972587
29	0x3fa203a7	1.2657365
30	0x3f5e0bba	0.86736643
31	0x3f789f2f	0.97117895
32	0x3f8995b5	1.0748812
33	0x3f81fbbb	1.0154947
34	0x3f882797	1.0637082
35	0x3f993e83	1.1972202
36	0x3fa64a2a	1.2991383
37	0x3f64c885	0.8936847
38	0x3f9b540d	1.2135025
39	0x3f952d37	1.1654423
40	0x3f8997e0	1.0749474
41	0x3f8c1c01	1.0946046
42	0x3f981a8e	1.1883104
43	0x3fa20e76	1.2660663
44	0x3fa4f3e0	1.2886925
45	0x3fa5a8ad	1.2942101
46	0x3f5c4c4f	0.8605394
47	0x3f8351cd	1.0259339
48	0x3fa4113e	1.2817762
49	0x3f952c53	1.1654152
50	0x3f940d92	1.1566641
51	0x3faacb1c	1.3343234
52	0x3fb0343d	1.3765942
53	0x3f88feb2	1.0702727
54	0x3f86edd9	1.0541335
55	0x3f8b1063	1.0864376
56	0x3f79e764	0.976187
57	0x3faaf767	1.3356751
58	0x3f929d82	1.1454318
59	0x3fac534f	1.3462924
60	0x3ffafa33	1.9607605
61	0x3f4b5090	0.79419804
62	0x3fab3fd1	1.337885
63	0x3f9a7236	1.2066104
64	0x3f85fc68	1.0467653
65	0x3fa07f5a	1.2538865
66	0x3f83f456	1.030894
67	0x3fafe8d0	1.3742924
68	0x3f98f66c	1.1950202
69	0x3fc90ce7	1.5707062
70	0x3f1f045e	0.6211604
71	0x3f8fd7b6	1.1237705
72	0x3f390776	0.7227701
73	0x3f8a1b01	1.0789491
74	0x3f9fe63b	1.2492136
75	0x3f86b6ac	1.0524497
76	0x3fa7f1ea	1.3120701
77	0x3fc993e9	1.5748264
78	0x3f9baa12	1.2161276
79	0x3f41a771	0.7564612
80	0x3fb11410	1.3834248
81	0x3fa46e70	1.2846203
82	0x3f700587	0.93758434
83	0x3f999b71	1.2000562
84	0x3f463d7a	0.77437556
85	0x3f954e05	1.1664435
86	0x3f7cbad8	0.987226
87	0x3f28a4b4	0.6587632
88	0x3f8d0df2	1.1019881
89	0x3f98c7bb	1.1935953
90	0x3f84ae3f	1.0365676
91	0x3f57d774	0.8431313
92	0x3f29b8bf	0.66297525
93	0x3f7be94d	0.98402864
94	0x3fadd1ec	1.3579688
95	0x3f83ba84	1.0291295
96	0x3f909ddc	1.1298175
97	0x3fac2f48	1.3451929
98	0x3f7d2e1b	0.98898476
99	0x3f8bd888	1.0925455
100	0x3f82e75c	1.0226855
101	0x3f7cf89b	0.9881684
102	0x3fb60684	1.4220738
103	0x3f26602f	0.64990515
104	0x3f802229	1.0010425
105	0x3f644368	0.89165354
106	0x3f9b5bc5	1.2137381
107	0x3f4cd86c	0.80017734
108	0x3f3b99ea	0.7328173
109	0x3f085ca0	0.53266335
110	0x3f803f1a	1.0019257
111	0x3f64a12c	0.8930843
112	0x3f6e790b	0.93153447
113	0x3f363eea	0.7118975
114	0x3f388448	0.72076845
115	0x3f5c9753	0.861684
116	0x3f673f94	0.9033139
117	0x3f98b234	1.1929383
118	0x3f95c283	1.1699985
119	0x3f8d3642	1.1032183
120	0x3f4173f7	0.75567573
121	0x3eff993a	0.4992159
122	0x3f453b6e	0.7704381
123	0x3f87b521	1.0602151
124	0x3f6c5db0	0.92330456
125	0x3f8a9119	1.082553
126	0x3f1b232a	0.6060053
127	0x3f4f9b37	0.81096214

bn2.bias f4 [128]
0	0x3e27d0f7	0.16388308
1	0xbc9a3de3	-0.018828338
2	0x3f83f307	1.0308541
3	0xbccf2464	-0.025285907
4	0xbe4455c5	-0.19173343
5	0xbdc8766b	-0.097882114
6	0xbf8cc940	-1.0998917
7	0x3e4d86f4	0.20071012
8	0x3f30f20a	0.6911932
9	0x3e7c191e	0.24618956
10	0xbec7e0d7	-0.39038727
11	0x3f15a4b4	0.5845444
12	0x3ea76b26	0.32698935
13	0xbdbaa64c	-0.0911375
14	0xbd923106	-0.07138257
15	0xbe280bcc	-0.1641075
16	0x3df4a405	0.11945347
17	0x3db1412f	0.08655011
18	0xbe51337e	-0.20429799
19	0xbedd0deb	-0.4317468
20	0xbd73dc85	-0.059536476
21	0x3d984ca9	0.07436497
22	0x3d0f39b2	0.034967132
23	0xbc3f31cc	-0.011669587
24	0xbf592cca	-0.8483397
25	0xbe40cb70	-0.18827605
26	0xbe7852f7	-0.24250399
27	0x3e9f56b0	0.31120825
28	0xbf37d9a0	-0.71816444
29	0xbe083995	-0.13303216
30	0xbf5e813c	-0.86915946
31	0x3e691a79	0.22764005
32	0x3d78e3c9	0.060764108
33	0x3ec04bd9	0.37557867
34	0x3e2f5808	0.17123425
35	0x3ce3dbf1	0.027814837
36	0xbdd06a0b	-0.10176476
37	0x3e4446da	0.19167653
38	0x3eaf12a4	0.3419391
39	0x3e260f35	0.16216739
40	0xbe30a3b6	-0.17249951
41	0x3e8a7aaf	0.27046725
42	0xbe97d6bb	-0.29656014
43	0x3f8e2429	1.1104785
44	0xbe35f35b	-0.17768614
45	0x3caee3bb	0.021348825
46	0xbef533c4	-0.47891057
47	0x3f53cb94	0.8273251
48	0xbb00b12e	-0.0019636857
49	0x3cab4461	0.020906629
50	0xbd19d307	-0.037554767
51	0x3e16cdee	0.14726993
52	0x3e2cb9bd	0.16867729
53	0xbdac7adf	-0.08421873
54	0x3c73d1bc	0.014881548
55	0x3df416b9	0.119183965
56	0xbdf906b6	-0.12159483
57	0x3e548f7d	0.20757861
58	0x3f130695	0.5743192
59	0xbcc2cfcb	-0.023780724
60	0x3e177f77	0.14794718
61	0xbe140e50	-0.14458585
62	0xbf57b831	-0.8426543
63	0x3e3d6127	0.18494092
64	0x3f170b3d	0.59001523
65	0x3e5731c1	0.21015073
66	0x3d08bea3	0.03338493
67	0xbdf772a6	-0.12082414
68	0x3da36503	0.07978251
69	0xbef0dd54	-0.4704386
70	0xbe7bdd65	-0.24596174
71	0xbdba9859	-0.09111089
72	0x3df302d8	0.11865777
73	0x3e51d418	0.20491064
74	0xbd60b547	-0.05486038
75	0x3c591477	0.013249508
76	0x3e8bd9f0	0.2731471
77	0x3d6806de	0.056647174
78	0xbdd80774	-0.105482966
79	0x3ee9df88	0.45678353
80	0x3e788955	0.24271138
81	0x3f55dc0c	0.8353889
82	0x3ee1ab4b	0.44076
83	0x3de4edc2	0.11178161
84	0xbe45b3aa	-0.19306818
85	0x3d8ccb36	0.06874697
86	0x3bc693ad	0.006060085
87	0x3f172847	0.59045833
88	0x3e14c7eb	0.14529388
89	0xbe29d835	-0.16586383
90	0x3eca6200	0.39527893
91	0xbdbcba8f	-0.09215271
92	0x3e96c0a3	0.29443845
93	0x3cae265c	0.021258526
94	0xbf23e1cc	-0.64016414
95	0x3bbfdf22	0.005855457
96	0x3ce37665	0.027766416
97	0x3ea1098f	0.31452605
98	0xbd957a32	-0.072986975
99	0x3dfd3e27	0.1236537
100	0x3ce9be66	0.028533172
101	0xbe67da57	-0.22641884
102	0xbdbdbf70	-0.092650294
103	0xbe572f50	-0.21014142
104	0x3e2c854b	0.16847722
105	0xbdf0e219	-0.11761875
106	0x3e02dfc3	0.12780671
107	0xbf04c3a4	-0.51861024
108	0xbd96f029	-0.07370026
109	0xbcd4a886	-0.025959264
110	0x3e6545f6	0.22389969
111	0x3cb01779	0.021495568
112	0x3e3cdfa2	0.18444684
113	0xbd6712d4	-0.05641444
114	0xbf39ea7e	-0.7262343
115	0x3f308268	0.68948984
116	0x3e6290c1	0.22125532
117	0x3f0482cc	0.5176208
118	0xbcd03d3f	-0.02541983
119	0xbd27398f	-0.040826377
120	0xbf2e5367	-0.6809601
121	0x3e9ddd5d	0.3083295
122	0xbed6ea53	-0.4197565
123	0x3e9c779a	0.3056
124	0xbf318faa	-0.6935984
125	0x3e726b41	0.23673727
126	0xbd8dde66	-0.06927185
127	0x3eac4dd1	0.3365312

bn2.running_mean f4 [128]
0	0x00000000	0.0
1	0x00000000	0.0
2	0x00000000	0.0
3	0x00000000	0.0
4	0x00000000	0.0
5	0x00000000	0.0
6	0x00000000	0.0
7	0x00000000	0.0
8	0x00000000	0.0
9	0x00000000	0.0
10	0x00000000	0.0
11	0x00000000	0.0
12	0x00000000	0.0
13	0x00000000	0.0
14	0x00000000	0.0
15	0x00000000	0.0
16	0x00000000	0.0
17	0x00000000	0.0
18	0x00000000	0.0
19	0x00000000	0.0
20	0x00000000	0.0
21	0x00000000	0.0
22	0x00000000	0.0
23	0x00000000	0.0
24	0x00000000	0.0
25	0x00000000	0.0
26	0x00000000	0.0
27	0x00000000	0.0
28	0x00000000	0.0
29	0x00000000	0.0
30	0x00000000	0.0
31	0x00000000	0.0
32	0x00000000	0.0
33	0x00000000	0.0
34	0x00000000	0.0
35	0x00000000	0.0
36	0x00000000	0.0
37	0x00000000	0.0
38	0x00000000	0.0
39	0x00000000	0.0
40	0x00000000	0.0
41	0x00000000	0.0
42	0x00000000	0.0
43	0x00000000	0.0
44	0x00000000	0.0
45	0x00000000	0.0
46	0x00000000	0.0
47	0x00000000	0.0
48	0x00000000	0.0
49	0x00000000	0.0
50	0x00000000	0.0
51	0x00000000	0.0
52	0x00000000	0.0
53	0x00000000	0.0
54	0x00000000	0.0
55	0x00000000	0.0
56	0x00000000	0.0
57	0x00000000	0.0
58	0x00000000	0.0
59	0x00000000	0.0
60	0x00000000	0.0
61	0x00000000	0.0
62	0x00000000	0.0
63	0x00000000	0.0
64	0x00000000	0.0
65	0x00000000	0.0
66	0x00000000	0.0
67	0x00000000	0.0
68	0x00000000	0.0
69	0x00000000	0.0
70	0x00000000	0.0
71	0x00000000	0.0
72	0x00000000	0.0
73	0x00000000	0.0
74	0x00000000	0.0
75	0x00000000	0.0
76	0x00000000	0.0
77	0x00000000	0.0
78	0x00000000	0.0
79	0x00000000	0.0
80	0x00000000	0.0
81	0x00000000	0.0
82	0x00000000	0.0
83	0x00000000	0.0
84	0x00000000	0.0
85	0x00000000	0.0
86	0x00000000	0.0
87	0x00000000	0.0
88	0x00000000	0.0
89	0x00000000	0.0
90	0x00000000	0.0
91	0x00000000	0.0
92	0x00000000	0.0
93	0x00000000	0.0
94	0x00000000	0.0
95	0x00000000	0.0
96	0x00000000	0.0
97	0x00000000	0.0
98	0x00000000	0.0
99	0x00000000	0.0
100	0x00000000	0.0
101	0x00000000	0.0
102	0x00000000	0.0
103	0x00000000	0.0
104	0x00000000	0.0
105	0x00000000	0.0
106	0x00000000	0.0
107	0x00000000	0.0
108	0x00000000	0.0
109	0x00000000	0.0
110	0x00000000	0.0
111	0x00000000	0.0
112	0x00000000	0.0
113	0x00000000	0.0
114	0x00000000	0.0
115	0x00000000	0.0
116	0x00000000	0.0
117	0x00000000	0.0
118	0x00000000	0.0
119	0x00000000	0.0
120	0x00000000	0.0
121	0x00000000	0.0
122	0x00000000	0.0
123	0x00000000	0.0
124	0x00000000	0.0
125	0x00000000	0.0
126	0x00000000	0.0
127	0x00000000	0.0

bn2.running_var f4 [128]
0	0x3f800000	1.0
1	0x3f800000	1.0
2	0x3f800000	1.0
3	0x3f800000	1.0
4	0x3f800000	1.0
5	0x3f800000	1.0
6	0x3f800000	1.0
7	0x3f800000	1.0
8	0x3f800000	1.0
9	0x3f800000	1.0
10	0x3f800000	1.0
11	0x3f800000	1.0
12	0x3f800000	1.0
13	0x3f800000	1.0
14	0x3f800000	1.0
15	0x3f800000	1.0
16	0x3f800000	1.0
17	0x3f800000	1.0
18	0x3f800000	1.0
19	0x3f800000	1.0
20	0x3f800000	1.0
21	0x3f800000	1.0
22	0x3f800000	1.0
23	0x3f800000	1.0
24	0x3f800000	1.0
25	0x3f800000	1.0
26	0x3f800000	1.0
27	0x3f800000	1.0
28	0x3f800000	1.0
29	0x3f800000	1.0
30	0x3f800000	1.0
31	0x3f800000	1.0
32	0x3f800000	1.0
33	0x3f800000	1.0
34	0x3f800000	1.0
35	0x3f800000	1.0
36	0x3f800000	1.0
37	0x3f800000	1.0
38	0x3f800000	1.0
39	0x3f800000	1.0
40	0x3f800000	1.0
41	0x3f800000	1.0
42	0x3f800000	1.0
43	0x3f800000	1.0
44	0x3f800000	1.0
45	0x3f800000	1.0
46	0x3f800000	1.0
47	0x3f800000	1.0
48	0x3f800000	1.0
49	0x3f800000	1.0
50	0x3f800000	1.0
51	0x3f800000	1.0
52	0x3f800000	1.0
53	0x3f800000	1.0
54	0x3f800000	1.0
55	0x3f800000	1.0
56	0x3f800000	1.0
57	0x3f800000	1.0
58	0x3f800000	1.0
59	0x3f800000	1.0
60	0x3f800000	1.0
61	0x3f800000	1.0
62	0x3f800000	1.0
63	0x3f800000	1.0
64	0x3f800000	1.0
65	0x3f800000	1.0
66	0x3f800000	1.0
67	0x3f800000	1.0
68	0x3f800000	1.0
69	0x3f800000	1.0
70	0x3f800000	1.0
71	0x3f800000	1.0
72	0x3f800000	1.0
73	0x3f800000	1.0
74	0x3f800000	1.0
75	0x3f800000	1.0
76	0x3f800000	1.0
77	0x3f800000	1.0
78	0x3f800000	1.0
79	0x3f800000	1.0
80	0x3f800000	1.0
81	0x3f800000	1.0
82	0x3f800000	1.0
83	0x3f800000	1.0
84	0x3f800000	1.0
85	0x3f800000	1.0
86	0x3f800000	1.0
87	0x3f800000	1.0
88	0x3f800000	1.0
89	0x3f800000	1.0
90	0x3f800000	1.0
91	0x3f800000	1.0
92	0x3f800000	1.0
93	0x3f800000	1.0
94	0x3f800000	1.0
95	0x3f800000	1.0
96	0x3f800000	1.0
97	0x3f800000	1.0
98	0x3f800000	1.0
99	0x3f800000	1.0
100	0x3f800000	1.0
101	0x3f800000	1.0
102	0x3f800000	1.0
103	0x3f800000	1.0
104	0x3f800000	1.0
105	0x3f800000	1.0
106	0x3f800000	1.0
107	0x3f800000	1.0
108	0x3f800000	1.0
109	0x3f800000	1.0
110	0x3f800000	1.0
111	0x3f800000	1.0
112	0x3f800000	1.0
113	0x3f800000	1.0
114	0x3f800000	1.0
115	0x3f800000	1.0
116	0x3f800000	1.0
117	0x3f800000	1.0
118	0x3f800000	1.0
119	0x3f800000	1.0
120	0x3f800000	1.0
121	0x3f800000	1.0
122	0x3f800000	1.0
123	0x3f800000	1.0
124	0x3f800000	1.0
125	0x3f800000	1.0
126	0x3f800000	1.0
127	0x3f800000	1.0
