myrobot/src/SAC/saved_model/1217_2_actions_actionreward_3_5/sac_actor_1217_2_actions_actionreward_3_5_EP604.pt (torch, 47895 bytes, 10 tensors)

fc1.weight f4 [128, 4]
00000000: 6254 39bf ce32 223f 734d 943f 86d3 c03c
00000010: 9c68 a4be 5cf4 cb3d 958c 41bf c57a 33bc
00000020: 271d 0e3e dea4 c03d 0d9d 8fbf 7ba8 e9bd
00000030: 32e3 98bf 2488 163e 7ad3 333e 2b84 023d
00000040: 5008 933f 7a5d e33e 62ec 273e dfba cf3c
00000050: 2d03 c7bf 3a07 8bbf 781f dcbd 605a 96bd
00000060: 18a2 2bbf f334 363d f471 bf3e b9e7 55bd
00000070: 6a49 a53e 48fb 63bf e4fe 853e 7593 d9bd
00000080: 0624 d0bf 2e1c 9a3e 8d18 adbe d845 85bd
00000090: 1c26 2abf 49e0 363f 8a35 be3d 74bc 91bd
000000a0: 8b67 24bd 6e80 babc 51bf 873f 9b80 3abc
000000b0: bf2d 0d3d f585 c13c 5eb3 34c0 f116 6a3c
000000c0: ffb9 c0be b95b 17c0 e48c 3f3e de96 6d3c
000000d0: d4bd 6dbf 6165 0abf fc56 86bf 4d3b 62bc
000000e0: 91cf 6f3f 6444 2dc0 565b 9a3d d75b e33b
000000f0: 998d 32be 79d0 c13e 5540 7e3f b387 01bc
00000100: bb7b 76be ac24 22c0 d34d 413e 8d5b 2dbd
00000110: e36a 09bf 6341 f73d 1402 a4bf 7e62 db3c
00000120: 2d26 d6bd 9090 4e3d 1d57 7abf 902c e3bb
00000130: c613 b9bf 2899 1b3e a64b a83d d0e1 b4bc
00000140: 59a0 9fbf 3dce 17bf 47ee 04bf 4177 fd3a
00000150: b7d8 2bbf 2b7a da3d c021 12bf 41ce 173d
00000160: 5821 bebf 7e41 96bf 8314 07bf 8509 bd3c
00000170: 4760 c23f 4469 07c0 7fb4 7b3e ae23 0dba
00000180: 1f8a 823f 9768 143e d0d6 853f f84e eebc
00000190: 84b5 10be b840 0e3f 2494 12c0 4078 503c
000001a0: 2a4c 613e b69b cb3d b9e3 ce3e 89fd b3bc
000001b0: eea5 d53f 7c8e 8e3f 62ff fb3d 49ed 38bc
000001c0: ecf7 be3e 83b9 593f 22d9 54bd c93c 56bd
000001d0: 807f 3fbc ca38 8e3f 9400 32bf 8fa8 ec3b
000001e0: 7501 a43f 3714 013f dc92 c4bd 59c9 7ebc
000001f0: fbca 4c3f 668b 44bf ca2e 873e cfe1 25bc
00000200: d6e7 5bbf 0dac d73e 35fd 853e b14d 7dbc
00000210: be5f abbf 7c21 a8bf 823b 243f 8b6a 1e3c
00000220: 0cb8 8abf a0f2 143d 52b9 c73e 72d0 42bc
00000230: a1dc f7bf 5d1e 3dbf 889a 31be 38c8 8f3c
00000240: c32b 823f 833d 9a3d b9f2 f4be 5095 b1ba
00000250: f835 a7bf b358 c3be 95d6 933d 2dcb 3fba
00000260: 5a14 af3f 9a54 503e c4a9 143f fd63 a1bc
00000270: d8f7 133f 7cbd b1bf d2a3 90bf 27a4 d9bc
00000280: ec86 943f 56c5 d1bf d5dc 4e3e 1776 05be
00000290: 1803 94be c5e3 8cbe 85b7 1ebf a39a 2cbe
000002a0: 1c98 40be 07f0 36be 1f3f 28bf 8a9c 9dbd
000002b0: 0a3a 80bf 4959 1dbe 1203 edbe 4ee9 9ebd
000002c0: 7254 81be 1236 c7bf e5ed 4a3e 5093 eb3a
000002d0: 2281 92bf 245b 293e 71d7 b4bf 0ed3 8e3c
000002e0: 7268 f43e 0602 d9bf 40f7 f8be 00dc 803c
000002f0: a859 783e 1a7f 1d3d 81f5 9dbe 3d09 60be
00000300: 0bf4 c43f 9a68 ca3d e31d fc3d d61c a3bc
00000310: b38f 92bf 2e85 b53e 0195 b2bf e100 8d3c
00000320: 060d 283d 31aa 093f 90a6 a7bf d1db 433c
00000330: d854 6040 2ff0 12bd 0533 693e 20e5 a0bc
00000340: 823f 253f 9d10 21c0 6c81 ae3e 9aad 80ba
00000350: 05a5 803b a1a7 2ac0 b2a6 a7bd cd5c ac3a
00000360: 9ade 83bf 4188 69be 89cd b7bf 161f 793c
00000370: 50e3 46bf 35bd 22c0 48b7 423f ce55 053c
00000380: c3f6 44c0 6db8 8dbf 376f b13e e5bb ffbc
00000390: 9df9 53bf 4c5c 4c3e 7165 7d3f 1f6a ea3c
000003a0: 93cb 883f 782d 9ebf ce2b 8bbe 2ed4 25bb
000003b0: c1f3 a5bf 10db 9d3e 5ea7 9abf 3023 41bc
000003c0: 6961 bebd a31e 02c0 e770 2ebd fd69 6bba
000003d0: 7674 c9bc 80bd 0a3e 80ed 92bf 837b 87be
000003e0: 7eb0 0ac0 f14d ee3e 0185 263d 35c0 d6ba
000003f0: 867e cbbb 4bb0 1dc0 c384 e43e 3de7 283c
-0.7239438 0.6335877 1.1586136 0.023538362 -0.3211106 0.09958717 -0.75605136 -0.0109545635
0.13878308 0.09406446 -1.1219803 -0.11409088 -1.1944335 0.14700371 0.1756114 0.031864326
1.1486912 0.44407254 0.16398767 0.025357662 -1.5547844 -1.086158 -0.1074819 -0.073414564
-0.6704421 0.04448409 0.37391627 -0.05222294 0.32282573 -0.890553 0.2617103 -0.10623828
-1.6260993 0.30099624 -0.33807793 -0.06507462 -0.664644 0.7143598 0.092875555 -0.07116023
-0.04013781 -0.022766318 1.060526 -0.011383201 0.034467455 0.023623446 -2.8234477 0.014287696
-0.37641904 -2.3649733 0.1870609 0.014501302 -0.9286778 -0.5406094 -1.0495296 -0.013808084
0.93676096 -2.7072992 0.07536952 0.0069384384 -0.17436828 0.37854365 0.9931691 -0.007905888
-0.24070637 -2.5334883 0.18877344 -0.042323638 -0.5367872 0.120730184 -1.2813134 0.026780363
-0.104565 0.050430834 -0.97789174 -0.0069328025 -1.4459159 0.15195143 0.08217554 -0.022080332
-1.2470809 -0.5929907 -0.5192608 0.0019337909 -0.67127556 0.10667833 -0.5708275 0.037061933
-1.4853926 -1.1738737 -0.52765673 0.023075828 1.5185632 -2.1158 0.24580573 -0.000538404
1.0198401 0.14493023 1.045618 -0.02909039 -0.14131743 0.555675 -2.2902918 0.012723982
0.2200171 0.09941809 0.40408114 -0.02197148 1.6691263 1.1137233 0.1230457 -0.011287042
0.37298524 0.85048693 -0.051964886 -0.052304063 -0.011688113 1.1111081 -0.6953213 0.007222242
1.2812945 0.5042147 -0.09598324 -0.015550935 0.79997224 -0.76775205 0.26402885 -0.010124638
-0.8590063 0.42123452 0.26169744 -0.015460418 -1.3388593 -1.3135219 0.641533 0.0096689565
-1.0837417 0.036364198 0.39008576 -0.011890518 -1.9364206 -0.73874456 -0.17344105 0.017551526
1.0169605 0.07531264 -0.47841433 -0.0013548527 -1.3063345 -0.3815361 0.07218663 -0.00073163473
1.3678086 0.20344773 0.5807154 -0.019700998 0.57800055 -1.3885951 -1.1299994 -0.026567532
1.1603675 -1.6388347 0.20201428 -0.13033329 -0.2890861 -0.27517524 -0.6199878 -0.16855864
-0.18808025 -0.17865 -0.65721315 -0.07695873 -1.0017712 -0.15366091 -0.46291405 -0.07759343
-0.2525974 -1.5563376 0.19817312 0.001797298 -1.1445658 0.16538674 -1.4128247 0.017434623
0.47735935 -1.6953743 -0.48626137 0.015729904 0.24252951 0.03845129 -0.30851367 -0.21878524
1.5386976 0.098832324 0.12310388 -0.019911211 -1.1450104 0.3545317 -1.3951722 0.017212333
0.041028045 0.53775316 -1.3097706 0.011954264 3.5051785 -0.03587359 0.22773369 -0.019640505
0.6455003 -2.516639 0.34083116 -0.0009817362 0.003925922 -2.6664813 -0.081860915 0.0013150215
-1.0302308 -0.22805883 -1.4359599 0.015205165 -0.776906 -2.5427983 0.76060915 0.008138133
-3.0775611 -1.1071907 0.34655163 -0.031217525 -0.82802755 0.19957083 0.9898291 0.028615056
1.0687126 -1.2357626 -0.27181858 -0.002530347 -1.2965013 0.30831194 -1.2082326 -0.0117881745
-0.09295923 -2.03312 -0.04258814 -0.0008980332 -0.024591666 0.13548851 -1.1478729 -0.2646142
-2.1670222 0.4654384 0.040654186 -0.0016384186 -0.006210151 -2.463885 0.4463254 0.010309038

fc1.bias f4 [128]
00000000: fe1b 85bf 57a2 493f 55f0 563f a333 0ec0
00000010: a9da cc3f 5e24 6c3e 9da2 4f3f 5cbe efbe
00000020: 3e46 4c3f 0c5d 35be 6945 b03f 7a97 3abe
00000030: dd96 20bf cc16 023f 3adb f73e 9d78 c1bf
00000040: d6b0 19bf f84e 02c0 b361 2ebe a686 7fbf
00000050: bf7e c83f 235a e3bf f861 323e 0613 883d
00000060: 6efc 973f 216f 143e 172f 723f f63c efbe
00000070: dae9 943f 0cc3 583f 78be d33f 23f7 d53d
00000080: 98d3 3a3f 4eae 03bc f548 5d3e 9da8 fbbf
00000090: 3f4c 0e3f 4a4b 3cbe 2f1e bd3c 0753 02bf
000000a0: 8a8c cbbf 74fb 003f f81b fb3e d6e1 c83f
000000b0: 839c 5d3f 7055 87bf 5d91 24bf 5c2f 4abf
000000c0: da1b 0240 8b6c a6bf 5854 67bd 33e5 263e
000000d0: d421 b93f 7a84 ca3f cd0b 823f d95c cfbe
000000e0: 34ee 373f 043f 90bf 3aae cd3f 4370 30bf
000000f0: e410 d93f 8f54 6ebf d092 ce3d a32a 953d
00000100: afa7 b23f cbb2 cd3f fb92 b43e 5701 d5bd
00000110: faf3 a03f 000c 07c0 3822 6ebf 3793 21bc
00000120: 43c5 623e 9dd7 51bf 2f1c 443f 885f dfbf
00000130: e8cb c2bf c053 a8be 0da1 a5be 1efe 90bf
00000140: 4603 b83f 6359 8e3e 273f be3f eff1 3fbe
00000150: c8a6 fa3f 3bf8 1ac0 38a2 83bf 739e 093f
00000160: 590f 9ebf d12e 20bf f174 40be 47df e03f
00000170: 7554 1dbf 0ce9 10c0 fc93 853f 2047 b4be
00000180: 2c8e 483f 07e5 1ec0 8f4f 20bf d406 09bc
00000190: 3a4c 5abf 86d5 01c0 ac24 963f d7d2 31be
000001a0: be79 79bf a5ba 9bbf 5293 a4bf a680 673f
000001b0: d95d 453e 736f 82bf c6cc bb3e 8694 923f
000001c0: 3140 09c0 7ac2 a9bf 49eb 56be 3159 663f
000001d0: cbae 8abd e81f 733f cd95 b63f d728 343e
000001e0: 578a 0ec0 f43f ba3f 8d54 c53e eba9 893f
000001f0: 6a55 40be 7966 263e f11f fdbe a8b6 27bf
-1.0399168 0.78763336 0.8396047 -2.2219017 1.600423 0.23060748 0.81107503 -0.4682492
0.7979468 -0.17711276 1.3771182 -0.18221846 -0.627302 0.50816035 0.48409444 -1.5114933
-0.60035455 -2.0360699 -0.17029457 -0.9981483 1.566368 -1.7761883 0.17420185 0.066442534
1.187391 0.14495517 0.94603103 -0.46726197 1.1633866 0.8467262 1.6542501 0.10447528
0.72979116 -0.008037163 0.21609862 -1.9660832 0.5558509 -0.18388095 0.023085682 -0.5090794
-1.5902264 0.50383687 0.49044776 1.569392 0.8656694 -1.0572948 -0.64284307 -0.78978515
2.03295 -1.3001875 -0.05647692 0.1629837 1.4463449 1.5821679 1.0159851 -0.40500525
0.71847844 -1.1269231 1.6068795 -0.689213 1.695828 -0.93097776 0.10086596 0.07283523
1.3957423 1.6070188 0.35268387 -0.10400646 1.2574456 -2.1101074 -0.93020964 -0.009861759
0.22145562 -0.81969625 0.76605505 -1.7451029 -1.5218477 -0.32876396 -0.32349434 -1.132755
1.4375999 0.27802572 1.4863023 -0.18744634 1.9582148 -2.4214008 -1.028388 0.537574
-1.2348434 -0.62571436 -0.1879461 1.7568139 -0.61456996 -2.264224 1.0435786 -0.35210514
0.7834194 -2.4827287 -0.62621397 -0.008363444 -0.8527256 -2.0286574 1.1729941 -0.17365585
-0.9745139 -1.2166334 -1.2857459 0.90430677 0.19274081 -1.0190262 0.36679667 1.1451576
-2.144543 -1.3262475 -0.20988192 0.89979845 -0.0677162 0.9497056 1.4264466 0.17593704
-2.2271936 1.4550767 0.3854107 1.075498 -0.18782583 0.16250028 -0.49438432 -0.65513086

fc2.weight f4 [64, 128]
00000000: 6176 1abe 1e78 14bd eb07 f63c aaaf b3be
00000010: 3c8f 01be 5844 68bd db2e 82be 3ea1 2bbc
00000020: d81e 22bf a1b1 ad3e 56f1 a2be 9354 003d
00000030: 59ec 563e 7466 32be ad43 763e 5fe4 263e
00000040: ce33 bc3c aae7 efbd f33d 5e3c 7f48 55be
00000050: 3e70 64be 7e71 bb3e 3940 b5bd 217a dc3e
00000060: 0c95 3abe 3261 be3e f6f7 01bf 7a2d 093e
00000070: 21d8 9e3c f96d 3ebe ea64 2bbe a771 d63e
00000080: b985 27bc 530d 5c3e 06a0 693c 342d b9bd
00000090: 0c64 63be bf27 603d 1984 ce3c 7e12 c53d
000000a0: 9da4 953e 405b da3d 665d bf3d 2cfb 1dbf
000000b0: 2bde 033e b512 09bd 4db4 bc3d 5072 b73e
000000c0: e2a6 87be c76c fe3d 5c58 653e 9383 073f
000000d0: 7c18 a53e 281b aabd 8a80 643e 8897 153e
000000e0: 6dd0 85be 8bfd a5be 9988 46bd a19f 053e
000000f0: 7576 83be a08e 433d e851 14bf 1487 c03e
00000100: bab5 e8bd fe54 183d 6c46 963e 51d3 183f
00000110: 48fa 743c a07c 5ebd 0d05 743e b4b7 023d
00000120: 0514 803e 9eee 0bbe 6ae4 ff3e 7190 c4bd
00000130: 7e62 9bbd f7e6 8d3e 2cf2 48be 1826 8fbe
00000140: 9afb 93bd 5aeb 85bd 7445 993c f5ee 173d
00000150: 7dd4 0cbf 1257 ce3d a1a5 7ebc d4dc 88bd
00000160: 5045 49be fdd8 eabc b56e 9abe ea93 6abe
00000170: a479 ca3e 8be3 f33e 71e9 25bf 0d9d 39ba
00000180: f50b 083f 8208 053e 2062 333e 320c 8ebd
00000190: 0a61 bbbc e9ea 0dbe e74a 113c 062e 7d3e
000001a0: b5e2 1bbd c45f 893c ea85 45be 8c05 d63d
000001b0: cc0a 363d edf4 12bd fc4e ea3e 1998 2e3f
000001c0: 8895 713c 01f1 473e 55e1 a0be 1715 c6bd
000001d0: ef3e c73d a2bb 1e3c 35b3 33bf 4651 6a3e
000001e0: 0cda e03e 7980 f4bd a7b0 f53c 34ae e13e
000001f0: 30a3 e3bd c2b7 0b3f df22 9e3e a116 9dbc
00000200: d9ea 0ebd 89d4 df3e e1a1 953f 852f c0be
00000210: 0178 0abc ca5e 0f3f db84 fc3d 7fc1 aabc
00000220: 8205 34be 5dc5 ebbd 4ed0 643b eb29 d0bd
00000230: 7d33 10bf c950 98be b6a7 9ebf 02a6 84bb
00000240: d98c 463d dbf4 82be fb39 b33e d4ae 9cbe
00000250: c607 423e 69ec ed3d b6b7 a2ba e7de 88be
00000260: e987 76bd 0513 0ebf 34d3 ccbd a3b4 f53d
00000270: c0ca 38bd 620b bbbe e455 203e a387 a13d
00000280: 88ae 813b 184f 703e bc3e 11be 0b21 563e
00000290: 8813 95bd d5c6 98be 405c 28be 6e1c 023d
000002a0: d910 63be 8373 273e ba3d 183d 5fe2 a43e
000002b0: 111d a53d 6498 1bbe 80b4 adbe 99cb 62be
000002c0: 069b 94bd 9d51 12be 0fcf d73e 2e16 fcbe
000002d0: 3d52 213e 5506 3d3b 0fd6 133e 4e5d f8bd
000002e0: 464f a6bc 308d 9a3d 183a 1938 4332 a0bf
000002f0: 9263 663a 2870 a63d 6435 b33e b4e5 dabe
00000300: 190a cd3e ea59 76be 6673 b7be 1671 4f3e
00000310: b33c 1dbd 1cf0 283d 0151 6ebb b488 61be
00000320: fdaf 07bf 6c6e 753e 49de 88be 4d6c 08bd
00000330: e763 f9be b4ae 94bb b946 73bd 1d35 67be
00000340: 75d6 3f3b 55a9 0d3e 793e 893e 6cc0 323f
00000350: 5dcb f53e 006a 023d 90b4 8fbd 8fbd 6f3d
00000360: 2daf 63bc 42fe 98be 9d34 e23c b763 2abf
00000370: bba4 573e ce21 673e 1b57 163e 9046 ff3d
00000380: 43ed 57be dfb1 15be d240 13bd 2f0f 15be
00000390: 4656 c3be 2481 cbbe 2b71 da3e 5871 a53e
000003a0: fff5 c0be 78d3 aebd 89c3 91bf d398 0d3c
000003b0: c10a 383e 2472 1fbf 087e 12bf e536 513e
000003c0: ab3f a4be 0455 4bbf 1cb0 f53d 5a99 1f3e
000003d0: 53cc 7cbe 75be 0d3e 5a48 403f 806b 983e
000003e0: f766 a93e c41f fe3c 07e4 fabe 4276 d0bc
000003f0: 95c3 80be 7fd8 31bf 46a7 d93d 602d 04be
-0.1508422 -0.036247365 0.030033072 -0.3509496 -0.12652296 -0.056705803 -0.25426373 -0.010475455
-0.63328314 0.33924583 -0.3182475 0.031330656 0.20988597 -0.17421895 0.24049254 0.16298054
0.022973921 -0.11714108 0.0135645745 -0.20828436 -0.22308442 0.36610025 -0.0885014 0.43061927
-0.1822092 0.3718353 -0.50768983 0.13396254 0.019390168 -0.18596639 -0.16737714 0.41883585
-0.010224753 0.21489458 0.014259344 -0.09041825 -0.22206134 0.054725405 0.025209473 0.09622668
0.29227152 0.10661936 0.09343986 -0.6171138 0.12877719 -0.033465106 0.09214077 0.358294
-0.2649451 0.124230914 0.22396988 0.5293514 0.32245243 -0.08305961 0.22314659 0.14608586
-0.2613558 -0.3242 -0.048470113 0.13049175 -0.25676313 0.04774344 -0.5793748 0.37603056
-0.113627866 0.03719043 0.29350603 0.59697443 0.01495225 -0.05431807 0.23830052 0.031913474
0.25015274 -0.13665244 0.49978954 -0.095978625 -0.07587145 0.27715275 -0.19623631 -0.2795875
-0.072257236 -0.065390304 0.018709876 0.03709312 -0.5501173 0.10075201 -0.015542419 -0.066827446
-0.19655347 -0.028667921 -0.30162588 -0.22907987 0.3954593 0.4763454 -0.6480933 -0.00070805923
0.53143245 0.12991527 0.175179 -0.0693592 -0.02287342 -0.13859142 0.008867956 0.24724588
-0.038058 0.016769297 -0.19289365 0.10450277 0.04444389 -0.03587811 0.45763385 0.6820083
0.014745124 0.1952553 -0.31421915 -0.09671991 0.097288005 0.00968829 -0.70195323 0.22882566
0.43916357 -0.11938567 0.029991461 0.4407822 -0.1111511 0.5457727 0.3088598 -0.01917583
-0.034891937 0.4371684 1.1690027 -0.37536255 -0.008451463 0.5600401 0.12330028 -0.02084422
-0.17580226 -0.115122534 0.0034914198 -0.10164245 -0.56328565 -0.29749134 -1.2394931 -0.00404811
0.048474167 -0.25577435 0.35005173 -0.30602133 0.18948278 0.11617357 -0.0012414369 -0.2673256
-0.060188208 -0.5549777 -0.10001221 0.11997344 -0.045115232 -0.36532122 0.15657765 0.07887199
0.0039575733 0.23467672 -0.14184088 0.20911042 -0.07279116 -0.29839197 -0.1644144 0.031765394
-0.22174396 0.16352658 0.037168242 0.32203957 0.080621846 -0.15194851 -0.33926773 -0.22147979
-0.07256131 -0.14288945 0.4215016 -0.49235672 0.15754028 0.0028842886 0.14437126 -0.121271715
-0.020301472 0.07546461 3.6532147e-05 -1.2515339 0.0008788641 0.08126861 0.3500167 -0.42753375
0.40046766 -0.24057737 -0.3583023 0.20257983 -0.038387965 0.04124461 -0.00363642 -0.22024804
-0.5300291 0.23967904 -0.2673209 -0.03330641 -0.48709032 -0.004537428 -0.05939362 -0.22578855
0.0029272113 0.13834126 0.26805475 0.6982486 0.48006716 0.03183937 -0.070168614 0.058530387
-0.013896746 -0.29881483 0.027612979 -0.665584 0.21058933 0.22571489 0.14681666 0.124646306
-0.21086602 -0.14618634 -0.03595049 -0.14556573 -0.3815176 -0.39746964 0.42664465 0.32313037
-0.3768768 -0.08536428 -1.1387798 0.008642393 0.17972852 -0.6228354 -0.5722356 0.20431097
-0.32079825 -0.794266 0.11996481 0.15585843 -0.24687319 0.13842185 0.751104 0.29769516
0.33086368 0.031021006 -0.49002096 -0.025447015 -0.25149217 -0.6947097 0.10627608 -0.12907934

fc2.bias f4 [64]
00000000: a3e7 eabe 524b 1cbe 0bbd 8c3d ef29 af3e
00000010: 4e8d 383e d3de 43bf e130 c13e 5ce1 653f
00000020: aaeb 843e 5a8b 0f3f 3176 853e f5c2 293e
00000030: 2070 b6bd ced6 9d3e 9f17 573e 4199 a63f
00000040: b8dc 21bd db7d 9e3c 4e4c 0f3f f05a 34be
00000050: 2f46 56be 5a9d d33d d428 053e 0497 d83e
00000060: 7728 32bf c7d3 383e f84f d33d e6aa e73d
00000070: 30ad 8abd 90d4 2abe 68cb 8abe eaff 103f
00000080: 7db5 cf3e 0e3b 0c3e 40b4 99bf ba24 983d
00000090: 729a a33e 39ae a7bf 6137 803e 21bb 813d
000000a0: 3253 153e fe34 6dbf e192 573e 6168 13bf
000000b0: 6572 ad3d 71e4 6c3f 3fb3 84bf 9f80 173f
000000c0: 1ef0 e83e 20ab ac3e e1d5 b53e dca9 8dbc
000000d0: 67a0 f83e 8dfd 4dbe ae4c 613e 5601 9d3e
000000e0: aabe 86bf f87c c4bc 4157 bfbd 6e98 2f3f
000000f0: 9f55 10bf 12e4 e7be dae5 d7bd e712 923e
-0.4587985 -0.15263107 0.068719946 0.3421168 0.18022653 -0.7651188 0.37732604 0.89796996
0.25961047 0.5607201 0.26066735 0.16578276 -0.08908105 0.30827945 0.21005104 1.3015519
-0.039517134 0.019347122 0.55975807 -0.17612815 -0.2092521 0.10332747 0.13003856 0.42302716
-0.69592994 0.18049537 0.10317987 0.11311893 -0.06771314 -0.16682649 -0.27108312 0.56640494
0.40568152 0.13694403 -1.2008133 0.0742888 0.3195377 -1.3100044 0.2504225 0.0633452
0.14582518 -0.92658985 0.21052124 -0.57581145 0.08469085 0.92536074 -1.0367202 0.59180635
0.45495695 0.33724308 0.3551474 -0.01729291 0.48559877 -0.20116253 0.22001907 0.30665082
-1.0526936 -0.023985371 -0.09342814 0.68591964 -0.5638065 -0.4529119 -0.105418876 0.28530046

fc3.weight f4 [32, 64]
00000000: 2c05 1dbb 3df1 bfbd 767a 02bd 602c bbbc
00000010: 2459 323c 2683 323e 68b8 c33d 66c8 f0bd
00000020: 0d7f 983e d079 74bd b1f7 f63e c1b8 71be
00000030: 3b81 7f3e 619c 083e ec40 1f3f bfab b1bc
00000040: da9c a83e df58 dabd 4264 ecbd d9b9 87be
00000050: e6d1 92be 3421 ba3d f992 88be eb02 eb3c
00000060: acd6 50be 04db 3abe c90a 74bd c0ed fb3d
00000070: 2d87 483e 96f1 03bd 0a8f 7b3e 9b02 1b3e
00000080: e101 dcbd 722e a8b8 d91e 573d 8443 adbc
00000090: 508b 6f3e 96d6 473c e996 bb3d 5bb7 85be
000000a0: eab5 713f 48f1 553e 9061 9ebd 72dc 203b
000000b0: afef 7cbe 86c0 973d 8abe bf3e a097 37be
000000c0: 69d1 ac3f 6d1c 7cbc 5cc8 d4be 8727 d23c
000000d0: 3157 c7be ea62 ccbd 7f87 ad3e 521e 26bd
000000e0: 672a 6c3d 0ed9 ecbd 86cf fb3c 7493 92be
000000f0: b378 bebe d7de 1a3e 5520 e13c b02e c73d
00000100: 8b20 74bd 6e60 b2be 2ab1 febe db8f 06bf
00000110: 4e46 413b 8cc7 d8bf 250f c7bc a5da cdbd
00000120: 572c 8c3e fd6c 8b3c c4cc 223e 5554 2f3f
00000130: 4cf0 02be 54c1 e0bc 93ae 90be a559 c1be
00000140: d671 96bf f101 29be c5fb 0cbe cbfd 77be
00000150: 2ff6 8ebe 70f3 0e3f ebbc 0fbd bca6 e3be
00000160: f707 af3d 6481 edbd 8125 813d 176a 323e
00000170: d241 bf3e 688a f1bd d93c 9dbe 8f2a 6dbf
00000180: a18e ecbc c0cd 2dbe 39d1 8abe 7968 5abf
00000190: 8593 29bf 4940 1d3e c34d c63e 36b2 9c3e
000001a0: 66ed 8dbe 3e04 d8bf 2883 6bbe bd7c 87bf
000001b0: bd5e a43c f425 a2be 901d 7dbf b880 7e3e
000001c0: c558 663e 7c4a 6dbf 1f4f 59bd 08d4 bf3d
000001d0: 5760 aebe 9e40 8bbe 4f32 283d 5ec0 e93e
000001e0: 2b44 81be 6976 113d 0434 bd3d bc4c c7bd
000001f0: d855 853e 32af 0d3e 5630 593d 45c6 c83e
00000200: f7ef 57be 4cc9 c03d eebc 29be ba4f 0cbd
00000210: 1d7d a03b 7e3d f03d 4d15 edbe 5e13 663e
00000220: 822e 8dbe f49c eabe 61e8 d33e e1fa 3d3c
00000230: 9243 823e 1d2a cd3d 71b2 99be 3374 02be
00000240: b24f af3c de99 b43e a342 84be f080 cebd
00000250: a291 0bbe 1970 413d 9f0d 7f3e 010d 97be
00000260: effe db3d 2c7b ddbe 7c3c 72be 6be1 03be
00000270: 791d eb3e 3be3 8f3e 7869 d73d ea26 dfbc
00000280: 25eb 423d e584 b0bd 8d63 3b3c b31c 573e
00000290: ae61 5fbe 14e0 1abf 1e93 b0bd 2f31 19be
000002a0: 3004 6f3e dd39 0c3e a12d d23d 5423 95be
000002b0: 0fb7 c8bd eae6 b7bd 52d4 f4be 7095 91be
000002c0: c010 713e 1c23 dd3e 6370 403e 2fb0 cbbe
000002d0: 2795 393e 21fc 3ebd 5c53 06bf fcdc c13c
000002e0: ac2d f13d d926 a6bc b0c2 ed3b df2f 7fbd
000002f0: 3f07 debe 96d7 203e c1d7 813e bb28 2d3e
00000300: 5c1e 3b3e 75dc cabe 9b77 84bf b5ed bbbd
00000310: c03e df3d e260 0b3e a102 1cbf 879f c7be
00000320: d701 b33d ddda 2a3f 511e 633c 4945 2c3e
00000330: 62b8 49be 6dde a5bd e938 d5be 96b6 553d
00000340: 39e4 9c3e 7477 42be 4d65 3e3d 833f f93d
00000350: 9870 d73d b82b a33e f409 143e 321e 11bc
00000360: 7984 1b3e aab9 363e 5fd2 883b 5494 0fbe
00000370: 511b 0d3e 5b6c 8cbe c71d 09be 9104 8f3c
00000380: 5ca8 63be ca65 8bbd 6086 a9bd adf4 483e
00000390: 49fe b1be 6e18 babd c341 27bf 6e2c 3b3d
000003a0: 362a 933e 9863 033e 1477 fdbd 9c78 433e
000003b0: 9499 c03c 7594 ad3c a02f 1d3e 0267 e2be
000003c0: f035 8e3f 392d ec3e 0abe 74be 2f88 863e
000003d0: c2bd e7be f8f9 8bbd bf73 ddbe c488 e3be
000003e0: 8a12 d3bb ce54 203e 74e2 473c 3c94 a4be
000003f0: 254e 5bbf 4190 1a3e 515d 513e 0061 27bd
-0.0023959382 -0.093721844 -0.03185507 -0.022848308 0.010885511 0.17432842 0.09556657 -0.11756973
0.29784432 -0.059686482 0.4823585 -0.23605634 0.24951641 0.13340904 0.6220844 -0.02168834
0.32932168 -0.10661482 -0.1154256 -0.26508978 -0.28675765 0.09088364 -0.2667463 0.028687915
-0.20394391 -0.1824761 -0.059580598 0.123012066 0.19582815 -0.032212816 0.24566284 0.15137713
-0.10742546 -8.0195154e-05 0.052519653 -0.021150358 0.23392987 0.012197157 0.09159643 -0.26116452
0.94418204 0.20892823 -0.07733452 0.0024545458 -0.24700807 0.07409768 0.37450057 -0.17928934
1.3501407 -0.015387637 -0.41559112 0.025653614 -0.3893371 -0.09979804 0.33892438 -0.04055626
0.057657626 -0.115648374 0.030738603 -0.28628123 -0.3720146 0.15124069 0.027481237 0.09725702
-0.059601348 -0.34839195 -0.4974454 -0.52563256 0.0029491368 -1.6935897 -0.024299214 -0.10051469
0.2737758 0.017019743 0.15898424 0.68488055 -0.12786978 -0.027435936 -0.2825819 -0.37763706
-1.175349 -0.16504647 -0.13767917 -0.24217908 -0.27922198 0.55840206 -0.035092276 -0.44463146
0.08546441 -0.11596945 0.063059814 0.17423283 0.37354904 -0.11793977 -0.30710486 -0.92643064
-0.028876605 -0.16973019 -0.2711275 -0.8531566 -0.6624072 0.15356554 0.38731202 0.30604714
-0.27720183 -1.6876295 -0.22999251 -1.0584942 0.020064706 -0.3166958 -0.98873234 0.2485379
0.224948 -0.9269178 -0.05305397 0.093666136 -0.34057876 -0.27197737 0.041063603 0.45654577
-0.2524732 0.035513315 0.09238437 -0.09731433 0.26042056 0.13836363 0.053024612 0.39213768
-0.21087633 0.09413394 -0.16575977 -0.03425572 0.004897727 0.11730479 -0.46305314 0.22468325
-0.27574545 -0.4582287 0.4138823 0.011595459 0.25442177 0.10017798 -0.30018952 -0.12739639
0.021400306 0.3527364 -0.2583209 -0.100831866 -0.13629773 0.047226045 0.2490754 -0.2950211
0.10741984 -0.43258035 -0.23655885 -0.12878959 0.45920923 0.2810305 0.105181634 -0.027240235
0.047587533 -0.086190976 0.011437309 0.21007042 -0.21814606 -0.60498166 -0.086218104 -0.14960168
0.23341441 0.13693948 0.10262609 -0.29128516 -0.09800541 -0.0897959 -0.47818238 -0.28434324
0.23541546 0.4319085 0.18792872 -0.39782855 0.18123303 -0.046627168 -0.52470946 0.023664944
0.11776289 -0.020282196 0.0072558746 -0.062301513 -0.43364903 0.1570724 0.2535992 0.16910069
0.182733 -0.3962132 -1.0349001 -0.091761984 0.109006405 0.13611177 -0.6094151 -0.38988897
0.08740585 0.6674021 0.013862208 0.16823305 -0.19699243 -0.08099065 -0.41644982 0.05217608
0.3064287 -0.1899088 0.046483327 0.12170317 0.105195224 0.31869292 0.14456922 -0.008857297
0.15187253 0.17844263 0.004175469 -0.14021426 0.13779952 -0.2742642 -0.13390265 0.017458232
-0.22232193 -0.06806524 -0.08277583 0.19624586 -0.34764317 -0.09086691 -0.6533472 0.04569667
0.28743142 0.12830961 -0.12376228 0.19088978 0.023510732 0.021188954 0.15350199 -0.44219214
1.111021 0.46128252 -0.23900619 0.26275775 -0.4526196 -0.06834787 -0.4325237 -0.4444028
-0.006441419 0.1565735 0.012199987 -0.32144344 -0.85666114 0.15094091 0.20445754 -0.04086399

fc3.bias f4 [32]
00000000: e396 e8be a2e9 393e 12f4 48bd ffcd 41bf
00000010: 1ae5 7a3d fdf7 6b3e 56b0 963e d631 2fbe
00000020: a2d1 57be 1830 b93e 417b ea3c 96fb 8e3d
00000030: 98c8 bf3e 3d8f c93e f02b 0abe f819 f7bd
00000040: 9737 9f3e b0e4 403e d669 303f fa9f f2bd
00000050: 5052 8b3e e6c3 1ebe 7a16 603e 7939 443f
00000060: f3a7 9f3e 6060 8cbe 977e dc3e 387d 183f
00000070: 549d a03e f2c1 2bbe eec5 3a3e ea4b e93d
-0.45427617 0.1815553 -0.04906089 -0.7570495 0.061253645 0.23043819 0.2943141 -0.17108855
-0.21076062 0.36169505 0.028623225 0.0698158 0.37457728 0.39367095 -0.13493323 -0.120655
0.310971 0.18837237 0.6891149 -0.11846919 0.27211237 -0.15504417 0.21883574 0.76650196
0.31182823 -0.27417278 0.4306533 0.5956607 0.31370032 -0.16773203 0.18239567 0.113914326

fc_mu.weight f4 [2, 32]
00000000: cc5e 83be 7ba8 0140 1038 f23e 129a 8f3e
00000010: 1933 913e b81a 143f 289b fd3d bbf5 b1bf
00000020: 7490 273f d013 eebd 6197 9d3e 1639 01bf
00000030: 4e45 7ebe bd3b 713f 7b26 5cbc 6d0a 993f
00000040: 483d 83be c89b 723d c38c e0bf 79b1 a9be
00000050: 2d70 973e 216b 9fbe a279 653f c7ab 74be
00000060: 62d9 c9bf f896 08bf c3b1 7dbf 2671 1bbf
00000070: 629a 4e3e 7e1b 0fc0 1751 00bf 8ff8 de3d
00000080: 5cb2 303f 372d 8e3f 9801 423d d25c b2be
00000090: 65c9 07be 3f18 593f 5028 2abf 99ce 74be
000000a0: 4a64 1bbf f1ee 88bf 5a22 95bd 5257 853f
000000b0: 8a9a b1bf f00b 7abb 74a3 fbbe 2176 17bd
000000c0: 2542 9b3f 741f f73e 017b 2ebf b429 85bf
000000d0: 6c6a 8b3e fb97 82be 0ae0 ea3b 4d2a 54bc
000000e0: 5148 bf3e 69fc c0bd 31d8 b0bf 1bca 00be
000000f0: f93c a43f 31d3 8b3f 3151 85be 3af3 8d3f
-0.25658262 2.0259082 0.47308397 0.28047234 0.28359297 0.5785327 0.12383109 -1.3903116
0.6545479 -0.11624873 0.30779555 -0.5047773 -0.24831125 0.9423178 -0.013436909 1.1956307
-0.2563269 0.059230596 -1.7542957 -0.33143213 0.2957777 -0.3113642 0.8963872 -0.23893653
-1.5769465 -0.5335536 -0.9909937 -0.60719526 0.2017608 -2.236053 -0.50123733 0.108872525
0.69022155 1.1107548 0.0473648 -0.3483644 -0.1326042 0.8480262 -0.6646776 -0.23906936
-0.60699904 -1.0697919 -0.07281943 1.0417273 -1.3875287 -0.0038154088 -0.49148142 -0.03697789
1.2129561 0.48266184 -0.6815644 -1.0403352 0.2722963 -0.25506577 0.007167821 -0.012949538
0.3735986 -0.094231434 -1.3815976 -0.12577097 1.2831107 1.0923826 -0.26038507 1.1089852

fc_mu.bias f4 [2]
00000000: 283f e9be 1a8c 9ebe
-0.45555997 -0.30966264

fc_std.weight f4 [2, 32]
00000000: fcf2 85bd 9c55 a0bc d4c5 0cbe f43b 37bd
00000010: 37fc 893d d8c6 883e 469c 453e 33ea b73e
00000020: ca7a f7bd 70b8 a2bd fb66 f6bc e589 b9bd
00000030: 9d31 2cbf df00 7d3e 20c1 abbc 1679 cc3e
00000040: d2ab 313e 82fe 2e3d 3509 023f 4f2c 2c3d
00000050: acdd fa3d 7b42 193e 1323 a8bd 087f 39be
00000060: efc0 59bd ada1 adbd 1d48 51bd ddec 453b
00000070: a08b 153c 7342 143f 7095 b43e 1c23 7cbd
00000080: 20b4 2a3e 6346 c63e cc2a a2bd 25c0 babd
00000090: d51b 4539 51c8 ee3d bbeb 623b 3210 6dbd
000000a0: 6c7c 343e e6e3 413d f851 a1bc ce81 e23e
000000b0: 657e 943f 44c1 06be 202b 85bd ff27 aabe
000000c0: 86a2 cf3d cb1b 003e ea77 8b3e 495b 7e3e
000000d0: 22d9 0f3e 5de7 4c3c e567 20be 1136 2bbe
000000e0: fd65 373e 2906 cd3d fd91 54be 1aba d8bc
000000f0: a59a e03e 632a 733f ea0f 823a 3629 e53e
-0.06540486 -0.019572072 -0.1374734 -0.04473491 0.06737559 0.26714206 0.19297895 0.35920867
-0.12083967 -0.07945335 -0.030078402 -0.090595044 -0.67263204 0.24707364 -0.020966113 0.3993613
0.173507 0.042723186 0.507953 0.042034443 0.12249312 0.14966767 -0.08209815 -0.18114865
-0.05316251 -0.08478103 -0.051094163 0.0030200996 0.0091275275 0.57913893 0.35270262 -0.06155692
0.16670275 0.38725576 -0.07918319 -0.0911868 0.00018797752 0.11659301 0.003462537 -0.057876773
0.17625588 0.04733648 -0.019692406 0.44239658 1.1601073 -0.13159662 -0.06502366 -0.3323364
0.10138421 0.12510602 0.27239925 0.2483951 0.14047673 0.012506333 -0.15664633 -0.16719843
0.17909999 0.100109406 -0.20758815 -0.026455928 0.43867984 0.9498655 0.0009922956 0.44758004

fc_std.bias f4 [2]
00000000: f1bd 63bf 5507 50bf
-0.889617 -0.8126119
