myrobot/src/not_using/DDPG/save_DDPG_models/1117_2/DDPG_Actor_EP596.pt (torch, 63739 bytes, 19 tensors)

fc1.weight f4 [128, 4]
0	0x3f3b64a1	0.7320042
1	0x3e805b8f	0.25069854
2	0x3e8563a1	0.26052573
3	0x3c9b6c8d	0.01897266
4	0xbe6b6e23	-0.22991233
5	0xbddebd10	-0.108759046
6	0xbe57f66a	-0.21090093
7	0xbd949a7b	-0.07256027
8	0x3ebc6b26	0.36800498
9	0x3e4755a5	0.19466265
10	0x3c3ecfc2	0.011646213
11	0xbd2ceafc	-0.042216286
12	0xbee7f178	-0.45301414
13	0xba7eda19	-0.000972183
14	0x3e0bebb5	0.13664134
15	0x3cc03e1d	0.023467118
16	0x3f132d5d	0.57491094
17	0x3d7f1abe	0.062281363
18	0xbc12a260	-0.008949846
19	0xbca8e8d4	-0.020618834
20	0xbe2c17a3	-0.16805892
21	0xbe43ffbf	-0.19140528
22	0xbe5f1e83	-0.21788983
23	0xbd8acdcb	-0.06777533
24	0xbde8ca95	-0.113667645
25	0x3e09e01f	0.13464402
26	0xbe5ee8a8	-0.21768439
27	0xbd86becd	-0.06579361
28	0x3f0f7372	0.5603553
29	0x3dd62200	0.10455704
30	0xbea8094d	-0.32819596
31	0x3c8fc5c1	0.017550351
32	0xbe6a596c	-0.22885674
33	0x3eed5e57	0.46361038
34	0x3e3a9631	0.18221356
35	0xbd0b8802	-0.034065254
36	0xbef691ce	-0.48158115
37	0xbf79663e	-0.97421634
38	0xbe813206	-0.25233477
39	0x3c1c3ed5	0.009536465
40	0x3f0444cf	0.51667494
41	0xbe107a6d	-0.14109202
42	0xbec5b154	-0.38611853
43	0x3c0ab908	0.008466966
44	0x3e943c11	0.28952077
45	0x3d66b23f	0.056322332
46	0xbda903b2	-0.08252658
47	0xbe1580cb	-0.14599912
48	0x3e12b2c2	0.14326003
49	0x3dcc5266	0.09976654
50	0x3d58bf80	0.052917004
51	0xbe6fc051	-0.23413207
52	0xbecaab70	-0.3958392
53	0x3f0d94b8	0.5530505
54	0x3e97b32d	0.29628888
55	0xbba1e503	-0.0049406304
56	0xbf00dd2e	-0.50337493
57	0x3e00819d	0.12549444
58	0xbd90a422	-0.07062556
59	0xbca7c9de	-0.020482
60	0xbe4c2ddb	-0.19939367
61	0xbdeeaa92	-0.116536275
62	0x3ccbe874	0.024891116
63	0xbe5d5de6	-0.2161785
64	0x3d2463c3	0.040134203
65	0xbdce8584	-0.1008406
66	0xbe99e2c6	-0.30055827
67	0xbd67e1db	-0.056611877
68	0xbf2b2950	-0.6685991
69	0xbcf1eba4	-0.029531308
70	0x3e3a7b5b	0.18211119
71	0x3c7a8d52	0.015292482
72	0xbeec84cd	-0.4619507
73	0xbdbe335f	-0.09287142
74	0x3eb7db8c	0.35909688
75	0x3cdea4e2	0.027178232
76	0xbe2807e9	-0.16409267
77	0x3e16df77	0.14733683
78	0xbe2852d7	-0.16437851
79	0xbe1d535f	-0.15363835
80	0x3efc6b8f	0.4930081
81	0x3cfcf4f1	0.030878516
82	0xbe1b5f4e	-0.15173075
83	0xbc6f191b	-0.014593388
84	0xbed57d5d	-0.41697207
85	0xbd5c2246	-0.053743623
86	0xbc6b5d55	-0.014365514
87	0xbcd941bd	-0.026520604
88	0x3d01d2bb	0.03169511
89	0xbdc458de	-0.095872626
90	0xbf19eb0c	-0.6012428
91	0xbb2f1ed3	-0.0026721254
92	0x3e24be00	0.16088104
93	0xbcc35c85	-0.023847828
94	0xbe38484b	-0.17996328
95	0xbe531b97	-0.20615993
96	0x3eb502a6	0.35353583
97	0x3e490bf8	0.19633472
98	0x3db9f3d3	0.09079709
99	0xbc09f1c2	-0.008419456
100	0xbe6dc227	-0.23218594
101	0xbcab5ed5	-0.020919243
102	0xbdd3c070	-0.10339439
103	0xbe03564a	-0.12825885
104	0x3ff09cb4	1.8797822
105	0x3d808d70	0.06276977
106	0xbdef8818	-0.1169588
107	0x3b6340b2	0.0034676013
108	0x3ebec534	0.3725983
109	0xbd845f5e	-0.06463502
110	0xbe78d1d4	-0.24298793
111	0xbcfd8ce0	-0.030950963
112	0xbdfc22ab	-0.123113
113	0xbe9dc869	-0.30816963
114	0x3df221ae	0.1182283
115	0xbd13ea08	-0.03611186
116	0xbe88dd10	-0.26731157
117	0xbe212542	-0.15736869
118	0xbe1802a8	-0.14844763
119	0x3d588d93	0.05286939
120	0x3ed104b0	0.4082389
121	0x3d60f163	0.054917704
122	0x3f6bd4b1	0.92121416
123	0x3c4885b8	0.012238912
124	0xbf74ee2f	-0.9567594
125	0xbdbcd7c1	-0.09220839
126	0x3ec54552	0.3852945
127	0x3ba42fa5	0.0050105625
128	0xbf123a90	-0.5712061
129	0x3ebbadf3	0.3665615
130	0x3e44b6dc	0.1921038
131	0xbce5f6b9	-0.028071748
132	0x3eb6bc62	0.356906
133	0xbc43fb6e	-0.011961801
134	0xbe056043	-0.13025002
135	0xbcdc5f68	-0.026900962
136	0x3e899792	0.2687345
137	0xbe196cb7	-0.14982878
138	0xbe6ce02a	-0.23132387
139	0x3cf8886a	0.030338485
140	0xbd93ec45	-0.07222799
141	0xbdee2156	-0.11627452
142	0xbe858068	-0.2607453
143	0xbda5e80b	-0.08100899
144	0x3e6703c4	0.2256003
145	0xbc7d3d81	-0.015456558
146	0xbfbac8e2	-1.4592555
147	0xbc9645ff	-0.018343924
148	0xbe8299b3	-0.25507888
149	0xbf02fe95	-0.5116971
150	0xbd50301a	-0.050827123
151	0x3c68251a	0.014169002
152	0x3d521200	0.051286697
153	0x3cc0f330	0.02355346
154	0x3dfdd8a0	0.123948336
155	0x3e6d4712	0.23171642
156	0x3f5f26da	0.8716866
157	0xbed41914	-0.41425383
158	0x3e238c04	0.1597138
159	0x3c533daf	0.0128931245
160	0xbe265c50	-0.16246152
161	0x3e8056a1	0.25066093
162	0x3d9d7463	0.07688215
163	0xbda98d27	-0.08278876
164	0x3f0d9d61	0.55318266
165	0x3ea35a29	0.31904724
166	0xbc260886	-0.010133868
167	0x3bdebf9d	0.0067977444
168	0x3ddcef41	0.107878216
169	0x3e542a8a	0.20719352
170	0xbe8854da	-0.26627237
171	0xbcbe7357	-0.023248358
172	0x3edb6fc9	0.42858723
173	0x3e67dad0	0.22642064
174	0x3d3621cc	0.044465825
175	0xbcc3d007	-0.023902906
176	0x3decd8a8	0.115647614
177	0xbd1c03df	-0.03808963
178	0x3eb5617c	0.35425937
179	0x3d101c9d	0.035183538
180	0x3bc6a8eb	0.006062617
181	0xbbfaf7ce	-0.007658935
182	0xbe8f9c4d	-0.28048936
183	0xbd3b8494	-0.045780733
184	0x3e0a8e45	0.13530834
185	0xbe6086ec	-0.21926469
186	0xbe774015	-0.24145539
187	0xbd4869f3	-0.048929166
188	0x3df7769c	0.1208317
189	0xbcbda2d4	-0.023148932
190	0xbe7a3997	-0.24436031
191	0xbd6f2acb	-0.05839042
192	0xbe8af60d	-0.27140847
193	0xbe660f99	-0.22466888
194	0xbd2f14e0	-0.042744517
195	0xbdb2d9f3	-0.08732977
196	0x3f0709ae	0.52749145
197	0x3d188051	0.037231747
198	0xbcd1d782	-0.025615457
199	0xbc7e217d	-0.015510914
200	0xbf1f31bb	-0.6218526
201	0x3e35d4e2	0.1775699
202	0x3eba1c71	0.36349824
203	0x3c82ee5b	0.015982797
204	0xbf011968	-0.5042939
205	0xbc9e3f8b	-0.019317409
206	0x3e038fcd	0.12847824
207	0x3cc0fd37	0.023558242
208	0xbe5ec067	-0.21753083
209	0x3c292800	0.010324478
210	0xbecc4a82	-0.39900595
211	0xbcb9cf28	-0.022681788
212	0x3e28fab7	0.1650189
213	0xbd6f6c8c	-0.058453128
214	0xbf0355d2	-0.51302826
215	0xbc98c6d9	-0.018649505
216	0x3e03dbb5	0.1287678
217	0x3ff5e70f	1.9211138
218	0xbd955350	-0.07291281
219	0xbb895c9c	-0.004191948
220	0x3d205c5d	0.039150584
221	0xbdc822d7	-0.0977227
222	0xbe51b1f0	-0.20478034
223	0x3e63f610	0.22261834
224	0x3dbde439	0.09272046
225	0x3e4f35b2	0.20235327
226	0xbf2de38c	-0.67925334
227	0xbbe8a157	-0.0070993113
228	0x3e41aeca	0.18914333
229	0xbd88884e	-0.06666623
230	0xbd6132b6	-0.054980002
231	0xbe53c253	-0.20679598
232	0xbe02a8b0	-0.12759662
233	0xbdadf6ad	-0.08494315
234	0xbf8b6bda	-1.0892289
235	0x3ba99fbb	0.005176512
236	0xbfba43e6	-1.4551971
237	0xbb8e3a21	-0.0043404256
238	0x3e9eadd8	0.30992007
239	0x3c0f251f	0.008736878
240	0xbe11d569	-0.14241566
241	0x3da35bb4	0.07976475
242	0xbe62e3bf	-0.2215719
243	0xbe05c2f7	-0.13062654
244	0x3e6263ca	0.22108379
245	0xbdd21773	-0.10258379
246	0xbe4e7783	-0.20162778
247	0xbd7c767c	-0.061636433
248	0xbec3d07c	-0.38244998
249	0xbf94fa2c	-1.1638846
250	0x3e112f09	0.14178099
251	0x3c15706e	0.009121044
252	0xbd0ca1f9	-0.034334157
253	0x3e4f048d	0.2021658
254	0xbcb997a0	-0.022655308
255	0x3e134cc9	0.1438476

fc1.bias f4 [128]
0	0x3d1faab9	0.038981173
1	0x3d93ece7	0.0722292
2	0xbe15b423	-0.14619498
3	0xbcbbe7dd	-0.02293771
4	0x3d5ad528	0.053425938
5	0x3d564c0c	0.052318618
6	0xbd171654	-0.036886528
7	0xbdea1e44	-0.11431554
8	0xbd8ee627	-0.06977492
9	0xbd6e6782	-0.05820418
10	0xbd24e031	-0.040252868
11	0x3cb56413	0.022142446
12	0xbc0d3f9c	-0.008621123
13	0x3e4d3fda	0.20043889
14	0xbdf255b1	-0.118327506
15	0xbc88d851	-0.01670471
16	0x3dfed0b0	0.12442148
17	0x3cdf7d25	0.027281353
18	0x3df7b1ef	0.12094485
19	0xbd8170c5	-0.06320337
20	0x3ddb82a1	0.10718275
21	0xbd30473e	-0.04303669
22	0xbe26af22	-0.16277745
23	0x3d88e83e	0.06684922
24	0x3adef77f	0.0017011015
25	0xbe23c794	-0.15994102
26	0xbddf57ac	-0.10905394
27	0x3d675206	0.056474708
28	0xbe5058ac	-0.20346326
29	0x3db5daa1	0.08879591
30	0xbd6c07ae	-0.05762451
31	0xbdd85c46	-0.10564475
32	0xbd6873c3	-0.056751024
33	0xbde86e9c	-0.11349222
34	0x3d8438e4	0.064561635
35	0x3ca21632	0.019785974
36	0x3e763bef	0.240463
37	0x3c9c2e58	0.019065067
38	0x3bc02661	0.00586395
39	0x3dcab2e3	0.09897401
40	0xbc3873a8	-0.011258043
41	0xbdda0ca3	-0.106469415
42	0xbdb0c76e	-0.08631788
43	0xbafc4fb1	-0.0019249824
44	0xbc3110eb	-0.010807256
45	0x3d2947dd	0.0413283
46	0x3e423aed	0.18967791
47	0x3df8ec95	0.121544994
48	0xbdb638c4	-0.08897546
49	0xbe05b520	-0.13057375
50	0xbe3580b8	-0.17724884
51	0xbd8431f3	-0.064548396
52	0xbc9d87e0	-0.01922983
53	0x3e22b37a	0.15888777
54	0x3d2d2a18	0.04227647
55	0x3d29e627	0.041479256
56	0xbcbc5a0e	-0.02299216
57	0xbd09b829	-0.033622894
58	0x3a99cac4	0.0011733402
59	0x3e600c40	0.21879673
60	0xbd521b60	-0.051295638
61	0xbda7ef75	-0.0819997
62	0xbd6bfa55	-0.057611782
63	0xbe30aacb	-0.17252652
64	0x3d3b4df3	0.045728635
65	0x3ced57da	0.028972555
66	0xbd746d4c	-0.059674546
67	0x3de2cadb	0.11073848
68	0xbdfd0e78	-0.12356275
69	0xbdc1f104	-0.09469798
70	0xbddbea84	-0.1073809
71	0xbde6ebe8	-0.11275464
72	0xbcee2b4a	-0.029073376
73	0x3e037ff9	0.12841786
74	0x3d0a74d2	0.033802815
75	0xbdaf1f3a	-0.08550878
76	0xbd965e3f	-0.07342195
77	0x3c712022	0.014717134
78	0xbd01aa44	-0.03165652
79	0xbe398078	-0.18115413
80	0xbe1ddd39	-0.15416421
81	0xbdf00c71	-0.11721123
82	0x3a1dfb9f	0.0006026569
83	0x3c61ca70	0.013781175
84	0xbe4efa22	-0.20212606
85	0x3e7d56d6	0.24740157
86	0xbe135182	-0.14386562
87	0x3b5284b6	0.003212256
88	0x3e74e297	0.23914562
89	0xbe0af069	-0.13568272
90	0xbe76b211	-0.24091364
91	0xbdcc7538	-0.09983295
92	0x3d139981	0.036035065
93	0xbb77bee0	-0.003780298
94	0xbcf1f6ec	-0.029536687
95	0xbdf2a286	-0.11847405
96	0xbdeaabb2	-0.114585295
97	0xbcce3d5e	-0.025175747
98	0xbdc115f3	-0.094280146
99	0x3de8df0a	0.11370666
100	0xbd113326	-0.03544917
101	0x3d419303	0.047259342
102	0xbe12600b	-0.1429445
103	0xbc491baf	-0.012274667
104	0xbd6aab81	-0.057292465
105	0x3ddb8391	0.10718454
106	0xbe1b0f09	-0.15142454
107	0xbd458393	-0.048221182
108	0x3dc7542d	0.09732852
109	0x3de14eea	0.1100138
110	0x3cb73ae8	0.022366956
111	0x3d5e00f3	0.054200124
112	0x3e280684	0.16408736
113	0x3c9afa48	0.018918172
114	0xbe2c761e	-0.16841933
115	0xbd993590	-0.07480919
116	0xbc9d4337	-0.01919709
117	0xbe2727ca	-0.16323772
118	0x3c9187ae	0.017764892
119	0x3d03c1ca	0.032167234
120	0x3e4c393a	0.19943705
121	0xbe387f3f	-0.1801729
122	0xbdb8d365	-0.09024695
123	0xbd079ea7	-0.033110287
124	0x3b00b5ef	0.001963969
125	0xbbf86866	-0.0075808046
126	0xbd26cdb8	-0.040723532
127	0xbd908c6e	-0.07058035

bn1.weight f4 [128]
0	0x3f27e869	0.65589005
1	0x3f27d068	0.6555238
2	0x3ef3fda4	0.4765445
3	0x3f29ed14	0.6637738
4	0x3f64c345	0.8936046
5	0x3f3cb128	0.7370782
6	0x3f25887e	0.64661396
7	0x3f2cbcff	0.67475885
8	0x3f3ef6c2	0.7459527
9	0x3fa52e8a	1.2904828
10	0x3f32187a	0.695686
11	0x3f0af57e	0.5428084
12	0x3ef3f9da	0.4765156
13	0x3f421a2f	0.75821203
14	0x3f191ac6	0.5980648
15	0x3f4447cf	0.7667207
16	0x3f4bca5e	0.7960566
17	0x3f454ab3	0.77067107
18	0x3f5dea01	0.86685187
19	0x3ed0d621	0.40788367
20	0x3f293b47	0.66106075
21	0x3f17cf43	0.5930063
22	0x3ed3cfb7	0.4136941
23	0x3f4d01ab	0.8008067
24	0x3ecc4bc6	0.3990156
25	0x3f3ca9cf	0.7369661
26	0x3f6fed86	0.93721807
27	0x3f1b50d8	0.6067023
28	0x3f2a7914	0.66591
29	0x3f2392ac	0.6389568
30	0x3f41d097	0.7570891
31	0x3f59c6dc	0.8506906
32	0x3f4a153b	0.78938645
33	0x3f273a0a	0.65322936
34	0x3f30645d	0.6890314
35	0x3f35147b	0.70734376
36	0x3fc0f5f5	1.507506
37	0x3f4721e6	0.777861
38	0x3f318ea5	0.69358283
39	0x3f9a2529	1.204259
40	0x3f010046	0.5039104
41	0x3f6e705e	0.9314021
42	0x3f1eb5f4	0.6199639
43	0x3f03afb4	0.51439977
44	0x3f4658a5	0.7747901
45	0x3f0e65cb	0.55624074
46	0x3f20dabc	0.6283376
47	0x3f3bd299	0.7336822
48	0x3f3e77cd	0.7440155
49	0x3f465ee5	0.7748855
50	0x3f56e47c	0.8394239
51	0x3f48e875	0.784797
52	0x3f33a8cb	0.7017943
53	0x3f852671	1.0402356
54	0x3f43e37c	0.7651899
55	0x3f1c35c1	0.6101952
56	0x3f1a6277	0.60306495
57	0x3f20841b	0.62701577
58	0x3f4f238c	0.80913615
59	0x3fb7dc09	1.4364024
60	0x3f0b89e4	0.5450728
61	0x3f10af0c	0.565171
62	0x3f9a37ff	1.2048339
63	0x3f344438	0.70416594
64	0x3f3cdb48	0.73772097
65	0x3f42967d	0.76010877
66	0x3f62daa4	0.8861487
67	0x3f68707f	0.90796655
68	0x3f1b0c8e	0.6056603
69	0x3f2e9623	0.6819784
70	0x3f0182ee	0.5059041
71	0x3f170333	0.58989257
72	0x3f2a5297	0.6653227
73	0x3ee99675	0.45622602
74	0x3ec44799	0.38335875
75	0x3fb2669f	1.3937567
76	0x3f973c06	1.1815193
77	0x3f1b25b0	0.6060438
78	0x3f0be88d	0.5465172
79	0x3f3df8b1	0.742076
80	0x3f421e49	0.7582746
81	0x3f8b5e36	1.0888126
82	0x3f9c1032	1.2192442
83	0x3ed50794	0.41607344
84	0x3f573e2a	0.8407923
85	0x3f886e42	1.0658648
86	0x3f2e5c1a	0.68109286
87	0x3f2f95ba	0.6858784
88	0x3f445434	0.76690984
89	0x3f061664	0.52377915
90	0x3f847721	1.0348855
91	0x3f4e3f72	0.8056556
92	0x3f4ee63d	0.80820066
93	0x3eac4559	0.33646658
94	0x3efbefc9	0.4920638
95	0x3f24c602	0.64364636
96	0x3fcfc672	1.6232436
97	0x3ef001c0	0.46876335
98	0x3f1e0d60	0.6173916
99	0x3f2edebe	0.6830863
100	0x3f815679	1.0104514
101	0x3f59b253	0.85037726
102	0x3f8d1da2	1.1024668
103	0x3f5c7601	0.8611756
104	0x3f2430ce	0.6413697
105	0x3eecdcfa	0.46262342
106	0x3faf07a8	1.3674212
107	0x3f260b74	0.64861226
108	0x3f18878b	0.5958182
109	0x3f8a4f46	1.0805442
110	0x3f8c85cb	1.097833
111	0x3efe0dcd	0.49619904
112	0x3fad73d6	1.3550975
113	0x3fafbbce	1.3729188
114	0x3fa7b7cc	1.3102965
115	0x3f103954	0.56337476
116	0x3f0a59c0	0.540432
117	0x3f37d508	0.71809435
118	0x3f28297c	0.656883
119	0x3f4dee68	0.80441904
120	0x3fa10308	1.257905
121	0x3f130ff7	0.57446235
122	0x3f2ea585	0.6822131
123	0x3f1a4ad3	0.6027042
124	0x3f612916	0.8795332
125	0x3f248126	0.64259565
126	0x3e9e3b81	0.30904773
127	0x3f141348	0.5784192

bn1.bias f4 [128]
0	0xbf29d81f	-0.663454
1	0x3e318f5e	0.17339846
2	0xbdef621e	-0.11688636
3	0x3dee2fb8	0.116301954
4	0x3d0b9bf0	0.03408426
5	0x3e34139f	0.1758561
6	0x3d13c5df	0.036077376
7	0xbf10aacb	-0.5651061
8	0xbf2679b2	-0.6502944
9	0x3e8b1ec8	0.27171922
10	0xbf06d598	-0.5266967
11	0xbe1e9c36	-0.15489277
12	0xbe81b117	-0.2533042
13	0xbe8313ba	-0.25600988
14	0xbe7c40ee	-0.24634144
15	0xbf47a899	-0.77991635
16	0xbe5df1b3	-0.21674232
17	0xbdaa3e08	-0.08312613
18	0xbe83afc9	-0.2572005
19	0xbda4084a	-0.080093935
20	0xbe12e2e4	-0.14344364
21	0xbec521b7	-0.38502285
22	0xbe703a27	-0.23459683
23	0xbe99d837	-0.3004777
24	0xbe86139b	-0.26186833
25	0xbf34ba1e	-0.7059649
26	0x3eb99091	0.36243108
27	0x3da6531d	0.08121321
28	0xbea4f12e	-0.32215255
29	0xbe2bbfe9	-0.16772427
30	0x3e257321	0.161572
31	0x3f22bb97	0.6356749
32	0xbd85a39a	-0.06525345
33	0xbd29c676	-0.041449033
34	0xbd9a2bb4	-0.07527867
35	0xbd7abe2e	-0.061216526
36	0xbec965b9	-0.3933542
37	0xbd3eacd5	-0.046551544
38	0xbd84750c	-0.064676374
39	0x3e7d842b	0.2475745
40	0xbe5ff5ce	-0.21871111
41	0xbe70f095	-0.23529275
42	0xbe586dbe	-0.21135613
43	0x3d9e7143	0.07736447
44	0xbf17f88c	-0.5936363
45	0x3df58b92	0.119895115
46	0x3dcd9329	0.10037834
47	0xbe975ca5	-0.2956287
48	0xbf24c2e8	-0.64359903
49	0xbda02cd2	-0.07821049
50	0xbdcd265b	-0.10017081
51	0x3e2627c1	0.16226102
52	0xbc0ce2f3	-0.008599031
53	0x3e1e5be3	0.1546474
54	0x3f8058e5	1.0027128
55	0xbc064d59	-0.008197152
56	0xbcd35e2f	-0.025801746
57	0xbefbf9b8	-0.49213958
58	0xbdae9b20	-0.085256815
59	0x3ea577bd	0.32317916
60	0xbe05903c	-0.13043302
61	0x3cfd3ff0	0.030914277
62	0xbf2f286c	-0.68421054
63	0xbf5821eb	-0.84426755
64	0x3e46e1d3	0.19422083
65	0x3dd9934e	0.10623799
66	0xbf47c930	-0.7804136
67	0xbe8e8899	-0.2783859
68	0xbd3e6704	-0.046484962
69	0xbf010548	-0.50398684
70	0xbeb1bb19	-0.34713057
71	0xbe7e8d1d	-0.24858518
72	0xbdecf60a	-0.11570366
73	0x3ddbfb31	0.1074127
74	0x3ea1b506	0.31583422
75	0xbf6c6bee	-0.9235219
76	0xbe8c7404	-0.27432263
77	0xbd6a71e0	-0.057237506
78	0x3c464786	0.012102013
79	0x3ef6a9cd	0.48176423
80	0xbf0ee940	-0.5582466
81	0xbeef9b14	-0.46798003
82	0xbe851332	-0.25991207
83	0xbefe9bcb	-0.49728236
84	0xbed742cd	-0.42043152
85	0x3e8de5ac	0.27714288
86	0xbdee65c7	-0.11640506
87	0x3df10e8f	0.11770355
88	0xbe00bf75	-0.12573035
89	0x3d7afa67	0.06127396
90	0x3d82ce23	0.06386974
91	0xbf33aaf2	-0.70182717
92	0xbeaa0165	-0.3320419
93	0xbe20d88a	-0.15707603
94	0xbf262288	-0.6489644
95	0xbd260607	-0.040533092
96	0xbeae5e9f	-0.34056565
97	0xbe88da72	-0.2672916
98	0xbe9dc65a	-0.30815393
99	0x3d0b65a7	0.03403249
100	0x3de0afcb	0.1097103
101	0xbed78ac1	-0.42098048
102	0x3ef0e357	0.47048447
103	0xbf7408b6	-0.9532579
104	0xbe979a5c	-0.29609954
105	0x3e392f77	0.18084513
106	0xbfcd1dfa	-1.6024773
107	0xbe9efbf8	-0.31051612
108	0xbe3ea3e6	-0.1861721
109	0xbe17bfc4	-0.14819247
110	0xbdc23ba8	-0.09484035
111	0x3d47ba56	0.04876169
112	0x3d36e51c	0.04465209
113	0xbc305476	-0.010762325
114	0xbef41fc3	-0.47680482
115	0x3e0532eb	0.13007705
116	0xbf02a96f	-0.51039785
117	0xbf20f93f	-0.6288032
118	0xbeed5cfd	-0.46360007
119	0xbf7468e9	-0.9547258
120	0x3f482afa	0.7819058
121	0xbe88e1b1	-0.2673469
122	0xbdb24fb9	-0.08706612
123	0xbe740a9e	-0.23832175
124	0xbebbbb34	-0.36666262
125	0x3dade370	0.08490646
126	0xbe172e9d	-0.14763875
127	0xbe0c83ad	-0.13722105

bn1.running_mean f4 [128]
0	0x40287a21	2.6324542
1	0xc0d668b6	-6.700282
2	0xc04c8f74	-3.1962557
3	0x401fc4cb	2.4963863
4	0xbfe97fee	-1.8242166
5	0xc0d5c09e	-6.679763
6	0xc0ae14fa	-5.4400606
7	0x3f3e69f5	0.7438043
8	0xbf37a634	-0.7173798
9	0xc040d97b	-3.013274
10	0xbf6eb322	-0.93242085
11	0xc1465f26	-12.39823
12	0xc19a8841	-19.31653
13	0x40292ac8	2.6432362
14	0xbf9bbcd3	-1.2167
15	0xc1939a50	-18.450348
16	0xc0b45f5f	-5.636642
17	0x3ffdff6f	1.9843577
18	0x4046640a	3.099856
19	0xc14aad79	-12.667352
20	0xbfcf772d	-1.6208245
21	0xc00f5e13	-2.2401168
22	0xbffc51d6	-1.9712474
23	0xc18e989d	-17.824518
24	0xbcbfea74	-0.023427226
25	0xc1317d56	-11.0931
26	0xbf746d2b	-0.9547908
27	0xc05ffaa9	-3.499674
28	0xc0812a14	-4.0363865
29	0x40737b53	3.804402
30	0x403235ec	2.7845411
31	0x3fa906ac	1.3205161
32	0xbeadb05f	-0.33923623
33	0xc03a5005	-2.911134
34	0x3fb91d97	1.4462155
35	0xc0f64c37	-7.6968036
36	0xc08e2922	-4.442521
37	0xbf1a89aa	-0.6036631
38	0x419e65d5	19.799723
39	0xbf08e8c1	-0.53480154
40	0xc0b9929d	-5.799147
41	0x3fa479d5	1.284968
42	0xbff1b2f3	-1.8882736
43	0xbfad4e99	-1.3539611
44	0x405e2425	3.470956
45	0xc08ccf5a	-4.4003115
46	0xc0a91d6a	-5.2848406
47	0xc0ae858f	-5.4538035
48	0xc102bf99	-8.171777
49	0xbfd6ecc5	-1.6791006
50	0x403c21aa	2.9395547
51	0x401a5c75	2.4118931
52	0xc02430b2	-2.5654721
53	0xc0309b7b	-2.7594898
54	0x40cf1633	6.47146
55	0x418fadbf	17.959837
56	0xbfa7f347	-1.3121117
57	0xc18f3334	-17.900002
58	0xc0003bed	-2.0036576
59	0x401c8e1d	2.446174
60	0xc131b07b	-11.105586
61	0xc0c5a435	-6.176295
62	0xc03fac19	-2.994879
63	0x4149eb7b	12.61999
64	0xc11ca602	-9.790529
65	0x3f99aaa8	1.2005205
66	0x4054cd31	3.325024
67	0xc019fe80	-2.4061584
68	0xc09c1628	-4.8777046
69	0x405bc5f3	3.4339569
70	0xc0a9fea0	-5.312332
71	0x3e234e0b	0.1594774
72	0x4072ed13	3.7957199
73	0xc1581f83	-13.507693
74	0x3ec3fe68	0.38280034
75	0xc0c6d290	-6.2132034
76	0xc01b2348	-2.4240284
77	0xc1ba61bf	-23.297728
78	0xc1501d10	-13.007095
79	0xbe849af4	-0.2589947
80	0x3ff7d9fd	1.93634
81	0x3f85a598	1.044116
82	0xbfac843a	-1.3477852
83	0x4056ae35	3.3543828
84	0x3fb16f01	1.3862001
85	0xc028c622	-2.637093
86	0xbfa2c546	-1.2716453
87	0xc0279b88	-2.6188679
88	0x3f8e7d9c	1.1132083
89	0xc18473ba	-16.556507
90	0xc0376c99	-2.8660033
91	0x4067e054	3.623067
92	0x3f0c5b01	0.5482636
93	0xbea30521	-0.3183985
94	0x418847be	17.03503
95	0x3f0a22e4	0.5395949
96	0xc0c3e682	-6.121888
97	0xbffb8721	-1.9650613
98	0xc1ea8b7d	-29.31811
99	0x402a72a6	2.6632476
100	0x4062b569	3.5423224
101	0xc043c8ad	-3.0591233
102	0xbfccaf10	-1.5990925
103	0xc1607e4e	-14.030836
104	0xbfbf3aab	-1.4939779
105	0xc10aa09f	-8.664214
106	0xc17c6287	-15.774055
107	0x3e8ef97d	0.2792472
108	0xc0a80ae7	-5.251331
109	0x3f8cf9a8	1.1013689
110	0xc02894f2	-2.634091
111	0xc083a1f8	-4.1135216
112	0xc08bead4	-4.3724155
113	0xbf69b88f	-0.9129724
114	0xc00ce2ea	-2.2013497
115	0x40e2ce3e	7.087676
116	0x3f2eab80	0.6823044
117	0xc19ecad7	-19.849043
118	0xc11d2409	-9.821298
119	0x3fcb42cb	1.5879759
120	0x3df47c79	0.11937804
121	0xc0954293	-4.6643767
122	0x40c7c5f3	6.2429137
123	0xc092cd07	-4.5875278
124	0x3e79ebff	0.24406432
125	0xc17eb9c2	-15.920351
126	0xc0ac6e17	-5.3884387
127	0x414bdf99	12.742089

bn1.running_var f4 [128]
0	0x4003c1e5	2.0587094
1	0x41c2173e	24.261349
2	0x410dc4b9	8.860528
3	0x401b752f	2.4290273
4	0x40059f59	2.0878508
5	0x41a8c748	21.097305
6	0x41a099d6	20.075115
7	0x403eaa01	2.9791262
8	0x40fa7378	7.8265953
9	0x40ab4d95	5.3532205
10	0x3fea8054	1.8320413
11	0x42cbeace	101.9586
12	0x43859c8f	267.2231
13	0x401e786d	2.4761002
14	0x4015f910	2.3433266
15	0x4363966d	227.5876
16	0x41635529	14.208291
17	0x3f96c131	1.1777707
18	0x40580113	3.3750656
19	0x42e185fd	112.761696
20	0x3f80268d	1.0011765
21	0x40651dbe	3.5799403
22	0x3fd2ccd5	1.646876
23	0x434a481a	202.28165
24	0x3f21d5cf	0.6321687
25	0x429dec98	78.9621
26	0x400edce6	2.2322326
27	0x40844cac	4.1343594
28	0x40e40b0a	7.1263475
29	0x41662b0f	14.385512
30	0x406bfb97	3.6872308
31	0x3f9d4a7b	1.2288355
32	0x40bce844	5.9033527
33	0x404ec2a9	3.230631
34	0x40ba5771	5.823174
35	0x41effdc8	29.998917
36	0x41159919	9.349877
37	0x4014dbc3	2.3259132
38	0x4380eb54	257.8385
39	0x401e6cbb	2.4753864
40	0x420adf08	34.717804
41	0x3f4c6092	0.79834855
42	0x4027a1a9	2.619242
43	0x4045f73d	3.0932152
44	0x40b043a5	5.5082574
45	0x41137812	9.216814
46	0x412a8b67	10.659034
47	0x41763e24	15.390171
48	0x421382b6	36.877647
49	0x3f98bd60	1.1932793
50	0x3fd22712	1.6418173
51	0x401e6860	2.4751205
52	0x401ba066	2.431665
53	0x3fffe361	1.9991266
54	0x4191c28e	18.219997
55	0x43758485	245.51765
56	0x4012cbc7	2.2936876
57	0x434dd967	205.84923
58	0x40cbe542	6.3717356
59	0x3fdd8b42	1.7308123
60	0x42a12190	80.56555
61	0x418958b1	17.168306
62	0x40e033d5	7.006327
63	0x42c84b5b	100.14718
64	0x423f22ba	47.783913
65	0x40017740	2.0229034
66	0x3ff458b7	1.9089574
67	0x3fb79550	1.4342442
68	0x40a8e635	5.2781014
69	0x4092f382	4.592225
70	0x41920143	18.250616
71	0x407323b9	3.7990553
72	0x40cc83db	6.3910956
73	0x42d93747	108.60796
74	0x40716577	3.771818
75	0x41247ac3	10.279971
76	0x40df8450	6.9849014
77	0x43b5771a	362.93048
78	0x42daf379	109.47553
79	0x3f97984b	1.1843351
80	0x403a7300	2.913269
81	0x3fcc3ff6	1.5957019
82	0x40ff200d	7.9726624
83	0x4044f805	3.077638
84	0x3fbaba54	1.4588113
85	0x40b27d32	5.5777826
86	0x3f4d152e	0.8011044
87	0x407a128c	3.907382
88	0x4016b5ba	2.3548417
89	0x4332025d	178.00923
90	0x3fdf4db5	1.7445589
91	0x40913538	4.5377464
92	0x40433bc5	3.050523
93	0x3fbd8b35	1.4808108
94	0x4353fe9b	211.99455
95	0x3f888bc7	1.0667657
96	0x41acd7f4	21.605446
97	0x3ffebe57	1.9901837
98	0x441685ad	602.0887
99	0x40e0afe5	7.0214715
100	0x40747610	3.819706
101	0x414ff7b7	12.997977
102	0x3fb68c97	1.4261655
103	0x4317c1b5	151.75667
104	0x3fa4c780	1.2873383
105	0x4220860f	40.130917
106	0x42bdcccc	94.899994
107	0x3f3eca93	0.74527854
108	0x41816529	16.174395
109	0x3fbe67b0	1.4875393
110	0x400c306c	2.1904554
111	0x416d7c48	14.842842
112	0x40f581bc	7.6720867
113	0x40c73385	6.225039
114	0x4126acea	10.417215
115	0x420686f7	33.6318
116	0x3f4747a5	0.77843696
117	0x4385a2f5	267.2731
118	0x4287d06d	67.90708
119	0x40aa55b7	5.322963
120	0x3fab4549	1.3380519
121	0x414af697	12.685203
122	0x41e8cdfd	29.10058
123	0x415902db	13.563197
124	0x40a639ea	5.1945696
125	0x43205288	160.32239
126	0x417b04ce	15.688673
127	0x42e21b39	113.05317

fc2.weight f4 [64, 128]
0	0xbd249ecb	-0.0401905
1	0xbdcb4e3e	-0.09927033
2	0xbd744552	-0.05963642
3	0x3bc1cca0	0.005914286
4	0x3db3faab	0.087880455
5	0x3c2a0f06	0.010379558
6	0x3d966417	0.073433094
7	0xbe206212	-0.15662411
8	0xbcd35fb2	-0.025802467
9	0xbde2e788	-0.11079317
10	0xbe47e074	-0.19519216
11	0x3da75630	0.08170736
12	0x3cf3aa5f	0.029744325
13	0xbdd1bd7c	-0.102412194
14	0x3d8fba0f	0.0701791
15	0xbdd8d1a0	-0.10586858
16	0xbda26bca	-0.079307154
17	0x3d8ed024	0.069732934
18	0xbd9160db	-0.07098552
19	0xbc85754a	-0.01629128
20	0x3e031d8f	0.12804244
21	0xbd322a81	-0.043497566
22	0xbc1d14c0	-0.009587467
23	0xbc909aba	-0.017651904
24	0xbd76c00f	-0.060241755
25	0xbd74c73a	-0.05976031
26	0xbcb86754	-0.022510208
27	0x3d82d460	0.063881636
28	0x3d637bb3	0.05553789
29	0x3c8775cd	0.016535664
30	0x3d664a17	0.056223
31	0x3dd83532	0.10557021
32	0x3e1d2730	0.1534698
33	0x3deb6f9f	0.114958994
34	0x3de6e63b	0.11274382
35	0xbdce83be	-0.100837216
36	0xbe13949f	-0.14412163
37	0x3e80f63c	0.25187862
38	0xbdc9d5b1	-0.098552115
39	0xbce06316	-0.027390998
40	0x3dbb771d	0.091535784
41	0xbe3520ce	-0.17688295
42	0xbd7afc4a	-0.061275758
43	0x3d495f87	0.049163368
44	0x3d04d4ff	0.03242969
45	0xbd5f2b1f	-0.054484483
46	0xbd9e03db	-0.07715579
47	0xbd87bd70	-0.06627929
48	0xbd9d67a3	-0.07685783
49	0x3d586337	0.052828994
50	0x3da229a3	0.07918098
51	0x3c7d1cd8	0.015448771
52	0xbe39ddb7	-0.18150984
53	0xbbd9716d	-0.006635836
54	0xbe99a370	-0.30007505
55	0xbde7cc75	-0.11318294
56	0xbc1029d7	-0.008799038
57	0x3cdce77b	0.026965847
58	0x3c8ef00e	0.017448451
59	0xbebc4aa4	-0.36775696
60	0x3bb3677d	0.0054749832
61	0x3ceedbdb	0.02915757
62	0xbe0b2242	-0.13587287
63	0x3e189727	0.1490141
64	0x3d84d573	0.06486025
65	0x3da0583e	0.07829331
66	0xbb95e9d2	-0.0045749927
67	0x3d45b768	0.048270613
68	0x3ddb0fe7	0.106963925
69	0x3d66ea82	0.056375988
70	0xbdbfeb63	-0.09371068
71	0xbce33ffe	-0.027740475
72	0x3bde2d1c	0.00678028
73	0x3c3dd65e	0.011586754
74	0x3d78e0ef	0.06076139
75	0xbefd3fc8	-0.49462724
76	0xbde2f843	-0.110825084
77	0xbddbbe9d	-0.10729716
78	0xbc5447b6	-0.01295655
79	0xbd62bab2	-0.055353828
80	0xbe3e1839	-0.18563928
81	0xbec39105	-0.3819658
82	0x3d95e43a	0.073189214
83	0x3e6a4d4c	0.22881049
84	0xbe68cd94	-0.22734672
85	0x3d19e9b8	0.037576407
86	0x3cc2a836	0.02376185
87	0xbcd136c7	-0.025538815
88	0x382acb05	4.0720235e-05
89	0x3db09f08	0.08624083
90	0xbe377b4e	-0.17918131
91	0x3c8cb266	0.01717491
92	0x3d9848ca	0.074357584
93	0xbcc77b1e	-0.024350699
94	0xbd97a9a8	-0.07405406
95	0xbd304dfd	-0.043043125
96	0xbde73cb7	-0.11290877
97	0x3d173d82	0.036923893
98	0x3dec62e9	0.11542303
99	0x3e22d933	0.15903167
100	0xbeb7eedf	-0.35924432
101	0xbd8880e0	-0.06665206
102	0xbe0b3bee	-0.1359708
103	0x3c6aa7c3	0.014322224
104	0xbd4cc0ff	-0.049988743
105	0xbdc1972d	-0.094526626
106	0xbfbbe043	-1.4677814
107	0x3e0ce7ab	0.1376025
108	0xbe096560	-0.13417578
109	0xbda47d79	-0.080317445
110	0x3c7c6e1b	0.015407111
111	0xbd05dafc	-0.032679543
112	0xbd1ad310	-0.03779894
113	0xbbe89e3c	-0.007098941
114	0xbba9c5f3	-0.005181068
115	0xbc21f38e	-0.009884728
116	0xbce4284e	-0.02785125
117	0xbc9848e0	-0.018589437
118	0xbbbed5e5	-0.005823838
119	0xbdb73355	-0.08945338
120	0x3e1e5d98	0.1546539
121	0x3baadf23	0.0052145883
122	0xbe30c202	-0.17261508
123	0x3d13133a	0.035907008
124	0xbd3ea333	-0.046542358
125	0x3d14d672	0.036337323
126	0x3d55b101	0.052170757
127	0xbddc7631	-0.10764731
128	0xbd2f86a6	-0.04285302
129	0xbd63df11	-0.055632655
130	0xbd3dd396	-0.046344362
131	0xbea4e077	-0.32202503
132	0xbd5d8f0f	-0.05409151
133	0x3c714358	0.014725529
134	0x3c4a3169	0.012340882
135	0xbdfb88b9	-0.12281937
136	0xbe0f3b7e	-0.13987538
137	0xbe68d0ff	-0.22735976
138	0x3da8468f	0.08216583
139	0xbdd6981e	-0.10478233
140	0xbd8f5484	-0.06998542
141	0xbcc7bf12	-0.024383102
142	0x3cef001b	0.029174855
143	0x3e2d2abc	0.16910833
144	0xbd88f153	-0.06686654
145	0x3dc1968b	0.09452542
146	0x3ec5a55a	0.38602716
147	0x3c35f181	0.011104942
148	0xbcdbd2b2	-0.026833866
149	0x3d509961	0.050927524
150	0xbe776ac6	-0.24161825
151	0xbe257645	-0.16158397
152	0x3da91960	0.08256793
153	0xbea3cd15	-0.31992403
154	0xbd48c49e	-0.049015634
155	0x3c1df5ec	0.009641152
156	0x3d54dff1	0.05197138
157	0x3d6a6d91	0.057233397
158	0x3e1669b8	0.14688766
159	0xbe2f169a	-0.17098466
160	0x3d780450	0.060550988
161	0xbcd81a82	-0.026379827
162	0x3d8e7d17	0.06957453
163	0x3df83bc5	0.12120775
164	0x3e82e174	0.25562632
165	0x3e0a5ddb	0.13512366
166	0x3d116c19	0.03550348
167	0x3d854cc6	0.06508784
168	0x3db38aca	0.08766706
169	0x3e339ecb	0.17541043
170	0xbe148ca5	-0.14506777
171	0x3ce814db	0.028330257
172	0x3e099d3c	0.13438886
173	0xbd96a4a1	-0.07355619
174	0x3c0220d0	0.007942393
175	0xbda39831	-0.079880126
176	0xbe48ead6	-0.19620833
177	0xbe61dbb9	-0.22056474
178	0x3e2a5811	0.16635157
179	0xbe59c8aa	-0.21267954
180	0x3e32c738	0.17458808
181	0x3da7400c	0.08166513
182	0x3d259fca	0.04043559
183	0x3e150c58	0.1455549
184	0xbde4f4c5	-0.111794986
185	0xbe3ac797	-0.182402
186	0xbe875386	-0.2643091
187	0xbe92d60a	-0.28678924
188	0x3db11092	0.08645739
189	0x3b97fcaf	0.0046382765
190	0xbe2764be	-0.16347024
191	0xbe05398b	-0.13010232
192	0xbdc69311	-0.096960194
193	0xbea0cdaf	-0.31406924
194	0xbec93ad4	-0.39302695
195	0x3bf7707e	0.007551252
196	0x3e078c72	0.1323717
197	0x3dcfdc8a	0.10149486
198	0xbe06ce0c	-0.13164538
199	0xbe8a8ef9	-0.27062204
200	0xbe8fe117	-0.28101417
201	0x3e0dd4a8	0.13850653
202	0xbc9bc354	-0.019014038
203	0xbf09adbb	-0.53780717
204	0x3d8c3006	0.06845097
205	0x3e11f5b2	0.14253882
206	0x3e23cc05	0.15995796
207	0xbe7efb01	-0.24900438
208	0xbe4289b8	-0.18997848
209	0xbe45e3f0	-0.19325233
210	0x3deaf7a4	0.11473015
211	0xbee09262	-0.4386168
212	0x3de2c0ff	0.11071967
213	0xbe0ac715	-0.13552506
214	0x3d0592c4	0.03261067
215	0x3dba3b84	0.09093383
216	0xbe9efe9e	-0.31053632
217	0x3e1dc401	0.15406801
218	0xbe77f7ec	-0.24215668
219	0x3e0c79f0	0.1371839
220	0xbe02de9e	-0.12780234
221	0xbdc2c683	-0.09510519
222	0xbe055cc1	-0.13023664
223	0x3d9c99f8	0.07646555
224	0x3a4a3471	0.0007713503
225	0xbdd3772e	-0.10325466
226	0x3cf8d046	0.03037275
227	0xbe98b7e0	-0.29827785
228	0xbe655afa	-0.22397986
229	0x3d2c9e71	0.04214329
230	0xbe97adc5	-0.29624763
231	0x3bfad3c1	0.0076546376
232	0x3f0e537a	0.55596125
233	0xbd80ef87	-0.06295686
234	0xbec8cd73	-0.39219245
235	0x3cf78bea	0.030218083
236	0xbbb1d270	-0.0054266974
237	0x3e41da24	0.1893087
238	0xbcfa691b	-0.030567696
239	0x3ceefdce	0.029173758
240	0xbd4101ed	-0.047120977
241	0xbd1c078c	-0.038093135
242	0x3f13e554	0.577718
243	0x3e818fbc	0.25304973
244	0xbd855aa2	-0.065114275
245	0xbdee0578	-0.11622137
246	0xbde6ff75	-0.11279193
247	0xbe4c7b75	-0.1996897
248	0xbe636871	-0.2220781
249	0xbe0487b0	-0.12942386
250	0x3dd555e7	0.10416775
251	0xbe03b45e	-0.12861773
252	0xbf3b74f9	-0.7322536
253	0x3d233e44	0.039854303
254	0xbd8197d1	-0.06327785
255	0x3c5ec3e9	0.013596513

fc2.bias f4 [64]
0	0xbc6cef89	-0.0144614065
1	0xbe3d8910	-0.18509316
2	0x3d937e55	0.0720183
3	0xbe33f3dc	-0.17573494
4	0xbeb06314	-0.3445059
5	0xbd68b128	-0.056809574
6	0xbe5ea764	-0.21743542
7	0xbdf1f667	-0.11814576
8	0x3c41bfa1	0.011825473
9	0x3b098eb8	0.0020989608
10	0x3d7efd5e	0.06225335
11	0xbe052f2a	-0.13006273
12	0xbd5a9d54	-0.053372696
13	0xbdcfafc2	-0.10140945
14	0x3dd1da79	0.102467485
15	0x3d4381c9	0.047731195
16	0x3e88ab96	0.2669341
17	0xbe4e9d8f	-0.20177291
18	0xbe3e1d72	-0.1856592
19	0x3e2c627d	0.16834445
20	0xbe816dd2	-0.252791
21	0xbda69abd	-0.08134983
22	0xbe34ba86	-0.17649278
23	0xbdd3fdf1	-0.1035117
24	0xbe83e824	-0.25763047
25	0x3d8b7ff7	0.06811517
26	0x3d21b36d	0.039477754
27	0x3d86a6eb	0.06574806
28	0x3d7d3827	0.06182113
29	0x3e77c978	0.24197948
30	0xbe18ba8e	-0.14914915
31	0x3dbdf485	0.09275154
32	0x3e28068a	0.16408744
33	0xbe45308e	-0.19256803
34	0xbe10a8b5	-0.14126857
35	0x3e0f25d8	0.1397928
36	0xbe7bdf9e	-0.24597022
37	0xbebd0df7	-0.36924717
38	0xbe24e4db	-0.16102926
39	0x3d515a7c	0.051111683
40	0x3e31a789	0.17349066
41	0x3db3cb2a	0.08778985
42	0xbd1d030d	-0.038332988
43	0xbd493a52	-0.049127884
44	0xbd16fb80	-0.036860943
45	0x3cc40712	0.023929153
46	0x3e30852d	0.17238303
47	0x3c9eaefa	0.019370545
48	0xbd718147	-0.05896118
49	0xbd853f09	-0.065061636
50	0xbe0a9c9f	-0.13536309
51	0x3e46ef93	0.19427328
52	0xbdadf2db	-0.08493587
53	0xbcdabc00	-0.026700974
54	0xbe4c6e98	-0.19964063
55	0xbd0e19bd	-0.034692515
56	0xbe47859e	-0.19484565
57	0xbe090bb0	-0.13383365
58	0x3d8102ea	0.06299384
59	0x3ddf0937	0.108904295
60	0x3e0b820d	0.13623829
61	0xbe1819bf	-0.14853571
62	0x3df016fa	0.117231324
63	0xbeefcc17	-0.46835396

bn2.weight f4 [64]
0	0x3f5a813a	0.85353434
1	0x3f25cb87	0.64763683
2	0x3f410d65	0.75411063
3	0x3f657eec	0.8964679
4	0x3f2eb546	0.6824535
5	0x3fa4753e	1.284828
6	0x3f45e7ff	0.7730712
7	0x3f4724ed	0.7779072
8	0x3f53d81d	0.8275164
9	0x3f60e97a	0.87856257
10	0x3f4acf38	0.7922244
11	0x3f72bf3a	0.9482304
12	0x3f4a3d78	0.79000044
13	0x3f903bc6	1.1268241
14	0x3f378b57	0.7169699
15	0x3f1f7adf	0.6229686
16	0x3f59d236	0.8508638
17	0x3f819a9f	1.0125312
18	0x3f89f098	1.0776548
19	0x3f2e25fb	0.68026704
20	0x3f3f60f2	0.747573
21	0x3f5f8e96	0.87326944
22	0x3f931a2d	1.1492363
23	0x3f1fb644	0.6238749
24	0x3f5d3edf	0.8642406
25	0x3f3f73bd	0.7478598
26	0x3f7e3233	0.9929535
27	0x3f65fb42	0.89836514
28	0x3f873ef8	1.0566092
29	0x3f59883f	0.8497352
30	0x3f4e785a	0.8065239
31	0x3f712f93	0.9421322
32	0x3f50c607	0.81552166
33	0x3f52b52d	0.823077
34	0x3f509345	0.81474715
35	0x3f427dab	0.75973004
36	0x3f82f9bf	1.0232466
37	0x3fa35a6f	1.2761973
38	0x3f8b91bf	1.0903853
39	0x3f9d5ed2	1.2294562
40	0x3f2f7066	0.6853088
41	0x3f82c2ee	1.0215738
42	0x3f604540	0.8760567
43	0x3f5604cc	0.8360107
44	0x3f371890	0.71521854
45	0x3f669ba7	0.90081257
46	0x3f29e1a0	0.663599
47	0x3f36cc2e	0.71405303
48	0x3f2f62ca	0.68510115
49	0x3f81bad1	1.0135137
50	0x3f5cf4ea	0.8631121
51	0x3f6014b2	0.8753158
52	0x3f60099e	0.87514675
53	0x3f4af6a5	0.792826
54	0x3f66d49b	0.9016816
55	0x3f6d5f72	0.92723763
56	0x3fa4ffa2	1.2890513
57	0x3f62ea2c	0.8863857
58	0x3f5295ee	0.82260025
59	0x3fb75d07	1.4325265
60	0x3f712533	0.94197387
61	0x3f1f5547	0.622395
62	0x3f8be329	1.0928699
63	0x3f4d866b	0.8028323

bn2.bias f4 [64]
0	0x3e8bc186	0.27296084
1	0xbe60e94f	-0.21964
2	0x3e190112	0.14941815
3	0x3d5eb049	0.054367337
4	0xbeca05fe	-0.39457697
5	0xbf1b2804	-0.60607934
6	0xbed70392	-0.4199491
7	0x3c6258c4	0.013815109
8	0xbe7199f4	-0.23593885
9	0xbeec0ed5	-0.46105066
10	0xbf56aa7f	-0.83853906
11	0xbe2acc72	-0.16679552
12	0xbec50dd3	-0.3848711
13	0xbc9f8129	-0.019470768
14	0x3eed792e	0.46381515
15	0xbe9781c7	-0.295912
16	0xbf08f6f5	-0.53501827
17	0xbe45d9b9	-0.19321336
18	0xbd997210	-0.07492459
19	0xbe5d42cc	-0.21607512
20	0xbf831485	-1.0240637
21	0xbeb76050	-0.35815668
22	0xbe695665	-0.22786863
23	0xbf27d3f5	-0.65557796
24	0xbe69e114	-0.22839767
25	0xbeaf9c8f	-0.34299132
26	0x3dd5a4d4	0.10431829
27	0xbe4d34a5	-0.20039614
28	0xbc9d06ef	-0.019168345
29	0xbebd0ce9	-0.36923912
30	0xbebad13f	-0.36487767
31	0xbf44ce53	-0.76877326
32	0xbebcab95	-0.36849657
33	0xbf26db2c	-0.6517818
34	0xbe42ac32	-0.19011
35	0xbb39c5d1	-0.0028346668
36	0xbd89e232	-0.067325965
37	0xbe31bdea	-0.17357603
38	0xbe53a526	-0.20668468
39	0xbe51ecb8	-0.20500457
40	0xbeea7788	-0.4579432
41	0xbea92cdc	-0.33042037
42	0xbd81dc1c	-0.06340811
43	0xbf039ca3	-0.51410884
44	0xbe78c88c	-0.24295253
45	0xbe27bf13	-0.16381483
46	0xbf27992a	-0.65468085
47	0xbdcae35c	-0.099066466
48	0xbe4291e7	-0.1900097
49	0xb98a98a6	-0.00026435143
50	0x3d3cbf8a	0.046081103
51	0xbdcc1312	-0.09964575
52	0xbd4eb5f5	-0.050466496
53	0xbec82a53	-0.3909479
54	0xbe89bde8	-0.269027
55	0xbf347b6a	-0.70500815
56	0xbf8bf1f8	-1.0933218
57	0xbf0c194d	-0.54726106
58	0xbed3c127	-0.413583
59	0xbf592263	-0.84818095
60	0xbe0ae9b5	-0.13565715
61	0xbebdae80	-0.37047195
62	0xbf8d27e0	-1.1027794
63	0xbf111746	-0.5667614

bn2.running_mean f4 [64]
0	0xbf850eb2	-1.039511
1	0xbfcff271	-1.6245862
2	0xbf921de5	-1.1415373
3	0xbec3e1d9	-0.38258246
4	0x3f3079d0	0.6893587
5	0x3f43c318	0.76469564
6	0xbe83d75a	-0.25750238
7	0xbfab436b	-1.3379949
8	0x3e6d4815	0.23172028
9	0xbc6d203d	-0.014473018
10	0x3fadd59c	1.3580813
11	0xbf497d7b	-0.78707093
12	0xbe875003	-0.26428232
13	0xbfb0ba0e	-1.3806779
14	0xbf911112	-1.1333334
15	0x3f518258	0.81839514
16	0xbf08c206	-0.53421056
17	0x3f2d71d3	0.67751807
18	0xbfaed3d8	-1.36584
19	0xbfce85ea	-1.6134617
20	0x3fb0e6ac	1.3820395
21	0xbd580d0d	-0.05274682
22	0xbfd643a0	-1.6739388
23	0x3f0f8906	0.56068456
24	0xbf1d3040	-0.6140175
25	0xbf21e0ec	-0.6323383
26	0xbeaa3e33	-0.3325058
27	0xbef07dfd	-0.4697112
28	0xbebc24db	-0.36746868
29	0xbf2b4a72	-0.6691047
30	0xbe8ed598	-0.27897334
31	0xbf86561a	-1.0495026
32	0x3f52ddb7	0.8236956
33	0x3fc506a2	1.5392649
34	0x3f93f4cf	1.1559085
35	0xbf6b891b	-0.9200608
36	0xbfe2c9a4	-1.7717786
37	0xbdb5f71f	-0.08885025
38	0xc003118a	-2.0479455
39	0xbf2f2a8c	-0.68424296
40	0xbf7334ec	-0.9500263
41	0xbfd87c9d	-1.6913029
42	0xbfe2eca8	-1.7728472
43	0x3fe139cb	1.7595762
44	0xc015c2d1	-2.3400156
45	0xbe8ce612	-0.2751928
46	0x3f6915f5	0.9104913
47	0xbcac0530	-0.020998567
48	0xbeb53b4d	-0.35396805
49	0xbfe7c3e0	-1.8106651
50	0xc017c103	-2.3711555
51	0xbf90758c	-1.1285872
52	0xbf4382bb	-0.76371354
53	0x3f57ec31	0.84344774
54	0xbdea652a	-0.11445077
55	0x3f7530ed	0.9577778
56	0xbec3b392	-0.3822294
57	0xbfb84f70	-1.4399242
58	0x3d8cfaac	0.06883749
59	0x3eb4bd05	0.3530046
60	0xbf2005ef	-0.62509054
61	0xbf6026c4	-0.8755915
62	0x3f64ea86	0.89420354
63	0xbf5fb820	-0.8739033

bn2.running_var f4 [64]
0	0x3f0f0590	0.5586786
1	0x3f3b1216	0.7307447
2	0x3fb19c41	1.387581
3	0x3f8a3669	1.0797855
4	0x3f2b5075	0.6691964
5	0x3ea1aeaf	0.31578586
6	0x3edf00b2	0.43555218
7	0x402010d7	2.5010278
8	0x400448a6	2.066934
9	0x3f202c85	0.6256793
10	0x3ef81c05	0.48458877
11	0x3f880ec4	1.0629506
12	0x3edbc829	0.42926148
13	0x3f65ebe3	0.8981306
14	0x3f6fb25d	0.93631536
15	0x3f252495	0.64508945
16	0x3fe008c2	1.7502673
17	0x408011ec	4.0021877
18	0x408553ec	4.1664944
19	0x3fe622ca	1.7979367
20	0x3f3401e0	0.7031536
21	0x403137f0	2.7690392
22	0x3f165929	0.587298
23	0x3f5208f0	0.8204489
24	0x3f7ad61d	0.9798296
25	0x3fcb861d	1.5900303
26	0x4076086d	3.8442643
27	0x3f6e65f2	0.93124306
28	0x3f44876c	0.7676914
29	0x3fd14fec	1.6352515
30	0x406e6316	3.7247977
31	0x3f260c52	0.6486255
32	0x3f1d11b2	0.61355126
33	0x3f40e13a	0.7534367
34	0x40801b5d	4.0033402
35	0x3fd8b107	1.6929024
36	0x3fc87203	1.5659794
37	0x3f3e7840	0.74402237
38	0x3fcf92a9	1.6216632
39	0x3fa0a126	1.2549179
40	0x3f9b93f7	1.215453
41	0x40049c43	2.0720375
42	0x40c1b50b	6.05335
43	0x3fbc4f71	1.4711744
44	0x3f84339d	1.0328251
45	0x3e9066a3	0.28203306
46	0x3ed772bc	0.42079723
47	0x3f93cea1	1.1547433
48	0x3f57206c	0.84033847
49	0x408cd698	4.4011955
50	0x40b6939a	5.705518
51	0x3fb601f5	1.4219347
52	0x3fc3143f	1.5240554
53	0x3f959768	1.168683
54	0x3f9fc954	1.2483315
55	0x3f138224	0.57620454
56	0x3edfacc6	0.43686503
57	0x406dc998	3.7154293
58	0x4061a03c	3.525405
59	0x3f0ebc83	0.55756396
60	0x3fbcbfd2	1.4746039
61	0x3f760611	0.96103007
62	0x3e21bdf6	0.1579512
63	0x3fd3a564	1.6534848

fc3.weight f4 [64, 64]
0	0xbd724c52	-0.059154816
1	0x3d309a53	0.043115925
2	0xbe5e4767	-0.21706925
3	0xbc70a975	-0.014688839
4	0x3d9a2ab8	0.07527679
5	0xbe2e18b8	-0.17001617
6	0x3e50a611	0.2037585
7	0xbe944523	-0.28958997
8	0xbd99df27	-0.07513266
9	0xbe4b002c	-0.19824284
10	0xbdddce44	-0.10830358
11	0x3e347088	0.17621052
12	0xbd7b9064	-0.061417
13	0x3e4cc2b1	0.19996144
14	0xbdff6ae9	-0.12471563
15	0xbd60b9cc	-0.05486469
16	0x3df8a522	0.121408716
17	0x3dc17128	0.09445411
18	0xbed6789b	-0.4188889
19	0xbe8d7df9	-0.27635172
20	0x3df80568	0.12110406
21	0x3debebaf	0.115195625
22	0xbcafa15e	-0.02143925
23	0x3d880b50	0.06642783
24	0xbe956cc2	-0.29184538
25	0x3d84b782	0.06480314
26	0xbe2722e9	-0.16321911
27	0x3e84215d	0.25806704
28	0xbe184395	-0.1486953
29	0xbceae7c3	-0.028674966
30	0x3e1cfd6f	0.15331052
31	0x3dfb49b2	0.12269916
32	0x3e611244	0.21979624
33	0xbdb8b62d	-0.09019122
34	0xba10edfc	-0.00055286265
35	0xbe99046c	-0.29886186
36	0xbd97a28c	-0.0740405
37	0x3ba67888	0.0050802864
38	0x3ed19a15	0.40937868
39	0xbe4bd472	-0.1990526
40	0xbd17b35c	-0.037036285
41	0xbdb46ea0	-0.088101625
42	0x3de16ba1	0.11006857
43	0x3d940989	0.07228381
44	0x3e2cd1e0	0.16876936
45	0xbd7a537c	-0.061114773
46	0xbdddad36	-0.10824053
47	0xbcc85370	-0.024453849
48	0xbe3d7136	-0.18500218
49	0xbf2a75b7	-0.6658587
50	0xbe1f0e68	-0.1553284
51	0x3d83f265	0.064427175
52	0xbe9317d9	-0.28729132
53	0xbd7fe731	-0.06247634
54	0x3da90638	0.08253139
55	0x3d21927d	0.039446343
56	0x3e09fab6	0.13474545
57	0x3e953ad7	0.29146454
58	0x3e0ad21f	0.13556717
59	0x3e071b0f	0.13193916
60	0x3b2e9089	0.0026636443
61	0xbc9083b7	-0.017640932
62	0xbe71a171	-0.23596741
63	0xbda7108a	-0.081574515
64	0xbe94a53d	-0.29032317
65	0xb8ff4149	-0.00012171508
66	0xbe3bda28	-0.18344939
67	0xbe814ea3	-0.25255308
68	0xbe47839a	-0.19483796
69	0x3d7c8c93	0.0616575
70	0x3d99942b	0.07498964
71	0x3dc9b40f	0.098487966
72	0x3e0ec816	0.13943514
73	0xbdd31392	-0.10306467
74	0xbdf76d52	-0.12081398
75	0xbdd97eda	-0.10619898
76	0x3a0c59de	0.00053539674
77	0xbdf16071	-0.11785973
78	0x3e61df2a	0.22057787
79	0x3e30a010	0.17248559
80	0x3e04eb77	0.12980448
81	0xbe0d3195	-0.13788445
82	0x3d4f2b7c	0.05057858
83	0xbea0536e	-0.31313652
84	0x3e2f2f4b	0.17107885
85	0x3ed00e90	0.4063611
86	0xbeaca5f3	-0.3372036
87	0x3bbfd5bc	0.0058543365
88	0xbafc10a6	-0.0019231036
89	0xbda198a7	-0.07890444
90	0xbd319827	-0.043357994
91	0xbe2912e1	-0.16511108
92	0xbe143b8f	-0.14475845
93	0x3e235500	0.15950394
94	0x3daee016	0.08538835
95	0xbe1d2836	-0.1534737
96	0x3d6b923b	0.057512503
97	0xbd64400f	-0.055725154
98	0xbd83279f	-0.064040415
99	0x3e38473e	0.17995927
100	0xbe552b34	-0.20817262
101	0x3d8eced8	0.06973046
102	0x3ceb8d22	0.02875382
103	0x3dc3fb77	0.095694475
104	0xbe0913dd	-0.13386483
105	0xbe3ef609	-0.18648542
106	0x3e3262c9	0.17420496
107	0x3dc1757f	0.09446239
108	0xbe302108	-0.172001
109	0xbdf6665f	-0.120312445
110	0x3e58578a	0.21127144
111	0xbd03c4f9	-0.03217027
112	0x3d999d70	0.07500732
113	0x3dd660fe	0.104677185
114	0x3da3d005	0.07998661
115	0x3cc091f2	0.023507092
116	0x3e197efa	0.14989844
117	0xbde67b36	-0.11253969
118	0xbce7df5a	-0.028304745
119	0xbd992f1f	-0.07479691
120	0x3dc0399c	0.09385988
121	0x3e5f9141	0.21832754
122	0x3e4521d5	0.19251187
123	0x3db06a79	0.08614058
124	0x3dcfe7b2	0.10151614
125	0x3e76fabe	0.24119088
126	0x3f00e997	0.5035643
127	0x3e983515	0.29727998
128	0x3ce03b89	0.027372139
129	0xbdb876be	-0.09007023
130	0x3cce41f3	0.025177931
131	0xbe82eb19	-0.2556999
132	0x3e60c399	0.21949615
133	0x3d8f7d8c	0.07006368
134	0xbcf7e3f7	-0.03026007
135	0x3d938149	0.072023936
136	0x3e0c8143	0.13721184
137	0x3d5e8bf9	0.054332707
138	0x3e4d3b8f	0.20042251
139	0xbd15bab5	-0.03655501
140	0x3e8b3cd7	0.27194855
141	0xbe02cdee	-0.12773868
142	0x3e128283	0.14307599
143	0x3ee8b3c3	0.45449647
144	0xbda397cc	-0.07987937
145	0x3dc1bfe6	0.0946043
146	0xbe8cc493	-0.27493724
147	0x3bcf3869	0.0063238633
148	0xbf183cca	-0.59467757
149	0x3db84186	0.089968726
150	0x3bf0fafb	0.007354138
151	0xbddfb40f	-0.10923015
152	0x3e1841a0	0.14868784
153	0xbd8493ea	-0.06473525
154	0xbe9addb9	-0.30247286
155	0x3d6baf63	0.05754031
156	0xbe92fc19	-0.2870796
157	0x3e3b2193	0.18274526
158	0x3d2fad7c	0.042890057
159	0x3d965957	0.07341259
160	0x3dee16fa	0.11625476
161	0x3db60d66	0.08889274
162	0x3d980110	0.07422078
163	0x3e647250	0.22309232
164	0xbed2ee9a	-0.41197664
165	0x3e505ecb	0.2034866
166	0x3e2feea6	0.17180881
167	0x3d8b1e7c	0.06792924
168	0xbd4cf685	-0.050039787
169	0x3ea09018	0.31359935
170	0xbe3920f4	-0.18078977
171	0xbe1d2bfa	-0.15348807
172	0xbc3ad31b	-0.0114028705
173	0x3dd89d2f	0.105768554
174	0xbe21ce96	-0.15801463
175	0x3e522c55	0.20524724
176	0x3e486e84	0.19573408
177	0xbe33a232	-0.17542341
178	0xbe210456	-0.1572431
179	0xbdbacc31	-0.09120978
180	0x3de10d90	0.10988915
181	0xbd640655	-0.0556701
182	0x3ce4b09b	0.027916243
183	0xbe2be962	-0.16788247
184	0x3dc782b1	0.09741724
185	0x3e9ded7b	0.30845246
186	0x3e5f5db9	0.21813096
187	0x3d672754	0.05643399
188	0x3e2722f2	0.16321924
189	0xbe8de06c	-0.27710283
190	0x3e4cd706	0.200039
191	0x3e866682	0.26250082
192	0x3ec1f94b	0.37885508
193	0x3caf356c	0.021387778
194	0xbd6a3d59	-0.057187412
195	0xbe1170e4	-0.1420322
196	0xbd98a6d2	-0.074536934
197	0xbd4c8c81	-0.049938682
198	0x3d89da20	0.06731057
199	0x3e5bfeee	0.21483967
200	0xbd4d8ff9	-0.05018613
201	0xbeaee769	-0.34160927
202	0xbe1fa552	-0.15590408
203	0x3e3d1e08	0.18468487
204	0xbe3b9a75	-0.1832064
205	0xbd5a6a3e	-0.053323977
206	0xbe018abb	-0.12650578
207	0xbdcc6f47	-0.09982162
208	0x3e6dd0bc	0.23224157
209	0xbd55116e	-0.052018575
210	0xbdf22e0c	-0.11825189
211	0x3eb62d5e	0.35581487
212	0x3e88d97d	0.2672843
213	0xbe7ba8b7	-0.24576078
214	0x3c29a022	0.01035312
215	0xbb8599bd	-0.004077165
216	0xbd89eb63	-0.067343496
217	0x3e93d6e9	0.288749
218	0xbd46a814	-0.048500136
219	0xbd1c5624	-0.038168088
220	0x3cae4e0e	0.021277454
221	0xbb32720b	-0.002722862
222	0x3e4a5be8	0.19761622
223	0xbdac8074	-0.08422938
224	0xbd874e06	-0.06606679
225	0x3e0557b0	0.13021731
226	0x3d3b9132	0.045792766
227	0x3d493d1a	0.049130537
228	0xbe73126d	-0.23737498
229	0x3cc1129d	0.023568446
230	0xbca8c029	-0.020599442
231	0x3e66740b	0.22505204
232	0x3d76ab72	0.060222097
233	0x3dd92d81	0.10604382
234	0x3db5aa47	0.088703685
235	0x3e9a376a	0.30120403
236	0xbdbb7e23	-0.09154918
237	0x3d1acc80	0.037792683
238	0xbe82a0fa	-0.2551344
239	0xbe63d2db	-0.22248404
240	0xbe0dff32	-0.1386688
241	0x3def1805	0.11674503
242	0x3e99f5ba	0.30070287
243	0x3df69d3d	0.120417096
244	0x3d26a93b	0.040688735
245	0x3de85e5e	0.11346124
246	0x3e3356a9	0.17513527
247	0x3d9480ed	0.07251153
248	0x3eb05610	0.3444066
249	0xbee07f20	-0.4384699
250	0x3e79ed6b	0.24406974
251	0x3ed17950	0.40912867
252	0x3e2052eb	0.1565663
253	0x3e5bcceb	0.21464889
254	0x3c8eb238	0.017418966
255	0x3e692dd1	0.22771384

fc3.bias f4 [64]
0	0x3d55a93d	0.05216335
1	0x3b9b23ef	0.004734508
2	0xbd1847a4	-0.037177697
3	0xbe4424f6	-0.19154724
4	0x3add99f2	0.0016906841
5	0x3e1f206a	0.15539709
6	0xbed2e5e9	-0.41191033
7	0xbeb24243	-0.3481618
8	0xbe491095	-0.19635232
9	0xbde913c8	-0.11380726
10	0xbdbbeb27	-0.09175711
11	0xbeaaaa87	-0.33333227
12	0xbe84973d	-0.25896636
13	0xbc6c1fd0	-0.014411882
14	0xbe60b50d	-0.21944065
15	0x3ca63e14	0.020293273
16	0xbe8460e9	-0.25855187
17	0x3b95510f	0.004556782
18	0xbe0eb5f6	-0.139366
19	0x3d0491bb	0.032365542
20	0xbde20844	-0.11036733
21	0xbe8e736b	-0.27822432
22	0xbe947c51	-0.29001096
23	0xbe18a707	-0.14907466
24	0xbcb93aaf	-0.02261099
25	0xbd6fd9be	-0.058557265
26	0x3d16c2a2	0.03680671
27	0xbed7a0db	-0.4211491
28	0x3caa86fe	0.020816322
29	0xbe99bf4f	-0.3002877
30	0xbc7aa922	-0.0152991135
31	0x3dce5b98	0.10076064
32	0x3e91d51f	0.2848291
33	0x3dae0e35	0.084988035
34	0xbe05bf6f	-0.13061307
35	0xbea5a103	-0.32349405
36	0x3de470fd	0.11154363
37	0xbe9c2a18	-0.30500865
38	0xbe23f5c7	-0.16011725
39	0xbcd944d9	-0.026522087
40	0x3d5442be	0.051821463
41	0xbe120529	-0.14259781
42	0xbe7e9f23	-0.24865393
43	0xbea8623a	-0.3288744
44	0xbeaa35e4	-0.3324424
45	0xbde09e76	-0.10967724
46	0xbcc9301a	-0.02455907
47	0xbd18233b	-0.037142973
48	0xbda696dc	-0.08134243
49	0xbe89f78f	-0.26946685
50	0xbe882a22	-0.26594645
51	0x3de65104	0.11245921
52	0xbe7dbfbb	-0.2478017
53	0xbe0d2567	-0.13783799
54	0xbd5db671	-0.054129068
55	0x3dce2dbf	0.10067319
56	0x3e5a6be1	0.21330215
57	0xbef033de	-0.46914572
58	0x3dc49b3d	0.09599922
59	0xbc668011	-0.014068619
60	0xbeeb534e	-0.45961994
61	0xbd95b38b	-0.07309636
62	0x3d3998f0	0.04531187
63	0x3df80524	0.121103555

bn3.weight f4 [64]
0	0x3f913630	1.1344662
1	0x3f9b8197	1.2148923
2	0x3f9a6c15	1.2064234
3	0x3f9c8fc0	1.2231369
4	0x3f9a9d79	1.2079307
5	0x3fc9a57b	1.5753626
6	0x400e76fe	2.2260127
7	0x3fb9aed5	1.450648
8	0x3f8ff189	1.1245586
9	0x3f77c0bd	0.9677847
10	0x401979b7	2.398054
11	0x4024d092	2.5752301
12	0x3fa9d6ad	1.3268639
13	0x3f8bbeeb	1.0917639
14	0x3faaf5da	1.3356278
15	0x3f93ae4a	1.1537564
16	0x3f9203a6	1.1407363
17	0x3fcb9014	1.5903344
18	0x3f944cae	1.1585901
19	0x3f8a417c	1.0801234
20	0x3fad61e7	1.3545502
21	0x3f969f23	1.1767315
22	0x3fbd8aa4	1.4807935
23	0x3f91bb02	1.1385195
24	0x3f92c575	1.1466509
25	0x3f963d63	1.1737484
26	0x3f8c86be	1.097862
27	0x401e8190	2.4766579
28	0x3f8ef673	1.116896
29	0x3fdb5ad6	1.7137096
30	0x3f83fce7	1.0311555
31	0x3fa39b41	1.2781755
32	0x3fabebbe	1.3431318
33	0x3f9edefe	1.2411802
34	0x3f917d6c	1.1366401
35	0x3ff8ae23	1.9428142
36	0x3fa6dd18	1.3036222
37	0x401579c4	2.335557
38	0x3faa5d59	1.3309737
39	0x3fd3884a	1.6525967
40	0x400f294e	2.236896
41	0x3f907046	1.1284263
42	0x3fb2943e	1.395149
43	0x3fb21264	1.3911862
44	0x402892ae	2.6339526
45	0x3fb80c4d	1.4378754
46	0x3f81e977	1.0149373
47	0x3f94da30	1.1629086
48	0x3f942eab	1.1576742
49	0x3fcd029f	1.6016425
50	0x40068344	2.1017618
51	0x3f92a8a5	1.1457716
52	0x3fe12f07	1.7592477
53	0x3f87b90f	1.060335
54	0x3faebc45	1.3651205
55	0x3f985838	1.1901922
56	0x3f7d3b65	0.98918754
57	0x4010d6e6	2.2631164
58	0x3f969aac	1.1765952
59	0x3f92a59d	1.1456791
60	0x400a066f	2.1566427
61	0x3fa5f5d0	1.2965641
62	0x3f8be6cd	1.092981
63	0x3fc099e6	1.5046966

bn3.bias f4 [64]
0	0xbd1a2e93	-0.037642073
1	0xbf011cd5	-0.5043462
2	0xbbb884c2	-0.0056310603
3	0xbcfdfc97	-0.031004233
4	0x3e665120	0.22491884
5	0xbf0a0a2a	-0.5392176
6	0xbfc516b2	-1.5397551
7	0xbefdbade	-0.4955663
8	0xbeb03c17	-0.34420845
9	0x3da09901	0.07841683
10	0xbfa431eb	-1.2827734
11	0xbf997db0	-1.1991482
12	0xbed47c69	-0.41501167
13	0xbe0ea42a	-0.13929811
14	0xbf9adcdf	-1.2098655
15	0xbe7f7416	-0.24946627
16	0xbdd47ad6	-0.103749916
17	0xbf1e2ef1	-0.61790377
18	0x3d90e2b7	0.070744924
19	0x3bdf7587	0.0068194303
20	0xbf4913da	-0.78545916
21	0xbee8f05b	-0.45495877
22	0xbe2c099a	-0.16800538
23	0xbd4ca85c	-0.049965248
24	0xbdb5e770	-0.08882034
25	0xbe8f2bfa	-0.2796324
26	0xbd12257f	-0.03568029
27	0xbfaf33a4	-1.3687634
28	0xbdc8a562	-0.09797169
29	0xbfd42e62	-1.6576655
30	0xbeececee	-0.46274513
31	0xbf0c9f85	-0.5493091
32	0xbe29c59a	-0.16579285
33	0xbd545529	-0.051839028
34	0x3e5135ab	0.20430629
35	0xbf9c6e02	-1.2221072
36	0xbea98845	-0.33111778
37	0xbf988b36	-1.1917484
38	0xbeb31008	-0.34973168
39	0xbe09af4f	-0.13445781
40	0xbf92e66a	-1.1476567
41	0xbc5a539f	-0.013325601
42	0xbf1dd9ba	-0.6166035
43	0xbd188f52	-0.037246056
44	0xbfbcf035	-1.4760805
45	0xbf284ae3	-0.6573927
46	0xbec170a9	-0.37781265
47	0xbe23c016	-0.15991244
48	0xbe1884c6	-0.14894399
49	0xbeafee99	-0.34361723
50	0xbfcab6ad	-1.5836998
51	0x3e566aa8	0.20939124
52	0xbf5e465c	-0.8682611
53	0xbf3088ed	-0.6895893
54	0xbf113ac1	-0.56730276
55	0xbd77489c	-0.06037198
56	0xbe9a553b	-0.3014315
57	0xbfd2bc88	-1.6463785
58	0xbe88f9c1	-0.26753047
59	0xbed0a26c	-0.40748918
60	0xbfcdab19	-1.606784
61	0x3e1277bf	0.14303492
62	0xbe745bdf	-0.23863171
63	0xbec950ea	-0.39319545
