myrobot/src/not_using/DDPG/save_DDPG_models/1117_2/DDPG_Critic_EP278.pt (torch, 288194 bytes, 31 tensors)

fc1_state.weight f4 [128, 4]
000000 cf 0e 90 3b 8e 12 d5 3d 55 33 5b be 03 ae cf bc
       0.0043962966 0.1040393 -0.214063 -0.02535153
000010 23 a2 0c 3e 59 64 2b bf bc c8 8e 3e d9 2e 37 3b
       0.13733725 -0.66949993 0.27887523 0.0027951507
000020 f6 eb 80 3c 17 9a 82 3d 99 ff 7a 3d 4e 85 f0 bc
       0.015737515 0.063770466 0.061278913 -0.02936044
000030 9e c7 4e be 05 22 bf bd d8 15 62 bd 9f 26 fe bd
       -0.20193335 -0.093326606 -0.055196613 -0.1240971
000040 c9 1c c2 bd 1e 35 b0 3e f4 50 f9 3e dc 92 72 3c
       -0.094781466 0.34415525 0.48694575 0.014805522
000050 4d c1 cf 3e 7b 3a 92 be 2a 7a 8d 3d c4 e4 09 bc
       0.40577164 -0.28560242 0.069080666 -0.008416358
000060 e1 34 cd 3e 24 b5 3c be 1c 66 9b 3c bf 4e 29 bd
       0.40079406 -0.18428475 0.018969588 -0.041334864
000070 c8 22 88 be c4 db fa be 8f 66 5f 3e e5 30 ac 3c
       -0.26589036 -0.48995793 0.21816467 0.021019408
000080 4b 3a 73 bd 0f 88 8a bd 97 f8 af bd 52 3a 75 bd
       -0.059381764 -0.06764232 -0.085923366 -0.05987007
000090 60 f0 06 bc cc 14 5e be a7 2b 6c 3c 1a 7b 07 bd
       -0.008236021 -0.21687621 0.014414704 -0.033076383
0000a0 88 66 37 bb 1c 88 63 bd 51 95 bf bb 3f f3 a9 bd
       -0.0027984697 -0.055549726 -0.0058466573 -0.08298349
0000b0 1b 3d 1c bf d9 34 bc be 16 19 13 3e ff 81 bb 3c
       -0.6103074 -0.3675907 0.14365038 0.022889135
0000c0 21 78 ae bd 38 ff 4d bd 21 31 00 3f 3f ee 8e 3c
       -0.085190065 -0.050292224 0.50074965 0.017447589
0000d0 91 f2 36 3e 2d 68 c9 be c9 bf e6 3c 88 54 ab bd
       0.17865969 -0.39337292 0.028167622 -0.083657324
0000e0 0f 4e 8d 3e d2 49 5e 3d c6 27 7d 3e 8a 4e 50 3b
       0.27598616 0.05426962 0.24722204 0.0031785094
0000f0 ba 1d 83 bc 0a 91 46 3d 8a f4 ba 3e ec dd a8 3c
       -0.016005386 0.048478164 0.36514693 0.020613633
000100 c1 16 d4 be 63 ab 12 be 8f 7b 6e bc 7d 42 bf be
       -0.4142361 -0.14323191 -0.014555826 -0.37355414
000110 c0 77 0d be c9 93 ee bd f3 03 72 bc 47 19 cf bc
       -0.13815212 -0.116492815 -0.014771449 -0.025280608
000120 a9 fc 02 bd 30 df 8f bc a5 0d f3 be dd f8 3e bb
       -0.031979237 -0.017562479 -0.47471347 -0.0029140033
000130 7f ce 52 3d 25 e4 11 3d a6 0f 2f be 23 6d 04 be
       0.05146646 0.035617966 -0.17095813 -0.12932257
000140 52 0e a8 bd e3 e6 92 3d d0 4a 85 bf b0 4d 36 3b
       -0.082058564 0.071729444 -1.0413456 0.0027817301
000150 92 f5 29 3d 5a a1 db 3e f6 8a a7 3e 82 81 cf 3b
       0.04149396 0.4289654 0.32723206 0.006332577
000160 41 c9 33 3d a9 0a 49 bf 7d 5b 44 3e 33 ac 5f 3b
       0.043893103 -0.7853189 0.19175525 0.0034129738
000170 5c 25 5e be 58 1c 93 3d 44 12 ea 3c 54 8c 85 be
       -0.21693939 0.071831405 0.028573163 -0.26083624
000180 9a 8b 15 bd 5f ea c9 bc a2 8c 04 bf 10 6b c6 bb
       -0.036510088 -0.02464789 -0.5177709 -0.0060552433
000190 f1 ca b7 bd 75 5a 73 3a 67 20 08 3f 50 41 9d 3b
       -0.08974255 0.00092831935 0.5317444 0.0047990456
0001a0 a1 f2 bd 3e 12 e7 21 3e bb 5b 29 bf 5a 32 3f 3c
       0.37099174 0.15810803 -0.66155595 0.01166972
0001b0 13 fe 60 bf 61 63 a8 be 64 a9 b5 39 40 f0 b0 3b
       -0.87887686 -0.3288832 0.00034649216 0.005399734
0001c0 7a 82 a5 be 98 9a 28 bf 5f 6e 0d bf 72 2b 92 3c
       -0.32326108 -0.6586089 -0.5524654 0.017842982
0001d0 11 ed e2 3b 50 dc e5 3d 77 c1 ad 3e ca 2e 7a bb
       0.006925233 0.11223662 0.33936664 -0.003817486
0001e0 22 bd 2a be b3 a7 01 bf 9d a4 5b 3d e3 0d fa 3b
       -0.16673711 -0.50646514 0.053623784 0.00763105
0001f0 79 66 96 3f dd dd 17 bd 45 35 21 bd 0f 54 53 3b
       1.1750022 -0.03707682 -0.039357442 0.0032246148
000200 3a d2 ed be 72 4b f6 3d 39 70 88 bf 0e 56 8f 3b
       -0.46449453 0.12026109 -1.0659248 0.004374272
000210 e2 8c f9 bd 9c a1 cc be 14 08 ee 3d 3d ca c0 3c
       -0.121850744 -0.39967048 0.116226345 0.023533935
000220 ac 8e 39 bd 21 b3 fe 3d e1 06 c6 be 2f 6a 48 be
       -0.045302078 0.1243651 -0.38677123 -0.19571756
000230 d5 c6 0a be a1 79 a4 3d 79 34 bd be dd b2 b6 be
       -0.13552411 0.080310114 -0.36954096 -0.35683337
000240 e8 2b 3c bf bd 56 31 3f 77 b2 a0 3d 65 bd af 3b
       -0.73504496 0.6927298 0.078465395 0.0053631538
000250 96 70 0f bf 60 04 ea bd e8 07 df 3e b8 f3 51 3c
       -0.5603117 -0.11426616 0.4356072 0.012814455
000260 cf f1 ae be 06 21 81 bd 06 08 74 bc 9a 60 a0 bd
       -0.3416886 -0.06305127 -0.014894491 -0.07830925
000270 88 a5 c8 3e 87 a1 08 3f 3a 68 40 be ab d7 02 bb
       0.3918879 0.5337147 -0.1878976 -0.0019964974
000280 27 43 16 bf 25 d3 b0 be c7 dd b5 be 49 32 d7 ba
       -0.58696216 -0.3453609 -0.35520765 -0.0016418184
000290 6b ff d9 3c 4c cb 12 be 9a e3 c0 3e 65 f9 23 bb
       0.02661105 -0.14335364 0.37673646 -0.0025020477
0002a0 a7 cc 7e 3e 9a 9f a0 3e 02 57 35 bf 74 9f f3 b8
       0.24882756 0.31371766 -0.7083589 -0.000116168434
0002b0 ea b2 30 3b a3 b4 40 3d d2 de af be 64 fc 82 be
       0.002696211 0.04704727 -0.34349686 -0.25583184
0002c0 72 c7 bb be 20 ba 0a 3e 37 a8 69 bd 02 7c cb be
       -0.36675602 0.13547564 -0.057045188 -0.39743048
0002d0 e3 b8 af 3e 9b 97 4d 3e 13 52 68 be f9 be 7c bd
       0.34320745 0.20077364 -0.22687559 -0.061705563
0002e0 ef b9 9f bc 48 5c d0 3e f1 42 db bc 45 27 af bd
       -0.01949784 0.40695405 -0.026765319 -0.08552412
0002f0 e4 58 5f 3e b9 d4 98 bf 92 60 44 3e 9d 97 2a 3c
       0.21811253 -1.1939918 0.19177464 0.010412124
000300 3a c8 df be bb 3d a1 3e ee 86 0e bf b9 89 8a 3a
       -0.43707448 0.3149241 -0.55674636 0.0010569609
000310 32 c8 9f be 70 d8 8b be b3 e9 30 be 57 d2 a2 3c
       -0.31207424 -0.27313566 -0.17276649 0.019875688
000320 0b 94 93 3e 06 43 53 3e 49 e5 4d bf 3c 92 dd 3a
       0.28823885 0.20631036 -0.80427986 0.0016904543
000330 f9 7e 5c 3d 52 41 34 3e 40 5f 92 3e e3 46 c8 3c
       0.053832028 0.17603043 0.28588295 0.024447864
000340 8e 7a 14 3d 41 0d 37 bc aa 5a 01 3d 0f 7b 2d bd
       0.03624969 -0.011172594 0.031580605 -0.042353686
000350 66 5b a7 be da 76 26 be bb ba ab 3d 89 fb 9e bc
       -0.3268692 -0.16256276 0.083852254 -0.01940705
000360 40 9a 44 3d e0 95 0b 3c 0f aa 15 be 4c 56 21 be
       0.047998667 0.00851962 -0.14615653 -0.15755576
000370 6a eb cd 3e af 41 24 be 08 7e 16 3d 37 35 82 be
       0.4021867 -0.16040681 0.036741287 -0.25431225
000380 fd 5e 6b 3e 38 b3 7e 3f 71 b2 96 3d 81 99 62 3a
       0.22985454 0.99492216 0.07358254 0.00086440897
000390 81 02 9b be 30 2a 03 bd 45 78 96 bf ff aa e7 3b
       -0.30275348 -0.032022655 -1.1755453 0.007069945
0003a0 3f 12 4c bf d9 0a 9e bc 0b da 28 3d f4 da 60 ba
       -0.7971534 -0.019292282 0.041223567 -0.00085775484
0003b0 af ce e5 bc 60 d8 b9 3a dc c4 18 be e1 0b 1d be
       -0.028052656 0.0014178865 -0.14918846 -0.15336563
0003c0 77 37 68 be dc 58 1d 3e 94 fb a5 3e 70 5b e5 bb
       -0.22677408 0.15365928 0.324185 -0.0069994256
0003d0 aa f7 ea 3e 2f b9 07 3e 25 10 2e 3d 76 be a9 be
       0.45892078 0.13254236 0.042495865 -0.33153123
0003e0 c9 c5 09 3f 35 75 b0 be b5 da 77 3e 31 dd 8a 3b
       0.5381742 -0.34464422 0.24204524 0.004237794
0003f0 aa cf 70 bf b7 df 14 3e de 1a 80 bc 24 f8 6b bb
       -0.9406687 0.14538465 -0.015637811 -0.0036006058

fc1_state.bias f4 [128]
000000 99 f4 f2 3e 33 07 a4 3e 53 34 0e 3f 5b 94 79 3d
       0.47452238 0.32036743 0.5554859 0.0609325
000010 b2 1e 43 bd aa d7 c4 be b7 d2 44 bd 79 2b 55 bd
       -0.047636695 -0.3844579 -0.048052516 -0.052043412
000020 b2 ae f4 bc f8 33 1e 3e 3c 4e b5 3c 29 fa 6a bd
       -0.029868457 0.15449512 0.022132032 -0.057367478
000030 a3 23 a8 be 74 8a f1 3d 04 9a a7 be 8f f4 ed be
       -0.3283969 0.11793986 -0.32734692 -0.46475646
000040 32 0c 8e 3d 2e c2 51 3d c0 01 76 3d 14 87 7e 3e
       0.0693592 0.051210575 0.060060263 0.24856216
000050 88 39 83 3e 49 91 bd be 65 ef ac 3e 6f 29 15 3d
       0.2562983 -0.37024906 0.33776394 0.036416467
000060 48 08 57 3e a8 2f 54 be fb b5 92 bd 41 62 23 3d
       0.20999253 -0.20721304 -0.07163616 0.039888624
000070 e7 f3 fa 3d f6 44 3e be 50 c6 b9 3e f0 8f 4e be
       0.12253552 -0.18580994 0.36284113 -0.20172095
000080 72 50 0d 3e c2 0c b2 be 60 68 8f bd c6 c2 fa 3d
       0.13800219 -0.34775358 -0.0700233 0.12244181
000090 91 22 8f be b1 23 8f be f4 2f 81 3c 54 7c 35 3e
       -0.2795606 -0.27956918 0.015769936 0.17723209
0000a0 c8 59 77 3c d0 d2 c1 bd 2a 91 56 3e 49 54 de 3d
       0.015097089 -0.094640374 0.20953813 0.1085592
0000b0 b6 89 54 bb 71 5a 52 be 7a 84 02 3e ec 2f d7 bd
       -0.0032430715 -0.20542313 0.12745848 -0.10507187
0000c0 f8 2f 80 bd 98 84 e4 3d 4d d0 77 3e b9 a3 d8 be
       -0.06259149 0.11158103 0.24200554 -0.4231241
0000d0 6d 7e d0 3e 8f a9 1c 3e 43 48 8b bd bb a0 d1 3c
       0.40721455 0.15299056 -0.06800892 0.025589338
0000e0 5a ee 95 be d7 c7 91 3e 21 6d a6 bd 7b ed 42 bc
       -0.2928341 0.28472778 -0.081262834 -0.01189744
0000f0 c9 3f c5 bd a3 94 9c be c1 64 9b 3d c9 3c 33 be
       -0.09631307 -0.3058215 0.07587577 -0.17503656
000100 44 96 25 bd e6 e5 85 be dc f3 70 3e ed fd 24 3e
       -0.040426508 -0.2615196 0.23530525 0.1611249
000110 95 52 de 3e 3c e2 18 3d 73 3f 8c bd 91 c5 bc 3d
       0.4342238 0.03732513 -0.068480395 0.0921737
000120 53 c9 4f bd cf 80 56 3d cb fc 0e be e7 23 4c 3e
       -0.050729107 0.052368935 -0.1396362 0.1993557
000130 a9 56 45 3e 2b 0a 37 3d 4b d4 11 3e 16 0c 29 be
       0.1927134 0.04468743 0.1424114 -0.16508517
000140 fe 8c 81 3e 4f 61 9d be df 73 bd be 36 73 a4 3e
       0.2530288 -0.30738303 -0.37002465 0.3211915
000150 97 4d cc bd 25 c5 5c 3e 13 8c a0 3e 46 f1 43 3e
       -0.099757366 0.2155958 0.31356868 0.19135007
000160 76 78 5c 3e 80 e5 bf be c8 2a 38 3e 56 44 62 3d
       0.21530327 -0.37479782 0.1798507 0.05524095
000170 f9 a0 e3 3e 6c f9 35 3e 29 80 99 3e 07 d6 56 bd
       0.4445875 0.17770928 0.2998059 -0.052450206
000180 7e 27 19 bd a1 35 92 3e ac 0d db bd 79 98 55 bd
       -0.03739118 0.2855654 -0.10695967 -0.052147362
000190 22 bf 4f bd c4 75 cc 3e 70 45 a6 be d3 df 37 bd
       -0.050719388 0.39933598 -0.32474852 -0.04489119
0001a0 c2 3f aa bd 41 5d 4e 3e 84 45 a2 be e7 2c 3f 3e
       -0.08312942 0.20152761 -0.3169366 0.18669473
0001b0 b3 1f 67 be a1 0d 93 3e 30 86 a2 be a3 f5 ac be
       -0.22570686 0.28721336 -0.31743002 -0.33781156
0001c0 28 df 93 bd 7c 7d 88 3d b2 92 04 bf 2a b4 2f bd
       -0.07220298 0.06664559 -0.5178634 -0.042896427
0001d0 a2 2d fb bd cd 2a a5 be ee e4 b7 be 3a e1 79 bd
       -0.12264563 -0.32259217 -0.35916847 -0.06100581
0001e0 6d 1c 96 3e 70 3a bc be 41 a0 0f 3e ed 1d d2 3c
       0.29318562 -0.36763334 0.14025976 0.025649035
0001f0 81 ae be 3d 0f fa a8 bd 6b 9c d7 3d 27 49 b3 3e
       0.09310628 -0.0825082 0.10527881 0.35016748

bn1_state.weight f4 [128]
000000 6b bd 6d 3f 00 aa a7 3f 6e 15 92 3f fa 03 9d 3f
       0.92867154 1.3098755 1.141279 1.2266839
000010 a2 9f 90 3f d9 22 68 3f c2 6f d4 3f fd 7a 64 3f
       1.1298716 0.90678173 1.6596606 0.89250165
000020 37 fb 7c 3f 32 73 80 3f b9 71 7e 3f bd bd 66 3f
       0.98820823 1.0035155 0.99392277 0.9013327
000030 1b 35 5f 3f b1 cd b8 3f ed f3 24 3f 42 59 5c 3f
       0.8719041 1.4437772 0.644347 0.86073697
000040 fd 81 9f 3f ca 84 88 3f 98 df 69 3f 9f 38 a4 3f
       1.2461544 1.0665524 0.913568 1.2829779
000050 be 80 88 3f 29 25 81 3f 19 b8 9d 3f 63 48 86 3f
       1.0664289 1.0089465 1.2321807 1.0490841
000060 0d 40 5a 3f e5 a7 60 3f 49 ad 6c 3f 16 41 6f 3f
       0.85253984 0.87756187 0.9245191 0.9345869
000070 6b 57 87 3f b7 81 3c 3f 03 e3 82 3f 96 49 c8 3f
       1.0573553 0.7363543 1.0225528 1.5647457
000080 8b 96 97 3f 5a 06 5f 3f f9 e3 b0 3f a7 3a ae 3f
       1.1842817 0.87119067 1.3819572 1.3611649
000090 0e 65 91 3f b7 a8 7b 3f 96 fd 96 3f 9f 84 89 3f
       1.1358964 0.98304313 1.1796138 1.0743598
0000a0 3b 6c af 3f fc fe 45 3f b5 cc 7e 3f e9 2b a1 3f
       1.3704904 0.773422 0.9953111 1.2591525
0000b0 b9 7d a9 3f de 5b bb 3f cd 56 a4 3f 22 ff 9e 3f
       1.3241493 1.4637411 1.283899 1.242161
0000c0 fd e9 97 3f b2 cb 37 3f b5 61 86 3f 13 82 65 3f
       1.1868283 0.7179519 1.0498568 0.896516
0000d0 02 12 88 3f b8 3e 82 3f f9 4b 80 3f 84 18 a9 3f
       1.0630496 1.017539 1.0023185 1.3210607
0000e0 7c a1 b3 3f b3 f1 9e 3f 17 01 9b 3f 17 20 84 3f
       1.4033656 1.2417511 1.2109708 1.0322293
0000f0 1d 10 51 3f 10 9e ac 3f ff 13 56 3f 61 be b3 3f
       0.8166521 1.3485737 0.8362426 1.4042474
000100 00 00 80 3f 2a 28 9f 3f 1e 78 8e 3f c5 59 aa 3f
       1.0 1.2434132 1.1130407 1.3308645
000110 5e 97 cf 3f 56 c5 fc 3f e2 8b 36 3f 30 ce a7 3f
       1.6218069 1.9747722 0.71307194 1.3109798
000120 37 d5 aa 3f 51 1c 89 3f 2b 88 9e 3f b1 27 88 3f
       1.3346318 1.0711766 1.2385305 1.0637113
000130 76 77 81 3f 25 04 8e 3f 48 cc 90 3f cb 9a 75 3f
       1.0114582 1.1095015 1.1312342 0.9593932
000140 9d 2c a5 3f a0 26 21 3f d8 96 50 3f 70 dc 2c 3f
       1.290424 0.6294956 0.8148017 0.6752386
000150 48 cb 9a 3f 82 d4 bd 3f d1 39 a1 3f 8b 56 8d 3f
       1.2093287 1.4830477 1.2595769 1.1042036
000160 27 ae 8e 3f 8a 34 66 3f 94 23 aa 3f 71 ec 71 3f
       1.1146897 0.8992392 1.3292108 0.94501406
000170 4a de 96 3f 9b 22 7d 3f f0 ee 84 3f 9e 69 7f 3f
       1.1786587 0.9888093 1.0385418 0.99770534
000180 00 00 80 3f 24 45 79 3f f4 94 90 3f dc fc 87 3f
       1.0 0.97371125 1.1295457 1.0624042
000190 59 c1 83 3f 95 da 4f 3f 31 5a 25 3f 93 2a 7d 3f
       1.029338 0.81192905 0.64590746 0.9889309
0001a0 00 00 80 3f 28 77 8a 3f 99 10 5f 3f 3d 85 7d 3f
       1.0 1.0817614 0.871347 0.9903143
0001b0 3f 23 57 3f da 5f aa 3f 39 e5 73 3f 31 a6 58 3f
       0.84038156 1.3310502 0.9527164 0.8462859
0001c0 46 5c 91 3f a2 87 6d 3f 01 9e 5a 3f b9 d9 bb 3f
       1.1356285 0.92785084 0.85397345 1.4675819
0001d0 68 3a 99 3f fb 22 44 3f 2d c4 66 3f f0 46 a6 3f
       1.1970949 0.76615876 0.9014309 1.2990398
0001e0 d4 01 bc 3f 5a 9f 4e 3f 62 fc a7 3f ed 07 a3 3f
       1.4688058 0.807119 1.3123896 1.2736794
0001f0 3c 03 88 3f 37 a6 95 3f d2 11 81 3f b1 60 7e 3f
       1.0625987 1.169135 1.0083563 0.9936629

bn1_state.bias f4 [128]
000000 93 a5 c8 3e 34 8e c5 3e 9b 6b fe 3e 22 9d a1 3d
       0.39188823 0.38585055 0.4969147 0.07891299
000010 30 9e 05 be 80 02 9e be 2f 9a 0c 3d e0 b0 3a bd
       -0.13048625 -0.30861282 0.03432673 -0.045578837
000020 9f a2 63 bc ea e4 15 3e 0c 9e c3 bb 98 23 e2 bd
       -0.013893752 0.14638105 -0.0059697684 -0.11041945
000030 32 ae 96 be 57 d8 0b 3d 51 e0 9f be 97 83 d6 be
       -0.29429775 0.034141865 -0.31225827 -0.4189727
000040 6b c3 9c 3d 0c 88 90 3d 33 61 a1 3d 7b 10 50 3e
       0.076544605 0.07057199 0.078798674 0.20318787
000050 b3 02 81 3e f6 5b a2 be 97 9b bf 3e 19 2e 1d 3d
       0.25197372 -0.31710786 0.37423393 0.03837404
000060 1f 7d 61 3e c1 3b 4f be 19 ca 7c bd aa 4b 92 3c
       0.22020386 -0.20237638 -0.061716173 0.017858345
000070 a5 9f b2 3d a2 76 4a be 56 41 94 3e ab 1e 3e be
       0.08721856 -0.19771817 0.28956097 -0.18566386
000080 58 3d b7 3d a5 1a c6 be 7d 74 69 3c c0 6f cb 3d
       0.08947247 -0.38692203 0.014248964 0.09933424
000090 c3 5b a4 be 56 07 94 be 4c 52 b5 3d b2 56 c4 3d
       -0.3210126 -0.28911847 0.088535875 0.09586848
0000a0 e7 94 be 3d a6 e9 a9 bd 18 c7 1b 3e 19 30 58 3d
       0.093057446 -0.08296518 0.15212667 0.052780244
0000b0 70 d1 20 bd f1 f3 42 be de 1d 2e 3d b3 19 9f bc
       -0.039262235 -0.19038369 0.042508952 -0.019421434
0000c0 dc 2d 33 3b d5 87 00 3e 05 ed 30 3e 76 56 d1 be
       0.0027340567 0.12551816 0.17277916 -0.40886277
0000d0 71 44 b1 3e b2 7e 12 3e e9 1c 8b bd 94 12 1e 3d
       0.3462253 0.14306143 -0.067926235 0.038591936
0000e0 bb 4d 9d be c6 6a 90 3e 03 c0 43 bc 30 2d 0c bd
       -0.30723366 0.28206462 -0.011947635 -0.03422278
0000f0 74 03 10 be 59 23 6c be 13 55 33 3c ad 21 fb bd
       -0.14063817 -0.23060359 0.010945576 -0.122622825
000100 00 00 00 00 cf 39 5a be 15 0d 1d 3e 17 6d 20 3e
       0.0 -0.21311115 0.15337022 0.15666614
000110 f7 a1 b6 3e 60 71 3f 3d 32 75 82 bd 68 51 fe 3c
       0.35670444 0.046738982 -0.063700095 0.031044677
000120 a6 02 24 bd 15 69 9d bc 8b f2 a8 bd 81 46 10 3e
       -0.04004159 -0.019215146 -0.082493864 0.14089395
000130 7e 45 15 3e c0 29 ac 3d 85 39 07 3e d3 35 b2 bd
       0.1457729 0.08406401 0.13205536 -0.087016724
000140 08 9e 47 3e 88 96 c3 be 03 f6 8e be 4e ad 97 3e
       0.19493878 -0.38200784 -0.27922067 0.29624408
000150 fc bf c2 bc d7 f5 94 3e d3 74 8b 3e a0 47 3f 3e
       -0.023773186 0.2909381 0.27237567 0.18679667
000160 b7 94 05 3e ff 94 9f be 3d 82 12 3e c5 d1 7d 3d
       0.13045011 -0.31168362 0.14307494 0.06196763
000170 32 15 d9 3e 0e 57 6d 3e 00 94 81 3e bd df 03 bb
       0.42398983 0.2317774 0.25308228 -0.0020122372
000180 00 00 00 00 32 4a 94 3e 06 03 ae bd 22 b1 d5 3c
       0.0 0.28962857 -0.084966704 0.02608544
000190 ba 24 ab bc 7c 4d a1 3e 58 06 b0 be 18 c8 c4 b9
       -0.020891536 0.31504428 -0.3437984 -0.00037533115
0001a0 00 00 00 00 61 3f 23 3e 8a b7 8d be ee ad 57 3e
       0.0 0.15942146 -0.27679092 0.21062443
0001b0 35 e5 58 be 66 5b 7a 3e ae 36 8f be d7 58 7f be
       -0.21181186 0.24448928 -0.27971405 -0.24936233
0001c0 10 30 87 3c c8 fc 4b 3d 11 57 dd be 1e 72 16 bc
       0.01650241 0.049801618 -0.4323049 -0.009182481
0001d0 51 af 05 be d8 6d 84 be ff 06 9e be 83 ff 49 bb
       -0.13055159 -0.25865054 -0.30864713 -0.0030822463
0001e0 59 44 8d 3e b2 6b 95 be f0 8e 57 3e cc e8 87 3c
       0.27591208 -0.29183728 0.2105062 0.016590498
0001f0 39 71 bd 3d 1a cb b7 bc 10 05 04 3e 9e 5a a0 3e
       0.09250111 -0.022435714 0.12892556 0.31319135

bn1_state.running_mean f4 [128]
000000 00 00 00 00 00 00 00 00 00 00 00 00 00 00 00 00
       0.0 0.0 0.0 0.0
000010 00 00 00 00 00 00 00 00 00 00 00 00 00 00 00 00
       0.0 0.0 0.0 0.0
000020 00 00 00 00 00 00 00 00 00 00 00 00 00 00 00 00
       0.0 0.0 0.0 0.0
000030 00 00 00 00 00 00 00 00 00 00 00 00 00 00 00 00
       0.0 0.0 0.0 0.0
000040 00 00 00 00 00 00 00 00 00 00 00 00 00 00 00 00
       0.0 0.0 0.0 0.0
000050 00 00 00 00 00 00 00 00 00 00 00 00 00 00 00 00
       0.0 0.0 0.0 0.0
000060 00 00 00 00 00 00 00 00 00 00 00 00 00 00 00 00
       0.0 0.0 0.0 0.0
000070 00 00 00 00 00 00 00 00 00 00 00 00 00 00 00 00
       0.0 0.0 0.0 0.0
000080 00 00 00 00 00 00 00 00 00 00 00 00 00 00 00 00
       0.0 0.0 0.0 0.0
000090 00 00 00 00 00 00 00 00 00 00 00 00 00 00 00 00
       0.0 0.0 0.0 0.0
0000a0 00 00 00 00 00 00 00 00 00 00 00 00 00 00 00 00
       0.0 0.0 0.0 0.0
0000b0 00 00 00 00 00 00 00 00 00 00 00 00 00 00 00 00
       0.0 0.0 0.0 0.0
0000c0 00 00 00 00 00 00 00 00 00 00 00 00 00 00 00 00
       0.0 0.0 0.0 0.0
0000d0 00 00 00 00 00 00 00 00 00 00 00 00 00 00 00 00
       0.0 0.0 0.0 0.0
0000e0 00 00 00 00 00 00 00 00 00 00 00 00 00 00 00 00
       0.0 0.0 0.0 0.0
0000f0 00 00 00 00 00 00 00 00 00 00 00 00 00 00 00 00
       0.0 0.0 0.0 0.0
000100 00 00 00 00 00 00 00 00 00 00 00 00 00 00 00 00
       0.0 0.0 0.0 0.0
000110 00 00 00 00 00 00 00 00 00 00 00 00 00 00 00 00
       0.0 0.0 0.0 0.0
000120 00 00 00 00 00 00 00 00 00 00 00 00 00 00 00 00
       0.0 0.0 0.0 0.0
000130 00 00 00 00 00 00 00 00 00 00 00 00 00 00 00 00
       0.0 0.0 0.0 0.0
000140 00 00 00 00 00 00 00 00 00 00 00 00 00 00 00 00
       0.0 0.0 0.0 0.0
000150 00 00 00 00 00 00 00 00 00 00 00 00 00 00 00 00
       0.0 0.0 0.0 0.0
000160 00 00 00 00 00 00 00 00 00 00 00 00 00 00 00 00
       0.0 0.0 0.0 0.0
000170 00 00 00 00 00 00 00 00 00 00 00 00 00 00 00 00
       0.0 0.0 0.0 0.0
000180 00 00 00 00 00 00 00 00 00 00 00 00 00 00 00 00
       0.0 0.0 0.0 0.0
000190 00 00 00 00 00 00 00 00 00 00 00 00 00 00 00 00
       0.0 0.0 0.0 0.0
0001a0 00 00 00 00 00 00 00 00 00 00 00 00 00 00 00 00
       0.0 0.0 0.0 0.0
0001b0 00 00 00 00 00 00 00 00 00 00 00 00 00 00 00 00
       0.0 0.0 0.0 0.0
0001c0 00 00 00 00 00 00 00 00 00 00 00 00 00 00 00 00
       0.0 0.0 0.0 0.0
0001d0 00 00 00 00 00 00 00 00 00 00 00 00 00 00 00 00
       0.0 0.0 0.0 0.0
0001e0 00 00 00 00 00 00 00 00 00 00 00 00 00 00 00 00
       0.0 0.0 0.0 0.0
0001f0 00 00 00 00 00 00 00 00 00 00 00 00 00 00 00 00
       0.0 0.0 0.0 0.0

bn1_state.running_var f4 [128]
000000 00 00 80 3f 00 00 80 3f 00 00 80 3f 00 00 80 3f
       1.0 1.0 1.0 1.0
000010 00 00 80 3f 00 00 80 3f 00 00 80 3f 00 00 80 3f
       1.0 1.0 1.0 1.0
000020 00 00 80 3f 00 00 80 3f 00 00 80 3f 00 00 80 3f
       1.0 1.0 1.0 1.0
000030 00 00 80 3f 00 00 80 3f 00 00 80 3f 00 00 80 3f
       1.0 1.0 1.0 1.0
000040 00 00 80 3f 00 00 80 3f 00 00 80 3f 00 00 80 3f
       1.0 1.0 1.0 1.0
000050 00 00 80 3f 00 00 80 3f 00 00 80 3f 00 00 80 3f
       1.0 1.0 1.0 1.0
000060 00 00 80 3f 00 00 80 3f 00 00 80 3f 00 00 80 3f
       1.0 1.0 1.0 1.0
000070 00 00 80 3f 00 00 80 3f 00 00 80 3f 00 00 80 3f
       1.0 1.0 1.0 1.0
000080 00 00 80 3f 00 00 80 3f 00 00 80 3f 00 00 80 3f
       1.0 1.0 1.0 1.0
000090 00 00 80 3f 00 00 80 3f 00 00 80 3f 00 00 80 3f
       1.0 1.0 1.0 1.0
0000a0 00 00 80 3f 00 00 80 3f 00 00 80 3f 00 00 80 3f
       1.0 1.0 1.0 1.0
0000b0 00 00 80 3f 00 00 80 3f 00 00 80 3f 00 00 80 3f
       1.0 1.0 1.0 1.0
0000c0 00 00 80 3f 00 00 80 3f 00 00 80 3f 00 00 80 3f
       1.0 1.0 1.0 1.0
0000d0 00 00 80 3f 00 00 80 3f 00 00 80 3f 00 00 80 3f
       1.0 1.0 1.0 1.0
0000e0 00 00 80 3f 00 00 80 3f 00 00 80 3f 00 00 80 3f
       1.0 1.0 1.0 1.0
0000f0 00 00 80 3f 00 00 80 3f 00 00 80 3f 00 00 80 3f
       1.0 1.0 1.0 1.0
000100 00 00 80 3f 00 00 80 3f 00 00 80 3f 00 00 80 3f
       1.0 1.0 1.0 1.0
000110 00 00 80 3f 00 00 80 3f 00 00 80 3f 00 00 80 3f
       1.0 1.0 1.0 1.0
000120 00 00 80 3f 00 00 80 3f 00 00 80 3f 00 00 80 3f
       1.0 1.0 1.0 1.0
000130 00 00 80 3f 00 00 80 3f 00 00 80 3f 00 00 80 3f
       1.0 1.0 1.0 1.0
000140 00 00 80 3f 00 00 80 3f 00 00 80 3f 00 00 80 3f
       1.0 1.0 1.0 1.0
000150 00 00 80 3f 00 00 80 3f 00 00 80 3f 00 00 80 3f
       1.0 1.0 1.0 1.0
000160 00 00 80 3f 00 00 80 3f 00 00 80 3f 00 00 80 3f
       1.0 1.0 1.0 1.0
000170 00 00 80 3f 00 00 80 3f 00 00 80 3f 00 00 80 3f
       1.0 1.0 1.0 1.0
000180 00 00 80 3f 00 00 80 3f 00 00 80 3f 00 00 80 3f
       1.0 1.0 1.0 1.0
000190 00 00 80 3f 00 00 80 3f 00 00 80 3f 00 00 80 3f
       1.0 1.0 1.0 1.0
0001a0 00 00 80 3f 00 00 80 3f 00 00 80 3f 00 00 80 3f
       1.0 1.0 1.0 1.0
0001b0 00 00 80 3f 00 00 80 3f 00 00 80 3f 00 00 80 3f
       1.0 1.0 1.0 1.0
0001c0 00 00 80 3f 00 00 80 3f 00 00 80 3f 00 00 80 3f
       1.0 1.0 1.0 1.0
0001d0 00 00 80 3f 00 00 80 3f 00 00 80 3f 00 00 80 3f
       1.0 1.0 1.0 1.0
0001e0 00 00 80 3f 00 00 80 3f 00 00 80 3f 00 00 80 3f
       1.0 1.0 1.0 1.0
0001f0 00 00 80 3f 00 00 80 3f 00 00 80 3f 00 00 80 3f
       1.0 1.0 1.0 1.0

fc1_action.weight f4 [32, 1]
000000 7e b0 5a be 6e 39 a4 bd 11 c9 9f bb b4 f5 ef 3d
       -0.21356389 -0.08018766 -0.004876264 0.11716786
000010 df 95 e6 3d cb 08 e9 3d 00 d0 4f 3e 74 f2 e9 bb
       0.112590544 0.1137863 0.2029419 -0.0071394984
000020 bf 64 bc bc 70 9b 00 3e bc cb c4 be 52 66 4b bd
       -0.022997258 0.12559295 -0.38436687 -0.049658127
000030 82 62 36 bd ac 75 30 3e 12 d9 13 be 49 d9 af bd
       -0.044527538 0.17232388 -0.14438275 -0.08586366
000040 a3 b5 1e bd f9 9a 1a 3e 04 60 c1 3e bb bb 88 be
       -0.03874744 0.1509818 0.37768567 -0.26705727
000050 c4 4a 12 bd 70 41 59 bd 1f 3c 1b 3e 13 12 0f be
       -0.035715833 -0.05304092 0.15159653 -0.13971739
000060 16 6c a9 3c 71 79 e7 be 1b f9 fa bc e0 da 3d 3d
       0.020681422 -0.4520984 -0.03063636 0.046351314
000070 e3 72 3d 3e 10 bd d4 3e 86 3f db be 51 e5 80 3d
       0.18500857 0.41550493 -0.42821902 0.06293739

fc1_action.bias f4 [32]
000000 fa f4 c0 3e 67 b1 2d be c3 66 1f be 96 1a 62 3e
       0.37686902 -0.16962205 -0.15566544 0.22080454
000010 49 75 2f be 82 95 5e 3e b2 3b 87 3e 4d 83 a7 3e
       -0.17134584 0.2173672 0.2641273 0.32717362
000020 ae f8 70 bd 01 3f 4a 3e d1 dd ca 3d fb 3d c8 3e
       -0.05883091 0.19750597 0.09905589 0.39109787
000030 67 fa 89 3e f6 82 bc 3d a9 fb a6 3e 3f 36 aa 3e
       0.26948854 0.09204666 0.32613876 0.3324451
000040 7f 40 96 3e b9 43 78 3e e2 8e 84 be 67 17 65 3e
       0.29346082 0.24244584 -0.2589026 0.22372209
000050 0c bf aa 3e 5a 44 78 3e 6c ba 84 3e f5 70 8a 3e
       0.33348882 0.24244824 0.2592348 0.27039304
000060 44 49 69 3e 7d da 83 bd d7 1a c1 3e d1 98 21 be
       0.22781855 -0.06438158 0.3771579 -0.15780951
000070 57 5b a2 3e 2d fa 3d bc 6d 2a 0c be da 3a af 3e
       0.31710312 -0.011595291 -0.13688059 0.34224588

bn1_action.weight f4 [32]
000000 c7 40 98 3f 00 00 80 3f 00 00 80 3f 47 59 99 3f
       1.1894768 1.0 1.0 1.198037
000010 00 00 80 3f f5 0b 94 3f 1a 83 96 3f f1 9e 9a 3f
       1.0 1.1566149 1.1758759 1.2079755
000020 00 00 80 3f 56 51 91 3f 19 ca 9e 3f 29 9a 99 3f
       1.0 1.1352947 1.2405425 1.2000171
000030 52 da 97 3f b2 f4 89 3f d6 81 98 3f 9e d6 9a 3f
       1.1863501 1.07778 1.1914623 1.2096746
000040 25 6c 9a 3f 5f 03 95 3f 1e 0c d2 3f d9 d4 93 3f
       1.2064253 1.1641654 1.6409948 1.1549331
000050 5f d2 98 3f 18 2c 8f 3f ce 5e 9a 3f c6 47 97 3f
       1.19392 1.1185331 1.2060182 1.1818779
000060 4a c7 98 3f 25 bd ac 3f b5 66 98 3f 00 00 80 3f
       1.1935818 1.3495222 1.1906344 1.0
000070 b8 9b 9b 3f fb dc a5 3f 09 8b b5 3f fd 7a 9b 3f
       1.2156897 1.2958063 1.4183055 1.2146908

bn1_action.bias f4 [32]
000000 12 18 62 3e 00 00 00 00 00 00 00 00 b7 47 60 3e
       0.22079495 0.0 0.0 0.21902357
000010 00 00 00 00 f5 24 60 3e 11 70 51 3e 7f 57 6c 3e
       0.0 0.21889098 0.20452906 0.23080252
000020 00 00 00 00 b0 13 71 3e a4 11 4c 3e b4 01 64 3e
       0.0 0.23542666 0.19928604 0.22266275
000030 9e 17 5f 3e 98 4f 37 3e 6e 43 76 3e 86 9e 71 3e
       0.21786353 0.17901456 0.2404916 0.23595628
000040 ff fe 71 3e 21 6d 7e 3e 48 0a b0 bd ed 23 4e 3e
       0.2363243 0.24846317 -0.08595711 0.20130892
000050 bc 57 62 3e a8 ea 42 3e 29 32 54 3e 6a 4a 68 3e
       0.2210378 0.19034827 0.2072226 0.22684637
000060 0e c7 79 3e 7b 41 83 3d 53 b7 5b 3e 00 00 00 00
       0.2439234 0.06408974 0.21456651 0.0
000070 67 21 4b 3e 4c db 05 3d c2 81 82 bd 42 d8 68 3e
       0.1983696 0.03267984 -0.063724056 0.22738746

bn1_action.running_mean f4 [32]
000000 00 00 00 00 00 00 00 00 00 00 00 00 00 00 00 00
       0.0 0.0 0.0 0.0
000010 00 00 00 00 00 00 00 00 00 00 00 00 00 00 00 00
       0.0 0.0 0.0 0.0
000020 00 00 00 00 00 00 00 00 00 00 00 00 00 00 00 00
       0.0 0.0 0.0 0.0
000030 00 00 00 00 00 00 00 00 00 00 00 00 00 00 00 00
       0.0 0.0 0.0 0.0
000040 00 00 00 00 00 00 00 00 00 00 00 00 00 00 00 00
       0.0 0.0 0.0 0.0
000050 00 00 00 00 00 00 00 00 00 00 00 00 00 00 00 00
       0.0 0.0 0.0 0.0
000060 00 00 00 00 00 00 00 00 00 00 00 00 00 00 00 00
       0.0 0.0 0.0 0.0
000070 00 00 00 00 00 00 00 00 00 00 00 00 00 00 00 00
       0.0 0.0 0.0 0.0

bn1_action.running_var f4 [32]
000000 00 00 80 3f 00 00 80 3f 00 00 80 3f 00 00 80 3f
       1.0 1.0 1.0 1.0
000010 00 00 80 3f 00 00 80 3f 00 00 80 3f 00 00 80 3f
       1.0 1.0 1.0 1.0
000020 00 00 80 3f 00 00 80 3f 00 00 80 3f 00 00 80 3f
       1.0 1.0 1.0 1.0
000030 00 00 80 3f 00 00 80 3f 00 00 80 3f 00 00 80 3f
       1.0 1.0 1.0 1.0
000040 00 00 80 3f 00 00 80 3f 00 00 80 3f 00 00 80 3f
       1.0 1.0 1.0 1.0
000050 00 00 80 3f 00 00 80 3f 00 00 80 3f 00 00 80 3f
       1.0 1.0 1.0 1.0
000060 00 00 80 3f 00 00 80 3f 00 00 80 3f 00 00 80 3f
       1.0 1.0 1.0 1.0
000070 00 00 80 3f 00 00 80 3f 00 00 80 3f 00 00 80 3f
       1.0 1.0 1.0 1.0

fc2.weight f4 [200, 160]
000000 99 55 87 bc b2 35 a2 ba 2d 22 2e 3e 70 9a f5 3d
       -0.016520308 -0.0012375622 0.17005225 0.11992347
000010 85 ca 8c 3e b4 21 ab 3d ad 02 86 3e da 16 28 3d
       0.2749826 0.08356038 0.26173916 0.041037418
000020 43 5f 6f bd a3 16 2e 3d 43 d1 35 3c e2 00 8a 3d
       -0.058440458 0.042502057 0.011097255 0.0673845
000030 8b 89 61 3d 0a c3 d4 be 8d 47 0a bd 43 04 08 3e
       0.05506281 -0.41555053 -0.033759642 0.13282876
000040 a9 e6 ee bc a3 1f a7 3d 0a a6 3a 3d c0 c2 5e 3e
       -0.029162722 0.08160331 0.045568503 0.21753979
000050 97 a3 a0 bd 48 c9 60 3e 27 74 a6 3c d9 e5 8c 3d
       -0.07843702 0.21951783 0.020319058 0.068797775
000060 b6 4f f3 3d d5 14 c8 3d 31 a5 47 bd b8 27 bb bd
       0.11880438 0.097695984 -0.048741523 -0.09138435
000070 24 82 14 be 25 12 ad 3d c3 6d cb bb 92 b6 81 be
       -0.1450277 0.084507264 -0.006208153 -0.25334603
000080 a3 8c 93 be 51 70 e9 3d 7c 13 a2 3e 82 24 de 3e
       -0.28818235 0.11398376 0.3165549 0.43387228
000090 1c 17 ad 3c 7e 35 ac bd 00 32 23 be e7 b7 db bc
       0.021129183 -0.0840864 -0.15937042 -0.02682109
0000a0 bb 50 cf be 9c b5 b5 bd 9c 8b 2e be f8 fc b9 3e
       -0.4049128 -0.0887253 -0.17045444 0.36325812
0000b0 7a f5 20 3e 23 b9 c0 3d 03 34 aa 3e f8 7f a6 3c
       0.15718642 0.09410312 0.33242807 0.020324692
0000c0 70 0b aa bd e7 65 35 3d ef 4f 8c be fd 3f 97 3d
       -0.08302963 0.044286635 -0.27404734 0.07385252
0000d0 2b 18 49 3d f8 fd 88 3c 89 5f 5d bd 6e 2b 5e 3e
       0.049095314 0.016722664 -0.054046188 0.21696255
0000e0 14 ad 8c 3d 45 f9 06 be b2 ce 82 be d4 bb 1c bb
       0.068689495 -0.13181026 -0.2554832 -0.0023915665
0000f0 2e ef b8 3d 19 7c c1 3d 93 0d 0b 3e be bb a8 be
       0.09029995 0.09447498 0.13579397 -0.32955736
000100 35 6c 6d 3d d0 60 17 3e 8f d9 06 3e e5 f9 b1 3d
       0.057964522 0.14783025 0.1316893 0.08690242
000110 21 00 cc be 19 67 de 3d c6 f0 07 be 84 14 cd 3c
       -0.39843848 0.10859508 -0.13275442 0.025034197
000120 c3 5a fd 3e a6 08 36 be e5 18 85 3e 54 87 67 be
       0.49483308 -0.17776737 0.25995556 -0.22610217
000130 7d aa 7a bd 5e ca 25 3e 59 06 e5 3c 11 a6 73 3c
       -0.061197747 0.16190478 0.027957128 0.014871136
000140 9e 09 85 3e c7 90 4b bd 11 77 ed 3d e8 f3 bd bd
       0.259839 -0.049698617 0.11594976 -0.09275037
000150 e9 fa b1 3e bc 24 3e be 7c 8e e9 3e 3c a3 5c 3d
       0.34761742 -0.185687 0.4561652 0.05386661
000160 fe 65 35 be 10 72 9c 3d b6 5e d1 be 8b 88 ea bd
       -0.17714688 0.07638943 -0.4089257 -0.11451825
000170 04 53 39 bc 5d d8 3a 3d 15 2f 2c ba 63 84 be 3c
       -0.011311296 0.045616496 -0.0006568295 0.023256486
000180 31 80 f6 3b 32 50 8f 3d c6 27 8b 3e 30 0d 9e bd
       0.007522606 0.06997718 0.27178782 -0.07717359
000190 51 c6 5f 3d 95 36 58 be 97 61 81 bd a6 00 39 3d
       0.05463249 -0.21114571 -0.06317442 0.045166634
0001a0 c3 dc e1 bb 8d a2 bd be 38 40 0a 3e 2f c4 3a be
       -0.006892772 -0.3703808 0.1350106 -0.182389
0001b0 bd 77 9b 3b f9 c6 e7 be 05 a0 8e bc 74 c0 f1 3d
       0.0047444985 -0.45268992 -0.017410288 0.11804286
0001c0 a7 96 28 3e 80 54 cc bd 63 ed 74 3d 3c 8e c0 bc
       0.1646372 -0.099770546 0.059796702 -0.023505323
0001d0 6c a0 8b 3e 51 df ac 3d cd a3 9a 3c a7 41 3a 3d
       0.2727083 0.08441032 0.018876934 0.045472767
0001e0 26 1c cd be cf 8a b1 3d 1d 1c 78 be aa 63 f8 be
       -0.40060538 0.08669054 -0.24229474 -0.48513538
0001f0 4f 26 2b be 5a b4 8a 3d df 3d 9c bc 04 e9 2f 3d
       -0.16713832 0.067726806 -0.019072471 0.04294683
000200 84 ff fc bc 2f 31 34 bd 27 1a 90 3d b9 e7 ab bb
       -0.030883558 -0.043992218 0.07036238 -0.0052461294
000210 c8 00 f3 bc 54 6f 27 bd c6 f2 00 bc 1c c5 60 bd
       -0.029663458 -0.040877655 -0.007870382 -0.05487548
000220 0c 5e 79 3d 7d 63 20 bd 5b bb 46 bc 3b fd 98 3c
       0.060880706 -0.03915738 -0.01212963 0.018675437
000230 21 0a 89 3d 65 ab c8 bd 8f c1 c9 3d 08 ac b0 3d
       0.06691385 -0.09798316 0.098513715 0.08626562
000240 3f 1d 19 3c f9 c5 c4 bc 60 b9 8a bd 6d a7 03 3c
       0.009345352 -0.024020182 -0.06773639 0.008035523
000250 1c 28 8f 3d 0d 1c 97 3d 16 98 ac bc 57 0c 13 bc
       0.06990072 0.07378397 -0.021068614 -0.00897511
000260 c6 e3 04 3d dd aa 09 3e 04 82 4b 3d 1c 0b 8e 3b
       0.032443784 0.13444085 0.04968454 0.0043348204
000270 80 07 de bd b7 5c da bc bb ef 95 bc 39 b6 7b bd
       -0.10841274 -0.026655538 -0.018302789 -0.061453078
000280 a0 cf 90 3d cc bf 21 bd a6 b8 6e bd f2 3f 25 be
       0.07070851 -0.039489552 -0.058281563 -0.16137674
000290 83 72 1a 3e c7 4b 09 be b9 b6 44 bd 06 41 eb bd
       0.15082745 -0.13407813 -0.04802582 -0.114870116
0002a0 d5 b4 77 3d a0 de a6 bc 38 ac ad bc a0 5f 69 3d
       0.06047519 -0.020369828 -0.021200284 0.05697596
0002b0 72 84 0a bc 34 27 0b 3e d1 d0 a4 3c 60 03 9f bb
       -0.008454429 0.13589174 0.020119103 -0.0048526973
0002c0 22 12 88 be 96 44 75 be 7b d1 01 bd c4 88 52 be
       -0.26576334 -0.23951945 -0.031693917 -0.20559984
0002d0 ed 26 97 bd c7 a3 9e 3d f0 92 05 be 8a 57 3b be
       -0.073804714 0.07746082 -0.13044333 -0.18295112
0002e0 dc 00 ac 3d 4e 70 88 3c 6b ec 3e 3c 81 a3 25 3e
       0.083986014 0.016655114 0.011653046 0.16175653
0002f0 4a f7 84 bd 2d 69 c3 bd a0 5d 35 3c 2c 03 87 3e
       -0.06492479 -0.09541545 0.011069685 0.26369607
000300 63 64 b2 3d 7c b4 19 bd 5c 2d f4 3d 35 fa 05 bd
       0.087105535 -0.03752564 0.11922714 -0.03270932
000310 1d b1 bf bb b7 fe 51 3d 96 77 82 be 5e 07 91 bd
       -0.005849971 0.051268306 -0.25481862 -0.07081483
000320 55 de 05 bd 02 db 5a bd 41 b7 8c bd cd 60 87 3d
       -0.032682735 -0.05343152 -0.068708904 0.0661026
000330 21 04 10 3d 9e 02 f6 bd bd 6f e4 b9 53 d7 18 be
       0.035160188 -0.12012218 -0.000435708 -0.1492589
000340 5b e6 c2 bd e8 8a 89 bd 7f 67 10 be 71 f6 30 3d
       -0.09516593 -0.067159474 -0.1410198 0.043203775
000350 cd f8 0c be f4 82 0e 3e 47 13 5a 3d 1c dd 83 bd
       -0.13766785 0.13917142 0.05324104 -0.06438658
000360 e0 a1 ef 3c 8e 73 95 bd 33 1a c3 3e 78 ef dd 3d
       0.029251993 -0.07297431 0.38105926 0.10836691
000370 bb cb 1e 3d e7 59 7e be 09 fa 31 be 57 c7 b8 3e
       0.03876851 -0.24838983 -0.17380537 0.36089584
000380 74 a7 3f 3b 43 08 34 3e 65 d0 82 3e 46 1d 18 bd
       0.0029244097 0.17581277 0.25549617 -0.037137292
000390 ac 1b 68 3e 01 bb ae 3e cb cb 7b 3c 4f b8 9d 3e
       0.22666806 0.34127048 0.015368412 0.3080468
0003a0 d8 8c 8f bd 29 07 1b be e5 76 a9 3d 90 19 1d be
       -0.07009286 -0.1513945 0.082746305 -0.15341783
0003b0 f1 2f af be 45 fb 8b bd fa 78 2d 3d 21 e4 f3 bc
       -0.34216264 -0.06835035 0.0423517 -0.029771866
0003c0 e5 ce 76 be 9f ee 28 be 6e 7b 80 3c a6 4e 1c 3d
       -0.24102362 -0.16497277 0.015683856 0.038160942
0003d0 e8 8b 60 bd c2 0d 9c be eb 29 a2 be d8 88 82 bd
       -0.054820925 -0.30479246 -0.31672606 -0.06373757
0003e0 4b e7 3d 3c b5 8a 46 3d 6d 3a 7f 3d 17 30 0e be
       0.011590789 0.048472125 0.06231158 -0.13885532
0003f0 d4 c5 49 3c 2b c0 59 be 0c 5d 95 3d 36 bd 95 3d
       0.012315232 -0.21264713 0.07293138 0.0731148

fc2.bias f4 [200]
000000 98 34 e2 bc de 56 0e be b2 ae 60 3e 6f 18 95 bb
       -0.02761297 -0.13900325 0.21941641 -0.004550032
000010 83 d4 45 3e db 69 2a 3e 61 df 8c 3e ba 50 8b 3e
       0.19319348 0.16641943 0.27514175 0.27210027
000020 b1 f6 92 bd 68 00 f4 3d 7f 9f 10 3e 39 60 4f 3e
       -0.07175959 0.1191414 0.14123343 0.2025155
000030 31 fd 2d 3e 10 56 b1 bd 94 5c b3 bd d9 82 75 3e
       0.16991116 -0.08658993 -0.08757892 0.23975696
000040 d5 57 04 be 94 44 39 be 07 a5 3f 3e b0 2a a2 be
       -0.1292413 -0.18092567 0.18715297 -0.31673193
000050 95 6b fc 3d 7f 83 15 be fb c2 b1 bd 65 f3 9c 3d
       0.12325207 -0.14600943 -0.08679768 0.07663611
000060 70 82 18 3e 84 a8 f3 3c a4 b2 69 3e c8 8c aa bd
       0.14893508 0.02974344 0.22822052 -0.08327633
000070 20 09 dd bc 26 be b9 bd 0f c1 52 be 79 30 4f be
       -0.02698189 -0.09069471 -0.20581459 -0.20233335
000080 d9 ba 66 3e 01 f2 20 3e 36 81 a6 3d 50 41 0b 3e
       0.22532214 0.15717317 0.08130114 0.13599133
000090 54 b8 f3 3d 76 0b 46 3e e1 b8 26 be 3e 11 0d 3e
       0.11900392 0.1934031 -0.16281463 0.13776109
0000a0 9d cd 46 bc 9a 59 d1 bd 7e a5 56 3e cb ec bf bd
       -0.012133983 -0.10222168 0.20961568 -0.093713365
0000b0 6f d1 16 3e d6 db 86 bd d0 ff 0d 3e e4 8d 52 3d
       0.1472833 -0.06584899 0.13867116 0.05140485
0000c0 e7 b8 74 3d 3f de 83 3c 4b 6b 13 3e e9 3a 94 be
       0.05974665 0.016097186 0.14396398 -0.28951195
0000d0 0b 9e 2d 3e 24 a1 4a 3e 8c 89 8e 3e d1 7a 13 3e
       0.1695482 0.19788033 0.27839315 0.1440232
0000e0 80 9e a3 be 92 97 88 3d 5b d0 48 bc 1d fd b8 3d
       -0.31956863 0.06669535 -0.012256707 0.090326525
0000f0 27 02 34 be 15 b0 d9 3d 4b 17 7c 3e 17 e6 92 bc
       -0.17578946 0.10629288 0.2461826 -0.017931981
000100 1f 78 f7 3d d9 f0 ae 3d 9c ac 52 3e db c3 a4 3d
       0.12083458 0.08542032 0.20573658 0.08045169
000110 98 a1 ae 3d 79 e6 e0 bd e8 af 0f 3d 17 4a 80 be
       0.08526915 -0.10981459 0.035079867 -0.25056526
000120 f4 14 32 3e fd 24 f2 3d df c6 70 bd af 06 69 be
       0.17390805 0.11823461 -0.05878341 -0.22756456
000130 d8 60 a9 3d c6 b5 01 bc 22 0b 8a 3e 8e 27 7c be
       0.082704246 -0.007916873 0.2696162 -0.24624464
000140 2d 72 8b 3e d5 45 94 3b e9 17 d6 3d c2 26 88 3e
       0.27235547 0.004524926 0.10453779 0.2659207
000150 a1 d1 27 3e 1d 63 97 3c 8e f0 97 3d 38 7f 47 be
       0.16388561 0.018479878 0.07418929 -0.19482124
000160 9b 07 78 3d 09 ce c9 3d 78 7d 7b bd 57 e5 9b 3d
       0.06055413 0.09853751 -0.061398953 0.076121025
000170 a3 e3 48 3d f2 86 4e 3e e2 53 05 3e 76 65 57 3e
       0.049045216 0.20168665 0.1302028 0.21034798
000180 11 a3 88 be f0 b3 2a be 87 80 9d bd e9 c2 85 b9
       -0.2668691 -0.16670203 -0.0769053 -0.00025512956
000190 fc 3c 31 3e de 82 46 3e ca 3d 9a bc a9 35 6c 3e
       0.1730842 0.1938586 -0.018828291 0.23067345
0001a0 e6 b8 05 3c a6 b4 b0 3d ed 36 62 be 75 9c 86 3d
       0.008161759 0.08628206 -0.22091265 0.065728106
0001b0 06 f6 10 3e 1f a0 51 3e cc c0 66 3e 50 65 e5 3d
       0.1415635 0.20471238 0.22534484 0.112009645
0001c0 c0 c0 7f be e3 7b cb bd 90 14 f4 3d 2f b0 c5 be
       -0.24975872 -0.09935739 0.119179845 -0.3861098
0001d0 e2 ff 8b 3d fd 6b 5e 3e 08 36 17 3e 32 2e 3d 3e
       0.06835915 0.21720882 0.14766705 0.18474653
0001e0 14 d1 05 3e 31 4a 3c 3e c6 13 1d 3e 4c 93 6f be
       0.13068038 0.18387677 0.15339574 -0.23396033
0001f0 02 7d d0 3d 07 db be 3d 1e dc f8 bd 7c 29 bc bc
       0.10180093 0.0931912 -0.12151359 -0.022969
000200 4b b5 50 3e 06 b4 15 3e dc fa 0e bd 8b 9d a1 3d
       0.20381658 0.14619455 -0.034907207 0.07891377
000210 ba a7 a3 be c2 b3 33 3e 6d 02 38 bc 41 2f 6b be
       -0.31963903 0.17549041 -0.011231047 -0.22967245
000220 4d 93 46 be 55 5f 92 3d e2 bc 36 3e de 55 86 be
       -0.19392128 0.071470894 0.1784549 -0.26237386
000230 3a 0a fc 3d 99 14 3c be 5f 7c 70 3e 6a 94 ca 3d
       0.12306638 -0.18367232 0.23484944 0.09891589
000240 d4 9f 0f 3e 70 a1 12 3e 58 59 6c 3e 3b 6c 0f 3e
       0.14025813 0.14319396 0.23080957 0.1400613
000250 01 41 36 be d1 80 94 bd d4 29 94 3e 47 47 99 3e
       -0.17798235 -0.07251132 0.28938162 0.29937193
000260 0c 09 22 bc 64 4b 75 3e 68 1e 48 be e1 86 a9 3d
       -0.009889852 0.2395454 -0.19542849 0.08277679
000270 b2 f6 3b 3d 70 1c 58 bd bc c5 a4 3d 2d 79 8b 3e
       0.045889564 -0.052761495 0.08045527 0.27240887
000280 79 c0 ac 3d 7a 2c a6 3d 35 94 06 3e 4c af 5f 3e
       0.08435149 0.08113952 0.13142474 0.21844214
000290 9d db 79 3e af 4c 10 3e 2f 87 30 3e a8 8a 06 bd
       0.24400182 0.14091752 0.17239068 -0.032847077
0002a0 50 f2 c4 3c 5f f7 23 be 7e e8 34 be db 48 c6 bd
       0.024041325 -0.16012333 -0.17666814 -0.09681865
0002b0 45 1c 42 3e da 88 19 3e 93 2f 3b 3e e0 b2 1c be
       0.18956096 0.14993611 0.18279867 -0.1530261
0002c0 3e b9 73 be 67 12 32 3e 26 97 da 3d 8e 03 49 3e
       -0.23801133 0.17389832 0.106733605 0.19630262
0002d0 3d 11 1d 3e 18 1e 17 3c c7 4b 11 3e d1 01 3a 3e
       0.15338607 0.0092234835 0.14189063 0.18164755
0002e0 ea 9c 5d 3e 16 de 3c be f4 da 4a 3c 7f fc b0 3e
       0.21641889 -0.18444094 0.012381304 0.3456764
0002f0 31 51 9c 3e 72 18 81 bb c9 1d 81 3d 6a ed 48 3e
       0.30530694 -0.0039396817 0.06304509 0.19621816
000300 bb 52 9d 3e d6 a6 17 3e ad a6 93 3e 3a b0 c5 3d
       0.3072718 0.14809737 0.288381 0.09652753
000310 4c 2a 31 3e 47 79 0c 3e 7e 2f 04 b9 8d 88 55 be
       0.17301291 0.13718139 -0.00012606193 -0.20852871

bn2.weight f4 [200]
000000 28 be 8e 3f 44 66 57 3f 44 51 7d 3f 06 04 98 3f
       1.1151781 0.8414042 0.98952127 1.1876228
000010 42 2a 72 3f ac b7 72 3f 2f 9d 80 3f 29 f2 6f 3f
       0.9459573 0.9481151 1.0047969 0.9372888
000020 30 84 a0 3f a5 ff aa 3f a3 b9 74 3f 2e 61 ab 3f
       1.254034 1.3359267 0.9559576 1.3389032
000030 9f e4 91 3f 56 fa 88 3f 56 1e af 3f 23 db a7 3f
       1.1397895 1.0701396 1.3681133 1.311375
000040 d3 ee ae 3f 21 ac a7 3f 15 a9 92 3f 81 99 b8 3f
       1.3666633 1.3099405 1.145785 1.4421846
000050 e5 66 76 3f 43 33 82 3f 5e 23 b1 3f a7 61 cf 3f
       0.96250755 1.0171894 1.3838918 1.6201676
000060 c2 1b 98 3f b3 75 a1 3f d7 9c 8c 3f 83 e1 8a 3f
       1.1883471 1.2614044 1.0985364 1.0850071
000070 b3 fe 8d 3f 09 32 9a 3f 4b 79 9b 3f 87 c0 b5 3f
       1.1093353 1.204652 1.2146391 1.419938
000080 f4 86 84 3f 30 78 95 3f 6b 0f b0 3f 32 51 04 40
       1.0353684 1.1677303 1.3754705 2.0674558
000090 d0 fd 9b 3f 58 c0 9e 3f 7a d7 93 3f fd 60 91 3f
       1.2186832 1.2402449 1.1550133 1.1357723
0000a0 f3 94 54 3f 01 8b 85 3f 36 d8 64 3f 90 b8 a1 3f
       0.8303978 1.0433046 0.8939241 1.2634449
0000b0 35 4d 5d 3f 70 0a b0 3f e1 90 9d 3f 63 52 9a 3f
       0.86445934 1.3753185 1.2309839 1.2056392
0000c0 97 67 8d 3f 9b c8 8a 3f 74 87 8f 3f 7c 46 9d 3f
       1.1047238 1.084247 1.1213212 1.2287135
0000d0 13 1f b3 3f c3 0d 7e 3f 08 5f 87 3f d4 55 8d 3f
       1.3993858 0.9923975 1.0575876 1.1041818
0000e0 d2 1d b1 3f 47 ce 9b 3f ec d7 b4 3f 49 b9 87 3f
       1.3837225 1.2172326 1.4128394 1.060342
0000f0 cd 26 9b 3f ad ae b6 3f 34 b1 78 3f 00 ce ac 3f
       1.2121216 1.4272057 0.9714539 1.3500366
000100 db 79 89 3f 8d 10 b1 3f 06 22 9f 3f 58 66 c4 3f
       1.0740312 1.3833176 1.2432258 1.5343733
000110 3e 79 be 3f e9 55 a0 3f 0d bc cf 3f 79 55 a7 3f
       1.488075 1.2526218 1.6229264 1.3072959
000120 8c 98 98 3f 9e 86 9b 3f 14 61 a8 3f 0e 66 92 3f
       1.1921554 1.2150457 1.3154626 1.1437395
000130 e0 7a a8 3f 9d cb ad 3f c3 d7 74 3f 1e f5 99 3f
       1.3162498 1.3577763 0.95641726 1.2027929
000140 8a a5 67 3f 58 d7 73 3f 9c 26 a6 3f 84 6f 8f 3f
       0.9048697 0.95250463 1.2980533 1.1205907
000150 f9 12 5f 3f 13 8e b1 3f 1a 14 5c 3f ea 48 ab 3f
       0.87138325 1.3871483 0.8596817 1.3381627
000160 30 03 a0 3f cd e6 c3 3f d3 91 a1 3f 66 eb 89 3f
       1.2500973 1.530481 1.2622627 1.0774963
000170 3f 42 93 3f 3d 0e 78 3f 20 e4 76 3f d5 48 93 3f
       1.1504592 0.96896726 0.9644184 1.1506602
000180 84 62 bf 3f 1c ac ac 3f 96 70 99 3f e7 ad bc 3f
       1.495194 1.3490024 1.1987484 1.4740571
000190 9c 3d 87 3f 26 12 87 3f 94 22 9b 3f 74 50 a3 3f
       1.0565677 1.0552413 1.2119927 1.2758927
0001a0 bc d4 b8 3f 39 38 62 3f de a8 9a 3f 35 2e 96 3f
       1.4439921 0.8836704 1.2082784 1.1732851
0001b0 eb d6 a5 3f a1 2b 88 3f 65 2f 6d 3f 94 b7 9a 3f
       1.2956213 1.0638314 0.92650443 1.2087274
0001c0 b7 f0 90 3f cf cd 7f 3f 37 8f b3 3f d9 f8 a8 3f
       1.132346 0.99923414 1.4028081 1.3200942
0001d0 dc 79 71 3f a7 12 79 3f fa b6 7e 3f 45 9b 89 3f
       0.9432657 0.97294086 0.9949795 1.075051
0001e0 4d af 8b 3f 22 a2 98 3f 7b 33 84 3f 75 2b 90 3f
       1.0912873 1.1924479 1.032821 1.1263262
0001f0 72 4f 97 3f c3 8a 94 3f 69 7c 8a 3f f4 70 a0 3f
       1.182112 1.1604847 1.0819217 1.253447
000200 47 cd a6 3f 34 23 94 3f 5b 5f ac 3f 89 98 a1 3f
       1.3031396 1.1573243 1.34666 1.2624675
000210 2b 09 a6 3f 64 f4 87 3f b4 87 b4 3f a8 60 88 3f
       1.2971548 1.0621457 1.4103913 1.0654497
000220 af 54 97 3f e1 a8 7f 3f 8e 53 bb 3f 2f 4d 8a 3f
       1.1822718 0.99867064 1.4634874 1.0804805
000230 70 b6 7e 3f 19 c8 9a 3f 77 02 41 3f 1d a5 5e 3f
       0.9949713 1.2092315 0.75394386 0.8697069
000240 1f 2e 9f 3f 95 91 89 3f c5 6b 5b 3f 32 f8 ae 3f
       1.243595 1.0747553 0.8571132 1.3669493
000250 66 e3 91 3f ad e8 9e 3f 4d 3b 81 3f 3a af 6b 3f
       1.1397521 1.2414757 1.0096222 0.9206425
000260 62 91 46 3f 61 5e b0 3f 36 9e a0 3f 0d 65 87 3f
       0.77565587 1.3778802 1.2548282 1.0577713
000270 09 8f e0 3f d8 dd 98 3f e6 3c a2 3f 5a 69 81 3f
       1.7543651 1.1942701 1.2674835 1.0110276
000280 df 55 6e 3f 4f e0 8f 3f 71 a9 0d 40 86 5b 79 3f
       0.9309978 1.1240329 2.213467 0.9740528
000290 ef 00 71 3f a7 fb a6 3f 22 42 a1 3f e2 97 aa 3f
       0.9414205 1.3045548 1.2598307 1.3327601
0002a0 1c fd bd 3f 62 a9 bd 3f 3c 45 97 3f 91 b2 90 3f
       1.4842868 1.4817317 1.1818004 1.1304494
0002b0 64 3f 94 3f 00 95 c4 3f ff d6 cc 3f b8 2f b1 3f
       1.1581845 1.5357971 1.6003112 1.3842688
0002c0 21 60 9f 3f 73 7f 99 3f 6e 92 a9 3f 36 31 24 40
       1.2451211 1.199202 1.3247812 2.5655036
0002d0 3c 16 ca 3f d8 f4 78 3f d8 b9 90 3f 69 1d 6c 3f
       1.5788035 0.972486 1.1306715 0.92232376
0002e0 88 2b 45 3f 3a 98 83 3f 03 b0 80 3f c4 4f 8a 3f
       0.7701955 1.0280831 1.0053715 1.0805593
0002f0 ba 88 77 3f 05 c6 67 3f ba cd ce 3f 32 4c 8a 3f
       0.96693003 0.9053653 1.6156533 1.0804503
000300 54 c2 81 3f 3c 83 96 3f cd ab 6a 3f 42 dd b6 3f
       1.0137429 1.17588 0.916684 1.4286273
000310 e8 31 98 3f bc b9 b5 3f 8d df b4 3f 9f c8 9f 3f
       1.189023 1.4197307 1.4130722 1.24831

bn2.bias f4 [200]
000000 4f 6a 22 ba 98 fc fa bd 58 6f 7f 3e 89 6d 33 bd
       -0.0006195651 -0.1225521 0.24944818 -0.043805633
000010 85 5e 4d 3e 93 e3 62 3e 5e 3a 83 3e 64 e8 78 3e
       0.20055588 0.22157125 0.25630468 0.243074
000020 ee 7a 9a bd 76 57 29 3e ca 69 36 3e 88 14 0b 3e
       -0.07542978 0.1653727 0.17813793 0.13582051
000030 3c 04 0e 3e 12 23 77 bd 9d 4a 8d bd 45 17 3e 3e
       0.13868803 -0.06033618 -0.06898997 0.18563564
000040 1a 09 f6 bd 67 f5 3b be a3 7b 2f 3e eb 9f 7a be
       -0.12013455 -0.18355332 0.17137007 -0.24475066
000050 1f d3 6d 3d ae 01 da bd 30 ba 45 bd ad 93 a3 3d
       0.05806267 -0.106448516 -0.048273265 0.07987151
000060 22 b9 29 3e 3c f7 04 bd a8 45 68 3e fe 91 86 bd
       0.16574529 -0.032462344 0.22682822 -0.065708145
000070 8e 57 9d 3c 5d 28 0c bd 50 00 62 be 10 52 45 be
       0.019206788 -0.03421818 -0.22070432 -0.19269586
000080 18 2e 3b 3e cd 65 15 3e a6 39 17 3e ee 45 c4 3d
       0.18279302 0.14589615 0.14768085 0.095836505
000090 f6 ab 32 3e 43 44 26 3e eb f9 21 be e8 a7 0f 3e
       0.1744841 0.16236977 -0.15817992 0.14028895
0000a0 6b ee 9e bd c6 ab 12 be 44 bf 6b 3e 5d d1 0a bd
       -0.07760318 -0.14323339 0.23022181 -0.03389107
0000b0 60 6f 5b 3e d1 7b fa bc c3 dd e5 3d 1d 85 db 3d
       0.21429205 -0.030576618 0.11223938 0.10718749
0000c0 f8 5a cb 3d ca b0 bd bc 33 a5 1c 3e 6a b6 7e be
       0.0992946 -0.023155589 0.15297394 -0.24874273
0000d0 7d 8e 17 3e 26 05 24 3e 4d 09 5e 3e f4 d0 54 3e
       0.14800449 0.16017589 0.21683235 0.20782834
0000e0 a4 b4 89 be 30 f6 0f 3c bd 8a 66 bd dc e2 e3 3c
       -0.2689563 0.008786723 -0.056284655 0.027818136
0000f0 3c 57 22 be 37 26 55 3d 25 03 51 3e ad 38 da 3c
       -0.1585359 0.052038398 0.20411356 0.026638353
000100 46 7d ca 3d b7 99 0b 3e 76 37 27 3e 12 a7 fc 3d
       0.09887175 0.13632856 0.1632975 0.12336554
000110 6c d0 c0 3d 43 ec 06 be 20 d3 3b 3d be ac 74 be
       0.09414753 -0.13176064 0.04585564 -0.23894021
000120 92 4c 01 3e b7 b9 41 3e 1a 7f 56 3c 92 35 39 be
       0.12626866 0.18918501 0.013091827 -0.18086842
000130 34 e8 6c 3d ea 07 b5 3c 05 2f 7a 3e 53 ae 88 be
       0.057838634 0.0220985 0.24431999 -0.266955
000140 6d 44 5e 3e 67 e7 9e 3c 9c 90 33 3e 5f a3 51 3e
       0.2170579 0.01939745 0.17535633 0.20472477
000150 33 b5 1b 3e 65 ec ab 3d be c9 8c 3d d4 96 20 be
       0.15205841 0.08394698 0.06874417 -0.15682536
000160 c4 e6 35 3d 10 86 cd 3d 2c 9d 8a bd 31 72 f1 3d
       0.04440953 0.10035336 -0.067682594 0.117893584
000170 87 27 76 3d 39 15 1e 3e 76 b6 0a 3e 98 6e 27 3e
       0.06009629 0.15437783 0.13546166 0.16350782
000180 59 ea 4a be 87 a6 d5 bd 83 b3 0b be 01 3a 86 3d
       -0.19815959 -0.10432153 -0.13642697 0.06554032
000190 f6 58 04 3e 0c b8 1a 3e 03 03 01 3c f4 0e 8b 3e
       0.12924561 0.15109271 0.007874253 0.27159846
0001a0 b1 9a 5f 3d e0 ef 1f 3e 5e 04 35 be f5 72 f7 3d
       0.054590885 0.15618849 -0.17677447 0.12082473
0001b0 32 13 a3 3d d2 b0 30 3e 7e 57 6b 3e 89 bd 9a 3d
       0.079626456 0.17254952 0.22982594 0.07555682
0001c0 08 7d 44 be 76 67 23 be 71 06 a7 3d 06 28 a3 be
       -0.1918832 -0.15957436 0.081555255 -0.31866473
0001d0 fd 08 e9 3d 6d df 85 3e 00 b4 e2 3d b0 f9 2d 3e
       0.113786675 0.26147023 0.110694885 0.1698978
0001e0 d5 99 cf 3d 02 f9 78 3e fc cf 0f 3e af 6a 5b be
       0.10136763 0.24313739 0.14044183 -0.21427415
0001f0 e0 e2 36 3d 10 03 00 3e b9 0f f0 bd fc 28 0d bd
       0.04464996 0.12501168 -0.11721749 -0.034462914
000200 37 30 0e 3e 23 50 56 3e f6 ce 76 3b 6b 4e 1e 3d
       0.1388558 0.20929007 0.003765998 0.038649004
000210 33 4b 85 be d0 8d f6 3d d3 14 67 3a 54 cb 80 be
       -0.26033935 0.12038767 0.0008815054 -0.25155127
000220 ff b5 30 be cc 3d 01 3e c9 0e 44 3e 04 55 62 be
       -0.17256926 0.1262123 0.19146265 -0.22102743
000230 7b e1 fa 3d 05 57 0b be 86 d4 36 3e 63 09 2e 3e
       0.12250038 -0.13607414 0.17854509 0.16995768
000240 30 1a 3a 3e fd 10 b6 3d 8a ad 2e 3e da 62 1b 3e
       0.18174052 0.08889959 0.17058387 0.15174428
000250 b5 23 21 be 64 d1 8d bd de a0 7a 3e 3e c9 7c 3e
       -0.15736277 -0.06924704 0.24475428 0.24686143
000260 b2 f1 76 3d 41 8e 37 3e 1c 29 72 be 45 fc 0d 3e
       0.060289092 0.1792536 -0.23648494 0.13865764
000270 41 7f 0e 3c 4f 22 ae bd 5f 9f 15 3e e9 83 80 3e
       0.008697332 -0.085026376 0.14611576 0.2510064
000280 4b 92 e4 3d 9a 2e de 3d f4 e0 aa 3d af 84 75 3e
       0.11160716 0.10848732 0.08343688 0.23976396
000290 f1 94 69 3e 95 dd 0c 3e be 72 1c 3e d0 a3 e7 ba
       0.22810723 0.13756402 0.15278146 -0.0017672721
0002a0 d9 00 8f bc b0 f4 5a be b2 8c 79 be f6 06 9f bd
       -0.017456459 -0.21382403 -0.24370077 -0.077649996
0002b0 b0 1c 34 3e fa ac 17 3e 1f fa 11 3e 38 0a 41 be
       0.17589068 0.14812079 0.1425557 -0.18851554
0002c0 90 56 3f be af b2 f3 3d 68 63 6d 3d a5 27 0f 3e
       -0.18685365 0.118993156 0.05795613 0.13979967
0002d0 19 05 dd 3d 03 74 d0 bc 7b 8a f0 3d 3e ec 5e 3e
       0.10791988 -0.025445944 0.11745163 0.21769807
0002e0 13 10 4d 3e dd b0 3a be 08 51 69 3d 5e 0c 91 3e
       0.20025663 -0.1823153 0.056962043 0.28329748
0002f0 50 3a 7a 3e 20 40 32 bc 0b 3d 86 3d 84 09 11 3e
       0.24436307 -0.010879546 0.06554612 0.14163786
000300 bd 80 7a 3e 73 b9 f2 3d 55 c9 70 3e d8 58 14 3e
       0.24463172 0.11851778 0.23514302 0.14487016
000310 41 b0 18 3e 77 a7 30 3e a1 c3 92 3d 27 aa 23 be
       0.14910986 0.17251383 0.071662195 -0.15982877
