myrobot/src/not_using/DDPG/save_DDPG_models/1117_2/DDPG_Actor_EP510.pt (torch, 63739 bytes, 19 tensors)

fc1.weight f4 [128, 4]
000000 28 de 1a 3f b4 b0 8c 3e 64 40 78 3e 16 cf 86 3c
       0.60495234 0.27478564 0.24243313 0.016456168
000010 ad 57 3a be fe 1f ea bd 4e af 62 be 7e dd 4f bd
       -0.18197508 -0.11431883 -0.22137186 -0.05074834
000020 a9 49 94 3e f7 ea e1 3d e1 30 8a 3c 41 e0 0a be
       0.28962448 0.11031144 0.01686901 -0.13562109
000030 b1 6d cd be 7b d4 11 3c 98 67 08 3e c4 c3 be 3c
       -0.4012275 0.008900757 0.13320768 0.023286708
000040 51 34 0a 3f 51 94 20 3d cb 95 97 bc db 5b 8d bc
       0.5398608 0.039203946 -0.018504044 -0.017255714
000050 a5 b5 29 be 6d cb 73 be 23 e0 44 be cd ef 13 bd
       -0.16573198 -0.2380807 -0.19226126 -0.036117364
000060 6d f8 c3 bd 99 97 3a 3e 37 7f 4b be 63 a0 57 bd
       -0.09568868 0.18221892 -0.19872747 -0.05264319
000070 7d 8c 0a 3f 00 f2 fb 3d 0f 0c 6e be fa 1b f2 3b
       0.5412062 0.12302017 -0.23246787 0.007388589
000080 85 d6 20 be c3 65 e2 3e 76 4f 2c 3e 0e 18 44 bd
       -0.15706833 0.44218263 0.16827187 -0.047874503
000090 25 7f d7 be 7a b4 68 bf de e4 7b be 62 94 11 3b
       -0.4208919 -0.90900385 -0.24599025 0.0022213687
0000a0 15 8e ef 3e 75 cb 02 be 2c b9 a8 be 07 d1 ae 3b
       0.46788087 -0.12772925 -0.32953775 0.0053349766
0000b0 0c c6 97 3e b4 8f 44 bd 90 f1 bb bd e9 8d f3 bd
       0.29643285 -0.04798861 -0.09176934 -0.118923016
0000c0 60 09 0a 3e 11 14 fc 3d 2a d0 98 3d ec f5 3c be
       0.13480139 0.12308515 0.07461579 -0.18453187
0000d0 e2 8e ef be 65 71 e6 3e 5e 80 a2 3e ce 3e 27 bc
       -0.46788698 0.45008388 0.3173856 -0.010207845
0000e0 60 9f d2 be f9 06 31 3e dd fa 82 bd 9c 3a 71 bc
       -0.41137218 0.17287816 -0.063955046 -0.014723446
0000f0 2f 04 0f be d4 55 60 be 13 da 14 3d ee 5c 14 be
       -0.1396644 -0.21907741 0.036340784 -0.14488575
000100 09 16 6f 3d cd ff af bd e4 b1 90 be e3 8f 6d bd
       0.058370624 -0.08593712 -0.2826072 -0.05799855
000110 4a 8a 1a bf 07 55 75 3d c8 5b d2 3d 9a 23 82 3c
       -0.6036726 0.05989554 0.10271412 0.015886117
000120 72 e6 e7 be ee f9 93 bd 40 15 96 3e 7c 00 0b 3d
       -0.45293003 -0.07225405 0.29313087 0.03393601
000130 39 c9 26 be 17 29 ba 3d 14 8d 25 be 99 be 2a be
       -0.16287698 0.090898685 -0.16167098 -0.1667427
000140 e5 bf df 3e c2 15 2d 3d e1 2b ef bd 2e 6b 84 bc
       0.4370109 0.042257078 -0.11678291 -0.016164389
000150 7b 7d c5 be 9a 87 3f bd 7e 7a d5 bc b3 5f 45 bd
       -0.38572297 -0.04676018 -0.026059385 -0.04818697
000160 33 16 c8 3c 1d 6a c7 3d 54 b0 03 bf d0 61 97 3c
       0.024424648 0.097370364 -0.5144093 0.018479258
000170 b7 ea 00 3e 5e 7c f6 bd aa 24 f8 bd bc 9e 68 be
       0.12589537 -0.1203544 -0.12116368 -0.22716802
000180 55 f2 a5 3e 9a 2c e4 3d d9 49 8d 3d b2 f6 12 bd
       0.32411447 0.111413196 0.06898851 -0.0358798
000190 28 50 8c be 7b 2f 61 3c 5a bf 97 bd 29 0f d7 bd
       -0.27404904 0.01374423 -0.07409544 -0.105009384
0001a0 85 4e dd 3f b6 d9 a4 3c 53 b2 f4 bd ec 54 04 3c
       1.7289587 0.020123344 -0.11948075 0.008076888
0001b0 01 fe aa 3e 1a cc 99 bd 20 1d 6c be 7a 6a 2b bd
       0.33396915 -0.075096324 -0.23057985 -0.04184959
0001c0 10 68 d0 bd 04 21 96 be 4b 63 d6 3d 00 aa 03 bd
       -0.10176098 -0.29322064 0.104681574 -0.032144547
0001d0 25 f4 af be b0 ab dc bd 27 3d c6 bd 24 7f f7 3c
       -0.34365955 -0.10774934 -0.09679633 0.030211993
0001e0 e7 9e a5 3e 30 b9 19 3d cf 12 5f 3f b3 cd 85 3c
       0.32347795 0.037530124 0.87138075 0.016333437
0001f0 d6 f0 57 bf 62 28 21 be c2 18 ab 3e 9e 13 d8 3b
       -0.8435186 -0.15738061 0.33417326 0.0065941354
000200 56 ba 0a bf 76 3f bd 3e d5 82 04 3e 89 fe 04 bd
       -0.54190576 0.3696248 0.12940533 -0.032469306
000210 d4 1d 98 3e 9b 81 3e 3d 30 30 11 be d2 27 61 bd
       0.29710257 0.04651032 -0.14178538 -0.054969616
000220 9a 1f 6b 3e 02 9e 87 bd 60 57 8b be 8f e4 ab 3c
       0.22961274 -0.066219345 -0.272151 0.020983009
000230 b0 0e 37 bd 7f 18 e1 bd bd cb 7d be 34 95 9c bd
       -0.04469174 -0.109910004 -0.24784751 -0.07645646
000240 83 7f 4a 3e 03 fc 2e bc 12 f8 b1 bf cf 44 31 bc
       0.19775204 -0.010680201 -1.390383 -0.010819628
000250 c1 c4 43 be 5d 8c f1 be 73 54 a2 3c e3 81 91 3c
       -0.19118024 -0.471774 0.01981566 0.01776213
000260 41 fe 1b bd a6 e0 c6 3d 25 2a b4 3d e9 4c 3b 3e
       -0.038084272 0.09710817 0.08797101 0.18291058
000270 4a 39 47 3f be 46 e1 be 9e 34 0b 3e 9b 48 aa 3b
       0.7782179 -0.43999285 0.1359429 0.0051966435
000280 12 11 15 be b0 cc dd 3d ae f3 b1 3d 76 46 32 be
       -0.14557293 0.10830057 0.08689056 -0.17409691
000290 71 bf 00 3f 45 14 8d 3e ba c8 31 3c b4 43 e4 3b
       0.50292116 0.27554527 0.01085108 0.0069660787
0002a0 93 2b 07 3e a6 81 3f 3e 6f 3d 56 be 41 58 ea bc
       0.13200216 0.187018 -0.20921873 -0.028606536
0002b0 ac 43 b8 3e 7e 27 5a 3e 6a 52 40 3d 0e 7c c9 bc
       0.3598913 0.21304128 0.046953596 -0.024595287
0002c0 14 15 09 3e 1c 1e 40 3b 25 c2 a9 3e b3 9a 00 3d
       0.13386947 0.0029314822 0.33155933 0.031397533
0002d0 8e 09 4b bb 51 7b 8a bc ed 39 7a be f5 8d 7a bd
       -0.0030981037 -0.016904505 -0.2443616 -0.061170537
0002e0 aa dd a0 3d 0e 4c 5e be 15 b3 75 be 53 f7 0f bd
       0.07854779 -0.217087 -0.23994096 -0.035147976
0002f0 cf 0b cd 3d a0 59 27 bd c1 5d 70 be 8b 21 51 bd
       0.10012018 -0.040856957 -0.23473264 -0.05105738
000300 ca f2 bb be 87 e9 2f be 8e 65 17 bc 71 d6 83 bd
       -0.3670867 -0.17178927 -0.009240521 -0.06437386
000310 87 5f f5 3e 7a 6e 41 3d 4d 5c 33 bb 7d dc 27 bc
       0.47924444 0.0472245 -0.0027368248 -0.01024544
000320 93 66 08 bf ef 54 4e 3e d2 6d 9e 3e a0 21 cb 3c
       -0.53281516 0.20149587 0.3094316 0.024796307
000330 1d 3b ea be 1d f9 59 bd 3e 51 ba 3d 01 0f c3 3c
       -0.45748225 -0.05321609 0.09097527 0.023810865
000340 06 a6 4f be e5 b3 57 3d c8 dc b4 be 73 f5 9f bc
       -0.20278177 0.052661795 -0.35324693 -0.019526219
000350 37 47 3a 3e 1d 5f 7d bd 12 82 e3 be 3b b4 bd bc
       0.18191229 -0.061858285 -0.44435173 -0.02315723
000360 02 ae 16 bc 05 77 c8 3f 5d 28 00 be 8a e2 dd b9
       -0.00919676 1.5661322 -0.12515397 -0.0004232119
000370 e3 44 a2 3d bc 65 16 be 12 fd c1 bd 71 9a 56 3e
       0.07923295 -0.14687246 -0.094720975 0.20957352
000380 75 0f be 3d be 3c 2f 3e cb 60 13 bf ab 5a 02 3c
       0.09280292 0.17113015 -0.5756957 0.007956187
000390 a6 bd 16 3e 8d 91 ff 3b 71 68 12 bc 1e fb 75 be
       0.14720783 0.0077993334 -0.008936034 -0.24021575
0003a0 7e 80 8c bd 57 68 b3 bd de b2 61 bf 2f ff e5 3b
       -0.068604454 -0.087601356 -0.88163555 0.0070189456
0003b0 0f 6a ad bf 97 c7 ba 3d a4 b8 99 3e 34 c3 40 3c
       -1.3547992 0.091201 0.30023682 0.01176529
0003c0 7e 10 10 be bb 60 f3 3c a9 f0 65 be 70 67 fc bd
       -0.14068791 0.02970921 -0.22455086 -0.12324417
0003d0 6d 89 32 3e 31 d5 ad bd f7 40 65 be 73 ec 6c bd
       0.17435236 -0.08487929 -0.22388063 -0.057842683
0003e0 41 b5 fd be f2 d8 72 bf 03 a5 98 3d 8c 70 f8 3b
       -0.49552348 -0.9486228 0.074533485 0.007581776
0003f0 6f 2b 10 bc 52 a8 85 3e d0 6f 50 bd 81 62 97 3d
       -0.008799418 0.2610498 -0.050887883 0.07391835

fc1.bias f4 [128]
000000 a2 2d e7 3d 6e 6e ca 3d 4d 9f 13 be 1e 4a 5a bd
       0.11288001 0.09884344 -0.14416237 -0.05329334
000010 15 1b 70 3c d9 21 f1 bc c1 9c 31 bd c8 73 06 be
       0.014654894 -0.029435085 -0.043362383 -0.13130105
000020 77 ea 54 bd 2e 88 92 bd d4 aa 2d bd 6e 1b ac 3c
       -0.051981416 -0.071548805 -0.042399243 0.021009173
000030 03 96 8b bc 3c 06 67 3e 71 19 34 bd 83 3a 40 bd
       -0.017039305 0.22560972 -0.043969575 -0.0469308
000040 a1 14 06 3e 27 cd 83 3d 6f 41 e5 3d 01 29 88 bd
       0.13093807 0.06435614 0.11194121 -0.06648446
000050 c6 fe da 3d 75 99 69 bc df 2a 0a be 1b 26 69 3d
       0.106931254 -0.014257778 -0.13492917 0.056921106
000060 3d 7e 1f 3d f9 23 12 be 9e 92 8a bd 11 ab 3f 3d
       0.03893875 -0.14271535 -0.06766246 0.046794
000070 c5 34 c1 bd 0d af 69 3d 33 a5 46 bd 31 29 25 bd
       -0.09433893 0.057051707 -0.04849739 -0.040322486
000080 27 bd 9c bd 57 5a 46 be 0c 0b 55 3d 1c 93 59 bd
       -0.076532654 -0.193704 0.05201249 -0.05311881
000090 1b 08 58 3e b3 37 c6 bb b4 4a d7 3b b0 1b 0f 3d
       0.21096842 -0.0060491203 0.0065701846 0.034938514
0000a0 1b 36 56 bb 28 9d 83 bd 50 71 71 bd a1 94 65 3c
       -0.0032686058 -0.064264596 -0.058945954 0.014012487
0000b0 ad 86 63 bc ec 30 9f 3d 21 6e 02 3e 86 88 79 3d
       -0.01388709 0.07773003 0.12737323 0.060921215
0000c0 8b e8 92 bd fc 9b 18 be 90 a5 36 be f2 d1 41 bd
       -0.0717326 -0.14903253 -0.17836595 -0.04731936
0000d0 b5 5a 9e 3c b5 ca df 3d f8 49 1b 3d 2b de 12 3d
       0.019330362 0.10927335 0.03791234 0.035856407
0000e0 18 d0 90 3d 27 1e c2 bc 5e 69 55 bd 99 00 85 3e
       0.07070941 -0.023696018 -0.05210244 0.25977018
0000f0 b5 fb 8d bd de cc 9a bd 20 48 c1 bd 68 ca d4 bd
       -0.06932775 -0.075586066 -0.09437585 -0.103901684
000100 ff 97 b3 3c 50 72 8a 3d d0 32 91 bd 27 1f b8 3d
       0.021923063 0.06760085 -0.0708977 0.08990317
000110 4b 62 66 bd 57 16 b6 bd 70 4b a9 bd 54 57 81 bd
       -0.056246083 -0.0889098 -0.08266342 -0.06315485
000120 53 ac 86 bc 93 eb d9 3d 89 40 50 3c 46 4e 31 bd
       -0.016439592 0.10640635 0.012710699 -0.043287538
000130 5d 90 43 bd 00 49 72 3c 2b 94 09 bd b7 50 5e be
       -0.047745097 0.014787912 -0.03358857 -0.21710478
000140 04 b3 99 bd 88 c1 f7 bd c0 63 20 bd d0 5f 36 3d
       -0.07504848 -0.1209746 -0.03915763 0.044524968
000150 85 f3 43 be fe a5 89 3e 82 96 fd bd 4a a4 9e 3c
       -0.19135864 0.26884454 -0.12382223 0.019365449
000160 1c 95 37 3e e2 6c 00 be 38 70 81 be b3 f6 08 be
       0.17927974 -0.12541535 -0.2528093 -0.13375358
000170 52 b2 d6 3b c1 25 1b bd af 23 97 bc f0 c1 aa bd
       0.006552019 -0.0378778 -0.018449632 -0.08337772
000180 31 77 1b be 66 14 e2 bc 45 1b d4 bd f3 d4 72 3d
       -0.15182187 -0.027597617 -0.10356764 0.059285115
000190 25 f8 0e bd 5a 2d 84 3d c6 17 9f bd 34 69 c6 bc
       -0.034904618 0.064539626 -0.07768206 -0.024220087
0001a0 fd 5d 02 3b d3 3f fa 3d 55 b5 48 be 36 0a ee bc
       0.0019892447 0.12219205 -0.19600423 -0.029057603
0001b0 9a 66 84 3d c8 46 97 3d 16 e4 64 3d 3c c1 8c 3d
       0.06464882 0.07386547 0.055881582 0.06872794
0001c0 02 f4 20 3e 37 4d 98 3c d9 4c 83 be b5 2f 51 bd
       0.15718082 0.018591506 -0.25644568 -0.051070888
0001d0 16 03 f0 bc b6 bd 27 be c8 11 f6 bb b3 6d d6 3c
       -0.029298346 -0.16380963 -0.007509444 0.026175356
0001e0 90 db 96 3e f0 21 23 be 1c 40 37 3c 1b 6c 13 bb
       0.29464388 -0.15930915 0.011184718 -0.0022494856
0001f0 84 6a ed 3c f0 fb 37 bd f1 01 0c bd cf d8 6d bd
       0.028981455 -0.044918 -0.03418154 -0.058068093

bn1.weight f4 [128]
000000 0d b7 18 3f 81 f0 2a 3f 03 bf 08 3f 84 1b 26 3f
       0.59654313 0.6677323 0.5341646 0.64885736
000010 97 21 63 3f 7b f3 42 3f c2 bb 34 3f 42 1b 30 3f
       0.8872313 0.7615277 0.70598996 0.6879159
000020 29 07 4b 3f b6 e1 ad 3f 1f aa 28 3f 0d 86 1f 3f
       0.793078 1.3584507 0.65884584 0.6231392
000030 af 01 00 3f 36 59 47 3f 24 a7 1b 3f 54 13 39 3f
       0.5000257 0.778705 0.6080191 0.7229512
000040 f0 e9 4c 3f c4 df 41 3f 16 be 56 3f 8e 85 01 3f
       0.8004446 0.75732064 0.838838 0.50594413
000050 79 e6 25 3f b4 17 17 3f 4e 5b e5 3e ce 3a 51 3f
       0.648048 0.59020543 0.44796222 0.81730354
000060 5c b3 dd 3e 57 0c 34 3f 50 a7 7f 3f b7 15 22 3f
       0.43300903 0.7033133 0.99864674 0.63314384
000070 d6 d6 2b 3f 12 88 29 3f c9 ac 3e 3f cc e4 5e 3f
       0.6712469 0.6622325 0.744824 0.87067866
000080 81 13 46 3f 18 3b 30 3f b4 b1 31 3f 35 ea 3c 3f
       0.7737351 0.6884017 0.6941178 0.7379487
000090 8e f4 bf 3f a4 fc 48 3f e3 9c 35 3f fc 1d 9d 3f
       1.4996507 0.785105 0.70942515 1.2274776
0000a0 9a 00 15 3f da 38 71 3f 8c 76 20 3f b3 2a 03 3f
       0.5820404 0.94227374 0.6268089 0.5123703
0000b0 87 8b 45 3f d7 55 1c 3f 3d 28 2f 3f b0 fb 44 3f
       0.77166027 0.6106848 0.68420774 0.76946545
0000c0 1f 23 36 3f bd 8a 42 3f 46 d1 4f 3f ba d4 42 3f
       0.7114734 0.7599295 0.811787 0.76105845
0000d0 79 c4 35 3f a8 4d 87 3f 78 39 48 3f f1 69 29 3f
       0.7100292 1.0570574 0.7821269 0.6617728
0000e0 2a 0f 29 3f db bb 21 3f e6 7b 4f 3f 75 c6 b6 3f
       0.66038764 0.6317727 0.8104843 1.4279314
0000f0 91 2c 21 3f 9f 06 20 3f 77 bb 96 3f b8 4b 36 3f
       0.6295863 0.62510103 1.177596 0.7120929
000100 d5 30 45 3f c0 11 3a 3f 75 e2 62 3f 1d db 63 3f
       0.77027637 0.72683334 0.88626796 0.89006215
000110 b3 b7 23 3f b8 19 2f 3f be a1 f0 3e b1 52 17 3f
       0.6395218 0.6839862 0.469984 0.5911055
000120 30 5e 30 3f 13 94 ec 3e 8d 21 be 3e 70 f1 a6 3f
       0.6889372 0.46206722 0.37134972 1.3042431
000130 ae b3 90 3f 53 34 25 3f 59 53 18 3f 35 83 4d 3f
       1.1304834 0.64532965 0.5950218 0.8027833
000140 f9 db 3f 3f 6e 78 94 3f d5 1e 9c 3f c3 f4 b9 3e
       0.74945027 1.1599252 1.2196909 0.3631955
000150 2b 37 58 3f a3 f5 90 3f d2 94 2b 3f ea 90 31 3f
       0.8445918 1.1324962 0.67023957 0.69361746
000160 17 19 55 3f 9e 3a 14 3f 49 79 82 3f f7 be 4e 3f
       0.8324141 0.5790194 1.0193263 0.8076014
000170 ee 46 51 3f c5 46 d7 3e c3 3d fb 3e 39 6c 1d 3f
       0.81748855 0.4204618 0.49070558 0.6149326
000180 30 c2 ce 3f 40 a3 09 3f ee 42 2a 3f af 6c 33 3f
       1.6153011 0.53764725 0.66508377 0.70087713
000190 a3 fa 85 3f de 71 5b 3f a9 8b 90 3f 49 77 55 3f
       1.0467113 0.8572062 1.1292621 0.8338514
0001a0 b9 59 1e 3f 63 1d f4 3e dd fd b7 3f ea 22 26 3f
       0.61855656 0.4767867 1.4374348 0.64897025
0001b0 cf 5b 26 3f e7 af 84 3f b9 9f 88 3f bc a9 0d 3f
       0.6498384 1.0366181 1.0673743 0.5533712
0001c0 9a 23 af 3f 25 2a b1 3f 73 4f a6 3f 43 d2 19 3f
       1.368274 1.3840986 1.2992996 0.6008646
0001d0 fc ca 16 3f 80 55 3a 3f fd 82 1a 3f 9e 72 4c 3f
       0.5890348 0.7278671 0.6035612 0.7986239
0001e0 7a 48 a7 3f 23 c8 21 3f 4c 50 37 3f df 91 25 3f
       1.3068993 0.6319601 0.716069 0.64675707
0001f0 14 81 5d 3f c9 29 2c 3f 97 d0 cc 3e a5 a0 15 3f
       0.8652508 0.6725126 0.4000289 0.5844825

bn1.bias f4 [128]
000000 8e 95 2c bf 00 6c 6c 3e ef 62 be bd 62 c9 ac 3d
       -0.674157 0.23088074 -0.09296214 0.08436848
000010 77 41 76 bc fd 89 5e 3e 4e fa ea 3b 08 49 14 bf
       -0.0150302565 0.21732326 0.007170952 -0.57923937
000020 7e f4 09 bf 62 22 4d 3e df 1a 08 bf 75 a6 ad bd
       -0.5388869 0.20032647 -0.53166 -0.08479015
000030 73 68 89 be 67 95 91 be 4a 30 6d be 52 e0 45 bf
       -0.268375 -0.28434297 -0.23162952 -0.7729541
000040 52 1d 73 be b6 52 17 be 4e 7b 9f be 2b b0 41 bd
       -0.23741654 -0.14777645 -0.31148762 -0.047287147
000050 e3 59 0e be ca 53 b2 be 54 7a 38 be 6a c7 99 be
       -0.13901477 -0.3482955 -0.18015414 -0.30034953
000060 6a 2f 32 be 4d 90 2f bf 2c 1a 8a 3e db 64 12 3c
       -0.174009 -0.6857956 0.26973093 0.008935179
000070 0e c5 99 be 9c 85 02 be ce 4e 03 3e a2 72 0c 3f
       -0.30033153 -0.1274628 0.1282303 0.54862416
000080 f8 78 88 bd 86 9d b2 bd 3c f6 7a bc fd 53 cd bd
       -0.06663698 -0.087214515 -0.015317496 -0.10025785
000090 25 47 da be c4 db eb ba fd ad dc bd ee 30 1d 3e
       -0.42632404 -0.0017994572 -0.10775373 0.15350696
0000a0 49 af 06 be a6 4b 90 be 54 eb 47 be 1f cb e8 3c
       -0.13152803 -0.28182715 -0.19523364 0.028417168
0000b0 23 0a 16 bf 4f 73 03 3e af d6 1e 3d fa 41 89 be
       -0.5860922 0.12836955 0.038778957 -0.2680815
0000c0 ed 0a 23 bf 8f a7 d0 bd c2 d4 1d be 70 ea 1a 3e
       -0.63688546 -0.10188209 -0.15413192 0.15128493
0000d0 67 8f 91 bd 39 87 9f 3d 3c 8c 80 3f 2d 03 aa bc
       -0.0710743 0.077894635 1.0042796 -0.020753467
0000e0 b7 f8 ab 3d e1 e3 ed be 3d 6d 6e bc 16 a7 95 3e
       0.08397048 -0.4646292 -0.014552412 0.2922904
0000f0 72 c0 92 bd d9 3b 13 3c 23 c6 36 bf 51 bd 46 bf
       -0.07165612 0.008986437 -0.7139608 -0.77632624
000100 a3 38 fd 3d fd 52 dd 3d 36 be 30 bf 77 63 92 be
       0.12364318 0.108068444 -0.6904024 -0.2859151
000110 0f 41 f7 3c b4 7b 02 bf 1b a7 a6 be b4 d2 7c be
       0.03018239 -0.50970006 -0.32549366 -0.24689752
000120 94 27 8a bd 6e d8 21 3e f7 ee c1 3e 4a 1a 6f bf
       -0.0674583 0.15805218 0.37877628 -0.9339949
000130 ca d6 40 be 59 3c 81 bd 80 7c d8 3b d7 bc ea 3e
       -0.18831936 -0.063103385 0.0066066384 0.45847198
000140 c1 8c ee be 23 55 c5 be 2d e2 90 be e2 1a f9 be
       -0.46591762 -0.38541517 -0.28297558 -0.48653322
000150 10 d0 d6 be c8 2e 56 3e 92 d0 22 be 9a d1 3a 3d
       -0.41955614 0.20916283 -0.15899876 0.045610048
000160 3a 32 c2 bd bc 83 f5 3c 1d 80 e1 3d bd 11 2e bf
       -0.09482236 0.029970042 0.11010764 -0.67995816
000170 8a 63 a9 be f1 35 bf bd 6e d9 13 bf 0d 25 b2 bc
       -0.33083755 -0.093364604 -0.57753646 -0.021746183
000180 68 6e 95 be 5c de 06 be f8 a0 8e be aa 7b c6 bc
       -0.29185796 -0.13170761 -0.27857184 -0.02422889
000190 d1 36 4f 3e 60 6f db be 9b e0 e4 3e 3e 4f 68 bf
       0.20235755 -0.4285841 0.4470261 -0.90745914
0001a0 f9 64 83 be b8 1b 46 3e f1 8b c0 bf 09 b5 a4 be
       -0.25662974 0.19346511 -1.5042707 -0.3216937
0001b0 bd 81 14 be 8a 78 77 bd e6 42 1a be 6f de b8 3c
       -0.14502616 -0.06041769 -0.15064582 0.022567002
0001c0 2e 8f eb 3c d2 60 d4 3c bb 44 f8 be d8 99 00 3e
       0.028754797 0.025925074 -0.48489937 0.12558687
0001d0 3d 25 e5 be b7 5c 17 bf 51 a1 00 bf 54 63 68 bf
       -0.44754973 -0.59125847 -0.5024615 -0.9077656
0001e0 fb 29 52 3f d5 3c 59 be cb e3 4b bd 82 00 2e be
       0.8209531 -0.21214612 -0.049777787 -0.16992381
0001f0 83 17 be be 65 d8 bf 3d 9a 58 cd bd 2f fd 35 be
       -0.37127313 0.09367446 -0.10026665 -0.17772363

bn1.running_mean f4 [128]
000000 9b 40 29 40 e3 9d a1 c0 32 ee 39 c1 58 33 21 40
       2.6445682 -5.0505233 -11.620653 2.5187588
000010 79 95 da bf 60 6d 8a c0 38 37 88 c0 86 b1 0e 3e
       -1.7076865 -4.3258514 -4.2567406 0.13934907
000020 3a 12 07 c0 9e d2 5c c0 4e cc 85 bf 23 2d 2d c1
       -2.1104875 -3.450355 -1.0452974 -10.82352
000030 51 b4 77 c1 3f 59 ff 3f 2d 01 0d bf 8e 60 53 c1
       -15.481523 1.9949111 -0.5507992 -13.211073
000040 d1 ef ba c0 18 43 0f 40 50 2d 69 40 55 e3 65 c1
       -5.8417745 2.23847 3.6433907 -14.368001
000050 66 db d3 bf f5 47 85 c0 73 f7 43 3f b1 cf a2 c1
       -1.655133 -4.165034 0.7654945 -20.351412
000060 0c 5d 2d c0 63 3d 12 c1 36 96 21 bf e5 af 90 c0
       -2.7088041 -9.139987 -0.6311983 -4.5214715
000070 eb 6b 6c c0 59 e3 12 40 c3 b5 43 40 38 d1 94 3f
       -3.6940868 2.2951262 3.0579689 1.1626348
000080 bc 54 6c bf 5c 84 a8 c0 6b 68 69 3f b8 c2 f1 c0
       -0.92316794 -5.266157 0.91174954 -7.5550194
000090 1c 4f 6b c0 7d 53 92 bd 6f 2d 83 41 c6 d5 ad bf
       -3.6767035 -0.071448304 16.397184 -1.3580863
0000a0 ec 65 66 c1 62 60 a2 3f 74 59 16 c0 c8 bb b9 bf
       -14.399883 1.2685664 -2.3492098 -1.4510431
0000b0 3f 03 53 40 20 79 b8 c0 9d e3 87 c0 41 14 a2 c0
       3.2970731 -5.764786 -4.246535 -5.0649724
0000c0 cf ed c1 c0 2f c3 94 bf 0d 03 6a 40 06 d3 12 40
       -6.0602794 -1.1622065 3.6564362 2.2941298
0000d0 06 90 04 c0 9b 60 48 c0 c9 46 b2 40 ff e3 8a 41
       -2.0712905 -3.1308963 5.571141 17.361326
0000e0 e0 4a 23 3e 99 10 a7 c1 5f 84 c1 bf 35 c3 45 40
       0.15946531 -20.883104 -1.5118521 3.0900395
0000f0 78 8e 2f c1 a2 73 be c0 26 c0 1e c0 08 11 e5 40
       -10.972282 -5.9516153 -2.4804778 7.158329
000100 46 15 2f c1 4b de ae 3f c9 7b 2e 40 a4 6f 27 c0
       -10.942694 1.3661588 2.7263052 -2.616189
000110 3d 72 72 c0 d4 6d 9e 40 6b d5 9a c0 d0 51 d0 be
       -3.7882226 4.9509068 -4.838552 -0.40687418
000120 88 39 41 40 4e 0a 30 c1 2b 47 4c 40 69 1f c5 c0
       3.0191364 -11.002516 3.1918437 -6.1600842
000130 28 c5 e5 bf 45 38 b6 c1 1e 45 59 c1 71 cd b7 be
       -1.7950792 -22.777475 -13.579374 -0.35898927
000140 f6 ad 9c 3f bb 46 68 3f 4a 2f a9 bf 34 f1 ac 40
       1.2240589 0.90732926 -1.3217556 5.4044437
000150 7d 53 d5 3f cf 74 27 c0 5a 61 9f bf d7 07 18 c0
       1.6666104 -2.6165044 -1.2451584 -2.3754785
000160 f2 6f 94 3f ab 95 95 c1 ac 0f 54 c0 5e e3 73 40
       1.1596663 -18.69808 -3.3134565 3.8107524
000170 50 59 f8 3e d2 f2 00 c0 08 c6 4f 40 20 86 d4 3e
       0.4850564 -2.0148206 3.2464619 0.4150858
000180 a2 df a7 c0 c5 6c 5b c0 4f 40 f6 c1 de 77 13 40
       -5.246049 -3.4285138 -30.7814 2.304191
000190 08 95 3d 40 78 f2 e4 bf 2e 36 9e bf 4e d3 72 c1
       2.9622211 -1.7886496 -1.2360284 -15.176588
0001a0 89 8e 7a 3e e1 69 ee c0 07 4f 6c c1 8c 80 d3 3e
       0.24468435 -7.4504247 -14.769294 0.4130901
0001b0 63 3a a4 c0 10 4d 08 3f 1b 7b 2f c0 b1 1d 99 c0
       -5.1321273 0.5324259 -2.7418888 -4.7848744
0001c0 16 b8 8c c0 54 f2 75 bf ef 9b fc bf 44 87 c6 40
       -4.3974714 -0.9607289 -1.9735087 6.204012
0001d0 e1 a6 3c 3f 91 46 d1 c1 20 28 30 c1 45 dc 0d 3f
       0.73692137 -26.159456 -11.009796 0.5541423
0001e0 8d f0 96 3e 27 4f 86 c0 e1 71 4d 40 bc a3 89 c0
       0.294804 -4.197162 3.2100756 -4.301237
0001f0 49 39 34 3e c0 f3 7d c1 6f 2c a7 c0 68 4d 23 41
       0.17599978 -15.872009 -5.224174 10.206398

bn1.running_var f4 [128]
000000 a2 5b c9 3f bb 5a 35 41 e9 e2 ac 42 f7 bb 15 40
       1.5731089 11.334651 86.443184 2.3395975
000010 b3 67 b7 3f 79 8b bc 40 ac 2f 46 41 79 2a 79 3f
       1.4328521 5.8920255 12.386639 0.97330433
000020 6e aa 4d 41 11 b2 82 40 14 af 8f 3f 24 5b 82 42
       12.854109 4.0842366 1.1225305 65.17801
000030 2b c9 21 43 96 26 25 40 e8 9f a9 3f f4 8d c6 42
       161.78581 2.58048 1.3251925 99.27725
000040 cf f2 6a 41 87 21 9e 3f 8c bb 98 40 43 4f 00 43
       14.684279 1.2353982 4.772894 128.30962
000050 c5 bf 95 3f d3 15 31 41 b3 82 77 40 ca 35 6f 43
       1.1699148 11.067828 3.8673522 239.21011
000060 90 18 c8 40 cc 35 4d 42 0f 1d 20 40 9d 39 ee 40
       6.2529984 51.302536 2.5017736 7.444533
000070 94 cd b6 40 0e b5 93 40 7e f0 53 40 4f b2 83 3f
       5.712595 4.6158514 3.3115535 1.028879
000080 7a 15 d8 40 80 f8 57 41 80 40 46 40 5f b5 cf 41
       6.7526217 13.498169 3.0976868 25.96356
000090 bd cd 01 41 81 5d 1d 40 2a bb 1b 43 32 84 e4 3f
       8.112729 2.458832 155.73111 1.7852843
0000a0 7d 8e 10 43 15 2b 2b 3f be 21 67 40 5f 9e 46 40
       144.5566 0.6686261 3.6114345 3.1034162
0000b0 ea 90 83 40 69 91 82 41 6d 11 ac 40 0f cc 35 41
       4.1114397 16.321001 5.377127 11.362319
0000c0 8d 5f 9e 41 87 5d 10 3f 96 7b 36 40 db 4e 21 40
       19.796656 0.5639271 2.851293 2.520438
0000d0 3a 6a e1 3f ac 5b 19 40 e5 15 44 41 cf 82 50 43
       1.7610543 2.3962202 12.255345 208.51097
0000e0 36 6e 1f 40 ba 4c 87 43 f4 d1 8d 40 32 95 fa 3f
       2.4911017 270.59943 4.431879 1.9576781
0000f0 18 b3 89 42 29 f5 68 41 4d dd 8e 40 57 b7 d2 41
       68.84979 14.559854 4.4645143 26.339521
000100 12 12 6b 42 69 e5 05 40 07 8d af 3f 72 66 b6 3f
       58.767647 2.092127 1.3714913 1.4250014
000110 52 8b 27 40 a4 b2 13 41 7a fa 52 41 f3 7c ae 3f
       2.6178784 9.231113 13.1861515 1.3631881
000120 a7 d2 87 40 66 9f 7b 42 4f 6a 66 41 4a c9 11 41
       4.2444644 62.905663 14.400954 9.111643
000130 97 39 a7 40 36 53 9c 43 09 51 db 42 b5 7f 40 3f
       5.22578 312.6501 109.65827 0.75194865
000140 5b c2 24 40 a6 0f b8 3f 02 9f d2 40 c4 b7 59 41
       2.5743625 1.4379776 6.58191 13.607365
000150 9e 50 a6 3f 25 f0 87 40 8b 60 61 3f 71 99 2e 40
       1.2993352 4.2480645 0.8803794 2.7281153
000160 1d 37 b9 3f b6 99 4e 43 7b 4f de 3f 4d f0 9c 40
       1.4469944 206.60043 1.7368006 4.9043336
000170 2a e7 e4 3f 7a 76 5f 3f 00 21 30 41 40 6e 73 3f
       1.7883046 0.87290156 11.008057 0.95090103
000180 6d 4f 9c 41 a2 a2 a9 40 2e 98 16 44 61 50 9b 40
       19.538782 5.3011026 602.3778 4.853562
000190 5f 49 32 40 7a 8d d4 40 83 11 87 3f c7 82 1b 43
       2.7857282 6.64227 1.0552219 155.51085
0001a0 19 04 34 40 19 b6 d0 41 f9 8d a0 42 6f 7e 2a 3f
       2.81275 26.088915 80.27729 0.6659917
0001b0 9a 8f 4c 41 53 de ad 3f 11 0d 0d 40 20 15 83 41
       12.785059 1.3583473 2.2039225 16.385315
0001c0 4f 6b d4 40 b2 fa b0 40 67 64 15 41 b7 7b ac 41
       6.638099 5.5306025 9.337012 21.560408
0001d0 f8 72 30 3f 99 09 d6 43 1c fb 9d 42 e1 81 33 40
       0.6892543 428.07498 78.99045 2.8048022
0001e0 17 bf 78 3f 7b 31 05 41 a7 52 d5 40 73 90 27 41
       0.9716658 8.32458 6.6663394 10.472766
0001f0 bb f0 64 40 38 c1 11 43 28 87 48 41 c5 92 82 42
       3.577193 145.75476 12.532997 65.28666

fc2.weight f4 [64, 128]
000000 5d b3 83 3c 22 a3 73 bd 41 14 90 bd b8 d5 4a 3c
       0.016076738 -0.059481747 -0.07035113 0.012380056
000010 e4 38 a4 3d f9 13 40 3d 2b aa ac 3d dc c2 84 bd
       0.080186635 0.046894047 0.084308945 -0.06482479
000020 0d 24 38 3d 70 e2 e2 bd 08 d6 11 be 08 27 ba 3d
       0.044956256 -0.11078346 -0.14241803 0.09089476
000030 b1 e6 76 bc a1 3a e7 bd 88 92 80 3d 5c 2c 1a bd
       -0.01506965 -0.112904795 0.062779486 -0.03763996
000040 ae 2f b3 bd f9 d2 40 3d b3 f0 31 bd 86 9c cf bb
       -0.087493286 0.0470762 -0.04344244 -0.0063357977
000050 15 0f f6 3d 17 ab 42 bd 33 a6 ab 3c 84 57 60 bd
       0.120145954 -0.047526445 0.020953273 -0.05477096
000060 92 8c e6 bd 29 c9 de 3c cb d1 bd bd 8b 05 7c 3d
       -0.112572804 0.02719553 -0.092685305 0.061528724
000070 09 3d e7 3c aa 2c 06 3d ac 6c 3a 3d ec 79 91 3d
       0.028227346 0.03275744 0.045513794 0.07103333
000080 6d fc 24 3e bd e9 da 3d f9 41 cf 3d b3 50 bc bd
       0.16111918 0.10689113 0.10120005 -0.0919508
000090 6d 86 1e be f7 cb 7d 3e 25 10 b0 bd fb 4b 20 bd
       -0.15480967 0.24784838 -0.08596829 -0.03913496
0000a0 d3 31 86 3d 16 f4 a5 bd e7 52 ab bd 99 89 6f 3d
       0.06552472 -0.08103196 -0.08365422 0.058480833
0000b0 2d a9 eb 3c 77 fd f3 bc 1b c3 89 bd 4b 31 b9 bd
       0.028767193 -0.029783947 -0.067266665 -0.09042605
0000c0 04 73 3c bd d0 10 39 3d 33 39 fa 3d 18 09 bc 3c
       -0.046008125 0.04518205 0.12217941 0.022953555
0000d0 92 54 28 be 26 24 07 3d 1c b9 99 be ca 37 e4 bd
       -0.16438511 0.03299346 -0.3002404 -0.111434534
0000e0 bd 11 06 3c d0 c6 1f 3d 45 37 e4 3c 6e 2d 9f be
       0.00818294 0.03900796 0.027858386 -0.31089348
0000f0 5b 59 34 3c b1 8c 3d 3d 70 45 48 be b0 f9 d5 3d
       0.011007632 0.046276752 -0.19557738 0.10448015
000100 8f bd b5 3d ee 00 a9 3d e5 89 1f 3e 01 04 49 3d
       0.08874046 0.082521304 0.15579946 0.049076084
000110 fe 34 17 3e 91 a3 0c 3d 45 00 93 bd 0f c9 c5 bc
       0.14766309 0.034335677 -0.07177786 -0.024143724
000120 99 b9 2a 3c 95 db 2f 3d c0 de 4e 3d 01 61 f5 be
       0.0104202265 0.04293402 0.0505054 -0.4792557
000130 2a 50 ef bd ea b3 c1 bd e3 f2 c9 3b fc bf eb bd
       -0.11685212 -0.09458144 0.0061629876 -0.115112275
000140 35 1b bf bd b8 90 af be 4a 8d 9d 3d dd 36 1d 3e
       -0.09331361 -0.342901 0.076929644 0.1535296
000150 39 28 2b be 9b 3f 91 3c 61 31 8b 3d 0c 62 da bc
       -0.16714562 0.017730525 0.06796528 -0.02665808
000160 d5 cd 7b bc 6e 69 d7 3d eb 4d 2b be c4 b9 a5 39
       -0.015368898 0.10518156 -0.16728942 0.0003160966
000170 b8 73 b1 3d 82 54 4e 3b 68 e3 cf bd ea 68 76 bd
       0.0866465 0.0031483476 -0.10150796 -0.060158648
000180 91 68 ed bd 5d 2c 26 3c 82 81 90 3d 4d fc 32 3e
       -0.1159221 0.010142413 0.07055952 0.17479058
000190 7b 7c c8 be 78 7c 1c bd 15 b7 04 be 37 48 84 3d
       -0.3915747 -0.03820464 -0.12960465 0.064590864
0001a0 c9 de 14 bd c6 ee 88 bd 1d 18 a4 bf 5f c3 19 3e
       -0.036345277 -0.066861674 -1.2819859 0.15015934
0001b0 17 ff 11 be 86 dc 0a bb d7 c8 d1 3b a7 7e ca bc
       -0.14257465 -0.002118857 0.006402116 -0.024718596
0001c0 c0 d8 40 bd dd 1a 39 bb a2 35 71 bd 8b 82 aa bc
       -0.04708171 -0.0028244772 -0.05888904 -0.0208142
0001d0 7f d6 dc 3a 04 52 fb 3c e6 08 fe 3c 20 73 eb bd
       0.0016848593 0.030678757 0.031010102 -0.11496568
0001e0 89 b9 17 3e 6a ab 04 bc 71 cf 27 be 72 43 75 3c
       0.1481687 -0.008097509 -0.16387726 0.0149696935
0001f0 5c 5d b4 bc d4 ea 73 3d 6a 7a b5 3c 9b 10 aa bd
       -0.022017173 0.05955012 0.022153098 -0.083039485
000200 92 53 0c be 26 e2 c1 bd a5 17 28 bd 63 b8 96 be
       -0.13703755 -0.094669625 -0.041038174 -0.2943755
000210 53 87 7b bd 57 16 c2 bc 2d b6 6b 3b 0c 8a 60 be
       -0.061408352 -0.023692293 0.003596674 -0.2192766
000220 7d f0 16 be 3a 6f 90 be 6a 09 3f bd 4a 16 e1 bd
       -0.14740176 -0.2820986 -0.046639837 -0.109905794
000230 bb 10 0d bd 7e 39 ab bd 90 72 6a bc 29 ea 79 3e
       -0.034439784 -0.08360575 -0.01430954 0.24405731
000240 53 6a 67 bd 3c 52 2c bc f2 3f 8f 3e 68 04 5d 3b
       -0.056497883 -0.010517653 0.27978474 0.003372455
000250 14 41 af bc 8e c0 91 3d 0e d8 7a be a8 5e 10 be
       -0.021393336 0.07116805 -0.24496481 -0.14098608
000260 f6 a4 86 3d c6 75 37 be 17 d6 fc bc 2f 86 98 bb
       0.065744326 -0.17916021 -0.030863805 -0.004654668
000270 1a 6c 86 3d 9a e3 a8 bb 8f 79 d2 3d 26 d1 67 be
       0.065635875 -0.0051540853 0.10277092 -0.22638378
000280 0a 40 5f 3d b7 30 ed bc b2 c4 64 3d a1 0d eb 3d
       0.05450443 -0.028953893 0.055851646 0.11477209
000290 cc 97 60 3e 26 b2 24 3e ab 63 ab 3c 19 eb a3 3d
       0.21932906 0.16083583 0.020921549 0.08003826
0002a0 b4 7f de 3d c2 97 32 3e 64 b0 7c bd 4a 9c 2d 3d
       0.10864201 0.17440704 -0.061691657 0.042385377
0002b0 36 95 ae bc fa ad c3 bd 6c cc a5 bc 47 2d 44 bd
       -0.021311384 -0.09554668 -0.020239078 -0.047894742
0002c0 e3 a0 8f bd 13 71 58 be 99 a2 2c 3e 1a 88 38 be
       -0.070131086 -0.21136884 0.16858901 -0.18020669
0002d0 40 34 42 3e 2a 83 78 3d 06 18 e8 3c cb 39 20 3e
       0.18965244 0.060671963 0.028331768 0.15647046
0002e0 ff 05 9a bd 84 e0 be bd fd db 8a be f5 cc 8c be
       -0.07520675 -0.09320167 -0.27120963 -0.2750012
0002f0 ab ae b0 3d de a3 79 bc 23 77 1a be 30 4f 15 be
       0.08627065 -0.015236823 -0.1508451 -0.14580989
000300 29 20 07 be 80 e1 a4 be fd b2 4e be 28 c1 de 3c
       -0.13195862 -0.32203293 -0.20185466 0.027191713
000310 93 0d ee 3d 8b af 0e bd ca 7a 39 bd ae 07 d5 be
       0.11623683 -0.03483538 -0.045283116 -0.41607422
000320 06 59 60 be 40 df cb 3d f1 0f 83 bc d9 37 06 bf
       -0.2190896 0.09954691 -0.015998812 -0.52428967
000330 7c 34 e3 3c 66 51 05 3e d8 3b 0b 3e 07 25 3f be
       0.027734987 0.13019332 0.13597047 -0.18666469
000340 75 88 76 bc b1 ac 0d be 92 7f cf 3d 6e d5 b8 be
       -0.015047182 -0.13835408 0.10131754 -0.36100334
000350 88 66 a3 3b fc d5 e8 bd b6 3c 96 3c c8 0a 9f 3d
       0.004986588 -0.11368939 0.018339496 0.07765728
000360 c3 31 90 be 18 a8 fd 3d c9 5a 3a be fb 06 94 3d
       -0.28162965 0.12385577 -0.18198694 0.07227894
000370 cd 0b 82 be d0 fa d6 bd 5e dc 4a be 25 b5 57 3d
       -0.25399628 -0.104970574 -0.19810626 0.052662987
000380 f9 55 0a 3c 09 39 af bd 20 9d 56 3d 16 ad 88 be
       0.008443349 -0.085558005 0.05239594 -0.26694554
000390 3d 77 54 be 86 5e a3 3d df ce 6d be 08 14 57 3d
       -0.20748611 0.07977013 -0.23223446 0.052509338
0003a0 fa 71 a7 3e b6 86 ca bd 62 f2 a0 be c2 1c 3d bd
       0.32704145 -0.09888975 -0.31434923 -0.046170004
0003b0 c7 e4 e8 3b 1b 2c 36 3e b7 fd de bc 30 26 1f 3d
       0.0071073505 0.17790262 -0.02722059 0.038854778
0003c0 c4 b2 08 bd c5 c7 b6 bd 9c 35 0d 3f d2 5e 98 3e
       -0.03337361 -0.08924822 0.55159926 0.29759842
0003d0 b7 c5 21 be 81 f3 da bc f6 ec 8a bc 93 31 86 be
       -0.15798078 -0.02672744 -0.016958695 -0.26209697
0003e0 52 6e 98 be ea 0e c4 bd 4d a2 a8 3d ab ed b9 bd
       -0.29771668 -0.09573157 0.082340814 -0.09078535
0003f0 8e 3a 37 bf 63 a6 0b 3c 2f b9 21 bc 66 45 1c bd
       -0.7157372 0.008523556 -0.009870811 -0.03815212

fc2.bias f4 [64]
000000 2f 75 b2 3b 2b 6a 18 be c1 45 c3 3d a9 43 85 be
       0.0054460983 -0.1488425 0.09534789 -0.26028183
000010 4e a5 9d be 38 9f 93 bc 9b ce 87 be 5f be 0d be
       -0.3079018 -0.018020257 -0.26524815 -0.13842152
000020 5a e8 10 3d 9f 2f 14 3c 91 14 de 3c 1d 6e 0d be
       0.035377838 0.009044557 0.027109416 -0.13811536
000030 78 02 92 bd fd f3 c0 bd d0 bd ca 3d fe 66 2e 3d
       -0.07129377 -0.09421537 0.09899485 0.04257869
000040 7b 9a 8d 3e f7 09 37 be 07 f7 81 be db 5b 39 3e
       0.27656922 -0.17874895 -0.2538378 0.18101446
000050 ff a3 8e be 80 45 9e bd da 41 1d be 3d d2 22 be
       -0.27859494 -0.077281 -0.15357152 -0.15900512
000060 bc 0d 80 be 82 17 6f 3d fd 97 9b 3d 0e 1e 9e 3d
       -0.25010478 0.05837203 0.07597349 0.07720576
000070 9c 3b 04 3d b8 81 29 3e 2b 44 f1 bd 78 5a ef 3d
       0.03228341 0.1655339 -0.1178058 0.116871774
000080 d0 9c 04 3e ba 65 92 be 4a 93 27 be e7 e7 d5 3d
       0.12950444 -0.28593236 -0.1636478 0.104446225
000090 df 4f 61 be 62 9e ba be 61 8c 1a be 5b 9f de bb
       -0.22003125 -0.36448961 -0.15092613 -0.006793899
0000a0 8c 8c 56 3e 05 b1 f0 3d 65 79 db 3c 88 b0 0c be
       0.20952052 0.11752514 0.026791284 -0.13739216
0000b0 fe b9 22 ba d1 31 1c bc 0a 57 fb 3d 7a 5f 3c 3d
       -0.00062075246 -0.0095333615 0.12272461 0.04598949
0000c0 00 99 4f bd fd 5f da bc 65 57 bc bd d8 07 23 3e
       -0.05068302 -0.026657099 -0.09196357 0.15920961
0000d0 03 f1 42 bd ed 42 5c bc ab 6a 79 be 64 a3 13 bd
       -0.047593128 -0.013443691 -0.24357097 -0.036044493
0000e0 04 2b 4b be 87 e6 f2 bd 40 a7 ec 3c 71 d0 af 3d
       -0.19840628 -0.11860376 0.028888345 0.08584679
0000f0 7b bc 2b 3e 33 d4 46 be c5 c3 5d 3d 7f 88 c0 be
       0.16771118 -0.19416885 0.05414178 -0.37604138

bn2.weight f4 [64]
000000 59 76 75 3f 22 43 3c 3f 66 95 3a 3f d8 fb 69 3f
       0.9588371 0.73539937 0.72884214 0.9139991
000010 ed 1f 38 3f f9 80 a0 3f 21 3b 52 3f fe d3 4a 3f
       0.71923715 1.2539359 0.82121474 0.79229724
000020 ae 92 54 3f 12 a8 64 3f a5 5d 4c 3f e6 3f 71 3f
       0.83036315 0.89318955 0.7983039 0.94238126
000030 77 36 48 3f c5 27 92 3f da 4b 41 3f ad e8 28 3f
       0.78208107 1.1418387 0.75506365 0.65980035
000040 e5 e0 56 3f d2 07 83 3f be ae 85 3f 4f 6f 32 3f
       0.8393691 1.0236762 1.0443952 0.69701093
000050 34 44 41 3f 14 cc 55 3f 9e 7e 89 3f 30 3e 25 3f
       0.75494695 0.83514524 1.0741765 0.64548016
000060 b2 02 61 3f 66 21 41 3f 88 05 81 3f 5c 94 69 3f
       0.8789474 0.75441587 1.0079813 0.91242003
000070 94 76 81 3f 21 64 51 3f 12 e9 46 3f 16 29 83 3f
       1.0114312 0.8179341 0.7769939 1.0246913
000080 ab 54 4b 3f fd b1 61 3f 4e 0e 50 3f c7 b7 45 3f
       0.7942607 0.88162214 0.8127183 0.77233547
000090 71 fc 85 3f f5 0f 9d 3f 80 18 83 3f 05 3a 9a 3f
       1.0467664 1.2270495 1.0241852 1.2048956
0000a0 de 53 31 3f 6c a3 88 3f 44 cf 54 3f 6e 9b 5b 3f
       0.69268596 1.0674872 0.8312876 0.8578404
0000b0 ea c7 42 3f 40 33 5e 3f 55 7d 3c 3f 9a 98 39 3f
       0.76086295 0.8679695 0.7362874 0.72498477
0000c0 8d 37 34 3f 8d 39 7f 3f e6 bd 5a 3f 33 3d 52 3f
       0.70397264 0.9969719 0.8544601 0.8212463
0000d0 f5 e0 5a 3f 9d b8 53 3f 19 50 61 3f e2 74 6d 3f
       0.8549951 0.8270357 0.88012844 0.92756474
0000e0 db 31 9f 3f 00 51 67 3f 43 6c 50 3f 8c 9c ac 3f
       1.243709 0.9035797 0.81415194 1.3485274
0000f0 b8 4f 73 3f 2b af 14 3f 93 d3 8a 3f 5e e8 4e 3f
       0.95043516 0.58079785 1.0845817 0.80823314

bn2.bias f4 [64]
000000 3a 15 a3 3e f3 f4 fe bd 6f e6 68 3e 3a 91 f5 3d
       0.31852132 -0.12449064 0.22744153 0.119905904
000010 2f dc ac be bb 79 1b bf c0 74 c7 be ee 97 a9 3d
       -0.33761737 -0.6073262 -0.3895626 0.082809314
000020 51 e8 6a be 2a 0e bf be b5 8b 49 bf a1 7c 4a be
       -0.22940184 -0.37315494 -0.787288 -0.19774105
000030 39 fb d3 be b6 4d 27 bd 92 e5 fd 3e 56 5f 90 be
       -0.41402605 -0.040845595 0.4958921 -0.28197736
000040 c5 f7 0f bf d7 fd 6e be 2b 1a 00 be 33 58 0b be
       -0.5623744 -0.2333902 -0.12509982 -0.13607864
000050 37 f4 79 bf 8a e5 d6 be 96 5d 2e be c0 50 25 bf
       -0.9763827 -0.41972 -0.17027888 -0.6457634
000060 ec 13 85 be df 7f 98 be fc 92 ff 3d e6 70 1d be
       -0.25991762 -0.29785058 0.12479207 -0.15375099
000070 63 cb 8a 3b 54 64 bc be 1b 0c bd be 0f 3c 23 bf
       0.0042356714 -0.36795294 -0.36923298 -0.6376352
000080 01 ca e2 be d0 a3 18 bf 83 0b 5b be c5 e8 f8 bc
       -0.44294742 -0.5962496 -0.2139111 -0.03038443
000090 3f 6c d9 bd d3 24 21 be 79 3d 49 be 4e 70 37 be
       -0.106163494 -0.15736704 -0.19652356 -0.17913935
0000a0 24 e2 c7 be 87 52 87 be e2 49 28 bd 73 a4 fb be
       -0.3903972 -0.2643015 -0.041086085 -0.49148902
0000b0 5b e0 48 be 89 77 87 be c5 8b 22 bf d1 86 bb bd
       -0.19616835 -0.26458386 -0.6349452 -0.091565736
0000c0 32 a0 51 be c4 a8 4b bc 74 b2 2f 3d 51 0f 0b be
       -0.20471266 -0.012430374 0.042894796 -0.13580061
0000d0 89 0d 07 be c2 f7 b7 be e3 5d 99 be 6d 75 29 bf
       -0.13188757 -0.35931212 -0.29954442 -0.661948
0000e0 2b af 88 bf cb bb 01 bf 33 c0 be be 05 82 6f bf
       -1.0678457 -0.50677174 -0.3725601 -0.9355777
0000f0 18 de 02 be d4 94 bc be eb 73 96 bf bd 47 04 bf
       -0.12780035 -0.36832297 -1.1754125 -0.51671964

bn2.running_mean f4 [64]
000000 c2 ff 6c bf 2d ac ee bf 95 19 ab bf 79 41 a0 be
       -0.92577755 -1.8646294 -1.3367182 -0.31299952
000010 72 41 da 3e 59 e1 19 3f 35 cc 7c be 1c a7 9f bf
       0.42628056 0.6010948 -0.24687274 -1.2472873
000020 be 98 33 3e b2 8e e8 3d aa b2 c8 3f 97 96 c2 be
       0.17538735 0.11355342 1.5679524 -0.38005516
000030 08 62 25 bf 0b 85 a1 bf c6 46 84 bf 7f 57 28 3f
       -0.6460271 -1.2618726 -1.0334098 0.6575851
000040 89 f5 84 3d 7d a2 90 3f 04 60 a2 bf 8c 6d bb bf
       0.064921446 1.1299587 -1.2685552 -1.4642806
000050 f5 f3 a1 3f ff 4d 94 be bc 8a c7 bf 0b 6d 40 3f
       1.2652575 -0.28965756 -1.5589213 0.75166386
000060 b5 86 e6 be 18 5f b7 be 17 a2 26 bf a5 72 ee be
       -0.45024648 -0.35814738 -0.6509108 -0.46571842
000070 f0 b5 0c bc 92 f7 6f bf 9a 77 ec bc fb ea 8c bf
       -0.008588299 -0.9373714 -0.028865624 -1.100921
000080 45 eb 9b 3f 92 c0 b1 3f e4 cc 9c 3f 4f 99 53 bf
       1.2181174 1.3886893 1.2250028 -0.82655805
000090 e6 82 cf bf 5c 8d 9f be b9 9b f8 bf 67 4d 2e bf
       -1.6211822 -0.31162536 -1.9422523 -0.68086857
0000a0 e6 55 16 bf 4b 28 da bf 7c eb f2 bf ea c9 dd 3f
       -0.5872482 -1.7043546 -1.8978114 1.7327244
0000b0 6d 0e d9 bf 47 b8 14 3d 9f e3 92 3f da a8 b6 bd
       -1.6957527 0.036308553 1.1475714 -0.08918925
0000c0 b2 23 7b 3d 6a 1f 02 c0 a7 23 0c c0 05 1f a6 bf
       0.06131334 -2.0331674 -2.189676 -1.2978216
0000d0 c7 ba 1b bf 62 48 53 3f d9 bb 97 bc eb 08 91 3f
       -0.60831875 0.8253232 -0.01852219 1.1330847
0000e0 29 39 c6 be 57 73 6b bf e4 11 d2 bd e6 42 b0 3e
       -0.38715485 -0.9197287 -0.102573186 0.3442604
0000f0 ed dc be be 46 e7 5e bf 8a f9 14 3f a9 c6 77 bf
       -0.37277928 -0.87071645 0.58193266 -0.96787506

bn2.running_var f4 [64]
000000 d6 29 00 3f 92 c5 80 3f 98 17 31 40 97 05 27 3f
       0.50063837 1.0060294 2.767065 0.65242904
000010 f0 86 83 3f ce 5a d9 3e a3 0d 91 3e cf a4 f2 3f
       1.0275555 0.4245209 0.28330716 1.8956546
000020 11 20 48 40 25 14 4f 3f 39 15 e0 3e 56 fc fe 3e
       3.1269572 0.80890113 0.43766192 0.49801892
000030 0a 09 14 3f b0 c0 83 3f c1 cd a7 3f e3 20 2d 3f
       0.5782629 1.0293179 1.3109666 0.67628306
000040 af 9f 7e 3f 3b 89 66 40 ff 96 92 40 79 64 b8 3f
       0.9946241 3.602126 4.580932 1.4405662
000050 b9 f4 45 3f e0 9d 43 40 56 63 29 3f af b4 3e 3f
       0.7732654 3.056511 0.661672 0.7449445
000060 92 08 69 3f 2c 10 bb 3f dd 0a 24 40 b2 87 74 3f
       0.910287 1.461431 2.563163 0.95519555
000070 2c 2b 22 3f ea e7 10 40 f4 16 32 40 25 e7 54 3f
       0.63347125 2.264155 2.782651 0.831652
000080 6d 83 83 3f 36 77 27 3f b2 1d 37 40 aa 31 29 40
       1.0274483 0.65416276 2.8611875 2.6436563
000090 eb fd 8c 3f 36 e3 49 3f b4 ff d6 3f 46 f3 97 3f
       1.101499 0.7886232 1.6796784 1.1871116
0000a0 e4 9b 63 3f 97 c5 27 40 c2 97 a6 40 30 41 9c 3f
       0.88909745 2.621435 5.206025 1.2207394
0000b0 57 26 8f 3f 56 81 6f 3e 7f 61 12 3f 11 79 bf 3f
       1.1183575 0.23389181 0.5718002 1.4958822
0000c0 15 76 71 3f d8 b9 99 40 c0 69 8a 40 a6 b1 c6 3f
       0.94320804 4.803936 4.325409 1.5522964
0000d0 0c e5 94 3f 47 b0 8e 3f 4f 23 b7 3f a4 4e 2f 3f
       1.16324 1.1147546 1.430765 0.6847937
0000e0 d3 e8 cb 3e 68 20 27 40 ab 69 8a 40 40 7a aa 3e
       0.39826068 2.611353 4.325399 0.33296394
0000f0 9e dc ce 3f 80 6c 84 3f 6d 8a 2a 3e 37 b6 6e 3f
       1.6161077 1.0345612 0.16654368 0.9324679

fc3.weight f4 [64, 64]
000000 d6 95 04 be dd ac bc 3c 7f 29 6f be 43 fc 64 bd
       -0.12947783 0.023031646 -0.23355673 -0.055904638
000010 bf 69 fa 3d d8 69 14 be 45 03 1b 3e d6 ec 4e be
       0.12227201 -0.14493501 0.15137966 -0.20207533
000020 e4 85 0b be 63 14 50 be de 56 89 bd c8 8a 20 3e
       -0.13625294 -0.20320277 -0.06706022 0.15677941
000030 b5 ca cc 3c 4c 04 46 3d 83 87 52 bd 48 3f c1 bd
       0.024999002 0.04834394 -0.051398765 -0.09435898
000040 6b c6 29 3e 59 6a cf 3d 42 60 ce be 98 aa 6f be
       0.16579597 0.10127706 -0.40307814 -0.2340492
000050 57 7d 3c 3e ed a9 17 3e 6b 56 08 bc 62 a2 f1 bd
       0.18407188 0.14810915 -0.008321385 -0.1179855
000060 fd 9f 7c be 01 bc a4 3d 04 01 88 bd 30 3f 48 3e
       -0.24670406 0.080436714 -0.06640819 0.19555354
000070 8e 3f a9 be 55 d8 92 3c 72 bd 18 3e d0 73 81 3d
       -0.330563 0.01792542 0.14916018 0.063209176
000080 c1 17 37 3e b2 ef bc bd 4c 5d b0 3c 12 25 ab be
       0.17880155 -0.09225406 0.021528862 -0.3342672
000090 ac 8e fd bc fb 68 80 bd 7a 2e be 3e e5 43 ab be
       -0.03095182 -0.062700234 0.37144834 -0.33450237
0000a0 47 70 ac bd 95 72 0a be 8e 49 eb 3d ee 1b 54 3d
       -0.08419853 -0.13520272 0.11488639 0.05178445
0000b0 fe 31 6c bd 60 42 1b 3b 02 7e 17 bd ab f6 ad bd
       -0.057664864 0.0023690686 -0.036985405 -0.08494314
0000c0 23 3d 0d be 37 e4 e3 be 39 45 ab bd 61 77 33 3e
       -0.13792853 -0.44510052 -0.083628125 0.17526008
0000d0 0c 7b 89 be c9 7d 91 bd 5f 34 2d 3d 97 51 f0 3c
       -0.2685169 -0.0710407 0.042286273 0.02933578
0000e0 42 6e b8 3d 36 45 c3 3e 6a 06 e5 3d a8 bd 9b 3d
       0.09005405 0.3813874 0.11182864 0.076045334
0000f0 65 09 25 3e 4d 1b b0 bc 07 16 98 be 76 44 ab bd
       0.16116865 -0.021497393 -0.29704306 -0.08362667
000100 0f a7 a3 be ae 90 00 3d b6 4b 64 be a4 8c 82 be
       -0.31963393 0.031387977 -0.22294506 -0.25497925
000110 f3 ba 9e bd 8c 88 4f 3d 61 fc 32 3e 89 54 99 3d
       -0.077505015 0.05066733 0.17479087 0.07486827
000120 d8 69 aa 3c f3 ef 26 be 95 29 48 be 4d 29 f5 bd
       0.020802423 -0.16302471 -0.19547112 -0.11970768
000130 88 30 6f 3d c4 a7 76 bc 6c 8c a8 3e 59 e3 3e 3e
       0.058395892 -0.015054647 0.32919633 0.18641414
000140 3d 87 88 3d 69 42 cc bd 90 ea 81 bc 30 14 59 be
       0.0666642 -0.09973604 -0.015858918 -0.21199107
000150 d9 4a 58 3e 74 f6 bf 3e ca 93 34 be 2e f4 38 bc
       0.21122302 0.37492716 -0.17634502 -0.011288686
000160 ad 31 3e be eb 8f 4b bd ee 98 60 bd 32 b6 6e be
       -0.18573637 -0.049697798 -0.054833345 -0.2331169
000170 38 b1 f0 bd ee d1 9e 3d d1 48 85 3d ac c5 6e be
       -0.11752552 0.07754885 0.06508029 -0.23317593
000180 ba 44 02 3e f2 cb f6 3c a9 69 c7 bc 89 50 12 3e
       0.1272153 0.030126546 -0.024342375 0.14288534
000190 ec ea 1e be 66 47 c0 bc 00 e6 e6 3b 20 57 9a 3d
       -0.15519303 -0.023471545 0.007046461 0.07536149
0001a0 2c ce 81 be de c7 a4 be d0 c8 ca 3d 80 ba 8b 3c
       -0.2535261 -0.32183737 0.09901583 0.017056704
0001b0 56 69 a5 3b 98 df c3 bd 8e 1e a2 3e ad 10 d0 bc
       0.0050479574 -0.095641315 0.31663936 -0.025398577
0001c0 b0 7a c3 3c 07 4a 60 3d 3a b4 44 3d e0 f0 b8 bb
       0.023862213 0.054758098 0.04802344 -0.005643949
0001d0 a5 18 b8 3d 23 4b 67 be 68 7e b9 bb cc 10 4f bd
       0.089890756 -0.22587256 -0.0056608208 -0.050553128
0001e0 04 d5 90 3d d9 90 7b 3e 83 eb 51 3e 39 7d 0f 3d
       0.070718795 0.24566974 0.20499997 0.03503153
0001f0 59 ef ab 3c f1 94 d1 3d 53 93 d3 3e 20 3e 75 3e
       0.020988153 0.102334864 0.41323337 0.2394948
000200 2c 6f 3f bd d0 08 db 3a 66 94 f9 3c 85 e1 48 be
       -0.04673688 0.0016711 0.03046627 -0.19617279
000210 c5 a7 54 3e 78 e8 cd 3d 25 9e d7 3d f0 0a 25 3d
       0.20767124 0.100541055 0.105282106 0.040293634
000220 d6 f4 67 3d 53 12 89 3d 41 dc 5a 3e c5 8d 1f 3b
       0.056629978 0.06692948 0.21373083 0.0024345976
000230 9e 72 98 3e bb 22 cd bd 1b 24 f9 3d ad df ae 3e
       0.29774946 -0.1001639 0.1216509 0.34155026
000240 e8 36 75 3c 25 d2 4c 3d d0 31 86 be 41 92 3b 3d
       0.014966704 0.050005097 -0.2620988 0.045793775
000250 46 c2 03 bf b3 c0 31 3d 37 ef fd bc 25 0b e6 bd
       -0.5146831 0.043396663 -0.030997856 -0.112325944
000260 9f 48 16 3e 9a f0 72 bd 34 9e a2 be 70 97 ef 3c
       0.1467614 -0.059311487 -0.31761324 0.029247016
000270 f3 7c 9b be 45 b5 c7 3d ca 0f 91 3d 82 ce b3 3d
       -0.30368766 0.09751371 0.0708309 0.087796226
000280 03 49 ba 3d da 15 67 3d 77 92 55 3d f2 89 61 3e
       0.09095957 0.056417324 0.052141633 0.22025278
000290 0c 2c fa be 95 c6 09 3e b6 69 42 3e bc a9 01 bc
       -0.4886173 0.1345466 0.18985638 -0.007914003
0002a0 41 b5 2c be ed a5 48 3e da 1c 39 be 31 18 59 be
       -0.16866018 0.19594546 -0.18077412 -0.21200635
0002b0 55 fa ae bc 19 f5 af 3d 74 25 99 bd 4f fd 14 3e
       -0.021359602 0.085916705 -0.07477847 0.14549755
0002c0 f2 bf de 3d 97 eb 3b be f3 fa c3 bd 48 a7 58 be
       0.108764544 -0.18351589 -0.09569349 -0.21157563
0002d0 87 ee 20 3d 8f 9d cc bd 30 d0 92 bc b7 f0 5f be
       0.039289977 -0.099909894 -0.017921537 -0.21869169
0002e0 5d 83 18 3e a5 92 8d 3e 7c 21 fe 3d 97 28 9b 3d
       0.14893861 0.27650943 0.124087304 0.07576101
0002f0 10 e8 0b 3e 6b 9d 82 bd 23 ce 5d 3e 51 01 62 3e
       0.13662744 -0.06377681 0.21660666 0.22070815
000300 83 3e b5 3e 96 18 21 3e 5c a5 80 bd ec 1e ca bd
       0.35399255 0.15732035 -0.0628154 -0.09869179
000310 14 df 3c bd ab 42 1a bd e5 0f 28 3d 3e 2e e0 3d
       -0.04611118 -0.037661236 0.041030783 0.1094632
000320 b2 a3 ca bd a3 ca 58 be 18 e2 56 be 14 97 32 3e
       -0.09894504 -0.2117105 -0.20984685 0.17440444
000330 0f 92 90 be 11 a0 4f 3d e4 53 40 be 03 b7 28 be
       -0.28236434 0.05068976 -0.18782002 -0.16476063
000340 6e c4 60 3e e6 06 84 bd 1d 16 00 be 47 c5 db 3e
       0.21949932 -0.06446628 -0.12508436 0.42923948
000350 d2 21 83 3e bd 43 3e be 4a 22 81 bd d3 74 dc 3d
       0.2561174 -0.18580528 -0.06305368 0.1076447
000360 bb 6a 0f 3d 06 b0 59 3e 13 96 46 bd 1c 89 97 bd
       0.035013895 0.21258554 -0.048482966 -0.073991984
000370 19 5c a8 3c 1b b1 a1 b9 f4 d6 0a 3e cf 57 49 bd
       0.020551728 -0.00030840267 0.1355856 -0.049156006
000380 cc 9c 2b be 7d dc 12 3e 80 b7 e7 3c cd 5f 6c bd
       -0.16759032 0.14341922 0.028285742 -0.05770855
000390 3e e4 f2 bd ff e9 88 3b 9c 88 15 bc 8c 25 50 3e
       -0.1185994 0.004178285 -0.0091268085 0.20326823
0003a0 bf 93 9b 3c a8 c4 03 3e b0 2c a4 3d 61 f0 8f 3e
       0.01899135 0.12867987 0.08016336 0.28113082
0003b0 c7 bd 03 3c c7 e2 2b 3d a6 ef bd be f2 20 87 be
       0.008040852 0.04196432 -0.370969 -0.26392323
0003c0 cc 27 97 be ae cc 52 3d a4 85 6f 3e de 87 00 bc
       -0.2952255 0.05146473 0.23390824 -0.007844893
0003d0 df 02 a0 bb 68 9b d3 3d 01 22 0b 3e 0c 54 1c 3e
       -0.0048831548 0.10332376 0.1358719 0.15266436
0003e0 0e f4 9f 3e 98 1c b8 be 04 1d 8d 3e 57 70 b5 3e
       0.31240886 -0.35959315 0.275612 0.3543727
0003f0 83 0e 5d bb 76 90 88 3c c5 9a 0b bd cd 4f 24 3e
       -0.0033730573 0.016670447 -0.034083147 0.16046067

fc3.bias f4 [64]
000000 09 33 d1 3c 87 15 71 3d 3a b6 94 3c d7 d8 0d be
       0.02553703 0.05885842 0.018153299 -0.13852249
000010 b6 8b 9f bd 40 5f ed 3d ec 1d c9 be 0a b1 b7 be
       -0.077903196 0.11590433 -0.3928064 -0.35877258
000020 b2 21 0c be 5e ba 44 be a9 a9 46 bd ad 4e b3 be
       -0.13684729 -0.19211718 -0.048501644 -0.35020962
000030 c9 fa 83 be 59 98 0d 3d 54 5b 58 be 4b b8 07 3c
       -0.2577727 0.03456912 -0.21128589 0.008283685
000040 ea 8e f0 bd d2 f6 93 bc 8e 91 22 be ce ee 8c 3d
       -0.11746009 -0.018062029 -0.15875837 0.06881486
000050 90 07 24 be 87 2c 2b be a1 f6 5d be c2 1b 35 be
       -0.1601851 -0.16716205 -0.21676113 -0.1768637
000060 14 13 3e bc e8 27 74 bd 92 e7 19 3d a2 a6 e1 be
       -0.011601228 -0.05960837 0.03757436 -0.44072443
000070 15 9d d4 bc 06 19 9d be d3 99 9e 3a 19 8e 10 3e
       -0.025953809 -0.30683154 0.0012100287 0.14116706
000080 dc 50 73 3e 1d 35 d2 3d a4 a5 05 be d7 77 a8 be
       0.23761314 0.10264037 -0.13051468 -0.3290393
000090 12 d5 0d 3e 77 a2 b4 be 59 d9 10 be 52 5b 5d bc
       0.13850811 -0.352802 -0.14145412 -0.013510542
0000a0 46 38 2f 3d 54 fb 02 be 05 da 81 be ce c7 92 be
       0.042778276 -0.12791187 -0.25361648 -0.28668064
0000b0 db 9f 94 be ab 98 78 bd e9 ee 3d 3c 81 70 ec bc
       -0.2902821 -0.06069247 0.011592605 -0.02886224
0000c0 40 b7 5d bd ee 86 11 be 68 53 8e be 7a de d9 3d
       -0.05412984 -0.14211628 -0.2779801 0.10638137
0000d0 ff 79 16 be 7c a8 c1 bd 09 8a 35 bd 8a c0 b7 3d
       -0.14694975 -0.09455964 -0.044321094 0.08972271
0000e0 2b 7c 30 3e 17 2d dd be ba 2d d6 3d c5 28 07 3d
       0.17234866 -0.43198463 0.104579404 0.032997865
0000f0 ce 98 d6 be 04 40 a3 bd d5 9a 78 3d b3 79 b3 3d
       -0.41913456 -0.079711944 0.060694534 0.08763447

bn3.weight f4 [64]
000000 d3 75 8f 3f 24 3f a7 3f 37 c5 9c 3f ef b2 9f 3f
       1.1207832 1.3066144 1.2247685 1.2476481
000010 52 3a 9c 3f b5 97 cc 3f 76 18 0c 40 c5 8d b9 3f
       1.2205298 1.5983797 2.188993 1.449639
000020 83 0d 8e 3f cf 73 82 3f 24 c0 16 40 9c 62 21 40
       1.1097873 1.0191592 2.3554773 2.5216436
000030 94 31 a4 3f 94 d5 8e 3f ea 57 ac 3f 81 3c 96 3f
       1.282763 1.1158929 1.3464329 1.1737214
000040 6f df 94 3f 4e ae cb 3f c7 50 98 3f 04 1e 8d 3f
       1.1630687 1.5912569 1.1899651 1.1024785
000050 0b aa ad 3f 29 b6 8d 3f 11 98 c3 3f a9 04 95 3f
       1.3567518 1.1071216 1.5280782 1.1642047
000060 37 a4 97 3f 3f e2 93 3f c7 7f 92 3f 91 7c 18 40
       1.1846989 1.155342 1.1445245 2.382603
000070 b3 50 8d 3f c8 25 db 3f 25 18 8c 3f 93 18 a0 3f
       1.1040252 1.7120905 1.0944868 1.25075
000080 b6 2a a9 3f 92 2a a3 3f 1c 45 97 3f 5c f4 ed 3f
       1.3216159 1.2747366 1.1817966 1.8590198
000090 e6 f3 9c 3f 48 18 0c 40 1c 5b a8 3f dd e5 cf 3f
       1.2261932 2.188982 1.3152804 1.6242024
0000a0 45 d1 07 40 a6 15 93 3f db 24 b1 3f 9b d0 b6 3f
       2.1221478 1.1490982 1.3839372 1.4282411
0000b0 f4 0d 23 40 9e c7 ba 3f 38 51 85 3f 4b d3 97 3f
       2.5477266 1.4592168 1.0415411 1.1861356
0000c0 d3 0e 95 3f fc 59 cf 3f 37 03 07 40 c2 0b 94 3f
       1.1645149 1.6199336 2.1095712 1.1566088
0000d0 ea 62 e5 3f 4f 1b 8f 3f 2e ff a4 3f a2 73 9a 3f
       1.7920811 1.1180209 1.2890375 1.2066538
0000e0 e4 f7 82 3f 28 60 0e 40 4b d0 95 3f 7a 8f 95 3f
       1.02319 2.224619 1.1704191 1.168441
0000f0 d4 e0 06 40 55 8a a8 3f ca 34 8d 3f e2 89 bf 3f
       2.1074724 1.3167216 1.1031735 1.4963953
