myrobot/src/SAC/saved_model/1206_1/sac_1056.pt (torch, 47503 bytes, 8 tensors)

fc1.weight f4 [128, 4]
-0.7194333 -0.11150088 0.4479127 -0.16339664 -0.8415327 0.28487152 0.31775114 -0.025223294
1.3786082 -0.12449805 0.14778957 -0.10963715 -0.96061015 0.01969349 0.17749816 0.14781332
-1.1132027 0.13979924 -0.7846073 0.03213419 0.5964449 0.49407756 -1.2579983 -0.060624
0.9001529 -0.18850374 -0.32480735 0.02954561 -0.6949385 -0.9685472 -0.46589833 0.09469343
-0.96712947 -0.6086664 0.58699155 0.009125818 0.08000315 -0.18155965 -0.8473852 -0.0015178999
-0.07804746 0.15455368 -0.45264465 0.19976878 1.2060198 -0.5630832 -1.1698788 0.099090986
0.7704994 0.5332736 0.2773493 -0.16611058 2.2749135 -0.3802504 -0.058032934 0.007697078
-0.8958787 0.1166823 0.20013283 -0.004999464 0.39689583 0.005945209 -0.7185229 -0.3907005
-1.0290391 -0.5742598 0.3238813 0.008281547 2.1782148 0.58346456 0.09997478 -0.029356502
-0.5567324 -0.36020014 -0.9519278 0.052047167 0.8980549 -0.051660873 0.49150565 -0.2155273
-1.9751463 -0.50649005 -0.89417386 0.079214655 -0.2526259 0.2570787 -0.62995315 -0.069635965
-1.2133366 -0.42374542 0.40475667 0.24873413 0.39918855 0.717346 -1.0297319 -0.03123255
-0.98361677 0.14746034 0.2697626 0.043109547 -1.3276904 0.5347828 0.4004464 -0.03601915
-0.7075928 0.33147374 -0.08967864 -0.055307146 -0.65923804 -0.40602067 -0.102910064 0.0024558285
-2.0894868 -0.09889459 -0.2588254 0.006935667 2.0907872 -0.74378115 0.6125661 0.03127441
-0.33033225 0.14944218 0.9430615 -0.019124785 0.30661717 -0.32014838 0.52115613 -0.25706482
0.1735581 -0.103127174 0.6890796 0.12341409 2.168703 -0.68818885 -0.70337677 0.06292688
1.3461236 0.26595366 -0.3363926 -0.0055673956 0.12633072 0.34567836 -0.14698648 -0.078642614
-0.8225847 -0.2535649 0.30423304 0.015327152 -0.7019593 -0.44804612 -1.3385005 0.09962248
-0.5672916 -0.50570965 0.15496239 -0.22080737 -0.56356364 -0.13218033 -1.962388 0.020611152
1.5336583 0.57392657 -0.112872876 -0.02684614 -0.0023253304 0.03373761 -0.09456934 0.16369265
1.1276044 0.31703588 -0.37829438 -0.038251277 0.12546022 0.5252686 -1.5358741 0.0047511985
-0.15786846 0.24154992 0.922221 -0.0008916601 0.453697 0.09432901 -0.64099765 -0.18251164
-1.4227129 -0.5423825 0.3944409 0.042235576 -1.7444181 -0.51288944 0.31007996 0.01188071
0.3853008 0.44560307 -0.30144334 -0.03371675 0.7487735 -0.369079 0.13811985 -0.050401405
-1.6173643 0.15975438 0.26280093 0.0024954223 1.749735 0.30398455 0.06826541 0.010255636
0.1434731 -0.3548164 0.2656966 -0.30769914 0.50191295 -0.03043321 -1.4667687 0.079330005
-0.007327118 0.13924606 0.32073936 -0.024544425 -0.7407776 0.4409925 -0.7742031 -0.15484507
-1.271043 0.0989789 0.38125387 0.06400976 -0.4049276 -0.64976186 0.56942445 -0.19305637
1.4589412 0.319927 -0.59358543 0.015221754 0.5858932 0.24902976 0.57146764 0.206353
-1.3070145 0.103242874 -0.4062272 0.01658628 -0.614111 -0.015633574 0.44582227 0.012964372
0.20215236 -0.019413983 -0.09218917 -0.020441944 1.3382002 0.039690867 -0.4659097 0.07687763
00000000: c82c 38bf 935a e4bd d054 e53e 7351 27be
00000010: b06e 57bf aeda 913e 47b0 a23e 15a1 cebc
00000020: 3c76 b03f d5f8 febd 2656 173e 7189 e0bd
00000030: 8cea 75bf 3e54 a13c 14c2 353e 605c 173e
00000040: 6d7d 8ebf 8827 0f3e 06dc 48bf 249f 033d
00000050: 9db0 183f bcf7 fc3e 1706 a1bf df50 78bd
00000060: 6c70 663f 2007 41be 264d a6be a309 f23c
00000070: 7de7 31bf b6f2 77bf 3a8a eebe a1ee c13d
00000080: cc95 77bf 90d1 1bbf 1445 163f 7484 153c
00000090: b1d8 a33d c6ea 39be 3dee 58bf 45f4 c6ba
000000a0: 59d7 9fbd 5243 1e3e 0ac1 e7be 3090 4c3e
000000b0: db5e 9a3f 3826 10bf 97be 95bf 37f0 ca3d
000000c0: 733f 453f 9e84 083f ba00 8e3e e418 2abe
000000d0: 2f98 1140 2eb0 c2be f1b3 6dbd c537 fc3b
000000e0: 4e58 65bf 21f7 ee3d 9fef 4c3e 8bd2 a3bb
000000f0: ee35 cb3e 07d0 c23b 1ef1 37bf e509 c8be
00000100: 8eb7 83bf b102 13bf c5d3 a53e 53af 073c
00000110: df67 0b40 ef5d 153f 94bf cc3d 0c7d f0bc
00000120: 0486 0ebf 276c b8be 8ab1 73bf 692f 553d
00000130: ede6 653f 5a9a 53bd a1a6 fb3e 30b3 5cbe
00000140: 98d1 fcbf 55a9 01bf 94e8 64bf 4b3b a23d
00000150: 2f58 81be d29f 833e 9c44 21bf 4d9d 8ebd
00000160: 9d4e 9bbf 29f5 d8be 443c cf3e 29b4 7e3e
00000170: 7162 cc3e fda3 373f 41ce 83bf 68db ffbc
00000180: 4fce 7bbf d8ff 163e 531e 8a3e a393 303d
00000190: c2f1 a9bf 87e7 083f 4f07 cd3e d188 13bd
000001a0: cd24 35bf edb6 a93e 6fa9 b7bd bf89 62bd
000001b0: d3c3 28bf f1e1 cfbe 83c2 d2bd f7f1 203b
000001c0: 27ba 05c0 3f89 cabd c384 84be 9744 e33b
000001d0: 75cf 0540 7168 3ebf 22d1 1c3f 9919 003d
000001e0: 4f21 a9be 5f07 193e 7a6c 713f 95ab 9cbc
000001f0: edfc 9c3e 7dea a3be 7d6a 053f 009e 83be
00000200: 37b9 313e 5734 d3bd 8567 303f 87c0 fc3d
00000210: 08cc 0a40 252d 30bf 8010 34bf cfdf 803d
00000220: c74d ac3f 142b 883e a73b acbe b36e b6bb
00000230: d75c 013e c1fc b03e a083 16be 610f a1bd
00000240: e994 52bf 42d3 81be 6fc4 9b3e bc1e 7b3c
00000250: 9bb3 33bf 4d66 e5be fc53 abbf df06 cc3d
00000260: 063a 11bf 3076 01bf 76ae 1e3e 541b 62be
00000270: b545 10bf 485a 07be 882f fbbf b8d8 a83c
00000280: ea4e c43f daec 123f e529 e7bd 70ec dbbc
00000290: 9264 18bb 7330 0a3d 92ad c1bd 0c9f 273e
000002a0: 5755 903f 8752 a23e cdaf c1be 5fad 1cbd
000002b0: a578 003e 0178 063f 8697 c4bf f1af 9b3b
000002c0: 45a8 21be dd58 773e ad16 6c3f 4cbe 69ba
000002d0: f94a e83e 912f c13d 6c18 24bf 55e4 3abe
000002e0: 751b b6bf 94d9 0abf 28f4 c93e 36ff 2c3d
000002f0: 1849 dfbf b94c 03bf cdc2 9e3e 4fa7 423c
00000300: 2546 c53e 1626 e43e c856 9abe 931a 0abd
00000310: 9faf 3f3f ecf7 bcbe 4a6f 0d3e b471 4ebd
00000320: cb05 cfbf a796 233e d88d 863e 3d8a 233b
00000330: 51f7 df3f dda3 9b3e bcce 8b3d 4107 283c
00000340: 9dea 123e 7faa b5be 6209 883e be8a 9dbe
00000350: 5e7d 003f 114f f9bc 14bf bbbf c577 a23d
00000360: 5218 f0bb 8596 0e3e f337 a43e 6411 c9bc
00000370: 9aa3 3dbf c5c9 e13e 2d32 46bf b58f 1ebe
00000380: 89b1 a2bf 73b5 ca3d b533 c33e 8d17 833d
00000390: ac52 cfbe cb56 26bf cdc5 113f 92b0 45be
000003a0: 96be ba3f 79cd a33e 37f5 17bf aa64 793c
000003b0: 19fd 153f a801 7f3e b44b 123f 334e 533e
000003c0: 404c a7bf 0071 d33d 03fd cfbe f3df 873c
000003d0: 6136 1dbf fb11 80bc d142 e43e 8468 543c
000003e0: 0701 4f3e 130a 9fbc adcd bcbd dd75 a7bc
000003f0: 254a ab3f e492 223d b78b eebe 0572 9d3d

fc1.bias f4 [128]
0.592757 0.7332188 0.39746484 0.7291173 -1.2479762 0.009902197 1.3905919 -1.7208948
0.02628624 -1.2082684 1.0337758 0.82973576 0.41768357 -0.12397126 -0.039222546 -0.106235825
0.6767865 -0.21184872 1.1073737 0.0048387395 -0.6185465 -0.03432944 -0.51487803 -0.36270735
0.4658362 0.41011316 0.5060615 -1.8510951 0.55732083 0.07759407 0.89202064 -0.44539058
-1.2069273 -0.49560294 0.4080736 1.0399323 0.113221236 -1.1217648 0.05058135 0.36068615
0.065976776 0.9716307 -0.3503003 0.37130678 -0.5541914 -0.29077733 -0.64780945 1.4132453
0.40926054 -1.2838674 -0.36633936 -0.49132514 -0.15534757 0.61325645 1.3667346 0.1751873
-1.380842 0.258837 0.28304744 0.6152007 -0.1674834 -0.92625844 1.3949817 1.6593918
-0.76034135 -0.77754426 -1.8882872 -1.0524948 -0.96594954 -0.7035454 -1.613403 -0.042191572
0.19228771 -0.34620738 0.9887823 -1.4850638 -0.9193373 -1.4139509 -0.7734227 -0.17701045
-1.7118325 0.39328468 0.029133651 -0.31728986 0.7129196 -0.876396 -0.03698716 -0.38014543
1.2705437 -0.9969875 0.41600758 -1.4332365 -1.4618962 0.76716036 1.3447236 1.1228116
0.25537664 1.2831651 0.50624627 -1.3319824 -0.07350276 1.4280521 -1.2297676 -0.3397705
1.0177228 -0.30982906 0.13130347 -1.4272166 -0.07249882 -0.50885046 -1.7949558 1.3071024
1.4606435 0.34305522 -1.4005185 -0.1996154 1.4787701 0.80401504 1.5133554 -1.4445791
0.13743281 1.7489753 1.5909458 0.5258862 -1.0610619 -1.3011739 0.34563267 -0.180074
00000000: ecbe 173f 3ab4 3b3f 8380 cb3e 6ea7 3a3f
00000010: afbd 9fbf d33c 223c eafe b13f 4846 dcbf
00000020: 3e56 d73c 8aa8 9abf c452 843f 9069 543f
00000030: 9fda d53e a5e4 fdbd d2a7 20bd 2b92 d9bd
00000040: e141 2d3f dfee 58be 6cbe 8d3f 4a8e 9e3b
00000050: 1059 1ebf 079d 0cbd 0ccf 03bf c7b4 b9be
00000060: 1582 ee3e 5afa d13e 3f8d 013f aff0 ecbf
00000070: 94ac 0e3f a4e9 9e3d 775b 643f 3c0a e4be
00000080: 987c 9abf abbf fdbe 06ef d03e 801c 853f
00000090: 89e0 e73d fd95 8fbf 642e 4f3d dbab b83e
000000a0: d51e 873d cabc 783f 905a b3be ec1b be3e
000000b0: 7ddf 0dbf c4e0 94be d7d6 25bf 39e5 b43f
000000c0: 998a d13e c455 a4bf d590 bbbe f88e fbbe
000000d0: 6f13 1fbe 60fe 1c3f 29f1 ae3f 4d64 333e
000000e0: 6ebf b0bf 4986 843e 98eb 903e cb7d 1d3f
000000f0: c580 2bbe 461f 6dbf c38e b23f f366 d43f
00000100: bba5 42bf 240d 47bf 65b3 f1bf 26b8 86bf
00000110: 7848 77bf 8d1b 34bf fd83 cebf 12d1 2cbd
00000120: 12e7 443e 1842 b1be d620 7d3f 9216 bebf
00000130: b059 6bbf 58fc b4bf 08ff 45bf 3a42 35be
00000140: 541d dbbf 9c5c c93e b2a9 ee3c d173 a2be
00000150: e681 363f 7d5b 60bf d97f 17bd 6ca2 c2be
00000160: 2da1 a23f 933a 7fbf f2fe d43e 4b74 b7bf
00000170: 6a1f bbbf 9f64 443f e71f ac3f 4ab8 8f3f
00000180: bac0 823e c13e a43f 5b99 013f 667e aabf
00000190: 9d88 96bd 69ca b63f 0669 9dbf 66f6 adbe
000001a0: be44 823f eaa1 9ebe 6b74 063e 09af b6bf
000001b0: 437a 94bd 0644 02bf 1dc1 e5bf 224f a73f
000001c0: 5ef6 ba3f efa4 af3e 3144 b3bf fb67 4cbe
000001d0: 5748 bd3f eed3 4d3f a1b5 c13f f8e7 b8bf
000001e0: 30bb 0c3e 6cde df3f 1da4 cb3f 7aa0 063f
000001f0: e0d0 87bf de8c a6bf c4f6 b03e 5265 38be

fc2.weight f4 [64, 128]
-0.0010021852 0.14426535 -0.15762344 0.016343614 -0.30449346 -0.1933689 0.15763874 -0.36692232
-0.60635763 -0.059902288 0.10544765 0.15949501 -0.053140946 -0.7499694 -0.03926132 0.03698884
-0.19081813 -0.16607155 0.102845706 -0.2654255 0.0038089368 -0.2185737 1.1583077e-05 -0.14875978
0.010527782 -0.07658351 0.060692374 -0.10453158 0.15540476 -0.165536 0.0891538 -0.09383461
-0.064426236 0.12829614 -0.37093568 0.23053387 -0.24004357 0.1550917 -0.049965557 0.07012115
-0.32467753 0.06343679 -0.5105095 0.18517756 0.025802067 0.12864108 -0.08445777 0.14665936
0.10996718 -0.14985757 -0.18891351 -0.1436164 0.07117342 -0.0078262985 0.22847025 0.12508492
-0.11457812 0.06676148 0.05484082 0.07274955 0.23364522 -0.30109087 -0.24633993 0.12505604
-0.050696425 -0.3606499 -0.12257816 0.007993159 -0.09037707 -0.30611166 -0.67438996 -0.19422947
0.024484022 -0.10408516 0.1438684 -0.08396253 0.08569092 -0.20083147 -0.15357491 -0.030720102
-0.3311977 -0.1203601 -0.2124543 0.059504136 -0.15310909 -0.049480986 0.0031601705 -0.046698306
-0.0011781025 -0.32791394 0.28367013 -0.88175756 -0.11710458 0.19870596 -0.013368666 0.22054307
0.013248397 0.13386181 0.05641143 0.014031872 0.019743223 0.10414516 -0.12766269 -0.31557354
-0.04507529 0.054647878 0.095663935 -0.0683827 0.06842361 -0.10520764 0.028670657 0.1334689
0.15162869 -0.11749849 -0.040411603 -0.07299817 0.072871245 -0.10963972 0.2017857 -0.09665109
-0.02984604 0.26322564 0.08519654 0.03624882 -0.008667577 0.03520321 -0.031675182 0.055408936
0.09384078 0.14787428 -0.109207414 -0.08250487 0.08329119 -0.04747795 -0.117399946 0.13739784
0.16753685 0.10213683 0.026564954 -0.10595976 -0.055147145 0.25725678 0.027471216 -0.049562242
0.27326688 0.20488581 -0.075106874 -0.059215553 0.09637404 -0.070174366 0.09121262 -0.29849005
-0.0020662856 0.25695282 0.048867308 0.22609112 -0.051277842 -0.16826157 -0.27269307 0.081642486
0.065857336 -0.16179632 -0.18772627 -0.13178241 0.043914486 0.062299486 -0.025263492 -0.20706582
-0.16960487 0.055224437 0.014760928 -0.23382661 0.013421647 -0.008679043 0.11042254 -0.08346592
-0.1172399 0.032244027 0.6460248 0.053775806 -0.036765788 -0.004832943 -0.030918973 -0.065432996
0.10771861 0.115835644 -0.010060247 -0.082177155 -0.11654053 0.11416574 -0.1563113 -0.12803382
0.06872559 0.5359228 -0.00016110034 0.08780614 0.06679387 0.085310884 1.2177515 -0.6664948
0.22672774 0.11175731 -0.053162403 0.04508995 0.062189855 0.14927758 -0.059314404 -0.12277099
0.23522215 -0.020695344 0.22511137 -0.019432459 -0.29754755 0.022968763 0.18792166 0.0386314
-0.3817173 0.11205767 -0.01033258 0.6068153 0.041621152 -0.12970647 -0.062324695 -0.59032995
0.028201008 -0.0388615 0.040275782 -0.032679863 -0.07728398 -0.000924634 0.058282755 0.08556952
-0.07487626 0.08190211 0.009777638 -0.009014976 -0.053436067 -0.038815647 0.025382778 -0.06836058
-1.1206812 -0.23529622 0.048287407 0.013674549 -0.6734172 0.029839193 -0.05286642 0.08214619
0.028397564 -0.5999464 -0.04765551 -0.0551844 0.072248444 0.082828626 -0.017966494 -0.015497218
00000000: c15b 83ba 4cba 133e 0a68 21be 0be3 853c
00000010: 91e6 9bbe 7f02 46be 0d6c 213e 3edd bbbe
00000020: 413a 1bbf 1a5c 75bd f0f4 d73d a952 233e
00000030: 52aa 59bd fffd 3fbf 7ad0 20bd 9c81 173d
00000040: d465 43be a90e 2abe c5a0 d23d dae5 87be
00000050: 5b9f 793b c9d1 5fbe f054 4237 7c54 18be
00000060: b87c 2c3c d1d7 9cbd 9198 783d a714 d6bd
00000070: 6d22 1f3e 4582 29be 4496 b63d 5c2c c0bd
00000080: e7f1 83bd 1060 033e 48eb bdbe 1211 6c3e
00000090: fbcd 75be 5cd0 1e3e afa8 4cbd ad9b 8f3d
000000a0: 223c a6be 26eb 813d c0b0 02bf 309f 3d3e
000000b0: db5e d33c 7dba 033e 32f8 acbd df2d 163e
000000c0: 7936 e13d 4374 19be 8b72 41be 2d10 13be
000000d0: 5fc3 913d e039 00bc 1bf4 693e 4316 003e
000000e0: efa7 eabd 3eba 883d c5a0 603d b7fd 943d
000000f0: b140 6f3e 9528 9abe 8940 7cbe b10e 003e
00000100: 0ea7 4fbd 1ba7 b8be 420a fbbd bdf5 023c
00000110: 9d17 b9bd abba 9cbe d2a4 2cbf 17e4 46be
00000120: b792 c83c 9a2a d5bd 3d52 133e 8cf4 abbd
00000130: b97e af3d c4a6 4dbe be42 1dbe b9a8 fbbc
00000140: bf92 a9be 5b7f f6bd 9f8d 59be 9cba 733d
00000150: a1c8 1cbe 93ac 4abd dd1a 4f3b b946 3fbd
00000160: 8f6a 9aba 56e4 a7be 363d 913e ddba 61bf
00000170: 87d4 efbd 9379 4b3e 4008 5bbc 0bd6 613e
00000180: ce0f 593c 1213 093e ac0f 673d f0e5 653c
00000190: 8abc a13c 0f4a d53d 02ba 02be db92 a1be
000001a0: dea0 38bd 74d6 5f3d 74eb c33d 3b0c 8cbd
000001b0: ad21 8c3d 1a77 d7bd bade ea3c 12ac 083e
000001c0: 8d44 1b3e 0ca3 f0bd a386 25bd 1180 95bd
000001d0: 853d 953d ca8a e0bd e9a0 4e3e 02f1 c5bd
000001e0: af7f f4bc 83c5 863e 867b ae3d a579 143d
000001f0: 7402 0ebc 3e31 103d d6bd 01bd 7bf4 623d
00000200: 982f c03d 5b6c 173e 23a8 dfbd 50f8 a8bd
00000210: 9294 aa3d 3d78 42bd 626f f0bd 05b2 0c3e
00000220: c88e 2b3e 1d2d d13d bf9e d93c 6e01 d9bd
00000230: f9e1 61bd 29b7 833e 510b e13c c701 4bbd
00000240: a3e9 8b3e 96cd 513e a2d1 99bd 028c 72bd
00000250: c15f c53d 94b7 8fbd afcd ba3d b0d3 98be
00000260: 856a 07bb 528f 833e 1629 483d 6e84 673e
00000270: b708 52bd c34c 2cbe 6d9e 8bbe 2d34 a73d
00000280: 36e0 863d efad 25be 513b 40be f8f1 06be
00000290: addf 333d bf2d 7f3d 62f5 cebc 1009 54be
000002a0: e6ac 2dbe 0533 623d d2d7 713c 3e70 6fbe
000002b0: 78e6 5b3c 8b32 0ebc 3625 e23d 2ef0 aabd
000002c0: 791b f0bd 5012 043d e261 253f 0544 5c3d
000002d0: b997 16bd aa5d 9ebb c949 fdbc bc01 86bd
000002e0: 939b dc3d 3d3b ed3d bcd3 24bc 7f4c a8bd
000002f0: cdac eebd bacf e93d 1210 20be 4c1b 03be
00000300: 01c0 8c3d 3d32 093f 0bed 28b9 b5d3 b33d
00000310: 39cb 883d 79b7 ae3d 48df 9b3f 679f 2abf
00000320: 512b 683e 04e1 e43d d2c0 59bd 3db0 383d
00000330: caba 7e3d 39dc 183e a9f3 72bd 5b6f fbbd
00000340: 13de 703e 4889 a9bc 9883 663e d230 9fbc
00000350: 2758 98be fd28 bc3c 896e 403e f53b 1e3d
00000360: 7370 c3be 7e7e e53d fb49 29bc 3f58 1b3f
00000370: f17a 2a3d c6d1 04be 2e48 7fbd dd1f 17bf
00000380: cd05 e73c 3c2d 1fbd 38f8 243d 52db 05bd
00000390: 1047 9ebd 2363 72ba e6b9 6e3d 133f af3d
000003a0: b958 99bd 4bbc a73d 6332 203c 8db3 13bc
000003b0: c7df 5abd 28fd 1ebd 8bef cf3c a200 8cbd
000003c0: 7b72 8fbf 7ef1 70be 04c9 453d 370b 603c
000003d0: 1265 2cbf 5371 f43c 768a 58bd 433c a83d
000003e0: 02a2 e83c 1696 19bf 6d32 43bd 0a09 62bd
000003f0: fef6 933d 0ea2 a93d 782e 93bc 0be8 7dbc

fc2.bias f4 [64]
0.48422208 -1.1982565 -0.3511913 0.29434672 0.008923446 0.7036857 -1.3634272 0.6448051
0.3825968 0.17529 0.96955156 0.5743544 0.037026558 0.87944776 0.6424924 0.71050054
0.42294663 -0.21074076 -0.15480867 -0.042893894 -0.59851044 -1.3684143 0.37761042 0.16565835
0.6384173 0.034813523 0.6058443 0.35966137 0.12823208 0.14120717 -0.48544532 0.50828356
-0.08877989 0.047022182 0.5557234 0.31012824 -0.30363107 0.4570791 0.66174 0.890464
-0.22641928 1.0479839 -0.22603635 -1.1390213 -0.004722599 -0.117449895 0.2833765 0.25479472
0.003302056 -0.61010844 0.52840215 0.37493083 -1.0715773 0.09799695 -0.35075662 0.21638028
-1.1325669 0.025448833 0.802109 -0.36202264 -0.3834004 0.32845098 0.17979743 0.5143331
00000000: f5eb f73e 7860 99bf 59cf b3be 9db4 963e
00000010: a533 123c bf24 343f c884 aebf f211 253f
00000020: bae3 c33e 397f 333e 8834 783f e408 133f
00000030: 29a9 173d 7d23 613f 627a 243f 5de3 353f
00000040: 768c d83e 6dcc 57be 2a86 1ebe 82b1 2fbd
00000050: fb37 19bf 3328 afbf 2756 c13e 58a2 293e
00000060: 516f 233f a098 0e3d 9d18 1b3f 8925 b83e
00000070: 454f 033e 9d98 103e 4a8c f8be df1e 023f
00000080: 3bd2 b5bd 559a 403d e443 0e3f 21c9 9e3e
00000090: 8875 9bbe 4606 ea3e cb67 293f 73f5 633f
000000a0: 75da 67be 5624 863f 1376 67be 73cb 91bf
000000b0: 08c0 9abb 9289 f0bd b916 913e 7474 823e
000000c0: 4f67 583b 1130 1cbf 5d45 073f eff6 bf3e
000000d0: 7229 89bf a0b2 c83d 5f96 b3be cb92 5d3e
000000e0: f4f7 90bf 127a d03c 0457 4d3f 085b b9be
000000f0: 0f4d c4be ba2a a83e d11c 383e 56ab 033f

fc3.weight f4 [32, 64]
0.11675363 -0.11572441 -0.010008016 0.0036919678 0.04489351 -0.0110033285 -0.06427819 -0.12765451
-0.15462928 0.059737734 0.15047705 -0.09578751 0.012833185 -0.27630153 -0.0683607 -0.49766967
-0.029630816 0.055831343 -0.017576287 -0.19218773 0.10860891 0.16031376 -0.38178805 0.028659241
0.06590259 -0.121496804 -0.294627 -0.056206204 0.15801467 0.09381215 -0.10428048 0.16638705
0.032736834 0.071249396 -0.351312 -0.037981693 0.08049391 0.17384122 0.04207378 -0.11337363
0.12732856 0.14073092 0.089408025 -0.15463899 0.031184815 -0.2882131 -0.6355219 0.039205268
0.104228735 -0.019473689 0.17127329 -0.3274691 -0.24334435 -0.086140744 -0.19219652 0.060984112
-0.056171734 0.033367954 -0.6383208 -0.5099656 -0.032207325 0.014478916 -0.110458985 0.04054048
0.31679794 -0.3726965 -0.04135614 -0.0017913483 0.072483905 0.19339475 -0.01769094 0.022790153
-0.1737805 -0.25339842 -0.19868894 0.29753968 -0.002694669 0.16078804 -0.31498682 0.46972167
0.07979725 0.096990235 -0.11130554 -0.03574363 -0.35698727 -0.67911506 0.1259882 -0.04329692
0.05293383 -0.093307756 0.25739712 -0.08095793 0.104120046 0.1370923 -0.025399996 -0.34645098
0.0012793089 0.0033522637 0.25061667 0.13973337 0.1102491 -0.18251897 -0.07365904 0.11973231
-0.095923014 0.058996078 0.030317148 -0.16126771 -0.18809159 -0.28172642 0.2438322 -0.34029245
0.14999764 -0.05516724 -0.31619006 0.31030047 -0.033205617 -0.14435057 -0.10464622 -0.15917647
-0.363402 0.16291028 0.3267302 0.065266944 -0.32580245 -0.03151769 0.06808693 -0.11603114
0.20361616 -0.015600344 0.07182545 0.08809379 0.1417545 -0.42026314 -0.2023987 0.06924557
0.052506063 0.10557995 0.057271075 0.1977637 -0.04892368 0.035204925 0.13252683 0.38947254
-0.17274037 -0.21805999 0.0847644 -0.071834244 -0.10735011 -0.28373194 0.26069188 0.20710206
-1.0028011 0.20411254 -0.028325943 0.34506306 0.08983946 -0.034760427 0.13942122 0.056628246
0.03151908 0.045030758 0.3286778 0.17563988 -0.08923312 -0.09707949 -0.0070877178 0.011619566
-0.08581052 0.053192552 -0.098862424 -0.0473964 -0.025986446 -0.36591372 0.11520887 -0.28179368
0.050057188 -0.16326942 0.14547253 0.16627327 0.012967238 -0.37108436 -0.12688124 0.02631104
0.084662266 -0.16115358 0.11376077 0.026657436 0.06462382 0.115726605 0.19495663 0.06550901
0.04142894 -0.37704593 0.18102376 0.084074125 0.06076652 0.5230491 -0.124587856 0.039920125
-0.029214108 0.18584958 -0.09383249 0.20931543 -0.20488402 0.2636219 0.07692723 0.51755947
-0.013543412 0.121358186 0.0010589276 0.061369557 0.06895328 -0.44990116 0.0930153 0.11668184
0.06866187 -0.043500092 -0.0026286545 -0.20461434 -0.03250542 0.038581133 0.20562816 -0.032161053
-0.17919739 0.10948369 0.18503469 0.13077183 0.13897893 -0.043150563 0.11449803 0.18948762
-0.017020334 0.1895312 -0.07918119 -0.19991294 0.027034318 -0.28923035 -0.14249101 -0.020158416
0.11228649 -0.06439621 0.023187127 -0.093449526 0.24244936 -0.09082183 -0.15996593 -0.06568679
-0.21353526 0.1268467 0.06894043 -0.31907728 -0.08681643 0.013220225 -0.1047128 -0.048850395
00000000: 871c ef3d eb00 edbd a9f8 23bc f1f4 713b
00000010: 42e2 373d 4e47 34bc 49a4 83bd ddb7 02be
00000020: 2357 1ebe 8eaf 743d a816 1a3e 3e2c c4bd
00000030: 4742 523c 6577 8dbe b200 8cbd 8fce febe
00000040: 53bc f2bc 68af 643d 25fc 8fbc dccc 44be
00000050: 596e de3d 4a29 243e b979 c3be c9c6 ea3c
00000060: f0f7 863d 51d3 f8bd 5ad9 96be 7a38 66bd
00000070: 99ce 213e 9620 c03d 0191 d5bd 5e61 2a3e
00000080: 0f17 063d 34eb 913d 2bdf b3be b192 1bbd
00000090: fed9 a43d 6f03 323e 8e55 2c3d 6f30 e8bd
000000a0: 6b62 023e c41b 103e 8e1b b73d af59 1ebe
000000b0: 4c77 ff3c ab90 93be 90b1 22bf b495 203d
000000c0: e075 d53d 4987 9fbc 4462 2f3e 08aa a7be
000000d0: 432f 79be 8f6a b0bd 2acf 44be 7aca 793d
000000e0: 5514 66bd d6ac 083d fe68 23bf 1b8d 02bf
000000f0: d4eb 03bd fa38 6d3c 5238 e2bd c60d 263d
00000100: 5733 a23e 13d2 bebe 0e65 29bd adcb eaba
00000110: 7172 943d 4609 463e 97ec 90bc 6ab2 ba3c
00000120: 84f3 31be 70bd 81be 1d75 4bbe 1f57 983e
00000130: 0b99 30bb 9fa5 243e f445 a1be 5c7f f03e
00000140: be6c a33d d1a2 c63d 29f4 e3bd ea67 12bd
00000150: 09c7 b6be 7cda 2dbf 0d03 013e 1c58 31bd
00000160: 25d1 583d 2318 bfbd 8ec9 833e 45cd a5bd
00000170: e43c d53d ed61 0c3e a713 d0bc 0662 b1be
00000180: 7cae a73a a7b1 5b3b d450 803e 4416 0f3e
00000190: 48ca e13d 41e6 3abe 8dda 96bd 3736 f53d
000001a0: 4973 c4bd dfa5 713d ab5b f83c 5d23 25be
000001b0: 159b 40be 723e 90be 26af 793e d03a aebe
000001c0: fb98 193e 0bf7 61bd aae3 a1be b4df 9e3e
000001d0: 9d02 08bd a3d0 13be c250 d6bd 28ff 22be
000001e0: d40f babe f4d1 263e 2e49 a73e adaa 853d
000001f0: 94cf a6be b118 01bd 2971 8b3d bca1 edbd
00000200: c180 503e 9698 7fbc 3919 933d 846a b43d
00000210: 1728 113e bb2c d7be 9b41 4fbe 9fd0 8d3d
00000220: 9910 573d 4d3a d83d 1395 6a3d 9182 4a3e
00000230: 3264 48bd 0a33 103d 1db5 073e f268 c73e
00000240: dae2 30be 1e4b 5fbe f598 ad3d d51d 93bd
00000250: 60da dbbd 5045 91be 6879 853e 9012 543e
00000260: c95b 80bf e102 513e cf0b e8bc 1bac b03e
00000270: c0fd b73d f360 0ebd 70c4 0e3e 05f3 673d
00000280: 271a 013d 2c72 383d 7548 a83e f1da 333e
00000290: dbbf b6bd 9dd1 c6bd 1640 e8bb fe5f 3e3c
000002a0: 6dbd afbd 6fe0 593d 6278 cabd ba22 42bd
000002b0: 87e1 d4bc 0b59 bbbe a1f2 eb3d 4347 90be
000002c0: c408 4d3d 1930 27be c0f6 143e 8a43 2a3e
000002d0: 8a74 543c c5fe bdbe 28ed 01be 408a d73c
000002e0: 6963 ad3d 7205 25be 68fb e83d b260 da3c
000002f0: 7e59 843d 1202 ed3d b6a2 473e 9629 863d
00000300: 64b1 293d 2a0c c1be 4b5e 393e 0e2f ac3d
00000310: 51e6 783d 8ce6 053f eb27 ffbd 4983 233d
00000320: 6d52 efbc 5a4f 3e3e 402b c0bd c956 563e
00000330: 1ecd 51be 73f9 863e 068c 9d3d c77e 043f
00000340: 30e5 5dbc a48a f83d b7cb 8a3a a55e 7b3d
00000350: 6137 8d3d 7259 e6be ce7e be3d e3f6 ee3d
00000360: 989e 8c3d 272d 32bd 8145 2cbb 6c86 51be
00000370: 6724 05bd 4007 1e3d 3090 523e 4fbb 03bd
00000380: 857f 37be fc38 e03d bc79 3d3e 0de9 053e
00000390: 7e50 0e3e a5be 30bd f17d ea3d 0b09 423e
000003a0: 3a6e 8bbc 7814 423e bf29 a2bd fab5 4cbe
000003b0: 1377 dd3c 0016 94be 2ae9 11be 4323 a5bc
000003c0: 76f6 e53d 29e2 83bd eef2 bd3c 7762 bfbd
000003d0: a544 783e cc00 babd 1cce 23be cc86 86bd
000003e0: fda8 5abe 1ae4 013e a430 8d3d 195e a3be
000003f0: d0cc b1bd a599 583c aa73 d6bd 5a17 48bd

fc3.bias f4 [32]
0.29754657 0.6143116 0.43075445 -0.18695365 0.5319024 0.40669003 0.4225326 0.231295
0.35827398 -0.19364662 -0.1108861 0.5420957 0.27599362 0.003963955 0.58182627 0.67601985
0.23882467 0.14383918 0.22155114 -0.16500087 0.11005257 0.6547827 -0.20027675 -0.75833815
0.5639313 -0.07220804 0.5460989 0.041002247 -0.45261824 0.4157444 0.20978555 0.7216608
00000000: 0658 983e 8643 1d3f d98b dc3e c770 3fbe
00000010: c12a 083f ad39 d03e 3156 d83e 99d8 6c3e
00000020: b06f b73e 4d4b 46be 4018 e3bd c9c6 0a3f
00000030: 094f 8d3e 11e4 813b 91f2 143f a30f 2d3f
00000040: 748e 743e 944a 133e 4dde 623e fdf5 28be
00000050: 3e63 e13d d79f 273f 5915 4dbe 7322 42bf
00000060: cd5d 103f cfe1 93bd 23cd 0b3f f9f1 273d
00000070: 94bd e7be 73dc d43e 06d2 563e c3be 383f

fc_mu.weight f4 [1, 32]
-0.11638573 -0.8511225 0.49954158 -0.27175584 0.1277277 0.9398754 1.1170306 -1.0322366
0.8115959 -0.38443428 -0.7540679 1.1850843 0.4112321 -0.70615023 1.0987347 0.1750977
-0.69662684 0.8570049 0.40520027 -0.46884808 0.15355235 1.5493464 -0.3691012 -0.081910536
-0.34182027 -1.0831305 0.21148133 0.2265522 -0.17948204 1.0585392 -0.8062901 0.029572746
00000000: a45b eebd 2ae3 59bf eac3 ff3e 9523 8bbe
00000010: 0dcb 023e ad9b 703f dcfa 8e3f 5420 84bf
00000020: c0c4 4f3f 92d4 c4be 980a 41bf d8b0 973f
00000030: 048d d23e 43c6 34bf 57a3 8c3f d04c 333e
00000040: 2356 32bf ac64 5b3f 6976 cf3e db0c f0be
00000050: d43c 1d3e fc50 c63f d5fa bcbe b6c0 a7bd
00000060: 1103 afbe 05a4 8abf 908e 583e 4dfd 673e
00000070: 24ca 37be 367e 873f 0769 4ebf 8b42 f23c

fc_std.weight f4 [1, 32]
-0.20522669 0.37206426 0.017786225 0.10519707 -0.41112417 0.09852329 -0.1411271 0.065482736
0.15036848 -0.18496262 -0.43773997 -0.1456887 0.12183926 0.0327923 0.021106709 -0.21485469
0.09701632 0.108584635 0.008468688 0.24706933 -0.0746566 0.20221098 0.1149412 0.24659292
-0.2625249 -0.20781715 0.13704231 0.107395545 0.3172233 0.21729453 0.04006215 -0.31002098
00000000: f226 52be 357f be3e 6bb4 913c 9071 d73d
00000010: de7e d2be 94c6 c93d 9f83 10be d01b 863d
00000020: 32fa 193e d766 3dbe 741f e0be 6b2f 15be
00000030: dd86 f93d 3851 063d fae7 ac3c de02 5cbe
00000040: 7eb0 c63d 9f61 de3d 41c0 0a3c beff 7c3e
00000050: 8fe5 98bd 6510 4f3e 4b66 eb3d db82 7c3e
00000060: aa69 86be 05ce 54be d254 0c3e 32f2 db3d
00000070: 186b a23e 7582 5e3e 3618 243d 12bb 9ebe
