myrobot/src/SAC/saved_model/1206_1/sac_442.pt (torch, 47503 bytes, 8 tensors)

fc1.weight f4 [128, 4]
0	0xbf19339c	-0.59844375
1	0xbe86e1de	-0.26344198
2	0x3eb1cab9	0.34724978
3	0xbed06709	-0.4070361
4	0xbf1e7919	-0.6190353
5	0x3e98ba50	0.29829645
6	0x3e88d869	0.26727608
7	0xbe0d4318	-0.13795125
8	0x3f664579	0.89949757
9	0xbda77aaf	-0.08177697
10	0x3e4bf81c	0.19918865
11	0xbe68126e	-0.2266328
12	0xbf63d80d	-0.8900154
13	0x3e021410	0.12702966
14	0x3e7b18cf	0.24521182
15	0x3e8d8b4a	0.27645332
16	0xbf66cb3b	-0.90153855
17	0x3e1a4a08	0.15067303
18	0xbf1688af	-0.5880231
19	0x3df1054d	0.11768589
20	0x3ef52de2	0.47886568
21	0x3ec0c6c8	0.37651658
22	0xbf8d3859	-1.1032821
23	0xbe31ce4f	-0.17363857
24	0x3f137ad8	0.5760932
25	0xbe5fa5ce	-0.21840593
26	0xbec49e2e	-0.38401932
27	0x3d3ef0a1	0.0466162
28	0xbe8351b8	-0.25648284
29	0xbf6e1b2c	-0.9301021
30	0xbee66ef1	-0.45006517
31	0x3df05008	0.11734015
32	0xbefe5d78	-0.49680686
33	0xbeeb7dce	-0.4599442
34	0x3ede2bd0	0.433928
35	0xbdb90c3a	-0.09035535
36	0x3e69e2a9	0.2284037
37	0xbe8470d7	-0.2586734
38	0xbf58bbbb	-0.84661454
39	0xbcd9601b	-0.026535084
40	0xbb3eb1a7	-0.0029097588
41	0x3e972cc7	0.2952635
42	0xbec0c104	-0.3764726
43	0x3ec4f54b	0.38468394
44	0x3f33e16b	0.70265836
45	0xbefde4d1	-0.49588636
46	0xbf87ee62	-1.0619624
47	0x3e13ce51	0.14434172
48	0x3f06eabd	0.5270193
49	0x3f07f1ed	0.53103524
50	0x3f05c2a0	0.522501
51	0xbe079025	-0.1323858
52	0x3f850346	1.0391624
53	0xbe4f873b	-0.2026643
54	0x3e98c464	0.29837334
55	0x39fe02e4	0.0004844881
56	0xbf530bc9	-0.8243986
57	0x3db5735e	0.08859895
58	0x3e522128	0.2052046
59	0xbe2f7220	-0.17133379
60	0x3e8f1193	0.27943096
61	0x3d042ddb	0.032270294
62	0xbf3a0b66	-0.7267364
63	0xbee98ae0	-0.45613766
64	0xbf356bb9	-0.70867497
65	0xbedffca3	-0.43747434
66	0x3ed81387	0.42202398
67	0xbda04c17	-0.07827013
68	0x3fe299a9	1.7703143
69	0x3f08d905	0.53456146
70	0xbd343e9f	-0.044005033
71	0xbc80bc7c	-0.015714876
72	0xbeb9d86c	-0.3629793
73	0xbe5acf97	-0.21368252
74	0xbf4251f9	-0.7590633
75	0x3e31ba40	0.17356205
76	0x3f33052f	0.69929785
77	0xbe067614	-0.1313098
78	0x3f095768	0.53648996
79	0xbe947351	-0.2899423
80	0xbfa84020	-1.3144569
81	0xbf00e00a	-0.50341856
82	0xbf59749c	-0.84943557
83	0x3e0c3056	0.13690314
84	0xbda450df	-0.080232374
85	0x3db4393e	0.087999806
86	0xbf185c67	-0.59515995
87	0xbe18eaf8	-0.14933383
88	0xbf5c6c6e	-0.8610295
89	0xbe9c3642	-0.30510145
90	0x3ec535bf	0.38517568
91	0x3eb49f3b	0.35277733
92	0x3e420b18	0.18949544
93	0x3f37c781	0.71788794
94	0xbf207ee4	-0.6269362
95	0xbd2683aa	-0.04065291
96	0xbf53aee1	-0.8268872
97	0x3ea70604	0.32621777
98	0x3ebb1a7d	0.36543646
99	0x3e457d2e	0.19286034
100	0xbfa3b7ee	-1.2790506
101	0x3f0d569c	0.5521028
102	0x3e93ebe9	0.28890923
103	0xbcc0fe61	-0.023558797
104	0xbf3926ea	-0.72325003
105	0x3e9dcafb	0.30818924
106	0x3d2869a3	0.041116368
107	0xbd373b6c	-0.044734403
108	0xbeef9441	-0.46792796
109	0xbeeceaef	-0.4627299
110	0xbe08be98	-0.13353956
111	0xbc223939	-0.009901338
112	0xbfaf5399	-1.3697387
113	0xbd06a9fa	-0.032876946
114	0xbed49a3b	-0.41523919
115	0x3c3c8252	0.01150568
116	0x3fb39960	1.4031181
117	0xbf28b651	-0.6590319
118	0x3f110bf2	0.5665885
119	0x3d058484	0.03259708
120	0xbee7e570	-0.45292234
121	0x3e7b78b1	0.24557759
122	0x3f51c871	0.81946474
123	0xbbb90f0d	-0.005647546
124	0x3ecb621c	0.3972329
125	0xbe883e45	-0.26610008
126	0x3ee55470	0.44790983
127	0xbe9d0642	-0.30668837
128	0x3eacd4e5	0.33756176
129	0xbd5dd87b	-0.05416153
130	0x3f31d74a	0.6946913
131	0x3e55c5f4	0.20876294
132	0x3fb4c548	1.4122705
133	0xbf3b7f76	-0.73241365
134	0xbf1f8aca	-0.6232115
135	0x3d76c883	0.060249817
136	0x3f80c015	1.0058619
137	0x3e7ec018	0.24877965
138	0xbf02c651	-0.51083857
139	0xbb8efa3d	-0.004363327
140	0x3dec7469	0.11545641
141	0x3e8d2f1f	0.27575013
142	0xbdb87859	-0.090073295
143	0xbe640079	-0.22265805
144	0xbeab6073	-0.33472022
145	0xbda97166	-0.08273582
146	0x3e7b797c	0.24558061
147	0x3d9ca73f	0.07649087
148	0xbeef8c91	-0.4678693
149	0xbee07c5a	-0.43844873
150	0xbf8e3d55	-1.1112467
151	0x3e2fd09f	0.17169426
152	0xbe2a9741	-0.16659261
153	0xbf194451	-0.5986987
154	0x3da24217	0.07922762
155	0xbeb21359	-0.34780386
156	0xbf2dda4e	-0.6791123
157	0xbe3962e7	-0.18104135
158	0xbf6de984	-0.9293444
159	0x3d6a3a6c	0.05718462
160	0x3fa9d1fe	1.326721
161	0x3ef07eea	0.46971828
162	0xbe718390	-0.23585343
163	0xbcc5434f	-0.024079947
164	0xbc4f7b69	-0.012663701
165	0x3e4268d6	0.18985304
166	0xbd903cbc	-0.07042834
167	0x3ea3f68b	0.32024035
168	0x3f502ac2	0.81315243
169	0x3e544ef2	0.2073324
170	0xbe92f14b	-0.28699717
171	0xbd98df38	-0.074644506
172	0x3e286550	0.16444898
173	0x3f13f4de	0.5779551
174	0xbf9caf4d	-1.2240998
175	0x3c517ac0	0.012785614
176	0xbe411081	-0.18853952
177	0x3eb34253	0.3501154
178	0x3f703598	0.9383178
179	0x3df837f1	0.12120045
180	0x3e3df7af	0.18551515
181	0x3d5186ae	0.05115383
182	0xbf342643	-0.7037088
183	0xbe95234f	-0.291285
184	0xbf852749	-1.0402614
185	0xbeb8495c	-0.3599347
186	0x3eb29137	0.34876415
187	0x3de95edd	0.11395047
188	0xbfb0cc46	-1.3812339
189	0xbed22d7d	-0.4105033
190	0x3e544871	0.20730759
191	0x3c7b3a28	0.01533369
192	0x3eba406b	0.36377272
193	0x3e86753c	0.26261318
194	0xbdebef47	-0.11520248
195	0xbdea8ee6	-0.11453037
196	0x3f1313b4	0.5745194
197	0xbe753e65	-0.23949583
198	0xbca02d5d	-0.01955288
199	0xbe0c9863	-0.13730006
200	0xbf9bd5c6	-1.2174613
201	0x3e2291d0	0.15875936
202	0x3e342a60	0.1759429
203	0xbbb1a716	-0.0054215295
204	0x3f85cdfb	1.0453485
205	0x3e281aa5	0.16416414
206	0x3c62c37c	0.013840552
207	0x3d8b2413	0.0679399
208	0x3d44503d	0.047928084
209	0xbe80a539	-0.25126055
210	0x3e255981	0.16147424
211	0xbed9af8e	-0.4251675
212	0x3e8e9336	0.27846688
213	0x3e1868bf	0.14883707
214	0xbf888b41	-1.0667497
215	0x3e78ea13	0.24308042
216	0x3d3107d3	0.043220352
217	0x3dbc704f	0.09201109
218	0x3ec623da	0.38699228
219	0xbde153d2	-0.110023156
220	0xbf1573df	-0.5837993
221	0x3eb95445	0.36197105
222	0xbf3707dd	-0.71496373
223	0xbea9d936	-0.3317353
224	0xbf8ec51e	-1.1153905
225	0x3decda77	0.11565106
226	0x3eb43d5f	0.35203072
227	0x3dea6bad	0.11446319
228	0xbef1e6c9	-0.47246388
229	0xbf1e7137	-0.618915
230	0x3ec25f8a	0.37963516
231	0xbe8dd420	-0.277009
232	0x3f81c422	1.013798
233	0x3ed3ebbe	0.41390795
234	0xbec38385	-0.3818628
235	0x3e16099f	0.14652108
236	0x3ecddb18	0.40206218
237	0x3eae2d7b	0.34019074
238	0x3f21db98	0.632257
239	0x3e9320ca	0.28735954
240	0xbf7f9003	-0.9982912
241	0x3deccf61	0.11562992
242	0xbe84b831	-0.25921777
243	0xbe39b156	-0.18134055
244	0xbead75a1	-0.33878806
245	0x3c6e4f6d	0.014545304
246	0x3e9b0699	0.3027847
247	0x3d529b12	0.051417418
248	0x3e6030a1	0.2189355
249	0xbe1aa759	-0.151029
250	0xbe63b006	-0.22235116
251	0xbe151b9d	-0.14561315
252	0x3f815e46	1.0106895
253	0x3d9cc070	0.07653892
254	0xbed728d7	-0.42023346
255	0x3df35b62	0.11882664

fc1.bias f4 [128]
0	0x3e990eac	0.29894006
1	0x3f1be16f	0.6089086
2	0x3eca81ca	0.39552146
3	0x3f398fbc	0.72484946
4	0xbf41e71b	-0.75743264
5	0x3db639ec	0.088977665
6	0x3f7ec75a	0.99522936
7	0xbfa7f5b6	-1.312186
8	0xbea0133e	-0.3126468
9	0xbf79b76e	-0.97545516
10	0x3f870ab6	1.0550144
11	0x3f233599	0.6375366
12	0x3e6e41c8	0.23267281
13	0x3e1f9adb	0.15586416
14	0xbd747ae2	-0.059687503
15	0xbe800d06	-0.25009936
16	0x3ecd937e	0.4015159
17	0x3d31bfe8	0.043395907
18	0x3f672ff9	0.90307575
19	0xbd0dce2d	-0.034620453
20	0xbeceafc0	-0.40368462
21	0xbd1dfce5	-0.038571257
22	0xbe9c011a	-0.3046959
23	0xbdfbcbdb	-0.12294742
24	0x3eb46066	0.35229796
25	0x3ea9f898	0.33197474
26	0x3f036869	0.5133119
27	0xbfc3dc03	-1.5301517
28	0x3f05cd29	0.52266175
29	0xbd8fdec2	-0.070249096
30	0x3f1d7ca8	0.61518335
31	0xbf12411e	-0.5713061
32	0xbf7591bb	-0.9592549
33	0xbf016508	-0.50544786
34	0x3ea3d27d	0.31996527
35	0x3f2e52ae	0.6809491
36	0x3da1324b	0.07870921
37	0xbf4e093b	-0.80482835
38	0x3c4b2dde	0.012401072
39	0x3e9f38f0	0.31098127
40	0x3e1d2012	0.15344265
41	0x3f6b926e	0.9202031
42	0xbea22faa	-0.3167699
43	0x3e95049e	0.29105085
44	0xbefd5e85	-0.49486175
45	0xbe9f781d	-0.31146327
46	0xbecf0bb4	-0.40438616
47	0x3f8c7187	1.0972146
48	0x3df4d025	0.11953763
49	0xbf9742b0	-1.1817226
50	0xbe8a1768	-0.26970983
51	0xbebfd064	-0.37463677
52	0xbe8ea5e3	-0.27860937
53	0x3f37e4f5	0.71833736
54	0x3f643246	0.8913921
55	0x3dba4d7f	0.090968125
56	0xbf76eaea	-0.964522
57	0xbda00084	-0.07812598
58	0x3ec59625	0.38591114
59	0x3f02390e	0.5086831
60	0xbe57de57	-0.2108091
61	0xbf1f43bd	-0.62212735
62	0x3f868604	1.0509648
63	0x3fb0a506	1.3800361
64	0xbef1ab1c	-0.4720086
65	0xbef82672	-0.4846683
66	0xbfb3ab65	-1.403668
67	0xbf22a57b	-0.63533753
68	0xbf16f60e	-0.589692
69	0xbf0a5c4a	-0.5404707
70	0xbf9c97a6	-1.223378
71	0xbeb5f733	-0.3554016
72	0x3debe400	0.11518097
73	0xbda21f38	-0.07916111
74	0x3f74613c	0.9546087
75	0xbf919a51	-1.1375219
76	0xbf38a079	-0.7211986
77	0xbf9408d7	-1.1565198
78	0xbf1a7f27	-0.6035027
79	0xbe1c9f38	-0.15295112
80	0xbfa264cc	-1.2687011
81	0x3edbe30e	0.42946666
82	0x3dafddcd	0.08587227
83	0xbe98437b	-0.29738984
84	0x3f0ece50	0.5578356
85	0xbf02eff0	-0.51147366
86	0xbe47dd29	-0.1951796
87	0xbe921d3f	-0.28537938
88	0x3f76c371	0.9639197
89	0xbf342475	-0.7036813
90	0x3ef1bff2	0.47216755
91	0xbf8153aa	-1.0103657
92	0xbf8972d4	-1.0738168
93	0x3ee2f4a8	0.44327283
94	0x3f973de4	1.1815763
95	0x3f40e97c	0.7535627
96	0x3c9d8652	0.019229088
97	0x3f6b0f16	0.91819894
98	0x3ee5a943	0.448557
99	0xbf806a89	-1.0032512
100	0xbe2b5230	-0.16730571
101	0x3f982900	1.1887512
102	0xbf86e577	-1.0538777
103	0xbe805fa5	-0.2507297
104	0x3f832420	1.02454
105	0xbe96a701	-0.2942429
106	0xbc8c2a1e	-0.017109927
107	0xbf7bf2dd	-0.98417455
108	0xbd11da44	-0.035608545
109	0xbe6c4765	-0.2307411
110	0xbfa4be2a	-1.2870533
111	0x3f93540d	1.1510025
112	0x3f967782	1.1755221
113	0x3e7781fc	0.24170679
114	0xbf84a681	-1.0363313
115	0xbe9aae8f	-0.30211303
116	0x3f950157	1.1641034
117	0x3e9b5afa	0.30342847
118	0x3f9c82b5	1.2227389
119	0xbf8a6fb0	-1.0815334
120	0x3ed06ba0	0.4070711
121	0x3fbec4e6	1.4903839
122	0x3f9cad0a	1.2240307
123	0x3f156992	0.5836421
124	0xbf498130	-0.7871275
125	0xbf54f548	-0.8318677
126	0x3ee03a2e	0.43794388
127	0xbe70a969	-0.23502125

fc2.weight f4 [64, 128]
0	0xbcfcb7e7	-0.03084941
1	0x3cd02364	0.0254075
2	0x3eacf9e0	0.3378439
3	0xbd04e4e2	-0.032444842
4	0x3d1d66ff	0.038428303
5	0xbd6ebd7e	-0.058286183
6	0x3e21bc41	0.1579447
7	0xbe29ad08	-0.16569912
8	0x3de0391e	0.10948394
9	0x398c2f39	0.00026738064
10	0x3d8de709	0.06928832
11	0x3dd099ab	0.1018556
12	0xbda22e6f	-0.07919013
13	0x3d837e35	0.064205565
14	0xbe4426c8	-0.19155419
15	0x3d6dc207	0.058046367
16	0xbe0fe805	-0.14053352
17	0xbc3e17c6	-0.011602348
18	0x3da8162e	0.082073554
19	0x3e402bcc	0.18766707
20	0x3c5a2b2e	0.013315959
21	0xbd49d233	-0.049272727
22	0xb95e8d32	-0.00021224169
23	0xbe56aade	-0.20963618
24	0xbd34d8e3	-0.04415215
25	0xbe38832c	-0.18018788
26	0xbd8e1067	-0.06936722
27	0xbd0aa5f0	-0.033849657
28	0x3dc864c5	0.09784845
29	0x3cabd971	0.020977708
30	0x3cb48cd5	0.02203981
31	0xbdc2c409	-0.09510047
32	0xbd4264c0	-0.047459364
33	0x3e8071f8	0.2508695
34	0xbddd441f	-0.10804009
35	0x3e0dc609	0.13845076
36	0xbda52bb0	-0.08064973
37	0x3dae3fbb	0.08508249
38	0xbcdffd4a	-0.027342457
39	0x3deac951	0.11464179
40	0xbe09bf0c	-0.13451785
41	0x3cd8fcac	0.02648767
42	0x3c5757dc	0.013143506
43	0x3e578dde	0.21050212
44	0x3c914f2e	0.017737951
45	0x3e1c903c	0.15289396
46	0xbcb64530	-0.022249788
47	0x3d0395bb	0.032125216
48	0x3d1f56d8	0.03890118
49	0xbd962652	-0.07331528
50	0xbe9aa901	-0.30207065
51	0x3d23bd13	0.039975237
52	0x3dc66868	0.09687883
53	0x3cd9b31a	0.02657466
54	0x3e0aa628	0.13539946
55	0x3d05b30b	0.03264145
56	0xbd2539f6	-0.04033848
57	0x3cef97c2	0.029247168
58	0x3dabac40	0.083824635
59	0x3d54800f	0.05187994
60	0x3e080245	0.13282116
61	0xbe12d5c1	-0.14339353
62	0xbedc4c40	-0.43026924
63	0x3de26f55	0.11056391
64	0xbd0b1290	-0.03395325
65	0xbebd0a51	-0.36921933
66	0xbd8ceb58	-0.06880826
67	0x3d539789	0.051658187
68	0xbd8e4903	-0.0694752
69	0xbc6b06c9	-0.014344879
70	0xbeecab64	-0.4622451
71	0xbdeb63ad	-0.11493621
72	0xbd98391e	-0.07432769
73	0xbcc6fbfa	-0.024290074
74	0x3d5211ff	0.051286694
75	0xbca922b5	-0.020646432
76	0x3e6625ac	0.22475308
77	0xbbcfc9e5	-0.0063412064
78	0xbe00c006	-0.12573251
79	0xbd1e193a	-0.038598277
80	0xbd2501b8	-0.040284842
81	0xbe39cf9f	-0.18145607
82	0xbde20660	-0.11036372
83	0x3dd75742	0.1051469
84	0x3d77358f	0.06035381
85	0xbc87e4ba	-0.016588558
86	0x3e0112e8	0.12604868
87	0xbd854c71	-0.06508721
88	0xbdcb1e21	-0.09917856
89	0xbe013683	-0.12618451
90	0x3e0c9458	0.13728464
91	0xbefbde17	-0.4919288
92	0xbd9c38e9	-0.07628042
93	0x3e0e5cfe	0.13902661
94	0xbc31b60b	-0.010846625
95	0x3e916ddc	0.2840413
96	0x3e3f95ed	0.18709536
97	0x3cae1646	0.021250855
98	0xbb775297	-0.0037738436
99	0x3d2566c3	0.040381204
100	0xbc864a40	-0.016392827
101	0x3d30032c	0.042971775
102	0xbdcb154f	-0.09916174
103	0x3c48f51e	0.012265472
104	0xbd90d1c0	-0.07071257
105	0x3d99ee61	0.0751617
106	0x3d5ef82e	0.0544359
107	0xbd79f2a8	-0.06102243
108	0x3dde1178	0.10843176
109	0xbda6f254	-0.08151689
110	0x3d3064d4	0.043064907
111	0x3de9d08f	0.114167325
112	0x3e8cb8e3	0.27484807
113	0xbe295a0e	-0.1653826
114	0xbcd6f21f	-0.0262385
115	0xbd452a64	-0.04813613
116	0x3d102cf3	0.035199117
117	0xbe1da491	-0.15394808
118	0x3dcdd490	0.10050309
119	0xbd9ee2be	-0.077580914
120	0xbca06751	-0.019580515
121	0x3e18d1f4	0.14923841
122	0x3d5ee5c0	0.054418325
123	0x3d2292ec	0.039690897
124	0x3c68ca92	0.014208453
125	0xbd4b0c65	-0.049572367
126	0x3e04fc57	0.12986885
127	0xbb219bf8	-0.0024659615
128	0x3dd69a86	0.10478692
129	0x3dc0085e	0.09376596
130	0xbdc802a3	-0.09766128
131	0xbdbd42a9	-0.0924123
132	0x3cbd4532	0.023104284
133	0xbdc4a204	-0.096012145
134	0xbd864f4a	-0.06558092
135	0x3dd6a51a	0.104807094
136	0x3dcc4bf4	0.099754244
137	0x3dbc91b0	0.09207475
138	0x3cb1cbdc	0.021703653
139	0xbdbeeacb	-0.09322127
140	0x3b35462b	0.0027660232
141	0x3da5f688	0.08103663
142	0x3d82648e	0.063668355
143	0xbd29a9bf	-0.041421648
144	0xbe04ba29	-0.1296164
145	0x3deba9d4	0.115070015
146	0xbd9ae477	-0.075631075
147	0xbd684db6	-0.056714736
148	0x3d94a666	0.072583005
149	0xbd90d164	-0.07071188
150	0x3da514c4	0.08060601
151	0xbdb2a7d3	-0.08723416
152	0xbc508460	-0.012726873
153	0x3df9b2fb	0.12192341
154	0xbd75058f	-0.059819754
155	0x3e2fc641	0.17165472
156	0xbe2215f6	-0.1582869
157	0xbe40b45b	-0.188188
158	0xbe8b820f	-0.27247664
159	0x3db5b1b7	0.08871787
160	0x3d5b2279	0.053499673
161	0xbe4cfbd4	-0.2001794
162	0xbe704fe7	-0.2346798
163	0xbde6cd37	-0.112696104
164	0x3d8432fd	0.06455038
165	0x3d3d919a	0.046281435
166	0xbc9036ef	-0.01760432
167	0x3d36c955	0.0446256
168	0xbdc50c96	-0.09621541
169	0x3d60798c	0.054803416
170	0xbcb8b59c	-0.022547536
171	0xbe557124	-0.20843941
172	0xbcaeec32	-0.021352861
173	0xba83df5e	-0.0010061075
174	0x3dbca3b8	0.092109144
175	0xbd5695e9	-0.05238906
176	0xbd98ed41	-0.074671276
177	0x3d062fb4	0.032760337
178	0x3ee3f2fb	0.44521317
179	0x3ca5e45b	0.02025049
180	0xbcdb9c34	-0.026807882
181	0xbb716498	-0.003683364
182	0xbd632b89	-0.05546144
183	0xbc64b4fb	-0.013959165
184	0x3d8f6aff	0.0700283
185	0x3e0239da	0.12717381
186	0xbc39dadb	-0.011343683
187	0xbdbb2f4e	-0.09139882
188	0xbd63331d	-0.055468667
189	0x3d4a68df	0.04941642
190	0xbda96c48	-0.08272606
191	0xbde2e1ff	-0.110782616
192	0x3d79a491	0.06094796
193	0x3ea5cf92	0.32384926
194	0xbc962c04	-0.018331535
195	0x3d8e0a21	0.06935526
196	0x3d732882	0.059364803
197	0x3cbc7803	0.023006445
198	0x3f06aee2	0.526106
199	0xbe4f2251	-0.20227934
200	0x3d721e8c	0.059111163
201	0x3dbb9268	0.09158784
202	0xbd0162b6	-0.03158828
203	0x3c6954a7	0.014241374
204	0xbcfeb4a1	-0.03109199
205	0x3dcf2429	0.10114319
206	0xbd58dcc0	-0.0529449
207	0x3c96d8b3	0.018413877
208	0x3dd23023	0.102630876
209	0x3c0b620e	0.008507265
210	0x3e3d4261	0.18482353
211	0xbd1b47ad	-0.037910152
212	0xbe87fe03	-0.26560983
213	0x3c192277	0.009346596
214	0x3d3817a4	0.04494442
215	0x3ccee032	0.025253389
216	0xbe23551e	-0.15950438
217	0x3db12514	0.0864965
218	0xbd8b3371	-0.06796921
219	0x3ec7f171	0.39051393
220	0x3cef58be	0.02921712
221	0xbdc4691a	-0.09590359
222	0xbd6ee462	-0.05832327
223	0x3c9d667c	0.019213907
224	0x3d062304	0.032748237
225	0x3cdf1c96	0.02723531
226	0x3c2e8664	0.010652158
227	0xbd30902a	-0.043106236
228	0xbd3b523e	-0.04573273
229	0xbb19c282	-0.0023461883
230	0x3d2fafe4	0.04289235
231	0x3dc37f06	0.09545712
232	0xbdaab6f3	-0.08335676
233	0x3dc02fed	0.09384141
234	0x3cfea5f1	0.031084986
235	0xbcd24338	-0.025666818
236	0xbd25c4a9	-0.040470753
237	0xbd50eae9	-0.051005278
238	0x3c80fbdc	0.015745096
239	0xbd95c962	-0.07313801
240	0xbf5932c6	-0.848431
241	0xbe3f4fdf	-0.18682812
242	0x3d0c318d	0.034226943
243	0x3cc4c459	0.024019407
244	0xbf1b3cb0	-0.60639477
245	0x3d33c8b9	0.043892596
246	0xbd2d86e7	-0.04236498
247	0x3d9a85d1	0.07545055
248	0x3cca7eed	0.024718726
249	0xbf077c0a	-0.52923644
250	0xbd36d8ec	-0.044640467
251	0xbd356197	-0.044282522
252	0x3d83a1dc	0.064273566
253	0x3d9c2d12	0.07625784
254	0xbb9c3ea4	-0.0047682095
255	0xbbfb1c18	-0.007663261

fc2.bias f4 [64]
0	0x3ec543b1	0.38528207
1	0xbf83a495	-1.0284601
2	0xbe9d72d3	-0.30751666
3	0x3e810a2b	0.2520307
4	0x3cf0964f	0.029368548
5	0x3f24d6d3	0.64390296
6	0xbf87fb2c	-1.0623527
7	0x3f06f544	0.52717996
8	0x3ec4a168	0.38404393
9	0x3d9d960d	0.076946355
10	0x3f7742c2	0.9658624
11	0x3f07453c	0.5284002
12	0x3d96918f	0.07351982
13	0x3f33629e	0.7007235
14	0x3f14b536	0.58089006
15	0x3f25b700	0.6473236
16	0x3efa32fb	0.4886702
17	0xbe71f597	-0.23628841
18	0xb992737d	-0.00027933336
19	0xbb488192	-0.0030594808
20	0xbf0456a1	-0.51694685
21	0xbf74e670	-0.9566412
22	0x3e41054b	0.18849675
23	0x3e0c37ad	0.13693114
24	0x3f1fa91a	0.62367404
25	0x3c969d31	0.018385502
26	0x3f13f0cd	0.5778931
27	0x3ea40ba1	0.32040122
28	0x3e0f12ef	0.13972066
29	0x3e9af53c	0.30265224
30	0xbedfb88e	-0.43695492
31	0x3ea1d5d9	0.31608465
32	0xbc9e8daf	-0.01935467
33	0x3d9d3592	0.07676233
34	0x3f08488a	0.53235686
35	0x3e49bd3b	0.19701092
36	0xbe4de718	-0.20107687
37	0x3ea3485e	0.3189115
38	0x3f339a50	0.7015734
39	0x3f443fe1	0.7665997
40	0xbe769d5e	-0.24083468
41	0x3f65f419	0.8982559
42	0xbee4d562	-0.44694048
43	0xbf6cd59d	-0.9251345
44	0xbda1a102	-0.07892038
45	0xbcd0f78e	-0.025508668
46	0x3ec53574	0.38517344
47	0x3dd4be76	0.1038789
48	0xbcaaa333	-0.020829773
49	0xbe9a3165	-0.3011581
50	0x3eccc687	0.39995214
51	0x3ea76e9c	0.32701576
52	0xbf82fe87	-1.0233926
53	0x3e0e3c58	0.13890207
54	0xbe5dc4b0	-0.21657062
55	0x3e92f747	0.28704283
56	0xbf6162ba	-0.8804127
57	0x3ce607ac	0.02807983
58	0x3f4ff979	0.8124004
59	0xbe39842d	-0.18116827
60	0xbee7591e	-0.4518518
61	0x3ec08305	0.3759996
62	0x3e44003e	0.19140717
63	0x3ec876c9	0.39153126

fc3.weight f4 [32, 64]
0	0x3cbf240c	0.023332618
1	0x3b836d9d	0.0040108697
2	0xbbe4d212	-0.00698305
3	0xbdb1cab6	-0.08681242
4	0xbd920346	-0.071295306
5	0x3ba68a18	0.00508238
6	0x3c10c0bc	0.008835014
7	0x3d25a03a	0.040436007
8	0xbe190ffd	-0.14947505
9	0x3a78b7b4	0.0009487823
10	0x3e3104a9	0.17286934
11	0xbe2015f4	-0.15633374
12	0xbc20b11d	-0.009807852
13	0xbe239b76	-0.15977272
14	0xbc9caf08	-0.01912643
15	0xbf0c939d	-0.5491274
16	0xbda8240b	-0.0821
17	0x3dc6c418	0.09705371
18	0xbdb88aa1	-0.09010816
19	0xbda6f3c4	-0.08151963
20	0x3d82ae27	0.06380873
21	0x3e2e45b5	0.17018779
22	0xbdeed1eb	-0.116611324
23	0x3d877884	0.066147834
24	0x3d8ad3fc	0.06778714
25	0xbdd02c04	-0.10164645
26	0xbe5846f4	-0.21120816
27	0xbe09013a	-0.13379374
28	0x3be1bc80	0.006888926
29	0x3dcc321c	0.09970495
30	0x3d93cd16	0.072168514
31	0x3e289fc3	0.16467194
32	0xbdda137e	-0.10648249
33	0x3dbf46a7	0.09339648
34	0xbedea8cc	-0.43488157
35	0xbc9aff7d	-0.018920654
36	0x3e229b6e	0.15879604
37	0x3df689c1	0.12037993
38	0x3c3bcd70	0.011462554
39	0xbe1b7740	-0.15182209
40	0x3dd6d511	0.10489858
41	0x3d82f15f	0.06393694
42	0x3dfbfa3a	0.12303586
43	0xbd478e04	-0.04871942
44	0xbd25da84	-0.040491596
45	0xbe32e84a	-0.17471424
46	0xbe853c74	-0.26022685
47	0x3bdccfc9	0.006738637
48	0x3e0d4c93	0.13798742
49	0x3bfaf15b	0.0076581663
50	0x3de6d5c4	0.11271241
51	0xbdfa928f	-0.12234985
52	0xbe413e2a	-0.1887137
53	0xbdb0cc29	-0.086326905
54	0xbe01af82	-0.12664607
55	0x3dc49194	0.09598079
56	0xbd16c409	-0.036808047
57	0x3d073478	0.033009022
58	0xbed530ae	-0.41638702
59	0xbce00660	-0.02734679
60	0x3bb0e113	0.0053979247
61	0xbdf387ee	-0.11891161
62	0xbd9c7e6d	-0.07641301
63	0x3d8e5a4d	0.06950817
64	0x3d6e35f5	0.058156926
65	0xbe1986c3	-0.14992814
66	0xbdae2a02	-0.08504106
67	0x3db23eda	0.08703394
68	0x3d77263c	0.060339198
69	0x3e6e22de	0.23255488
70	0xbcb2961f	-0.021800099
71	0x3e0e9066	0.13922271
72	0xbda486fe	-0.0803356
73	0xbe514a39	-0.2043847
74	0xbda8383d	-0.082138516
75	0x3e23126c	0.15924996
76	0xbd111aef	-0.035426077
77	0x3dcbb3b5	0.09946386
78	0xbd9f7a37	-0.077869825
79	0x3e9b711e	0.3035974
80	0x3d9e585d	0.07731698
81	0x3c0d4c2b	0.008624117
82	0x3b77f6f7	0.0037836412
83	0xbd70b2f4	-0.058764413
84	0xbdc66b43	-0.09688427
85	0xbf0b71e6	-0.5447067
86	0x3e73dc68	0.23814547
87	0xbd3835a8	-0.044973046
88	0x3dbfe512	0.093698636
89	0x3c79174b	0.015203307
90	0x3e26b1ba	0.16278735
91	0xbde1a818	-0.110183895
92	0xbd5c2073	-0.053741883
93	0x3ccde029	0.025131302
94	0x3d294be6	0.041332148
95	0xbe83b558	-0.25724292
96	0xbd37a6b2	-0.044836707
97	0xbd0d26ed	-0.03446095
98	0x3e7df33e	0.24799821
99	0x3cdea54a	0.027178425
100	0x3ca7c7c9	0.020481007
101	0xbe28a40b	-0.16468827
102	0xbe1093b0	-0.14118838
103	0x3da95472	0.0826806
104	0xbe200d88	-0.15630162
105	0xba2d0d0d	-0.0006601371
106	0xbcdb9bd2	-0.0268077
107	0xbdb545a1	-0.08851171
108	0xbce18595	-0.027529517
109	0xbe2b5e85	-0.16735275
110	0x3e87be8a	0.26512557
111	0xbed019f5	-0.40644804
112	0x3dd70535	0.1049904
113	0x3cddb12a	0.027062017
114	0xbe90e8dc	-0.28302658
115	0x3e34b7d0	0.17648244
116	0xbe0b957c	-0.13631243
117	0xbcdf4d74	-0.027258612
118	0x3aadf9c9	0.0013273294
119	0xbe178a80	-0.14798927
120	0xbe61001d	-0.219727
121	0x3dfc3c27	0.12316161
122	0x3e29e925	0.16592844
123	0xbe0f420d	-0.1399004
124	0xbd5abb81	-0.053401474
125	0x3db3c7e2	0.08778359
126	0x3d201137	0.039078917
127	0xbc886dc5	-0.016653905
128	0x3e211ee6	0.15734443
129	0x3aa60665	0.0012666701
130	0xbc8bd887	-0.017071022
131	0x3e154941	0.14578725
132	0x3dd98634	0.106213
133	0xbf029b93	-0.5101864
134	0xbd25edea	-0.040510096
135	0x3ddfc8b0	0.1092695
136	0x3d29d745	0.041465063
137	0xbe830264	-0.2558776
138	0x3d29e3e3	0.041477095
139	0x3db44946	0.08803038
140	0xbeacfc24	-0.33786118
141	0x3d8c6be2	0.068565145
142	0x3e1ecb72	0.15507296
143	0x3f0cbc02	0.5497438
144	0xbdfae185	-0.12250046
145	0xbdb4d04a	-0.088287905
146	0x3e2584f9	0.16164006
147	0x3dd7392b	0.10508951
148	0xbdd1b05a	-0.102387145
149	0xbe039cc2	-0.12852767
150	0x3e0db84e	0.13839838
151	0xbdb1aea1	-0.08675886
152	0xbf11fb84	-0.5702441
153	0x3e2f4be5	0.17118795
154	0xbd064602	-0.03278161
155	0x3d70632a	0.05868832
156	0xbc77ca39	-0.015123897
157	0xbe13311a	-0.143742
158	0x3d0af40c	0.033924147
159	0xbd6b370f	-0.057425555
160	0xbde2757c	-0.110575646
161	0x3c0b52d7	0.008503637
162	0x3eaf4c27	0.34237787
163	0x3e23c741	0.15993978
164	0xbdffac1c	-0.12483999
165	0xbde95f58	-0.113951385
166	0x3d18312f	0.03715628
167	0xbd35104b	-0.04420499
168	0xbbc256ac	-0.0059307422
169	0x3dd407a6	0.10353021
170	0xbda33aef	-0.07970225
171	0x3dc2e3b4	0.09516087
172	0xbe25cf8d	-0.16192456
173	0xbe862ba2	-0.26205164
174	0x3e12b899	0.14328231
175	0xbe258534	-0.16164094
176	0x3d4924ae	0.049107246
177	0x3a63f369	0.0008695634
178	0x3e01e55e	0.12685153
179	0x3dd77953	0.10521188
180	0xbe010383	-0.12598996
181	0x3d0982e0	0.033572078
182	0xbde513f3	-0.11185446
183	0xbc0cb40d	-0.008587849
184	0x3e6d9b42	0.23203757
185	0xbe9a1658	-0.30095172
186	0x3e342f81	0.17596246
187	0xbdbe3b4a	-0.09288652
188	0x3d16bef8	0.036803216
189	0x3c785286	0.015156394
190	0xbcc28e3b	-0.023749461
191	0xbc76884b	-0.015047143
192	0x3d1b3a95	0.037897665
193	0xbe4e33a0	-0.20136881
194	0x3b8a3b82	0.0042185197
195	0x39f88763	0.00047403117
196	0x3cb35f12	0.021895919
197	0x3ef9d270	0.48793364
198	0xbdd095e0	-0.101848364
199	0xbcf52240	-0.029923558
200	0x3d5c3623	0.053762566
201	0x3d4f381b	0.050590616
202	0xbd417214	-0.047227934
203	0x3e89661b	0.26835713
204	0x3ca20ff7	0.019783003
205	0x3d7de2b6	0.061983787
206	0x3e0072e3	0.12543826
207	0x3ec96036	0.39331216
208	0x3de4cdd9	0.11172075
209	0x3cbcb0e7	0.023033572
210	0xbcc1605d	-0.02360552
211	0xbe5a51c0	-0.21320248
212	0xbd83f42d	-0.06443057
213	0xbe8113a7	-0.25210306
214	0x3b999050	0.004686393
215	0x3e74eb1d	0.23917814
216	0xbd46efd2	-0.048568554
217	0x3dd6dbcc	0.10491142
218	0x3e370469	0.17872776
219	0xbe0f2e86	-0.13982591
220	0x3d60943f	0.05482888
221	0x3d1a1f7c	0.037627682
222	0x3e7b76fa	0.24557105
223	0x3d0ccf63	0.034377467
224	0xbdfa36a8	-0.12217456
225	0x3df9263d	0.121654965
226	0x3e96893c	0.29401577
227	0x3e1b942a	0.15193239
228	0x3e4f63f6	0.20252976
229	0xbc2f40c8	-0.010696597
230	0x3e182ede	0.14861628
231	0x3ddef5a1	0.10886694
232	0xbd255e07	-0.040372875
233	0x3e08d174	0.1336115
234	0xbda48959	-0.080340095
235	0xbe126d2b	-0.14299457
236	0x3daf5320	0.08560777
237	0xbd55f12b	-0.05223195
238	0xbd9c2b8a	-0.07625492
239	0xbdb7abc3	-0.08968308
240	0xbd1e89d6	-0.03870567
241	0xbdcf33aa	-0.10117276
242	0xbc03a1b5	-0.008034159
243	0xbd060cbd	-0.032726992
244	0xbe00c39a	-0.12574616
245	0xbdb1105a	-0.08645697
246	0x3d1c752d	0.038197685
247	0x3c6f5766	0.01460824
248	0xbd652420	-0.055942655
249	0xbd97b00f	-0.074066274
250	0x3db64b92	0.08901133
251	0xbe09d3c4	-0.13459688
252	0xbd8c9316	-0.06863992
253	0x3cfe0f97	0.031013293
254	0xbd4813df	-0.048847076
255	0x3b8cda25	0.004298466

fc3.bias f4 [32]
0	0x3e15fdd7	0.14647613
1	0x3ef28344	0.47365773
2	0x3ec87494	0.39151442
3	0xbed76a61	-0.42073348
4	0x3f170a93	0.5900051
5	0x3ee57526	0.4481594
6	0x3ee5da83	0.44893274
7	0x3dcf317b	0.101168595
8	0x3ecdf3d4	0.4022509
9	0xbe42e8bc	-0.19034094
10	0xbd7983ca	-0.0609167
11	0x3f0f3364	0.5593779
12	0x3e502631	0.20327069
13	0xbdba3eab	-0.09093984
14	0x3f0cd108	0.55006456
15	0x3f3bd89d	0.733774
16	0x3eb16be2	0.3465262
17	0x3e34e9cb	0.1766731
18	0x3ea91ad7	0.3302829
19	0xbe63dc38	-0.22251976
20	0x3e6df920	0.23239565
21	0x3f241c54	0.64105725
22	0xbda93e56	-0.08263843
23	0xbf40807e	-0.75196064
24	0x3f0f09a7	0.55874103
25	0xbe5d0cb1	-0.21586873
26	0x3ef8d757	0.4860179
27	0x3d213713	0.039359163
28	0xbea890e0	-0.3292303
29	0x3eb920ba	0.3615778
30	0x3e56b0ca	0.20965877
31	0x3f1a5d9d	0.6029909

fc_mu.weight f4 [1, 32]
0	0xbdcf5dac	-0.10125288
1	0xbed42d33	-0.41440734
2	0x3ee9d1d7	0.45667908
3	0xbe632605	-0.22182472
4	0xbd5dab10	-0.054118216
5	0x3f177512	0.5916301
6	0x3f856593	1.0421623
7	0xbf8f28b5	-1.1184298
8	0x3f0a3d83	0.5400011
9	0xbe7fa278	-0.2496432
10	0xbef7920c	-0.48353612
11	0x3f8e2ca5	1.1107374
12	0x3e9dcfbd	0.30822554
13	0xbf5d1cf9	-0.86372334
14	0x3f8658a1	1.0495797
15	0x3e79d091	0.24395968
16	0xbf0d2af6	-0.5514368
17	0x3f2a707d	0.66577893
18	0x3edca2d4	0.43092978
19	0xbef6d7fd	-0.4821166
20	0x3e372506	0.17885217
21	0x3f4e2002	0.8051759
22	0xbe220cab	-0.15825145
23	0xbde3f696	-0.11131017
24	0xbe93c211	-0.28858998
25	0xbf2ae370	-0.6675329
26	0x3e65cc6d	0.22441263
27	0x3e3500dc	0.17676109
28	0xbe404ab3	-0.18778495
29	0x3f15b0ed	0.5847309
30	0xbf46e59f	-0.77694124
31	0x3cdd8014	0.027038611

fc_std.weight f4 [1, 32]
0	0xbe20153a	-0.15633097
1	0xbe13a4a6	-0.14418277
2	0x3e192d05	0.1495858
3	0x3d8d9d1e	0.06914733
4	0xbed3ebe4	-0.41390908
5	0x3e93ac3d	0.28842345
6	0x3c8e40fe	0.017364975
7	0xbda7be29	-0.08190567
8	0xbe894cbe	-0.26816362
9	0xbe7b8979	-0.2456416
10	0xbe686f4a	-0.22698703
11	0xbbee2da6	-0.0072686253
12	0x3e186ab9	0.14884461
13	0x3eada301	0.33913425
14	0x3d6d7516	0.05797299
15	0xbe04057e	-0.1289272
16	0xbdeb60fc	-0.11493108
17	0x3e86293e	0.2620334
18	0x3d53bae4	0.051691905
19	0x3e1ab1bb	0.15106861
20	0xbdb0ed95	-0.08639065
21	0x3d9e6dcc	0.07735786
22	0x3df16cb8	0.117883146
23	0x3e5f0c21	0.2178197
24	0xbe9fa870	-0.31183195
25	0x3e689be5	0.22715719
26	0x3dfe265f	0.124096625
27	0xbbdeea43	-0.0068028285
28	0x3e0c55e0	0.13704634
29	0x3e95b164	0.292369
30	0x3d455fc3	0.04818703
31	0xbe793332	-0.24335936
