myrobot/src/SAC/saved_model/1206_2/sac_22.pt (torch, 47503 bytes, 8 tensors)

fc1.weight f4 [128, 4]
00000000: 369d c2be c9a7 67bb b9c4 9cbe 565e b2be
00000010: dbf8 923e bcd5 1abe 1a73 e23e 5684 a3be
00000020: 96de 00bf 182a 69bd 5434 a43e 3a32 4bbe
00000030: 4e95 40bd 9a32 3b3d 2162 713e 373a 81be
00000040: 5e6c c8be d3a7 a3be 2a9c 983e e545 353e
00000050: 8e5a 1cbf 40e8 4fbe 8f75 a13d 6f0c b8bc
00000060: 9357 903e d8f6 133e c6b8 0d3d ca18 6e3e
00000070: c8c6 37be 4965 3cbd 6c70 febe c192 8dbc
00000080: 8e05 143f 38d1 f83d e5ce 1fbe 127d 27be
00000090: aa10 223d 34e2 8a3d a4aa 09bf 2019 9e3c
000000a0: abb5 8cbe 55ad af3e 3c60 b3be a786 41bd
000000b0: c3d1 033f 2abe 84bd 5ccb 063e de10 cfbe
000000c0: 0e84 b0be 7ac3 d6bc a2c8 abbe a4f8 413e
000000d0: 0015 bfbe c980 ac3d 03a3 d03e f445 fcbe
000000e0: 9e0b 29bf 1078 92be 7f5c 8b3e 626a 303e
000000f0: 3c18 c83e 24a4 02bf e40e 36be 61e6 cb3e
00000100: a0bf a43e 6450 fbbe d04f 313b 4c74 dabd
00000110: 625b c63e fb58 8e3e b6fb 303d 5455 b03e
00000120: 89fb b13e 66bc 6abd 5acd d3be 261a c53e
00000130: 37f2 b93c 4607 8f3e fdf2 5d3e 246f a33e
00000140: ad64 963d cbc6 653e e59b c5be 9c58 a7bc
00000150: 2d10 35bf 1609 4abd 407e 623e cf78 3d3c
00000160: 501f ae3e 7785 dcbe 1f3e 8a3d 45ae 92bc
00000170: eba5 0ebe 84ac a7bd 286e cdbe 6c99 c7be
00000180: dc02 acbe 8111 b4be 956c 93bd 7aab c0bd
00000190: 7c56 703e 42dd 1d3e f445 053f 9a56 873e
000001a0: d4c8 063f 30fe 0b3f f1b1 73be f81d 033d
000001b0: 7849 f0be 7b68 973c 123f a1be 4cbb 1d3e
000001c0: c5a7 ce3e 0ffb 00bf a574 e73d 8614 c13e
000001d0: d8c2 03bf 6df0 b63d 3900 953e a404 2b3e
000001e0: 5c1c 97bd 169e a53e 8927 e4be 13fb 74be
000001f0: b7ba 113f 3641 a03e deba 6abe fa15 6d3d
00000200: 164a 233e 9392 fa3c fdca 9fbe 64ef 3d3e
00000210: aa44 ae3e 44c2 81be 6cb9 b3be ac69 d93e
00000220: a7c9 f03e ef9b ff3e b187 c63e fb87 ab3d
00000230: 8544 2ebd a460 cc3d e690 62be 553d a1be
00000240: e6b1 1cbf ebed 8abe c895 63be cb18 4cbe
00000250: 0806 dfbe da51 883e bc1e 1cbf 67ab d63e
00000260: 988b 82be 5908 2f3e ba29 0fbf 0a85 5eba
00000270: 299e eebe d3dd 9fbe 1e3c 60be c048 22be
00000280: 0a00 23bf c78d bb3e c978 d43d a029 d6bb
00000290: 5072 d0be 1e89 9cbe f235 ccbe 56f6 37be
000002a0: 529f f43d 7977 2b3e 1d49 01bf c828 b93e
000002b0: dbec 4c3b c6fa ebbe 465f 0c3e fb8e f13c
000002c0: f80d 99bd b6d3 283e 1348 32be add2 d13d
000002d0: 05f3 7b3e 7082 113e 9933 6cbe 6049 9cbe
000002e0: 5f33 e1bd 049c 13be 1d5a dd3c 9a1c 46be
000002f0: 1198 35bf b612 4c3e 9b33 0dbf 33db 75be
00000300: bda6 d7be 8ce0 ee3e c195 3d3d 113f b03e
00000310: 5f8a 27bf 4768 563d 8875 24be 54fb 5dbe
00000320: 28e8 44be 2075 ac3d fd21 c83e 95b2 5b3e
00000330: a3c9 153f 51b6 debb e75f 893c c209 b13e
00000340: 5416 dfbe dbfe aabe 6ba2 eabe 5b2b a63e
00000350: 41b9 d7be 4e62 7d3e 3dd7 fc3e 9c9b febe
00000360: 70ef e7bc df86 b83b a342 fe3e dada e83e
00000370: f799 383e 3725 023f 8869 883e ccde b2bd
00000380: d513 df3e a4b5 57bc 35df f93e 00ea 48be
00000390: a2eb 213f 97fc 9f3e 7219 07bf af44 debc
000003a0: 44ae 1bbf be56 d3be 8edd 69be d6bc 2bbd
000003b0: d81b 953e d2fd abbe 84a1 8cbe 8c83 bbbc
000003c0: d198 99be 155d d3be e15a 7bbc 8e21 9d3e
000003d0: d3cb f9be 9a1d 423e 9aa6 e23e 3fa1 023b
000003e0: ef28 093e 0955 5cbd 5266 e03d 54b2 ad3e
000003f0: 12fb 18be 22ac 46be 91e1 633e 036a f8be
-0.38010567 -0.003534781 -0.30618837 -0.34837598 0.28705487 -0.15120596 0.4422844 -0.31936902
-0.5033964 -0.05692491 0.32071173 -0.19843379 -0.047017388 0.045702554 0.2357259 -0.25239727
-0.39145178 -0.31963977 0.29806644 0.17702444 -0.61075675 -0.2030344 0.07883751 -0.022466866
0.28191814 0.14449632 0.03460004 0.23251644 -0.17946923 -0.04599503 -0.49695146 -0.017281892
0.57820976 0.1214928 -0.15606268 -0.16356304 0.039566673 0.06781426 -0.53776 0.01929909
-0.27482352 0.3431193 -0.35034359 -0.047247555 0.51491946 -0.064815834 0.13163513 -0.40442556
-0.3447575 -0.026216257 -0.33551508 0.18942505 -0.3732071 0.08423001 0.40749368 -0.4927212
-0.6603335 -0.28607225 0.27219006 0.17228082 0.3908099 -0.5103171 -0.17779118 0.39824203
0.32177448 -0.4908477 0.0027055629 -0.10666713 0.38741595 0.27802262 0.0432088 0.344401
0.3476222 -0.057308577 -0.41367608 0.38496512 0.022698505 0.27935237 0.21674724 0.3192073
0.07343421 0.22439115 -0.385955 -0.020427994 -0.7072781 -0.04932507 0.22118473 0.011564448
0.34008265 -0.43070576 0.0675013 -0.017905364 -0.1393048 -0.081872016 -0.40123105 -0.3898424
-0.33595932 -0.35169604 -0.07198445 -0.094077066 0.23470491 0.15416434 0.52059865 0.2643326
0.5265019 0.54684734 -0.23798348 0.032011002 -0.46931052 0.018482437 -0.3149343 0.1540348
0.40362373 -0.50383085 0.11301545 0.3771097 -0.5146918 0.08932576 0.29101732 0.16700989
-0.07378456 0.32347172 -0.44561413 -0.23923902 0.5692553 0.31299752 -0.22922847 0.057882287
0.1594623 0.03058747 -0.31209555 0.18548352 0.34036762 -0.25343525 -0.35102403 0.42463434
0.4702885 0.49923655 0.387754 0.083755456 -0.042545814 0.0997937 -0.22125587 -0.31492105
-0.6120895 -0.27134642 -0.22225106 -0.19931333 -0.4355929 0.26624948 -0.60984397 0.41927645
-0.25497127 0.17093028 -0.55923045 -0.00084884523 -0.46605042 -0.31223926 -0.21897933 -0.15848064
-0.63671935 0.36631605 0.103746004 -0.006535724 -0.40712214 -0.30573362 -0.39884907 -0.17965063
0.119444504 0.16744794 -0.50502187 0.36163926 0.0031269107 -0.46089762 0.13708219 0.029487124
-0.074733675 0.16487011 -0.17410307 0.10245261 0.24604423 0.14209914 -0.23066558 -0.3052473
-0.109961264 -0.14414984 0.027020508 -0.19346848 -0.7093516 0.19929013 -0.5515687 -0.24009399
-0.421194 0.4665569 0.046285395 0.34423116 -0.6544551 0.05234554 -0.1606046 -0.21677905
-0.19229186 0.08420777 0.3908843 0.21454842 0.585108 -0.006796636 0.016769363 0.34577757
-0.43571723 -0.33397564 -0.4582704 0.32454953 -0.42133525 0.24744532 0.49382964 -0.49728096
-0.028312415 0.0056313123 0.49660215 0.4547947 0.18027483 0.50838035 0.26643014 -0.087339014
0.43569818 -0.013165865 0.48803106 -0.19620514 0.6325017 0.31247398 -0.527732 -0.02713236
-0.60812783 -0.41277117 -0.22838423 -0.041928135 0.29122806 -0.33592087 -0.27466977 -0.022889875
-0.29999402 -0.41281953 -0.015341491 0.30689663 -0.48788318 0.18956605 0.44267732 0.0019932536
0.13394521 -0.053792033 0.10957016 0.33925116 -0.14939526 -0.19401601 0.22254016 -0.4851838

fc1.bias f4 [128]
00000000: b569 dbbd 2e25 e63e f058 343e 9c03 44be
00000010: 4ee3 ad3e f342 143f 575b da3e ce95 88bd
00000020: 6fe6 023d ec17 d83e 1e95 37be 11a6 04be
00000030: 2cb4 8fbd 59ca 6a3e fb57 dbbe a39d a23d
00000040: fa1f e1be 5927 13be a24b 763e ffac edbd
00000050: ef73 0f3f 20c9 c4be f055 c3be bf84 a63e
00000060: cf75 5dbe deea e33e d413 cfbc 49e8 2bbe
00000070: 82d0 3dbb c0ce d13d 9264 44bc 2e45 893e
00000080: a8a8 febe 77df bc3e b457 29be 7017 05be
00000090: b748 b5be d2b0 593d 4a35 073f b5e2 433e
000000a0: d50b 83be bb44 673e 7cbe 963e 5ac9 7fbe
000000b0: dbf9 e93e 426a 003e 5b3b efbe ad80 8d3d
000000c0: d467 093f 8e14 0c3f 77e5 88be 6d34 62be
000000d0: 83d3 19bd 1014 9a3e 47c8 6b3e 1bea ce3c
000000e0: d8cf 62be 7dfa 58be 2e84 94be 8814 0c3f
000000f0: f54f 523e b771 d3bd f81f d23e b4f7 6ebe
00000100: 5c32 bd3e 8e59 193d 556d 113e b170 d23e
00000110: 6362 75be cbdd d73e 287d 75be ad50 da3e
00000120: 4633 6cbe b796 dd3e 22f2 d43e a37e ff3e
00000130: ab0c 9bbe 2a42 b6be b105 a63e d3b5 253d
00000140: 223c 3fbe d588 b03d ca65 6c3e 00f2 a63d
00000150: 6678 803e 2521 c23e c076 fcbb 680d 073f
00000160: c35c 72be fb61 e1be 1860 c8be 066f fa3d
00000170: f79a dcbe 839f 373e d521 103e 7a77 df3e
00000180: b51c 0b3f df32 babe 156e f9bd 353c c13c
00000190: 78ad 10be a267 b2be 4894 be3e 1bf4 2e3e
000001a0: 7415 64be 16a4 c2be 18e1 d4be b356 b63e
000001b0: ea5a a43e be90 dc3e 382e cf3e 8c07 9dbd
000001c0: cc8d 05be 4f7b 93be 0609 67be 975b 493e
000001d0: dce0 2e3e e0f2 f23e 7f6d 83be f66b 963d
000001e0: 6b94 f93e 70ef 213e 8f2a 483e bc8f c53e
000001f0: 50cf b93d ae68 97be 8bd1 163e c9e9 c03e
-0.107135214 0.4495024 0.17612052 -0.19142002 0.33962482 0.57914656 0.42647812 -0.06669198
0.03195804 0.4220575 -0.17927977 -0.12953974 -0.07016787 0.22928752 -0.4284056 0.07940223
-0.4396971 -0.14370479 0.24052289 -0.11605262 0.56036276 -0.38434696 -0.38151503 0.32523152
-0.21626972 0.44515127 -0.02527801 -0.16787829 -0.0028963392 0.102445126 -0.011986868 0.26810592
-0.4973805 0.3688924 -0.16537362 -0.12997222 -0.3540704 0.053147145 0.5281569 0.1912945
-0.25594965 0.22584812 0.29442203 -0.24979153 0.45698437 0.12540534 -0.46724972 0.069093086
0.53674054 0.54718864 -0.26737568 -0.22090311 -0.03755523 0.3009343 0.23025618 0.025258115
-0.22149599 -0.21189304 -0.29007095 0.5471883 0.20538314 -0.10324424 0.41040015 -0.23336679
0.36952484 0.03743892 0.14201863 0.41101602 -0.23963313 0.42161402 -0.23973525 0.42639676
-0.23066434 0.4327905 0.41590983 0.49901304 -0.30283102 -0.35597354 0.32426217 0.040456604
-0.18675283 0.08619849 0.23085704 0.081516266 0.25091857 0.37915912 -0.007704586 0.5275483
-0.23668198 -0.44020066 -0.39135814 0.12228207 -0.4308698 0.17931943 0.14075406 0.4364584
0.5434068 -0.36366937 -0.121791996 0.02358828 -0.14128673 -0.3484469 0.37222505 0.17085306
-0.22273809 -0.38015813 -0.41577983 0.3561302 0.32100612 0.4307918 0.4046495 -0.07667455
-0.13042372 -0.28805014 -0.22562036 0.19663845 0.17077965 0.47450924 -0.25669476 0.07344811
0.48746046 0.15813994 0.19547485 0.38586223 0.09072745 -0.29572052 0.14728372 0.37678364

fc2.weight f4 [64, 128]
00000000: b3d7 a2bd d786 87bd 7116 5b3d c133 41bd
00000010: a6a4 debc f84f 9dbb 3728 2a3d 55d3 bf3d
00000020: 69a0 56bd 6684 d03d 6546 aebd 2f80 9fbd
00000030: b1c7 9fbd 8519 043c c92c 953d ee52 46bd
00000040: 4908 3d3b 7de8 91bd 5753 a93d dbb7 52bd
00000050: c173 413e 13a0 1dbe bc95 e93c 5981 b83d
00000060: 88ec a0bd 7b33 fdbc ebe7 2c3d 2be0 80bd
00000070: be94 683d f51e a9bd cb17 cbbd 561a 5a3d
00000080: fd95 443d 2c6d a33c 8df4 493d 33d7 993d
00000090: 421c 9fbc 7079 f3bc 82d9 a13d 5b6b 6c3d
000000a0: a5e3 f8bd bd38 9c3d 0aeb 7dbd 9f7d 44bd
000000b0: d833 6dbd e416 22bc 60d9 ae3c e104 993d
000000c0: a6ef 7abc dd4f b5bc 33a8 a8bd 9f67 aa3d
000000d0: b89d a33d 6b44 1e3d bc56 a73d a713 a0bb
000000e0: c9a8 333c b79a 5a3e 555c 923d f097 5abd
000000f0: 16be bebc 6448 18be f2b5 d73c 13dc 20bd
00000100: a9f2 38bc b9f6 f1bb 4c26 b1bd c541 0d3d
00000110: ea50 ef3c 286d d7bd 24a4 96bc 2a72 bb3d
00000120: 88c2 98bc 1953 843c 669c 003d c6e2 803d
00000130: 308e 423d 0ac3 383d 6b16 453c 1d5c 6cbd
00000140: b2d8 1fbd b645 a9bd 807e 0d3d a0ea 85bd
00000150: 48ee 793d eade 21bd c4ff 8d3d 07a1 b139
00000160: 934f 5fbd 2169 b73a e2f3 8dbd 17e0 82bc
00000170: ea4b 9abb 95ee 6abe 076e f1bc 2130 8b3c
00000180: 7a44 46bb 3cc1 a4bb fe87 eabc 6d29 61bd
00000190: b010 f53b 86f2 e3bc 3cbf 51bd dd68 923d
000001a0: 4c9e dabc f70b a33d fc7b 15be 0e14 6cbc
000001b0: 8439 d8bd a256 49bc 9c8b 1bbd 36b4 13bd
000001c0: 0edc 953c 0222 c23b 05c6 263d f3c7 41bd
000001d0: 739b 96bd fbc6 883d cabb d6bd cf8d e7bc
000001e0: 2bff c23d 86ae 04bd 9406 473d c433 9f3d
000001f0: fb12 a33c 65d7 3b3d 9578 873b a8f4 093b
00000200: 8cd8 32bd 0849 443c 5afa bbbd c306 e8bc
00000210: bf06 aabd 03b2 98bb f723 81bd 151b 183d
00000220: de08 df3c fcf5 dc3d e626 0b3d 2bb9 d73d
00000230: 812f 68bd f5ca 86bd 63e9 83bc a235 c33b
00000240: b6cc 28bd e9ee 4f3d 73ef fcbb 16b3 e13c
00000250: 011a a43d 58e6 18be 3c51 803d 0f0b 3abd
00000260: 1eec b4bd 426e 0abd a573 21bd 283c b03c
00000270: 63ac 0abd 1ff9 72bd 6fdb 623d eb65 a43d
00000280: 8dd4 a93d a3a8 73bc ce2f b33c bb69 893b
00000290: d6b8 593d 6104 4cbd 5eaa 8e3e 7903 9fbd
000002a0: 8235 71bd 386b 833d a87e c33d ebfb 33bd
000002b0: 8b1c 32bd 1e2b a33d 1768 98bd 8f83 053e
000002c0: 4d70 b93d 86f4 3c3e eaee 293c 4ccd 9a3c
000002d0: a20a 9a3d 8687 9d3b 75df e33c a808 50bd
000002e0: 79d4 d23c 1fc0 d43c c09f b3bc 2bdf 6d3d
000002f0: 859b 13bd ccb8 a4bd 166e c63d b907 c7bc
00000300: b50e b1bd c13c 863d 6465 f7bc fb43 5f3d
00000310: bff6 023d 7525 51bd 7fa2 383d 3188 a2bd
00000320: 0492 8abd 473c 2ebc 2a03 d73c 1f71 87bd
00000330: 85fa a9bd 0c51 763d 459a 37bd 6c69 733d
00000340: da78 d7b9 be13 afbd d650 103c cd6b c0bb
00000350: 4e91 373d 9af3 a6bc 2bb2 233d b647 683c
00000360: b896 25bc 2285 acbd 2406 47bc 0651 3b3c
00000370: 380d 4a3d 182c 353d ae55 9fbd 5d48 4e3d
00000380: 2c0a 833d 40b6 01bd 5ce6 f7ba 9e60 6b3c
00000390: 9aa4 aebd ef69 5ebd 8c30 e1bc 58c8 823d
000003a0: 8ef5 503d 2283 fb3c be6b c5bc cd85 6bbd
000003b0: 4771 a7bd 6ab3 84bd ba96 35bd 4b95 98bd
000003c0: cf5d 203d 8c7f bfbd 890e c5bd 700f 663d
000003d0: eae9 cd3d c7b1 4bbd 8953 8abc f55f 6b3d
000003e0: 8194 17bc 34f4 823d 0f17 273c 01f9 30bd
000003f0: d71e d5bd fbbb 333d a4a5 43bc b17e 1dbd
-0.079512976 -0.066175155 0.0534882 -0.047168497 -0.02717812 -0.004800793 0.041542258 0.0936648
-0.052399073 0.10181503 -0.085095204 -0.07788121 -0.0780176 0.008062725 0.07283933 -0.04841893
0.002884405 -0.07124422 0.08267849 -0.05144487 0.18891813 -0.15393095 0.028513782 0.09009046
-0.07857615 -0.030908337 0.04221336 -0.06292757 0.056782477 -0.08257858 -0.099166475 0.053247772
0.047994602 0.019949518 0.049305487 0.07511749 -0.019422654 -0.029720992 0.079028144 0.05771957
-0.12152795 0.076280095 -0.06199173 -0.047971364 -0.05791077 -0.009893153 0.021343887 0.07471634
-0.015315926 -0.022132808 -0.082352065 0.083205454 0.07989067 0.038639467 0.0817084 -0.0048851552
0.0109655345 0.21348082 0.07146517 -0.053367555 -0.023284 -0.14871365 0.026331875 -0.03927238
-0.011288323 -0.007384148 -0.08649883 0.03448655 0.029213388 -0.10518867 -0.018388815 0.091526344
-0.018647447 0.016152905 0.031399153 0.062932536 0.04749888 0.04510788 0.012029271 -0.057705034
-0.039025016 -0.082652494 0.034544468 -0.06538892 0.06101826 -0.039519228 0.06933549 0.00033880046
-0.054519247 0.0013993123 -0.069312826 -0.015975995 -0.0047087567 -0.22942574 -0.02947141 0.016990723
-0.0030253218 -0.005027918 -0.0286293 -0.054971147 0.007478796 -0.027825605 -0.051207766 0.07148907
-0.02668681 0.079612665 -0.14598078 -0.014409078 -0.10557845 -0.012288721 -0.03797494 -0.036060534
0.018293407 0.005924464 0.04071619 -0.047309827 -0.07353868 0.066785775 -0.10485037 -0.028265862
0.09521326 -0.032393 0.048590258 0.077735454 0.019906512 0.045859713 0.0041342475 0.0021050368
-0.043663546 0.011980303 -0.0917861 -0.028323537 -0.08302068 -0.0046598925 -0.06305688 0.037135202
0.027225908 0.10789105 0.033972643 0.10533365 -0.05668593 -0.0658168 -0.016102498 0.0059573213
-0.041210853 0.05076495 -0.0077189743 0.027551215 0.08012772 -0.14931619 0.06265494 -0.045420703
-0.08834098 -0.033796556 -0.039416928 0.02151306 -0.033855807 -0.05931961 0.05538505 0.08027252
0.08292494 -0.014871749 0.021873381 0.0041935123 0.05315479 -0.049808864 0.27864355 -0.07764334
-0.05888892 0.06416935 0.09545642 -0.04394142 -0.043484252 0.07967208 -0.074417286 0.13038467
0.09054623 0.18452653 0.010371903 0.018896721 0.07521559 0.0048074154 0.027816514 -0.050789505
0.02573608 0.025970517 -0.02192676 0.058074158 -0.036036987 -0.0804306 0.09688966 -0.024295675
-0.08645383 0.06554557 -0.030199714 0.05450819 0.031973597 -0.051061112 0.045076843 -0.07936133
-0.067661315 -0.010634488 0.026246626 -0.06613373 -0.08299736 0.060135886 -0.044824857 0.05942671
-0.00041098037 -0.085486874 0.008808335 -0.005872226 0.044816308 -0.02037983 0.039964836 0.0141772535
-0.010106735 -0.084238306 -0.01214746 0.011432892 0.049329013 0.044231504 -0.07780014 0.05036198
0.063984245 -0.031667948 -0.0018913257 0.014366297 -0.08527489 -0.054300245 -0.02748897 0.06385869
0.05101543 0.030702177 -0.024099227 -0.05750065 -0.08175903 -0.06479533 -0.044333197 -0.074503504
0.039151963 -0.093504995 -0.09621913 0.056167066 0.10054381 -0.04973009 -0.016885536 0.05746456
-0.009251715 0.06394234 0.010198369 -0.04320622 -0.10406273 0.043880444 -0.011941347 -0.0384509

fc2.bias f4 [64]
00000000: 06b6 a53d 75f0 253e 0225 8abd 1eb9 583d
00000010: f7fb 7f3d 42ec 103b 1494 7e3d a786 e23d
00000020: d8a3 16bd 316c 5d3d ec6a 103d 88c1 f23b
00000030: 82c8 113d b370 a2bc 46ae 61bd 008f 5e3d
00000040: 6afc e03d 296e 5e3d 2238 9cbd 2048 acbb
00000050: 4d67 123e 3d45 403d 4dfa 7abd 79d1 c13b
00000060: 507b a6bd 4ad6 a83d c889 edbc d741 123d
00000070: 4efa 0dbe e13d 25be 589d bdbd 2ff7 71bd
00000080: 7b44 b7bd 1a94 32be 8627 9abd ae5b 5a3e
00000090: f902 983c ea21 0fbe 0349 b7bd 6af9 033b
000000a0: 9910 303d 72c9 55bd ae0b fe3d 7bf6 54bc
000000b0: e259 57bb aa42 75bc 9962 86bb 5def 293d
000000c0: dd3b 753d c174 10be ff62 243c 5b3b b8bd
000000d0: 727a 073e 78aa 26bd 7517 583d 36ce d43d
000000e0: d436 0d3c 6a76 a1bc f725 073e 20de 603d
000000f0: f897 fd3d 85f0 43bd de8d 223e 5622 333e
0.08091359 0.16205008 -0.0674534 0.052910917 0.06249615 0.0022113477 0.062152937 0.11060839
-0.036777347 0.054058257 0.03525822 0.0074083246 0.03559161 -0.01982913 -0.05509784 0.054335594
0.10985644 0.054304276 -0.07627894 -0.0052576214 0.14297219 0.04694103 -0.06127386 0.0059148637
-0.08128989 0.082439974 -0.028996363 0.03570732 -0.13865015 -0.16136886 -0.092585266 -0.059073623
-0.089486085 -0.17439309 -0.0752707 0.21324036 0.018556105 -0.13977781 -0.08949473 0.0020137676
0.04298458 -0.052194066 0.124045715 -0.012998219 -0.003285997 -0.014969507 -0.004101109 0.04148804
0.059871543 -0.14107038 0.010033368 -0.08995696 0.13230303 -0.040689915 0.052756745 0.10390894
0.008619029 -0.019709785 0.13198076 0.054899335 0.12382501 -0.0478368 0.1587443 0.17493567

fc3.weight f4 [32, 64]
00000000: 56a7 103e 7c64 133e fb72 453d 098e 0b3e
00000010: 86a8 0f3e 78bb efbd fbcf ddbd 24d6 1dbd
00000020: 1e4c 0f3d e2f6 06bc 17c5 e5bd f780 ec3d
00000030: 3ad8 c13c 85ec 8d3e 5869 c23c a444 de3d
00000040: b4e1 293d 31c7 8d3d 7bc3 29bd 0dec e8bd
00000050: ff08 a8ba cf8e dc3d b544 e23d a6fd 893d
00000060: 928c 21bd 13bd 13be 8315 4b3d cda2 d43d
00000070: b29c 173d b75b ce3d c6d9 0b3e 12d0 51bd
00000080: 7509 aebd 9b69 94bd 4871 35bd 16d3 85bc
00000090: 6454 1b3e 1d8d ddbd f5c6 653d e55a 9dbd
000000a0: 2d0c b43d 6458 aabd 5979 50bd c680 c23d
000000b0: a7bb 4cbe d41c d7bc 0092 a33d 5000 e4bd
000000c0: 21db 17be e546 eb3d fa1e 673d d7b4 533d
000000d0: 0144 9ebc 38aa 36bd 233c 573d 4920 b03c
000000e0: cee0 87bd 46de afbd 445f ccbd 84fd febc
000000f0: 539e 253e c7f2 783c 9b56 523c 7a66 27bd
00000100: 3bf9 94bc 448c 0d3d 8bdf 923c 58f2 f93c
00000110: d345 2fbe 6479 1f3e 0cc0 eb3d e4ad 3ebd
00000120: ad14 023e d936 803d cea8 5d3e cbff 9e3d
00000130: 27c8 7d3d 4fe6 f93d 565f 7c3d e7d6 1d3e
00000140: 0234 94bc 8d41 363d 4fe0 2b3e 261b b7bd
00000150: 2538 803d db4b d6bc a448 77bd a79b f13d
00000160: 7280 613d 527c 2abd 95cf 9abd a490 c3bd
00000170: c28f 9f3d 2001 70bd 813f bcbd 6a9c aa3d
00000180: 5171 b03d 075f 8b3c 7315 b53d 6b2c 4fbd
00000190: 77da 1abd 63cc d9bd 65d5 973d 2c67 d53d
000001a0: 0595 183e 9124 b23d de59 013e 7ffd f83d
000001b0: 4dcd 113e d2f8 97bb 284f 0cbe 0595 953d
000001c0: 065e 323d 6578 e03b b6d4 d7bd cf21 ebbd
000001d0: 7a14 83bd ba96 bdbd 7124 9abd 0ec4 ecbd
000001e0: d68f 9c3d 726b f73c d08b dcbc 715c ed3d
000001f0: 39bf 373e 0e89 033e 4f26 4abd 200d ff3d
00000200: edd7 01be b08e 453e 0087 3a3d c5a2 d83d
00000210: 6609 20be 5d03 0dbb af9e ef3d c96a 323d
00000220: 5d0e 8c3c d4e8 afbc 661c 303e 84cc 5c3c
00000230: 426d 81bb f5ff 663e 72b9 e83d c20b 4f3e
00000240: fec8 fa3b 4556 cb3a 3461 843d 408e 0f3d
00000250: d767 85bb dc1c 9a3b d576 7c3d 9627 8939
00000260: 6dd3 383d d3dd a53d be05 a93d 78d4 853d
00000270: 5cb4 be3d 7094 7a3d 6626 92bd 3442 e0bd
00000280: 5523 dbbd 8ebe e63c 9d6d 98bd e0b4 9c3d
00000290: 92ae 62bc 95c2 033d fe77 4dbd 2d09 cb3d
000002a0: cd5d 313e df8a cb3c ff26 9a3d 32d6 16bd
000002b0: 41bc 433d fd4d 53bd 740e 80bc c19a 8d3d
000002c0: 1ace 843d 2e55 b1bd 1e15 9e3b a823 b23d
000002d0: ca55 a53d 2f9d f6bd 61e8 8e3d e6b5 cf3d
000002e0: 7401 f4bd 41cb e6bd 326e 99bd e284 103e
000002f0: 1444 193e 4f2a ee3d 440e 273e b96a 893d
00000300: feff ac3c f842 36bc edb6 143d 6b7b ba3d
00000310: 573e fd3d 6ec2 bd3d af29 bbbd 5b1c d2bc
00000320: 1403 673c 5d19 0bbd f680 c0bb e349 15be
00000330: 03a4 c93d 93e3 eb3d 62a1 f33c d185 74bd
00000340: 7888 a1bc 2e24 f43c 5fd7 0e3e 1b99 5c3c
00000350: 2e47 bbbc 024d 3f3d bb69 013d 9156 143e
00000360: dac5 2c3d f6fe bcbc 51c9 ddbd d193 c63d
00000370: b66d 77bd dba8 aebc c0fa dc3d 2c1b d6bd
00000380: 273a f73d 0f1a 00bd b54e cf3d 4ede 70bd
00000390: 9140 853d 1528 05bd 3590 f13d b024 8c3c
000003a0: 1ea1 4a3d fbf9 d43d 0b8c a0bd b602 13bc
000003b0: f55d bf3d 86aa 9abd c5da 03be 3b71 e1bc
000003c0: da32 bf3d 5aa1 a03d d223 03be 66a5 9f3d
000003d0: b42f 1fbb 2b7e 97bc d590 903b 3f35 98bd
000003e0: 8346 8cbd 820f ab3d 3867 073d 3b3b 9d3c
000003f0: 3d1a d63c f0fb aa3c 9251 53bc 82db 31bd
0.14126334 0.143938 0.048205357 0.13628401 0.1402913 -0.11705679 -0.10830685 -0.0385343
0.0349847 -0.008237572 -0.112192325 0.115480356 0.023662675 0.27719513 0.023731872 0.10852936
0.041475013 0.06922758 -0.04144619 -0.11373148 -0.0012820064 0.10769426 0.11048261 0.06737833
-0.0394407 -0.14427595 0.049581062 0.10382614 0.03701467 0.10076087 0.13657293 -0.051223822
-0.084978975 -0.07246705 -0.044297487 -0.016336005 0.15168911 -0.10817931 0.056097943 -0.076833524
0.08791385 -0.083176404 -0.050896976 0.09497218 -0.19993459 -0.026258864 0.07986832 -0.11132872
-0.14829685 0.114881314 0.056426026 0.051686134 -0.019319536 -0.044595927 0.052547585 0.02149977
-0.06634675 -0.08587317 -0.09979108 -0.031126745 0.16173677 0.015194601 0.012838031 -0.040869214
-0.018185249 0.034557596 0.01792886 0.030511066 -0.1711648 0.1557365 0.115112394 -0.046552554
0.127032 0.06260461 0.21646425 0.077636324 0.06195846 0.12202131 0.061614357 0.1541401
-0.018091206 0.044496108 0.16784786 -0.08940725 0.06260709 -0.026159218 -0.06037201 0.117972665
0.055054136 -0.041622467 -0.075591244 -0.095490724 0.077910915 -0.058594823 -0.091918 0.08330615
0.086153634 0.017013086 0.08841982 -0.05057947 -0.037806 -0.10634687 0.07413749 0.10420069
0.14900596 0.08698381 0.12631938 0.121577255 0.14238472 -0.004637816 -0.1370207 0.07303814
0.0435467 0.0068502896 -0.10538618 -0.11481058 -0.0640039 -0.092572644 -0.07526482 -0.11560832
0.07644622 0.030202601 -0.026922137 0.115898974 0.1794404 0.12845251 -0.04935294 0.12453675
-0.12680025 0.19292712 0.045538902 0.10577921 -0.15628585 -0.0021516897 0.11700188 0.04355887
0.017096693 -0.021473326 0.17198333 0.013476495 -0.003949792 0.22558577 0.11363496 0.20219329
0.0076533547 0.0015513381 0.064638525 0.03504777 -0.0040712166 0.0047031473 0.061636765 0.0002616017
0.045123506 0.0809895 0.08253048 0.06534666 0.093117446 0.061176717 -0.0713623 -0.10950127
-0.107000984 0.028167035 -0.07442782 0.07651687 -0.013835566 0.03216799 -0.05016326 0.099138595
0.17320938 0.024846492 0.07526969 -0.036825366 0.047786955 -0.051588047 -0.015631892 0.069142826
0.06484623 -0.08658825 0.0048242947 0.08698207 0.080730036 -0.12041699 0.069779165 0.10142116
-0.1191434 -0.11269236 -0.07491721 0.14113191 0.14967376 0.116291635 0.16314036 0.06709809
0.02111816 -0.011124365 0.036307264 0.09105571 0.12365406 0.092656 -0.0913881 -0.025648287
0.014099855 -0.033959735 -0.0058747483 -0.14578967 0.09845736 0.11518016 0.02974004 -0.05969793
-0.019718394 0.029802408 0.13949345 0.013464238 -0.02286109 0.0467043 0.031594973 0.14486147
0.042180873 -0.023070794 -0.10829414 0.096961625 -0.060407363 -0.021320751 0.10790014 -0.104544014
0.120716386 -0.03127485 0.10122434 -0.058805756 0.06506456 -0.03250893 0.117950834 0.017107338
0.04947006 0.103992425 -0.07839211 -0.008972814 0.09344093 -0.07552056 -0.12876423 -0.027519813
0.09335871 0.07843275 -0.12806633 0.07795219 -0.0024289908 -0.018492779 0.0044117966 -0.07432031
-0.068493865 0.08352567 0.03305742 0.019193282 0.026135558 0.020872086 -0.012897866 -0.04342223

fc3.bias f4 [32]
00000000: 0155 fd3d 6232 21bd f41d 403e d117 b2bd
00000010: 4f7a 51be c628 c4bd e856 9dbd 4f88 db3d
00000020: fc9a fe3c 43a7 2cbd 77e6 cb3d 0d1a 9ebc
00000030: 22db 8d3d ec1c cdbc cc9b 5a3d 9b75 d4bc
00000040: 0fca b73c 3689 e2bd 2350 fc3d 48e0 58bc
00000050: f7c5 ed3d fff1 cb3d e0e0 113d be71 47bd
00000060: d7d0 a5bd e23b df3c 828f 1e3e eebc 7abd
00000070: cfb1 1cbd c475 b03d 78ba 073e ff84 8fbc
0.12369729 -0.03935469 0.18761426 -0.08695949 -0.20456813 -0.095780894 -0.07682592 0.10719358
0.031079762 -0.0421517 0.09956067 -0.019299531 0.06926562 -0.025038205 0.053371236 -0.025934985
0.022435216 -0.11061327 0.12319972 -0.013237067 0.116100244 0.099582665 0.035614848 -0.048692457
-0.08096474 0.027250234 0.15484431 -0.061215334 -0.03825551 0.08616212 0.13254726 -0.017519472

fc_mu.weight f4 [1, 32]
00000000: 1b44 1cbe 6836 193c f3d6 1c3c 2163 1b3e
00000010: 51bf 013e c0d4 073e 772a 34bc 6ce8 1d3d
00000020: 316d 16be 563b 7b3e fbc1 16bd dc53 dabd
00000030: e821 3c3d fcd5 66bd c0df 863e fefe 90bd
00000040: 3ba9 cd3d b00f c03d c7f6 60be 5a18 393d
00000050: 720e 0bbe 121e 08be cbda 71be cd49 a53d
00000060: 503e edbd 6ba7 16bd 6012 f6bc 36d2 c83a
00000070: 8091 4cbd fc09 67be 60e6 0cbe 0455 023d
-0.15260355 0.00935135 0.009572732 0.15174533 0.12670638 0.13264751 -0.0109964525 0.038551733
-0.1469009 0.24534354 -0.036806088 -0.10660526 0.045930773 -0.056356415 0.26342583 -0.07079886
0.10042044 0.09377992 -0.21969138 0.04518924 -0.13579729 -0.13292721 -0.23618619 0.08070717
-0.11584151 -0.036780756 -0.030038059 0.0015321437 -0.049943447 -0.22562402 -0.13759756 0.03181936

fc_std.weight f4 [1, 32]
00000000: 5f9f 1a3d 3931 d5bd 5981 3ebe 6c55 4ebd
00000010: 8362 bd3e 9362 323e 1c38 d63d d065 5abe
00000020: 3e7f 6cbc 58a6 c2bc b162 01be 15e5 ddbd
00000030: 10c0 8cbc e216 293e fabf 00be bfd8 903d
00000040: 5655 083e 7d41 593d 4cfe 2cbe da6b 17be
00000050: c8c9 cfbd b49e c5bd a891 2bbe 1bef 043c
00000060: da25 233e 84d3 5a3d d03a 13be 6b52 b63c
00000070: f211 383e 308a ca3b bc9b fd3d 675c 093e
0.037749644 -0.10409779 -0.1860403 -0.050374433 0.3698922 0.17420416 0.10459921 -0.21327901
-0.014434634 -0.02376096 -0.12635304 -0.108347096 -0.017181426 0.16512635 -0.12573233 0.07072591
0.13313803 0.05304097 -0.16893882 -0.14787236 -0.101459086 -0.09649411 -0.16754782 0.008113648
0.15932408 0.053424373 -0.14377904 0.022256097 0.17975596 0.006181024 0.123832196 0.13414155
