myrobot/src/SAC/saved_model/1206_2/sac_178.pt (torch, 47503 bytes, 8 tensors)

fc1.weight f4 [128, 4]
-0.42990577 0.02555113 -0.488099 -0.37990478 0.5365336 -0.07358248 0.44543478 -0.24919526
-0.63143075 0.014970391 0.37615958 -0.07754987 -0.03995815 0.051274735 0.19919471 -0.17757294
-0.65345234 -0.4456557 0.30147597 0.14904083 -0.79323274 -0.1711118 0.03369095 0.013211415
0.3571271 0.13468611 0.08833644 0.21271543 -0.2623498 -0.07683509 -0.8896801 -0.017586721
0.84422207 0.05930714 -0.10682358 -0.18081108 -0.0033997688 0.09627411 -0.92717636 0.015655795
-0.01605331 0.37019023 -0.75740874 -0.008266143 0.6577046 0.0071569285 0.12935339 -0.4699543
-0.45389137 -0.00085702306 -0.70666975 0.15635245 -0.466031 0.045156516 0.34426743 -0.443383
-0.85371846 -0.2107004 0.44997528 0.15858948 0.47735712 -0.60608876 -0.5841586 0.34106138
0.41566488 -0.55752444 0.13360748 -0.090648204 0.5046889 0.2754416 0.2303931 0.31660774
0.44128445 -0.16487397 -0.30835295 0.3371384 -0.024790818 0.24195144 0.30107316 0.2839834
0.009445199 0.2626885 -0.50230825 -0.0026528556 -0.9824355 0.043334343 0.22546633 0.034443635
0.5087851 -0.43235803 -0.0781168 -0.0011998942 -0.14747088 -0.013037525 -0.5665214 -0.39997157
-0.6049506 -0.35112324 -0.18899475 -0.06699046 0.23492129 0.15418631 0.69168454 0.217898
0.79176486 0.5430499 -0.07029727 0.015699737 -0.61600626 -0.013696203 -0.66679364 0.11720984
0.41404355 -0.55350214 -0.029844891 0.32923687 -0.64815724 0.08054864 0.4224959 0.1456893
0.041807447 0.31787083 -0.69874483 -0.19887811 0.8079093 0.2954203 -0.30182597 0.0372485
0.12367647 -0.024889454 -0.554915 0.16934122 0.34141207 -0.30487615 -0.38131002 0.394342
0.6343816 0.51263577 0.7880068 0.074573465 0.045085877 0.13108273 -0.53308266 -0.37633783
-0.9549539 -0.22320405 -0.6411147 -0.18535158 -0.444722 0.1753456 -0.86436903 0.38260427
-0.23090127 0.19560488 -0.8119396 0.0058451006 -0.68648446 -0.32099435 -0.018800355 -0.123851635
-0.86562747 0.42905822 0.10495283 -0.034196846 -0.4612475 -0.28489393 -0.79342437 -0.15766898
0.025918553 0.15367562 -0.66140467 0.3240179 -0.11033043 -0.53241193 -0.18397535 0.06377637
-0.15999393 0.12503095 -0.51417416 0.07699054 0.25671458 0.18170197 -0.29127643 -0.37668908
-0.20132814 -0.15796176 0.13630648 -0.18796797 -0.82936335 0.3452197 -0.55460703 -0.05797273
-0.46327356 0.43256894 0.004501656 0.3171828 -0.705663 -0.008034347 -0.20806232 -0.20167328
-0.071245775 0.03944436 0.32486233 0.17765518 0.68154365 -0.033654574 0.15467581 0.31070164
-0.4607212 -0.34706724 -0.9943629 0.28967914 -0.48673084 0.25722438 0.45377645 -0.38617685
-0.059704557 -0.022009607 0.8681589 0.4407524 0.26026714 0.5575363 0.486435 -0.058922045
0.517183 -0.011229202 0.5140391 -0.007587884 0.6509517 0.39213556 -0.79690844 -0.10558756
-0.80163205 -0.4164381 -0.7810154 -0.029579878 0.44875804 -0.2798947 -0.17695488 0.031224616
-0.47653714 -0.4454447 -0.4863568 0.26358172 -0.735381 0.12285917 0.52745056 0.012615225
0.24393563 -0.057716742 0.15009728 0.30576685 -0.16932024 -0.19339538 0.30410257 -0.5657838
00000000: 9c1c dcbe 9a50 d13c 1de8 f9be e182 c2be
00000010: 445a 093f 69b2 96bd 0710 e43e 0b2d 7fbe
00000020: 72a5 21bf 5f46 753c fd97 c03e 77d2 9ebd
00000030: 28ab 23bd 7505 523d b3f9 4b3e aed5 35be
00000040: a748 27bf fc2c e4be 0f5b 9a3e 299e 183e
00000050: 4d11 4bbf ef37 2fbe 86ff 093d b174 583c
00000060: 5dd9 b63e 28eb 093e bce9 b43d 13d2 593e
00000070: b752 86be b75b 9dbd 13c2 63bf 0712 90bc
00000080: f01e 583f 0bec 723d 52c6 dabd 8a26 39be
00000090: a8ce 5ebb 5c2b c53d 6e5b 6dbf 9540 803c
000000a0: 3b82 83bc 9389 bd3e 8ae5 41bf b76e 07bc
000000b0: 545f 283f ab84 ea3b 3775 043e da9d f0be
000000c0: 7364 e8be d8a9 60ba 4fe8 34bf db1a 203e
000000d0: 9d9b eebe 0af6 383d d243 b03e 1903 e3be
000000e0: 4b8d 5abf d8c1 57be 2963 e63e 4865 223e
000000f0: 2768 f43e a228 1bbf 6b8b 15bf 999f ae3e
00000100: 07d2 d43e ecb9 0ebf 66d0 083e c4a5 b9bd
00000110: 4b33 013f ae06 8d3e 2bec 6b3e 691a a23e
00000120: 09f0 e13e b9d4 28be 70e0 9dbe 689d ac3e
00000130: 1d16 cbbc 1ec2 773e 4326 9a3e 4666 913e
00000140: 09c0 1a3c 1b7f 863e 4697 00bf 88db 2dbb
00000150: e580 7bbf 5a7f 313d a5e0 663e c514 0d3d
00000160: be3f 023f 085e ddbe b3fb 9fbd c545 9dba
00000170: 9b02 17be 589b 55bc 8c07 11bf 13c9 ccbe
00000180: 0bde 1abf 6dc6 b3be d787 41be 4b32 89bd
00000190: 358f 703e 04e3 1d3e 3d12 313f a720 5f3e
000001a0: 1ab1 4a3f 5105 0b3f 04f8 8fbd bc9c 803c
000001b0: 96b2 1dbf 0a66 60bc fdb2 2abf b60b f03d
000001c0: 84fd d33e 51b2 0dbf 467d f4bc bc91 a83e
000001d0: a2ed 25bf aff6 a43d 6251 d83e 932f 153e
000001e0: 493e 2b3d f7bf a23e f1e0 32bf b4a6 4bbe
000001f0: 25d3 4e3f 5441 973e ef88 9abe e291 183d
00000200: 174a fd3d f8e4 cbbc e90e 0ebf c967 2d3e
00000210: 90cd ae3e ba18 9cbe 113b c3be 32e7 c93e
00000220: d566 223f 193c 033f d0ba 493f f9b9 983d
00000230: f8ab 383d 8d3a 063e 1b78 08bf 5aaf c0be
00000240: dc77 74bf 9a8f 64be 1820 24bf cecc 3dbe
00000250: 9ab2 e3be cc8d 333e 4a47 5dbf b5e4 c33e
00000260: 6271 6cbe a54c 483e 46db 4fbf 4288 bf3b
00000270: 72bd 2fbf 5f59 a4be 3403 9abc eda5 fdbd
00000280: c399 5dbf 85ad db3e 82f1 d63d fe11 0cbd
00000290: a228 ecbe 9edd 91be dc1d 4bbf fa73 21be
000002a0: 2553 d43c 245d 1d3e d151 29bf ade5 a53e
000002b0: ecf4 e1bd 264c 08bf 0964 3cbe 2f9d 823d
000002c0: 73d5 23be 1d08 003e eba0 03bf 37ad 9d3d
000002d0: 1870 833e 1510 3a3e 2f22 95be 64dd c0be
000002e0: f728 4ebe bac0 21be ed93 0b3e ad7a 40be
000002f0: 2851 54bf a3c0 b03e bafa 0dbf d074 6dbd
00000300: 3132 edbe ad79 dd3e a182 933b c965 a23e
00000310: 55a6 34bf 7ea2 03bc 4a0e 55be 7183 4ebe
00000320: 4ee9 91bd 6990 213d 5b54 a63e 3deb 353e
00000330: a579 2e3f 61d9 09bd 5663 1e3e 4914 9f3e
00000340: a6e3 ebbe ccb2 b1be 918e 7ebf d350 943e
00000350: c934 f9be eab2 833e 6355 e83e f9b8 c5be
00000360: c48c 74bd 7e4d b4bc a93f 5e3f 4caa e13e
00000370: bc41 853e b3ba 0e3f 020e f93e 3e58 71bd
00000380: 1b66 043f b0fa 37bc 1198 033f c9a3 f8bb
00000390: c5a4 263f fec5 c83e 3102 4cbf 4a3e d8bd
000003a0: c237 4dbf 6037 d5be a0f0 47bf 8051 f2bc
000003b0: 9dc3 e53e 5c4e 8fbe a933 35be c4ca ff3c
000003c0: adfc f3be 5411 e4be c203 f9be 2ff4 863e
000003d0: ee41 3cbf 979d fb3d 0007 073f 17b0 4e3c
000003e0: 43ca 793e 6468 6cbd 1ab3 193e 798d 9c3e
000003f0: 4962 2dbe 7009 46be 55b3 9b3e 35d7 10bf

fc1.bias f4 [128]
-0.03635577 0.6425676 0.20186345 -0.36161378 0.12140744 1.0737032 0.47147 0.209299
0.10026168 0.7969223 -0.06564476 -0.058654286 0.110685095 0.18156724 -0.94478303 -0.21621843
-0.26144406 -0.25845912 0.6314497 -0.35462147 0.9636591 -0.5871793 -0.68839896 0.4338431
-0.5828691 0.95905757 0.4456811 -0.13103329 0.012811384 -0.33345664 0.13595715 0.62990975
-0.49693128 0.43041655 -0.28049707 -0.061748207 -0.40904054 0.59130335 0.98546904 0.37046376
-0.37427008 0.5032711 0.31852224 -0.7905819 0.81144387 0.22525269 -0.5692158 0.27591184
0.78783804 0.7046219 -0.690806 -0.20419252 -0.166697 0.27314395 -0.23377511 -0.11205798
-0.331568 0.059743077 -0.44907603 1.2370976 -0.23045638 -0.6259857 0.32752675 -0.29511788
0.7824686 0.013500836 0.30422163 0.53031003 -0.19473091 0.44868076 -0.08750709 0.34631932
-0.76074994 0.7628644 0.4095444 0.8472498 -0.64082414 -0.20067343 0.79422605 0.15106905
-0.40262312 -0.010511875 0.33941314 0.21555956 0.61673295 0.6857188 0.14135127 0.7114038
-0.16551396 -0.37851867 -0.4455585 0.034814592 -0.53734213 -0.05262826 -0.07976888 0.7600202
0.74192005 -0.66231596 0.07554524 -0.5329161 -0.5475024 -0.40655667 0.4417387 -0.0717596
-0.26882288 -0.6282213 -0.7006696 0.3202347 -0.07821995 0.3650944 0.50983036 -0.46040252
-0.24811506 -0.64029425 -0.24518354 0.21304965 0.40081474 0.94355553 -0.28090277 0.13231167
0.7351842 0.014132962 0.37184665 0.28354463 -0.50499964 -0.3041008 0.012158337 0.12571149
00000000: cae9 14bd 4f7f 243f 4bb5 4e3e 7125 b9be
00000010: 77a4 f83d 1b6f 893f 8464 f13e 7a52 563e
00000020: ff55 cd3d 1a03 4c3f c370 86bd 7a3f 70bd
00000030: deae e23d c3ec 393e 4ddd 71bf 5d68 5dbe
00000040: ffdb 85be c154 84be b0a6 213f f290 b5be
00000050: 5db2 763f 6251 16bf ea3a 30bf af20 de3e
00000060: e936 15bf cc84 753f 5030 e43e 972d 06be
00000070: d7e6 513c d4ba aabe 5a38 0b3e c441 213f
00000080: c76d febe 8f5f dc3e 509d 8fbe b0eb 7cbd
00000090: c36d d1be a85f 173f b347 7c3f 6dad bd3e
000000a0: 54a0 bfbe 60d6 003f 5915 a33e 9363 4abf
000000b0: c9ba 4f3f a4a8 663e 20b8 11bf 5144 8d3e
000000c0: c1af 493f 1a62 343f a9d8 30bf d817 51be
000000d0: 9eb2 2abe 86d9 8b3e be62 6fbe a77e e5bd
000000e0: 48c3 a9be 28b5 743d 4bed e5be 3759 9e3f
000000f0: c2fc 6bbe 9940 20bf 96b1 a73e b119 97be
00000100: dd4f 483f 9c32 5d3c f0c2 9b3e 66c2 073f
00000110: 8a67 47be 7cb9 e53e eb36 b3bd c450 b13e
00000120: 82c0 42bf 154b 433f ceaf d13e 5de5 583f
00000130: 0d0d 24bf 567d 4dbe 6652 4b3f d8b1 1a3e
00000140: 9e24 cebe 003a 2cbc 8fc7 ad3e a5bb 5c3e
00000150: 36e2 1d3f 448b 2f3f 63be 103e 8f1e 363f
00000160: 7e7c 29be 33cd c1be 3e20 e4be bf99 0e3d
00000170: 418f 09bf bb90 57bd de5d a3bd af90 423f
00000180: 79ee 3d3f 8a8d 29bf 76b7 9a3d 316d 08bf
00000190: 1e29 0cbf 3228 d0be 932b e23e b2f6 92bd
000001a0: 27a3 89be 1cd3 20bf 155f 33bf cdf5 a33e
000001b0: c831 a0bd a7ed ba3e 3e84 023f e1b9 ebbe
000001c0: e011 7ebe 53ea 23bf 6511 7bbe b029 5a3e
000001d0: 9737 cd3e db8c 713f 7dd2 8fbe b67c 073e
000001e0: 0835 3c3f f08d 673c af62 be3e c32c 913e
000001f0: a847 01bf 1ab3 9bbe c333 473c 83ba 003e

fc2.weight f4 [64, 128]
-0.086822376 -0.102949075 0.056668166 -0.06393085 -0.029271044 0.032995176 0.04617331 0.1225876
-0.07014766 0.18084204 -0.16480991 -0.089355975 -0.07305855 0.018047696 0.0648359 -0.044157047
-0.008567545 -0.06787138 0.08695435 -0.049339626 0.3541368 -0.25725606 0.015256389 0.08667798
-0.08635986 -0.030569129 0.07272502 -0.059230305 0.059249062 -0.08482586 0.038005818 0.076446086
0.0550477 0.024222096 0.051001206 0.10217537 -0.022008741 -0.02332056 0.29048413 0.05053298
-0.22321288 0.07669675 -0.0551583 -0.03760979 -0.042059135 0.015540002 0.016446201 0.18779603
-0.010829005 0.0234521 -0.0838298 0.08522601 0.085704826 0.069686405 0.08087573 -0.007464929
0.052058443 0.2801422 0.06832798 -0.19878079 -0.020827137 -0.5127499 0.02865717 -0.044893645
-0.01742588 -0.008366892 -0.083272986 0.056132752 0.03255847 -0.053973757 -0.013001811 0.08943802
-0.020717632 0.014473457 0.08115908 0.05466135 0.045183614 0.08537487 0.020056773 -0.064375095
-0.043575156 -0.052716866 0.090056814 -0.075851314 0.069173686 -0.16868703 0.06502537 0.05064462
-0.008778628 -0.03606233 -0.07468903 -0.017578185 0.061215907 -0.2717775 -0.079062745 0.019005658
0.0030594207 -0.01045235 -0.02592299 -0.10774027 0.005819867 -0.030275602 0.036687173 0.066145696
0.029355189 0.07906471 -0.11730189 0.08839269 -0.4038732 -0.0074541545 -0.05023942 -0.03321787
0.014778488 0.002351632 0.06251343 -0.042848 -0.06452494 0.07226363 -0.07328438 -0.028817052
0.09489308 -0.03071067 0.052448634 0.07582413 0.014983128 0.048428636 0.0039628153 0.04748271
-0.0026783356 0.104154594 -0.06574655 -0.04698885 -0.08930602 0.27560583 -0.06471366 0.1709627
0.16907428 0.36151817 0.052394867 0.11564917 -0.042892817 -0.070894085 -0.032009434 0.004560299
-0.046120577 0.042860456 -0.0055644284 0.01842653 0.15341431 -0.23476893 0.04605006 -0.015299684
-0.080668114 -0.045760904 -0.04172644 0.03815119 -0.039864376 -0.06828338 0.09226177 0.09241857
0.08313002 -0.012700448 -0.017240101 0.058106124 0.06663638 -0.041961268 0.56687033 -0.060027465
-0.07595922 0.08947377 0.10118277 -0.23382904 -0.018424604 0.1332552 -0.078862 0.16762988
0.091141835 0.19953714 -0.005216004 0.010843606 0.08534488 -0.042485267 0.01733356 -0.14448552
-0.022105966 0.012686552 0.02254153 0.15657984 -0.03304757 -0.14491314 0.09338527 -0.021767419
-0.042485446 0.051750235 -0.021880358 0.067422755 0.028536946 -0.055920266 0.05500773 -0.06789772
-0.07402945 0.00094447786 0.033818476 -0.05227803 -0.1011285 0.12647067 -0.043784864 0.03554507
0.010804909 -0.06634322 -0.062053308 0.01573075 0.053580794 -0.035852786 0.049121037 -0.0032460503
-0.0005803076 -0.13397166 -0.014038156 0.019016769 0.039019898 -0.07422032 -0.30153367 0.0600724
0.07373994 0.0009442264 -0.010521255 -0.49585432 -0.095166296 -0.046866674 -0.040557288 0.08909512
-0.0017095666 0.039889194 -0.167208 -0.07106318 -0.21485475 -0.053327706 -0.03276875 -0.07636979
0.03370912 -0.10761414 -0.220191 0.05972127 0.099948406 -0.04432481 0.03883595 0.06740833
0.005530216 0.051429715 0.012890732 -0.031102488 -0.14782518 0.043746643 -0.018585734 0.0017761014
00000000: eecf b1bd f7d6 d2bd e11c 683d 2dee 82bd
00000010: d4c9 efbc f325 073d 3a20 3d3d 350f fb3d
00000020: 94a9 8fbd a82e 393e eec3 28be 4400 b7bd
00000030: b99f 95bd c3d8 933c afc8 843d 05de 34bd
00000040: e35e 0cbc 2600 8bbd 1f15 b23d 5918 4abd
00000050: 6b51 b53e 11b7 83be eff5 793c 3a84 b13d
00000060: 70dd b0bd 1c6c fabc dbf0 943d 7a9b 72bd
00000070: 25af 723d 2eb9 adbd fdab 1b3d c48f 9c3d
00000080: b279 613d 6b6d c63c a4e6 503d 5241 d13d
00000090: ad4b b4bc c20a bfbc 56ba 943e acfb 4e3d
000000a0: eb91 64be 3013 9d3d abed 61bd b90c 1abd
000000b0: 3346 2cbd 7e9b 7e3c 2fba 863c 9a4d 403e
000000c0: 246c 31bc 9e1e c03c f5ae abbd f98a ae3d
000000d0: 0386 af3d bfb7 8e3d 2da2 a53d 5d9c f4bb
000000e0: 3c3b 553d cc6e 8f3e 8aef 8b3d 318d 4bbe
000000f0: ac9d aabc 9443 03bf 71c2 ea3c 66e2 37bd
00000100: b8c0 8ebc 4a15 09bc 078b aabd 75eb 653d
00000110: 085c 053d 9613 5dbd 8c05 55bc 482b b73d
00000120: 06b8 a9bc 1422 6d3c bb36 a63d 94e4 5f3d
00000130: 7412 393d 05d9 ae3d 1a4e a43c 17d7 83bd
00000140: dd7b 32bd a4ed 57bd b56f b83d ef57 9bbd
00000150: efaa 8d3d 4bbc 2cbe 052c 853d bc70 4f3d
00000160: 3cd4 0fbc 18b6 13bd 90f6 98bd 2000 90bc
00000170: 88bd 7a3d 6c26 8bbe a6eb a1bd c1b1 9b3c
00000180: 9080 483b 5540 2bbc 735c d4bc eea6 dcbd
00000190: 95b4 be3b 8a04 f8bc 4a45 163d 6577 873d
000001a0: 4b7a f03c aeec a13d f93b f0bd 3a07 b53d
000001b0: 78c8 cebe fb41 f4bb dac7 4dbd 760f 08bd
000001c0: 7921 723c d71d 1a3b 0b07 803d 6281 2fbd
000001d0: a725 84bd f4fe 933d 1f16 96bd bd11 ecbc
000001e0: 4e57 c23d f194 fbbc 61d4 563d ae49 9b3d
000001f0: cb7b 753c 1b5d 463d 81da 813b 3b7d 423d
00000200: 0487 2fbb 014f d53d 21a6 86bd 6177 40bd
00000210: 13e6 b6bd 351c 8d3e 9888 84bd d910 2f3e
00000220: cf21 2d3e e918 b93e 009c 563d 79d9 ec3d
00000230: 61b0 2fbd eb30 91bd 531c 03bd 906e 953b
00000240: eee8 3cbd 728e 2f3d cf55 b6bb 3cf3 963c
00000250: a418 1d3e 4467 70be fd9e 3c3d 87ab 7abc
00000260: 5335 a5bd c96f 3bbd 58e9 2abd 6c44 1c3d
00000270: d448 23bd 28d8 8bbd bdf3 bc3d f245 bd3d
00000280: 1240 aa3d 8a15 50bc 1d3b 8dbc b000 6e3d
00000290: a878 883d 94df 2bbd 6a1e 113f 5cdf 75bd
000002a0: 8290 9bbd 063e b73d ea38 cf3d e170 6fbe
000002b0: 32ef 96bc 0d74 083e 6682 a1bd 2ba7 2b3e
000002c0: 92a8 ba3d 7753 4c3e 03eb aabb 61a9 313c
000002d0: 4cc9 ae3d 0805 2ebd 1cff 8d3c 03f4 13be
000002e0: 9217 b5bc 41db 4f3c 04a9 b83c 7756 203e
000002f0: e45c 07bd 1c64 14be c740 bf3d 9651 b2bc
00000300: 3805 2ebd 0ef8 533d 703e b3bc f114 8a3d
00000310: 50c6 e93c a60c 65bd c94f 613d f60d 8bbd
00000320: c19c 97bd d696 773a 3e85 0a3d 7d21 56bd
00000330: 761c cfbd 8781 013e c257 33bd b597 113d
00000340: 1307 313c f4de 87bd 9c2b 7ebd c6dd 803c
00000350: 8977 5b3d 5fda 12bd 2433 493d b0bb 54bb
00000360: c91f 18ba de2f 09be 4b00 66bc 0ec9 9b3c
00000370: 54d3 1f3d d300 98bd 9f62 9abe 7a0e 763d
00000380: f704 973d f685 773a 5861 2cbc 9ee0 fdbe
00000390: 8ce6 c2bd 45f7 3fbd 661f 26bd 8177 b63d
000003a0: 8913 e0ba da62 233d 9338 2bbe 9389 91bd
000003b0: e202 5cbe 276e 5abd 8638 06bd c467 9cbd
000003c0: 9312 0a3d cd64 dcbd c079 61be 4a9e 743d
000003d0: c0b1 cc3d ef8d 35bd 7212 1f3d 610d 8a3d
000003e0: d036 b53b f7a7 523d a633 533c a5ca febc
000003f0: 7c5f 17be ae2f 333d 1c41 98bc 13cc e83a

fc2.bias f4 [64]
0.09847469 0.37039974 -0.10163365 0.31706917 -0.15938622 0.3180323 0.1868222 0.049156044
-0.13969253 0.11623414 0.35639548 0.068301275 0.0690192 0.03623859 0.10989516 0.1994163
0.54512525 0.3445588 -0.0010246777 -0.0038670378 0.41600338 0.6649577 -0.17628549 0.16449949
-0.012052888 0.03290501 -0.3841683 0.49131992 -0.13282584 -0.4326531 -0.7200711 -0.14203693
0.35499352 -0.17612603 0.18127115 0.38876104 -0.13278292 -0.30396324 -0.021035781 -0.2776588
0.39616713 -0.0050804317 0.37598503 0.07294899 0.061063178 0.3021623 -0.20886952 -0.26622704
0.042434163 -0.30194783 -0.16183682 -0.36554307 0.21381448 -0.022328783 0.31324935 0.517897
0.09878188 0.017515847 0.13771354 0.4688503 0.66342753 0.11000851 0.5732013 0.45507056
00000000: 19ad c93d 09a5 bd3e 4e25 d0bd e456 a23e
00000010: 2436 23be 21d5 a23e 524e 3f3e d957 493d
00000020: 8f0b 0fbe 2a0c ee3d 7879 b63e 8ae1 8b3d
00000030: f059 8d3d ea6e 143d b710 e13d c933 4c3e
00000040: 548d 0b3f 036a b03e 7a4e 86ba 216e 7dbb
00000050: 65fe d43e ab3a 2a3f 2f84 34be 8e72 283e
00000060: 7a79 45bc 67c7 063d b5b1 c4be 498e fb3e
00000070: 7f03 08be b584 ddbe 9456 38bf 2172 11be
00000080: b6c1 b53e 625a 34be 259f 393e b00b c73e
00000090: 3ff8 07be 12a1 9bbe 3b53 acbc 4b29 8ebe
000000a0: 6bd6 ca3e c079 a6bb 1c81 c03e 4866 953d
000000b0: 621d 7a3d 04b5 9a3e e4e1 55be e94e 88be
000000c0: 72cf 2d3d e898 9abe 8db8 25be 7628 bbbe
000000d0: 2ff2 5a3e daea b6bc 3862 a03e e694 043f
000000e0: 284e ca3d 657d 8f3c c704 0d3e 260d f03e
000000f0: 63d6 293f 244c e13d 52bd 123f 02ff e83e

fc3.weight f4 [32, 64]
0.18279353 -0.088292286 0.040971544 0.16687642 0.13414891 -0.02618498 -0.062240973 -0.24319673
0.0044225683 -0.08827968 -0.06013041 0.11938373 0.01718163 0.37603003 0.06138985 0.11383161
0.05069755 0.09152138 -0.015473218 -0.11497779 -0.014408715 0.120040864 0.08647226 0.053624045
-0.09575536 -0.11070655 0.0728754 0.12128293 0.1473323 0.1560949 0.09223282 -0.019717079
-0.25412804 0.045973983 -0.14450283 0.015608279 0.17686993 -0.09919426 0.09794458 -0.09740255
-0.00069268903 -0.021704799 -0.2267881 0.15090093 -0.14850587 0.03298246 0.070011854 -0.12821376
-0.15843281 0.07646262 0.093769915 0.026002338 -0.08643492 0.13733058 -0.15807372 -0.06547233
-0.046216134 -0.08234034 0.1871988 -0.0433518 0.16727255 -0.018755615 0.068975694 -0.16761774
0.03029061 0.25603405 0.0043808264 -0.0021217577 -0.18236293 0.13050537 0.035173714 0.08954679
0.18748029 0.12283305 0.20759363 0.04983869 0.053641662 0.077193685 0.0020705657 0.1615247
0.079514965 0.08160054 0.2091264 -0.12666807 0.13033086 0.03535946 -0.0068465136 0.10410946
0.14827728 -0.02511031 -0.13386527 -0.07591875 -0.039674833 -0.12787537 -0.27460927 0.020473283
0.1525311 -0.1534657 0.06476646 -0.062079724 -0.07622818 -0.17345382 0.101932876 0.082368866
0.3694553 0.02669784 0.16344182 0.044262294 0.14522246 -0.06116447 -0.122185074 0.048095845
0.14626645 -0.10586879 -0.14527974 -0.11043515 -0.08680468 -0.16846895 0.12877531 0.030261481
0.04632439 0.0119051775 -0.19137695 0.121362366 0.30352312 0.16831489 0.07972707 0.16789868
-0.21000844 0.30772725 0.04814632 0.07936974 -0.16508095 -0.04964423 0.01669293 0.1537572
0.033164326 0.041271992 0.0009424511 -0.052195877 -0.02247811 0.2151579 0.045552514 0.16042508
-0.040488426 0.050660614 0.09882286 -0.014532654 -0.056007717 -0.056050997 0.110965766 -0.052410435
0.03278909 0.1250697 0.031843938 0.03670353 0.09518073 0.055421036 -0.11036019 -0.14961323
-0.09519883 -0.12358686 -0.07431798 0.07157862 -0.011110916 -0.021051772 -0.01689122 0.10386573
0.25296804 -0.055268154 0.016240947 -0.1502419 0.026698437 -0.16893187 0.012997097 0.06968099
0.2098434 -0.14203013 0.015686145 0.07918975 0.07886817 -0.27664146 0.12922674 0.14927557
-0.11984748 -0.13668236 -0.13068323 0.1280741 0.1337036 0.15650156 0.18639867 0.06635772
-0.016306829 0.19105083 0.030271843 0.17272528 0.13681309 0.08308478 -0.032196175 0.050445
0.014388539 0.11288656 -4.9580514e-05 -0.27916828 0.061676618 0.02434353 0.026967019 0.047634177
-0.036709726 0.12511465 0.17968203 -0.06399391 -0.041682415 0.10473735 -0.0058166916 0.19801565
0.027110625 -0.02737402 -0.07877913 0.1687097 -0.062337708 -0.045207452 0.08678007 -0.1068499
0.116611525 0.021492055 0.095052265 -0.081635885 -0.0029038535 0.010030729 0.20939338 0.04967222
0.23085608 0.07415888 -0.095453724 -0.08135998 0.05227842 -0.14106168 -0.08964589 -0.015852937
0.14303535 0.07446279 -0.28616285 0.035896964 0.016541066 -0.092654794 0.18808867 -0.004986336
-0.07703384 0.05361967 -0.035473585 0.074701816 0.037980266 0.14313762 0.09098001 -0.047734093
00000000: 3a2e 3b3e 96d2 b4bd c7d1 273d a7e1 2a3e
00000010: 555e 093e e281 d6bc 64f0 7ebd 9008 79be
00000020: 31eb 903b facb b4bd 4e4b 76bd 757f f43d
00000030: 7dc0 8c3c 0287 c03e ec73 7b3d 8c20 e93d
00000040: 3ca8 4f3d 906f bb3d 6183 7dbc 7a79 ebbd
00000050: 8812 6cbc fcd7 f53d 5e18 b13d e3a4 5b3d
00000060: 631b c4bd 1eba e2bd b33f 953d 2f63 f83d
00000070: 47de 163e 57d7 1f3e 90e4 bc3d b685 a1bc
00000080: 121d 82be 374f 3c3d 8df8 13be deb9 7f3c
00000090: 641d 353e 5c26 cbbd 2b97 c83d fd7a c7bd
000000a0: 9395 35ba 43ce b1bc 243b 68be c685 1a3e
000000b0: ec11 18be 9e18 073d 6062 8f3d 784a 03be
000000c0: 363c 22be 6f98 9c3d 710a c03d db02 d53c
000000d0: cb04 b1bd 63a0 0c3e 14de 21be 5b16 86bd
000000e0: 214d 3dbd 0da2 a8bd 0bb1 3f3e a891 31bd
000000f0: 7f49 2b3e 60a5 99bc 2143 8d3d fca3 2bbe
00000100: 0324 f83c e516 833e 098d 8f3b 300d 0bbb
00000110: 59bd 3abe 33a3 053e 5012 103d 4f64 b73d
00000120: d5fa 3f3e e58f fb3d 6d93 543e a723 4c3d
00000130: 5cb7 5b3d b917 9e3d 54b2 073b bb66 253e
00000140: bed8 a23d 2f1e a73d 3b25 563e 46b5 01be
00000150: 7475 053e 15d5 103d b858 e0bb 5737 d53d
00000160: 00d6 173e 23b4 cdbc fa13 09be 4a7b 9bbd
00000170: 1482 22bd c3f1 02be 9699 8cbe 96b7 a73c
00000180: 1d31 1c3e 1d26 1dbe 47a4 843d 4f47 7ebd
00000190: 851d 9cbd e19d 31be 2fc2 d03d 02b1 a83d
000001a0: 3f29 bd3e 6eb5 da3c 4b5d 273e 614c 353d
000001b0: 32b5 143e 9887 7abd 2b3c fabd 2600 453d
000001c0: dfc6 153e bcd1 d8bd 36c4 14be d32b e2bd
000001d0: a7c6 b1bd 2083 2cbe addd 033e ede6 f73c
000001e0: a5be 3d3d ef0d 433c 52f8 43be d58c f83d
000001f0: 6267 9b3e bd5a 2c3e f247 a33d a2ed 2b3e
00000200: 740c 57be 6d8e 9d3e 1335 453d 9a8c a23d
00000210: fb0a 29be c057 4bbd 9dbf 883c 8772 1d3e
00000220: 51d7 073d d20c 293d d30e 773a 58cb 55bd
00000230: 0324 b8bc 5a52 5c3e 4695 3a3d 7946 243e
00000240: 31d7 25bd 8181 4f3d a463 ca3d 5e1a 6ebc
00000250: 5968 65bd bb95 65bd 0542 e33d 53ac 56bd
00000260: da4d 063d 4512 003e ca6e 023d 7156 163d
00000270: 1dee c23d 2b01 633d 8604 e2bd 3634 19be
00000280: 9bf7 c2bd 1c1b fdbd 0634 98bd d097 923d
00000290: 8f0a 36bc c474 acbc 755f 8abc 8eb7 d43d
000002a0: 0785 813e dc60 62bd bc0b 853c 03d9 19be
000002b0: aeb6 da3c 7afc 2cbe c7f1 543c e8b4 8e3d
000002c0: 30e1 563e 5970 11be 3b80 803c 3c2e a23d
000002d0: a385 a13d f3a3 8dbe 0454 043e b2db 183e
000002e0: 9872 f5bd 76f6 0bbe d3d1 05be db25 033e
000002f0: 99e9 083e f241 203e 4bdf 3e3e 8ee6 873d
00000300: e695 85bc d4a2 433e a8fc f73c e5de 303e
00000310: bb18 0c3e 5a28 aa3d 23e0 03bd 6b9f 4e3d
00000320: e8bd 6b3c 1231 e73d acf4 4fb8 25ef 8ebe
00000330: 9fa0 7c3d 156c c73c f0e9 dc3c 0e1c 433d
00000340: f05c 16bd 0e1e 003e 91fe 373e 3d0f 83bd
00000350: 2ebb 2abd 8980 d63d f299 bebb 9dc4 4a3e
00000360: 1a17 de3c 7b3f e0bc f456 a1bd 3cc2 2c3e
00000370: d355 7fbd 732b 39bd c0b9 b13d 1fd4 dabd
00000380: 06d2 ee3d 1b10 b03c c3aa c23d b730 a7bd
00000390: 944e 3ebb ed57 243c 386b 563e 1975 4b3d
000003a0: 8965 6c3e 9ce0 973d 3e7d c3bd 10a0 a6bd
000003b0: e621 563d 7972 10be 4498 b7bd 05de 81bc
000003c0: dc77 123e f27f 983d f083 92be b208 133d
000003d0: 2181 873c ccc1 bdbd 519a 403e 6b64 a3bb
000003e0: ebc3 9dbd 4da0 5b3d c04c 11bd 44fd 983d
000003f0: 3291 1b3d ab92 123e ba53 ba3d d384 43bd

fc3.bias f4 [32]
0.07395819 0.26468676 0.5101432 0.028161718 -0.086270735 -0.20288531 0.10057534 0.3903448
0.16607016 0.03075112 0.17799693 -0.060515743 0.32923386 0.19938438 0.24988799 -0.08759798
0.35042924 -0.06686193 0.3012182 0.1336053 0.09899201 0.042826757 0.19732913 0.10724751
-0.02792306 0.0375533 0.26966134 -0.15409605 -0.010096768 0.071429156 0.01949927 0.004379303
00000000: 6477 973d 0685 873e bf98 023f 67b3 e63c
00000010: b6ae b0bd 2bc1 4fbe 72fa cd3d 46db c73e
00000020: 4c0e 2a3e c6e9 fb3c d444 363e 5bdf 77bd
00000030: 5791 a83e 6b2b 4c3e a3e2 7f3e 9266 b3bd
00000040: 766b b33e e8ee 88bd 4639 9a3e d4cf 083e
00000050: 53bc ca3d 1c6b 2f3d a610 4a3e 95a4 db3d
00000060: e7be e4bc 7dd1 193d 0d11 8a3e 5bcb 1dbe
00000070: ea6c 25bc 7349 923d efbc 9f3c 4280 8f3b

fc_mu.weight f4 [1, 32]
-0.20453607 0.13357037 0.08939456 0.1399177 0.47900593 0.23765382 -0.40865463 0.37804878
-0.3285447 0.918214 -0.15464234 -0.17504898 0.24948207 -0.4432347 0.4837398 -0.0660201
0.34251726 0.06950491 -0.48444054 0.09528464 -0.11009002 -0.14768195 -0.4549465 0.1363745
-0.17992692 -0.46952325 -0.10364587 -0.044193763 -0.31742874 -0.6819276 -0.13930593 0.019915463
00000000: e771 51be acc6 083e 7f14 b73d 9646 0f3e
00000010: 4440 f53e 865b 733e 2e3b d1be 9c8f c13e
00000020: 0337 a8be 1310 6b3f 905a 1ebe 0a40 33be
00000030: 3a78 7f3e a9ef e2be beac f73e 8c35 87bd
00000040: 6c5e af3e 9758 8e3d 9708 f8be 9824 c33d
00000050: e076 e1bd f039 17be bfee e8be c2a5 0b3e
00000060: c33e 38be 5a65 f0be 4944 d4bd 8504 35bd
00000070: 0586 a2be cf92 2ebf 37a6 0ebe c125 a33c

fc_std.weight f4 [1, 32]
0.036229346 -0.011636362 -0.22350298 -0.10368436 0.4460717 0.20174733 0.48223275 -0.18346709
0.28763476 0.37850517 -0.05137066 -0.15076998 0.18487868 0.37978727 0.07582091 0.04220779
0.17585811 0.07094305 -0.41280082 -0.10183238 -0.17453009 -0.11701294 -0.24998939 0.03300559
0.27879587 0.05107312 -0.13489874 0.6133982 0.1293241 0.16799505 0.08190605 0.31454772
00000000: 3965 143d 71a6 3ebc f7dd 64be 7758 d4bd
00000010: 8363 e43e da96 4e3e 36e7 f63e ccde 3bbe
00000020: dd44 933e 6ecb c13e 0b6a 52bd 7263 1abe
00000030: d650 3d3e 7a73 c23e fe47 9b3d 13e2 2c3d
00000040: 2614 343e 974a 913d a15a d3be 7f8d d0bd
00000050: 04b8 32be 7ba4 efbd 38fd 7fbe df30 073d
00000060: 55be 8e3e 0c32 513d e522 0abe aa07 1d3f
00000070: 896d 043e e506 2c3e 5cbe a73d 660c a13e
