myrobot/src/SAC/saved_model/1210_reward_norm/sac_actor_1210_reward_norm_EP390.pt (torch, 47639 bytes, 8 tensors)

fc1.weight f4 [128, 4]
0	0xbf33b04c	-0.7019088
1	0x3f3d5296	0.7395414
2	0xbb60f1aa	-0.003432373
3	0xbdca93d5	-0.09891478
4	0x3f71951f	0.94368166
5	0x3f59ff7d	0.8515547
6	0xbf0fdb25	-0.56193763
7	0xbd0de63b	-0.034643393
8	0x3f344d39	0.7043033
9	0xbeb0d28c	-0.34535635
10	0xbf8f8b93	-1.121447
11	0x3c7881c6	0.015167659
12	0x3fc1523c	1.5103221
13	0x3e02979c	0.12753147
14	0x3dc27abb	0.09496065
15	0x3b1897e2	0.0023283889
16	0x3ebe4e93	0.37169322
17	0x3ed2da9f	0.4118242
18	0xbf385f05	-0.7201999
19	0xbc6a9394	-0.014317412
20	0xbf978067	-1.183606
21	0xbf1fdb07	-0.62443584
22	0x3e47e938	0.1952256
23	0x3d2c2194	0.04202421
24	0xbfa1cce2	-1.264065
25	0xbea43876	-0.32074326
26	0x3cbe295b	0.02321308
27	0x3d23641c	0.039890394
28	0x3f5e5b0c	0.86857677
29	0xbe21eaa6	-0.15812168
30	0xbf022acf	-0.5084657
31	0xbcd76cc3	-0.026296979
32	0xbe1ab49a	-0.15107957
33	0x3d72f7ef	0.05931848
34	0xbf52419b	-0.82131356
35	0xbe558ee6	-0.20855293
36	0x3fb6d533	1.4283813
37	0x3f125d8f	0.5717401
38	0xbe7f3e0a	-0.2492601
39	0xbc93a4d7	-0.018022938
40	0x3f1545e0	0.58309746
41	0xbed1357d	-0.4086112
42	0xbf8054c3	-1.0025867
43	0x3c710d55	0.014712651
44	0x3fbe0c55	1.4847513
45	0xbd852a65	-0.06502227
46	0x3ec09ac2	0.3761807
47	0xbe2f6a36	-0.1713036
48	0x3f9d2a3b	1.2278513
49	0x3e85408c	0.26025808
50	0x3f1f4b80	0.6222458
51	0x3c67da04	0.0141511
52	0x3edcb53d	0.43107024
53	0xbeb24b0e	-0.34822887
54	0x3f78d7ed	0.97204477
55	0xbb92487e	-0.004464208
56	0xbf4c1a92	-0.79728043
57	0x3e8812ed	0.2657694
58	0xbf6f7f94	-0.93554044
59	0xbcc4cdc2	-0.024023894
60	0x3f83f44c	1.0308928
61	0xbe1c65e5	-0.15273245
62	0xbeade4b9	-0.33963564
63	0xbde0d769	-0.10978586
64	0x3f788d16	0.9709028
65	0x3efb8bdd	0.49130145
66	0xbfa62a18	-1.2981596
67	0x3d6da5d8	0.05801949
68	0x3ebdf6e5	0.37102428
69	0xbfad3846	-1.3532798
70	0x3f1d717a	0.61501276
71	0x3ca4e634	0.0201293
72	0x3e9fd1e8	0.31214833
73	0xbf6500e4	-0.89454484
74	0x3f280a55	0.65640765
75	0x3c03c1b9	0.008041793
76	0x4008c6cd	2.1371338
77	0xbbe6f99e	-0.0070487997
78	0xbf4395a5	-0.76400214
79	0x3b8a4086	0.0042191176
80	0xbf60036d	-0.8750523
81	0xbf063181	-0.52419287
82	0xb82b15c3	-4.0789844e-05
83	0x3bf6cd56	0.007531802
84	0x3e8d8e75	0.2764775
85	0x3e8313dc	0.2560109
86	0xbe38e36a	-0.18055502
87	0xbc4ff20e	-0.012691988
88	0xbf1bb647	-0.6082501
89	0xbf241920	-0.6410084
90	0xbe2eb4a7	-0.17061101
91	0x3cf729bd	0.03017127
92	0x3fe793b0	1.8091946
93	0xbce85ceb	-0.02836462
94	0xbe8edd3b	-0.2790316
95	0xbc7d7eeb	-0.015472154
96	0x3f095a05	0.53652984
97	0xbf7a686d	-0.9781559
98	0xbfa6c15f	-1.3027762
99	0x3cebe833	0.028797245
100	0x3fad20cf	1.3525637
101	0x3e01d4cb	0.1267883
102	0x3f92447e	1.1427152
103	0xba5b0f6a	-0.0008356484
104	0xbf408b7e	-0.7521285
105	0xbfa0fcd9	-1.2577163
106	0x3eb85d43	0.36008653
107	0x3c94e1b6	0.018174034
108	0xbf4538ef	-0.7704
109	0xbf3fe480	-0.7495804
110	0x3e3594fa	0.17732611
111	0x3d192518	0.03738889
112	0x3f4b9e2e	0.7953824
113	0xbf364288	-0.7119527
114	0xbf8baef3	-1.0912765
115	0x3d1c55fd	0.038167942
116	0xbeae173d	-0.34002104
117	0xbd445055	-0.047928173
118	0x3f8a910c	1.0825515
119	0x3c75cdd9	0.015002691
120	0x3ed0d09a	0.4078415
121	0x3f3448f8	0.7042384
122	0xbfe5f8e0	-1.7966576
123	0x3b02afd7	0.0019941234
124	0x3f06da29	0.52676636
125	0xbd122bdd	-0.035686363
126	0xbdbf9721	-0.093549974
127	0x3aed0306	0.0018082566
128	0x3f01b414	0.506654
129	0x3ed1900b	0.4093021
130	0xbf0d4b8f	-0.5519342
131	0x3aedb8c1	0.0018136726
132	0x3f604a97	0.87613815
133	0xbd5d6e31	-0.054060165
134	0x3f9471d3	1.1597236
135	0x3d8a41d3	0.06750836
136	0xbf494314	-0.7861798
137	0x3e8bcace	0.27303165
138	0xbf289a34	-0.65860295
139	0xbd1ccda9	-0.03828207
140	0x3da6f452	0.08152069
141	0xbef79fce	-0.4836411
142	0x3f3bc6c6	0.7335018
143	0xbc192531	-0.009347246
144	0x3f1f744f	0.6228685
145	0x3ef44c85	0.4771463
146	0xbc7b6a20	-0.015345126
147	0xbd2e3466	-0.04253044
148	0xbe369eea	-0.17834058
149	0xbf5cd09c	-0.8625581
150	0x3dea333f	0.11435556
151	0x3cc4e3e0	0.02403444
152	0x3f8f97e2	1.1218226
153	0xbfa3c0ac	-1.2793174
154	0xbf030a9d	-0.5118807
155	0x3d105f22	0.035246976
156	0xbe965bbc	-0.29366863
157	0xbed558e5	-0.41669384
158	0x3d88351a	0.06650753
159	0xbdcc3a2b	-0.09972032
160	0x3d9855e1	0.07438255
161	0x3f5f355c	0.87190795
162	0xbefef003	-0.4979249
163	0x3b6f770f	0.003653947
164	0x3e962f70	0.29333067
165	0xbfaf7a52	-1.3709204
166	0x3ef9c6bc	0.48784435
167	0xbcab21e9	-0.020890193
168	0xbf07baa8	-0.5301919
169	0x3f035add	0.5131052
170	0x3eb657f5	0.3561398
171	0x3bf8ee0d	0.0075967372
172	0xbd884606	-0.06653981
173	0xbfc4fd36	-1.5389774
174	0x3e2c1359	0.16804256
175	0xbe531cce	-0.20616457
176	0x3d755405	0.05989458
177	0x3f045272	0.516883
178	0x3b33864b	0.0027393277
179	0xbe10ee1e	-0.14153334
180	0x3ea510eb	0.3223947
181	0x3e098b93	0.1343215
182	0xbfb842e2	-1.4395411
183	0x3b78e8c4	0.0037980536
184	0xbd705d6c	-0.058682844
185	0x3e25703b	0.16156094
186	0x3f95d66b	1.170606
187	0x3ccf097d	0.025273079
188	0xc0220b5f	-2.531944
189	0xbd56066c	-0.052252218
190	0x3d1c83f6	0.038211785
191	0x3cbfec6d	0.023428166
192	0x3f102ae1	0.5631543
193	0xbfb8905e	-1.4419057
194	0x3f624eab	0.8840129
195	0x3c9f2cb6	0.0194305
196	0x3f064c2e	0.5245999
197	0xbeea4f83	-0.45763788
198	0x3f72bfdc	0.94824004
199	0xbc80cdcc	-0.015723132
200	0x3f89b51d	1.0758396
201	0xbf90459a	-1.1271241
202	0x3e6221aa	0.22083154
203	0xbe092c2a	-0.13395754
204	0x3fc669ca	1.5501034
205	0xbf0305f8	-0.5118098
206	0xbfc40a9b	-1.5315737
207	0x3d410121	0.047120217
208	0x3f5fe480	0.8745804
209	0xbf12ad98	-0.57296133
210	0xbe484256	-0.19556555
211	0xbadacfe9	-0.0016694042
212	0x3d979ba5	0.07402734
213	0x3f80ef41	1.0073014
214	0x3f1f13e4	0.62139726
215	0x3c79a057	0.015235982
216	0xbfbf5bf2	-1.4949934
217	0xbf496138	-0.7866397
218	0x3e6f9610	0.23397088
219	0x3d976448	0.07392174
220	0x3f859e87	1.0439004
221	0xbe5c39ef	-0.21506475
222	0xbe5f3d25	-0.21800669
223	0xbcfef4f2	-0.031122658
224	0x3f8afefe	1.0859067
225	0x3f0171e1	0.5056439
226	0x3d682479	0.056675408
227	0xbd881950	-0.06645453
228	0x3e9b1419	0.3028877
229	0xbf0c2908	-0.5475011
230	0xbfec7619	-1.847354
231	0x3db8d02b	0.0902408
232	0xbf2e256a	-0.6802584
233	0x3f81e400	1.0147705
234	0x3d1251b8	0.035722464
235	0x3ca65b5f	0.020307241
236	0xbf45faf8	-0.7733607
237	0x3e850e32	0.25987393
238	0xbf9a4f66	-1.205548
239	0xbdcc1e20	-0.099666834
240	0xbf9904be	-1.1954572
241	0xbf14cc4e	-0.58124244
242	0xbd13a9b9	-0.036050532
243	0x3e065acc	0.13120574
244	0x3eb2a83a	0.34893972
245	0x3f2441c4	0.6416285
246	0x3d952053	0.07281556
247	0xbdb24c62	-0.08705975
248	0x3e2614a4	0.16218811
249	0x3ef5606c	0.47925127
250	0x3ea48dcc	0.32139432
251	0xbe3b1792	-0.1827071
252	0x3e898911	0.26862386
253	0x3de6d370	0.11270797
254	0x3f07667a	0.5289074
255	0xbcdb60c8	-0.026779547

fc1.bias f4 [128]
0	0xbf04a011	-0.5180674
1	0x3d565a2b	0.052332085
2	0xbe93c6a1	-0.2886248
3	0xbed3cf87	-0.41369268
4	0x3e25185c	0.16122574
5	0xbfcf6348	-1.6202173
6	0xbf7d0151	-0.98830134
7	0x3edcf70d	0.43157235
8	0x3f674c3d	0.90350705
9	0x3ea24023	0.31689557
10	0xbedf55d5	-0.43620172
11	0x3f00c2df	0.5029735
12	0x3f5aaaaa	0.8541666
13	0x3f7250dd	0.9465464
14	0xbe44a116	-0.19202074
15	0x3f0f9c90	0.5609827
16	0x3e4ceb23	0.20011573
17	0x3f2958ed	0.66151315
18	0x3ff39088	1.9028482
19	0x3f0d55ce	0.5520905
20	0x3f94cc7f	1.1624907
21	0x400783d9	2.1174223
22	0x3f928f4c	1.1449981
23	0x3f296fd1	0.66186243
24	0xbd724b34	-0.05915375
25	0xbf2968c3	-0.6617548
26	0x3f6744fe	0.9033965
27	0xbfcc65fa	-1.5968621
28	0xbfc338f3	-1.5251755
29	0xbfafe055	-1.3740336
30	0x3f3f8b73	0.7482216
31	0xbef8ab69	-0.48568276
32	0x3f172bfe	0.590515
33	0x3dd1a5f4	0.10236731
34	0x3db7a384	0.08966735
35	0x3f794847	0.9737591
36	0x3d886eaa	0.066617325
37	0xbece2da7	-0.40269205
38	0xbef0f7d6	-0.47064084
39	0x3f0a4cf2	0.5402366
40	0x3f866a33	1.050116
41	0xbf3d0554	-0.73836255
42	0xbefaa2bf	-0.4895229
43	0xbe51e0c4	-0.20495898
44	0xbe89a07e	-0.26880258
45	0x3e875529	0.2643216
46	0xbf86bbe9	-1.0526096
47	0x3e4941d0	0.19654012
48	0xbf1ef6da	-0.62095416
49	0x3ef026c0	0.46904564
50	0xbe213694	-0.15743476
51	0xbf5c247c	-0.8599317
52	0x3f9be9fe	1.2180784
53	0xbf989304	-1.1919866
54	0xbfd95708	-1.6979685
55	0xbd80ec66	-0.062950894
56	0xbf07f5de	-0.5310954
57	0x3e1fbe21	0.15599872
58	0xbc7653d9	-0.015034639
59	0xbd180b4f	-0.03712016
60	0xc006f437	-2.1086557
61	0xbde57703	-0.1120434
62	0xbf2193ff	-0.6311645
63	0x3ee7cd5d	0.45273867
64	0xbfbd28d4	-1.4778085
65	0xbf67c4ba	-0.90534556
66	0x3f81bbe7	1.0135468
67	0x3e51c975	0.20487006
68	0x3f921a60	1.1414299
69	0xbfc90482	-1.5704501
70	0x3f8283dd	1.0196491
71	0xbf881356	-1.0630901
72	0x3faa7050	1.3315525
73	0xbfc8c7d8	-1.5685987
74	0xbe407646	-0.18795118
75	0xbeec6a98	-0.46175075
76	0x3f1bf1e4	0.6091597
77	0xbf342ab0	-0.70377636
78	0x3fb52cbb	1.4154276
79	0xbfeb4176	-1.8379352
80	0xbde328da	-0.11091776
81	0x3f085d4a	0.5326735
82	0x3efc4790	0.49273348
83	0x3e96d90c	0.2946247
84	0x400286b5	2.0394719
85	0x3d2acdca	0.041700162
86	0xbd3acc89	-0.045605216
87	0xbe06b12a	-0.1315352
88	0xbf4f1223	-0.8088705
89	0xbf3526b4	-0.7076218
90	0xbfb86b75	-1.4407793
91	0xbf4a16e1	-0.7894116
92	0xbd45c50d	-0.048283625
93	0x3fb29d81	1.3954316
94	0x3f8a3877	1.0798482
95	0x3f7f44ec	0.9971454
96	0x3f4b5188	0.7942128
97	0xbe98a619	-0.29814222
98	0x3ebfb34e	0.37441486
99	0xbfa7a09b	-1.3095888
100	0xbf2bb567	-0.67073673
101	0x3db25447	0.08707481
102	0xbfcadd9a	-1.5848877
103	0x3ed491d5	0.4151751
104	0x3fa2ac7c	1.2708888
105	0xbe2a137b	-0.16608994
106	0xbda774e0	-0.08176589
107	0x3f12c54c	0.573323
108	0x3fb115ec	1.3834815
109	0x3ddfb354	0.10922876
110	0x3eadbd8d	0.33933678
111	0xbf429a92	-0.76017106
112	0xbf9145c5	-1.1349417
113	0xbf586de8	-0.84542704
114	0xbda0f93f	-0.0786004
115	0x3fa41903	1.2820133
116	0x3f57bb8d	0.84270555
117	0x3ffebd90	1.99016
118	0xbe9123bc	-0.28347576
119	0xbf9c35d1	-1.2203923
120	0x3fc888a6	1.5666702
121	0xc0042262	-2.0645986
122	0xbfa51458	-1.2896833
123	0x3f68b1dd	0.908964
124	0x3f6c0e83	0.92209643
125	0x3eb2e64c	0.34941328
126	0x3ea1c399	0.31594542
127	0xbf650ff8	-0.8947749

fc2.weight f4 [64, 128]
0	0xbe1e1e77	-0.15441309
1	0xbec95d13	-0.39328822
2	0x3e5c43e9	0.2151028
3	0xbda79cc5	-0.08184198
4	0xbc709a20	-0.014685184
5	0x3a628067	0.0008640349
6	0x3d11866d	0.03552859
7	0xbe1b71df	-0.15180157
8	0x3e7e6893	0.2484458
9	0xbd2b05d3	-0.0417536
10	0x3e1f8e0c	0.1558153
11	0x3d7b15df	0.061300155
12	0xbd8e9cbf	-0.06963491
13	0x3da7eba3	0.08199241
14	0x3d0e0675	0.034674127
15	0x3e4abf3c	0.19799513
16	0xbe045ef4	-0.12926847
17	0x3f0275a8	0.5096078
18	0x3f135ee3	0.5756666
19	0xbdc52ee5	-0.09628085
20	0x3eea22a0	0.45729542
21	0x3d1d0b3d	0.038340796
22	0x3dfc1184	0.12308028
23	0xbe399273	-0.18122272
24	0x3e418e5d	0.18901964
25	0xbecf13d0	-0.40444803
26	0x3f415ea5	0.7553504
27	0x3db1c7b4	0.086806685
28	0xbce3de8f	-0.027816085
29	0xbda852aa	-0.08218892
30	0xbef71af5	-0.48262754
31	0x3c8428fd	0.016132826
32	0xbdc49c0a	-0.096000746
33	0x3c84707e	0.016166922
34	0x3c5e7546	0.013577765
35	0x3e9244f2	0.28568226
36	0x3c9f2ed5	0.019431511
37	0x3dc8453a	0.09778829
38	0x3e2ddeae	0.16979477
39	0xbdfb5322	-0.12271716
40	0xbed3fffb	-0.41406235
41	0xbd89a159	-0.06720228
42	0xbdf12491	-0.117745526
43	0x3e2cffe8	0.16894495
44	0xbd8670c4	-0.06564477
45	0xbe6676d2	-0.22506264
46	0xbe96e636	-0.29472512
47	0xbd50e5b8	-0.051000327
48	0x3e7b2710	0.2452662
49	0x3d6e4942	0.058175333
50	0x3d983cc1	0.07433463
51	0x3d205f16	0.03915318
52	0x3ea00f98	0.31261897
53	0xbf7da18a	-0.99074614
54	0x3da5899f	0.0808289
55	0x3e31b543	0.17354302
56	0x3c801c8a	0.015638608
57	0x3c153328	0.009106435
58	0xbf51f761	-0.82018095
59	0x3d330051	0.043701474
60	0xbd174298	-0.036928743
61	0x3c0ed2cd	0.008717251
62	0x3d35da9c	0.044397935
63	0x3d99d106	0.07510571
64	0xbd0dbe68	-0.034605414
65	0xbdeacd49	-0.11464936
66	0xbe8f3ddb	-0.2797688
67	0xbc8b9bf5	-0.01704214
68	0xbd8a4e5b	-0.06753226
69	0x3d06b8e2	0.03289116
70	0x3c8fc464	0.017549701
71	0xbeb7a675	-0.35869184
72	0x3e803373	0.25039253
73	0xbe98d027	-0.29846308
74	0x3e083c1b	0.13304178
75	0x3e21e91b	0.15811579
76	0xbd9f1f37	-0.07769626
77	0x3cd9dfee	0.026596036
78	0xbcae8991	-0.021305831
79	0xbd877525	-0.066141404
80	0x3dab0ce5	0.08352069
81	0x3d0b505a	0.034012176
82	0x3c80ba0e	0.015713718
83	0x3e53c7ea	0.2068173
84	0x3eb5f5f3	0.35539207
85	0xbeb3b414	-0.35098326
86	0xbe0f39a3	-0.1398683
87	0xbd93c6c5	-0.07215647
88	0x3d2df5af	0.04247063
89	0x3d69138d	0.05690341
90	0x3e99bbd2	0.30026108
91	0x3d30a106	0.043122314
92	0xbe6d17c2	-0.23153594
93	0x3d271180	0.040788174
94	0x3e23e0f0	0.16003776
95	0xbdd6deff	-0.10491752
96	0x3db7cb6a	0.08974345
97	0x3cfcc792	0.030856881
98	0x3d70de20	0.058805585
99	0x3cb63194	0.022240438
100	0xbdcbffd1	-0.099609025
101	0x3e6e0ca3	0.23247008
102	0xbe67dd95	-0.2264312
103	0x3e1c971a	0.15292016
104	0x3db7a751	0.0896746
105	0xbebe4267	-0.37160036
106	0xbe2587c7	-0.16165076
107	0x3e130731	0.14358212
108	0x3eaa219b	0.33228764
109	0x3da53d53	0.08068337
110	0x3e18209a	0.14856187
111	0xbdb4c07c	-0.08825776
112	0xbf680206	-0.9062809
113	0xbc60736d	-0.013699395
114	0xbe91b093	-0.28455028
115	0x3ed869c4	0.42268193
116	0xbc09df93	-0.008415121
117	0x3e6447a3	0.22292952
118	0x3e33c40c	0.17555255
119	0xbe4316ec	-0.19051713
120	0xbe985842	-0.29754835
121	0xbdcb6679	-0.099316545
122	0xbe258a0e	-0.16165945
123	0xbe9a166a	-0.30095226
124	0x3db0dc62	0.08635785
125	0xbe6c5fe5	-0.23083456
126	0xb9502ba5	-0.00019852685
127	0x3d76b8fe	0.060235016
128	0xbf13f197	-0.5779051
129	0xbebffe28	-0.37498593
130	0xbd97794b	-0.07396182
131	0xbe9c3ea3	-0.30516538
132	0x3d37136d	0.04469626
133	0xbdd7886d	-0.10524068
134	0xbe14f91a	-0.1454815
135	0x3cbbe760	0.022937477
136	0xbef6949e	-0.4816026
137	0xbf425432	-0.7590972
138	0xbd847d3e	-0.064692006
139	0x3e46022b	0.19336765
140	0xbe5b4f77	-0.21417032
141	0xbd3c611b	-0.045991044
142	0xbe832204	-0.2561189
143	0xbdf7e18b	-0.12103566
144	0xbe16e88e	-0.1473715
145	0x3dc34462	0.09534527
146	0x3e482077	0.19543634
147	0x3df88a80	0.12135792
148	0x3e601f1e	0.2188687
149	0x3b81ca4e	0.003960884
150	0x3ca56db2	0.020193908
151	0xbe1a9436	-0.150956
152	0xbe02c597	-0.12770687
153	0xbdaeb130	-0.085298896
154	0x3ece9a9f	0.40352342
155	0x3e0dffcf	0.13867114
156	0x3d88fd1b	0.06688901
157	0x3d2215ef	0.0395717
158	0xbee6c7ed	-0.45074406
159	0xbdf09bcb	-0.11748465
160	0xbe66a76f	-0.22524808
161	0xbc2b90d0	-0.010471538
162	0x3d6ccdee	0.057813577
163	0x3e4fa422	0.20277455
164	0xbc8912f9	-0.01673268
165	0xbe1ad547	-0.15120421
166	0x3b855d41	0.0040699546
167	0xbe65bcaf	-0.22435258
168	0xbcafea10	-0.021473914
169	0x3e768235	0.24073108
170	0xbe0de16d	-0.13855524
171	0x3f881891	1.0632497
172	0x3e2551aa	0.16144434
173	0xbc624e6f	-0.013812645
174	0x3e46f495	0.19429238
175	0x3c2bd30b	0.010487328
176	0xbd78333f	-0.060595747
177	0x3cc3b1f4	0.023888566
178	0x3f0309f8	0.51187086
179	0xbc43c9b4	-0.011949945
180	0xbe970ce8	-0.29502034
181	0xbead7545	-0.33878532
182	0xbe09e505	-0.1346627
183	0x3db5955d	0.088663794
184	0x3edd357f	0.43204877
185	0xbe65ceac	-0.2244212
186	0xbe804510	-0.2505269
187	0xbe1d8538	-0.1538285
188	0xbd865f32	-0.06561126
189	0x3d0da48b	0.03458075
190	0x3e266956	0.1625112
191	0xbc6d8888	-0.014497884
192	0xbb678ead	-0.0035332844
193	0xbd042232	-0.032259174
194	0x3decaff8	0.11557001
195	0xbae9cd97	-0.001783776
196	0xbdf5ad6c	-0.11995968
197	0xbd4bce61	-0.049757365
198	0x3e08da1c	0.13364452
199	0xbe7aa353	-0.24476366
200	0xbdf90360	-0.12158847
201	0xbc405448	-0.011738844
202	0x3e293620	0.16524553
203	0xbc54ce6e	-0.01298867
204	0x3e0e5057	0.13897835
205	0x3e02d5ab	0.1277682
206	0xbde635c7	-0.11240726
207	0xbdd29ec7	-0.102841906
208	0xbaac2fca	-0.0013136801
209	0x3dabd1d6	0.083896324
210	0xbe2170fc	-0.15765756
211	0xbd9817b3	-0.07426395
212	0xbb0361df	-0.002004735
213	0xbe626933	-0.22110443
214	0xbd854393	-0.065070294
215	0xbe66b428	-0.22529662
216	0xbeaeb604	-0.34123242
217	0x3e201822	0.15634206
218	0x3f32dc6a	0.69867575
219	0xbd9a02dc	-0.07520077
220	0xbd9aec09	-0.075645514
221	0xbd45c32d	-0.048281837
222	0x3d9ed62a	0.07755692
223	0xbe3fc1e6	-0.1872631
224	0xbd32ebd6	-0.043681942
225	0xbeab0427	-0.33401605
226	0x3e07dca3	0.1326776
227	0xbd1bdcff	-0.038052555
228	0xbcedf046	-0.029045235
229	0x3d689d75	0.056790788
230	0xbe635df3	-0.22203808
231	0xbe1064f7	-0.14101015
232	0x3dd27947	0.10277038
233	0x3e17d5ed	0.148277
234	0xbe411db1	-0.18858983
235	0x3e3ff88b	0.18747155
236	0x3e85c334	0.2612549
237	0x3d10ba24	0.035333768
238	0x3e2d1c26	0.16905269
239	0xbd955a56	-0.07292621
240	0xbe3dc173	-0.18530826
241	0xbe808bbf	-0.25106618
242	0xbeb30790	-0.34966707
243	0xbdd4b372	-0.10385789
244	0xbe1879df	-0.1489024
245	0x3dec86eb	0.11549171
246	0x3f1f1faa	0.6215769
247	0x3df70f6a	0.12063487
248	0xbd651730	-0.055930316
249	0xbe04d130	-0.12970424
250	0xbe1b6300	-0.15174484
251	0x3d4ea317	0.050448503
252	0xbf27a9f1	-0.65493685
253	0xbe6cb18c	-0.23114604
254	0x3d79d25d	0.060991634
255	0x3da63f48	0.08117539

fc2.bias f4 [64]
0	0x3eeded1f	0.46469972
1	0xbd169b48	-0.03676918
2	0xbebd7b0d	-0.37007943
3	0xbed11247	-0.40834257
4	0x3d485bea	0.04891578
5	0xbe9fdfdb	-0.31225476
6	0x3f27c6d7	0.6553778
7	0x3dbf6e0d	0.093471624
8	0x3f95bf46	1.1698997
9	0xbebc388e	-0.36761898
10	0xbd85820f	-0.06518947
11	0x3db169e5	0.08662776
12	0xbf4dc6dc	-0.8038156
13	0xbf07708f	-0.52906126
14	0xbf0d8bd5	-0.5529149
15	0xbfb5c12c	-1.4199576
16	0x3fca8d52	1.5824378
17	0xbf1b07fb	-0.6055905
18	0x3e5df31a	0.21674767
19	0x3e54d41c	0.20784038
20	0x3ef8e113	0.48609218
21	0xbd8102ab	-0.06299337
22	0x3e16a245	0.14710338
23	0x3eaac1d5	0.33351007
24	0xbeef79eb	-0.46772704
25	0x3f4deceb	0.80439633
26	0xbf759880	-0.9593582
27	0x3d6af022	0.057357915
28	0xbf0859d4	-0.53262067
29	0x3f4827fe	0.78186023
30	0x3f03c66e	0.51474655
31	0x3e917bff	0.28414914
32	0x3dcba20b	0.099430166
33	0xbece5853	-0.4030176
34	0xbf779a49	-0.96719795
35	0xbe6c5fb0	-0.23083377
36	0x3fd0df26	1.63181
37	0xbed2e209	-0.41188076
38	0xbf8d97ac	-1.1061912
39	0xbe28092a	-0.16409746
40	0x3da269ed	0.0793036
41	0x3f00e528	0.50349665
42	0x3f96ada9	1.1771747
43	0x3eaa55f0	0.3326869
44	0x3dd6f82a	0.10496552
45	0xbe555068	-0.20831454
46	0x3e9d065e	0.3066892
47	0x3ee55aa3	0.44795713
48	0x3d861610	0.06547177
49	0x3ef2bd35	0.47409979
50	0x3e3f884d	0.18704338
51	0x3e5ce444	0.21571451
52	0xbd27329b	-0.040819746
53	0xbdb56acd	-0.08858261
54	0xbd8429b3	-0.06453266
55	0x3e6c6dc7	0.23088752
56	0x3d3d67f1	0.046241704
57	0xbe18f125	-0.1493574
58	0x3f09017d	0.53517896
59	0x3f08242b	0.5318019
60	0x3ef1f207	0.47254965
61	0xbd7bcf2d	-0.061476875
62	0xbedd4065	-0.43213192
63	0x3ea18b04	0.31551373

fc3.weight f4 [32, 64]
0	0x3d51b245	0.0511954
1	0xbdc98510	-0.09839833
2	0xbbd6b2c8	-0.006552074
3	0xbe80cd99	-0.2515686
4	0x3ed69ae1	0.41915038
5	0xbcb63db5	-0.022246221
6	0x3ea4f29f	0.32216355
7	0xbe1f3dab	-0.15550868
8	0x3e3e7b27	0.18601666
9	0x3db344e5	0.08753375
10	0x3e504706	0.20339593
11	0x3cd9dc69	0.026594358
12	0xbe583357	-0.21113335
13	0x3e3b501c	0.18292278
14	0xbfb08dcf	-1.3793277
15	0xbe4e2669	-0.2013184
16	0x3ed37755	0.4130198
17	0xbdfc8954	-0.12330881
18	0x3e4b2069	0.19836582
19	0x3e457b27	0.1928526
20	0xbbd7755a	-0.0065752687
21	0x3edbe117	0.42945167
22	0x3e433f6d	0.19067164
23	0x3e1f9b24	0.15586525
24	0xbceb98ed	-0.028759444
25	0x3e7000e6	0.23437843
26	0x3a8fcd0f	0.0010971146
27	0x3e9ac89f	0.30231187
28	0xbe120e51	-0.14263274
29	0x3f5b03ee	0.8555287
30	0xbd63e194	-0.05563505
31	0x3c70c728	0.01469592
32	0xbc4d435c	-0.012528267
33	0x3d22b3b1	0.03972215
34	0xbe3be84b	-0.18350331
35	0xbe3f2ac0	-0.18668652
36	0x3e43c0d4	0.19116527
37	0xbdb48f8a	-0.088164404
38	0xbeafc263	-0.34327993
39	0x3d9796b9	0.07401795
40	0x3dd84e0a	0.1056176
41	0xbe50caa8	-0.20389807
42	0x3e646411	0.22303797
43	0x3d17fa5b	0.037103992
44	0xbccf2134	-0.025284387
45	0x3d853f8f	0.065062635
46	0x3d891596	0.0669357
47	0xbdf35f94	-0.118834645
48	0x3d5aca6f	0.053415712
49	0xbd0bfb78	-0.034175366
50	0x3c8b212f	0.016983597
51	0x3e8dcb6d	0.27694264
52	0x3e1df017	0.15423618
53	0x3de7e35d	0.11322663
54	0x3d869626	0.06571607
55	0x3e7b488d	0.24539395
56	0xbdb87f59	-0.09008665
57	0x3e80af2b	0.25133643
58	0x3e711049	0.23541369
59	0xbe0d8b59	-0.13822688
60	0x3ccf8fc2	0.025337104
61	0x3e9310bf	0.28723714
62	0x3cbb7305	0.022881994
63	0x3f7827e9	0.969359
64	0xbf60b92e	-0.8778256
65	0x3d16f016	0.036850058
66	0x3e39da71	0.18149735
67	0x3e0c2612	0.13686398
68	0xbca68b31	-0.020330044
69	0x3cf1bf62	0.029510204
70	0xbd6addfd	-0.05734061
71	0xbe3f9718	-0.18709981
72	0x3e581913	0.21103315
73	0xbdd0f2bf	-0.1020255
74	0xbdb9e95f	-0.09077715
75	0x3deaa38c	0.11456975
76	0xbe26a89e	-0.1627526
77	0x3d0c3a14	0.034235075
78	0xbcd5fb4a	-0.0261208
79	0x3e94887a	0.29010373
80	0x3e5a3455	0.21309026
81	0x3cc0cd44	0.023535378
82	0xbde7daa3	-0.113209985
83	0x3dfb1d47	0.122614436
84	0x3e2dc726	0.169705
85	0x3ebc25b9	0.3674753
86	0x3b3f0254	0.0029145675
87	0xbcaf278c	-0.021381162
88	0x3e9de6a4	0.30840027
89	0x3d36b997	0.044610586
90	0xbe148a59	-0.145059
91	0x3babd77c	0.0052441936
92	0xbe83a14a	-0.2570899
93	0x3d09e9e9	0.03367034
94	0x3dc61434	0.09671822
95	0xbe64bdc7	-0.2233802
96	0x3e304448	0.17213547
97	0x3e45a6e2	0.19301942
98	0x3e48e025	0.19616754
99	0xbd5e76ad	-0.054312397
100	0x3cb61b4d	0.022229815
101	0x3db9f418	0.0907976
102	0x3e360ae0	0.17777586
103	0xbd106b74	-0.035258725
104	0x3d0a9957	0.033837643
105	0xbf0250a6	-0.5090431
106	0x3d14a02b	0.03628556
107	0xbd843b8f	-0.064566724
108	0xbe830efc	-0.2559737
109	0x3daa85ad	0.08326278
110	0xba1f05c0	-0.00060662255
111	0x3d9f1334	0.077673346
112	0x3e09e4ae	0.1346614
113	0x3ea6a500	0.3254776
114	0xbe8786a3	-0.26469907
115	0xbcb7363b	-0.022364726
116	0xbde5960f	-0.11210262
117	0x3c5452e2	0.012959214
118	0x3e8eaec9	0.27867725
119	0x3e641de8	0.22277033
120	0xbbb32b38	-0.0054677986
121	0xbd551380	-0.05202055
122	0xbda20217	-0.07910555
123	0xbe0becd7	-0.13664566
124	0x3e0f79e5	0.14011343
125	0x3daf2a0b	0.08552941
126	0x3d2aeba0	0.041728616
127	0xbe664be0	-0.22489882
128	0x3f777a45	0.96670943
129	0x3d5418d5	0.051781494
130	0x3e105168	0.14093554
131	0x3ccb931a	0.024850417
132	0x3d86d09d	0.065827586
133	0x3e2ba00e	0.16760275
134	0x3de394da	0.111123756
135	0x3e5e87ea	0.21731535
136	0x3c442619	0.011971974
137	0x3b42d385	0.0029728126
138	0xbd9165d3	-0.070994996
139	0xbda68298	-0.081303775
140	0xbd4cd89b	-0.05001126
141	0x3e204bb3	0.15653877
142	0xbc8f4f44	-0.017493851
143	0x3df8b8ff	0.1214466
144	0x3eba5d63	0.36399373
145	0x3d54f7e3	0.051994216
146	0xbdb1a828	-0.086746514
147	0x3e32bd60	0.17455053
148	0x3edaf778	0.4276693
149	0x3dcae8c1	0.099076755
150	0xbda052d4	-0.07828298
151	0xbe095d68	-0.13414538
152	0x3e852c84	0.26010525
153	0xbe161f77	-0.1466044
154	0xbe32176f	-0.17391752
155	0x3b833ca4	0.0040050317
156	0xbdf6afcc	-0.12045249
157	0x3f376f72	0.7165443
158	0x3d806c33	0.06270637
159	0xbdbfd2ef	-0.09366404
160	0x3db8a380	0.0901556
161	0xbe2a3b83	-0.16624264
162	0x3e096dee	0.13420841
163	0x3ea30e37	0.31846783
164	0x3d8a75a0	0.067607164
165	0xbbfb3459	-0.0076661524
166	0xbdf7e170	-0.12103546
167	0xbe0a7f58	-0.1352514
168	0xbe979c2f	-0.29611346
169	0x3da35dd8	0.07976884
170	0xbb4b5b2f	-0.0031029691
171	0x3da99549	0.08280427
172	0xbdf3e784	-0.119093925
173	0x3d33617f	0.04379415
174	0xbe2dceea	-0.16973463
175	0x3e734aa6	0.23758945
176	0xbd962916	-0.07332055
177	0x3e8f6219	0.2800453
178	0xbd96d99c	-0.073657244
179	0x3ebd8cf4	0.370216
180	0xbe49efff	-0.19720457
181	0x3d667403	0.05626298
182	0x3d92acbe	0.07161854
183	0x3e379fad	0.17932005
184	0x3c85cc52	0.01633278
185	0xbeb014c2	-0.34390837
186	0x3d0667b9	0.03281376
187	0xbd847919	-0.0646841
188	0x3d7a2e85	0.06107952
189	0x3e885afb	0.26631913
190	0xbc8a27f7	-0.01686476
191	0xbe2ea47c	-0.17054933
192	0xbcdd509a	-0.027015973
193	0xbad1bcc1	-0.0016001688
194	0x3e2028db	0.15640585
195	0x3e50c5c6	0.20387945
196	0xbe16bf5d	-0.14721437
197	0x3ef448ab	0.4771169
198	0xbf6cfe39	-0.92575413
199	0x3db70110	0.089357495
200	0xbf093a20	-0.53604317
201	0x3ebadeb7	0.36498043
202	0xbd63e0c7	-0.055634286
203	0xbddc1c89	-0.1074763
204	0x3e87cd1a	0.26523668
205	0x3efd663b	0.49492058
206	0x3e53ac6f	0.20671247
207	0x3e25a26a	0.16175237
208	0xbf67c338	-0.90532255
209	0x3dcc417f	0.0997343
210	0xbe57576c	-0.21029443
211	0x3dc81cfc	0.09771153
212	0xbf01b308	-0.50663805
213	0xbf4e6641	-0.8062478
214	0x3d99c3e2	0.07508065
215	0xbf851066	-1.039563
216	0xbd2f2bcb	-0.042766374
217	0xbfc0fb7d	-1.5076748
218	0x3e57cd04	0.21074301
219	0xbea40e0e	-0.32041973
220	0x3dd47f35	0.10375825
221	0xbeea53ec	-0.45767152
222	0x3e0be9b6	0.13663372
223	0x3e38a6e3	0.18032412
224	0xbd3c7f58	-0.046019882
225	0xbe49f0d2	-0.19720772
226	0x3da285e3	0.07935693
227	0x3e4c351d	0.19942136
228	0xbfc3f4eb	-1.5309118
229	0x3d47bf9c	0.048766717
230	0x3e4e5d68	0.20152819
231	0x3e60a1e9	0.21936764
232	0xbe08e0c9	-0.13366999
233	0x3d93c84b	0.07215937
234	0xbfe83536	-1.8141239
235	0xbf42a6c6	-0.76035726
236	0x3c5b898c	0.013399493
237	0xbd967993	-0.07347407
238	0x3dff4cfe	0.12465857
239	0x3d95614a	0.07293947
240	0x3ebc78bf	0.36810872
241	0xbe26d3a5	-0.16291673
242	0x3d765a9f	0.060145017
243	0x3dce864e	0.1008421
244	0xbb09ad96	-0.0021008006
245	0x3d102b14	0.035197333
246	0xbd018156	-0.031617485
247	0xbf00b0b4	-0.5026963
248	0xbe2e9572	-0.17049196
249	0xbe493fe8	-0.19653285
250	0xbf98ed85	-1.1947485
251	0x3df226a1	0.11823774
252	0xbe36209d	-0.17785878
253	0xbdba653a	-0.09101339
254	0xbe52619e	-0.2054505
255	0xbf2c08f6	-0.67201173

fc3.bias f4 [32]
0	0xbe196ac5	-0.14982136
1	0xbee45764	-0.44597924
2	0xbcbd79f1	-0.023129435
3	0xbf1cc6e1	-0.61240965
4	0x3d7fd955	0.062463123
5	0xbd667656	-0.056265198
6	0xbe61ede4	-0.22063404
7	0x3d30a935	0.04313012
8	0x3e08f11f	0.1337323
9	0x3f0679c6	0.5252956
10	0x3e7949ad	0.24344511
11	0x3e0b548a	0.13606468
12	0x3d64232a	0.055697598
13	0x3e6e5249	0.23273577
14	0x3e4274d2	0.18989876
15	0x3eb6d5ed	0.35710087
16	0x3e818ca8	0.25302625
17	0x3f0813a0	0.53154945
18	0xbe41b765	-0.18917616
19	0xbe89abb8	-0.26888824
20	0x3e3d88c6	0.18509206
21	0x3ea1b649	0.31584385
22	0x3eacfdda	0.33787423
23	0x3e0a5b82	0.1351147
24	0x3ed39104	0.41321576
25	0x3e659080	0.22418404
26	0xbe0baac7	-0.13639365
27	0xbd439465	-0.047748942
28	0x3eb405ab	0.35160574
29	0xbdb5a6e5	-0.08869723
30	0xbae3f3c8	-0.0017391378
31	0x3e83ca19	0.25740126

fc_mu.weight f4 [1, 32]
0	0xbed17237	-0.40907452
1	0x3e1dbf60	0.15405035
2	0x3ecb06e6	0.396537
3	0x3f6b3863	0.91882914
4	0xbea6c385	-0.32571045
5	0x3fb903bc	1.4454265
6	0xbe581d9c	-0.21105045
7	0x3e06e0fe	0.13171765
8	0xbf217c92	-0.63080704
9	0x3eca0e02	0.39463812
10	0xbf6ea355	-0.93217975
11	0x3f08bae7	0.5341019
12	0xbf012477	-0.50446266
13	0xbe632c0f	-0.22184776
14	0xbf24dc40	-0.64398575
15	0x3e4ed13b	0.20197003
16	0x3ea0a71f	0.31377503
17	0x3ee19853	0.44061527
18	0xbf0301df	-0.5117473
19	0x3ec77eea	0.38964015
20	0xbec8b4ac	-0.39200342
21	0x3e86b200	0.26307678
22	0x3f032464	0.512274
23	0x3e790db0	0.24321628
24	0xbe91c09e	-0.28467268
25	0x3f974f80	1.1821136
26	0xbf71fc79	-0.9452587
27	0xbe874b8f	-0.26424834
28	0xbed2d40a	-0.41177398
29	0x3e8f6bbe	0.28011888
30	0x3f6b93a1	0.9202214
31	0x3fe7224b	1.805734

fc_std.weight f4 [1, 32]
0	0xbdbd611a	-0.09247036
1	0x3945f2cb	0.00018877831
2	0x3dd95450	0.106117845
3	0xbe205915	-0.15658982
4	0xbd521a5d	-0.051294673
5	0x3ecf8db5	0.405378
6	0x3d095584	0.03352882
7	0x3ecde0c5	0.40210548
8	0xbe168e26	-0.14702663
9	0x3ccf4c6f	0.025305001
10	0xbe5fe9ea	-0.21866575
11	0xbd824869	-0.063614674
12	0x3e06b973	0.13156681
13	0xbe2dc063	-0.16967921
14	0xbebe0ff1	-0.37121537
15	0xbcb5c26a	-0.02218743
16	0x3b2751c6	0.0025530919
17	0xbd4bdc5e	-0.049770705
18	0x3e8af521	0.27140144
19	0x3e74107d	0.23834415
20	0xbd1d3c08	-0.03838733
21	0xbc9232e4	-0.017846532
22	0x3e58ca9d	0.21171041
23	0x3c43ddcb	0.011954735
24	0xbe06c33c	-0.13160414
25	0xbe149935	-0.14511569
26	0x3ebe85e3	0.37211522
27	0x3ca25259	0.019814657
28	0xbe31aa08	-0.17350018
29	0x3e0b8812	0.13626125
30	0x3e6cd72d	0.23128958
31	0x3f02c110	0.5107584
