myrobot/src/SAC/saved_model/1210_reward_norm/sac_actor_1210_reward_norm_EP308.pt (torch, 47639 bytes, 8 tensors)

fc1.weight f4 [128, 4]
0	0xbf1e4426	-0.61822736
1	0x3f46c112	0.7763835
2	0xbc243ec1	-0.010024727
3	0xbdfc129b	-0.12308236
4	0x3f6766f4	0.9039147
5	0x3f55ed5a	0.83565295
6	0xbf0e2b2c	-0.55534625
7	0xbd1b2da2	-0.037885316
8	0x3eeb81df	0.4599752
9	0xbe82c6f6	-0.2554242
10	0xbf6410ee	-0.8908833
11	0x3c473941	0.0121596465
12	0x3facb687	1.3493203
13	0x3e2a4d4d	0.1663105
14	0x3d30643c	0.04306434
15	0x3bcea88e	0.0063067144
16	0x3e98ecf6	0.29868287
17	0x3ea5657a	0.32303983
18	0xbf23cb95	-0.63982517
19	0xbc65e47e	-0.014031528
20	0xbf8e05c7	-1.1095513
21	0xbf2c06b3	-0.6719772
22	0x3d4d8025	0.050171036
23	0x3d81db97	0.063407116
24	0xbf95804f	-1.1679782
25	0xbec5d6d3	-0.3864046
26	0xbda06975	-0.07832614
27	0x3d3e50fb	0.046463948
28	0x3f3c1190	0.734643
29	0xbe92863c	-0.28618038
30	0xbf1de63c	-0.61679435
31	0xbcd87eea	-0.026427705
32	0xbe04de88	-0.12975514
33	0x3d2564c1	0.04037929
34	0xbf573021	-0.84057814
35	0xbe513f00	-0.20434189
36	0x3fac793a	1.3474495
37	0x3f0d66fb	0.5523526
38	0xbe4d6e2d	-0.2006156
39	0xbc72c061	-0.0148163745
40	0x3ef72ff6	0.4827878
41	0xbec0e17c	-0.3767203
42	0xbf870407	-1.0548104
43	0xba70bfee	-0.0009183873
44	0x3fa3e917	1.2805508
45	0xbe1826bf	-0.1485853
46	0x3ed53778	0.41643882
47	0xbe2b927f	-0.16755103
48	0x3fa76fc6	1.3080986
49	0x3e779fb3	0.24182014
50	0x3f2659b1	0.6498061
51	0x3cbb4d7b	0.022864094
52	0x3f18d2e4	0.59696794
53	0xbea97e6e	-0.3310427
54	0x3f84a894	1.0363946
55	0x3a6bc68a	0.0008994123
56	0xbf3ed4b6	-0.7454332
57	0x3e6204bf	0.22072123
58	0xbf639bf8	-0.88909864
59	0xbd092a12	-0.033487387
60	0x3f710e1e	0.94162166
61	0xbdf8d5c4	-0.121501476
62	0xbec3d52c	-0.38248575
63	0xbdb7edf5	-0.089809336
64	0x3f581931	0.8441344
65	0x3ee6d413	0.45083675
66	0xbfa614ee	-1.2975137
67	0x3dc55a35	0.09636346
68	0x3e93304b	0.28747782
69	0xbf9a54e2	-1.2057154
70	0x3f176252	0.591344
71	0x3c9c8543	0.019106513
72	0x3ea67e8a	0.32518417
73	0xbf46c72d	-0.7764767
74	0x3f32bc7a	0.6981884
75	0x3b34dcf2	0.0027597514
76	0x3ffdeeec	1.9838538
77	0xbcd481f8	-0.02594088
78	0xbf461a26	-0.7738365
79	0x3c35c6ae	0.011094732
80	0xbf4c7df2	-0.7987968
81	0xbf061dfd	-0.5238951
82	0xbc980558	-0.018557236
83	0x3c30a873	0.010782349
84	0x3e819bbe	0.25314134
85	0x3e8cd0dd	0.275031
86	0xbe379aff	-0.1793022
87	0xbc4a4290	-0.012344971
88	0xbf297b68	-0.6620393
89	0xbef824a9	-0.4846547
90	0xbddaa9e4	-0.10676935
91	0x3dc21091	0.09475816
92	0x3fec72a3	1.8472484
93	0xbd818101	-0.06323434
94	0xbea07758	-0.31341052
95	0xbc90f58f	-0.017695216
96	0x3eb87e68	0.3603394
97	0xbf45c275	-0.7724984
98	0xbfa24db4	-1.2679963
99	0x3cd75217	0.02628426
100	0x3fb376d1	1.4020635
101	0x3d4d0f13	0.050063204
102	0x3f90be57	1.1308087
103	0x3af414e5	0.001862195
104	0xbf44fe4f	-0.76950544
105	0xbf96f000	-1.1791992
106	0x3ea2bacd	0.31783143
107	0x3c7d7863	0.015470597
108	0xbf4f2c5b	-0.80927056
109	0xbf3b0763	-0.73058146
110	0x3e5c8464	0.21534878
111	0x3d5ce484	0.053928867
112	0x3f3d987b	0.7406079
113	0xbf26a38f	-0.6509332
114	0xbf8e7ac5	-1.1131216
115	0x3d43f258	0.04783854
116	0xbea98a99	-0.33113554
117	0xbd192e2f	-0.03739756
118	0x3f8f4423	1.1192669
119	0x3c3c5a36	0.011496117
120	0x3efbfb58	0.49215198
121	0x3f2835ee	0.6570729
122	0xbfe5f8af	-1.7966517
123	0x3c472acc	0.0121562
124	0x3ec2b028	0.38025022
125	0xbdaa2f5e	-0.08309816
126	0xbe389be2	-0.18028215
127	0x3d2c0c73	0.04200406
128	0x3f08d00a	0.5344244
129	0x3ee1121a	0.43959123
130	0xbf069a0f	-0.52578825
131	0x3d2c2629	0.04202858
132	0x3f67f6ca	0.90610945
133	0x3c0a94d3	0.008458334
134	0x3f9fa46d	1.2472054
135	0x3dfdc8e4	0.123918325
136	0xbf44d272	-0.76883614
137	0x3e777dff	0.24169157
138	0xbf119a4b	-0.5687606
139	0xbd86d9d3	-0.065845154
140	0x3d228e16	0.039686285
141	0xbed0133d	-0.40639678
142	0x3f35b797	0.7098326
143	0xbc73ae37	-0.014873079
144	0x3f07ac64	0.5299742
145	0x3f061a30	0.5238371
146	0x3de8d5e5	0.11368922
147	0xbd472165	-0.048615832
148	0xbe0e98c7	-0.13925467
149	0xbf3cbaff	-0.73722833
150	0x3d254c2b	0.040355843
151	0x3d5599e5	0.05214872
152	0x3f663de8	0.8993821
153	0xbf96e43e	-1.1788404
154	0xbf00a91a	-0.5025803
155	0x3d21ef19	0.039534662
156	0xbef2f7df	-0.47454736
157	0xbedb1cd9	-0.42795447
158	0x3d8a33ac	0.06748137
159	0xbe18e1f9	-0.14929952
160	0x3da45039	0.08023114
161	0x3f4bea73	0.79654616
162	0xbee50725	-0.44732013
163	0x3a76a7d3	0.0009409163
164	0x3e75a9b8	0.23990524
165	0xbfa08fb9	-1.2543861
166	0x3f00c0a4	0.50293946
167	0xbd61b6a3	-0.055105817
168	0xbf0edc41	-0.5580483
169	0x3f02431d	0.50883657
170	0x3ed00a70	0.40632963
171	0x3d222743	0.039588224
172	0xbe66687d	-0.22500797
173	0xbfb44024	-1.4082074
174	0x3e342842	0.17593482
175	0xbe60073d	-0.21877761
176	0x3da53a83	0.08067801
177	0x3eeeb535	0.46622625
178	0xbcd4383c	-0.02590572
179	0xbe2a2c8a	-0.16618553
180	0x3e4fef32	0.2030609
181	0x3d18cf89	0.037307296
182	0xbf9eb6d8	-1.239955
183	0xbd268fa8	-0.040664345
184	0xbd3497cd	-0.04409008
185	0x3e15aa8a	0.14615837
186	0x3f92617c	1.1436
187	0x3cca68d0	0.024708182
188	0xc0214e0d	-2.5203888
189	0xbd6515a7	-0.055928852
190	0x3d39fb5d	0.045405734
191	0x3c928bd8	0.017888948
192	0x3f221f9b	0.63329476
193	0xbf91b9d5	-1.1384836
194	0x3f5edf71	0.87059695
195	0x3c651fdf	0.013984649
196	0x3f2b24b8	0.66852903
197	0xbec2b036	-0.38025063
198	0x3f6b1fe6	0.9184555
199	0xbba38207	-0.0049898657
200	0x3f725c62	0.94672215
201	0xbf8400ff	-1.0312804
202	0x3e5f1a81	0.21787454
203	0xbe62193d	-0.2207994
204	0x3fad6b0f	1.3548297
205	0xbf02fb25	-0.51164466
206	0xbfcb3d0f	-1.5878009
207	0x3d6a7dc6	0.057248853
208	0x3f57d112	0.8430339
209	0xbf0ff630	-0.5623503
210	0xbe65f5e4	-0.22457081
211	0x3b056495	0.002035414
212	0x3da09ea1	0.07842756
213	0x3f635fce	0.8881806
214	0x3f1d7869	0.61511856
215	0x3bd9b049	0.0066433293
216	0xbfb0533e	-1.3775403
217	0xbf46a909	-0.7760168
218	0x3e751344	0.2393313
219	0x3e08a687	0.13344775
220	0x3f7c4b4d	0.985524
221	0xbe5c533e	-0.2151613
222	0xbe3da9d4	-0.18521816
223	0xbda5a0cc	-0.0808731
224	0x3f7b9d06	0.98286474
225	0x3f0b01b6	0.54299486
226	0x3d9b0926	0.07570104
227	0xbd8528ec	-0.06501946
228	0x3e909dbb	0.2824534
229	0xbf2411b5	-0.6408952
230	0xbff81e79	-1.93843
231	0x3e064f6e	0.13116238
232	0xbf25e7a2	-0.6480657
233	0x3f684935	0.90736705
234	0x3d323079	0.04350326
235	0x3c2a63bb	0.010399754
236	0xbf36e597	-0.71444076
237	0x3e5b3f24	0.21410805
238	0xbf956b89	-1.1673442
239	0xbdbd266c	-0.09235844
240	0xbf8f4926	-1.1194198
241	0xbf1dd14e	-0.616475
242	0xbd818f85	-0.06326202
243	0x3e4784c1	0.19484235
244	0x3eed384e	0.4633202
245	0x3f1fb9ff	0.6239318
246	0x3dc10d8e	0.094264135
247	0xbda78518	-0.081796825
248	0x3e80cd67	0.2515671
249	0x3ec836e4	0.39104378
250	0x3e94be75	0.29051557
251	0xbe433062	-0.19061425
252	0x3e5d4e80	0.21611977
253	0x3e0a42e7	0.13502084
254	0x3f1746e5	0.5909255
255	0xbd0a3fea	-0.03375236

fc1.bias f4 [128]
0	0xbed07661	-0.40715316
1	0xbb8e3257	-0.004339497
2	0xbe49e554	-0.19716388
3	0xbea50440	-0.32229805
4	0x3d618060	0.05505407
5	0xbfd61d53	-1.6727699
6	0xbf86c62a	-1.0529225
7	0x3eac2ec5	0.33629432
8	0x3f5b8237	0.8574557
9	0x3e8eaf64	0.27868187
10	0xbefffe58	-0.49998736
11	0x3efe9a50	0.49727106
12	0x3f5355b0	0.82552624
13	0x3f580210	0.8437815
14	0xbe72c6a2	-0.23708585
15	0x3ef0ae78	0.4700811
16	0x3e6d38f7	0.23166262
17	0x3f118d64	0.5685637
18	0x3ff1d97d	1.8894497
19	0x3efd49d7	0.49470398
20	0x3f871358	1.0552778
21	0x40037856	2.0542197
22	0x3f93c647	1.1544884
23	0x3f183f04	0.59471154
24	0xbe00c2aa	-0.12574258
25	0xbf276640	-0.65390396
26	0x3f4bbed9	0.79588085
27	0xbfc2e7e6	-1.522702
28	0xbfb2a537	-1.395667
29	0xbfa0b3ea	-1.2554905
30	0x3f39174b	0.7230117
31	0xbf03b1a3	-0.5144293
32	0x3f16d5e9	0.5892015
33	0x3e173565	0.14766462
34	0x3d9d3730	0.07676542
35	0x3f62c981	0.8858872
36	0x3dd79bb2	0.105277434
37	0xbee511b9	-0.44740084
38	0xbee95a22	-0.45576578
39	0x3ef0339a	0.4691437
40	0x3f88d7c2	1.0690844
41	0xbf384be3	-0.71990794
42	0xbed4b777	-0.41546223
43	0xbe4a7616	-0.19771609
44	0xbe93e4a8	-0.28885388
45	0x3dd71e2a	0.105038
46	0xbf8188d5	-1.0119883
47	0x3e5e35ee	0.2170026
48	0xbf337e67	-0.7011475
49	0x3eaddd0b	0.33957705
50	0xbe2e6084	-0.17029005
51	0xbf4c32e5	-0.7976516
52	0x3f8a1261	1.0786859
53	0xbf9466aa	-1.159383
54	0xbfd22f45	-1.6420676
55	0xbbe416b1	-0.006960713
56	0xbef249ef	-0.47322032
57	0x3dcdd1ef	0.10049807
58	0x3caa42bc	0.020783775
59	0xbdab4b6a	-0.083639935
60	0xc003af30	-2.0575676
61	0xbd7b097e	-0.06128835
62	0xbf26b494	-0.6511929
63	0x3eee79f4	0.46577418
64	0xbfa99922	-1.3249857
65	0xbf5d65e8	-0.8648362
66	0x3f8433b6	1.0328281
67	0x3e98afb5	0.29821554
68	0x3f921a2c	1.1414237
69	0xbfbf9356	-1.4966838
70	0x3f75505e	0.95825756
71	0xbf872f10	-1.0561237
72	0x3fa501cf	1.2891177
73	0xbfabeeb3	-1.343222
74	0xbe509e97	-0.20372997
75	0xbee9b569	-0.45646217
76	0x3f24b665	0.6434081
77	0xbf419cac	-0.7562969
78	0x3fb50fa6	1.41454
79	0xbfe58df6	-1.7933948
80	0xbdfea4d4	-0.12433782
81	0x3f0dc4ef	0.5537862
82	0x3eb52fd1	0.35388044
83	0x3e864461	0.26224044
84	0x3ffcd1d6	1.9751537
85	0x3da7c972	0.081927195
86	0xbd2049ba	-0.03913281
87	0xbde8d4eb	-0.11368736
88	0xbf453dfd	-0.7704771
89	0xbf0f501c	-0.5598161
90	0xbfac0f37	-1.3442143
91	0xbf5216c3	-0.8206598
92	0xbba18c71	-0.004930072
93	0x3faf0127	1.3672227
94	0x3f8252c5	1.0181509
95	0x3f852e37	1.0404729
96	0x3f475063	0.77857035
97	0xbe821d90	-0.2541318
98	0x3eb7a10b	0.35865054
99	0xbf9dbe45	-1.2323691
100	0xbf1e6bd8	-0.61883307
101	0x3d4a03c9	0.049320016
102	0xbfbdbf17	-1.4823941
103	0x3ea1ea46	0.3162405
104	0x3f97f023	1.1870159
105	0xbd945f05	-0.07244686
106	0xbe1fa520	-0.15590334
107	0x3f1adf33	0.60496825
108	0x3fa95a05	1.3230597
109	0x3dd975f3	0.106182
110	0x3eb45468	0.35220647
111	0xbf30d698	-0.69077444
112	0xbf83c573	-1.0294632
113	0xbf474725	-0.7784293
114	0xbdde713b	-0.10861441
115	0x3fa3ce61	1.2797357
116	0x3f2cebb4	0.67547154
117	0x3ff6dac1	1.9285508
118	0xbe9124a0	-0.28348255
119	0xbf96122f	-1.1724299
120	0x3fc5bc49	1.5448085
121	0xbff9d7ad	-1.9518944
122	0xbf87ddb0	-1.0614529
123	0x3f6f8468	0.9356141
124	0x3f4832f4	0.7820275
125	0x3e9519d2	0.29121262
126	0x3e8dfab1	0.27730325
127	0xbf42fca6	-0.7616676

fc2.weight f4 [64, 128]
0	0xbe6ce865	-0.23135526
1	0xbea61f39	-0.32445696
2	0x3de3b904	0.11119273
3	0xbddda5ca	-0.108226374
4	0xbd096b16	-0.03354939
5	0xbc921cc2	-0.017835978
6	0x3d4d40af	0.050110515
7	0xbe01931e	-0.12653777
8	0x3e4b5643	0.19857125
9	0xbc886b76	-0.016652804
10	0x3e050532	0.12990263
11	0xbd1583cd	-0.03650265
12	0xbd88425f	-0.06653284
13	0x3d94060e	0.07227717
14	0x3d364d1c	0.04450713
15	0x3e03775f	0.12838505
16	0xbded8e02	-0.115993515
17	0x3ed33cf5	0.41257444
18	0x3f096bbf	0.5368003
19	0xbdeee9ff	-0.11665725
20	0x3ed51494	0.41617262
21	0x3d34034f	0.043948468
22	0x3de977c2	0.11399795
23	0xbe921c4b	-0.2853721
24	0x3df4d08f	0.11953842
25	0xbed12c6b	-0.408542
26	0x3f20d6fe	0.6282805
27	0x3d8fed5d	0.07027695
28	0xbbd6b8cc	-0.006552791
29	0xbd343282	-0.04399348
30	0xbf018c5b	-0.5060479
31	0x3c30dfd6	0.010795554
32	0xbd53f1ef	-0.051744398
33	0x3cd4875f	0.025943456
34	0x3c43428a	0.01191772
35	0x3e8c945a	0.27456933
36	0xbcedc5b5	-0.029024938
37	0x3d6cb0ab	0.05778567
38	0x3da0d961	0.07853962
39	0xbe20f5d3	-0.15718774
40	0xbec171d1	-0.37782148
41	0xbd514c8d	-0.051098395
42	0xbda1223b	-0.07867857
43	0x3e04437b	0.12916367
44	0xbdf89e0f	-0.12139522
45	0x3ba67585	0.0050799274
46	0xbe896ea0	-0.26842213
47	0xbdb03471	-0.086037524
48	0x3e24d550	0.16096997
49	0x3d2ca0e7	0.042145636
50	0x3dca84fa	0.098886445
51	0x3c812e01	0.015769007
52	0x3e77ef0e	0.24212286
53	0xbf66ca36	-0.901523
54	0x3da4e69b	0.08051797
55	0x3dea748e	0.11448012
56	0xbe2d46a7	-0.16921483
57	0x3b3b4de8	0.0028580371
58	0xbf419056	-0.75610864
59	0x3d30c4b5	0.043156344
60	0xbd20b181	-0.03923178
61	0xbcf18300	-0.029481411
62	0x3ce0cb43	0.027440673
63	0x3db4c48f	0.08826553
64	0xbbfe73bb	-0.007765261
65	0xbdc59e65	-0.09649352
66	0xbe7c3e29	-0.24633087
67	0xbbb74820	-0.0055933148
68	0xbd8b3ada	-0.067983344
69	0x3d25154f	0.040303525
70	0xbc8043c2	-0.01565731
71	0xbecdf45a	-0.40225488
72	0x3e6f9ae4	0.2339893
73	0xbdd37764	-0.10325506
74	0x3cadfc70	0.021238536
75	0x3e19ab1c	0.1500668
76	0xbd989811	-0.07450879
77	0x3d043bfe	0.032283776
78	0xbd065fb9	-0.032806132
79	0xbd8907f3	-0.06690969
80	0x3cbaf373	0.022821164
81	0x3d32ebee	0.04368203
82	0xbb704313	-0.0036661073
83	0x3dbfa850	0.09358275
84	0x3eb5bcdb	0.35495648
85	0xbe9b8fff	-0.30383298
86	0xbe2960ab	-0.16540782
87	0xbd4fbb76	-0.050715886
88	0x3ebbdf10	0.3669362
89	0x3d0748f0	0.033028543
90	0x3ebc358b	0.367596
91	0x3d285cfc	0.0411043
92	0xbe55c0f1	-0.20874383
93	0x3d84f8ed	0.06492791
94	0x3e0c7974	0.13718206
95	0xbd86bedc	-0.06579372
96	0x3dbd4187	0.09241014
97	0xbc8d5887	-0.017254127
98	0x3d8c07c2	0.06837417
99	0x3d593f19	0.05303869
100	0xbcc68ca0	-0.024236977
101	0x3e6b0d21	0.22954227
102	0xbeac62f9	-0.3366926
103	0x3de19a90	0.110158086
104	0x3d88b24e	0.06674634
105	0xbeffdc2c	-0.49972665
106	0xbe1e3266	-0.15448913
107	0x3e09642b	0.13417117
108	0x3e9c8d5a	0.30576593
109	0x3d634520	0.055485845
110	0x3e1b88e0	0.15188932
111	0xbd8c2571	-0.06843079
112	0xbf47a37b	-0.77983826
113	0xbcb7d72a	-0.022441465
114	0xbe230aa4	-0.15922028
115	0x3ea2cd3c	0.31797206
116	0x3ad8a4d8	0.001652862
117	0x3e571cfb	0.21007149
118	0x3dd0c10b	0.1019307
119	0xbe215ca8	-0.15758002
120	0xbe8bdf67	-0.2731888
121	0xbde47d68	-0.11156732
122	0xbde6677a	-0.11250205
123	0xbe9883e9	-0.2978814
124	0x3dffc25d	0.12488244
125	0xbe552bad	-0.20817442
126	0x3bd6acfb	0.0065513826
127	0x3dc833e9	0.09775526
128	0xbef73090	-0.48279238
129	0xbe9e4142	-0.30909163
130	0xbcf48172	-0.02984688
131	0xbe58ede6	-0.21184501
132	0x3c1d7eab	0.0096127195
133	0x3bac2455	0.0052533546
134	0xbd483def	-0.04888719
135	0x3d5a1e18	0.053251356
136	0xbed093de	-0.40737814
137	0xbf364f8f	-0.71215147
138	0xbd7961b1	-0.06088418
139	0x3d85a934	0.065264136
140	0xbe593e76	-0.21215233
141	0xbd31d759	-0.043418262
142	0xbe6df99e	-0.23239753
143	0xbd28f85a	-0.04125247
144	0xbe33901f	-0.17535447
145	0x3de8c8f3	0.11366453
146	0x3e4f2846	0.20230207
147	0xbd6bf074	-0.05760236
148	0x3e5e77d9	0.21725406
149	0x3b7b30ab	0.003832857
150	0x3d13c1f0	0.036073625
151	0xbe563c80	-0.20921516
152	0xbd582c5a	-0.052776672
153	0xbdbc306b	-0.091889225
154	0x3ecb7a7a	0.3974188
155	0x3e271f8c	0.16320628
156	0x3d42ed81	0.047589783
157	0x3cd6de00	0.026228905
158	0xbef844f7	-0.48490116
159	0xbdb1c5e6	-0.08680324
160	0xbdf1594d	-0.11784611
161	0xbb9bdc01	-0.004756451
162	0xbd0ff6b9	-0.035147402
163	0x3e4e9d68	0.20177233
164	0xbd8bf465	-0.06833724
165	0xbddc27f2	-0.107498065
166	0x3d5138f8	0.05107972
167	0xbe365fc0	-0.17809963
168	0xbc8b4dd4	-0.017004885
169	0x3e5803bd	0.21095176
170	0xbe19986d	-0.14999552
171	0x3f6b37db	0.91882104
172	0x3dbbe0a5	0.09173707
173	0x3d06ae6b	0.03288118
174	0x3e3df459	0.18550242
175	0xbd28d196	-0.0412155
176	0xbc8d5e77	-0.017256958
177	0x3cd59e69	0.026076512
178	0x3ef7ed9a	0.48423463
179	0xbd5c5322	-0.05379022
180	0xbe561e96	-0.20910105
181	0xbeb55333	-0.35415038
182	0xbddc47cf	-0.10755884
183	0x3de9efda	0.11422701
184	0x3e067857	0.13131844
185	0xbe6b574c	-0.2298252
186	0xbe85d545	-0.26139274
187	0xbe0b8cf3	-0.13627987
188	0xbd11dc78	-0.035610646
189	0xbd7cdfda	-0.06173692
190	0x3d928e5f	0.071560614
191	0xbcd42e9a	-0.025901128
192	0xbdce524d	-0.100742914
193	0xbd211ba7	-0.039333012
194	0x3ddb7d78	0.10717291
195	0xbab0cc7d	-0.0013488677
196	0xbdee0806	-0.11622624
197	0x3d16fe28	0.036863476
198	0x3e4e44dd	0.20143457
199	0xbe9af0a2	-0.30261713
200	0xbd6fdce8	-0.058560282
201	0xbd533032	-0.051559635
202	0x3de76ad5	0.112996735
203	0x3ae9fd50	0.0017851982
204	0x3e099e01	0.1343918
205	0x3e00a1d1	0.12561728
206	0xbde63cef	-0.11242091
207	0xbdd854cb	-0.10563048
208	0xbd263900	-0.040581703
209	0x3da7d6cb	0.081952654
210	0xbe5a395f	-0.21310948
211	0xbde88ac0	-0.113545895
212	0x3c899958	0.016796753
213	0xbe5d7d87	-0.21629916
214	0xbdbcd1b1	-0.09219683
215	0xbe1ad636	-0.15120777
216	0xbe9c0752	-0.30474335
217	0x3e0d3813	0.13790922
218	0x3f4e6c1e	0.80633724
219	0xbdc2b209	-0.09506614
220	0xbdb2621c	-0.08710119
221	0xbd51c626	-0.05121436
222	0x3dc5a8f7	0.09651368
223	0xbe19d4f7	-0.15022646
224	0xbd38d3a0	-0.045123696
225	0xbe4b83bc	-0.19874471
226	0x3dfb3ae8	0.12267095
227	0xbcbe55c0	-0.023234248
228	0xbc099fd1	-0.00839992
229	0x3d686d21	0.0567447
230	0xbe914a95	-0.28377214
231	0xbe3041ff	-0.17212676
232	0x3de4a32a	0.111639336
233	0xbb475b16	-0.0030419282
234	0xbe670621	-0.22560932
235	0x3e3e7612	0.18599728
236	0x3e8e0806	0.27740496
237	0x3c57ad2b	0.013163845
238	0x3e0c0465	0.13673551
239	0xbdb41538	-0.0879311
240	0xbe9219c2	-0.28535277
241	0xbe222dbb	-0.15837757
242	0xbe90749a	-0.2821396
243	0xbe57bd12	-0.21068218
244	0xbe5e7a27	-0.21726285
245	0x3df47c91	0.11937822
246	0x3efeca1b	0.4976357
247	0x3ddf9784	0.10917571
248	0xbd4fe58e	-0.05075603
249	0xbe4a3eae	-0.19750473
250	0xbe6b6178	-0.229864
251	0x3d36eca5	0.044659276
252	0xbec30ed0	-0.3809724
253	0xbe4b2686	-0.19838914
254	0x3d3002f9	0.042971585
255	0x3db98308	0.09058195

fc2.bias f4 [64]
0	0x3ee68e86	0.45030612
1	0xbd08deb5	-0.033415515
2	0xbeba6aba	-0.3640955
3	0xbeb10283	-0.3457223
4	0x3d24f266	0.04027023
5	0xbeac45a3	-0.3364688
6	0x3f232f16	0.6374372
7	0x3deb3ee9	0.114866085
8	0x3f92c0b7	1.1465062
9	0xbeaf85cd	-0.3428177
10	0xbd8639cf	-0.06553995
11	0x3d5e7744	0.05431296
12	0xbf53063f	-0.82431406
13	0xbf00598f	-0.50136656
14	0xbf0bf304	-0.5466769
15	0xbfb15c8d	-1.3856369
16	0x3fc856de	1.565151
17	0xbf17ed42	-0.593464
18	0x3e841671	0.2579837
19	0x3e51b267	0.20478211
20	0x3eef675a	0.46758538
21	0xbd099dc5	-0.033597726
22	0x3e02f8e5	0.12790258
23	0x3ec0793a	0.3759249
24	0xbee8a1a9	-0.45435837
25	0x3f3dddc2	0.741665
26	0xbf6f0c6b	-0.93378323
27	0x3d67aaf3	0.056559514
28	0xbee43dcf	-0.44578406
29	0x3f488a2f	0.7833585
30	0x3f0052e1	0.50126463
31	0x3e9f4162	0.3110457
32	0x3db0293e	0.08601616
33	0xbed0d387	-0.40786383
34	0xbf743d3c	-0.95405936
35	0xbe64bae6	-0.22336921
36	0x3fc62b12	1.5481894
37	0xbee00bdf	-0.43759057
38	0xbf89a01d	-1.0751988
39	0xbe56854b	-0.20949285
40	0x3d3a2887	0.045448806
41	0x3efa00c2	0.48828703
42	0x3f91ea91	1.1399709
43	0x3ea5cb40	0.3238163
44	0x3dc35b5a	0.09538908
45	0xbe49e09e	-0.19714591
46	0x3e8cd6d7	0.2750766
47	0x3eca9bdc	0.39572036
48	0x3d3d4747	0.046210553
49	0x3eba0335	0.36330572
50	0x3e1cb000	0.15301514
51	0x3e4c6c2c	0.1996314
52	0xbd3734eb	-0.0447282
53	0xbd5b076c	-0.053473875
54	0xbdaafa7d	-0.08348558
55	0x3e73f0e4	0.23822361
56	0x3cc554fe	0.024088379
57	0xbe0f57f7	-0.139984
58	0x3f152ed1	0.5827456
59	0x3f0197f5	0.50622493
60	0x3edcc8dc	0.43121994
61	0xbd9f85a5	-0.077891625
62	0xbedb8858	-0.4287746
63	0x3e964b1a	0.29354173

fc3.weight f4 [32, 64]
0	0x3d83cb52	0.06435265
1	0xbd26b411	-0.04069907
2	0x3c09665f	0.008386224
3	0xbe5d8f4a	-0.21636692
4	0x3eaa3312	0.3324209
5	0xbd04b305	-0.03239729
6	0x3e8b7283	0.27235803
7	0xbe0a09de	-0.13480327
8	0x3e40f268	0.1884247
9	0x3d10a520	0.035313725
10	0x3e3503e8	0.17677271
11	0xbcaf116e	-0.021370616
12	0xbe88e3bb	-0.26736245
13	0x3e5d579f	0.21615456
14	0xbfaded4b	-1.3588041
15	0xbe801257	-0.25013992
16	0x3eca3786	0.39495486
17	0xbe01dfe2	-0.12683061
18	0x3e610370	0.21973968
19	0x3e4ea410	0.20179772
20	0x3b01a25a	0.0019780607
21	0x3eba6d8f	0.36411712
22	0x3e41917b	0.18903153
23	0x3e485fe7	0.19567834
24	0x3cb53b20	0.02212292
25	0x3e6bfbcc	0.23045272
26	0xbcb38eb2	-0.021918628
27	0x3e883e14	0.26609862
28	0xbde2f7d4	-0.11082426
29	0x3f480c24	0.78143525
30	0xbde4ac0c	-0.11165628
31	0x3b03502f	0.0020036807
32	0xbdb3d3fe	-0.08780669
33	0xbb8f4cf6	-0.004373188
34	0xbddfc415	-0.109260716
35	0xbdeac3b0	-0.11463106
36	0x3e3c5b16	0.18394122
37	0xbce15f50	-0.027511269
38	0xbe8cccc2	-0.27499968
39	0x3d46a9e1	0.048501853
40	0x3e064da6	0.13115558
41	0xbe489069	-0.19586338
42	0x3e5f42f3	0.21802883
43	0x3d2eeb53	0.04270489
44	0xbba2528f	-0.0049536894
45	0x3df41283	0.11917593
46	0x3d9e1413	0.077186726
47	0xbdf2c3e3	-0.11853769
48	0x3c403a43	0.011732641
49	0xbe0df0ae	-0.13861343
50	0xbcebadaa	-0.028769333
51	0x3e79ff6b	0.2441384
52	0x3e273a5d	0.16330858
53	0x3dc6d76a	0.09709056
54	0x3d9e5fae	0.07733093
55	0x3e85ea2a	0.26155216
56	0xbdeb3e2b	-0.11486467
57	0x3e8b9091	0.27258733
58	0x3e67be8f	0.22631286
59	0xbe135e5b	-0.14391463
60	0x3d208377	0.039187875
61	0x3ea0b5ee	0.313888
62	0x3ce78062	0.02825946
63	0x3f6598ce	0.89686286
64	0xbf02d810	-0.51110935
65	0x3dc700a0	0.09716916
66	0x3e5a6e0c	0.21331042
67	0x3e231814	0.15927154
68	0x3d828a29	0.06374008
69	0x3d74f931	0.05980796
70	0xba1f138e	-0.00060682825
71	0xbe68fe45	-0.22753246
72	0x3e551a87	0.208109
73	0xbd9d6380	-0.07684994
74	0xbc8ddb2d	-0.017316425
75	0x3cdd95d7	0.027048988
76	0xbdbf2b10	-0.093343854
77	0x3e25d13f	0.16193102
78	0x3b1f1446	0.0024273559
79	0x3e82713c	0.25477016
80	0x3e229834	0.15878373
81	0x3d0669d5	0.032815773
82	0xbd023a53	-0.031793904
83	0x3e0b4de7	0.13603936
84	0x3e0fb98a	0.14035621
85	0x3ea42355	0.32058206
86	0xb6c83c14	-5.9674585e-06
87	0xbc80c62d	-0.015719498
88	0x3e8a1014	0.26965392
89	0x3d2e6fca	0.04258708
90	0xbe03709d	-0.12835927
91	0x3d2f62f3	0.042818975
92	0xbe876a6a	-0.26448375
93	0x3d77c47b	0.060490113
94	0x3d810bb6	0.06301062
95	0xbe3f84bc	-0.18702978
96	0x3e60282a	0.21890321
97	0x3e248cee	0.16069385
98	0x3e4f0ab5	0.20218928
99	0xbd401622	-0.046896107
100	0xbbd047a5	-0.006356197
101	0x3e2931b5	0.16522868
102	0x3e1f7cd7	0.15574966
103	0x3c4c09d7	0.012453518
104	0x3b289b9f	0.0025727523
105	0xbec34d85	-0.3814508
106	0x3c515ea9	0.012778916
107	0xbd8269e3	-0.063678525
108	0xbdbd1f86	-0.09234528
109	0x3da41299	0.0801136
110	0xbc8c031b	-0.017091325
111	0x3c96b2eb	0.018395862
112	0x3e2d7eb5	0.16942866
113	0x3eaf347e	0.34219736
114	0x3c74f5ae	0.014951153
115	0xbe342cac	-0.17595166
116	0xbdc8b232	-0.09799613
117	0xbc87316f	-0.016503064
118	0x3e696fee	0.22796604
119	0x3e4a998a	0.19785133
120	0xbdb23f39	-0.08703465
121	0x3bfbc17d	0.0076829777
122	0x3cd2cec1	0.025733354
123	0xbdee3875	-0.11631862
124	0x3d94149f	0.07230496
125	0x3d466644	0.04843737
126	0xbcdb27ee	-0.026752438
127	0xbc876091	-0.016525539
128	0x3f2652d7	0.64970154
129	0x3d82de5d	0.06390069
130	0x3de51395	0.111853756
131	0x3d1fa9ad	0.038980175
132	0x3da908d0	0.08253634
133	0x3e1c010a	0.15234771
134	0x3cf0dc88	0.029402032
135	0x3e69b9a0	0.22824717
136	0x3c0b5ee8	0.008506514
137	0x3c4857f6	0.012228003
138	0xbe322b3a	-0.17399302
139	0xbd61ac52	-0.055095978
140	0xbe049c2c	-0.129502
141	0x3dd58ae0	0.10426879
142	0x3c15ffe3	0.009155246
143	0x3e20af6d	0.1569192
144	0x3eb31df3	0.34983787
145	0x3cfa7bcb	0.030576607
146	0x3cd6f4dd	0.026239807
147	0x3e1501ce	0.1455147
148	0x3ed620e2	0.41821963
149	0x3e03f1fd	0.1288528
150	0xbd841f5f	-0.06451296
151	0xbe4b0149	-0.19824709
152	0x3c7c4883	0.0153981475
153	0xbe465810	-0.1936953
154	0xbe1a7d33	-0.15086822
155	0x3d76c7f9	0.060249303
156	0xbd915e9e	-0.07098125
157	0x3f265cf9	0.64985615
158	0x3cfd87d9	0.030948566
159	0xbd98ad04	-0.07454875
160	0x3d2c9d1a	0.04214201
161	0xbead5ecb	-0.33861384
162	0x3dadf2fa	0.0849361
163	0x3e9b6831	0.3035293
164	0x3da8cfe8	0.0824278
165	0x3d9b3772	0.07578935
166	0xbddd9f7f	-0.10821437
167	0xbe1a4e36	-0.15068898
168	0xbe96229c	-0.2932328
169	0x3d3709d9	0.044687126
170	0x3cbc32e5	0.022973487
171	0x3d380b8d	0.04493289
172	0xbd8c2009	-0.06842048
173	0xbe5e2bfd	-0.21696468
174	0xbdd65879	-0.104660936
175	0x3e664efc	0.22491068
176	0xbdfeb01f	-0.12435936
177	0x3ea029b2	0.3128181
178	0xbde8e6bb	-0.11372133
179	0x3eacb6ba	0.3373316
180	0xbe5ab237	-0.21357046
181	0x3d2ea6b7	0.04263946
182	0xba4e7ad5	-0.000787658
183	0x3e182234	0.14856797
184	0xbd330bf1	-0.04371256
185	0xbebcde40	-0.36888313
186	0x3c8cbfa5	0.017181227
187	0xbd4b6f66	-0.049666785
188	0x3c0d022f	0.008606478
189	0x3e654e11	0.22393061
190	0xbc9ada77	-0.018903
191	0xbe133e35	-0.14379199
192	0xbda79f27	-0.08184653
193	0x3ce3e556	0.027819317
194	0x3e16d09e	0.14728019
195	0x3e4f5091	0.20245577
196	0xbdb9ff7c	-0.09081933
197	0x3ef03d1c	0.46921623
198	0xbf435eee	-0.76316726
199	0x3d0de33b	0.034640532
200	0xbef936fa	-0.48674756
201	0x3ebb7732	0.36614376
202	0xbd3daab8	-0.04630539
203	0xbe2c5b63	-0.16831736
204	0x3e5bef46	0.21477994
205	0x3ef95530	0.48697805
206	0x3e5032fe	0.20331952
207	0x3e20604a	0.15661731
208	0xbf8b5fd4	-1.088862
209	0x3db0c81a	0.08631916
210	0xbe7b9c33	-0.24571304
211	0x3d97abbb	0.07405802
212	0xbf01c320	-0.5068836
213	0xbf4a2c80	-0.7897415
214	0x3dc19941	0.09453059
215	0xbf8a7e9f	-1.0819892
216	0x3d2c0da3	0.042005192
217	0xbfbb761c	-1.4645419
218	0x3e51df63	0.20495372
219	0xbeb9ea7e	-0.36311716
220	0x3df6dee3	0.12054231
221	0xbef63018	-0.48083568
222	0x3de571a5	0.112033166
223	0x3e036c5a	0.12834302
224	0xbcf1c110	-0.029511005
225	0xbe4b26b3	-0.19838981
226	0x3da7bdfb	0.08190533
227	0x3e5251e9	0.20539059
228	0xbfb27c07	-1.39441
229	0x3cd0cb20	0.025487483
230	0x3e3cc1b2	0.18433264
231	0x3e71fac0	0.2363081
232	0xbde67512	-0.11252798
233	0x3d8c4cda	0.06850596
234	0xbfe01cd1	-1.7508794
235	0xbf35b4b0	-0.7097883
236	0xbbc45cd0	-0.0059925094
237	0xbd8b017a	-0.06787391
238	0x3df405f5	0.11915199
239	0x3d9be0bc	0.07611224
240	0x3ec2f8ee	0.38080543
241	0xbe25601a	-0.16149941
242	0x3daa39ad	0.08311782
243	0x3daf6017	0.085632496
244	0xbcc81e1a	-0.024428416
245	0xbc8b820d	-0.017029786
246	0xbd1589e8	-0.03650847
247	0xbf0348b6	-0.51282823
248	0xbe796395	-0.24354394
249	0xbe60ca6e	-0.21952221
250	0xbf8cbd18	-1.0995207
251	0x3dffc6bd	0.12489078
252	0xbe1974ec	-0.14986008
253	0xbdd87e5d	-0.10570977
254	0xbe652b6a	-0.22379842
255	0xbf11f1db	-0.5700967

fc3.bias f4 [32]
0	0xbe23d66e	-0.15999767
1	0xbec870d4	-0.3914858
2	0xbb76db99	-0.0037667511
3	0xbf159782	-0.5843431
4	0xba210cf6	-0.0006143594
5	0xbd1ff6be	-0.03905367
6	0xbe71e432	-0.23622206
7	0x3d22e624	0.03977026
8	0x3db8ab24	0.090170175
9	0x3f066ca5	0.5250953
10	0x3e4fc9d7	0.2029184
11	0x3e04f509	0.12984098
12	0x3cf7faf7	0.030271037
13	0x3e5ea29b	0.21741717
14	0x3e4ad8ed	0.19809313
15	0x3ebca29f	0.3684282
16	0x3e64ca04	0.22342688
17	0x3f0377e7	0.5135483
18	0xbe576d38	-0.21037757
19	0xbe80473b	-0.25054345
20	0x3e3f28f6	0.18667969
21	0x3ea286a4	0.31743348
22	0x3eaec2ba	0.3413294
23	0x3df63f03	0.12023737
24	0x3ebe1cf9	0.3713148
25	0x3e7300a6	0.23730716
26	0xbe149a7d	-0.14512058
27	0xbd681b4d	-0.05666666
28	0x3eb89441	0.3605061
29	0xbd710261	-0.05884016
30	0x3d57ac03	0.052654278
31	0x3e80cd0a	0.25156432

fc_mu.weight f4 [1, 32]
0	0xbed0227c	-0.4065131
1	0x3e064ceb	0.1311528
2	0x3ebf2c70	0.3733859
3	0x3f6b2fbd	0.9186972
4	0xbeabb5d7	-0.3353717
5	0x3fb1ccb2	1.3890593
6	0xbe4f6d01	-0.20256425
7	0x3e01b091	0.12665011
8	0xbf21916b	-0.63112515
9	0x3ece0370	0.40236998
10	0xbf302226	-0.68802106
11	0x3f0546fd	0.52061445
12	0xbec2a4c1	-0.38016322
13	0xbe59005d	-0.21191545
14	0xbef7787b	-0.48334107
15	0x3e3aed28	0.1825453
16	0x3e28ef27	0.1649748
17	0x3ef96a46	0.48713893
18	0xbf012110	-0.50441074
19	0x3e88e436	0.2673661
20	0xbec8229e	-0.3908891
21	0x3e8e57ad	0.27801266
22	0x3eccd38b	0.40005144
23	0x3e41f63c	0.18941587
24	0xbe9662ce	-0.29372257
25	0x3f9a9b4f	1.2078646
26	0xbf8a52c2	-1.0806506
27	0xbe881a31	-0.26582482
28	0xbed15e56	-0.40892285
29	0x3e9b8278	0.30372977
30	0x3f6902e4	0.91020036
31	0x3fda5e0e	1.7059953

fc_std.weight f4 [1, 32]
0	0xbda03525	-0.078226365
1	0xbd1f223e	-0.038851015
2	0x3dfadb68	0.1224888
3	0xbe2515e4	-0.16121632
4	0xbd8ba7b4	-0.06819096
5	0x3eea5166	0.45765227
6	0x3ded2831	0.115799315
7	0x3ead8160	0.33887768
8	0xbe040010	-0.12890649
9	0xbcc17526	-0.023615431
10	0xbdd2427f	-0.102665894
11	0xbd95df13	-0.07317939
12	0x3dafcaee	0.08583628
13	0xbe40e933	-0.18838958
14	0xbe8be952	-0.27326447
15	0x3b971cb8	0.004611578
16	0xbd8b0588	-0.067881644
17	0x3d048d0d	0.03236108
18	0x3e8d6271	0.27614167
19	0x3dc35002	0.09536745
20	0xba7c3840	-0.0009621419
21	0xbb87a3ab	-0.004139384
22	0x3e7a5cf3	0.2444952
23	0x3d691283	0.05690242
24	0xbe26870e	-0.16262457
25	0xbd4c1a5d	-0.04982983
26	0x3eec13b8	0.46108794
27	0x3be02d3d	0.0068413303
28	0xbe264e65	-0.16240843
29	0x3e07d49e	0.13264701
30	0x3e957b90	0.29195833
31	0x3ea2f115	0.31824556
