myrobot/src/SAC/saved_model/1220_2/sac_actor_1220_2_EP1076.pt (torch, 276064 bytes, 12 tensors)

fc1.weight f4 [200, 4]
00000000: d609 9cbf eb25 2ac0 f666 3bbf 1d47 043d
00000010: 4abf 98be 677a 103f e7dd 78be 2898 82bc
00000020: 0f06 233e be5e 85bf 6bf4 d63d c755 993c
00000030: 82aa 5a3e 9785 92bf a0c1 f93c 93ce 313c
00000040: 3ed9 69bf a317 3ebf f4ca 92bf 686b 8b3b
00000050: 12c3 86bd ebe8 42c0 c97a 453e 73c3 6a3c
00000060: 1575 5ebe 1d10 0ebf 07f3 55bf a188 343d
00000070: 7c0c bf3d cf8b babf 87d9 183e 40fd e3ba
00000080: c87b f43f 74d5 8abf 7716 113e e799 1a3d
00000090: 9709 ef3f 7eb7 193f ffc6 fc3e 9ced c6ba
000000a0: e69e 1abf e67a 00c0 421e cf3c d911 c53c
000000b0: a253 55bf 2fe6 c13e 894c bcbf d50f 443c
000000c0: c637 29bd 8ff0 05bf 22c1 463e ee23 423d
000000d0: ebe8 7b3e a6c9 16bf a916 23c0 90c1 443d
000000e0: f909 e1be a1b6 003e c931 82bf 08f1 79bd
000000f0: 0406 583f 455e 803e 9776 22bf b594 e83c
00000100: 4591 b2bf ed7b 4f3f 4a99 f23c a26a d13c
00000110: ca78 943d b238 003e e8e2 1dc0 a226 7a3c
00000120: 179b 25bd 2703 da3f 717f 20bd 2025 b43c
00000130: 289f 9f3f f0a3 2fc0 de18 54bd fab8 e13c
00000140: 6b16 ddbd 5ac2 57bd c440 50c0 94c6 b73c
00000150: f8b6 6bbf 8588 e03c 0ec2 48c0 1f48 b03c
00000160: b9ee 0240 7624 183e 9ccd 80be 54ef 9d3c
00000170: 060f b83f f08f 38bd b9b4 c4bf ca8f 0a3d
00000180: 962f 9d3f 0c00 ac3e 31aa 533d bd09 21bb
00000190: 82ad a1bf 94af 9abd d1ea 8c3e b29f be3c
000001a0: 749b c3be c646 bfbb 517a 90bf b0d0 eeba
000001b0: 7be9 523f fa70 c03e 9425 17c0 a531 cdbb
000001c0: e250 0dbf 88e4 87be edf7 edbc cde6 fbbd
000001d0: b6ce 813e bb69 8dbf f6c9 eb3e 6196 aebb
000001e0: 67c3 2ac0 45f9 44bf e08a 343d 0172 633c
000001f0: 310d 9f3e 7743 f9be 18ed b83e 126f 893c
00000200: c63c 5e3e 0009 c4bf 39ac f03d 4a32 dcbd
00000210: 5eca 263f 52cf ab3e 989b d43c be95 633a
00000220: d674 b23f 9fca 4bbe 1c59 1ec0 95d4 363c
00000230: e770 af3f bc61 a5be b50e 803d ba53 1cbe
00000240: ab75 77bf 61c0 073f c7f1 dabc 9ea5 9d3c
00000250: 2097 323e c2ea 773f c222 893e aa83 c6bc
00000260: e2c2 efbd 6b01 ca3f a655 e13d 32f3 6ebd
00000270: 086d 133f a65f ed3f 462d 053e 7997 283d
00000280: a219 a9bd 331e 24bf 00b6 18bb 094e adbd
00000290: 5df2 e1be 2e11 2d3f c5d8 963f 23ad e13c
000002a0: b66d 583f 6d3c 813f 2311 29bd a12b a0bc
000002b0: 150a 99bf 69d2 3ec0 4df0 76bf 495d 303d
000002c0: acb3 963d 79fd 24c0 ac18 393e 6ccd 983c
000002d0: 9c2d ccbe 25e8 52be 3e74 38c0 76b2 80bc
000002e0: 486a 7cbf d464 03c0 d5d1 133f d704 773d
000002f0: 662d 863e 3a7e dbbf 1de9 6d3e c89d cdba
00000300: cf22 42bf 3055 b13d ca94 81bf 67df c33a
00000310: 4d74 663f 9eb9 0340 46c1 5c3e a5d4 773b
00000320: 88eb fabe 9267 e03e 26f0 4a3e 8ccd b6ba
00000330: fde9 29bf 1dfe 48bd 6ff8 473e a44d c53c
00000340: 354b 823f b645 2dc0 7c3e 873e 695e a43c
00000350: f2c6 163d c802 09bd 0e2b 37bd 6b66 aebd
00000360: 238f 0abf 2a3a 19bd 9eba 66bf 59af 93bb
00000370: 7653 5cbf 0756 553f 3083 2f3e bb55 1b3b
00000380: ed49 99be c037 0cc0 6a45 7c3d 649a 253b
00000390: 9268 153f 1564 533d dd9b 1bc0 5713 833c
000003a0: d537 ffbf 777f 753e 4746 c2bf 337b d23c
000003b0: f472 5a3e aec6 e53b 2307 4cbf 9bfe 3fbb
000003c0: 496f fabf e455 ea3e a731 d7bc b729 023d
000003d0: 0a16 09bf 36e3 b93e 0a6e 7a3f fa00 e33c
000003e0: e751 9ebf 03f6 c53e b9cd 00c0 2fe3 68bd
000003f0: c19f 083e b6ce 893e 37f2 cc3d 21d2 ac3c
-1.2190502 -2.6585643 -0.7320398 0.03229438 -0.29833442 0.5643677 -0.24303399 -0.015941694
0.1592028 -1.0419538 0.10495838 0.01871766 0.21354106 -1.1447018 0.030487835 0.010852474
-0.9134711 -0.74254817 -1.1468186 0.004254747 -0.065801755 -3.0454662 0.1928512 0.014328825
-0.21724351 -0.55493337 -0.83573955 0.044075612 0.09328553 -1.4573916 0.1492673 -0.00173942
1.9100275 -1.0846391 0.14168726 0.03774443 1.8674802 0.6004561 0.49370572 -0.0015177014
-0.6039871 -2.0075011 0.025282983 0.024056362 -0.8333074 0.3787093 -1.4710857 0.011966665
-0.041312955 -0.5232019 0.19409612 0.047397546 0.2460057 -0.5890144 -2.548258 0.048036158
-0.4395292 0.12569667 -1.0171443 -0.06102088 0.8438418 0.25071922 -0.63462204 0.028391222
-1.3950583 0.8104847 0.02961411 0.025563542 0.07249601 0.12521628 -2.4669743 0.015268
-0.04043111 1.7032212 -0.039184038 0.021990359 1.2470446 -2.744381 -0.051781528 0.027554024
-0.107952915 -0.052675582 -3.253953 0.022433557 -0.92076063 0.027408848 -3.1368442 0.021518765
2.0458205 0.14857659 -0.25156868 0.01927916 1.4379585 -0.045059144 -1.5367652 0.033828534
1.2280147 0.33593786 0.05167598 -0.0024572455 -1.2631075 -0.0755302 0.275229 0.023269508
-0.3820454 -0.0058372943 -1.1287328 -0.0018220153 0.8238751 0.37586194 -2.3616686 -0.0062620216
-0.5520154 -0.26541543 -0.029048884 -0.12299881 0.2535302 -1.1047891 0.4605252 -0.005327985
-2.6681764 -0.76942855 0.044077754 0.013882161 0.31064752 -0.48684284 0.36118388 0.016776595
0.2170287 -1.5315247 0.11751599 -0.107517794 0.6515254 0.3355661 0.0259531 0.0008681676
1.3941905 -0.19901513 -2.4741888 0.011159082 1.370633 -0.32301128 0.06252805 -0.15266314
-0.9666392 0.5302792 -0.026726617 0.019244011 0.17440462 0.96842587 0.2678433 -0.024232704
-0.11707093 1.5781683 0.11002664 -0.058337398 0.57588243 1.8544815 0.13005552 0.04116008
-0.08256842 -0.6410858 -0.002330184 -0.0846215 -0.4413022 0.6760434 1.1784903 0.027548378
0.84542406 1.0096565 -0.04127611 -0.019552054 -1.1956202 -2.9815924 -0.9646042 0.043057714
0.073584884 -2.5779707 0.18075818 0.01865264 -0.39878547 -0.20596369 -2.8820949 -0.015710097
-0.9859967 -2.053029 0.57742053 0.06030735 0.2620651 -1.7147896 0.23233457 -0.0015687281
-0.75834364 0.08658826 -1.0123532 0.0014943898 0.9002121 2.0582042 0.21558103 0.0037815955
-0.4900782 0.43829018 0.19818172 -0.0013946756 -0.6637266 -0.049070466 0.19528364 0.024084873
1.0179201 -2.7073798 0.2641486 0.02006455 0.036810823 -0.033449918 -0.044718795 -0.085156284
-0.5412466 -0.037408985 -0.90128505 -0.004506987 -0.8606485 0.8333439 0.17139888 0.0023702222
-0.29939213 -2.1909027 0.061589636 0.0025269026 0.58362687 0.051609118 -2.4313881 0.016000433
-1.9938914 0.23974405 -1.5177697 0.025693512 0.21332914 0.00701221 -0.7969839 -0.0029296044
-1.9565212 0.45768654 -0.026268793 0.031778064 -0.53549254 0.3630616 0.97824156 0.027710427
-1.2368745 0.38664255 -2.0125563 -0.056857284 0.13342191 0.2691552 0.10007136 0.021096291

fc1.bias f4 [200]
00000000: 6c8f 46bc a0bb 903f 9eba edbe 9cdd 3c3f
00000010: bdb6 eb3f 4beb 0fbf 84dd 06c0 09e8 763f
00000020: edd2 aa3e cae1 8bbf fffb f2be 8c0b 04bf
00000030: 4ae1 dcbf be41 c9bf 83cc f8be 7d85 fe3f
00000040: a3cf 6abf 2188 d6bf 045c 163f e019 0d3f
00000050: 44b0 b4bf bea8 a7bf 27f2 b1bf 0ca9 b8bf
00000060: c133 bc3e 9b6a cabf cc16 903f 01ab 883f
00000070: 8345 903f a923 3b3f 9c0d 30bf 6664 373f
00000080: 40ec 0d3e 8478 573f 756e 323f a3e9 97be
00000090: a996 b83f ba5f 4cbf f6fb 2cbf 1c87 8bbe
000000a0: acef 913f 4102 ccbf e8c4 f2be f03a 33bf
000000b0: a292 55be bd9c 223f 53e3 e23e 4c48 173f
000000c0: 06f7 523f 5ab6 72bf 325f 62bf 3c06 19c0
000000d0: 6217 61bf 6498 ae3f 987b 04c0 e249 d3be
000000e0: ce45 773f 18a7 9abf 53d3 6fbf eb6b cc3f
000000f0: cff6 9abf 74df debf 8b71 a13e c38b ffbf
00000100: 23c2 f2bf 2079 7b3e 9f73 b73d 91ea cdbf
00000110: 3309 4f3f 0064 86bf b0b9 b4bf 8a0f 0340
00000120: 9e86 c6bf ef36 633f 3b65 d3bf 2e51 893f
00000130: 7590 c2bf 6445 213f a304 1e3f 1095 483e
00000140: ab55 30be ee14 d63f 167a b73c a5d3 3bbd
00000150: 77cf a53f 93ff 923d f0bc 4ebf a36f abbf
00000160: 8301 81bf 8dd3 703f edad 293f 2b21 c8bd
00000170: 146f 923f 534c 453f 3943 c1bf dfa5 52bf
00000180: 9bf7 4a3f 1cc6 56be 34e0 b4bf 2b7b ff3d
00000190: 14f8 0a3f 4bfa 24bf 8869 05bf 5b31 f1bf
000001a0: 8b81 68bf 9212 6bbe 8ea2 493f c314 d1bf
000001b0: f157 4a3f 0b51 00bf 1591 06c0 5422 d0be
000001c0: 6210 ccbf 7983 21bf a031 2bbf c726 47bf
000001d0: 8cf0 dfbe 78eb 23bf e2a3 4f3f e947 51be
000001e0: 43fa c33f 43ce b73f e3c4 763f bcff 05bf
000001f0: f39e f33f 0b3b 7a3f 6331 e23f 01d3 023e
00000200: b7eb 81bd f553 31bd b59e 42bf c71b 853d
00000210: 08d8 13bd 1a58 f3bf 1d16 893f c6b1 48bf
00000220: daae 353f 0612 50be 95f5 933e a792 753e
00000230: 2067 df3b 1930 373f 31be 0b3f ebb5 3f3f
00000240: e7c6 98bf dc05 b93f 839b abbf d1e6 7bbf
00000250: 9dcc c9bf a06a ef3e 8db5 4f3e 9611 0b3f
00000260: 45ac 2c3d 4c78 ad3f 5a5e 5dbf 071b 693f
00000270: f543 233f 2fdd d6bf 6dcc 923f 87ea f93e
00000280: c582 64bf c590 583f 49d5 f03e a65a acbf
00000290: 9a45 6abf 6028 4a3f 3b87 c73e b2a9 7bbe
000002a0: 7c93 ebbf fe3d 7b3e 49ff 18bf e442 4dbc
000002b0: 900e 173f 0a4c d0bf 4dd2 953f 1438 0b3e
000002c0: 4e83 85bf 29b5 e6bf 1d4d e3bf 29ec b03f
000002d0: d9d8 0a3f e0dd 513f 7a00 14c0 683e 2b3f
000002e0: 56b3 63bf 8ed2 8b3f 3ac1 a03f 3e7b 1ebf
000002f0: 227f efbc 95d3 c3bf 4134 9bbf a7ae fbbe
00000300: 4766 46bf fb2b 3fbf 45b3 b63f 21ed b7be
00000310: 1676 67bf 52e7 533f 1bd9 a7bf 06d4 143e
-0.012119155 1.1307259 -0.4643144 0.7377565 1.8415142 -0.56218404 -2.1072702 0.9644781
0.3336405 -1.092828 -0.47457883 -0.5158012 -1.7256253 -1.5723188 -0.4859353 1.9884487
-0.9172308 -1.6760293 0.58734155 0.5511761 -1.4116292 -1.3098371 -1.3902024 -1.4426589
0.36758235 -1.5813783 1.1256957 1.0677186 1.1271213 0.7310129 -0.68770766 0.7163757
0.13859653 0.8416827 0.69699794 -0.29670438 1.4420978 -0.7983357 -0.6757196 -0.27251518
1.1401267 -1.5938188 -0.47415853 -0.70011806 -0.20856717 0.63520414 0.4431406 0.5909469
0.8240818 -0.94809496 -0.88426507 -2.3910055 -0.87926304 1.3640256 -2.0700436 -0.41267306
0.9659089 -1.2082243 -0.9368183 1.5970434 -1.210657 -1.7411942 0.3153194 -1.9964527
-1.8965496 0.24557924 0.089576 -1.6087209 0.8087341 -1.0499268 -1.4119167 2.0478234
-1.5509832 0.88755697 -1.6515268 1.0727899 -1.5200335 0.62996507 0.61725825 0.19588113
-0.1722018 1.6725137 0.022397082 -0.045856137 1.2953938 0.07177653 -0.80757046 -1.3393444
-1.0078586 0.940728 0.66281015 -0.09771951 1.1440148 0.77069587 -1.509864 -0.8228435
0.79284066 -0.2097401 -1.4130921 0.12474664 0.5428479 -0.64444417 -0.5211415 -1.8843187
-0.90822667 -0.22956303 0.78763664 -1.6334461 0.7904044 -0.5012366 -2.102605 -0.4065119
-1.59425 -0.63091236 -0.66872597 -0.77793545 -0.4373821 -0.6403117 0.8110944 -0.20437588
1.5310749 1.4359821 0.96394175 -0.52343345 1.9032882 0.9774634 1.7671322 0.12775804
-0.06343787 -0.04329296 -0.7602342 0.06499439 -0.036094695 -1.9011261 1.0709873 -0.7839626
0.7096993 -0.20319375 0.28898302 0.23981725 0.0068177134 0.71557766 0.54587084 0.7488696
-1.19357 1.4454913 -1.3406833 -0.9839907 -1.5765568 0.46761036 0.202841 0.5432371
0.042156477 1.3552337 -0.86472094 0.91056865 0.6377557 -1.678625 1.1468636 0.48811743
-0.8926204 0.845959 0.47037724 -1.3465164 -0.91512454 0.7896786 0.3897036 -0.24576452
-1.8404384 0.24535367 -0.59764534 -0.012528155 0.59006596 -1.6273205 1.1704804 0.13595611
-1.0430696 -1.8024036 -1.7757908 1.382207 0.54237133 0.8197918 -2.312529 0.668921
-0.8894552 1.0923631 1.2558968 -0.619068 -0.029235426 -1.5298945 -1.2125322 -0.49156687
-0.7749981 -0.74676484 1.4273459 -0.35923102 -0.9041456 0.8277484 -1.311313 0.14534006

fc2.weight f4 [200, 200]
00000000: 81c9 d03e c39e 18bd 9442 24bd e85e 7cbe
00000010: ace2 aa3e 264a 71be a9ab 333e d9d4 37be
00000020: c07b e13c 6e7e 4e3c 7585 323d 35b6 9cbb
00000030: 20b7 8b3d 9416 023f 4807 77bd cb69 323d
00000040: 24bd b8bd a705 293f 0644 75b9 6fa7 bb3e
00000050: d9e5 393f 5bb3 f83e 2c20 84bd ace4 9d3e
00000060: fe1e a2bd 9918 dd3c 19aa b13e edf0 953e
00000070: b655 9f3d d5b8 abbd 8de0 53be d22e 2ebe
00000080: 3496 15be 21e1 4cbe 4a92 fc3e 639a f43e
00000090: a3b9 5fbe 4fc3 bd3d e239 023e 75a3 22bc
000000a0: d221 a3be 1b6d 34bd f4f0 f5bc 4720 0a3f
000000b0: d5db b1be bc55 ac3e ff7d 9fbd 9bc4 1ebe
000000c0: 1572 6e3d dc30 953d 63c6 063d 1a33 cd3d
000000d0: 588e 4bbe 231c 8abe f612 353e 9c61 823c
000000e0: d812 adbd 606a 013f 48a9 f13d 5664 553e
000000f0: 15e8 60be 2622 bcbc d61e 8d3e f437 073e
00000100: ee4a 9b3d 264a 49be c907 34bc ee77 293e
00000110: 6f82 d83d 1b59 ac3e fee5 b7bb 4fed 993d
00000120: ac8d 963d d4be bcbd cc20 243f cd56 283f
00000130: a185 393e c437 42be 94a9 abbe f4c2 d0bd
00000140: efcd aabc 22bc e5bd 5c92 583d f11e fe3e
00000150: 745e 3e3e 2b05 61bd 08d7 a1bd 9148 8f3b
00000160: 9b86 f13d 2193 1dbe 5e92 ab3d 2ac9 00bd
00000170: 9c82 93be 8d84 75be cae8 493d f3cc 4dbc
00000180: 1a96 44be 4ce3 2cbe 666e f7bd f885 843e
00000190: 398b 3cbe 1908 b53e 3517 443d 263e 123f
000001a0: 7604 213e 83fe 06be 43e0 b9bd da99 c93e
000001b0: 3d79 45be 0b4a c03b 6eca 0f3e cd2b 553e
000001c0: 1db5 2f3e db02 5f3d 194f 983d 8497 973e
000001d0: d5ef b53d 41bf ef3e 50a2 e2bd 05c0 3dbf
000001e0: df0a 83bd 8599 5bbe 90a6 cb3e df81 763d
000001f0: 7255 89be d21a cabe 351c 14bd c8bd 01bf
00000200: 28bc 2f3e d2a4 a9be 6ad3 4ebd 5f8c b93d
00000210: f106 c03d eafd 323d 12b3 73be 8693 54bd
00000220: 3ad7 73be 27e2 98be 9474 2f3e e655 84bc
00000230: 089b 9c3e e8ba f33d a075 02be d603 973d
00000240: 79f8 46be 8d2b ddbd 3acd e63c 1817 f8bc
00000250: 0241 873e 0577 c63d 10db b73d 45a0 1b3d
00000260: dd30 a43d 18f3 b8bd 82cc e53d 8188 d43e
00000270: 9ef7 2bbe a623 023e 3115 c53e cf91 06be
00000280: fadc 373e 3f70 37be de09 f7bd 78a8 813e
00000290: dca2 68bd 4a79 4dbe e081 ab3d 3749 503d
000002a0: f5cf ad3d 2c78 72bd c5e2 0d3f 97f1 ddbd
000002b0: b077 7fbd 7417 303d 5de2 e5be 616e 0fbe
000002c0: ecd3 eb3c ee75 1e3e 4ddf e43b debc ad3e
000002d0: 9a4a 32bf 22c9 58be db10 5f3e 6afb 26be
000002e0: dc02 073f 95ed ac3d 38d7 06be e335 d1be
000002f0: e4f6 ec3c 7b34 583e dde0 e83c 11d5 903d
00000300: 23aa 753e 4fd4 cfbd 598e ebbd e568 f63d
00000310: 51c8 993d 3e25 4fbe c67a 5bbe a821 8a3c
00000320: 621e 0c3e f17d 563e f91b 393e cfda 0abd
00000330: 48ed 56be a370 5d3e 6b92 c23d 51a7 893d
00000340: 42e4 a23d 41c5 843d 85cf 2fbe d823 b7bd
00000350: 7869 14be f541 9ebe bd5e afbb 1d69 1d3e
00000360: d435 97be 80a1 0c3d dafc e5bd 6d95 a73d
00000370: cf8b e03c 6d64 19be 5dcc babd 84cb b2be
00000380: 2e80 c8bd 6307 173e 9990 c9be 1515 43be
00000390: 0ef9 fb3d 704d 6f3e 0f8c 93bd be83 313e
000003a0: 5756 71bd bc25 ebbb e034 09bd 8523 1abc
000003b0: 8856 61bd 789f 76be 8d93 b5bd 8197 23be
000003c0: 813e 7e3d 7259 b0be 5610 10be 9189 1c3d
000003d0: e694 bc3d 6260 69bc 0d73 37be 8f4d c8bd
000003e0: 7141 ad3e 78d2 10be 1c78 00bf 7217 aebe
000003f0: be73 2b3d c0fd ebbd fe0e 593e 2f0a 683d
0.40778735 -0.037260782 -0.040102556 -0.24645579 0.33376062 -0.23563442 0.17545952 -0.17952289
0.027524829 0.012603385 0.043584306 -0.004782463 0.06822038 0.508157 -0.06030968 0.043557923
-0.09020451 0.6602425 -0.00023390361 0.3665118 0.72616345 0.48574337 -0.06451449 0.30838525
-0.079160675 0.026989268 0.34700087 0.29285374 0.0778002 -0.08384863 -0.20691128 -0.17010048
-0.14608079 -0.20007755 0.4933036 0.47774038 -0.21848159 0.09265768 0.12717393 -0.0099266665
-0.3186174 -0.044049364 -0.030022122 0.539555 -0.3473803 0.3365916 -0.07787704 -0.15504687
0.058214266 0.0728471 0.03290404 0.100195125 -0.19878519 -0.26974592 0.17683014 0.015915684
-0.0845086 0.5055294 0.11799866 0.20839056 -0.21963532 -0.022965502 0.27562588 0.13204938
0.07582651 -0.19657192 -0.010988184 0.16549656 0.10571753 0.33661732 -0.005612134 0.07515966
0.073512405 -0.09216085 0.64112544 0.6575745 0.18117382 -0.18966585 -0.33527815 -0.10193434
-0.02085015 -0.11217524 0.052873954 0.4963298 0.18590719 -0.05493657 -0.07902342 0.0043726643
0.11793252 -0.15388156 0.08377527 -0.031441845 -0.28810585 -0.23976345 0.04929427 -0.012561071
-0.19197884 -0.16883582 -0.12081604 0.2588346 -0.18412484 0.3535774 0.047873694 0.5712608
0.15724358 -0.13183026 -0.09075978 0.39375192 -0.1928453 0.0058682016 0.14042065 0.2081749
0.17158933 0.054446083 0.07436962 0.29607785 0.08883635 0.46825603 -0.11066115 -0.74121124
-0.06398558 -0.21445282 0.39775515 0.06018245 -0.26823002 -0.39473587 -0.036159713 -0.5068021
0.1716162 -0.3313356 -0.05049459 0.09059977 0.09376324 0.043699183 -0.23798779 -0.0518985
-0.23812571 -0.2986004 0.17134315 -0.01615424 0.3058703 0.11900884 -0.12740183 0.073737785
-0.19430722 -0.10799322 0.028174032 -0.03028445 0.26416785 0.0969067 0.0897733 0.03799464
0.080171324 -0.090307415 0.112206474 0.41510394 -0.16793677 0.12708911 0.3849273 -0.13141559
0.1795539 -0.17913912 -0.12062429 0.25323844 -0.05679594 -0.200658 0.08374381 0.050851073
0.0848693 -0.059196636 0.5542415 -0.10837095 -0.062370002 0.042991117 -0.44899264 -0.1400695
0.028787576 0.15474674 0.0069846273 0.33933157 -0.6964508 -0.21170476 0.21783774 -0.16306844
0.5273874 0.08443753 -0.13168037 -0.40861425 0.02892632 0.2111377 0.028427536 0.07071889
0.23990683 -0.101479165 -0.1150176 0.12031726 0.075089104 -0.2022905 -0.21433553 0.016861752
0.13683465 0.2094648 0.18077077 -0.03390008 -0.20988953 0.21624999 0.09500583 0.06721366
0.07953693 0.06482936 -0.17169006 -0.089423835 -0.14493358 -0.30909696 -0.00535187 0.15372129
-0.29533255 0.034333706 -0.11229868 0.081827976 0.027410416 -0.14979716 -0.091210105 -0.34920895
-0.09790073 0.14748912 -0.39368132 -0.19051011 0.12303363 0.23369384 -0.072044484 0.17335412
-0.05892023 -0.007176129 -0.03349769 -0.009407883 -0.055014163 -0.2408427 -0.08866034 -0.15975763
0.062071327 -0.3444324 -0.14068732 0.03821713 0.092080876 -0.014244171 -0.17914982 -0.09780418
0.3383899 -0.14142787 -0.5018327 -0.34002262 0.041858427 -0.11523008 0.21197125 0.056650337

fc2.bias f4 [200]
00000000: 94b5 22bf 230c 343f 6305 3d3e 82e4 16bf
00000010: 553f 473d 8be3 8d3e 3d01 133f c240 10bd
00000020: b1b1 dc3e e806 86be 994b dbbe 3bc1 b8be
00000030: 0505 babe 7f81 e13d 5bbd 413e 0c77 c4be
00000040: a045 4e3f b069 473f b1c7 d8bf 6fd8 97be
00000050: dd8b 94bf 01ed 9bbe c87f 90bf 66ad ffbe
00000060: 43e5 a73e 363b 25bf f837 343f ad28 8dbf
00000070: efa4 85bd 4ae7 b03e 4a06 7c3d c442 8e3e
00000080: 9b53 4cbe fd83 c03e 40dc ec3e 790e ee3e
00000090: 80c1 1e3e ab9f b0bf a07f 753e a024 33be
000000a0: 6290 983e c079 9fbe 6698 903b 71a7 29bf
000000b0: f3cc 203f 0d59 bf3e f66e ecbf eb47 1c3f
000000c0: b760 843e 18f0 3b3f 09af ab3e 37e0 b6be
000000d0: e7fe 1cbf be68 ca3d 19d2 1f3e 53fe 893e
000000e0: 0d04 b9bf f246 c83f ab11 46bf b1d7 e1be
000000f0: 0f81 343e d29d d8bf 0b9e e4bf 6259 1dbe
00000100: be65 8b3e 731a a13e da7f 183f 6af7 e33e
00000110: 69e1 403e 53cb cb3d 2e8b 263e c5fe 953d
00000120: cae7 8c3e 815c 563f 73b3 a7bd 3987 0ebf
00000130: 3ba2 71be fdcc 75bf 2f32 b8be afa3 25be
00000140: 1174 b6bf d632 1cbf 9e40 3cbd 2e4b ebbe
00000150: e53a 29bf 8db3 b63f 1bc1 053f 53eb bebe
00000160: 84f1 77bf acee 183e c3eb 9d3f b477 6d3e
00000170: 027e 86be 6193 38be 0759 653e 6b52 8e3e
00000180: 3068 64be 3bc9 36be 2b27 e53e 6cb2 e23e
00000190: 3fc7 afbe 3fa0 e63e a26b e83e ad7a ef3e
000001a0: d697 c7be 2638 d73e b21b 3abe 52b3 063f
000001b0: dfba babe bfb1 f4bc fb7a 153f db2e 8fbe
000001c0: afdd 3f3e e8c3 10be 3382 9cbf 1c98 16be
000001d0: 68ff 80be e626 d4be f606 143d 5d76 5dbe
000001e0: dd66 433f 7262 79be 4f8f 35be 0666 183f
000001f0: 0ef0 a13e c44c 623f 15e7 cebf b792 543e
00000200: a803 85bd a8b2 193f c5fa d13d 0dfb 00bd
00000210: b627 8d3c 5f61 a1bf 690c 303e 1ff5 8fbe
00000220: f2f4 9dbe ec5f 363f 2dd4 bebd dbf1 37bd
00000230: 502a 4f3f 11f5 b23f 6f42 d53e edaa f6be
00000240: bf31 f4bd bc7c 2fbf 2cfe af3e 40a9 493f
00000250: 9c1f bbbc 7899 9abf f815 b83e 8042 423e
00000260: 716d 51bd f876 473f ac6a a13e e6ee 013f
00000270: 8d51 93be 65d4 293f 2918 143f 59d3 c53e
00000280: ca8b e9be 8262 b33f 5f54 46bd eb26 9f3d
00000290: ac12 9abc 078a 74bf 5ad4 093f 31d6 25be
000002a0: aec8 c33e e9f9 3abf 21c1 e6be 6d8a c1bd
000002b0: 433a a23e 91d3 743f a989 1e3f 18ff 4cbe
000002c0: 674a f73e ff70 783f 55f9 113e 976b 58bf
000002d0: f0bc c7be 217c 683f e6bf 013f 5592 893e
000002e0: 7e5f 4b3c f90c 1a3f cecf eebe 8895 00be
000002f0: 1fda 8abe 8468 913e c6ae 333d d260 023d
00000300: d200 adbe 0020 bb3e 6f9e bd3c 1fed 0d3b
00000310: 012a 94bd aadf a3bf 64a3 cebd 5b56 3fbf
-0.63558316 0.7033102 0.18459086 -0.58942425 0.048644383 0.27712664 0.57423764 -0.035218008
0.43104318 -0.26177144 -0.42831114 -0.36084923 -0.36331955 0.110110275 0.1891989 -0.38372076
0.8057499 0.7789564 -1.6935941 -0.29657313 -1.1605183 -0.30454257 -1.1288996 -0.4993698
0.327921 -0.64543474 0.703979 -1.1028038 -0.06525599 0.3455146 0.061529435 0.27785313
-0.19953768 0.376007 0.46261787 0.46495417 0.15503502 -1.3798727 0.23974466 -0.1749444
0.29797655 -0.31147575 0.0044126986 -0.6627112 0.6281273 0.37372628 -1.8471363 0.6104724
0.25855038 0.7341323 0.3353198 -0.35717937 -0.6132645 0.09883259 0.1560749 0.26951846
-1.4454361 1.5646651 -0.7737071 -0.44109872 0.17627357 -1.6923163 -1.7860731 -0.15366128
0.2722606 0.31465492 0.59570086 0.445247 0.18835987 0.099508904 0.1626403 0.07323984
0.2752059 0.837349 -0.08188524 -0.55675083 -0.23597042 -0.9601591 -0.35975787 -0.16175722
-1.4254171 -0.6101507 -0.04596006 -0.45955795 -0.6610549 1.4273545 0.5224778 -0.37288913
-0.968529 0.14934796 1.2337574 0.23190194 -0.2626801 -0.1802497 0.22397242 0.27797255
-0.2230537 -0.17850201 0.44756445 0.4427675 -0.343317 0.45044133 0.45394617 0.46773282
-0.3898303 0.42035025 -0.18174627 0.5261737 -0.36470696 -0.029869912 0.5839078 -0.27965435
0.1873691 -0.14137232 -1.2227234 -0.14706463 -0.2519486 -0.41435927 0.03613945 -0.21627183
0.7632883 -0.2435396 -0.17730449 0.59530675 0.3162846 0.88398385 -1.6164271 0.20759092
-0.06494838 0.6003823 0.102529086 -0.03148942 0.01723085 -1.260784 0.17192234 -0.281167
-0.3085094 0.71240115 -0.09317813 -0.044908386 0.8092394 1.3981038 0.41652247 -0.4817728
-0.11923551 -0.68549705 0.34373605 0.7877388 -0.022842221 -1.2078085 0.3595426 0.1897068
-0.051129762 0.77915907 0.31526697 0.50755155 -0.28773156 0.66339713 0.57849365 0.38637808
-0.45614463 1.4014437 -0.048420306 0.07771095 -0.018807732 -0.95523113 0.5383965 -0.16194989
0.38239044 -0.7303758 -0.4506922 -0.09450231 0.31685075 0.95635325 0.619288 -0.20019186
0.48298952 0.9704742 0.14255269 -0.8453917 -0.39011335 0.90814406 0.5068344 0.26869455
0.012412904 0.60176045 -0.46642917 -0.12557042 -0.27119538 0.28400052 0.04386785 0.031830616
-0.33789688 0.36547852 0.023146836 0.0021656228 -0.07234574 -1.2802632 -0.10089758 -0.74741143

fc3.weight f4 [100, 200]
00000000: 8cd5 cfbe 18da 5a3d 75c3 193e dc23 9abe
00000010: 504e acbe 2bb0 fcbd 8dc7 37be f717 a83e
00000020: 236c 0bbe ddd9 97be 7f7f 5dbb d284 94bd
00000030: 2059 213e 8afb ffbd 6597 a5be a71f d8be
00000040: 465a 0bbe be67 4abe 2538 60be 77e5 c63d
00000050: 829e b3be 8385 dbbe 13d9 13be 7335 d6be
00000060: 81e9 d93e 5cc0 ee3d fecb 9fbd ea1c 90be
00000070: ddf9 c7bd 773b bcbe 497a 92be 151a d0be
00000080: a9cf c9bc d6e1 ecbe f4e4 fb3d f892 f0be
00000090: 56f8 02bf f548 30be 5b3b cebc 75b0 1a3e
000000a0: 9467 433e 7652 d1be f3cc 1fbb c22b 70be
000000b0: 749a 2abd ea99 cfbe 2104 3fbe 35b7 1dbe
000000c0: fda2 c6bc a737 3fbd c6de 52be a208 b6be
000000d0: e458 79be 0695 a23d 2726 2b3f 83ed 353e
000000e0: 4631 c6bf f3c9 a53c c7fc a83a dc23 0d3d
000000f0: 44c7 80be 1815 7ebe c73b c3bd be9a 0fbf
00000100: 1f5c 05bf c091 8e3e 7e91 09bf 93c2 08bf
00000110: 8f48 f1bd 0839 dbbe 15ac 40bd 70fd 44bd
00000120: 8d21 67bd 27f0 02bf bf08 d1be e270 8abe
00000130: 911d 9cbe b3ac c9be 9d73 2abe aa48 a03d
00000140: a2fc 44be 7fba b13c 5fef 9ebe 32b8 60be
00000150: b9e2 78bd c708 0e3e 41ab 143e 82d1 86be
00000160: eee1 babe 7554 cdbe 6b5a 5fbe 56ba 853e
00000170: bf11 c03d 8507 13bf 447e a2be 26e9 bc3d
00000180: abd0 6c3e f8b5 a1bd 0a53 9abd 54a9 51bd
00000190: c272 a0bd 7aa3 533e 9380 00bf d3f6 efbe
000001a0: e5f0 13bf 96c9 a9be ab32 35bf ae75 50be
000001b0: 4e2b 843e 655b f2be a8d8 a5be ad75 1d3f
000001c0: 8a6e c0be dcb2 933e 6383 1dbf 2756 95be
000001d0: 3431 d7bc a721 78be 9fd0 e93d d6db 1a3f
000001e0: 6d09 24be d983 15be b39f 89be ca6c 02be
000001f0: b341 22bf f13a 34be 3a69 bfbe 8985 b93e
00000200: cfa3 043f 11ae 55be 06d5 a7be 731d edbc
00000210: ef7b 2a3e f954 46be fadc 18be b249 023c
00000220: 29c1 a1be af1b a6be 0a5e e9bd 3643 9cbd
00000230: 087a d4ba f5ec a23e d410 03bf 38c7 9ebe
00000240: 9d27 b8bc 394f cfbe a311 afbe ad48 e0be
00000250: f420 20bf edf7 35be 5338 30bd 7b4e 13bf
00000260: d3bc e43e 144f 33be 4ea4 06be 01c8 763e
00000270: bd11 da3d ce50 c53d b303 66bf 41e2 60be
00000280: 8b84 bfbd 064a 543e 8dbe debe 6744 2ebe
00000290: 8dab 203f 6e5c acbd 8445 d83d dfb1 0fbf
000002a0: e39f ecbe aaa9 b6be 6ee6 cfbe beae d4be
000002b0: 72d7 413d df91 0bbf 46b7 a9bd a760 b03d
000002c0: e60c 463b 20d2 7cbe 2c76 923c 33e7 e9be
000002d0: 299e 31be f3a9 c03d 0a5f 803e 216b 25bc
000002e0: 5119 c03e b13c f13e 18da 4dbe e762 03bf
000002f0: ce2d 16bf a72e 0d3e 5678 413e 6857 44be
00000300: 298d f43e 7940 00be 188b bf3e 788e 80be
00000310: b145 d7bd 59b7 9bbe bb03 cfbe eded 5ebf
00000320: 0f56 6fbd cb91 a03c e98d ef3d 2435 ccbe
00000330: 6b2c 1cbe 875b 7e3d 3a50 aa3e b1db 7e3e
00000340: fc13 2d3e 49cf 923e 9e66 4fbd e692 853e
00000350: d3bb e03d de59 1f3e 7b15 06bf 9f92 583d
00000360: 1c00 1c3d 4b4e ac3d 775d 47be b4f3 1dbe
00000370: d9bb babc 71e2 22be 1623 3abe ddc3 c03e
00000380: 4b00 283d 82f2 19be 0bc0 c4bc af1b 40bd
00000390: cd63 293e 7700 5f3e a10e 683e 4c95 6cba
000003a0: 4151 f33d d90c 2e3e de4b 0ebd 006b 9e3c
000003b0: dfc0 6b3e fdb6 773e 19cb 1f3e 94e2 46be
000003c0: 285b 023d 4db7 e43c dbc8 763e 1dbd d03d
000003d0: b571 3cbe 81b7 aa3d 2468 f73b 022c a8bd
000003e0: f547 72bc b67e 3e3e c348 81bd b058 8c3e
000003f0: 2d1e 75be 8b78 043d 8374 97be 5209 88be
-0.4059261 0.053430647 0.15015967 -0.30105484 -0.33653498 -0.12338289 -0.17947216 0.32830784
-0.1361547 -0.29658404 -0.0033797917 -0.07251896 0.15756655 -0.12499149 -0.32342067 -0.4221165
-0.13608655 -0.19766137 -0.21896417 0.09711736 -0.3508187 -0.428753 -0.14438276 -0.41837654
0.42560962 0.116577834 -0.0780258 -0.2814706 -0.097644545 -0.36764118 -0.2860892 -0.406449
-0.024635153 -0.4626605 0.12299529 -0.46987128 -0.5116018 -0.17215331 -0.025174787 0.15106376
0.1908248 -0.40883225 -0.0024383634 -0.23454192 -0.041651204 -0.40547115 -0.18653919 -0.15401919
-0.02424764 -0.046683934 -0.20592794 -0.3555346 -0.24350315 0.0793858 0.6685509 0.17766385
-1.5483787 0.020237898 0.0012892716 0.034458026 -0.25152028 -0.24812734 -0.09532886 -0.5609549
-0.5209369 0.27845573 -0.5373763 -0.53421897 -0.117814176 -0.4281695 -0.04703911 -0.04809326
-0.05642848 -0.51147693 -0.40826985 -0.27039248 -0.30491307 -0.39389572 -0.16645665 0.078263596
-0.19236997 0.021695374 -0.31042 -0.21945265 -0.060763095 0.13870536 0.14518453 -0.26331717
-0.36500496 -0.40103498 -0.21811835 0.26118726 0.09378385 -0.5743335 -0.31736958 0.09224157
0.23126476 -0.07896036 -0.0753537 -0.051186875 -0.07834388 0.2066783 -0.5019619 -0.46868
-0.5778945 -0.3316161 -0.7078044 -0.20357391 0.2581429 -0.47335353 -0.32391858 0.61507684
-0.37584335 0.28847396 -0.61528605 -0.29167292 -0.026268579 -0.24231587 0.114167444 0.60491693
-0.1601922 -0.14601077 -0.26879653 -0.12736812 -0.633815 -0.1760061 -0.3738497 0.36234692
0.5181245 -0.20867182 -0.3277971 -0.028944707 0.1664884 -0.19368352 -0.14928046 0.007952141
-0.31592682 -0.32442996 -0.1139489 -0.07630007 -0.0016210685 0.3182141 -0.5119755 -0.31011367
-0.022479827 -0.4049013 -0.34193143 -0.43805447 -0.6255028 -0.17770357 -0.043022465 -0.57541627
0.4467531 -0.17510635 -0.13148615 0.24099733 0.106479146 0.09634553 -0.89849395 -0.21961309
-0.093514524 0.20731363 -0.43504754 -0.17018281 0.62761766 -0.08416067 0.10560134 -0.56130785
-0.46215734 -0.35676318 -0.4060549 -0.41539568 0.047324605 -0.54519457 -0.0828691 0.08612185
0.003022009 -0.24689531 0.017878614 -0.45684204 -0.1734549 0.09407415 0.2507251 -0.010096342
0.37519315 0.47116616 -0.20102727 -0.5132279 -0.5866364 0.13787328 0.18893561 -0.19173968
0.47763947 -0.12524594 0.37410808 -0.25108695 -0.105113395 -0.3041332 -0.40432534 -0.87081796
-0.05843168 0.01960077 0.11696989 -0.39884293 -0.15251319 0.062099006 0.33264333 0.24888493
0.16902155 0.2867377 -0.050634973 0.26088637 0.109733246 0.15561625 -0.52376527 0.052874204
0.03808604 0.08413371 -0.19469248 -0.15424997 -0.02279465 -0.15906693 -0.18177447 0.37649432
0.041015904 -0.15033916 -0.024017354 -0.0469014 0.16541977 0.21777521 0.2266183 -0.00090249325
0.11880732 0.16997088 -0.03474032 0.019338131 0.23022793 0.24190898 0.1560482 -0.1942237
0.031825215 0.027919436 0.24100058 0.101923205 -0.18402751 0.08335782 0.0075502563 -0.08211519
-0.014787664 0.18603024 -0.06312706 0.27411413 -0.23937292 0.03234152 -0.2958108 -0.2656961

fc3.bias f4 [100]
00000000: 65c2 923f f14a ec3e 8506 b5be 0115 02bf
00000010: aeb7 753e 08d7 283e 8cce 603e 8233 36bf
00000020: 87f0 09c0 2a46 8abd 8692 f0be a40b df3e
00000030: 0ebe 883d 98fb 243e 3f98 cf3e 7c4f 65bd
00000040: 6f39 433e cc39 253e 59aa 9ebf 0769 b8bd
00000050: 8034 8cbf 90f2 c2bf 8e1a 953e ad1c 9c3d
00000060: dee8 15bf 5f95 dcbc 3aed 19bf fe30 21bf
00000070: 9aab 6d3e 942e 7dbf 155d f73e 8d82 983f
00000080: 3695 28bf 72a3 11bf 593f 013e 2da6 493f
00000090: 2f10 8e3e 0fea 50bd 57a5 3cbf 5c2a d1bc
000000a0: 1dec 95bf 2564 643f c44e 48be 3b86 b7be
000000b0: 8b06 cebe 7350 193f f1b5 473d 3c50 af3e
000000c0: 7cc1 893e c7af 2a3f 7e52 373d 999a 3a3d
000000d0: 9fa9 513e a58f 9fbd 7621 ccbc bc53 a13e
000000e0: 8e5a 84be 4bbf e4bd a5f9 04bc be5f b53e
000000f0: 58bf 28bf f371 26bf 36e4 d2be 9d50 43bf
00000100: 944f 5c3e 14b6 453e c125 22bf af5e 82bd
00000110: 7e6b f0be bbbf 3cbf 9df8 b93d 9c40 e9be
00000120: e0f2 e7be 5ba7 06be 0179 a23e b54a a93e
00000130: f3a5 a83e 6632 6cbd 6acf 2bbc 738b 92bf
00000140: 3119 5ebe 324a 803e 9b51 4f3f 68fa 0b3f
00000150: 1de6 ab3d 5540 ac3f 1554 2cbf 52c2 2a3f
00000160: 7108 af3e b1b1 68be d676 4b3e 5140 7f3e
00000170: 7393 57bf 7ac9 293f 12f2 303f a11e 41bf
00000180: ebdf 05bf eca7 3ebf e16a 9ebf 6de3 c2be
1.1465575 0.46150926 -0.35356537 -0.508133 0.2399585 0.16488278 0.21953791 -0.71172345
-2.1553056 -0.06751664 -0.4698679 0.4356357 0.06676875 0.161116 0.40545842 -0.055984005
0.19064878 0.16135329 -1.2395736 -0.090044074 -1.0953522 -1.5230274 0.29121822 0.07622657
-0.5855845 -0.026926694 -0.60127604 -0.6296538 0.23209992 -0.988992 0.48313203 1.1914841
-0.6585268 -0.5689002 0.12621821 0.7876919 0.27746722 -0.051004466 -0.7368979 -0.025532894
-1.1712681 0.8921531 -0.19561297 -0.35844597 -0.40239367 0.5988838 0.048757497 0.342409
0.2690543 0.66674465 0.044756405 0.045557592 0.20474862 -0.0779107 -0.0249183 0.31509197
-0.25850338 -0.11169299 -0.0081161605 0.35424608 -0.6591697 -0.6501762 -0.41189736 -0.7629488
0.21514732 0.19307739 -0.6333886 -0.06365716 -0.4695701 -0.7373006 0.09080622 -0.45557106
-0.45302486 -0.13149779 0.31732944 0.3306481 0.3293911 -0.05766525 -0.010486463 -1.1448807
-0.21689297 0.25056607 0.80983895 0.54678965 0.083935 1.3457133 -0.673158 0.6670276
0.34186128 -0.22724034 0.19869551 0.24926879 -0.84209365 0.66323054 0.6911937 -0.7543736
-0.52294797 -0.7447498 -1.2376367 -0.38064137

fc4.weight f4 [64, 100]
00000000: feda b0bd eb84 223e c2ff 12bf c38f 21be
00000010: 0f9d 8a3b 4b58 1b3f c062 26be 0fd6 953e
00000020: e8ba acbd e815 873d 77d5 a83e 961f 40be
00000030: 29f9 ca3e 929a 233e 9dd7 03bf 706c 90be
00000040: fddd 22be 8f50 793d 977b 10bf 01d9 963c
00000050: e3ce c7be 8c88 bcbe 488d 20bf 32db 51bd
00000060: 8da4 bd3e 269d 6cbd b9a5 15be 663b cebe
00000070: bf3b e4bc 0957 ca3e 6fde 88be 3814 7cbe
00000080: 80bb be3d d9bc a73e 9c8c a43e 53c0 2ebf
00000090: d140 8fbc b197 e03e e4b2 4bbd d3be abbe
000000a0: 9250 67be 502e 73be 1b98 26be eb0e 243e
000000b0: acc0 bb3c 4242 613c dc49 12bf b172 4d3e
000000c0: af7e 1abd 00ab 043e f465 b2be e2f5 a1be
000000d0: af12 78bd 82c1 35bc b2af 08bb 90d5 f73d
000000e0: d4fc 32be f210 3c3e 31c3 10bf 28bf 1d3e
000000f0: c336 97bd 740f a039 45cc 743e 613a b03e
00000100: 294e efbe d06f d03e 061b bf3e 7276 73be
00000110: 6f12 d83e 0ee8 37be e791 943e a513 003e
00000120: fc26 16be c667 b63e 77e2 1d3d 013a 463d
00000130: baac 82bd 1e8f 233e efe8 743d ee6f 0e3f
00000140: a776 a0bd f2f7 2d3d c4a9 82be 2a72 86be
00000150: dfe7 a33e 64bb ff3e 7028 a33e 8ea0 c0be
00000160: 700f 85be 3528 913e b196 713d ed64 013a
00000170: 6a32 703c 74a4 61be 6047 863e 87a3 6abe
00000180: 8027 9d3e cdc6 d73e 824d 89bd f2a2 633e
00000190: 1447 453e d91d d33e 6095 4c3e f3c5 c83d
000001a0: 2425 2fbd acb3 2fbf 7142 463e 949b aa3c
000001b0: b610 b3bd 2eb2 9b3e cfaf c23e 410f 27bd
000001c0: 2f4f ec3e 5d0b b3be d5b7 abbe 9ff9 acbd
000001d0: d203 05bd 27d8 42be 1561 e5bd 8716 13bf
000001e0: 6f08 65be 7fed 173d 4f5b 943e 136a c1bd
000001f0: cdc6 613e 5e31 8c3e 9eeb d13c 1ee6 00bf
00000200: 2934 923d 38cb d13e b384 87be 8ccc 5cbe
00000210: 2de3 0cbe 5dd3 4f3c 1bad b0be acba 9ebd
00000220: ddef adbb e5f4 853e e526 53bd 0afd 81be
00000230: 8697 03ba 8aa7 1dbe 02fb 4e3e 4691 fe3e
00000240: 91a6 123e 1ef6 373e f3be 153e 31e5 a93d
00000250: dd59 3b3e 2bbf 48bb 5617 83be dfa6 923c
00000260: c97b 733e 82a4 aeba 764e cf3c 0935 30bd
00000270: 35f6 d1bd d9c2 003f 5998 2b3d 30e2 bbbd
00000280: a70a 2f3e 8ea8 f3bd 9c67 433e 948d 7e3e
00000290: db79 d1bd aca1 b6be 8c54 653e ff90 4ebe
000002a0: 9f4f ae3e 2c04 56be 17c6 feba 0f7a 5c3d
000002b0: 7430 753d 8ef0 d03e c2c4 86bd 0fa8 633e
000002c0: 18fe db3e b48c af3e ddcb 1c3e 5f0b 503e
000002d0: 3e44 a03d a65f e5bc d521 6fbe 9890 cf3d
000002e0: 4499 7a3e 30c3 cebc 2fd3 7abb bf76 0ebe
000002f0: 5b5c 0bbd 7490 453c 6ec4 ccbd 0d1d 0b3f
00000300: 7ca9 37be 7abe 71be d03d 923e 0c1d 19be
00000310: 9e1f ac3e fa4c 933e 1497 943b ddc7 febd
00000320: 114f 9e3d 73d0 a1be 30ca edbe c10e b2be
00000330: 029a a23d dc2c e83d ed5f 84be 3e9d 453e
00000340: da33 fbbd d008 01bd 8f94 7ebe bb67 01bf
00000350: 506e 53be 946b 0ebd a77a fc3c 061f fcbd
00000360: bf07 3fbf 04f8 ef3d 30a5 bbbb 9071 10bf
00000370: 10e9 143d cdbe c6bd 3b0f 7ebe 53fc 67bd
00000380: d58d eebe ecba b33d ba54 ffbd 81dc 1dbe
00000390: f61d bb3e 752e adbe 7f8c 0e3e 5500 3dbe
000003a0: 9b8c a5bc 889e 48be f052 c43d f52f bfbe
000003b0: fc5e 0a3e 55ce fabd 0576 5dbf 910d b43d
000003c0: 496f b03c 19b2 8d3d 9d32 d03d 3fef efbe
000003d0: 510c 0a3e 07b0 53bd 17da 293e c50f cc3e
000003e0: e6e5 48bd 584e 82be 7910 6c3d 924e 23bd
000003f0: d627 1ebb 2688 0c3f 30d6 243d a70c 71be
-0.086355194 0.15871017 -0.57421505 -0.15777497 0.0042301486 0.606816 -0.16248608 0.29264876
-0.08434087 0.06595975 0.3297536 -0.18762049 0.3964322 0.15976933 -0.51500875 -0.2820773
-0.15904994 0.060867842 -0.56438583 0.018414022 -0.3902503 -0.36822927 -0.6271558 -0.05123443
0.37039605 -0.057767056 -0.14614 -0.40279692 -0.02786052 0.39519528 -0.26732203 -0.24617088
0.093131065 0.32761267 0.32138526 -0.68262213 -0.017486962 0.4386573 -0.04973115 -0.33544025
-0.22589329 -0.23748136 -0.16268961 0.16021316 0.022919022 0.013748707 -0.5714395 0.20063283
-0.03771847 0.12955856 -0.3484341 -0.31632906 -0.060564693 -0.011093499 -0.0020856676 0.12101281
-0.17479259 0.18365839 -0.5654784 0.15404952 -0.07383492 0.00030529092 0.23906048 0.3441954
-0.4673932 0.40710306 0.37325305 -0.23775652 0.42201564 -0.17959616 0.29017565 0.12507494
-0.14663309 0.35626048 0.03854605 0.04839516 -0.06380601 0.15972564 0.059792455 0.5563954
-0.07835131 0.042472787 -0.25520146 -0.26258975 0.3201284 0.49947655 0.3186679 -0.37622494
-0.2598834 0.28350988 0.0589816 0.00049359986 0.014660457 -0.2203539 0.2622633 -0.22913943
0.306942 0.4214386 -0.067042366 0.22230127 0.19265395 0.4123371 0.19978857 0.09803381
-0.04276003 -0.6863353 0.19361283 0.020826139 -0.08743422 0.30409378 0.38024756 -0.04078603
0.46154162 -0.34969607 -0.3353869 -0.08446049 -0.032474346 -0.19027768 -0.112001576 -0.5745625
-0.22366498 0.03709173 0.28975913 -0.0944406 0.22048493 0.27381414 0.025625046 -0.5035113
0.07138855 0.40975356 -0.2646843 -0.21562403 -0.13758536 0.01268467 -0.3450707 -0.077504486
-0.005308135 0.26163402 -0.051550765 -0.25388366 -0.0005019832 -0.15395942 0.2021294 0.4972021
0.14321353 0.1796498 0.14623623 0.08295668 0.18295999 -0.0030631523 -0.2560374 0.017901836
0.23777689 -0.0013324174 0.025305968 -0.04301933 -0.102520384 0.50297314 0.041893337 -0.09174001
0.17093907 -0.11897384 0.19082493 0.24858695 -0.1022832 -0.3567022 0.22395533 -0.20172499
0.3404512 -0.20900029 -0.0019437697 0.05382734 0.05986066 0.4080853 -0.06580497 0.22232078
0.42967296 0.34287035 0.15312143 0.20316838 0.07825516 -0.02799971 -0.2335275 0.10135001
0.24472529 -0.025239557 -0.0038272848 -0.13912486 -0.034023624 0.012058366 -0.099984035 0.543412
-0.17935747 -0.23607817 0.28562784 -0.14952487 0.33617872 0.28769666 0.0045346115 -0.12440465
0.077299245 -0.31604347 -0.4644332 -0.3477688 0.07939531 0.11336681 -0.25854436 0.19298264
-0.12265749 -0.031502545 -0.24861358 -0.50548905 -0.2064755 -0.034770563 0.030820204 -0.12310605
-0.74621195 0.11717227 -0.005726479 -0.5642328 0.03635508 -0.09704361 -0.24810497 -0.05663712
-0.46592584 0.08775887 -0.12467332 -0.15416147 0.36546296 -0.33824506 0.13920783 -0.18457158
-0.020208647 -0.19591725 0.095861316 -0.37341276 0.13512796 -0.12246386 -0.8650821 0.0879165
0.02153744 0.06918735 0.10165904 -0.46862218 0.13481261 -0.051681545 0.16587101 0.3985578
-0.049047373 -0.25450397 0.057632897 -0.039869852 -0.002413263 0.54895246 0.040243328 -0.23539983

fc4.bias f4 [64]
00000000: d71b 33be fbc9 a5be c8c9 ae3f 293f c83e
00000010: ac84 95bd fe4e 88be 8ccf 2dbf 4d6e dd3e
00000020: e907 433f b97d 393f 9637 683e 77b4 a83e
00000030: fe20 a13e c015 46bf 6f8a f0be 0d8d 7f3f
00000040: 472f 7d3e e72a 3ebd 675f 97be eb76 093f
00000050: e642 89ba 9371 843d 5a31 0e3f 6b3e 803f
00000060: 4bdb 143f 6af8 883f 340b 06be 0536 df3e
00000070: 2501 8ebe 3bee 6e3f 7994 873e d6e9 b63e
00000080: ad2a 563d 7a19 403e 09c0 cc3e 3a9b 793d
00000090: f825 053f abc6 c33d af80 813d f3ff d0be
000000a0: d1f4 823e 7280 e23d 1621 4bbf 6ccf 143f
000000b0: dc0d 013f 3caa 813f 2de5 e33d c91f 68be
000000c0: ef6b 99be 80cf b7be d6d9 5cbf 8895 3c3e
000000d0: 336e b53c f2e1 22bc 6f07 adbe c9ed cf3e
000000e0: 2796 96bf 7adf a23e 2f5a 003e 1dea 11bf
000000f0: cbd8 c03e a259 4f3f 48ba 93bf ce84 03be
-0.17491089 -0.3238066 1.3655329 0.39110687 -0.07300696 -0.26622766 -0.67894816 0.43248215
0.76183945 0.7245746 0.22677454 0.32950184 0.31470484 -0.7737694 -0.46980616 0.998246
0.24725066 -0.046427634 -0.29564974 0.5369708 -0.0010472208 0.06466975 0.55544055 1.0019048
0.58147115 1.070081 -0.13090211 0.435959 -0.27735248 0.9333226 0.26480463 0.35725278
0.052286793 0.18759719 0.3999026 0.06093905 0.5201106 0.09559377 0.063233726 -0.40820274
0.25577405 0.11059655 -0.7934736 0.58129 0.5041177 1.0130076 0.11127696 -0.22668375
-0.2996516 -0.35900497 -0.8626989 0.18416417 0.022147274 -0.009941565 -0.33794734 0.40611103
-1.1764573 0.31811124 0.12534402 -0.56997854 0.376654 0.80996144 -1.1541224 -0.1284363

fc_mu.weight f4 [2, 64]
00000000: e147 26bf 4dcb 983c 467f 2abc b301 45bd
00000010: 318c 173d e08b d1be b575 3cbc 1212 673f
00000020: 32bb 0a3f 5f09 fabe 2cea a7bc ea55 90bd
00000030: 96c7 603d c40e 38bf a87f 53bf f678 0abb
00000040: cd53 1cbd 41ff cc3c 8bed 303c 503d 3c3f
00000050: b114 f43d fc49 02be 59ac 833c d739 ad3e
00000060: de60 a43d a80a 3dbf d845 b43e 9df3 b7bb
00000070: 0861 05bc 525d ac3c e6cf 913d 7941 5a3f
00000080: 3d06 c6be 94f2 0c3c 83bd 8abe 6446 89be
00000090: 4315 783d 6981 76be dab9 633d 7546 1cbf
000000a0: 1a59 33bc e845 babd b155 efbe d8dc 913d
000000b0: 218a 13bc 7c19 b53d ecee 2a3f 2c50 3c3b
000000c0: 9160 4ebe 589d af3d b229 5bbd 9c08 cbbd
000000d0: 72e4 54bd c207 10bf c8b9 0cbf 9710 7a3c
000000e0: afec 943a 432f 92bd 98c1 71bd 7082 fe3d
000000f0: f0bf 80be c50a b83e 0181 433b f411 073f
00000100: 4992 e03e 54db 0ac0 a6d7 873e 6573 163f
00000110: 31ec b23d 2760 1cbe e065 17bd fc00 f33e
00000120: 7e88 953d a471 4fbd e0c9 593e 43d4 3d3e
00000130: 4f7e 8e3e 45c5 34be 6b9d 92be 6561 bd3d
00000140: 6433 c93e a222 ddbd 1fc0 99bd 71c9 673e
00000150: 4a81 acbe b2da bdbc c078 b73c 051b 94bd
00000160: 4bcb 84bd 66b2 cdbe ab28 443f 4a84 283e
00000170: 32b2 2d3c 4b51 bd3d a8e9 62be e090 04be
00000180: 8171 e73d 0e44 b1be 8578 28bd 319d bb3e
00000190: 7cf7 b2bd 69a5 123f 8e80 f1bf 2843 493f
000001a0: 5e34 1abe 00c6 963d 01e4 87bd f503 96be
000001b0: bbb4 1bbf 6775 8dbd 16c7 443e 8124 54bf
000001c0: 572e bdbc c83a 993e 639b 13be 25d0 223f
000001d0: de72 23bf a532 e53e c4cf 97bc 426a b9be
000001e0: 325b 5abd 1825 0ebe 496d f8be 751f d83e
000001f0: 1aab aabe 565a 9dbd 0917 febd 17de ad3e
-0.6495343 0.018651629 -0.010406321 -0.048097324 0.03699893 -0.4092703 -0.011502673 0.9026195
0.5419189 -0.48835275 -0.020497404 -0.07047637 0.05487784 -0.7189753 -0.8261666 -0.0021129227
-0.038165856 0.025024058 0.010798822 0.73531055 0.11918009 -0.12723535 0.016073393 0.3383319
0.080262884 -0.73844385 0.35209537 -0.0056137578 -0.00814081 0.021040592 0.071197316 0.85256153
-0.38676634 0.008602757 -0.2709771 -0.26811516 0.06056715 -0.24072804 0.055597164 -0.6104501
-0.010946536 -0.09095365 -0.46745065 0.07122201 -0.0090051005 0.088427514 0.66770816 0.002873431
-0.20154025 0.08574933 -0.05350656 -0.099137515 -0.051975675 -0.5626184 -0.5497098 0.015262744
0.0011362041 -0.07137921 -0.059022516 0.12427223 -0.25146437 0.35945717 0.002983153 0.5276177
0.43861607 -2.1696367 0.26531714 0.5876983 0.08736456 -0.15271054 -0.03696239 0.4746169
0.073014244 -0.050645486 0.21268415 0.18538003 0.2783074 -0.17653377 -0.28635725 0.09247092
0.3929702 -0.10797621 -0.07507347 0.22635438 -0.3369239 -0.023175571 0.022396445 -0.07231716
-0.064840876 -0.4017517 0.76624554 0.16456714 0.010601567 0.09244021 -0.22159445 -0.1294589
0.11300946 -0.34622234 -0.04113056 0.36643365 -0.0873861 0.57283646 -1.8867357 0.786181
-0.15059039 0.07361984 -0.06635285 -0.29299894 -0.6082265 -0.06907158 0.1921657 -0.828682
-0.023093386 0.2992766 -0.14414744 0.63598853 -0.6384715 0.447652 -0.018531688 -0.3621388
-0.053309627 -0.13881338 -0.48520878 0.422115 -0.33333665 -0.07683246 -0.12406737 0.33958504

fc_mu.bias f4 [2]
00000000: 3887 6dbc 82f2 ad3e
-0.014497571 0.3397408

fc_std.weight f4 [2, 64]
00000000: fc28 5ebe 768c 8d3d 3aee ccba 6729 c93d
00000010: e13c 5b3d bcba adbc 17cb 3c3d 3fd2 c5bc
00000020: 7cb0 ef3e f5d7 9e3e 5b39 49bd 3682 4fbd
00000030: 3e0b 7a3d 7313 f33e d68f b1be 0a74 1e3d
00000040: 9fc5 7ebc 74f8 063c 861e 8ebd d936 0b3f
00000050: 5a53 66be 8b0a 853d b4e0 2f3e 8814 4c3e
00000060: 4986 94bc b6b6 c23e d69d eabd 6afc 513c
00000070: e576 313e 96c2 7c3c 77ea 853c 9d22 8d3e
00000080: 9d40 073f 36c8 24bc 5856 493e a9b0 183e
00000090: d76e 6f3b a25f 143d a230 c2bc 754b 5cbe
000000a0: 5160 97bd d2a2 5e3d 9409 03bf 6552 2cbb
000000b0: 0a05 fabd 65fd b23d bacf c33e 3bf0 c1be
000000c0: b477 64bd 3f1a bc3e abd0 9fbb dff8 253f
000000d0: dc06 a63d 6541 cd3e 4630 893d 1fb7 eebb
000000e0: 4a44 ec3d 2008 9bbe e74d 5abd ecb9 53be
000000f0: 7acb 613d 19b7 fd3d 4aed e93d 859b 3a3e
00000100: e436 69be 6ce1 2c3f 6840 353e f58d 8c3e
00000110: e79f 753d 0e16 efbe 8345 c0bc 8601 c0be
00000120: a869 2cbb 1364 59bc 5b36 5fbc 9a5c f8bc
00000130: 2029 773d 6535 4abd 74b2 b33e 760f b93d
00000140: bea0 5e3e 4ff3 833d 4059 37bd 6437 b3be
00000150: d1d8 c23c db84 88bc ecd0 a93c acd7 67bd
00000160: 8a40 10bd 342b 9d3c ea88 ae3e ae03 8c3d
00000170: 15a1 e73c 222b fe3d ddfb c23d fe8f 193e
00000180: 3089 cd3d dbd8 22bc c29f b2bc ece0 b13e
00000190: 54ad 9ebd 11a2 f23d fad1 293f 23eb debd
000001a0: 09e9 04be e58d ff3c 41db 073c 0034 0e3e
000001b0: c847 8a3e 54ff 04be c142 16bf 6b5e 8bbe
000001c0: e4b4 8cbd 4103 543f 774a 77bc 43f3 27be
000001d0: c7d9 993e 3b3f c9be e85f 96bd 7bd5 24be
000001e0: 55c1 4c3d 694e d7bc 950e 2b3e cd59 1e3e
000001f0: 9c8a a13d 6c42 fabb fd15 2c3c 74cd 813e
-0.21695322 0.069115564 -0.0015634962 0.0982235 0.053524856 -0.021207206 0.04609212 -0.024148105
0.46814334 0.31024137 -0.049126964 -0.05066129 0.061045878 0.47475776 -0.3468005 0.038684882
-0.015550046 0.008237947 -0.06939416 0.54380566 -0.22492734 0.064961515 0.17175561 0.19929707
-0.018130438 0.38030022 -0.11455886 0.012816528 0.17330511 0.015427252 0.016347153 0.2756547
0.5283297 -0.0100575 0.19661844 0.1491114 0.0036534572 0.036224015 -0.02370483 -0.2151316
-0.07391418 0.054354496 -0.5118649 -0.0026294228 -0.122079924 0.087397374 0.3824442 -0.37878594
-0.05577822 0.36738774 -0.00487717 0.6483287 0.08106777 0.40088955 0.066986606 -0.0072850133
0.115364626 -0.30279636 -0.05329695 -0.20676392 0.05512569 0.12388439 0.114222124 0.18223388
-0.22774845 0.67531466 0.1770035 0.27452055 0.059966948 -0.46696514 -0.023470646 -0.37501162
-0.0026308093 -0.013268488 -0.013623799 -0.030317593 0.060341954 -0.049367327 0.35097086 0.09036152
0.21741006 0.06442892 -0.04476285 -0.35003197 0.023785027 -0.016664913 0.020729505 -0.056602165
-0.0352178 0.01918564 0.34088832 0.06836639 0.028275052 0.12410571 0.09520695 0.14996335
0.10035932 -0.009939398 -0.021804694 0.34741914 -0.077479035 0.11847318 0.66336024 -0.108846925
-0.12979521 0.03119559 0.00829202 0.13887024 0.2700789 -0.12988025 -0.5869561 -0.27220473
-0.0687044 0.82817465 -0.015093437 -0.1640139 0.30048963 -0.39306054 -0.073425114 -0.16097061
0.049989063 -0.026282506 0.16704781 0.15463944 0.07887766 -0.0076373126 0.010503289 0.2535206

fc_std.bias f4 [2]
00000000: 2c59 2bc0 da00 ddbf
-2.6773176 -1.7265885
