myrobot/src/not_using/DDPG/save_DDPG_models/1118/DDPG_Critic_EP744.pt (torch, 288061 bytes, 32 tensors)

fc1_state.weight f4 [128, 4]
00000000: 0c96 c13f adf2 1b40 dcb6 2d3f 3791 9a3b
00000010: d4b2 943e 4cc1 dcbf 96c9 c43e d9e7 81bf
00000020: 26c1 8a3f be26 223e 9b46 783f 2420 a5be
00000030: 0d07 adbe 6d04 953f 1767 3ebf a9ba 10bf
00000040: 200d 68bf 5a58 c3be 0c22 c03f a278 dbbe
00000050: c36f 04bf 461c 2040 a637 f23e 9ce7 26bf
00000060: 5a6d 08bd ff2a 0dc0 25fa 963d 74d4 8a3c
00000070: 7f56 7f3f 4b9a 263e 63a8 48be 1c9a b73d
00000080: 44b4 de3f 0dba 073f dfe9 9fbe f1cf 00bf
00000090: bc60 c5bf 3b2b c03e 2510 2c3d 3767 7cbf
000000a0: ec1d 1740 fbba 3b40 a1cb b23e 465b d13d
000000b0: c562 f3bf c902 cbbd 81cb 273f c5bf 41bb
000000c0: f01f 0440 b221 2a3f 8115 863e a082 553e
000000d0: 028e aa3f db91 d6be 5955 72c0 d0c2 c33e
000000e0: 55c7 d43f 39b0 03bf 0fca bcbf 157d 1fbe
000000f0: 081d ab3e 0649 cb3e 5edf 60c0 ba95 5f3e
00000100: 418f 3440 f53f a4be 329b 19c0 f70a c03d
00000110: 2f3a fabf 22df de3c 750a 76bd b727 8bbf
00000120: 1b0d 23c0 5de2 663f 6f50 dc3e 2450 963e
00000130: a68a 0b40 1edf 2440 67de bfbd a71d 3f3f
00000140: 3203 4940 0098 643e 0f2a 7c3f 3bc0 5c3d
00000150: 92ce 5dbf 2f85 343f 2d8f 3abf 89cf 0dbf
00000160: 516f 97bf 7a05 4f3e 7fe2 883f d668 af3d
00000170: 5296 0cbe e8e3 4e3e 430b 7fc0 461d a23d
00000180: 03bc 493f 6e83 4ebe d70f 81c0 3033 023f
00000190: 1698 0c3f 631f 2f3e f104 abbf 710b a2bc
000001a0: 095c a13f 180e 4d3f d77b 853f 873b c0bb
000001b0: 5b4a 2ac0 b030 cabe b3ba 16bc 990a cc3c
000001c0: ada0 4abf 9303 233d f7ec c8bd 344d 973d
000001d0: 39d2 d7bf 921b 8bbf 5995 ad3d 6ff3 c5bd
000001e0: b2db 9d3d 51d0 4bbf 9d8b 1f40 53fb d03e
000001f0: 6432 5bbf 49b9 b3bf bcac 9ebf 16e1 a63e
00000200: 4f26 6dbf a60c bfbe ac49 f33f 45c3 ae3d
00000210: 6f74 a53b 22cc 48bf e8a9 ad3f 5a73 ee3d
00000220: 5422 a9bf 4b53 ebbf 18f7 02c0 6453 083f
00000230: 6b4f a93e 68a9 10bf e8aa 693f 4569 b8be
00000240: 288f 63bf db35 80bf f98c 463f 88d7 babf
00000250: b5a0 babf d2b7 9cbd 758a 363f 98df 6ebe
00000260: 8b18 3ebe 9c66 623d 0e79 1cbd ded3 b6bd
00000270: 1418 a83e 5b84 cf3f 8209 403e 3b15 e7be
00000280: 54b4 9bbf d40d ef3c 20c1 aa3f a283 a5bf
00000290: 9b65 2a3f 6045 913f 5a55 65bf 1e2b 05bf
000002a0: 6fd6 df3f 2729 c9bf 36be 9f3e 7e08 443d
000002b0: 0f1e 91bf f4ee 553f b154 e33f c326 16bc
000002c0: f5ce 113f 9a7e 37be aee0 c1c0 ccf6 c33e
000002d0: 900c 1fbf 4a44 9b3f c70a 3b3f 8bbd ad3d
000002e0: ffb7 b53d 22ab c73b cbf8 833f c4df 19bf
000002f0: 8d2a a13f ae34 dbbf 1cdd 13bf 4ff1 4b3e
00000300: d268 823f d79c b2bd 9b97 e5bf 1eb6 93be
00000310: 683b 2cbf 1d8a ddbe 9739 1740 671b 223d
00000320: 5337 483f a8b1 a93f f5dc aa3e c08e 3bbe
00000330: d227 21c0 dedf 3e3e 2289 4c3e 2610 8e3c
00000340: f7bf 8d3f d6de e43f 988b 1740 0020 36bf
00000350: f315 48bf 01ec 733f 4d4a 9f3d 8324 b0be
00000360: c765 11c0 b3c2 f6bd 5519 c9bf 179b e73c
00000370: b3d4 873e 45b2 14c0 af0a 59bf b615 5e3f
00000380: 6341 6d3f 880d 953c 34dd ca3f ee0e d63c
00000390: 8031 3340 690c 363e 19b5 b3be 2679 a1be
000003a0: 3137 1fbf 80b8 b8be 8152 2f40 a181 043e
000003b0: 7a58 d13d 5e00 f8be 3c91 86c0 6696 353e
000003c0: 0ca2 893e 1419 5e40 0d11 82bd d503 69bb
000003d0: 7cb1 8b3e c7b2 9abf 73af 90c0 3380 113f
000003e0: fd91 913f 99e6 18c0 666a e93e 4b16 0bbe
000003f0: b16c 543f 5991 713a 12e4 1b3f 56a2 0e3f
1.5123916 2.4366868 0.67857146 0.004717018 0.29042685 -1.724649 0.38435048 -1.0148879
1.0840194 0.15835091 0.96982735 -0.32251084 -0.33794442 1.1641976 -0.7437605 -0.5653482
-0.9064503 -0.38153344 1.501039 -0.42865473 -0.51733035 2.5017257 0.4730808 -0.6519716
-0.03330741 -2.2057493 0.0737193 0.016947009 0.9974136 0.16269796 -0.19595484 0.08964941
1.7398763 0.53018266 -0.31233117 -0.50317293 -1.5420146 0.37532982 0.042007584 -0.98594993
2.3612013 2.9332874 0.34920982 0.10222487 -1.9014517 -0.099126406 0.655449 -0.0029563766
2.0644493 0.66457665 0.2618828 0.2085061 1.3324587 -0.41908154 -3.7864592 0.38234568
1.6623331 -0.5144077 -1.4749163 -0.15575059 0.33420587 0.3970415 -3.5136333 0.2183446
2.8212435 -0.32080045 -2.4000974 0.093770914 -1.9549006 0.027206007 -0.060068566 -1.0871495
-2.547675 0.9018915 0.43030116 0.29358017 2.1803374 2.576118 -0.09368592 0.7465462
3.14082 0.22323608 0.98501676 0.053894263 -0.86643326 0.7051572 -0.7287472 -0.553948
-1.1830846 0.20216933 1.0694121 0.08564918 -0.13729218 0.20204127 -3.9850624 0.0791574
0.7880251 -0.20167324 -4.0331836 0.50859356 0.54919565 0.17101817 -1.3360883 -0.019780846
1.2606212 0.8009963 1.0428418 -0.005866471 -2.6607883 -0.3949027 -0.009199786 0.024907397
-0.7915142 0.03979833 -0.098108225 0.07387772 -1.686103 -1.0867789 0.084757514 -0.09665572
0.07707919 -0.7961474 2.4928963 0.40816745 -0.85623765 -1.404092 -1.2396464 0.32593602
-0.9263658 -0.37314337 1.9006858 0.085333385 0.0050492804 -0.7843648 1.3567476 0.11643095
-1.3213601 -1.8384794 -2.0463314 0.53252244 0.33068404 -0.56508493 0.9127641 -0.36017814
-0.88890314 -1.0016435 0.7755886 -1.4597025 -1.4580294 -0.076522484 0.7130502 -0.23327482
-0.1856405 0.055273637 -0.038201384 -0.08927129 0.3283087 1.6212267 0.18753627 -0.45133385
-1.2164407 0.029181398 1.3340187 -1.2930796 0.6656129 1.1349297 -0.8958336 -0.52018917
1.7487315 -1.5715684 0.31199807 0.04785966 -1.1337298 0.8356774 1.7760221 -0.009164515
0.56956416 -0.17919388 -6.0586767 0.3827423 -0.62128544 1.2130215 0.7306332 0.08483418
0.08872985 0.0060933987 1.03103 -0.60107064 1.259111 -1.7125452 -0.5775926 0.1991627
1.0188239 -0.08721321 -1.7936891 -0.28849882 -0.67278147 -0.43269435 2.36289 0.039576914
0.7820942 1.3257341 0.33371702 -0.18316174 -2.5180554 0.18640086 0.19974187 0.017341685
1.1074208 1.7880504 2.3678951 -0.7114258 -0.7815849 0.9528199 0.077778436 -0.34402856
-2.271837 -0.12048855 -1.5710856 0.028272195 0.26529464 -2.3233807 -0.84781927 0.8675188
0.926779 0.018194929 1.5848756 0.026130166 2.7998962 0.17778172 -0.35099104 -0.3153774
-0.6219359 -0.36078262 2.7394106 0.12940075 0.10221954 -0.4843778 -4.205229 0.17733154
0.26881444 3.4702806 -0.063509084 -0.0035555263 0.27283847 -1.2085809 -4.521417 0.5683624
1.1372677 -2.3890746 0.45588988 -0.13582723 0.8297835 0.0009215079 0.6089488 0.55716455

fc1_state.bias f4 [128]
00000000: 76a2 2f3e d62e e3bd e8ac 153e 08f1 bdbc
00000010: eac7 d33e 67a0 50bf 39b4 413f 386d cfbf
00000020: b971 9c3e d61e 18bf ce17 26bf f480 cdbd
00000030: d31e e13d d2cc 103f 875f 8b3f 7f02 c63d
00000040: 1826 babe 9519 fabe 5c0a b8bf 02bd 37bf
00000050: 7a01 6ebf ac7b cf3e 83c1 49bf 57e5 4f3f
00000060: b15b 6a3e 18d3 823e fa9d c53e ac0c 64bf
00000070: 2aaf b8bf 8dd0 b7be 0c5a 7e3e dc4a fcbd
00000080: 84e1 65bf 3031 dabe ca2e 4f3e 3322 783f
00000090: feed 853e 713c d93e 9285 8a3f dbc5 373e
000000a0: af44 163f 35da aebe eb50 5a3f 441a ef3e
000000b0: da76 e63e d344 d8bf da81 5bbf db0c e83e
000000c0: 5265 8d3f a883 a23d e9d9 9a3e 7016 383f
000000d0: 4674 933e 5645 4b3e 69a0 a7bf 7b4f a53e
000000e0: eda1 b2bd f05d 763d a1ab 18bf 04b5 a0be
000000f0: 3140 55be 7a8c 803f 7293 bb3c 8209 b5bf
00000100: 5296 123e cc57 25bf 4c13 85be f6aa 633e
00000110: d0ea 46bd 02da 79bf 933c 6f3f ce27 5d3d
00000120: 2ccb 023f 500e 79bf 1c85 b0bf 53dd 0dbf
00000130: ad33 b53e 5cd4 0b3f 7ce8 b23e e7e8 0f3f
00000140: 9c97 983f 67cf 5a3f ca21 373c 7989 8f3f
00000150: ba03 953e 7aa3 753e 8ed1 35bf b0eb 7ebd
00000160: 7844 8c3f 2eb9 4c3f 37a9 95be d54f fcbd
00000170: 4c73 79bf 520b a33e c1b0 2cbe 487d ccbf
00000180: 7f28 aabe 6b7f 6fbe 287a 2d3e 1148 9fbf
00000190: f034 dcbd 7db8 8b3f 3f0d 28bf 11d0 bb3e
000001a0: 988b 6c3e 072d 8f3e 22e4 b1bf fdcf 9ebe
000001b0: 5e8f 563f 05c9 be3e f559 fe3e d486 e83e
000001c0: a40f 073f da32 2bbf a09c c13e 5dbe 9e3f
000001d0: 7c47 5cbf 0231 67be 4019 3b3f f795 0a3f
000001e0: 2057 adbf 337c 78bf 8566 6e3e b6b7 c6bf
000001f0: af5f 2cbe 1633 7dbf 42f5 ff3e f215 eb3c
0.17151818 -0.110929176 0.1461674 -0.023186222 0.4136346 -0.81494755 0.7566562 -1.6205206
0.30555514 -0.5942205 -0.64880073 -0.100343615 0.109922074 0.5656253 1.0888528 0.09668445
-0.36357188 -0.48847643 -1.4378161 -0.7177278 -0.92971003 0.40524042 -0.788109 0.8120932
0.2288654 0.25551677 0.3859709 -0.89081836 -1.4428456 -0.359013 0.24839038 -0.12318966
-0.89797235 -0.42615652 0.20232692 0.96927184 0.26158136 0.42428926 1.0822012 0.1794657
0.5869855 -0.34150854 0.8527972 0.46699727 0.45012552 -1.6896003 -0.8574501 0.45322308
1.1046546 0.07935268 0.30244377 0.71909237 0.28799647 0.19850668 -1.3095828 0.322872
-0.08722291 0.06014818 -0.59636885 -0.31388104 -0.20825268 1.004287 0.022897456 -1.4143527
0.14315155 -0.6458709 -0.25991285 0.22233185 -0.04856378 -0.9759828 0.93451804 0.05399304
0.51091266 -0.97287464 -1.3790622 -0.5541584 0.35390988 0.5462091 0.34942997 0.56214756
1.1921268 0.8547272 0.0111774895 1.1213828 0.29104406 0.23988143 -0.7102288 -0.062236488
1.0958395 0.7997006 -0.29230663 -0.12319914 -0.97441554 0.31844574 -0.16864301 -1.5975733
-0.3323402 -0.2338845 0.1694113 -1.2443868 -0.107522845 1.0915676 -0.6564521 0.3668218
0.23100126 0.2796404 -1.3897746 -0.31018057 0.8381251 0.3726274 0.49678007 0.45415366
0.5275824 -0.6687447 0.37814808 1.2401844 -0.86046576 -0.22577289 0.73085403 0.5413508
-1.3542213 -0.9706451 0.23281296 -1.5524814 -0.16833375 -0.98906076 0.49991804 0.028696988

bn1_state.weight f4 [128]
00000000: db89 e63f bd77 933f dbd8 3b3f 7ed2 943f
00000010: 73a6 303f 1ffa 923f 3f40 a43f 8887 f73d
00000020: b46d 6a3f c738 803f 309a 8c3f c42a b23f
00000030: 845e c33e 8829 563f 93fe a93f 0cb5 313f
00000040: c5db 843e d496 4b3f e272 fa3e 9c7d 2c3f
00000050: bf0e 953f 3fe9 303f 8026 323f ef27 c13f
00000060: 9024 df3e cb9b 623f 505a 853f 359b 9a3f
00000070: d041 4d3e 6975 bd3f c866 5e3f 6a7e 1c3f
00000080: 166c 693f 759d ed3e 0b8e 103f 4c72 803f
00000090: be55 423f 982d 903f b962 db3f 4987 ad3f
000000a0: bada 643f 38b3 3e3f 063b 993f 0be6 ca3f
000000b0: 8ced 633f 86dd 7d3f e926 673f c410 ed3e
000000c0: 9f70 223f 5632 743f b6d7 963f 332b f23f
000000d0: 1138 873f 1ead 853f 4e5c 193f 528f f53e
000000e0: c01d 5f3f 5488 ee3f ef34 713f 2002 843f
000000f0: 3637 1f40 e59b 663f 4808 f23f 77e8 8d3d
00000100: bc4b 933f bf30 2a3f e335 e23f 6ffc 343f
00000110: 0101 e13f c0a6 083f 74da 103f 2a4a 1b3f
00000120: c865 913f 6841 8d3f a3b6 8d3f 3b09 8b3f
00000130: 5b5f 073f 7ed1 c33f 1b14 213f b3b6 883f
00000140: 5fcc 183f 6dd9 303f 49e3 5d3f 429a 7c3f
00000150: 7550 0740 11a8 dd3f d471 243f ca96 b33f
00000160: 63c6 d03f 715e 8a3f f42c 8b3f 9d62 6f3f
00000170: 49b7 3e3e d47a 3e3f a5f7 663f ab26 673f
00000180: 6277 1440 398f 703f 4e06 933f 7ea0 163f
00000190: aef1 8d3f f30b 533f 65e3 ba3f 0100 5a3f
000001a0: 4750 e03f 4db3 fb3e bc99 e43f e61b 263f
000001b0: 82e8 593f 9235 ee3e d149 123f 564f a23f
000001c0: 1d02 913f dc7f 9c3f b72b a93f 6bbf 593f
000001d0: 0910 843f 3112 8b3f 7147 c43e ef2e c33e
000001e0: 3179 773f 12e7 293f 35a4 bb3f c25c 3e3f
000001f0: eaff 0140 9a6b 2e3f 408c 9f3f b462 8c3f
1.801082 1.1520916 0.7337777 1.1626737 0.6900398 1.1482581 1.2832106 0.120863974
0.91573644 1.0017327 1.0984554 1.3919301 0.38158047 0.8365712 1.3280815 0.6941688
0.2594892 0.7952702 0.48915774 0.67379165 1.1645125 0.69105905 0.69589996 1.5090312
0.43582582 0.8851897 1.0418186 1.2078615 0.20044637 1.4801456 0.8687558 0.6113039
0.9118055 0.46409193 0.5646674 1.0034881 0.7591208 1.1263914 1.7139503 1.3556911
0.8939625 0.74492216 1.1971138 1.5851454 0.8903434 0.9916614 0.9029375 0.46301854
0.63453096 0.95389307 1.178458 1.8919433 1.0563985 1.0443456 0.5990647 0.47960907
0.8715477 1.8635354 0.94221395 1.0313148 2.4877448 0.90081626 1.8908777 0.06929105
1.1507487 0.6648063 1.7672695 0.70697683 1.7578431 0.5337944 0.56583333 0.6066004
1.1359186 1.1035585 1.1071361 1.0862192 0.52879876 1.5298307 0.62921304 1.0680755
0.59686846 0.69081765 0.86674935 0.9867288 2.1142857 1.7316915 0.6423619 1.4030392
1.6310543 1.0810071 1.0873094 0.93509847 0.18624605 0.7440617 0.90221626 0.9029338
2.3197865 0.9396854 1.1486299 0.5883864 1.108938 0.8244011 1.4600645 0.85156256
1.7524499 0.49160233 1.7859416 0.6488632 0.85120404 0.46525246 0.57143885 1.2680461
1.132877 1.222652 1.3216466 0.85057706 1.0317394 1.0864927 0.38335755 0.38121745
0.966693 0.6636821 1.4659487 0.7436029 2.0312448 0.68132937 1.2464676 1.0967622

bn1_state.bias f4 [128]
00000000: 81e6 613e b245 453d 0aff ca3c 7c8d e3bd
00000010: 6ad0 2cbc a146 b5be 598c 953e 9455 b9bf
00000020: 64e1 423e 67ea 87be 0aee 28bf c0f6 9fbe
00000030: 8fbf 75be 09b5 433e 7ae2 2e3f 6adf cb3e
00000040: ebcf 03bf 714e 9fbe e7d4 94bf f44f 39bf
00000050: 578e 68bf 2754 dc3b 4627 81bf 8f80 333f
00000060: d373 c2bd 526b 77bd ebf9 503b df9f ebbe
00000070: 5c54 c6bf 45bf c53d d419 13be 093d 85be
00000080: a251 47bf 6a0a 95be 97dc 493e d452 2e3f
00000090: c163 98bd 7591 7e3e 6cec 1d3f dc66 9abc
000000a0: 190d 473e b814 813d 0eba 5a3f 5c1e e43d
000000b0: 69d6 c93d ed3f adbf 03e3 02bf 9999 d03d
000000c0: d224 5c3f ec8e 47bd 6388 11be b28b be3e
000000d0: 1bed 0b3e 497d 57be d021 a7bf 3c44 9d3e
000000e0: 2f61 01bf 2cb9 e53e db8d 96be e3da 9bbd
000000f0: 270d 00bf 8e61 0e3f d90d b43e 4845 9abf
00000100: 4d27 ef3c 423b 13bf a4b1 b13c 931b 1cbd
00000110: 5545 efbd a9ba 62bf ff8e 193f 1bf3 323e
00000120: 2b55 c63e d234 3dbf 623d 91bf 57ca 8bbe
00000130: 6c1c 533f 0b99 e23d d296 3f3e 4525 ad3e
00000140: 6835 9a3f 7ca9 e53e ae0d 06be 2c63 873f
00000150: d66d a53d 68e8 73ba 994b 38bf 1af5 353e
00000160: 2e3e 1f3f 6a95 6b3f 6acd eb3d 456a 06bf
00000170: 8ea8 0cbf d4e7 163f 0404 b4bd fbe9 93bf
00000180: bebd 1dbc 2c18 cdbe 9c9d 523e 35cb 97bf
00000190: 7080 4e3e 4c4b 333f b507 2bbe 3198 953e
000001a0: e5db 5ebe 86fe da3e a170 66bf 7a52 243e
000001b0: a651 e53e 5e08 80bd 6bc6 4f3f 7582 803e
000001c0: c33f ef3e b22c 85be 60e0 473c 1773 7f3f
000001d0: 64c8 2cbf 2184 c33d 11b9 da3e 4f79 cd3e
000001e0: 0839 82bf da64 97bf 0b05 083e 52e1 aebf
000001f0: bd35 a53d 579b 88bf de4e 053f 8db1 cbbe
0.22060587 0.04816217 0.024779815 -0.111109704 -0.010547737 -0.35405448 0.2920864 -1.4479241
0.19031292 -0.26546022 -0.6598822 -0.31242943 -0.23998855 0.19112028 0.68314326 0.3981889
-0.5148913 -0.31114534 -1.1627473 -0.72387624 -0.90842193 0.006723899 -1.009011 0.7011804
-0.09494748 -0.060405083 0.0031887244 -0.4602041 -1.5494494 0.096556224 -0.14365321 -0.2602313
-0.77858937 -0.29109508 0.19713055 0.68095136 -0.074409015 0.24860175 0.61688876 -0.018847875
0.1943859 0.0630278 0.85440147 0.11138603 0.098553486 -1.3535134 -0.5112764 0.101855464
0.85993683 -0.048720285 -0.14212184 0.37215954 0.13664667 -0.21043886 -1.3057194 0.3071612
-0.50538915 0.44867837 -0.29405102 -0.07610109 -0.5002007 0.55617607 0.35166815 -1.2052393
0.029193545 -0.57512295 0.021691151 -0.038112234 -0.11683146 -0.8856607 0.5998382 0.1747555
0.38736853 -0.7390872 -1.1346858 -0.2730281 0.82465243 0.11064347 0.18709877 0.33817497
1.2047548 0.4485587 -0.13091156 1.057714 0.0807759 -0.00093043456 -0.7199035 0.1776928
0.62204254 0.9202486 0.11513789 -0.52505904 -0.54944694 0.5894749 -0.087898284 -1.155578
-0.009627758 -0.40057504 0.20567936 -1.1858889 0.20166183 0.7003677 -0.16702159 0.29217675
-0.2176357 0.4277231 -0.9001561 0.16047087 0.44788855 -0.06251596 0.81162137 0.2509953
0.46728334 -0.26010662 0.012199491 0.9978499 -0.6749327 0.09546686 0.4271932 0.40131614
-1.0173655 -1.1827652 0.13283174 -1.3662512 0.080668904 -1.0672406 0.52073467 -0.39783898

bn1_state.running_mean f4 [128]
00000000: 0000 0000 0000 0000 0000 0000 0000 0000
00000010: 0000 0000 0000 0000 0000 0000 0000 0000
00000020: 0000 0000 0000 0000 0000 0000 0000 0000
00000030: 0000 0000 0000 0000 0000 0000 0000 0000
00000040: 0000 0000 0000 0000 0000 0000 0000 0000
00000050: 0000 0000 0000 0000 0000 0000 0000 0000
00000060: 0000 0000 0000 0000 0000 0000 0000 0000
00000070: 0000 0000 0000 0000 0000 0000 0000 0000
00000080: 0000 0000 0000 0000 0000 0000 0000 0000
00000090: 0000 0000 0000 0000 0000 0000 0000 0000
000000a0: 0000 0000 0000 0000 0000 0000 0000 0000
000000b0: 0000 0000 0000 0000 0000 0000 0000 0000
000000c0: 0000 0000 0000 0000 0000 0000 0000 0000
000000d0: 0000 0000 0000 0000 0000 0000 0000 0000
000000e0: 0000 0000 0000 0000 0000 0000 0000 0000
000000f0: 0000 0000 0000 0000 0000 0000 0000 0000
00000100: 0000 0000 0000 0000 0000 0000 0000 0000
00000110: 0000 0000 0000 0000 0000 0000 0000 0000
00000120: 0000 0000 0000 0000 0000 0000 0000 0000
00000130: 0000 0000 0000 0000 0000 0000 0000 0000
00000140: 0000 0000 0000 0000 0000 0000 0000 0000
00000150: 0000 0000 0000 0000 0000 0000 0000 0000
00000160: 0000 0000 0000 0000 0000 0000 0000 0000
00000170: 0000 0000 0000 0000 0000 0000 0000 0000
00000180: 0000 0000 0000 0000 0000 0000 0000 0000
00000190: 0000 0000 0000 0000 0000 0000 0000 0000
000001a0: 0000 0000 0000 0000 0000 0000 0000 0000
000001b0: 0000 0000 0000 0000 0000 0000 0000 0000
000001c0: 0000 0000 0000 0000 0000 0000 0000 0000
000001d0: 0000 0000 0000 0000 0000 0000 0000 0000
000001e0: 0000 0000 0000 0000 0000 0000 0000 0000
000001f0: 0000 0000 0000 0000 0000 0000 0000 0000
0.0 0.0 0.0 0.0 0.0 0.0 0.0 0.0
0.0 0.0 0.0 0.0 0.0 0.0 0.0 0.0
0.0 0.0 0.0 0.0 0.0 0.0 0.0 0.0
0.0 0.0 0.0 0.0 0.0 0.0 0.0 0.0
0.0 0.0 0.0 0.0 0.0 0.0 0.0 0.0
0.0 0.0 0.0 0.0 0.0 0.0 0.0 0.0
0.0 0.0 0.0 0.0 0.0 0.0 0.0 0.0
0.0 0.0 0.0 0.0 0.0 0.0 0.0 0.0
0.0 0.0 0.0 0.0 0.0 0.0 0.0 0.0
0.0 0.0 0.0 0.0 0.0 0.0 0.0 0.0
0.0 0.0 0.0 0.0 0.0 0.0 0.0 0.0
0.0 0.0 0.0 0.0 0.0 0.0 0.0 0.0
0.0 0.0 0.0 0.0 0.0 0.0 0.0 0.0
0.0 0.0 0.0 0.0 0.0 0.0 0.0 0.0
0.0 0.0 0.0 0.0 0.0 0.0 0.0 0.0
0.0 0.0 0.0 0.0 0.0 0.0 0.0 0.0

bn1_state.running_var f4 [128]
00000000: 0000 803f 0000 803f 0000 803f 0000 803f
00000010: 0000 803f 0000 803f 0000 803f 0000 803f
00000020: 0000 803f 0000 803f 0000 803f 0000 803f
00000030: 0000 803f 0000 803f 0000 803f 0000 803f
00000040: 0000 803f 0000 803f 0000 803f 0000 803f
00000050: 0000 803f 0000 803f 0000 803f 0000 803f
00000060: 0000 803f 0000 803f 0000 803f 0000 803f
00000070: 0000 803f 0000 803f 0000 803f 0000 803f
00000080: 0000 803f 0000 803f 0000 803f 0000 803f
00000090: 0000 803f 0000 803f 0000 803f 0000 803f
000000a0: 0000 803f 0000 803f 0000 803f 0000 803f
000000b0: 0000 803f 0000 803f 0000 803f 0000 803f
000000c0: 0000 803f 0000 803f 0000 803f 0000 803f
000000d0: 0000 803f 0000 803f 0000 803f 0000 803f
000000e0: 0000 803f 0000 803f 0000 803f 0000 803f
000000f0: 0000 803f 0000 803f 0000 803f 0000 803f
00000100: 0000 803f 0000 803f 0000 803f 0000 803f
00000110: 0000 803f 0000 803f 0000 803f 0000 803f
00000120: 0000 803f 0000 803f 0000 803f 0000 803f
00000130: 0000 803f 0000 803f 0000 803f 0000 803f
00000140: 0000 803f 0000 803f 0000 803f 0000 803f
00000150: 0000 803f 0000 803f 0000 803f 0000 803f
00000160: 0000 803f 0000 803f 0000 803f 0000 803f
00000170: 0000 803f 0000 803f 0000 803f 0000 803f
00000180: 0000 803f 0000 803f 0000 803f 0000 803f
00000190: 0000 803f 0000 803f 0000 803f 0000 803f
000001a0: 0000 803f 0000 803f 0000 803f 0000 803f
000001b0: 0000 803f 0000 803f 0000 803f 0000 803f
000001c0: 0000 803f 0000 803f 0000 803f 0000 803f
000001d0: 0000 803f 0000 803f 0000 803f 0000 803f
000001e0: 0000 803f 0000 803f 0000 803f 0000 803f
000001f0: 0000 803f 0000 803f 0000 803f 0000 803f
1.0 1.0 1.0 1.0 1.0 1.0 1.0 1.0
1.0 1.0 1.0 1.0 1.0 1.0 1.0 1.0
1.0 1.0 1.0 1.0 1.0 1.0 1.0 1.0
1.0 1.0 1.0 1.0 1.0 1.0 1.0 1.0
1.0 1.0 1.0 1.0 1.0 1.0 1.0 1.0
1.0 1.0 1.0 1.0 1.0 1.0 1.0 1.0
1.0 1.0 1.0 1.0 1.0 1.0 1.0 1.0
1.0 1.0 1.0 1.0 1.0 1.0 1.0 1.0
1.0 1.0 1.0 1.0 1.0 1.0 1.0 1.0
1.0 1.0 1.0 1.0 1.0 1.0 1.0 1.0
1.0 1.0 1.0 1.0 1.0 1.0 1.0 1.0
1.0 1.0 1.0 1.0 1.0 1.0 1.0 1.0
1.0 1.0 1.0 1.0 1.0 1.0 1.0 1.0
1.0 1.0 1.0 1.0 1.0 1.0 1.0 1.0
1.0 1.0 1.0 1.0 1.0 1.0 1.0 1.0
1.0 1.0 1.0 1.0 1.0 1.0 1.0 1.0

fc1_action.weight f4 [32, 2]
00000000: 9b35 e7be d415 0740 5b0c 0940 368b 703f
00000010: 4deb c03d ae93 36bf 3fb5 943f 50c2 b13f
00000020: cfe5 1340 d6b9 4d3d 0f41 43c0 cd08 533e
00000030: 9781 75bd 84f6 9ebf 76a0 c73d e3b1 abbf
00000040: a212 9cbf 8d0d f83e 9dc9 f1be 63b8 8dbf
00000050: 1fab f13e c208 b43e b060 4dbe 0a98 82be
00000060: a1da 91bf 3221 01c0 b5c1 69bf 1adc 6d3f
00000070: 3f79 22be 5570 61bf cd85 383f 8fb7 c1bf
00000080: 4c64 0040 478f c83f d11c 8dbf bc02 f2be
00000090: 304e 853f 6fb5 0a3f a0ae 8d3f 14b8 63bf
000000a0: 809a ca3d 0b77 6abf c206 5ac0 b717 ae3c
000000b0: 9eaf 943f e5fc 2f3b 7ae3 b73e 7c6b 9d3f
000000c0: c937 26bf 8879 55bf c030 05c0 f036 e33e
000000d0: 87b3 0540 d617 0440 8d17 d53f 0a7f d5bf
000000e0: 7430 ac3e f80c cf3d a5b6 a3bf 4ee6 7cbf
000000f0: 6584 78bf dcb3 38c0 e599 b13f ceb4 f13f
-0.45158085 2.1107073 2.141379 0.9396242 0.0941988 -0.7131909 1.1617812 1.3887424
2.3109014 0.050226055 -3.0508459 0.20608826 -0.05993804 -1.2418981 0.09747402 -1.3413662
-1.2193186 0.48447838 -0.4722413 -1.1071895 0.47200868 0.35162932 -0.20056415 -0.25506622
-1.1394845 -2.017651 -0.913112 0.92913973 -0.15866564 -0.8806203 0.72079164 -1.5134143
2.0061216 1.5668725 -1.1024419 -0.4726771 1.0414486 0.54183096 1.1068916 -0.88952756
0.0989275 -0.91587895 -3.4066625 0.021251542 1.1616094 0.0026853618 0.35915738 1.2298427
-0.6492887 -0.83388567 -2.0811005 0.4437785 2.0890825 2.0639548 1.6647812 -1.6679394
0.33630717 0.101098955 -1.2790114 -0.9878892 -0.9707702 -2.8859777 1.387509 1.8883302

fc1_action.bias f4 [32]
00000000: 8003 0440 e80d 653f 2d4c be3f e4a6 60bf
00000010: 905f b03f 3b02 bdbe b3a2 f6bf 83ff ddbf
00000020: 9954 93bf 7177 07c0 e657 563f 7f1e 02c0
00000030: 7004 803f 81de bb3f 59d5 dbbf acb7 463f
00000040: 24db 8e3f 5651 f93f 9ca3 2abf a1a8 c13f
00000050: d8bc 03c0 7258 f33f 25b1 7dbf 0def 18bf
00000060: 7078 a63f 0f32 a0bf c202 8fbf 47ca e0be
00000070: c292 e8be 8f16 78bf 4761 3bbc 7179 983f
2.0627136 0.89474344 1.4866997 -0.87754655 1.3779163 -0.36915764 -1.9268402 -1.7343601
-1.1510192 -2.1166651 0.8372787 -2.0331113 1.0001354 1.4677278 -1.7174484 0.7762401
1.1160626 1.9477947 -0.666559 1.5129586 -2.058401 1.9011366 -0.99098426 -0.5973976
1.3005505 -1.2515277 -1.1172717 -0.43904325 -0.45424467 -0.9690942 -0.011436767 1.1912061

bn1_action.weight f4 [32]
00000000: 6197 0040 bfdf b13f 0153 3540 b346 cf3f
00000010: 9d85 ae3f c64c ca3f 846f 0340 8fb1 0240
00000020: 1506 da3f 514d 0f40 4f87 de3f 4838 1640
00000030: 7579 e43f 328e ea3f 600e 1440 b3c4 0140
00000040: ff89 c73f 19f5 ee3f dcb0 b93f 7898 cc3f
00000050: 8267 0e40 d7d8 a63f 5f83 c93f 4c34 ef3f
00000060: 895e d73f 40fc c83f fdb5 be3f b53a fb3f
00000070: 841c c63f 0048 0c40 bf22 5a40 c612 b83f
2.0092394 1.3896407 2.8331912 1.6193451 1.3634526 1.5804679 2.0536814 2.0420873
1.7033106 2.239094 1.7385043 2.3471851 1.7849566 1.8324645 2.3133774 2.0276306
1.5588988 1.8668548 1.4507098 1.598403 2.2250676 1.3034924 1.5743216 1.8687835
1.6825725 1.570198 1.4899288 1.9627291 1.5477452 2.1918945 3.4083707 1.4380729

bn1_action.bias f4 [32]
00000000: d1a5 ae3f db0d 743f 15f5 9b3f 4824 a7be
00000010: a314 a53f 668a 1a3d 074d acbf 9711 aebf
00000020: 2710 fdbe bc27 b9bf 6109 763f e3ba b0bf
00000030: 3646 7e3f 07a8 a33f 458d c4bf def4 2a3f
00000040: 8358 ae3f 4ab2 c93f 295a ccbe 0576 b83f
00000050: 34a0 b4bf 73b6 ba3f 16d2 dbbe 0eb7 aabe
00000060: 4bfd 993f 3d05 11bf 5302 0abf 9858 e9bd
00000070: d703 cbbe a776 02bf e82f 513d 4523 c03f
1.3644353 0.9533364 1.2184168 -0.32644868 1.2896923 0.037729643 -1.3461007 -1.3599118
-0.49426386 -1.4465251 0.9610806 -1.3807033 0.99325883 1.2785653 -1.5355612 0.6677989
1.3620762 1.5757535 -0.39912537 1.4411017 -1.411139 1.4586929 -0.4293372 -0.33342785
1.2030424 -0.5664862 -0.53909796 -0.11393851 -0.39651367 -0.509623 0.051071078 1.5010763

bn1_action.running_mean f4 [32]
00000000: 0000 0000 0000 0000 0000 0000 0000 0000
00000010: 0000 0000 0000 0000 0000 0000 0000 0000
00000020: 0000 0000 0000 0000 0000 0000 0000 0000
00000030: 0000 0000 0000 0000 0000 0000 0000 0000
00000040: 0000 0000 0000 0000 0000 0000 0000 0000
00000050: 0000 0000 0000 0000 0000 0000 0000 0000
00000060: 0000 0000 0000 0000 0000 0000 0000 0000
00000070: 0000 0000 0000 0000 0000 0000 0000 0000
0.0 0.0 0.0 0.0 0.0 0.0 0.0 0.0
0.0 0.0 0.0 0.0 0.0 0.0 0.0 0.0
0.0 0.0 0.0 0.0 0.0 0.0 0.0 0.0
0.0 0.0 0.0 0.0 0.0 0.0 0.0 0.0

bn1_action.running_var f4 [32]
00000000: 0000 803f 0000 803f 0000 803f 0000 803f
00000010: 0000 803f 0000 803f 0000 803f 0000 803f
00000020: 0000 803f 0000 803f 0000 803f 0000 803f
00000030: 0000 803f 0000 803f 0000 803f 0000 803f
00000040: 0000 803f 0000 803f 0000 803f 0000 803f
00000050: 0000 803f 0000 803f 0000 803f 0000 803f
00000060: 0000 803f 0000 803f 0000 803f 0000 803f
00000070: 0000 803f 0000 803f 0000 803f 0000 803f
1.0 1.0 1.0 1.0 1.0 1.0 1.0 1.0
1.0 1.0 1.0 1.0 1.0 1.0 1.0 1.0
1.0 1.0 1.0 1.0 1.0 1.0 1.0 1.0
1.0 1.0 1.0 1.0 1.0 1.0 1.0 1.0

fc2.weight f4 [200, 160]
00000000: aef4 3bbf 7394 eeba 1a2e 0d3e 58d0 dbbb
00000010: b2dd 86bc 675a b9be ed84 863e c277 1f3d
00000020: f9d3 493e b008 83bd 31b6 96be 4493 ab3d
00000030: 9bc7 aabc 10c5 9cbd 66fe 463e 12f0 b9bc
00000040: 04e6 68bd 0bf2 dcbd 123c 083e 559f 7dbe
00000050: 48d7 87bd 0b6d 8bbd f795 8fbb b140 86bd
00000060: 624b 4abd aa08 3f3e 809f 13be bab3 4fbd
00000070: 8368 013e 2377 833e 7c6d ca3d aac2 8d3d
00000080: 5217 6f3e ff16 25be dab7 f5b7 835a 66be
00000090: e39b 21bd f4e2 1cbe fa22 393d 6c09 8bbe
000000a0: b92e 6e3c c249 a23d 8e77 df3e 7643 723c
000000b0: 2fa2 a43d 0272 debe 139d 103d 1dea ad3b
000000c0: 36b7 973b c554 fc3d 0bd4 03be 7c78 aebd
000000d0: c54c a7bd 0d8b 5bbd 5c76 e33d 7665 3e3d
000000e0: 62c2 a53d a143 96bd bf4d 433e 51bc aabb
000000f0: a34c 3ac0 19a2 cd3d 0c9e 043f 96a2 07be
00000100: c315 013e 60f6 33bc 4267 49bc d360 193c
00000110: 53d9 193e 95e5 9b3e c9ef 2c3d 1b6d 6dbe
00000120: b6cf 4abd 32eb bcbc 8c60 37be a271 e03d
00000130: 61ec 3abd eef3 0abf c300 37bd 90dc 9fbe
00000140: 0e63 cb3e 3ab6 303d 91ce 123d 8857 3a3e
00000150: 870b 803e 2cf8 0a3f 8977 4c3d d49c e3bc
00000160: 5b3e af3d a7e0 1c3e 302f 95bd 3089 2a3e
00000170: 7113 8e3d b1a4 0ebe 7aa0 a3bd c49d bdbd
00000180: c496 04c0 eca8 403d 7c27 85bd b940 6abb
00000190: 7194 a8bc e2b3 5d3e db14 84bd a3c2 b23d
000001a0: 7ecd 24bf e26d f73d 6081 cdbe a9b2 a83c
000001b0: 3415 20be 43d7 453d 1d95 37bd ce85 663e
000001c0: 4f09 eb3c a82c 80bd 9e52 743e 8d63 89bd
000001d0: c7c7 3e3d 341e 213e de64 15be fc3f 223e
000001e0: 6dc7 7c3b eb5f 87be 6207 903e 146c 5ebb
000001f0: 7a78 813f 5ffe 6d3d 7b31 e73d 9ac9 1ebe
00000200: fbec c8bc a262 943d 9781 643e 1b97 a4be
00000210: c401 d13d 3089 f03c 08d1 50be fe27 c0bc
00000220: d9cc a8be 3459 1bbe e748 f03d 1c9c 82bd
00000230: 3cc4 4b3e 621d 06be cedd 0f3d 4efc 9f3e
00000240: 80f5 c8ba 9b11 60bd 6259 febd 0e1b d33d
00000250: 58a8 aabe 0c06 79bc 3a8b 21bd 37f4 c3bc
00000260: cf27 413e 9273 333c 3976 283d 0c3c ca3d
00000270: f890 15bf 503b 033f 4aaf 7e3e cf36 c23d
00000280: 7e23 78bd 992d 983d 34a0 803d ac5a 05be
00000290: 6656 143d 775f 883e 4356 41be 3f68 9fbe
000002a0: 5f51 153d 687c 983d 6459 a83d 1da1 38be
000002b0: 061a 23bd e1d9 a5bd 1380 85bd 09d6 1b3c
000002c0: 5f7a 933d 6670 ddbc 9b5e 3c3d c33d fb3d
000002d0: 4140 a1bc 61b7 b0bd 6408 ed3d 1d05 1c3d
000002e0: 17c4 6a3d 866a 6cbc 0b98 073e caae 39be
000002f0: d7cd f0bd f3bc d2bc 7a3b 033e 703d 02be
00000300: 5606 09be 17d3 11bc b44d b03d 3c35 973c
00000310: c0a9 38be 33c1 8cbd a7e4 a13c 16e7 1cbd
00000320: 7be3 ffbc 43cc 95bd 25ac 19be 0e8b 153e
00000330: 0ffa 31bc ca4c a8bc ed74 d5bb 2249 fd3c
00000340: 6be0 9a3d db82 5c3d 289c 153d dc60 903e
00000350: 232a fc3d a974 a8bd 1487 20be 0bd5 0b3d
00000360: a7a3 a0bc 2b0f 16bc f687 9dbb 09ad 85bd
00000370: 9351 a2bd 9b83 ddbd 887e 02be ae1f 633d
00000380: 9b63 053e e09f 133c 6461 0fbe da41 163e
00000390: 0181 c8bc ae50 27be 0798 ab3d fbe2 a63d
000003a0: aba1 0dbe b1a9 8fbe 63ee da3c b18e 60bc
000003b0: 68d2 d1bc 3bf1 303e 8d61 d33c 4c5f 153c
000003c0: fd43 70be 417d f83c 75ad 043e fd0d 5dbc
000003d0: 61b6 d33c 2825 74be 5f04 e83d 6463 443d
000003e0: c4e3 ac3e cd63 253c 1fd1 843d 89fc 353d
000003f0: 9839 efbd 79d7 583d 1123 443d 5fb4 f1bd
-0.73420227 -0.00182022 0.13787118 -0.006708186 -0.016463134 -0.36201784 0.2627329 0.03893257
0.19709767 -0.063981414 -0.29435876 0.08377698 -0.020847132 -0.07654774 0.19432983 -0.022697482
-0.056859985 -0.107883535 0.13304165 -0.24767812 -0.066328585 -0.06807908 -0.004381891 -0.06555308
-0.049388297 0.18655649 -0.14416313 -0.05070851 0.12637524 0.25676832 0.09884164 0.06921895
0.2334874 -0.16122054 -2.9291888e-05 -0.22495465 -0.039455306 -0.15320951 0.045199372 -0.27155626
0.014537507 0.079242244 0.436459 0.014786592 0.080387466 -0.43446356 0.035306048 0.0053074495
0.0046299947 0.12320856 -0.12873857 -0.08519074 -0.081689395 -0.053599406 0.1110656 0.04648348
0.08093716 -0.07337118 0.19072627 -0.0052104373 -2.9109275 0.10040683 0.5180366 -0.13245615
0.12605958 -0.010984033 -0.012292685 0.009361464 0.15024309 0.30448595 0.042220864 -0.23186152
-0.049514495 -0.023061369 -0.17907923 0.10959174 -0.045635585 -0.5427846 -0.04467846 -0.31222963
0.3972401 0.043142535 0.03584153 0.18197453 0.25008795 0.5428493 0.049918685 -0.027784742
0.08556815 0.15320073 -0.07284391 0.16653895 0.06937302 -0.13930012 -0.07989593 -0.09258607
-2.071702 0.047036096 -0.06501672 -0.0035744144 -0.020578595 0.21650651 -0.0644929 0.0872853
-0.64376056 0.12081505 -0.40137768 0.020593004 -0.15633088 0.048300993 -0.04481994 0.2251198
0.028690962 -0.062585175 0.23859641 -0.06708441 0.04657724 0.15734178 -0.14589259 0.1584472
0.0038571015 -0.26440367 0.28130633 -0.0033938931 1.0114892 0.058103915 0.112887345 -0.15506592
-0.024527064 0.07245375 0.2231506 -0.32146534 0.10205415 0.029362291 -0.20392239 -0.02345657
-0.32968786 -0.15170747 0.11732655 -0.06377432 0.19899076 -0.13097146 0.03512364 0.3124718
-0.0015331954 -0.05470429 -0.12419392 0.10307895 -0.3333156 -0.015199196 -0.039439417 -0.023920162
0.18862842 0.010952847 0.04112837 0.09874734 -0.5842433 0.5126238 0.24871555 0.0948311
-0.060580723 0.07430572 0.06280556 -0.1302287 0.03621521 0.26635334 -0.18880562 -0.3113422
0.036454555 0.074456036 0.08220175 -0.1803021 -0.03981974 -0.08098198 -0.06518569 0.009511479
0.07201075 -0.027031135 0.04598866 0.122676395 -0.019683959 -0.08628727 0.11573866 0.038090814
0.057315912 -0.014429694 0.13241594 -0.18133083 -0.11758011 -0.025724864 0.12815657 -0.12718749
-0.13381323 -0.008900425 0.08608571 0.018458001 -0.18033504 -0.06872787 0.01976235 -0.03830632
-0.0312364 -0.073143505 -0.15007074 0.14603826 -0.010862841 -0.020544428 -0.006514183 0.030918662
0.075623356 0.05383573 0.036525875 0.28198898 0.123127244 -0.08225376 -0.15676528 0.03413872
-0.019609286 -0.00915889 -0.0048074676 -0.065271445 -0.07925715 -0.108161174 -0.1274358 0.055450134
0.13026278 0.009010285 -0.14001995 0.14673558 -0.024475576 -0.1633937 0.08378606 0.08148762
-0.13831203 -0.28059152 0.026725 -0.013705895 -0.025613025 0.17279522 0.025803352 0.009116959
-0.23463435 0.030333163 0.12956794 -0.013492105 0.025843801 -0.23842299 0.11328959 0.04794635
0.3376752 0.010094595 0.06485199 0.04443029 -0.11680907 0.052939866 0.047885004 -0.11801981

fc2.bias f4 [200]
00000000: c2eb c13d 02bd bc3f b3c5 a2bf da68 673e
00000010: 8216 813e 2c5e a2bd 12ad d53e f082 55be
00000020: bc10 bcbe 8b8d 1d3f fd12 d13e 71b6 07be
00000030: 9ddd c9be e5da d93a 58a7 093e f59a 68bf
00000040: 8347 c83d bdbb 973e dab9 98bb a2ec b3be
00000050: ea26 e1bd a322 a73d 0d31 013f f03c c33f
00000060: 0df5 263e affe 4c3e c4a8 97be 08ad 7dbe
00000070: 02e8 c73e 0f25 093f fbfb 1abd 3c1b 2fbf
00000080: 5657 f83c ad92 223c 2832 853e e052 633d
00000090: c517 693f 13e8 e33e 906c bc3e 66ae 90bf
000000a0: 08e7 46bf ae3a b6bd 0088 6c3f 102c ff3b
000000b0: 4187 163e b947 383e e16e c63e 5c5a d1be
000000c0: 3cf8 4c3e d571 c03d 81d6 7b3e 2270 96be
000000d0: ac7f 1b3e 9373 04bd 2e8c 5dbe 7aa1 8abd
000000e0: f3b5 893f 4faa 8ebd 3b58 95bf 155b 5e3d
000000f0: b052 aabd b039 c4be 2676 bebc 61e5 91be
00000100: 38d6 0cbf 9064 d53d edf1 c03e e3fd 0a3d
00000110: 0765 513f d8d7 293e c181 2d3f b921 6dbf
00000120: 104f 913c 881d 203c 6ac1 6b3f 2513 c5bc
00000130: fc38 ebbd c53d 6bbe c469 e3bd fe73 9abe
00000140: 3aa8 203f 9303 733e 0fc9 75bf 9db0 303c
00000150: d334 2bbf a726 65bf 036b 35bf f7ee 80bf
00000160: 899c d4bd 48c5 0dbf d0ad 083e e8ff a3bf
00000170: 1c09 913e 1f4f dcbe 3ef5 b9be fc7e b2bf
00000180: 09ea 88bf cb31 833f df7c d73e a7a3 06bf
00000190: 165e 99be c0ba 1d3e 382b 25be 4a64 203f
000001a0: d3b0 4f3e bd12 ebbe 3478 a8bd 4d7d 2ebf
000001b0: bd3e a0bd 5853 16bf a842 773e edef 43be
000001c0: cce4 a6be 02cb 49be c333 71be 4bbf efbe
000001d0: 37a8 c73d 1691 fdbd 22bd 013f c9db 313e
000001e0: bce5 fdbd a616 dbbd f0c6 85bd 62d1 bc3f
000001f0: cdf1 1e3e bf21 19bf e56d 023e e8c0 093e
00000200: 1715 003f c978 ae3d 2354 a43e fd0e 14bf
00000210: 0fa6 43bf 6f90 afbe 72f7 bb3e 0509 a6bf
00000220: a404 833d 5dd3 c5bd 4b81 1c3e 71d2 143f
00000230: da22 9bbd f6cb 863e 5538 983f 6d73 4bbf
00000240: 30a3 a0be b1cb 6dbf 4c98 32bc 6000 0e3e
00000250: 5d43 43be fdef dc3e 34e3 b5bd 7d38 38bf
00000260: f08e 043d 6e96 dd3e 214e 11bf 9e23 873f
00000270: c949 253f 4d82 443f 95c4 d4bd 3310 443e
00000280: 718e 55be a8f3 b53f dec8 93bc 6812 a1be
00000290: 8bfb 9a3e 1db5 c7be ff2a 723e bd23 19bc
000002a0: 070c 86be e1cc ef3e ef27 833e 5cd4 87be
000002b0: 7c6b f63d 08e4 0cbf d122 a33a 74d3 b1be
000002c0: 12b0 8a3e 0c43 6f3e 0b89 ee3e ec09 1f3f
000002d0: 3d82 293e 282a 9abe 613b ab3e 48b6 e33d
000002e0: 925e 393f 693d 82bd e432 e33e 5cfc c03d
000002f0: f1e6 603e a2c7 5d3f f317 ad3c 205e 58bd
00000300: 41d9 813e d8ae c5bf d2db 963e ecfc 40be
00000310: e77b 253e 2d88 1cbe 0cfa f03d 6e29 5cbf
0.09468795 1.4745181 -1.2716583 0.22598591 0.25212485 -0.07928118 0.41733605 -0.2085073
-0.36731517 0.615441 0.408348 -0.1325319 -0.3942689 0.0016621022 0.13442743 -0.90861446
0.09779265 0.2963542 -0.004660827 -0.35141474 -0.109937504 0.08160903 0.5046547 1.5252972
0.16304417 0.20019029 -0.29620945 -0.24773037 0.39044195 0.5357217 -0.037837964 -0.6840093
0.030315083 0.009922666 0.2601483 0.055498958 0.91051894 0.44512996 0.36801577 -1.1303222
-0.77696276 -0.08897911 0.9239502 0.007787235 0.14700033 0.1799611 0.3875647 -0.4088925
0.20016569 0.09396712 0.24593545 -0.29382426 0.15185422 -0.032336783 -0.21635506 -0.067690805
1.0758651 -0.069660775 -1.1667551 0.05428608 -0.08316553 -0.38325262 -0.023249697 -0.28495315
-0.5501437 0.104195714 0.37684575 0.03393353 0.8179478 0.16586244 0.67776114 -0.9262958
0.017737895 0.009772666 0.92092 -0.02405698 -0.11485478 -0.22972782 -0.111041576 -0.3016662
0.62756693 0.23731832 -0.96009916 0.010784295 -0.6687748 -0.89512104 -0.7086641 -1.0072926
-0.10381419 -0.5537915 0.13347554 -1.2812471 0.28327262 -0.43029115 -0.36319917 -1.3945003
-1.0696422 1.0249571 0.42087457 -0.52593464 -0.29954594 0.1540327 -0.16129768 0.6265303
0.20282297 -0.45912734 -0.08226052 -0.68159944 -0.078244664 -0.5872092 0.24146521 -0.19134493
-0.32596433 -0.19706348 -0.23554902 -0.46825632 0.09748881 -0.123811886 0.5067922 0.17368998
-0.12397334 -0.10697679 -0.06532085 1.4751399 0.15521927 -0.5981712 0.12737234 0.13452494
0.5003218 0.08519132 0.3209544 -0.5783537 -0.7642526 -0.34289882 0.36712223 -1.2971503
0.063973695 -0.09659455 0.15283696 0.5813361 -0.07575007 0.26327485 1.1892191 -0.79473
-0.31374502 -0.92888933 -0.010900568 0.1386733 -0.19068666 0.43151847 -0.08881226 -0.71961194
0.03236288 0.4327883 -0.5675984 1.0557745 0.6456571 0.76761323 -0.103890575 0.19146805
-0.20855118 1.4214983 -0.018040117 -0.31459355 0.30270037 -0.39005366 0.23649214 -0.0093469
-0.2618105 0.46835998 0.25616404 -0.26529205 0.1203222 -0.5503545 0.0012446289 -0.34731638
0.27087456 0.2336542 0.4658893 0.62124515 0.16553588 -0.30110288 0.3344374 0.11118752
0.7240993 -0.06359369 0.44374764 0.09423134 0.21963097 0.8663274 0.021129584 -0.05282414
0.25361064 -1.5443983 0.29464585 -0.18846482 0.16160546 -0.15286322 0.11766443 -0.86000717

bn2.weight f4 [200]
00000000: 8f03 b63f 90ca 863f ecf5 a33f 193c 8e3f
00000010: 7e95 593f 062e 093f 9bd6 773f da03 e93f
00000020: 5157 333f 00b4 823f 7d1c bf3f 79ac e23f
00000030: 958e a53f 8bbd 713f f3fa a83f 65f3 563f
00000040: 4662 9f3f 826c 833f 9453 2a3f 9fda 893f
00000050: 5630 013f 1e67 663f d8a8 353f 2dab 873f
00000060: 9aca b23f 3fb8 773f 61e2 ad3f 9b0b 763f
00000070: 37b1 913f b04b e03f a566 b03f 27bd 633f
00000080: e0a6 e03f a150 853f e4eb ac3f bde6 903f
00000090: c18e 103f 18a5 aa3f 448f 6e3f 2752 5d3f
000000a0: b8ae ac3f 68e1 6e3f 6342 9b3f 40d3 e23f
000000b0: a85a 883f 49bc 963f 9648 a03f d834 8a3f
000000c0: 6c41 b33f d8f2 bc3f 4c04 8d3f 6b7b ad3f
000000d0: 2481 973f 0451 b43f 0496 923f 6877 673f
000000e0: ae99 493f a80e 613f d0fe 373f 9dfd b53f
000000f0: 1912 be3f 7c94 d83f 591b ab3f 3afd ab3f
00000100: 4d4f 2f3f a297 883f 1a14 bc3f ce9c 433f
00000110: 9969 913f f636 973f 93de 493f d341 7c3f
00000120: 6128 313f de1a c63f 1580 833f 5e59 963f
00000130: b125 0f3f 7372 923f eae1 393f 01ef 3c3f
00000140: cd46 963f 07e5 883f 8ef8 ce3f a900 863f
00000150: 027b ac3f 0fdd 853f 4aff 593f 60e9 6e3f
00000160: d067 883f ef64 773f 8d87 a13f db53 b13f
00000170: 5e87 4d3f a4e7 c43f a81e 073f d157 8a3f
00000180: c960 873f 8ed7 903f 73df 8d3f 366f 9c3f
00000190: 60b6 513f 3561 313f 4096 7b3f 3c92 a93f
000001a0: 35e1 843f 48e7 533f 5fc3 9b3f a4fa 983f
000001b0: 959e 973f 688f db3f 245d 863f 5d64 c03f
000001c0: ef2f 253f 2f06 0140 d476 263f 5a17 8f3f
000001d0: ea87 8e3f 0c58 7f3f d109 493f d3f7 823f
000001e0: c3b2 923f b367 993f c223 a33f 1b1d 8d3f
000001f0: 8059 8b3f dd66 393f 90c9 613f b7ed c13f
00000200: 3b63 753f 412c 683f f18b a43f 5184 1440
00000210: 5f83 843f 3004 b23f 0774 783f 1258 943f
00000220: a7d2 b43f 89fa 623f 4388 7e3f dc10 c43f
00000230: e9d7 943f d485 a53f 5d13 9f3f 2543 413f
00000240: b145 493f 1a14 873f 5495 8e3f 73f2 503f
00000250: ae1a 873f ccde 623f 4c9e c13f 1537 6f3f
00000260: b903 933f cc75 a33f 2506 703f 19e1 2c3f
00000270: 71b0 0c3f 0540 353f 8829 5f3e ac83 9b3f
00000280: a281 923f 5b0c ae3f 38a1 9e3f 83f4 4c3f
00000290: 2d1f 893f 5279 523f 77a5 893f 63ea d53f
000002a0: 8bf4 a03e 1946 4d3f ae3a b43e a440 2e3f
000002b0: 44b2 b13f 435a 063f 27f6 653f 0c44 5f3f
000002c0: 68df 5b3f 4689 4b3f 0f76 ba3f 56e4 b33f
000002d0: 6948 8d3f 02c2 8b3f c90f a43f e09b ee3f
000002e0: aa27 963f 5111 433f 7ac8 b23f 72f0 ad3f
000002f0: 3195 a63f b8f3 0c3f d10e ad3f 5fbf 7e3f
00000300: 48b9 b03f c751 643f 9f78 a23f 824c 983f
00000310: d00f 703f 478a cb3f 5de3 b93e 87c2 1d3f
1.4219836 1.0530567 1.2809424 1.111209 0.8499373 0.5358585 0.96811837 1.82043
0.7005511 1.0211182 1.4930569 1.7708884 1.2934138 0.94429845 1.3201584 0.8396514
1.2451866 1.0267489 0.6653378 1.0769843 0.5046438 0.90001094 0.7096076 1.0599114
1.3968079 0.9676551 1.358471 0.9611146 1.1382207 1.7523098 1.3781325 0.889605
1.7550926 1.0415231 1.3509488 1.1320416 0.56467825 1.3331633 0.93187356 0.8645348
1.349082 0.9331269 1.2129635 1.7720718 1.0652666 1.177621 1.2522151 1.0797377
1.400434 1.476161 1.1016936 1.3553289 1.1836286 1.4087224 1.1452031 0.90416574
0.7875012 0.8791299 0.7187319 1.4218022 1.4849273 1.6920314 1.3367721 1.3436654
0.6848038 1.0671275 1.4693635 0.7641114 1.1360351 1.1813648 0.78855246 0.9853794
0.6920224 1.5476949 1.0273463 1.1746023 0.5591689 1.1441177 0.7261034 0.7380219
1.1740357 1.0694894 1.6169603 1.0468951 1.3475039 1.0458087 0.85155165 0.9332485
1.0656681 0.9663839 1.2619492 1.3853716 0.8028468 1.5383191 0.5278115 1.080805
1.0576411 1.1315782 1.1083816 1.2221439 0.8191891 0.6928895 0.9827614 1.3247752
1.0381228 0.8277478 1.2168998 1.195149 1.184527 1.7153139 1.0497174 1.5030628
0.64526266 2.0160024 0.6502507 1.1179001 1.1135228 0.99743724 0.78530604 1.023188
1.1460804 1.1984771 1.2745287 1.1024507 1.0886688 0.7242258 0.88198185 1.515067
0.9585454 0.90692526 1.2855207 2.320576 1.0352591 1.3907528 0.97052044 1.1589377
1.4126786 0.88663536 0.9942667 1.5317645 1.162839 1.2931466 1.2427784 0.7549308
0.78621966 1.055301 1.1139321 0.8161995 1.0555017 0.8862121 1.5126433 0.93443424
1.1485511 1.2770324 0.93759376 0.6753097 0.5495673 0.7080081 0.21793187 1.2149558
1.1445811 1.359752 1.239295 0.80060595 1.0712639 0.8221637 1.0753621 1.6712154
0.3143657 0.80185086 0.3520102 0.68067384 1.3882527 0.5248148 0.89828724 0.87213206
0.85887766 0.7950634 1.4567279 1.4054058 1.1037723 1.0918581 1.2817317 1.8641319
1.1730855 0.761983 1.396743 1.3589003 1.301428 0.55059385 1.3520147 0.9951076
1.3806543 0.8918728 1.2693061 1.1898348 0.9377413 1.5901574 0.36306277 0.6162495

bn2.bias f4 [200]
00000000: 61e2 dc3d 12c7 bf3f 0c36 9dbf f9be 393e
00000010: be8c 5c3e 7f17 e3bc f1c8 f53e 06a5 4ebe
00000020: def9 debe 8c86 1a3f 4d1c b93e 48c2 00be
00000030: 02cc a7be 46ee a83d 5952 073e d2ed 5fbf
00000040: a642 eb3c 4b80 bd3e ee1f 2abd b810 8dbe
00000050: b4f2 ecbd ef02 273e 82c9 0a3f 4cb2 c53f
00000060: e10e b33d 89ee 8a3e 1f7f 9fbe 6660 80be
00000070: 4520 cc3e 9bfe 103f 5cc6 bdbd 100c 1cbf
00000080: 0f7c 4c3c b734 32bd 38b8 7f3e e8d9 ce3b
00000090: 20bf 673f 3e3f ec3e 2172 aa3e 12cb 86bf
000000a0: 6ffb 53bf 6a01 52bd 9ba9 5e3f d1a0 043d
000000b0: 0bef 183e 3f7f 133e e2f2 c03e 7d90 dbbe
000000c0: 88d0 8a3e 6562 2e3d 7beb 623e 6ecb 92be
000000d0: 9039 3c3e 517b f03c d809 90be e38d 08bb
000000e0: 5d85 913f 5c1b 15bd c1df 8abf a952 b73d
000000f0: f660 78bc de71 aebe cf99 1b3d 87c9 a9be
00000100: 26af fdbe ffdb 3c3e bc5c d03e 75a1 233d
00000110: ff10 4d3f a035 e63d df2b 413f ea7e 74bf
00000120: 0007 5cbd dc84 043d bc20 5e3f 854b 9dbd
00000130: 37ec f3bc dc56 4fbe c7d2 e0bd f170 bebe
00000140: b6f3 233f acb0 753e 2acb 81bf 9dbd 2ebc
00000150: dd7b 17bf 5f47 64bf fd12 25bf 7ecb 89bf
00000160: 1d7a eebd daf1 19bf 81d5 3e3e 61ca 9fbf
00000170: 4a77 a03e ce56 bdbe 1cf9 93be d022 acbf
00000180: a61c 80bf a5f2 813f b7b6 d53e 64b9 f6be
00000190: cec2 72be f38a 523e e1bf d6bd cd3d 233f
000001a0: 8e94 5b3e 630f e2be 03e9 f8bc 9765 2cbf
000001b0: b56f 11bd b74a 07bf a22a 983e ed23 03be
000001c0: 4055 8fbe 01b2 f1bd 9e3b 1cbe 9dcc c5be
000001d0: 39c8 2d3e 474d 22bd b967 e33e fd71 193e
000001e0: 4714 abbd 461b 19be 76a3 d6bd 484f c33f
000001f0: aab0 ac3d a095 1abf d631 8b3d 2ebd 733d
00000200: c8fd df3e d823 de3d 57de 933e 0abf 1fbf
00000210: 8a86 44bf b181 9ebe cb55 9f3e 8cdf a6bf
00000220: e27f 253d b859 1cbe d2d4 313e 545b 243f
00000230: ce7c 0fbd 55ef 793e b42e 9d3f 4509 44bf
00000240: 8bda 88be 4fe6 61bf 2884 f238 f692 2d3e
00000250: dd69 25be 9f9e f53e d9f1 9abd a9bf 3bbf
00000260: 9cc0 bf3d 9e17 e33e bc8e 07bf e61d 873f
00000270: 21c7 373f ea5e 423f 7a84 a2bd 8e71 203e
00000280: 6741 6abe 9bc4 ad3f 5ffb 66bc f0ce b8be
00000290: c000 7e3e 9605 a0be c95b 933e 77ec 023c
000002a0: 889e 8ebe cbb0 e53e 693b 543e c292 6bbe
000002b0: f26a 093e d1a2 0dbf eea5 29bd 9100 b7be
000002c0: 8b59 5e3e 3868 703e a6a0 0c3f 54be 153f
000002d0: e030 1d3e 9631 9bbe 167b 853e 5e33 163e
000002e0: 8c54 293f 38a0 7e3c f047 ee3e ea1c d03d
000002f0: f921 323e 411f 703f b13b 9a3c 0057 91bc
00000300: 88dc 893e f338 bbbf e836 713e af05 e7bd
00000310: 2f8f 193e 4a72 edbd 095b ab3d 27e8 49bf
0.10785366 1.4982626 -1.2282119 0.18139257 0.21538064 -0.027721165 0.4800487 -0.20180139
-0.4355001 0.6036155 0.36154404 -0.12574112 -0.32772833 0.08248572 0.13215007 -0.8747226
0.028718304 0.37011942 -0.041534357 -0.27551818 -0.115697294 0.16309713 0.54213727 1.5445037
0.08743072 0.27135113 -0.31151673 -0.25073546 0.3986837 0.566385 -0.0926635 -0.60955906
0.01248075 -0.043507304 0.24972618 0.0063125975 0.9052601 0.46142 0.33290198 -1.0530722
-0.8280553 -0.05127088 0.8697755 0.03237993 0.14934938 0.1440401 0.37685305 -0.42883673
0.27112222 0.042574305 0.22160141 -0.2867083 0.18381333 0.029355677 -0.2813251 -0.0020836524
1.1368824 -0.036403045 -1.0849534 0.08951313 -0.015159836 -0.3407125 0.03798848 -0.33161566
-0.4954769 0.18443297 0.4069575 0.0399489 0.8010406 0.11240697 0.75457567 -0.95506155
-0.053717613 0.032353267 0.867687 -0.0768042 -0.029775722 -0.20247978 -0.109777026 -0.37195542
0.6404375 0.23993176 -1.0140126 -0.0106653245 -0.59173375 -0.89171404 -0.644821 -1.0765226
-0.11644385 -0.6013466 0.18636133 -1.2483636 0.3134101 -0.3698029 -0.28900993 -1.3448124
-1.0008743 1.0152174 0.41740963 -0.48188317 -0.23707125 0.20560817 -0.10485817 0.63766176
0.21443388 -0.44152364 -0.030384546 -0.67342514 -0.035506923 -0.5284838 0.29720026 -0.12806673
-0.27994728 -0.1180153 -0.15257117 -0.3863267 0.1697091 -0.03962448 0.44415072 0.1498489
-0.08353477 -0.1495181 -0.104803964 1.525857 0.084321335 -0.6038456 0.06796615 0.059506588
0.43748307 0.108466804 0.2888057 -0.6240088 -0.7676779 -0.30958322 0.31120142 -1.3036971
0.04040516 -0.152686 0.17366341 0.64201856 -0.035031132 0.24407704 1.2279878 -0.76576644
-0.26729235 -0.8824205 0.00011564075 0.16950592 -0.16153665 0.4797258 -0.0756566 -0.73339325
0.09362909 0.44353956 -0.5295217 1.0555999 0.7178822 0.7592608 -0.07935424 0.15668318
-0.22876512 1.3575624 -0.0140980175 -0.3609538 0.24804974 -0.31254262 0.28780964 0.007990948
-0.27855325 0.44861445 0.20725788 -0.23005202 0.13419703 -0.55326563 -0.04141801 -0.3574262
0.21713845 0.23477256 0.5493263 0.5849354 0.15350676 -0.3031127 0.2607047 0.14668033
0.66144633 0.015541129 0.4653926 0.10161765 0.17395772 0.9379769 0.018827291 -0.01774168
0.26926064 -1.4626755 0.23556101 -0.11280381 0.14996026 -0.115940645 0.08366973 -0.7886986

bn2.running_mean f4 [200]
00000000: 0000 0000 0000 0000 0000 0000 0000 0000
00000010: 0000 0000 0000 0000 0000 0000 0000 0000
00000020: 0000 0000 0000 0000 0000 0000 0000 0000
00000030: 0000 0000 0000 0000 0000 0000 0000 0000
00000040: 0000 0000 0000 0000 0000 0000 0000 0000
00000050: 0000 0000 0000 0000 0000 0000 0000 0000
00000060: 0000 0000 0000 0000 0000 0000 0000 0000
00000070: 0000 0000 0000 0000 0000 0000 0000 0000
00000080: 0000 0000 0000 0000 0000 0000 0000 0000
00000090: 0000 0000 0000 0000 0000 0000 0000 0000
000000a0: 0000 0000 0000 0000 0000 0000 0000 0000
000000b0: 0000 0000 0000 0000 0000 0000 0000 0000
000000c0: 0000 0000 0000 0000 0000 0000 0000 0000
000000d0: 0000 0000 0000 0000 0000 0000 0000 0000
000000e0: 0000 0000 0000 0000 0000 0000 0000 0000
000000f0: 0000 0000 0000 0000 0000 0000 0000 0000
00000100: 0000 0000 0000 0000 0000 0000 0000 0000
00000110: 0000 0000 0000 0000 0000 0000 0000 0000
00000120: 0000 0000 0000 0000 0000 0000 0000 0000
00000130: 0000 0000 0000 0000 0000 0000 0000 0000
00000140: 0000 0000 0000 0000 0000 0000 0000 0000
00000150: 0000 0000 0000 0000 0000 0000 0000 0000
00000160: 0000 0000 0000 0000 0000 0000 0000 0000
00000170: 0000 0000 0000 0000 0000 0000 0000 0000
00000180: 0000 0000 0000 0000 0000 0000 0000 0000
00000190: 0000 0000 0000 0000 0000 0000 0000 0000
000001a0: 0000 0000 0000 0000 0000 0000 0000 0000
000001b0: 0000 0000 0000 0000 0000 0000 0000 0000
000001c0: 0000 0000 0000 0000 0000 0000 0000 0000
000001d0: 0000 0000 0000 0000 0000 0000 0000 0000
000001e0: 0000 0000 0000 0000 0000 0000 0000 0000
000001f0: 0000 0000 0000 0000 0000 0000 0000 0000
00000200: 0000 0000 0000 0000 0000 0000 0000 0000
00000210: 0000 0000 0000 0000 0000 0000 0000 0000
00000220: 0000 0000 0000 0000 0000 0000 0000 0000
00000230: 0000 0000 0000 0000 0000 0000 0000 0000
00000240: 0000 0000 0000 0000 0000 0000 0000 0000
00000250: 0000 0000 0000 0000 0000 0000 0000 0000
00000260: 0000 0000 0000 0000 0000 0000 0000 0000
00000270: 0000 0000 0000 0000 0000 0000 0000 0000
00000280: 0000 0000 0000 0000 0000 0000 0000 0000
00000290: 0000 0000 0000 0000 0000 0000 0000 0000
000002a0: 0000 0000 0000 0000 0000 0000 0000 0000
000002b0: 0000 0000 0000 0000 0000 0000 0000 0000
000002c0: 0000 0000 0000 0000 0000 0000 0000 0000
000002d0: 0000 0000 0000 0000 0000 0000 0000 0000
000002e0: 0000 0000 0000 0000 0000 0000 0000 0000
000002f0: 0000 0000 0000 0000 0000 0000 0000 0000
00000300: 0000 0000 0000 0000 0000 0000 0000 0000
00000310: 0000 0000 0000 0000 0000 0000 0000 0000
0.0 0.0 0.0 0.0 0.0 0.0 0.0 0.0
0.0 0.0 0.0 0.0 0.0 0.0 0.0 0.0
0.0 0.0 0.0 0.0 0.0 0.0 0.0 0.0
0.0 0.0 0.0 0.0 0.0 0.0 0.0 0.0
0.0 0.0 0.0 0.0 0.0 0.0 0.0 0.0
0.0 0.0 0.0 0.0 0.0 0.0 0.0 0.0
0.0 0.0 0.0 0.0 0.0 0.0 0.0 0.0
0.0 0.0 0.0 0.0 0.0 0.0 0.0 0.0
0.0 0.0 0.0 0.0 0.0 0.0 0.0 0.0
0.0 0.0 0.0 0.0 0.0 0.0 0.0 0.0
0.0 0.0 0.0 0.0 0.0 0.0 0.0 0.0
0.0 0.0 0.0 0.0 0.0 0.0 0.0 0.0
0.0 0.0 0.0 0.0 0.0 0.0 0.0 0.0
0.0 0.0 0.0 0.0 0.0 0.0 0.0 0.0
0.0 0.0 0.0 0.0 0.0 0.0 0.0 0.0
0.0 0.0 0.0 0.0 0.0 0.0 0.0 0.0
0.0 0.0 0.0 0.0 0.0 0.0 0.0 0.0
0.0 0.0 0.0 0.0 0.0 0.0 0.0 0.0
0.0 0.0 0.0 0.0 0.0 0.0 0.0 0.0
0.0 0.0 0.0 0.0 0.0 0.0 0.0 0.0
0.0 0.0 0.0 0.0 0.0 0.0 0.0 0.0
0.0 0.0 0.0 0.0 0.0 0.0 0.0 0.0
0.0 0.0 0.0 0.0 0.0 0.0 0.0 0.0
0.0 0.0 0.0 0.0 0.0 0.0 0.0 0.0
0.0 0.0 0.0 0.0 0.0 0.0 0.0 0.0
