myrobot/src/not_using/DDPG/save_DDPG_models/1118/DDPG_Critic_EP488.pt (torch, 288061 bytes, 32 tensors)

fc1_state.weight f4 [128, 4]
1.5751379 2.0124424 0.679547 0.012393756 0.3632942 -1.4663476 0.3617062 -1.0856704
0.8142907 0.09161124 1.0376123 -0.4119899 -0.21802527 1.0503631 -0.62191427 -0.7041166
-0.91187906 -0.506582 1.5421377 -0.50920033 -0.4013032 2.5357003 0.4514186 -0.6419987
-0.21079232 -1.39495 0.022368079 0.011567902 0.70667994 0.25180846 -0.08265475 0.16202009
1.4608691 0.50661355 -0.2371494 -0.7549866 -1.5118933 0.35962477 0.060460057 -1.09618
2.349609 2.6845756 0.32280108 0.14567907 -1.6985909 0.040422853 0.69024044 -0.012450366
1.9516951 0.5617144 0.24726938 0.35313168 1.0824412 -0.4018308 -3.3002312 0.47439244
1.6220586 -0.4212828 -1.4509327 -0.17125298 0.28402534 0.43600354 -2.9906015 0.3731107
2.5588334 -0.37747315 -2.2248566 0.26642478 -1.9102883 -0.09779996 -0.17679581 -1.2045491
-2.329417 1.0699121 0.4738657 0.53172046 2.077883 2.4817874 -0.13148683 0.84988415
2.8570938 0.20430075 0.9070794 0.100738406 -0.9115346 0.5651979 -0.7693449 -0.78374964
-1.0711598 0.1296047 1.0709736 0.17912312 -0.19636346 0.118638076 -3.5747564 0.06290882
0.6010251 -0.14641443 -3.601705 0.73551893 0.39820942 0.13112253 -1.1890336 -0.102424674
1.1698587 0.76861 1.0430485 0.010150583 -2.3742714 -0.47095078 -0.15909058 0.0330111
-0.59509873 -0.066638365 -0.22185826 0.16036277 -1.6382607 -1.0900843 0.04252619 -0.14099374
-0.00635101 -0.694284 2.43122 0.48781696 -0.7825491 -0.97506267 -1.33745 0.39795864
-0.9083053 -0.24286102 1.8294231 0.12519324 -0.14710893 -0.57999545 1.3946502 0.30106357
-1.173356 -1.7200091 -1.9284785 0.7309545 0.28759322 -0.8213468 0.8822248 -0.4897501
-0.8282246 -0.8622691 0.87715423 -1.5676348 -1.1572902 -0.2723065 0.64259803 -0.46808532
-0.2110494 -0.103884295 -0.06618729 -0.13066514 0.25607926 1.4786748 0.1799455 -0.58752537
-1.1482272 -0.0028121234 1.348023 -1.5388273 0.6771297 0.8993131 -1.0510883 -0.7098439
1.6848658 -1.2650256 0.25993398 0.053524 -0.9802408 0.73067683 1.7289045 -0.0086607365
0.45443147 -0.1191239 -5.3239098 0.47937632 -0.46160907 1.0931463 0.7273419 0.12213108
0.12580134 0.07373254 1.0457733 -0.6779295 1.2117401 -1.1833373 -0.7334104 0.28596357
0.82170975 -0.25286832 -1.8435963 -0.49402508 -0.629666 -0.36607957 2.291904 0.081283204
0.6755254 1.2689383 0.3411069 -0.20417316 -2.3148463 0.13784811 0.23460549 0.017481394
0.9909243 1.7873865 2.474381 -0.6923356 -0.71620244 0.59826905 0.027064906 -0.6351407
-2.1391618 -0.08211285 -1.3789328 0.16228841 0.049539536 -1.726074 -0.75225455 0.97824186
0.8807783 0.11334604 1.518229 0.04272036 2.6101258 0.10952156 -0.5538344 -0.27405873
-0.638707 -0.26388717 2.658317 0.1793484 0.12185159 -0.50807494 -3.6314404 0.24751006
0.37357703 2.8731153 -0.04177646 -0.0021388892 0.26722243 -1.0806756 -4.3259845 0.6419231
1.2201477 -2.052954 0.4478952 -0.18387856 0.5384624 0.22326712 0.48533565 0.88795286
00000000: 1e9e c93f dbcb 0040 cbf6 2d3f 2e0f 4b3c
00000010: b301 ba3e 47b1 bbbf 8e31 b93e 3ff7 8abf
00000020: 5b75 503f ac9e bb3d 7bd0 843f 57f0 d2be
00000030: 0442 5fbe 4c72 863f c635 1fbf fc40 34bf
00000040: e870 69bf 5caf 01bf c564 c53f f45a 02bf
00000050: 9d77 cdbe ea48 2240 5720 e73e 075a 24bf
00000060: f1d9 57be b98d b2bf 433d b73c 4c87 3d3c
00000070: fae8 343f 0aed 803e e546 a9bd 98e8 253e
00000080: c2fd ba3f 6db1 013f 4bd7 72be cd46 41bf
00000090: b885 c1bf bd20 b83e f7a4 773d a04f 8cbf
000000a0: fe5f 1640 16d0 2b40 2f46 a53e e52c 153e
000000b0: 6d6b d9bf 6f92 253d 99b3 303f 9ffc 4bbc
000000c0: 25d1 f93f 84cc 0f3f 2f34 7d3e adcd b43e
000000d0: 6f8d 8a3f c4bc cdbe fd36 53c0 91e3 f23e
000000e0: 9e9f cf3f 61b2 d7be 2ab8 b9bf f15c 2fbe
000000f0: c56b 913e db3b df3e 0466 3fc0 5e08 bf3e
00000100: edc3 2340 2944 c1be 0d64 0ec0 d468 883e
00000110: 5484 f4bf 584b c8bd f609 35be aa2e 9abf
00000120: 2b15 15c0 e1f2 883f 869e f23e d51e 083f
00000130: 09fc 0440 9bd5 1e40 7ca4 06be 0292 593f
00000140: a0da 3640 3734 513e 5b36 683f f04f ce3d
00000150: 555a 69bf cfb0 103f caf3 44bf d1a3 48bf
00000160: c41b 89bf 18b7 043e aa15 893f 0d6c 373e
00000170: 8113 49be 85f8 f23d cfc8 64c0 57d6 803d
00000180: c8dc 193f aaed 15be 5682 66c0 f84a 3c3f
00000190: 1be2 cb3e fc44 063e 4132 98bf 07c4 d1bd
000001a0: eebd 953f a0c3 443f 9d82 853f a24e 263c
000001b0: 10f4 17c0 7620 f1be a4e8 22be a636 073d
000001c0: 6458 18bf b279 88bd d02e 63be 2336 243e
000001d0: 87b2 d1bf e287 8bbf f12f 2e3d aa60 10be
000001e0: 221c d0bb 99bc 31bf 1c99 1b40 25c3 f93e
000001f0: 2355 48bf b59d 79bf 9031 abbf 3cc1 cb3e
00000200: b286 68bf 8fb0 78be 892a ea3f a832 003e
00000210: b9a3 16be 957a 14bf e683 b23f 0125 9a3e
00000220: 8830 96bf 4229 dcbf 62d8 f6bf d61f 3b3f
00000230: 6b3f 933e c943 52bf 7cd9 613f 86c0 fabe
00000240: 8706 54bf abbd 5cbf 2e8d 603f 42a8 c8bf
00000250: 1622 94bf c26b 8bbe 4e81 243f e1a8 efbe
00000260: 551d 58be 4ac1 d4bd 348d 87bd 15cd 05be
00000270: d21c 833e 3745 bd3f a243 383e 1068 16bf
00000280: 1cf9 92bf 9a4b 38bb 058c ac3f 4bf8 c4bf
00000290: 5f58 2d3f 6239 663f 108a 86bf 54b8 35bf
000002a0: afa9 d73f 5cec a1bf 1116 853e fb3b 5b3d
000002b0: 10f1 7abf a30d 3b3f be4c dd3f c3e5 0dbc
000002c0: 3eab e83e 3bf7 f3bd 785d aac0 d070 f53e
000002d0: 0658 ecbe 38ec 8b3f 1433 3a3f dc1f fa3d
000002e0: 11d2 003e 1601 973d e6db 853f ca8c 2dbf
000002f0: 4d1a 9b3f 9977 97bf c9c0 3bbf d169 923e
00000300: 925b 523f f577 81be f7fa ebbf dbf0 fcbe
00000310: ca31 21bf c86e bbbe 8eae 1240 cf77 a63d
00000320: 3cef 2c3f 926c a23f 90a5 ae3e c512 51be
00000330: 7126 14c0 0e28 0d3e 6c3c 703e 2435 8f3c
00000340: 37ad 7d3f 15c9 e43f 425c 1e40 e83c 31bf
00000350: 0b59 37bf 2928 193f 39b7 dd3c 9598 22bf
00000360: 07e8 08c0 c82a a8bd df80 b0bf ef2e 263e
00000370: f8e9 4a3d feef dcbf c193 40bf 0f6e 7a3f
00000380: b07a 613f f821 e83d 5455 c23f 8bfb 2e3d
00000390: 4d0c 2740 d74c e03d 17c8 0dbf 6d51 8cbe
000003a0: 4d82 23bf 381c 87be de21 2a40 1ba7 373e
000003b0: 548d f93d 3311 02bf 8569 68c0 4773 7d3e
000003c0: 7d45 bf3e 1fe1 3740 cb1d 2bbd 9b2c 0cbb
000003d0: 61d1 883e 9453 8abf 776e 8ac0 1355 243f
000003e0: cd2d 9c3f 9963 03c0 8552 e53e a94a 3cbe
000003f0: acd8 093f 23a0 643e ea7d f83e e150 633f

fc1_state.bias f4 [128]
0.19841106 -0.13086884 0.23275994 0.052465502 0.5661948 -0.7082479 0.5515932 -1.390498
0.2589726 -0.48414356 -0.59130085 0.00045586616 0.21781631 0.59527236 1.1141001 0.108894795
-0.41717997 -0.4729347 -1.2207546 -0.6005726 -0.94426703 0.45128074 -0.5858137 0.71068597
0.33624157 0.27380678 0.41131273 -0.6942985 -1.2785912 -0.4529053 0.2562562 -0.23733386
-0.8086687 -0.25245473 0.22383729 0.8410231 0.50488484 0.40040126 1.0304958 0.17893957
0.54095125 -0.5257209 0.72765774 0.541505 0.5250874 -1.5666662 -0.6522716 0.33265835
0.9907076 0.11423484 0.35420853 0.723442 0.40380508 0.12900433 -1.1071908 0.3353483
-0.12371101 -0.09585624 -0.57217795 -0.29227117 -0.101182036 0.9261288 0.04444953 -1.1160288
0.11593899 -0.50401515 -0.19963326 0.24768712 -0.09978368 -0.7179151 0.90522504 0.041835282
0.4116054 -0.8580492 -1.2361226 -0.53032076 0.35407487 0.8327004 0.47824264 0.5850317
0.68042326 0.7489516 -0.058478802 1.0471808 0.3285779 0.21839236 -0.62546355 -0.032200746
0.8255253 0.5102108 -0.35009915 -0.0456731 -0.78709906 0.19546394 -0.0801601 -1.4161118
-0.29139665 -0.11059111 0.2430175 -1.1108943 -0.17435157 0.9403332 -0.62017596 0.33675984
0.32576752 0.4842041 -1.2922413 -0.33192185 0.7491726 0.5031304 0.19961321 0.4265011
0.50642675 -0.36322498 0.39184135 1.1160682 -0.7739409 -0.2920038 0.7124496 0.6154704
-1.2044928 -0.7828233 0.3105588 -1.4105895 -0.23937342 -0.7178788 0.41612062 0.01329263
00000000: 452c 4b3e 7b02 06be 9f58 6e3e 11e6 563d
00000010: 24f2 103f bc4f 35bf 3635 0d3f d7fb b1bf
00000020: 0e98 843e aae1 f7be 7e5f 17bf 5201 ef39
00000030: 3d0b 5f3e c563 183f d59a 8e3f 3c04 df3d
00000040: 9d98 d5be 7f24 f2be b041 9cbf 20bf 19bf
00000050: 7cbb 71bf 450e e73e e3f7 15bf 84ef 353f
00000060: db27 ac3e 6730 8c3e 9597 d23e 8cbd 31bf
00000070: e0a8 a3bf 34e3 e7be 0334 833e a607 73be
00000080: e904 4fbf bf41 81be 9a35 653e 4a4d 573f
00000090: 2240 013f 6501 cd3e 49e7 833f ef3b 373e
000000a0: c87b 0a3f a595 06bf c747 3a3f 12a0 0a3f
000000b0: 216c 063f 8588 c8bf 46fb 26bf 3252 aa3e
000000c0: 039f 7d3f f5f3 e93d d25a b53e 7f33 393f
000000d0: 8abf ce3e b619 043e 6eb8 8dbf c6b2 ab3e
000000e0: 335c fdbd 4750 c4bd 417a 12bf 91a4 95be
000000f0: 8738 cfbd c716 6d3f b610 363d 08da 8ebf
00000100: 6c71 ed3d 2307 01bf a96c 4cbe b1a1 7d3e
00000110: 635b ccbd 49c9 37bf d4bc 673f 795b 2b3d
00000120: f1bd d23e 1da9 5bbf 4439 9ebf 1ac3 07bf
00000130: 4d49 b53e da2b 553f 38dc f43e a3c4 153f
00000140: 3830 2e3f 4bbb 3f3f 7887 6fbd 050a 863f
00000150: 5d3b a83e 3fa2 5f3e 611e 20bf eee4 03bd
00000160: a055 533f 2d9d 023f 3240 b3be b713 3bbd
00000170: 537f 49bf b327 483e fa2a a4bd 2743 b5bf
00000180: f131 95be 987d e2bd 94d9 783e c931 8ebf
00000190: 3889 32be adb9 703f dac3 1ebf c96b ac3e
000001a0: 00cb a63e 9ae9 f73e 2a68 a5bf a9f1 a9be
000001b0: c7c9 3f3f 27cd 003f 6867 4c3e 5a5e da3e
000001c0: 2fa5 013f a0f8 b9be 6e9f c83e 53db 8e3f
000001d0: fe20 46bf 8681 95be 1963 363f 788f 1d3f
000001e0: d22c 9abf 1c67 48bf 9001 9f3e 328e b4bf
000001f0: 4e1e 75be e8c6 37bf c30d d53e 55c9 593c

bn1_state.weight f4 [128]
1.7367506 1.1271902 0.80071336 1.2034012 0.78759855 1.158388 0.9075134 0.17603494
0.8750428 1.0806296 1.1074492 1.3804317 0.5223429 0.90957165 1.229462 0.82452375
0.41335437 0.9031846 0.7107405 0.77130204 1.1221018 0.8474855 0.78886557 1.4278845
0.6500255 0.9196329 1.0926021 1.1483984 0.29311258 1.4739487 0.94339156 0.6854862
0.9501631 0.65445447 0.7591082 1.0395281 0.88111585 1.0758017 1.7552809 1.3480374
0.99511874 0.8192018 1.1240444 1.5674263 0.93786836 1.016009 0.93462694 0.5474353
0.73397 1.0066764 1.1713853 1.903116 1.1167347 1.0502648 0.6977186 0.57789356
0.91557723 1.6406275 0.98614216 1.0609422 1.9228446 0.96215576 1.822075 0.3829675
1.1404334 0.7598318 1.6096127 0.81833875 1.7152064 0.72001624 0.66911733 0.7627707
1.1436192 1.120073 1.1007031 1.1377233 0.71035093 1.6344489 0.7788414 1.0876452
0.6505022 0.801214 0.9198844 0.9658737 2.0154917 1.691588 0.76034635 1.4027581
1.6429408 1.0295273 1.0799394 0.9902967 0.33888987 0.7916029 0.9336266 0.94799846
2.1659784 0.96489024 1.1457617 0.70448285 1.1150442 0.74786556 1.2696991 0.88971466
1.7545245 0.70086324 1.7530817 0.59709936 0.84932363 0.7373896 0.6579244 1.2089752
1.130065 1.1939932 1.2478583 0.9318382 1.0540102 1.09384 0.627729 0.517791
1.0089034 0.7941545 1.3854954 0.8378497 1.9392246 0.82199395 1.2235694 1.1072803
00000000: d84d de3f c547 903f 8dfb 4c3f 0d09 9a3f
00000010: 0fa0 493f 0f46 943f cc52 683f 8142 343e
00000020: ce02 603f 1252 8a3f e5c0 8d3f fcb1 b03f
00000030: 44b8 053f b0d9 683f 035f 9d3f fd13 533f
00000040: 2fa3 d33e 1b37 673f 17f3 353f 0d74 453f
00000050: 08a1 8f3f cff4 583f 18f3 493f ebc4 b63f
00000060: 1268 263f 106d 6b3f 63da 8b3f b8fe 923f
00000070: da12 963e 5aaa bc3f 1c82 713f 067c 2f3f
00000080: e43d 733f 548a 273f ea54 423f 420f 853f
00000090: cf90 613f dfb3 893f 0bad e03f 7d8c ac3f
000000a0: 1ac0 7e3f 36b7 513f b0e0 8f3f 6da1 c83f
000000b0: 2418 703f 950c 823f b643 6f3f b824 0c3f
000000c0: 75e5 3b3f c6da 803f f4ef 953f 4e99 f33f
000000d0: 2af1 8e3f 146f 863f b09d 323f d5f0 133f
000000e0: 4563 6a3f 1500 d23f d073 7c3f f4cc 873f
000000f0: c61f f63f d74f 763f c139 e93f 5114 c43e
00000100: b9f9 913f 5684 423f ca07 ce3f a67e 513f
00000110: e28b db3f fc52 383f 464b 2b3f f144 433f
00000120: 1d62 923f 8d5e 8f3f d7e3 8c3f eba0 913f
00000130: 8fd9 353f 9f35 d13f 2662 473f f537 8b3f
00000140: 5087 263f 5c1c 4d3f 8b7d 6b3f 8043 773f
00000150: d1fd 0040 f585 d83f 0fa6 423f 948d b33f
00000160: e24b d23f 8dc7 833f 743b 8a3f 1684 7d3f
00000170: f982 ad3e 7da6 4a3f 2702 6f3f 07b0 723f
00000180: 649f 0a40 0c03 773f 52a8 923f fd58 343f
00000190: c5b9 8e3f 1e74 3f3f 8085 a23f 57c4 633f
000001a0: 4294 e03f c66b 333f fb64 e03f 81db 183f
000001b0: 466d 593f 91c5 3c3f bc6d 283f b3bf 9a3f
000001c0: f8a5 903f c5d4 983f d2b9 9f3f f38c 6e3f
000001d0: cee9 863f f302 8c3f d9b2 203f f38d 043f
000001e0: bf23 813f b64d 4b3f ea57 b13f 517d 563f
000001f0: 8338 f83f 326e 523f ec9d 9c3f 5cbb 8d3f

bn1_state.bias f4 [128]
0.24588528 0.025718447 0.10884239 -0.035743423 0.13993633 -0.24929152 0.08467604 -1.2412442
0.14310837 -0.15686466 -0.60506 -0.21343851 -0.13829097 0.21718833 0.7083801 0.40603545
-0.57665277 -0.29631025 -0.9499238 -0.6107661 -0.92545265 0.05228566 -0.81093925 0.59753555
0.0067165 -0.041352954 0.026104305 -0.26638567 -1.3992568 0.0010259154 -0.13925081 -0.37895498
-0.69283456 -0.122756794 0.21433298 0.55062175 0.16604272 0.22251095 0.5639831 -0.021213485
0.14575613 -0.12101932 0.7268633 0.18445161 0.17010215 -1.2338227 -0.30890867 -0.024797542
0.7464109 -0.016989207 -0.092586935 0.37530178 0.25071603 -0.2822425 -1.1077099 0.31363627
-0.5451177 0.29266968 -0.2732107 -0.05741238 -0.39447707 0.47472042 0.3714104 -0.9207516
-0.00084611995 -0.43722886 0.08022054 -0.01618322 -0.16975401 -0.6320938 0.5657188 0.15851253
0.28797066 -0.62724465 -0.9946034 -0.24921073 0.8203328 0.3966483 0.31608677 0.35829547
0.69479924 0.34642282 -0.20262533 0.9804352 0.11705433 -0.024226021 -0.63872427 0.20723973
0.35134247 0.6307455 0.055863947 -0.4504847 -0.37393045 0.4670993 -0.0025045713 -0.97763336
0.030029802 -0.28016403 0.27673894 -1.0561606 0.13203706 0.5456524 -0.13274638 0.26205465
-0.12459931 0.62725586 -0.8042884 0.1340037 0.35557544 0.06360003 0.51480734 0.22150068
0.44343957 0.0426883 0.02339173 0.8740822 -0.5915521 0.026718609 0.40309966 0.46939054
-0.8703521 -0.9989686 0.20839997 -1.228235 0.0080760475 -0.8000822 0.43457344 -0.4127919
00000000: 5ac9 7b3e 7eaf d23c c2e8 de3d b267 12bd
00000010: 784b 0f3e 4746 7fbe a26a ad3d 17e1 9ebf
00000020: 008b 123e 21a1 20be 36e5 1abf a08f 5abe
00000030: 269c 0dbe 9e66 5e3e 6658 353f e1e3 cf3e
00000040: 849f 13bf fab5 97be 352e 73bf 2b5b 1cbf
00000050: 77ea 6cbf 7d29 563d b799 4fbf 17f8 183f
00000060: 1616 dc3b b761 29bd b2d8 d53c b463 88be
00000070: d91a b3bf 0278 863a c497 0ebe 6306 c2be
00000080: 9b5d 31bf ea67 fbbd 1b7a 5b3e 8cf5 0c3f
00000090: 1a07 2a3e e9d9 633e 3261 103f e7c7 adbc
000000a0: 1841 153e fad8 f7bd b713 3a3f e2e0 3c3e
000000b0: 422f 2e3e e7ed 9dbf 4729 9ebe 3724 cbbc
000000c0: c914 3f3f f32c 8bbc 389e bdbd 8e27 c03e
000000d0: da5d 803e 1782 90be 70c9 8dbf ef94 a03e
000000e0: d58c 0bbf cdd8 953e 46e2 8bbe 3e29 6bbd
000000f0: e6f8 c9be 8e0e f33e 8129 be3e 60b6 6bbf
00000100: 26ce 5dba 76dc dfbe ab4a a43d ac92 84bc
00000110: ffd3 2dbe e6d0 21bf f3d2 103f 1c51 223e
00000120: e470 933e 1b93 20bf 549e 7ebf 1931 7fbe
00000130: 5501 523f 7c15 cb3e 20d6 a13e 8172 b73e
00000140: 5dde 313f 555e b13e 047d 4fbe cdfd 7a3f
00000150: 2eba ef3d a675 c6bc 6f83 23bf a736 543e
00000160: 29e3 b33e 8978 213f 98d1 643d eea5 e6be
00000170: d073 bfbe a427 ef3e bc23 24bb 2e46 7abf
00000180: 0f01 f63c a971 8fbe bab0 8d3e 4530 87bf
00000190: b934 073e e0af 0b3f abee 07be 072c 863e
000001a0: ec2d ffbd d793 203f d8e5 4dbf 4438 093e
000001b0: fc0d b63e bc40 823d 6aca 033f 13d1 623e
000001c0: 830a e33e edd9 2e3d 03a0 bf3c dac3 5f3f
000001d0: f56f 17bf fce0 da3c 1463 ce3e f553 f03e
000001e0: 65cf 5ebf 68bc 7fbf cd66 553e ce36 9dbf
000001f0: 6651 043c 30d2 4cbf 6980 de3e 7659 d3be

bn1_state.running_mean f4 [128]
0.0 0.0 0.0 0.0 0.0 0.0 0.0 0.0
0.0 0.0 0.0 0.0 0.0 0.0 0.0 0.0
0.0 0.0 0.0 0.0 0.0 0.0 0.0 0.0
0.0 0.0 0.0 0.0 0.0 0.0 0.0 0.0
0.0 0.0 0.0 0.0 0.0 0.0 0.0 0.0
0.0 0.0 0.0 0.0 0.0 0.0 0.0 0.0
0.0 0.0 0.0 0.0 0.0 0.0 0.0 0.0
0.0 0.0 0.0 0.0 0.0 0.0 0.0 0.0
0.0 0.0 0.0 0.0 0.0 0.0 0.0 0.0
0.0 0.0 0.0 0.0 0.0 0.0 0.0 0.0
0.0 0.0 0.0 0.0 0.0 0.0 0.0 0.0
0.0 0.0 0.0 0.0 0.0 0.0 0.0 0.0
0.0 0.0 0.0 0.0 0.0 0.0 0.0 0.0
0.0 0.0 0.0 0.0 0.0 0.0 0.0 0.0
0.0 0.0 0.0 0.0 0.0 0.0 0.0 0.0
0.0 0.0 0.0 0.0 0.0 0.0 0.0 0.0
00000000: 0000 0000 0000 0000 0000 0000 0000 0000
00000010: 0000 0000 0000 0000 0000 0000 0000 0000
00000020: 0000 0000 0000 0000 0000 0000 0000 0000
00000030: 0000 0000 0000 0000 0000 0000 0000 0000
00000040: 0000 0000 0000 0000 0000 0000 0000 0000
00000050: 0000 0000 0000 0000 0000 0000 0000 0000
00000060: 0000 0000 0000 0000 0000 0000 0000 0000
00000070: 0000 0000 0000 0000 0000 0000 0000 0000
00000080: 0000 0000 0000 0000 0000 0000 0000 0000
00000090: 0000 0000 0000 0000 0000 0000 0000 0000
000000a0: 0000 0000 0000 0000 0000 0000 0000 0000
000000b0: 0000 0000 0000 0000 0000 0000 0000 0000
000000c0: 0000 0000 0000 0000 0000 0000 0000 0000
000000d0: 0000 0000 0000 0000 0000 0000 0000 0000
000000e0: 0000 0000 0000 0000 0000 0000 0000 0000
000000f0: 0000 0000 0000 0000 0000 0000 0000 0000
00000100: 0000 0000 0000 0000 0000 0000 0000 0000
00000110: 0000 0000 0000 0000 0000 0000 0000 0000
00000120: 0000 0000 0000 0000 0000 0000 0000 0000
00000130: 0000 0000 0000 0000 0000 0000 0000 0000
00000140: 0000 0000 0000 0000 0000 0000 0000 0000
00000150: 0000 0000 0000 0000 0000 0000 0000 0000
00000160: 0000 0000 0000 0000 0000 0000 0000 0000
00000170: 0000 0000 0000 0000 0000 0000 0000 0000
00000180: 0000 0000 0000 0000 0000 0000 0000 0000
00000190: 0000 0000 0000 0000 0000 0000 0000 0000
000001a0: 0000 0000 0000 0000 0000 0000 0000 0000
000001b0: 0000 0000 0000 0000 0000 0000 0000 0000
000001c0: 0000 0000 0000 0000 0000 0000 0000 0000
000001d0: 0000 0000 0000 0000 0000 0000 0000 0000
000001e0: 0000 0000 0000 0000 0000 0000 0000 0000
000001f0: 0000 0000 0000 0000 0000 0000 0000 0000

bn1_state.running_var f4 [128]
1.0 1.0 1.0 1.0 1.0 1.0 1.0 1.0
1.0 1.0 1.0 1.0 1.0 1.0 1.0 1.0
1.0 1.0 1.0 1.0 1.0 1.0 1.0 1.0
1.0 1.0 1.0 1.0 1.0 1.0 1.0 1.0
1.0 1.0 1.0 1.0 1.0 1.0 1.0 1.0
1.0 1.0 1.0 1.0 1.0 1.0 1.0 1.0
1.0 1.0 1.0 1.0 1.0 1.0 1.0 1.0
1.0 1.0 1.0 1.0 1.0 1.0 1.0 1.0
1.0 1.0 1.0 1.0 1.0 1.0 1.0 1.0
1.0 1.0 1.0 1.0 1.0 1.0 1.0 1.0
1.0 1.0 1.0 1.0 1.0 1.0 1.0 1.0
1.0 1.0 1.0 1.0 1.0 1.0 1.0 1.0
1.0 1.0 1.0 1.0 1.0 1.0 1.0 1.0
1.0 1.0 1.0 1.0 1.0 1.0 1.0 1.0
1.0 1.0 1.0 1.0 1.0 1.0 1.0 1.0
1.0 1.0 1.0 1.0 1.0 1.0 1.0 1.0
00000000: 0000 803f 0000 803f 0000 803f 0000 803f
00000010: 0000 803f 0000 803f 0000 803f 0000 803f
00000020: 0000 803f 0000 803f 0000 803f 0000 803f
00000030: 0000 803f 0000 803f 0000 803f 0000 803f
00000040: 0000 803f 0000 803f 0000 803f 0000 803f
00000050: 0000 803f 0000 803f 0000 803f 0000 803f
00000060: 0000 803f 0000 803f 0000 803f 0000 803f
00000070: 0000 803f 0000 803f 0000 803f 0000 803f
00000080: 0000 803f 0000 803f 0000 803f 0000 803f
00000090: 0000 803f 0000 803f 0000 803f 0000 803f
000000a0: 0000 803f 0000 803f 0000 803f 0000 803f
000000b0: 0000 803f 0000 803f 0000 803f 0000 803f
000000c0: 0000 803f 0000 803f 0000 803f 0000 803f
000000d0: 0000 803f 0000 803f 0000 803f 0000 803f
000000e0: 0000 803f 0000 803f 0000 803f 0000 803f
000000f0: 0000 803f 0000 803f 0000 803f 0000 803f
00000100: 0000 803f 0000 803f 0000 803f 0000 803f
00000110: 0000 803f 0000 803f 0000 803f 0000 803f
00000120: 0000 803f 0000 803f 0000 803f 0000 803f
00000130: 0000 803f 0000 803f 0000 803f 0000 803f
00000140: 0000 803f 0000 803f 0000 803f 0000 803f
00000150: 0000 803f 0000 803f 0000 803f 0000 803f
00000160: 0000 803f 0000 803f 0000 803f 0000 803f
00000170: 0000 803f 0000 803f 0000 803f 0000 803f
00000180: 0000 803f 0000 803f 0000 803f 0000 803f
00000190: 0000 803f 0000 803f 0000 803f 0000 803f
000001a0: 0000 803f 0000 803f 0000 803f 0000 803f
000001b0: 0000 803f 0000 803f 0000 803f 0000 803f
000001c0: 0000 803f 0000 803f 0000 803f 0000 803f
000001d0: 0000 803f 0000 803f 0000 803f 0000 803f
000001e0: 0000 803f 0000 803f 0000 803f 0000 803f
000001f0: 0000 803f 0000 803f 0000 803f 0000 803f

fc1_action.weight f4 [32, 2]
-0.43327707 2.0800924 2.292293 0.7938945 0.111246124 -0.7447979 1.2122946 1.3036387
2.347239 -0.08526307 -2.999424 0.2100332 -0.07907939 -1.207966 0.077862695 -1.3011737
-1.2797711 0.36351982 -0.4897491 -1.0747899 0.5135645 0.36314446 -0.22263989 -0.21583258
-1.1619893 -1.8971624 -0.90746725 0.9335928 -0.18045841 -0.8551214 0.66416115 -1.4733281
1.9502746 1.5368133 -1.1020273 -0.45816344 1.1235212 0.5844683 1.1429863 -0.88919336
0.077040516 -0.8886249 -3.4605377 0.007440358 1.2590393 0.08914581 0.36179167 1.2034554
-0.6590106 -0.78015494 -2.060846 0.41926566 2.2767777 1.940752 1.6893765 -1.5871633
0.39714527 0.036845606 -1.2496179 -1.1583081 -0.9177464 -2.475945 1.4274261 1.830212
00000000: 7ed6 ddbe 3c20 0540 eeb4 1240 ac3c 4b3f
00000010: 02d5 e33d 13ab 3ebf 782c 9b3f a2dd a63f
00000020: 2a39 1640 689e aebd 90f6 3fc0 f112 573e
00000030: 60f4 a1bd a19e 9abf 7a76 9f3d dc8c a6bf
00000040: 8acf a3bf 451f ba3e 65c0 fabe b792 89bf
00000050: f778 033f 12ee b93e b6fb 63be 3703 5dbe
00000060: 11bc 94bf 38d6 f2bf c64f 68bf f0ff 6e3f
00000070: 17ca 38be 3ce9 5abf 7706 2a3f 0496 bcbf
00000080: 99a2 f93f 4cb6 c43f 3b0f 8dbf 6694 eabe
00000090: 8bcf 8f3f b79f 153f 604d 923f 2da2 63bf
000000a0: 6bc7 9d3d ec7c 63bf 7379 5dc0 3fce f33b
000000b0: 3328 a13f 1492 b63d c23c b93e d40a 9a3f
000000c0: ebb4 28bf 3cb8 47bf e7e4 03c0 fda9 d63e
000000d0: bab6 1140 906a f83f 7d3d d83f 2b28 cbbf
000000e0: a056 cb3e 6beb 163d 7bf3 9fbf 7143 94bf
000000f0: 6ef1 6abf e275 1ec0 e6b5 b63f 6344 ea3f

fc1_action.bias f4 [32]
1.9420533 0.6563592 1.3586241 -0.9141518 1.2739583 -0.41947275 -1.8012869 -1.6104845
-1.0321314 -1.9976205 0.7363565 -1.9086248 0.84991515 1.3433732 -1.6005863 0.7354116
1.1068778 1.8222936 -0.53423715 1.393149 -1.9326513 1.7273339 -0.9161615 -0.6398895
1.1685696 -1.2002652 -1.0280982 -0.4243824 -0.3535359 -0.9330408 0.08435737 1.0861279
00000000: 3495 f83f 2807 283f 65e7 ad3f da05 6abf
00000010: 1111 a33f 22c5 d6be 9290 e6bf 5b24 cebf
00000020: e21c 84bf 07b2 ffbf dc81 3c3f d14d f4bf
00000030: 0a94 593f a7f3 ab3f 03e0 ccbf ef43 3c3f
00000040: 2cae 8d3f eb40 e93f c4c3 08bf b552 b23f
00000050: 1e61 f7bf 4719 dd3f 8f89 6abf cccf 23bf
00000060: b093 953f 4aa2 99bf b998 83bf a648 d9be
00000070: a802 b5be c3db 6ebf 8fc3 ac3d 3d06 8b3f

bn1_action.weight f4 [32]
1.9161562 1.4298309 2.6926994 1.6704872 1.348184 1.5312749 1.9453272 1.9367626
1.6530818 2.1318967 1.6834304 2.226473 1.668929 1.7574167 2.2120085 1.915552
1.5097039 1.7720726 1.5025426 1.5103586 2.1141727 1.2826352 1.7025706 1.9177431
1.5656528 1.4984397 1.618141 1.9580301 1.5528693 2.1290095 2.9319067 1.3930256
00000000: 9b44 f53f b304 b73f 3055 2c40 86d2 d53f
00000010: 4b91 ac3f d100 c43f 7b00 f93f d6e7 f73f
00000020: 2f98 d33f ff70 0840 a67a d73f 897e 0e40
00000030: 779f d53f 08f3 e03f 8c91 0d40 cf30 f53f
00000040: fa3d c13f 46d3 e23f 5153 c03f 6e53 c13f
00000050: 9b4e 0740 642d a43f d5ed d93f 9b78 f53f
00000060: 5067 c83f dfcc bf3f 3f1f cf3f bba0 fa3f
00000070: 6cc4 c63f b141 0840 5ca4 3b40 aa4e b23f

bn1_action.bias f4 [32]
1.2420284 0.71295935 1.0890781 -0.3646856 1.183833 -0.0142965065 -1.2187926 -1.2342762
-0.3770277 -1.3260833 0.8586043 -1.2546315 0.8411635 1.1524175 -1.4171892 0.62581486
1.3514327 1.4484905 -0.26844275 1.3202484 -1.2837772 1.2823426 -0.35611162 -0.3773034
1.069216 -0.5170356 -0.45126072 -0.10034587 -0.29447198 -0.47473106 0.14630352 1.3946693
00000000: c9fa 9e3f 8184 363f e966 8b3f 12b8 babe
00000010: d787 973f e53b 6abc 6501 9cbf c3fc 9dbf
00000020: c609 c1be 19bd a9bf 7ecd 5b3f c497 a0bf
00000030: 7e56 573f 6b82 933f 7566 b5bf 6735 203f
00000040: bffb ac3f 2368 b93f 5471 89be e6fd a83f
00000050: d052 a4bf cd23 a43f 4354 b6be e92d c1be
00000060: 12dc 883f 725c 04bf a50b e7be 2382 cdbd
00000070: 08c5 96be f30f f3be 97d0 153e 8684 b23f

bn1_action.running_mean f4 [32]
0.0 0.0 0.0 0.0 0.0 0.0 0.0 0.0
0.0 0.0 0.0 0.0 0.0 0.0 0.0 0.0
0.0 0.0 0.0 0.0 0.0 0.0 0.0 0.0
0.0 0.0 0.0 0.0 0.0 0.0 0.0 0.0
00000000: 0000 0000 0000 0000 0000 0000 0000 0000
00000010: 0000 0000 0000 0000 0000 0000 0000 0000
00000020: 0000 0000 0000 0000 0000 0000 0000 0000
00000030: 0000 0000 0000 0000 0000 0000 0000 0000
00000040: 0000 0000 0000 0000 0000 0000 0000 0000
00000050: 0000 0000 0000 0000 0000 0000 0000 0000
00000060: 0000 0000 0000 0000 0000 0000 0000 0000
00000070: 0000 0000 0000 0000 0000 0000 0000 0000

bn1_action.running_var f4 [32]
1.0 1.0 1.0 1.0 1.0 1.0 1.0 1.0
1.0 1.0 1.0 1.0 1.0 1.0 1.0 1.0
1.0 1.0 1.0 1.0 1.0 1.0 1.0 1.0
1.0 1.0 1.0 1.0 1.0 1.0 1.0 1.0
00000000: 0000 803f 0000 803f 0000 803f 0000 803f
00000010: 0000 803f 0000 803f 0000 803f 0000 803f
00000020: 0000 803f 0000 803f 0000 803f 0000 803f
00000030: 0000 803f 0000 803f 0000 803f 0000 803f
00000040: 0000 803f 0000 803f 0000 803f 0000 803f
00000050: 0000 803f 0000 803f 0000 803f 0000 803f
00000060: 0000 803f 0000 803f 0000 803f 0000 803f
00000070: 0000 803f 0000 803f 0000 803f 0000 803f

fc2.weight f4 [200, 160]
-0.66088283 -0.005928082 0.17838311 -0.010781214 0.045169823 -0.27720815 0.04283599 -0.027419828
0.1756835 -0.04282159 -0.24482805 0.07551907 -0.024772024 -0.06812439 0.190805 -0.0060824538
-0.051278554 -0.10730182 0.14667907 -0.23844272 -0.06261747 -0.07551974 -0.004894392 -0.0946495
-0.034715388 0.19364573 -0.1876209 -0.109103344 0.064487144 0.2881888 0.0959861 0.0862411
0.23827514 -0.15929829 0.007654187 -0.18218015 0.00091794913 -0.07731524 -0.060483452 -0.22679281
0.08054092 0.07724189 0.39210212 -0.039630886 0.093928084 -0.39893293 0.095039815 0.017147847
-0.0015896484 0.09173824 -0.08381043 -0.12464441 -0.039147276 -0.019009892 0.106565006 0.05365583
0.10427974 -0.1333631 0.18602222 -0.011063406 -2.1452725 0.114201814 0.48623237 -0.10035099
0.12913729 -0.011639818 -0.17500032 0.008146072 0.1475405 0.31101435 0.045001894 -0.22182122
-0.07840311 -0.037253495 -0.16631928 0.11176966 -0.040168636 -0.53631586 -0.047028605 -0.27573168
0.074462146 0.04117016 0.066779345 0.17410462 0.20295025 0.50382733 0.055589482 -0.02517794
0.0549716 0.14344989 -0.03322523 0.13152026 0.066160776 -0.13886447 -0.039616615 -0.09121126
-1.8194493 0.10373362 0.011515372 0.018886775 -0.0021807388 0.15366405 0.00818085 0.08119448
-0.694448 0.12361069 -0.3456202 0.007907564 -0.09204743 0.0306254 -0.05805889 0.06489159
0.0138762 -0.040997222 0.15310933 -0.06595223 0.04094996 0.17390595 -0.13853978 0.15258035
-0.0046968646 -0.23073487 0.15716751 0.010344346 0.93491215 0.06813156 0.1600609 -0.15804094
-0.12787423 -0.02602413 0.042837325 -0.27979025 -0.012114184 0.012326093 -0.08428057 0.09098038
-0.36824384 -0.028505819 -0.00064362196 0.07987041 0.040369783 -0.24031392 0.16114962 0.23011069
-0.11758409 -0.19210744 -0.107134916 -0.04854581 -0.20653029 -0.12057593 -0.11959216 -0.12422273
0.033966947 -0.05393244 0.09459824 0.07690077 -0.5162679 0.113068976 -0.0059062587 0.027319351
-0.08223612 0.07489126 0.10379154 -0.081701785 0.08258674 0.24638638 -0.009440997 -0.031211345
-0.012182385 0.059561763 0.076449685 -0.1615471 -0.030858023 -0.07139077 -0.03272024 0.015318765
0.0930393 -0.01163481 0.046752054 0.12454795 0.0030073002 -0.07000815 0.1319221 0.022869715
0.061656807 -0.0050751753 0.15368168 -0.15662906 -0.0341654 0.017239396 0.13658312 -0.12614922
-0.12095138 0.0019040481 0.09087455 -0.028071458 -0.19293089 0.020093247 0.11470638 -0.050757527
-0.05802509 -0.048858907 -0.07223321 0.14739953 -0.005554632 -0.013206359 -0.026775368 0.03443822
0.078802995 0.07466193 0.0031838226 0.29425687 0.13411838 -0.12040076 -0.123296805 0.037356656
-0.0073008044 0.001716124 0.0061318795 -0.056875024 -0.1371543 -0.10508777 -0.06357595 0.050650984
0.13703477 0.015702536 -0.15654555 0.15012342 -0.007386122 -0.15962379 0.09771211 0.08419277
-0.12328588 -0.2626423 0.04072697 -0.03657262 -0.020979386 0.14002894 0.022475742 -0.010797297
-0.1503118 0.024666198 0.13022156 -0.025272321 0.042766888 -0.20711629 0.11842259 0.018714342
0.2881651 0.0030178407 -0.010958016 0.06707862 -0.10211051 0.06007238 0.019034535 -0.105722815
00000000: 9e2f 29bf 5b40 c2bb 10aa 363e b0a3 30bc
00000010: fe03 393d 3aee 8dbe cb74 2f3d 8c9f e0bc
00000020: 60e6 333e b165 2fbd 34b4 7abe bea9 9a3d
00000030: b3ee cabc cd84 8bbd 6362 433e 524f c7bb
00000040: 7609 52bd 0ec1 dbbd 0a33 163e 542a 74be
00000050: 973d 80bd 18aa 9abd 2361 a0bb 99d7 c1bd
00000060: b931 0ebd 114b 463e b11f 40be 9371 dfbd
00000070: d611 843d 7b8d 933e 5c94 c43d 2d9f b03d
00000080: 66fe 733e 171f 23be f9cf fa3b 6f8d 3abe
00000090: 86a2 703a 7457 9ebd 7fbd 77bd 603c 68be
000000a0: a3f2 a43d ff30 9e3d 9cc1 c83e ff53 22bd
000000b0: 5e5d c03d f040 ccbe 3ca4 c23d a479 8c3c
000000c0: c05b d0ba 42e1 bb3d cda4 abbd 9245 ffbd
000000d0: e558 20bd a2ba 9bbc c13e da3d 37c6 5b3d
000000e0: 9e90 d53d 5690 08be 9c7c 3e3e 4a43 35bc
000000f0: 254c 09c0 a4e2 e93d 73f3 f83e d284 cdbd
00000100: 913c 043e efb4 3ebc 4933 33be 1a77 053c
00000110: db14 173e 463d 9f3e e853 383d 1a25 63be
00000120: cf91 a0bd 1f97 18bd 9a4f 2abe 7ee7 e43d
00000130: de87 24bd ff4b 09bf 11a1 40bd b42c 8dbe
00000140: 9c7f 983d 0ba2 283d 9cc3 883d 7b48 323e
00000150: 31d2 4f3e d4fa 003f ccb1 633d f841 cebc
00000160: e729 613d 87e4 123e 2e17 08bd 3fad 063e
00000170: 4d7f 873d 7d32 0ebe 0845 22bd f8cc babd
00000180: b7e3 e8bf 4b72 d43d f9aa 3c3c 70b8 9a3c
00000190: baea 0ebb 1c5a 1d3e f908 063c 4b49 a63d
000001a0: 58c7 31bf 9a27 fd3d 21f5 b0be ba8e 013c
000001b0: 5d83 bcbd 1ee2 fa3c 29cf 6dbd e2e5 843d
000001c0: 0059 633c b4ec 27bd b1c8 1c3e f611 87bd
000001d0: 25bb 273d 6714 323e 5fdd 0dbe 063e 1c3e
000001e0: 28e8 99bb c345 6cbe 85f0 203e 557b 293c
000001f0: 6756 6f3f 8f88 8b3d 01e7 233e 7cd5 21be
00000200: 76f1 02be 8e30 d5bc 3176 2f3d ab40 8fbe
00000210: 927a 46bc 62f3 493c 4b9b acbd ec53 ba3d
00000220: 758a bcbe 0985 e9bc bdb8 28ba 1993 a33d
00000230: c95a 253d da14 76be 6804 253e 23a2 6b3e
00000240: edcf f0bd d0b7 44be 8d69 dbbd f9d7 46bd
00000250: ad7c 53be 83f0 f6bd bcec f4bd 7d68 febd
00000260: ed20 0b3d 43e8 5cbd b9bc c13d 277e 9d3d
00000270: 222a 04bf b590 e73d 4a89 c1bb d5cc df3c
00000280: 696b a8bd 9760 993d a990 d43d 4453 a7bd
00000290: 3d23 a93d b64c 7c3e 69ae 1abc efae ffbc
000002a0: a098 47bc 09f7 733d a791 9c3d 9a6c 25be
000002b0: f7c9 fcbc 5335 92bd a905 06bd 8ffb 7a3c
000002c0: 638b be3d ee9f 3ebc 157f 3f3d ff12 ff3d
000002d0: 2016 453b 6f60 8fbd 9616 073e 4559 bb3c
000002e0: d98b 7c3d a84d a6bb bb5e 1d3e 5e63 20be
000002f0: 05f1 0bbd a239 8d3c 72dc 0b3e 432d 01be
00000300: 5bb5 f7bd 4191 f93a 701c ba3d 1df6 e5bc
00000310: ad8f 45be 989a a43c 2eeb ea3d 20e7 4fbd
00000320: b7ab 6dbd 4720 48bd 01ef 93bd e7ef 163e
00000330: a103 b6bb 7c5f 58bc 0458 dbbc 170f 0d3d
00000340: 7763 a13d 5be8 983d aea7 503b d6a8 963e
00000350: 5456 093e ac94 f6bd 0983 fcbd 4b03 193d
00000360: 963b efbb 91ef e03a efed c83b c9f5 68bd
00000370: 2d72 0cbe 4238 d7bd 1c34 82bd 6877 4f3d
00000380: d852 0c3e 9ba2 803c 7a4d 20be f4b9 193e
00000390: 4807 f2bb 6b74 23be 491d c83d 426d ac3d
000003a0: 4f7d fcbd 0d79 86be 53d1 263d 2ccd 15bd
000003b0: f6dc abbc bf63 0f3e 0c1f b83c 25e7 30bc
000003c0: 56eb 19be c410 ca3c cd58 053e e607 cfbc
000003d0: 552c 2f3d 4b16 54be 8b87 f23d d24e 993c
000003e0: 608a 933e f7c6 453b 4089 33bc 8460 893d
000003f0: 511f d1bd 750e 763d 50ee 9b3c 3485 d8bd

fc2.bias f4 [200]
-0.056587692 1.3894379 -1.1934491 0.22090605 0.23517933 -0.024918491 0.36080638 -0.19785957
-0.33272156 0.5723117 0.33752364 -0.13983084 -0.306075 0.02414967 0.11929421 -0.85180384
0.13476276 0.26513666 0.1169515 -0.35045677 -0.088693626 0.055641107 0.50164694 1.4364225
0.12035825 0.20358045 -0.27236134 -0.18448623 0.3765788 0.5402445 0.015490656 -0.6648215
-0.013058776 -0.020856397 0.28348017 0.042170014 0.96415067 0.4780536 0.34183696 -1.1135708
-0.74792606 -0.106639065 0.858951 0.058889437 0.17959422 0.101080865 0.34199437 -0.33697537
0.24045809 0.1527917 0.31603172 -0.23695481 0.15573634 0.02550073 -0.26949692 -0.040024802
1.0535588 -0.0642996 -1.0748665 -0.048991647 -0.056421854 -0.3369887 -0.02094055 -0.17553034
-0.4687174 0.09155768 0.28163078 0.067456655 0.76564336 0.15354504 0.6322193 -0.80766755
0.06309303 0.0003611258 0.8362687 -0.020671142 -0.03514004 -0.24210045 -0.13561472 -0.22783759
0.5760044 0.28481713 -0.88942796 0.13778071 -0.5866985 -0.86448705 -0.6637209 -0.9349331
-0.15612172 -0.45543617 0.13999605 -1.2415338 0.17319578 -0.48510218 -0.40359753 -1.2182542
-0.9657325 0.9738114 0.371296 -0.506979 -0.22364211 0.11903843 -0.18846725 0.58152825
0.22978358 -0.41455397 -0.08987412 -0.6285675 -0.029073322 -0.5391093 0.20746076 -0.10186152
-0.35437372 -0.20194465 -0.24331306 -0.42728174 0.21025021 -0.10449462 0.45856652 0.2508106
-0.061302546 -0.072051525 0.021385418 1.4108955 0.17548004 -0.5772667 0.1885271 0.14690791
0.48946562 0.006022855 0.31432936 -0.5207038 -0.7557337 -0.2862595 0.32947478 -1.144006
0.051251687 -0.09385802 0.038618088 0.4979736 -0.010909811 0.23026416 1.0931544 -0.6992431
-0.23990175 -0.8518823 -0.054896086 0.08123002 -0.17859353 0.43775398 -0.0802693 -0.6140384
0.011992079 0.2927582 -0.48002183 1.0170643 0.65014315 0.7861803 -0.010129734 0.1094133
-0.08774169 1.3303058 0.076543614 -0.23747945 0.40246186 -0.26361412 0.26120886 -0.06352416
-0.09197869 0.41723713 0.2605054 -0.22335121 0.05532275 -0.40430203 -0.019708999 -0.37466437
0.25582364 0.20517279 0.38764086 0.5964395 0.21372822 -0.20297892 0.31634063 0.054065347
0.66635686 -0.028121587 0.3208316 0.05275334 0.13698414 0.92596203 0.09339771 0.038025737
0.29194385 -1.441823 0.11198054 -0.22279549 0.18846355 -0.2328409 0.17134947 -0.7806693
00000000: 7fc8 67bd 1ad9 b13f f1c2 98bf 3235 623e
00000010: dad2 703e dd21 ccbc 9dbb b83e b39b 4abe
00000020: 7b5a aabe 0583 123f e6cf ac3e d12f 0fbe
00000030: ddb5 9cbe 87d5 c53c 8650 f43d d10f 5abf
00000040: 40ff 093e febf 873e 4584 ef3d 126f b3be
00000050: 01a5 b5bd eee7 633d ef6b 003f b1dc b73f
00000060: 637e f63d 6577 503e f272 8bbe f5e9 3cbe
00000070: f0ce c03e 774d 0a3f 85cc 7d3c be31 2abf
00000080: 7af4 55bc 09db aabc 5024 913e 77ba 2c3d
00000090: 94d2 763f 71c3 f43e 4105 af3e 7d89 8ebf
000000a0: 1578 3fbf 9565 dabd 36e4 5b3f 0d36 713d
000000b0: 8ce7 373e 7c03 cf3d e319 af3e 0988 acbe
000000c0: a53a 763e 6d75 1c3e e9ce a13e 48a4 72be
000000d0: 5979 1f3e e8e6 d03c 80fb 89be 0cf1 23bd
000000e0: 04db 863f 82af 83bd 3a95 89bf 77ab 48bd
000000f0: 9a1a 67bd c889 acbe 848b abbc 3abe 33be
00000100: bafb efbe 9882 bb3d e931 903e b726 8a3d
00000110: 3401 443f e93a 1d3e 20d9 213f 4dc3 4ebf
00000120: eb36 813d 7c55 bd39 b515 563f 8756 a9bc
00000130: 01ef 0fbd 2ee9 77be 96de 0abe 424e 69be
00000140: 0675 133f 8dd3 913e 8db1 63bf 6316 0d3e
00000150: df31 16bf 064f 5dbf 9de9 29bf c757 6fbf
00000160: 5fde 1fbe ee2e e9be 205b 0f3e 94ea 9ebf
00000170: 3c5a 313e 505f f8be 56a4 cebe c1ef 9bbf
00000180: 3f3a 77bf b44b 793f 821a be3e 60c9 01bf
00000190: 7002 65be 6cca f33d 8ffd 40be 09df 143f
000001a0: 634c 6b3e 6b40 d4be ec0f b8bd cde9 20bf
000001b0: 2d2b eebc 1103 0abf 9870 543e c69c d0bd
000001c0: 7970 b5be 94ca 4ebe 0f27 79be acc4 dabe
000001d0: d54b 573e 4601 d6bd 3bc9 ea3e 3f6a 803e
000001e0: 6118 7bbd c08f 93bd 7930 af3c 3998 b43f
000001f0: 0ab1 333e c0c7 13bf 400d 413e 076f 163e
00000200: 3d9b fa3e 5f5b c53b c7ef a03e d84c 05bf
00000210: c477 41bf 9b90 92be ebb0 a83e ca6e 92bf
00000220: 4aed 513d a238 c0bd 002e 1e3d 65f6 fe3e
00000230: 10bf 32bc 5eca 6b3e 7cec 8b3f 9901 33bf
00000240: cea8 75be f514 5abf b8da 60bd ed5b a63d
00000250: 39e1 36be 4a21 e03e 3b64 a4bd 9f31 1dbf
00000260: 6d7a 443c 67e4 953e 6cc5 f5be 2a2f 823f
00000270: c86f 263f 1d43 493f 2ff7 25bc 1514 e03d
00000280: eab1 b3bd 7647 aa3f e6c2 9c3d d02d 73be
00000290: 7b0f ce3e 6ef8 86be 2bbd 853e f418 82bd
000002a0: 535f bcbd 1ba0 d53e f760 853e 2eb6 64be
000002b0: 1c9a 623d ad00 cfbe c474 a1bc 02d4 bfbe
000002c0: 51fb 823e d118 523e dd78 c63e 42b0 183f
000002d0: 92db 5a3e b5d9 4fbe 66f7 a13e a073 5d3d
000002e0: 5d96 2a3f 3e5f e6bc 0a44 a43e e313 583d
000002f0: 9245 0c3e d90b 6d3f 4c47 bf3d e0c0 1b3d
00000300: aa79 953e a88d b8bf 0e56 e53d 8024 64be
00000310: 97fc 403e d86d 6ebe 3c76 2f3e f1d9 47bf

bn2.weight f4 [200]
1.2814034 1.1049172 1.2891393 1.0754975 1.0369513 0.60772675 1.0474485 1.7257129
0.82214975 1.082168 1.3565851 1.5597285 1.1863488 1.0315636 1.3413918 0.759077
1.2492269 1.1599919 0.72677404 1.0967386 0.7331044 0.96466136 0.5405295 1.1217844
1.4056315 1.0528146 1.3074557 0.8828822 1.0670179 1.4246504 1.3425997 1.0186553
1.5208547 1.0956488 1.373175 1.0490688 0.77747583 1.4364516 0.9138475 0.97377944
1.3115041 0.94379187 1.2214389 1.4837046 1.1274271 1.2372718 1.317777 0.9708393
1.2611439 1.2994072 1.1735553 1.3241419 1.1870142 1.427243 1.1416012 0.77196646
0.9329473 0.861362 0.78643215 1.3115592 1.4842918 1.5640451 1.3653849 1.2208338
0.8855597 1.1747031 1.4968702 0.73773944 1.1797539 1.2919832 0.7280023 0.8889847
0.75304526 1.5429196 1.151314 1.0949377 0.7822693 1.2843443 0.75794053 0.7260879
1.056358 1.0766457 1.6047817 1.3325839 1.3633571 1.0842726 0.80256826 0.9954537
1.0442622 1.1501145 1.3662664 1.4597434 0.8908352 1.5285501 0.70714664 0.70168066
1.0868236 1.0573794 1.200946 1.263106 0.92581564 0.665672 0.91861045 1.1251851
1.150149 0.9028715 1.1925119 1.2462302 1.147007 1.526834 1.1396011 1.4814045
0.78757876 2.0306377 0.6976423 1.249002 1.040816 0.80769974 0.5999557 1.1014837
1.1715401 1.219558 1.1416596 1.1802921 1.0659904 0.8601862 0.991947 1.5281624
0.92635906 0.9723713 1.1948161 1.76411 1.0211868 1.371711 0.9766237 1.0268778
1.4317584 0.87900954 0.8988168 1.4078602 1.2723086 1.2665954 1.2839588 0.934558
0.90194654 0.9544326 1.2107666 0.9464425 1.1006514 0.82698476 1.3170927 0.92349863
1.1729431 1.2956897 0.8867566 0.88184667 0.7022786 0.77676255 0.54777956 1.1747364
1.1539534 1.4076258 1.2010063 0.50877684 1.3402818 0.6857062 1.0713192 1.6396708
0.6478144 0.82762957 0.6312407 0.7495927 1.40296 0.8318464 0.9975676 0.7361419
0.8617161 1.0398865 1.4661764 1.4032862 1.2244018 1.2502735 1.176214 1.7756567
1.1822097 0.8999914 1.3804293 1.0172408 1.1656212 0.79790556 1.3390294 1.1056497
1.3636832 0.931682 1.20807 1.2360275 0.9558262 1.7134119 0.580745 0.7318066
00000000: 0705 a43f ed6d 8d3f 8402 a53f e7a9 893f
00000010: d2ba 843f fb93 1b3f cb12 863f 29e4 dc3f
00000020: 6878 523f 7b84 8a3f 95a4 ad3f 2fa5 c73f
00000030: 47da 973f 470a 843f bab2 ab3f df52 423f
00000040: abe6 9f3f 9d7a 943f dd0d 3a3f ee61 8c3f
00000050: bbac 3b3f 0cf4 763f 2460 0a3f a296 8f3f
00000060: bceb b33f a1c2 863f b55a a73f 9104 623f
00000070: 0b94 883f f25a b63f 4fda ab3f 4c63 823f
00000080: 5eab c23f 383e 8c3f 33c4 af3f e347 863f
00000090: a808 473f a5dd b73f e9f1 693f 9c49 793f
000000a0: 5edf a73f 589c 713f 1c58 9c3f 08ea bd3f
000000b0: 884f 903f ec5e 9e3f ebac a83f ed88 783f
000000c0: 2a6d a13f fa52 a63f 0f37 963f 7b7d a93f
000000d0: 15f0 973f e6af b63f fd1f 923f 989f 453f
000000e0: a2d5 6e3f 3882 5c3f 9e53 493f 2ce1 a73f
000000f0: 46fd bd3f a132 c83f efc4 ae3f 4844 9c3f
00000100: 0ab4 623f ac5c 963f 7199 bf3f 7edc 3c3f
00000110: 2d02 973f b55f a53f 5c5e 3a3f 8094 633f
00000120: 93c7 403f 647e c53f 425e 933f eb26 8c3f
00000130: cd42 483f 6565 a43f 6408 423f e6e0 393f
00000140: bd36 873f 87cf 893f 7d69 cd3f 1c92 aa3f
00000150: 7c82 ae3f 72c9 8a3f 1d75 4d3f 0ed6 7e3f
00000160: 62aa 853f f436 933f d1e1 ae3f dfd8 ba3f
00000170: c70d 643f 88a7 c33f 9007 353f 58a1 333f
00000180: 091d 8b3f 3558 873f 99b8 993f 75ad a13f
00000190: 4102 6d3f 7b69 2a3f 0e2a 6b3f 1106 903f
000001a0: 1538 933f 9622 673f 3ba4 983f 7984 9f3f
000001b0: 20d1 923f 4c6f c33f 73de 913f aa9e bd3f
000001c0: c39e 493f f8f5 0140 b098 323f 4cdf 9f3f
000001d0: 7539 853f 69c5 4e3f b296 193f 6bfd 8c3f
000001e0: 07f5 953f 7a1a 9c3f e721 923f d013 973f
000001f0: 6072 883f 2a35 5c3f 3df0 7d3f d39a c33f
00000200: de25 6d3f 53ed 783f bcef 983f 5bce e13f
00000210: 40b6 823f 3a94 af3f 0304 7a3f bb70 833f
00000220: dc43 b73f c506 613f dc18 663f c334 b43f
00000230: 02db a23f cc1f a23f c358 a43f 313f 6f3f
00000240: f8e5 663f b255 743f 66fa 9a3f 0e4a 723f
00000250: 25e2 8c3f 46b5 533f 7e96 a83f 686a 6c3f
00000260: 0023 963f 29d9 a53f 7b02 633f b4c0 613f
00000270: 88c8 333f e9d9 463f 483b 0c3f c35d 963f
00000280: bfb4 933f 152d b43f 93ba 993f 333f 023f
00000290: 5b8e ab3f 718a 2f3f fd20 893f bce0 d13f
000002a0: 2ad7 253f 88df 533f fe98 213f 4fe5 3f3f
000002b0: 3194 b33f e3f3 543f 9760 7f3f cc73 3c3f
000002c0: 6d99 5c3f 001b 853f abab bb3f e29e b33f
000002d0: 33b9 9c3f f608 a03f 2e8e 963f b848 e33f
000002e0: a652 973f d665 663f e8b1 b03f f234 823f
000002f0: 1333 953f 8a43 4c3f 5165 ab3f ee85 8d3f
00000300: 2c8d ae3f b682 6e3f 0aa2 9a3f 2636 9e3f
00000310: 07b1 743f 1551 db3f b4ab 143f ad57 3b3f

bn2.bias f4 [200]
-0.045582354 1.4103146 -1.1521004 0.17403208 0.19546252 0.02124816 0.42051828 -0.19208145
-0.40342093 0.5586645 0.28866026 -0.13413142 -0.24064535 0.10304105 0.11651932 -0.8210533
0.06587487 0.337264 0.07783101 -0.27537787 -0.098098 0.1351759 0.5355407 1.4525502
0.04358235 0.27249563 -0.28838876 -0.18910293 0.3831575 0.5687824 -0.040071867 -0.5925559
-0.032363158 -0.076261245 0.27134153 -0.008718017 0.95510966 0.4937118 0.30399576 -1.0389347
-0.80078906 -0.069769606 0.802781 0.08185596 0.18017292 0.063674234 0.329536 -0.35864362
0.31088182 0.100284375 0.2895232 -0.23047878 0.18637693 0.08739933 -0.33682418 0.02291409
1.1112763 -0.032879632 -0.99600273 -0.015245733 0.01074099 -0.29520333 0.03927418 -0.2237408
-0.4166414 0.1701293 0.30956498 0.07033192 0.7462424 0.09971662 0.7066927 -0.8393537
-0.01109329 0.023158934 0.7804908 -0.07391257 0.046897415 -0.2171371 -0.13661872 -0.30088913
0.5868172 0.28582874 -0.9451722 0.115001656 -0.51130813 -0.8635359 -0.6028186 -1.0072556
-0.1695048 -0.50576013 0.19160302 -1.2105689 0.20011769 -0.42530477 -0.33291608 -1.1716548
-0.89917225 0.96155 0.3664634 -0.46452028 -0.16435006 0.16740024 -0.13370043 0.59128195
0.2388859 -0.40048116 -0.038317572 -0.6227359 0.012148153 -0.48143557 0.2607475 -0.039882656
-0.31127158 -0.12393673 -0.16287956 -0.34759155 0.28178173 -0.022126092 0.39335835 0.22490878
-0.02231257 -0.11545053 -0.019627351 1.4589963 0.104796514 -0.5866494 0.1273261 0.07120973
0.42419976 0.028445546 0.28075796 -0.56682223 -0.760713 -0.25271052 0.2711842 -1.1532383
0.029036466 -0.15353063 0.05770979 0.5569092 0.029341128 0.21025163 1.129561 -0.6725806
-0.19660802 -0.80745023 -0.045987163 0.108508125 -0.15164024 0.48397118 -0.06876603 -0.6304818
0.07161729 0.30123165 -0.4446026 1.0128982 0.71838516 0.77446693 0.010084569 0.07300085
-0.10761132 1.26394 0.07935005 -0.28742757 0.34677836 -0.18801335 0.3109064 -0.046161998
-0.113081574 0.39401495 0.20743579 -0.19175531 0.06794041 -0.41024342 -0.0651091 -0.38707757
0.19972144 0.20361222 0.46904245 0.559854 0.20083064 -0.20568265 0.24131528 0.08912219
0.60107356 0.048270743 0.34022522 0.059090804 0.089254476 0.99379927 0.09309639 0.07227162
0.30712128 -1.3632503 0.05065128 -0.1472101 0.17481285 -0.19759779 0.1319178 -0.7124915
00000000: 90b4 3abd 3085 b43f 0778 93bf 7735 323e
00000010: 5427 483e 9f10 ae3c 2c4e d73e 00b1 44be
00000020: 308d cebe a304 0f3f 47cb 933e bf59 09be
00000030: bc6b 76be 3007 d33d aea1 ee3d 8d30 52bf
00000040: 67e9 863d dead ac3e dd65 9f3d 54fe 8cbe
00000050: 9be7 c8bd 8d6b 0a3e 3219 093f 2aed b93f
00000060: 6883 323d 8c84 8b3e b1a7 93be 33a4 41be
00000070: 382d c43e b99b 113f 6622 24bd beb1 17bf
00000080: 3b8f 04bd db2e 9cbd 47ed 8a3e 03d6 0ebc
00000090: 1182 743f cbc7 fc3e 55a5 9b3e d0fb 84bf
000000a0: 8300 4dbf 5ee3 8ebd 0e83 4d3f 19a4 a73d
000000b0: 407f 383e a367 823d f1b8 a83e 23a0 b7be
000000c0: e72b 9f3e e561 cd3d 633c 943e a102 6cbe
000000d0: 98d9 3e3e 6cfe b23d 3874 acbe 54b6 bb3c
000000e0: 4d3e 8e3f cbac 06bd 09fa 7ebf 3dc9 79bc
000000f0: fafa 2f3c e424 97be f6dd 203d 4f1c 65be
00000100: 0652 d5be 6036 2e3e 4d7f 9e3e 2f0a 903d
00000110: be09 3f3f 3a38 cc3d d0e9 343f e2df 56bf
00000120: a1c0 35bc ceb7 bd3c 3fce 473f 795f 97bd
00000130: 8117 403d 3059 5ebe c7e5 0bbe 240e 9abe
00000140: a739 163f 2558 923e cef6 71bf fd85 eb3d
00000150: 17e5 02bf b010 5dbf 5252 1abf c0ed 80bf
00000160: ab92 2dbe 7f79 01bf 9533 443e ecf3 9abf
00000170: a7eb 4c3e 8cc1 d9be fa73 aabe c9f8 95bf
00000180: 2730 66bf 2428 763f 17a1 bb3e 9ad5 edbe
00000190: 624b 28be f86a 2b3e c4e8 08be 415e 173f
000001a0: 819e 743e de0b cdbe e3f2 1cbd 9f6b 1fbf
000001b0: 0c09 473c b97e f6be b280 853e ff5b 23bd
000001c0: fd5e 9fbe 8ad2 fdbd e6c9 26be 85f7 b1be
000001d0: b245 903e c741 b5bc 4466 c93e 7d4e 663e
000001e0: dac8 b6bc 5471 ecbd 8ac9 a0bc 64c0 ba3f
000001f0: 8e9f d63d a82e 16bf c661 023e 68d6 913d
00000200: b630 d93e a206 e93c 82bf 8f3e 431b 11bf
00000210: 16be 42bf 4663 81be a8d8 8a3e 509d 93bf
00000220: e2dd ed3c 2237 1dbe 1a61 6c3d 9a91 0e3f
00000230: ce5c f03c 344c 573e 7495 903f 3e2e 2cbf
00000240: 9d53 49be 0fb5 4ebf 095d 3cbd 8239 de3d
00000250: 9447 1bbe 12cb f73e 34d5 8cbd 4167 21bf
00000260: 16ac 923d 093b 9a3e f4a2 e3be a6a6 813f
00000270: 17e8 373f 7743 463f c039 253c 7881 953d
00000280: 5363 dcbd c9c8 a13f 4782 a23d b529 93be
00000290: ef8c b13e 9286 40be 202f 9f3e 5d14 3dbd
000002a0: 5097 e7bd 54bc c93e 0c6a 543e 815b 44be
000002b0: 5724 8b3d 6d0b d2be eb57 85bd 082f c6be
000002c0: c783 4c3e b97f 503e 5526 f03e 9752 0f3f
000002d0: 8ca6 4d3e 799e 52be 5a1b 773e b285 b63d
000002e0: f5df 193f 8bb7 453d 0032 ae3e 3309 723d
000002f0: 0dcb b63d a169 7e3f 52a9 be3d 2503 943d
00000300: 003f 9d3e fc7e aebf b777 4f3d 3fbe 16be
00000310: 2402 333e 1357 4abe 7615 073e d865 36bf

bn2.running_mean f4 [200]
0.0 0.0 0.0 0.0 0.0 0.0 0.0 0.0
0.0 0.0 0.0 0.0 0.0 0.0 0.0 0.0
0.0 0.0 0.0 0.0 0.0 0.0 0.0 0.0
0.0 0.0 0.0 0.0 0.0 0.0 0.0 0.0
0.0 0.0 0.0 0.0 0.0 0.0 0.0 0.0
0.0 0.0 0.0 0.0 0.0 0.0 0.0 0.0
0.0 0.0 0.0 0.0 0.0 0.0 0.0 0.0
0.0 0.0 0.0 0.0 0.0 0.0 0.0 0.0
0.0 0.0 0.0 0.0 0.0 0.0 0.0 0.0
0.0 0.0 0.0 0.0 0.0 0.0 0.0 0.0
0.0 0.0 0.0 0.0 0.0 0.0 0.0 0.0
0.0 0.0 0.0 0.0 0.0 0.0 0.0 0.0
0.0 0.0 0.0 0.0 0.0 0.0 0.0 0.0
0.0 0.0 0.0 0.0 0.0 0.0 0.0 0.0
0.0 0.0 0.0 0.0 0.0 0.0 0.0 0.0
0.0 0.0 0.0 0.0 0.0 0.0 0.0 0.0
0.0 0.0 0.0 0.0 0.0 0.0 0.0 0.0
0.0 0.0 0.0 0.0 0.0 0.0 0.0 0.0
0.0 0.0 0.0 0.0 0.0 0.0 0.0 0.0
0.0 0.0 0.0 0.0 0.0 0.0 0.0 0.0
0.0 0.0 0.0 0.0 0.0 0.0 0.0 0.0
0.0 0.0 0.0 0.0 0.0 0.0 0.0 0.0
0.0 0.0 0.0 0.0 0.0 0.0 0.0 0.0
0.0 0.0 0.0 0.0 0.0 0.0 0.0 0.0
0.0 0.0 0.0 0.0 0.0 0.0 0.0 0.0
00000000: 0000 0000 0000 0000 0000 0000 0000 0000
00000010: 0000 0000 0000 0000 0000 0000 0000 0000
00000020: 0000 0000 0000 0000 0000 0000 0000 0000
00000030: 0000 0000 0000 0000 0000 0000 0000 0000
00000040: 0000 0000 0000 0000 0000 0000 0000 0000
00000050: 0000 0000 0000 0000 0000 0000 0000 0000
00000060: 0000 0000 0000 0000 0000 0000 0000 0000
00000070: 0000 0000 0000 0000 0000 0000 0000 0000
00000080: 0000 0000 0000 0000 0000 0000 0000 0000
00000090: 0000 0000 0000 0000 0000 0000 0000 0000
000000a0: 0000 0000 0000 0000 0000 0000 0000 0000
000000b0: 0000 0000 0000 0000 0000 0000 0000 0000
000000c0: 0000 0000 0000 0000 0000 0000 0000 0000
000000d0: 0000 0000 0000 0000 0000 0000 0000 0000
000000e0: 0000 0000 0000 0000 0000 0000 0000 0000
000000f0: 0000 0000 0000 0000 0000 0000 0000 0000
00000100: 0000 0000 0000 0000 0000 0000 0000 0000
00000110: 0000 0000 0000 0000 0000 0000 0000 0000
00000120: 0000 0000 0000 0000 0000 0000 0000 0000
00000130: 0000 0000 0000 0000 0000 0000 0000 0000
00000140: 0000 0000 0000 0000 0000 0000 0000 0000
00000150: 0000 0000 0000 0000 0000 0000 0000 0000
00000160: 0000 0000 0000 0000 0000 0000 0000 0000
00000170: 0000 0000 0000 0000 0000 0000 0000 0000
00000180: 0000 0000 0000 0000 0000 0000 0000 0000
00000190: 0000 0000 0000 0000 0000 0000 0000 0000
000001a0: 0000 0000 0000 0000 0000 0000 0000 0000
000001b0: 0000 0000 0000 0000 0000 0000 0000 0000
000001c0: 0000 0000 0000 0000 0000 0000 0000 0000
000001d0: 0000 0000 0000 0000 0000 0000 0000 0000
000001e0: 0000 0000 0000 0000 0000 0000 0000 0000
000001f0: 0000 0000 0000 0000 0000 0000 0000 0000
00000200: 0000 0000 0000 0000 0000 0000 0000 0000
00000210: 0000 0000 0000 0000 0000 0000 0000 0000
00000220: 0000 0000 0000 0000 0000 0000 0000 0000
00000230: 0000 0000 0000 0000 0000 0000 0000 0000
00000240: 0000 0000 0000 0000 0000 0000 0000 0000
00000250: 0000 0000 0000 0000 0000 0000 0000 0000
00000260: 0000 0000 0000 0000 0000 0000 0000 0000
00000270: 0000 0000 0000 0000 0000 0000 0000 0000
00000280: 0000 0000 0000 0000 0000 0000 0000 0000
00000290: 0000 0000 0000 0000 0000 0000 0000 0000
000002a0: 0000 0000 0000 0000 0000 0000 0000 0000
000002b0: 0000 0000 0000 0000 0000 0000 0000 0000
000002c0: 0000 0000 0000 0000 0000 0000 0000 0000
000002d0: 0000 0000 0000 0000 0000 0000 0000 0000
000002e0: 0000 0000 0000 0000 0000 0000 0000 0000
000002f0: 0000 0000 0000 0000 0000 0000 0000 0000
00000300: 0000 0000 0000 0000 0000 0000 0000 0000
00000310: 0000 0000 0000 0000 0000 0000 0000 0000
