myrobot/src/not_using/DDPG/save_DDPG_models/1118/DDPG_Critic_EP974.pt (torch, 288061 bytes, 32 tensors)

fc1_state.weight f4 [128, 4]
000000 c6 d2 c0 3f 9b d6 29 40 be 21 2a 3f 9f de 04 bb
       1.5064323 2.6537235 0.66457736 -0.0020274294
000010 a6 25 90 3e 77 68 ff bf f1 99 b8 3e fe 1f 77 bf
       0.28153723 -1.9953755 0.36054948 -0.9653319
000020 3f 17 85 3f 5a bf 2a 3e 94 8f 77 3f 36 77 30 be
       1.0397719 0.16674557 0.9670346 -0.17232975
000030 b8 13 e5 be 83 96 a2 3f 66 d4 2a bf 53 10 de be
       -0.44741607 1.2702183 -0.66730344 -0.4337183
000040 5f 1a 63 bf 97 40 08 bf c7 e4 b1 3f f7 d4 9d be
       -0.88712114 -0.53223556 1.3897942 -0.30826542
000050 be 08 05 bf 38 f5 1d 40 13 c0 f0 3e 27 82 1b bf
       -0.51966465 2.468092 0.4702154 -0.6074547
000060 72 73 bd 3c 7f 7e 22 c0 f9 f4 a8 3d 71 be 9a 3c
       0.023126338 -2.5389707 0.0824985 0.018889638
000070 6e c7 a8 3f b8 82 1e 3e 77 23 d9 be e7 1e b7 3d
       1.3185861 0.15479553 -0.4240987 0.08941441
000080 a2 be e1 3f 15 6a f4 3e 1b 66 bb be bd 19 e5 be
       1.7636302 0.47737184 -0.36601338 -0.447462
000090 48 1a d7 bf dc 3b f7 3e 4d 72 7f 3d 3e 38 66 bf
       -1.6804895 0.48287857 0.062364865 -0.8992957
0000a0 76 ee 15 40 c4 2d 45 40 38 97 a3 3e 38 4c 96 3d
       2.3426795 3.0809183 0.31951308 0.07338756
0000b0 b8 16 0b c0 24 c7 f2 bd c2 0f 1b 3f 17 51 15 3c
       -2.1732616 -0.11854389 0.6057092 0.009113572
0000c0 a3 f6 05 40 7b dc 21 3f 5d 55 83 3e 42 39 cf 3d
       2.0931785 0.6322705 0.25651065 0.10118343
0000d0 84 5e b7 3f d1 3c fd be aa bb 89 c0 99 92 86 3e
       1.4325719 -0.49460462 -4.304158 0.2628372
0000e0 83 bd d9 3f 42 bd 20 bf 86 bf b7 bf 75 ad c0 bd
       1.7010959 -0.62788785 -1.4355323 -0.09408084
0000f0 14 38 32 3e 3c ee cf 3e 67 02 6d c0 75 dc d6 3d
       0.17404205 0.40611446 -3.7032716 0.104912676
000100 fe dd 41 40 f7 1c a5 be 26 64 32 c0 6e d6 82 3d
       3.0291743 -0.3224866 -2.7873626 0.063885555
000110 74 bd 00 c0 47 fd 3e 3d 83 7b 08 bd 85 c0 79 bf
       -2.0115633 0.046628263 -0.033320915 -0.97559386
000120 e2 ff 2f c0 a0 46 51 3f a8 24 d6 3e 65 27 d7 3d
       -2.7499928 0.8174839 0.41824841 0.10505561
000130 1c ab 0d 40 05 02 26 40 ab ca 04 be 68 3c 2d 3f
       2.2135687 2.5938733 -0.12967937 0.676703
000140 5f 95 54 40 0b f4 5e 3e 82 3b 79 3f 36 42 b1 3c
       3.321617 0.21772783 0.97356427 0.021638017
000150 76 9c 71 bf 8c 3e 2a 3f 53 44 55 bf 6c 4b e5 be
       -0.94379365 0.6650169 -0.8330738 -0.44784105
000160 19 07 95 bf 2c f3 66 3e c2 45 87 3f 10 c5 15 3d
       -1.1642791 0.225537 1.0568163 0.036564887
000170 3c 74 1b be e9 93 48 3e e9 ed 85 c0 86 7f 9f 3d
       -0.15181059 0.19587673 -4.185292 0.07787995
000180 5f dc 32 3f 53 64 4e be 9b 49 86 c0 ea c2 ab 3e
       0.6986751 -0.20155458 -4.196485 0.33547145
000190 a3 6a 37 3f 0c e1 52 3e 25 54 d4 bf 21 aa c4 3b
       0.7164709 0.20593661 -1.6588179 0.0060017263
0001a0 ed c0 b2 3f 29 24 57 3f 93 45 82 3f 7b de 9f bc
       1.3965126 0.8403955 1.0177482 -0.019515267
0001b0 9c 88 3d c0 5c 94 a3 be b5 ed 8d bd e0 bd d1 3c
       -2.961463 -0.31949127 -0.06930105 0.025603235
0001c0 6a e1 1b bf 72 26 59 3b 82 bf f0 be ac e9 8f 3d
       -0.6089083 0.0033134487 -0.4702111 0.07026991
0001d0 d6 5a ec bf 2f 8a 84 bf 7d cf 85 3d ca 7d 42 bd
       -1.8465221 -1.035467 0.06533716 -0.047483243
0001e0 5b 3c 64 3e dd cb 5f bf ea 6c 1d 40 ca 3f aa 3e
       0.22288649 -0.87420446 2.4597726 0.33251792
0001f0 e5 7f 5d bf bb 8f cd bf 3d 31 9f bf 93 85 89 3e
       -0.86523277 -1.6059488 -1.2436901 0.26859722
000200 2d 6d 65 bf fe b6 d7 be 43 4b f0 3f 04 b0 53 3d
       -0.89619714 -0.421318 1.8772968 0.051681533
000210 f9 28 dc bb 6a 90 75 bf 54 29 9a 3f 6c 7e e6 bb
       -0.0067187515 -0.95923483 1.2043862 -0.0070341136
000220 e0 64 c7 bf ea 38 f9 bf a2 9e 0a c0 bb 89 c3 3e
       -1.557766 -1.9470494 -2.1659322 0.38191018
000230 ad 08 ae 3e 8d 4f 19 bf 18 76 5f 3f 79 64 a5 be
       0.33990994 -0.5988701 0.8728957 -0.32303217
000240 ce 69 69 bf a9 9c 7f bf 94 29 46 3f 9b 2e a6 bf
       -0.9117707 -0.9984842 0.77407193 -1.2982973
000250 a9 e8 c3 bf ba fd ff bd 42 c5 34 3f af ac 85 be
       -1.5305377 -0.124995664 0.7061349 -0.2610831
000260 7a 9d 6f be df 27 a3 3d bd 28 08 bd 01 16 bc bd
       -0.23399916 0.07966589 -0.033241976 -0.091838844
000270 64 83 c5 3e 78 ff d2 3f 31 7b 48 3e c2 7c de be
       0.38576806 1.6484213 0.19578244 -0.43454558
000280 48 9e 97 bf 1c c0 3f be ab b9 a4 3f 1b a3 ac bf
       -1.1845179 -0.18725628 1.2869161 -1.3487276
000290 ae ab 23 3f fc c1 93 3f cd f5 56 bf 93 f9 02 bf
       0.6393384 1.1543574 -0.8396881 -0.5116207
0002a0 86 aa ec 3f fb 69 e3 bf 11 11 a5 3e 35 ec 2f 3d
       1.848954 -1.7766718 0.32239583 0.042949874
0002b0 17 9d 93 bf e1 0f 6a 3f af 1b e7 3f 68 de 09 bc
       -1.1532315 0.9143048 1.8055323 -0.008414842
0002c0 1a 06 20 3f f8 db 7a be 2a 21 d0 c0 d4 6a 95 3e
       0.6250931 -0.24497974 -6.5040483 0.29183066
0002d0 d9 fd 5a bf 45 25 aa 3f f7 e7 40 3f ab 6d 84 3d
       -0.8554359 1.3292624 0.7535395 0.0646623
0002e0 c9 ef 0d 3e 86 bb 4c bd eb 47 80 3f 8f b8 27 bf
       0.13861002 -0.049983524 1.0021948 -0.6551599
0002f0 a9 fe ab 3f 7a c0 fb bf f9 c4 21 bf 5b 57 fd 3d
       1.3437091 -1.9668114 -0.6319118 0.12370177
000300 f5 22 95 3f a9 43 03 3d 46 ae e6 bf c5 97 4f be
       1.1651293 0.032046948 -1.8021934 -0.20272739
000310 dc 2a 21 bf 77 aa ec be ab 7d 16 40 fd 7d 44 3c
       -0.62956023 -0.46223804 2.3514202 0.011992929
000320 01 37 59 3f b7 bc bf 3f e2 3a 90 3e bc d9 34 be
       0.84849554 1.4979466 0.28169924 -0.17661184
000330 5b 98 33 c0 db 99 12 3e c0 1f 34 3e 43 6d 01 3c
       -2.806174 0.14316504 0.17590237 0.007899585
000340 51 a4 91 3f 8c 36 f0 3f 5d 58 16 40 b9 e6 b9 be
       1.137827 1.8766646 2.3491433 -0.3630884
000350 9a d1 41 bf 03 37 65 3f 52 ef 86 3d c3 9e e7 be
       -0.7571045 0.89537066 0.065886155 -0.45238313
000360 04 c5 24 c0 7d cf 33 bd 61 f5 ea bf 8b 49 b5 3c
       -2.5745249 -0.043899048 -1.8356134 0.022129795
000370 91 05 d1 3e 31 4d 2e c0 f5 fc 73 bf fe ba 48 3f
       0.4082456 -2.7234614 -0.95307857 0.7841033
000380 41 cf 83 3f a1 7f 35 3c 18 35 c8 3f 88 2e 88 3c
       1.0297624 0.011077792 1.5641203 0.01662375
000390 a0 ca 39 40 e3 ac 16 3d 5f d5 7c be ad 9f ab be
       2.9029922 0.03678597 -0.2469077 -0.3352026
0003a0 a1 d5 0d bf 54 a5 d6 be 33 77 2e 40 18 a4 ac 3d
       -0.55404097 -0.4192301 2.7260253 0.08429736
0003b0 78 fa 48 3d 41 4b f2 be 59 89 8c c0 4d b3 16 3e
       0.04906699 -0.4732304 -4.391766 0.14716835
0003c0 2d bf 55 3e f0 18 72 40 6e 93 96 bd 84 17 8e bb
       0.20873709 3.782772 -0.07352339 -0.0043362994
0003d0 6f 3c 7b 3e 57 7a a4 bf 56 0f 95 c0 dd 75 fa 3e
       0.24534772 -1.2849835 -4.658122 0.48918048
0003e0 1a cd 80 3f a2 55 2c c0 f2 d1 dc 3e 11 4e 8a bd
       1.0062592 -2.6927266 0.43128926 -0.06753171
0003f0 4e e1 95 3f 85 56 dd bd 74 73 81 3e 11 da c2 3e
       1.1709383 -0.10807518 0.25283396 0.38056996

fc1_state.bias f4 [128]
000000 54 bf e6 3d b7 e3 49 be 0e 54 20 3e 58 40 ec 3d
       0.11266962 -0.19715773 0.15657064 0.1153571
000010 2b 00 e6 3e 82 04 79 bf 1b c3 5f 3f c9 bf df bf
       0.44922003 -0.97272503 0.8740708 -1.7480403
000020 a5 50 7f 3e da b3 08 bf d9 4d 38 bf 66 7a 2f be
       0.24933107 -0.5339943 -0.71993786 -0.17136535
000030 1c 9f 76 bd 29 6b d8 3e d8 b1 8e 3f 5e a3 f6 3d
       -0.060210332 0.42269257 1.1148024 0.120428786
000040 c4 eb e8 be b0 07 1a bf 12 db ce bf 4e 45 5a bf
       -0.45492375 -0.6016798 -1.6160605 -0.85262
000050 b7 71 80 bf d7 a5 b1 3e c8 04 54 bf 5c df 56 3f
       -1.0034703 0.34696838 -0.82819796 0.8393457
000060 50 ef 30 3e cf 0c ad 3e 8b fc a2 3e eb dd 6f bf
       0.1727879 0.33798835 0.318333 -0.93697995
000070 aa 39 cd bf b3 d7 bd be 1e d2 28 3e ca 17 6f bd
       -1.6033223 -0.37078628 0.16486403 -0.058372296
000080 ad cc 79 bf 3d 31 22 bf 87 5b 4a 3e 44 0f 68 3f
       -0.97577935 -0.6335638 0.19761477 0.90648293
000090 27 f6 3c 3e 3b 97 bc 3e da 39 8a 3f 68 d5 48 3e
       0.18453275 0.3683413 1.0798905 0.19612658
0000a0 bc e2 ee 3e 14 f5 c1 be dc 4d 63 3f 54 a7 e1 3e
       0.4665736 -0.37882292 0.8879068 0.44072974
0000b0 a7 cb ca 3e 36 97 d3 bf 97 b0 81 bf 59 4b ee 3e
       0.396085 -1.6530521 -1.0132016 0.4654186
0000c0 b9 0e 98 3f 6a b7 eb 3c b2 3c 59 3e 47 d8 26 3f
       1.1879493 0.028773982 0.2121456 0.65173763
0000d0 4a 13 92 3e ed 44 fd 3d 78 93 a4 bf fc 7c 94 3e
       0.2853034 0.12366662 -1.2857504 0.29001606
0000e0 86 a4 df bd 21 3b b3 bd 87 f2 27 bf 70 25 9a be
       -0.10920052 -0.08751512 -0.6560444 -0.30106688
0000f0 8b d5 87 be e9 63 81 3f 4f a0 90 bd 6d e8 d8 bf
       -0.26530108 1.0108615 -0.070618264 -1.6945931
000100 91 f2 86 3d 25 40 43 bf 79 6d 39 be a9 91 17 3e
       0.065892346 -0.7626975 -0.18108167 0.14801659
000110 55 f4 fc bc 7d 0e 97 bf 00 b9 82 3f 48 bd a2 3c
       -0.030878225 -1.1801296 1.0212708 0.019865647
000120 5d d5 01 3f 99 95 88 bf c1 7e aa bf 3b 04 29 bf
       0.5071619 -1.0670654 -1.3319932 -0.6602208
000130 fe 3b be 3e 99 27 db 3e 77 61 e7 3e 88 67 20 3f
       0.37155145 0.42803648 0.45191547 0.62657976
000140 26 c3 ae 3f db d4 9a 3f 05 05 19 be 1e e3 95 3f
       1.3653305 1.2096208 -0.14943321 1.1709936
000150 4e bc 8e 3e 58 3c 8a 3e b4 ac 4f bf 5b 12 28 bd
       0.2787804 0.26999164 -0.811229 -0.04103313
000160 cd ed 8a 3f 3a ad 60 3f 1d 2c db be 00 aa 4e be
       1.0853821 0.8776432 -0.42807093 -0.20182037
000170 5c af 88 bf f5 e4 85 3e e7 6a fd bd 21 2d d9 bf
       -1.0678515 0.26151243 -0.12373906 -1.6966897
000180 82 0c cc be 77 80 a4 be 95 e6 11 3e 1c c8 ad bf
       -0.39853293 -0.3212926 0.14248116 -1.3576694
000190 02 ee 02 be d4 37 92 3f e5 37 30 bf f4 99 8c 3e
       -0.12786105 1.1423287 -0.6883529 0.27461207
0001a0 27 55 45 3e f9 e7 1e 3e fc b9 b3 bf d9 87 d9 be
       0.19270764 0.15518178 -1.4041133 -0.42486456
0001b0 55 cf 51 3f 04 5e 8e 3e 13 a1 06 3f 1f 99 14 3f
       0.8195699 0.27806103 0.5258953 0.58046144
0001c0 84 61 16 3f 0f d2 3d bf c0 ab df 3e 8b 1d ac 3f
       0.5874255 -0.7414865 0.43685722 1.3446516
0001d0 de f5 6f bf 79 77 3b be 40 f3 22 3f 32 d2 e3 3e
       -0.9373454 -0.18307294 0.6365242 0.44496304
0001e0 65 bd b1 bf 02 38 87 bf 49 ea a3 3e c3 03 db bf
       -1.3885924 -1.0563967 0.32014683 -1.7110523
0001f0 98 8c 08 be 6f 9e 99 bf b6 18 00 3f ef 16 99 bd
       -0.13334882 -1.2001475 0.50037706 -0.07475077

bn1_state.weight f4 [128]
000000 59 45 e6 3f 1d c6 93 3f 56 2b 2c 3f 5c 45 8b 3f
       1.7989913 1.1544834 0.67253625 1.0880542
000010 42 81 0b 3f 43 1c 90 3f c4 22 b3 3f 93 d1 12 3e
       0.54494107 1.1258625 1.3994985 0.14337759
000020 5a 41 56 3f 97 ba 79 3f 29 3c 89 3f 2a ee b2 3f
       0.8369347 0.9755034 1.0721484 1.3978932
000030 41 9e 87 3e 54 04 3e 3f 5a e6 ab 3f 49 94 14 3f
       0.26487926 0.74225354 1.3429673 0.58038765
000040 8a 80 c2 3e 41 1b 3a 3f 7e 89 a6 3e 6c 5e 1b 3f
       0.37988693 0.72697836 0.32526773 0.6069095
000050 26 eb 97 3f 0d 4b 21 3f fb ba 1a 3f 94 b7 c1 3f
       1.1868637 0.63005143 0.6044156 1.5134149
000060 51 38 87 3e 0e 56 7a 3f 7f 65 80 3f b1 e7 a1 3f
       0.26410154 0.9778756 1.0030974 1.2648832
000070 50 67 3e 3e 7a 7b cd 3f 12 2b 4a 3f 09 5f 0d 3f
       0.18594098 1.6053307 0.7897197 0.5522314
000080 c7 57 56 3f d7 46 8b 3e 80 9f d8 3e 0e 77 71 3f
       0.8372769 0.27202484 0.4230919 0.9432229
000090 71 01 2e 3f fd 62 90 3f 25 6c d6 3f c9 17 ad 3f
       0.6797095 1.1280209 1.6751753 1.3522884
0000a0 16 e9 5c 3f 3d 4c 33 3f e5 64 9e 3f 46 dc c9 3f
       0.8629316 0.70038205 1.237454 1.5770347
0000b0 c9 df 55 3f 74 d9 77 3f 64 cb 67 3f c4 e4 c9 3e
       0.83544594 0.9681618 0.90544724 0.39432347
0000c0 bd ea 30 3f 98 b7 50 3f e7 1a 9a 3f 06 a5 f1 3f
       0.6910818 0.8153014 1.203946 1.8878486
0000d0 63 e9 6e 3f 50 09 85 3f 4c ea 30 3f 4c 96 d0 3e
       0.9332487 1.0393467 0.6910751 0.40739667
0000e0 9f 69 4b 3f dd b7 f4 3f 3f 5f 60 3f 28 b9 80 3f
       0.7945804 1.9118611 0.87645334 1.0056505
0000f0 56 ab 2e 40 73 16 54 3f f7 45 f4 3f b3 e1 64 3c
       2.7292075 0.82846755 1.9083852 0.0139698265
000100 54 73 92 3f 5e 67 1a 3f a9 a0 e3 3f 6c 6e 12 3f
       1.1441445 0.60313976 1.7783405 0.5719974
000110 62 cb de 3f ff 2a bd 3e dd 79 01 3f 52 b4 f7 3e
       1.7405818 0.36946866 0.50576574 0.4837976
000120 6b d1 75 3f bd 2a 87 3f ad 75 8c 3f bb 71 87 3f
       0.9602267 1.0559918 1.0973412 1.0581583
000130 8d 03 ca 3e ea 83 c4 3f bf 15 06 3f 47 d0 7e 3f
       0.39455834 1.5352757 0.5237693 0.99536556
000140 e5 b1 23 3f 18 f4 11 3f bb f6 4a 3f 25 d3 7a 3f
       0.6394332 0.5701308 0.7928273 0.9797843
000150 d0 86 08 40 c7 0c de 3f a5 b7 0b 3f 11 7e bd 3f
       2.1332283 1.7347649 0.54577094 1.4804097
000160 9b 81 d7 3f bc ed 8c 3f ba 11 84 3f 6a 62 57 3f
       1.6836427 1.1010051 1.031791 0.8413454
000170 a2 95 ea 3d 30 43 34 3f 44 11 55 3f 94 99 59 3f
       0.114543214 0.7041502 0.8322947 0.84999967
000180 ee 02 17 40 a1 4d 69 3f e8 cc 90 3f 11 11 00 3f
       2.3595538 0.9113408 1.1312532 0.5002604
000190 64 ff 8e 3f eb fe 57 3f 8d 1f bf 3f a9 1f 47 3f
       1.1171689 0.8437335 1.4931504 0.77782685
0001a0 08 23 de 3f 38 6b ac 3e 21 3d e2 3f 0c b6 40 3f
       1.7354441 0.3367555 1.7674905 0.7527778
0001b0 01 20 56 3f ff 1a a7 3e c8 c1 0f 3f 82 fb 9f 3f
       0.83642584 0.32637784 0.5615506 1.2498629
0001c0 a2 fb 8d 3f dd da 9d 3f 26 f8 b0 3f 8e 0f 57 3f
       1.1092417 1.2332417 1.3825729 0.8400811
0001d0 51 ff 7d 3f 05 e1 84 3f c3 87 31 3e 6d d8 9b 3e
       0.99217707 1.038117 0.17336945 0.30438557
0001e0 4b b9 70 3f 98 e6 18 3f cd 28 c7 3f 3f b9 26 3f
       0.94032735 0.5972686 1.5559326 0.65126413
0001f0 de 26 03 40 13 2b 0d 3f 5d 6e a3 3f a1 c8 84 3f
       2.0492473 0.5514385 1.2768055 1.0373727

bn1_state.bias f4 [128]
000000 bc 11 27 3e e3 d5 13 bd 98 95 19 3d 04 08 e4 3c
       0.16315359 -0.03609265 0.03749618 0.027835853
000010 af 0a de 3c 6d 93 02 bf cd 96 d2 3e 1a 02 c7 bf
       0.027104704 -0.51006204 0.41130677 -1.5547516
000020 96 e3 09 3e 79 05 51 be c1 7e 3a bf 3c 80 c3 be
       0.13465723 -0.20412244 -0.7284966 -0.38183773
000030 22 f5 cd be 65 cd 53 3d 92 76 35 3f 45 76 da 3e
       -0.40226084 0.05170955 0.7088405 0.42668357
000040 45 06 19 bf e1 ea d8 be 55 c3 aa bf 9b c7 5a bf
       -0.5977519 -0.42366698 -1.3340861 -0.85460824
000050 25 e5 7a bf 67 07 4e bd 06 b5 85 bf 02 fd 3a 3f
       -0.98005897 -0.05030003 -1.0445869 0.7304231
000060 c8 3f 12 be ea d3 c9 3c 01 29 80 bd 2e 19 01 bf
       -0.14282143 0.024637181 -0.06257821 -0.50429046
000070 5d 0d d9 bf c4 73 af 3d 82 3f 65 be d2 55 43 be
       -1.6957203 0.085670024 -0.22387508 -0.19075707
000080 2d 65 5a bf 3b d5 fb be 7f 95 4a 3e 20 a7 1e 3f
       -0.8531063 -0.4918612 0.1978359 0.6197376
000090 87 4d 18 be 3c 77 47 3e 8c a6 1d 3f bd 99 ee b9
       -0.14873324 0.19479078 0.61582255 -0.0004550944
0000a0 61 77 9c 3d be c6 d8 3c 59 47 64 3f 1f 01 b1 3d
       0.07639957 0.026461955 0.8917137 0.08642792
0000b0 7e 8b 43 3d e9 2e a8 bf c5 2a 2a bf c1 d7 f6 3d
       0.047740452 -1.3139316 -0.6647151 0.120528705
0000c0 38 51 71 3f 50 5c c6 bd 6b d9 6b be 2e c1 9c 3e
       0.94264555 -0.09685576 -0.23032157 0.30616134
0000d0 68 de 0a 3e 32 16 91 be 2c 94 a3 bf 10 b2 8f 3e
       0.13561404 -0.28337246 -1.2779593 0.28065538
0000e0 e7 43 06 bf 8b 21 9a 3e d4 87 b3 be 01 6e 78 bd
       -0.5244736 0.30103716 -0.35064566 -0.060651783
0000f0 04 5c 0e bf b6 e2 10 3f 54 fa 84 3e 80 d0 af bf
       -0.55609155 0.56595933 0.25972235 -1.3735504
000100 c6 ce 3a bd 82 1c 30 bf dc 06 d1 3d 7c 4a de bd
       -0.04560735 -0.687935 0.102063864 -0.108540505
000110 ed 08 c8 bd c3 be 8a bf c3 6a 30 3f 66 20 15 3e
       -0.097673275 -1.0839466 0.68912905 0.1456314
000120 ad 5d c4 3e 70 a0 54 bf 59 e0 8a bf 9d 03 c2 be
       0.3835272 -0.8305731 -1.0849715 -0.37893382
000130 b7 2b 59 3f 04 82 e7 bb 22 02 94 3e 1e 5b cf 3e
       0.8483233 -0.0070650596 0.28907877 0.40499204
000140 ba 13 b0 3f 56 19 4d 3f e1 00 94 be b7 17 8e 3f
       1.375602 0.80116785 -0.2890692 1.1100987
000150 41 70 8e 3d d9 3d fc 3c 55 15 51 bf 95 50 4c 3e
       0.069550045 0.03079121 -0.81673175 0.19952615
000160 38 b6 1c 3f 52 81 7f 3f ad a5 9a bc c4 d6 19 bf
       0.61215544 0.998067 -0.018877828 -0.6009333
000170 62 b0 1f bf cb e0 07 3f de 15 24 bd 5e 2a a0 bf
       -0.62378514 0.5307738 -0.040059917 -1.251293
000180 cc f7 98 bd 5b 77 f8 be 48 5f 39 3e 84 ad a5 bf
       -0.074691385 -0.4852856 0.18102753 -1.2943578
000190 13 33 3c 3e 20 1b 41 3f ce 1f 4a be 5c e4 4c 3e
       0.18378858 0.75432014 -0.19738695 0.20008987
0001a0 d6 41 82 be 5c a4 9e 3e 49 b9 69 bf 77 cb 48 3d
       -0.25440854 0.3098477 -0.9129835 0.049022164
0001b0 05 64 dd 3e 88 38 1b be 6c 0e 57 3f de f8 c1 3e
       0.4324037 -0.15158284 0.8400638 0.37885183
0001c0 e6 96 07 3f 71 2f a9 be c6 c7 94 3d d4 0b 8d 3f
       0.5296463 -0.33044007 0.07264666 1.1019235
0001d0 cd b5 3f bf b5 e0 0f 3e 5d 25 af 3e d7 f0 9f 3e
       -0.7488678 0.14050563 0.34208193 0.31238434
0001e0 71 49 86 bf e4 db a1 bf 24 fe 62 3e d3 a5 c2 bf
       -1.0491163 -1.264523 0.2216726 -1.5206856
0001f0 99 a9 ef 3d b2 09 a3 bf 08 f4 05 3f 32 74 00 bf
       0.1170227 -1.2737334 0.5232549 -0.501773

bn1_state.running_mean f4 [128]
000000 00 00 00 00 00 00 00 00 00 00 00 00 00 00 00 00
       0.0 0.0 0.0 0.0
000010 00 00 00 00 00 00 00 00 00 00 00 00 00 00 00 00
       0.0 0.0 0.0 0.0
000020 00 00 00 00 00 00 00 00 00 00 00 00 00 00 00 00
       0.0 0.0 0.0 0.0
000030 00 00 00 00 00 00 00 00 00 00 00 00 00 00 00 00
       0.0 0.0 0.0 0.0
000040 00 00 00 00 00 00 00 00 00 00 00 00 00 00 00 00
       0.0 0.0 0.0 0.0
000050 00 00 00 00 00 00 00 00 00 00 00 00 00 00 00 00
       0.0 0.0 0.0 0.0
000060 00 00 00 00 00 00 00 00 00 00 00 00 00 00 00 00
       0.0 0.0 0.0 0.0
000070 00 00 00 00 00 00 00 00 00 00 00 00 00 00 00 00
       0.0 0.0 0.0 0.0
000080 00 00 00 00 00 00 00 00 00 00 00 00 00 00 00 00
       0.0 0.0 0.0 0.0
000090 00 00 00 00 00 00 00 00 00 00 00 00 00 00 00 00
       0.0 0.0 0.0 0.0
0000a0 00 00 00 00 00 00 00 00 00 00 00 00 00 00 00 00
       0.0 0.0 0.0 0.0
0000b0 00 00 00 00 00 00 00 00 00 00 00 00 00 00 00 00
       0.0 0.0 0.0 0.0
0000c0 00 00 00 00 00 00 00 00 00 00 00 00 00 00 00 00
       0.0 0.0 0.0 0.0
0000d0 00 00 00 00 00 00 00 00 00 00 00 00 00 00 00 00
       0.0 0.0 0.0 0.0
0000e0 00 00 00 00 00 00 00 00 00 00 00 00 00 00 00 00
       0.0 0.0 0.0 0.0
0000f0 00 00 00 00 00 00 00 00 00 00 00 00 00 00 00 00
       0.0 0.0 0.0 0.0
000100 00 00 00 00 00 00 00 00 00 00 00 00 00 00 00 00
       0.0 0.0 0.0 0.0
000110 00 00 00 00 00 00 00 00 00 00 00 00 00 00 00 00
       0.0 0.0 0.0 0.0
000120 00 00 00 00 00 00 00 00 00 00 00 00 00 00 00 00
       0.0 0.0 0.0 0.0
000130 00 00 00 00 00 00 00 00 00 00 00 00 00 00 00 00
       0.0 0.0 0.0 0.0
000140 00 00 00 00 00 00 00 00 00 00 00 00 00 00 00 00
       0.0 0.0 0.0 0.0
000150 00 00 00 00 00 00 00 00 00 00 00 00 00 00 00 00
       0.0 0.0 0.0 0.0
000160 00 00 00 00 00 00 00 00 00 00 00 00 00 00 00 00
       0.0 0.0 0.0 0.0
000170 00 00 00 00 00 00 00 00 00 00 00 00 00 00 00 00
       0.0 0.0 0.0 0.0
000180 00 00 00 00 00 00 00 00 00 00 00 00 00 00 00 00
       0.0 0.0 0.0 0.0
000190 00 00 00 00 00 00 00 00 00 00 00 00 00 00 00 00
       0.0 0.0 0.0 0.0
0001a0 00 00 00 00 00 00 00 00 00 00 00 00 00 00 00 00
       0.0 0.0 0.0 0.0
0001b0 00 00 00 00 00 00 00 00 00 00 00 00 00 00 00 00
       0.0 0.0 0.0 0.0
0001c0 00 00 00 00 00 00 00 00 00 00 00 00 00 00 00 00
       0.0 0.0 0.0 0.0
0001d0 00 00 00 00 00 00 00 00 00 00 00 00 00 00 00 00
       0.0 0.0 0.0 0.0
0001e0 00 00 00 00 00 00 00 00 00 00 00 00 00 00 00 00
       0.0 0.0 0.0 0.0
0001f0 00 00 00 00 00 00 00 00 00 00 00 00 00 00 00 00
       0.0 0.0 0.0 0.0

bn1_state.running_var f4 [128]
000000 00 00 80 3f 00 00 80 3f 00 00 80 3f 00 00 80 3f
       1.0 1.0 1.0 1.0
000010 00 00 80 3f 00 00 80 3f 00 00 80 3f 00 00 80 3f
       1.0 1.0 1.0 1.0
000020 00 00 80 3f 00 00 80 3f 00 00 80 3f 00 00 80 3f
       1.0 1.0 1.0 1.0
000030 00 00 80 3f 00 00 80 3f 00 00 80 3f 00 00 80 3f
       1.0 1.0 1.0 1.0
000040 00 00 80 3f 00 00 80 3f 00 00 80 3f 00 00 80 3f
       1.0 1.0 1.0 1.0
000050 00 00 80 3f 00 00 80 3f 00 00 80 3f 00 00 80 3f
       1.0 1.0 1.0 1.0
000060 00 00 80 3f 00 00 80 3f 00 00 80 3f 00 00 80 3f
       1.0 1.0 1.0 1.0
000070 00 00 80 3f 00 00 80 3f 00 00 80 3f 00 00 80 3f
       1.0 1.0 1.0 1.0
000080 00 00 80 3f 00 00 80 3f 00 00 80 3f 00 00 80 3f
       1.0 1.0 1.0 1.0
000090 00 00 80 3f 00 00 80 3f 00 00 80 3f 00 00 80 3f
       1.0 1.0 1.0 1.0
0000a0 00 00 80 3f 00 00 80 3f 00 00 80 3f 00 00 80 3f
       1.0 1.0 1.0 1.0
0000b0 00 00 80 3f 00 00 80 3f 00 00 80 3f 00 00 80 3f
       1.0 1.0 1.0 1.0
0000c0 00 00 80 3f 00 00 80 3f 00 00 80 3f 00 00 80 3f
       1.0 1.0 1.0 1.0
0000d0 00 00 80 3f 00 00 80 3f 00 00 80 3f 00 00 80 3f
       1.0 1.0 1.0 1.0
0000e0 00 00 80 3f 00 00 80 3f 00 00 80 3f 00 00 80 3f
       1.0 1.0 1.0 1.0
0000f0 00 00 80 3f 00 00 80 3f 00 00 80 3f 00 00 80 3f
       1.0 1.0 1.0 1.0
000100 00 00 80 3f 00 00 80 3f 00 00 80 3f 00 00 80 3f
       1.0 1.0 1.0 1.0
000110 00 00 80 3f 00 00 80 3f 00 00 80 3f 00 00 80 3f
       1.0 1.0 1.0 1.0
000120 00 00 80 3f 00 00 80 3f 00 00 80 3f 00 00 80 3f
       1.0 1.0 1.0 1.0
000130 00 00 80 3f 00 00 80 3f 00 00 80 3f 00 00 80 3f
       1.0 1.0 1.0 1.0
000140 00 00 80 3f 00 00 80 3f 00 00 80 3f 00 00 80 3f
       1.0 1.0 1.0 1.0
000150 00 00 80 3f 00 00 80 3f 00 00 80 3f 00 00 80 3f
       1.0 1.0 1.0 1.0
000160 00 00 80 3f 00 00 80 3f 00 00 80 3f 00 00 80 3f
       1.0 1.0 1.0 1.0
000170 00 00 80 3f 00 00 80 3f 00 00 80 3f 00 00 80 3f
       1.0 1.0 1.0 1.0
000180 00 00 80 3f 00 00 80 3f 00 00 80 3f 00 00 80 3f
       1.0 1.0 1.0 1.0
000190 00 00 80 3f 00 00 80 3f 00 00 80 3f 00 00 80 3f
       1.0 1.0 1.0 1.0
0001a0 00 00 80 3f 00 00 80 3f 00 00 80 3f 00 00 80 3f
       1.0 1.0 1.0 1.0
0001b0 00 00 80 3f 00 00 80 3f 00 00 80 3f 00 00 80 3f
       1.0 1.0 1.0 1.0
0001c0 00 00 80 3f 00 00 80 3f 00 00 80 3f 00 00 80 3f
       1.0 1.0 1.0 1.0
0001d0 00 00 80 3f 00 00 80 3f 00 00 80 3f 00 00 80 3f
       1.0 1.0 1.0 1.0
0001e0 00 00 80 3f 00 00 80 3f 00 00 80 3f 00 00 80 3f
       1.0 1.0 1.0 1.0
0001f0 00 00 80 3f 00 00 80 3f 00 00 80 3f 00 00 80 3f
       1.0 1.0 1.0 1.0

fc1_action.weight f4 [32, 2]
000000 f6 09 ea be 9d 7f 09 40 75 db 08 40 37 0e 57 3f
       -0.45710725 2.148414 2.1383946 0.84006065
000010 f5 40 be 3d ff b1 2f bf b1 12 91 3f f9 bf ad 3f
       0.09289733 -0.68630975 1.1333829 1.357421
000020 ad 8d 15 40 dd 7f 19 bd 92 b4 4b c0 e9 89 47 3e
       2.3367722 -0.037475456 -3.1828961 0.19486202
000030 03 65 5e bd c4 f4 a1 bf 44 c2 c9 3d c0 f6 b0 bf
       -0.05429555 -1.2652822 0.09851506 -1.3825302
000040 3b 6b a3 bf 98 c1 07 3f b4 50 f2 be db c3 91 bf
       -1.2767099 0.53029776 -0.47327197 -1.1387895
000050 bc 37 ed 3e 16 35 b0 3e 54 47 4c be 97 43 92 be
       0.46331584 0.344155 -0.19949085 -0.28567192
000060 b2 e6 94 bf be 9d 06 c0 aa e9 68 bf a5 2f 75 3f
       -1.1632903 -2.1033778 -0.90981543 0.95775825
000070 a2 94 27 be 93 9d 67 bf 07 52 0a 3f 94 d5 d3 bf
       -0.16365293 -0.90474814 0.54031414 -1.6549554
000080 36 bd fd 3f f5 ed c2 3f 85 b2 8c bf c7 19 eb be
       1.9823368 1.5228869 -1.099198 -0.45918104
000090 0d e0 74 3f d0 65 06 3f 34 0f 8c 3f 41 80 64 bf
       0.95654374 0.52499104 1.094214 -0.892582
0000a0 39 8b d4 3d b6 e7 6e bf 7c 34 59 c0 ea 6c 4c 3d
       0.10378117 -0.9332231 -3.3938284 0.049908556
0000b0 7b b2 94 3f 23 aa 59 3d 2e 07 b0 3e 21 c5 97 3f
       1.1616968 0.05314077 0.34380478 1.1857034
0000c0 19 91 23 bf 14 cf 53 bf 6c 27 04 c0 4f 8a 96 3e
       -0.63893276 -0.8273785 -2.0649061 0.29402396
0000d0 cd 3c f2 3f 22 95 fc 3f 93 5e d0 3f 50 c8 e0 bf
       1.8924805 1.9733012 1.6278862 -1.756113
0000e0 28 47 af 3e 66 e1 23 3d aa 39 9f bf 88 97 8e bf
       0.34233975 0.04000988 -1.2439473 -1.1139994
0000f0 2c f6 83 bf 7c a7 3c c0 d0 33 b1 3f b2 e9 f0 3f
       -1.0309501 -2.9477224 1.3843937 1.8821318

fc1_action.bias f4 [32]
000000 4c e6 08 40 3a e7 6c 3f cb 1f c9 3f fc f2 79 bf
       2.1390562 0.92540324 1.5712827 -0.9763639
000010 b1 4e b6 3f fa 12 a5 be d7 8b 00 c0 3b 22 e8 bf
       1.4242765 -0.3224104 -2.0085351 -1.8135446
000020 27 a6 8e bf e2 d4 0c c0 10 57 6a 3f 6f 45 07 c0
       -1.1144456 -2.2004933 0.91539097 -2.113613
000030 9a ef 7f 3f 4b 4d c5 3f 35 ce e5 bf 31 b5 64 3f
       0.9997498 1.5414213 -1.7953554 0.89338976
000040 3d 0f 98 3f 46 c7 01 40 2b af 4e bf 5b 46 cc 3f
       1.187965 2.0277877 -0.80736035 1.5958971
000050 76 06 09 c0 fd 2a f6 3f e4 9c 80 bf 48 c2 2b bf
       -2.1410193 1.9231869 -1.0047879 -0.67093325
000060 05 10 b0 3f 58 a1 ab bf b2 0f ab bf b9 af d5 be
       1.3754889 -1.3408613 -1.3364165 -0.41735628
000070 d7 a0 00 bf 72 a5 84 bf ac 9c 58 bd f9 ac a2 3f
       -0.5024542 -1.036299 -0.05288379 1.2709037

bn1_action.weight f4 [32]
000000 0c de 04 40 17 7f b1 3f 15 de 3a 40 f5 57 d2 3f
       2.0760527 1.386691 2.9198048 1.6433092
000010 1b c7 b3 3f 34 bb db 3f 5b 26 08 40 a5 66 07 40
       1.4045137 1.7166505 2.127341 2.11564
000020 ae 25 e4 3f 6c 70 14 40 85 87 e6 3f 31 45 1b 40
       1.7823999 2.3193617 1.8010107 2.426098
000030 8f 2a eb 3f fe 48 f1 3f 1e a6 18 40 57 12 07 40
       1.8372363 1.88504 2.385139 2.1104944
000040 54 74 c8 3f 9a 27 f7 3f cf 16 b6 3f 1d a7 d6 3f
       1.56605 1.930896 1.4225711 1.6769749
000050 cd 36 13 40 7c 1c a7 3f 2d fc ca 3f 3d 1e f1 3f
       2.3002198 1.3055568 1.5858208 1.8837353
000060 84 53 df 3f 71 a2 cc 3f e2 c2 ab 3f 6c b1 f7 3f
       1.7447362 1.5987073 1.3418849 1.935102
000070 2b ea c9 3f 86 60 0f 40 24 e3 62 40 8d 08 be 3f
       1.5774587 2.2402663 3.5451136 1.484636

bn1_action.bias f4 [32]
000000 f7 9c b8 3f 72 57 7c 3f 96 ef a6 3f 6e 07 d9 be
       1.4422902 0.9857093 1.3041866 -0.4238848
000010 1f 3e ab 3f fe c6 af 3d 95 f8 b6 bf 81 6a b8 bf
       1.3378333 0.085828766 -1.4294611 -1.4407502
000020 29 a9 e9 be 9e 14 c4 bf 77 3b 85 3f 78 39 bb bf
       -0.4563687 -1.5318792 1.0408772 -1.4626913
000030 20 99 7e 3f 3a 50 ad 3f ed b5 ce bf 05 44 49 3f
       0.994524 1.3540108 -1.6149269 0.78619415
000040 7e bd b7 3f 14 27 d4 3f 57 d3 09 bf b8 42 c3 3f
       1.4354703 1.6574426 -0.53838104 1.5254736
000050 2a 68 bf bf 40 d7 bd 3f 4b 1e e2 be a2 bc cf be
       -1.4953663 1.4831314 -0.44163737 -0.40573603
000060 37 d1 a3 3f dd 7e 27 bf 64 d1 41 bf af 88 bb bd
       1.2798222 -0.65427953 -0.7571013 -0.0915693
000070 56 b1 e4 be 9e 6c 13 bf fc 73 24 3c 5d 8a ca 3f
       -0.44666547 -0.5758761 0.010037418 1.5823475

bn1_action.running_mean f4 [32]
000000 00 00 00 00 00 00 00 00 00 00 00 00 00 00 00 00
       0.0 0.0 0.0 0.0
000010 00 00 00 00 00 00 00 00 00 00 00 00 00 00 00 00
       0.0 0.0 0.0 0.0
000020 00 00 00 00 00 00 00 00 00 00 00 00 00 00 00 00
       0.0 0.0 0.0 0.0
000030 00 00 00 00 00 00 00 00 00 00 00 00 00 00 00 00
       0.0 0.0 0.0 0.0
000040 00 00 00 00 00 00 00 00 00 00 00 00 00 00 00 00
       0.0 0.0 0.0 0.0
000050 00 00 00 00 00 00 00 00 00 00 00 00 00 00 00 00
       0.0 0.0 0.0 0.0
000060 00 00 00 00 00 00 00 00 00 00 00 00 00 00 00 00
       0.0 0.0 0.0 0.0
000070 00 00 00 00 00 00 00 00 00 00 00 00 00 00 00 00
       0.0 0.0 0.0 0.0

bn1_action.running_var f4 [32]
000000 00 00 80 3f 00 00 80 3f 00 00 80 3f 00 00 80 3f
       1.0 1.0 1.0 1.0
000010 00 00 80 3f 00 00 80 3f 00 00 80 3f 00 00 80 3f
       1.0 1.0 1.0 1.0
000020 00 00 80 3f 00 00 80 3f 00 00 80 3f 00 00 80 3f
       1.0 1.0 1.0 1.0
000030 00 00 80 3f 00 00 80 3f 00 00 80 3f 00 00 80 3f
       1.0 1.0 1.0 1.0
000040 00 00 80 3f 00 00 80 3f 00 00 80 3f 00 00 80 3f
       1.0 1.0 1.0 1.0
000050 00 00 80 3f 00 00 80 3f 00 00 80 3f 00 00 80 3f
       1.0 1.0 1.0 1.0
000060 00 00 80 3f 00 00 80 3f 00 00 80 3f 00 00 80 3f
       1.0 1.0 1.0 1.0
000070 00 00 80 3f 00 00 80 3f 00 00 80 3f 00 00 80 3f
       1.0 1.0 1.0 1.0

fc2.weight f4 [200, 160]
000000 07 e1 44 bf f0 8a 50 3c 53 ce 00 3e 65 d1 35 3c
       -0.76905864 0.012728438 0.12578706 0.011097287
000010 38 49 b2 bc b1 ea d2 be be 66 b7 3e 3a d0 e6 3d
       -0.021763429 -0.4119468 0.35820574 0.11270185
000020 9c 5d 4e 3e 21 43 ee bc a4 f7 ad be e6 c8 e9 3d
       0.20152897 -0.029084744 -0.33977997 0.114152715
000030 aa 61 a6 bc 99 bc b3 bd 0c 13 44 3e 72 64 f5 bc
       -0.020310242 -0.087762065 0.19147891 -0.029955123
000040 a7 ca 89 bb ce d2 9b bd 71 06 d5 3d 21 36 87 be
       -0.0042050662 -0.07608567 0.10401619 -0.26408485
000050 50 71 71 bd 1b 37 39 bd a9 dc 74 bb 59 05 9e bd
       -0.058945954 -0.04521857 -0.003736297 -0.07715864
000060 19 ee 79 bd 6c fe 4c 3e 8d 8e 0a be 95 df 60 bd
       -0.061018083 0.20018929 -0.13530941 -0.054900724
000070 32 1f 5c 3e 3b 0a 94 3e cc b5 b8 3d 4a 46 40 3d
       0.21496275 0.28914055 0.0901905 0.046942033
000080 cf ec 5a 3e 96 78 42 be c9 e9 93 bc 6b b5 5a be
       0.21379398 -0.18991312 -0.018055813 -0.21358268
000090 99 c3 80 bd c9 cf 08 be 2c d0 64 3e a7 72 b5 be
       -0.06287307 -0.13360514 0.22345036 -0.35439035
0000a0 37 94 c7 bc 37 80 c0 3d a4 d4 e5 3e ef f1 36 3d
       -0.024362667 0.09399455 0.44888794 0.04466432
0000b0 72 23 6a 3d af ab ec be ce 53 78 bc 4b c8 49 bc
       0.05716271 -0.46224734 -0.015156699 -0.01231582
0000c0 b2 f5 46 3c 9d f2 0c 3e 66 a4 55 be f5 8a 3d bd
       0.012143539 0.13764425 -0.20863494 -0.046275098
0000d0 84 e8 a9 bd 05 3e 3e bd d7 a3 48 bd 30 84 dd 3c
       -0.08296302 -0.046445865 -0.048984375 0.027040571
0000e0 41 cc 44 3d 7b 22 17 be c3 08 3d 3e 07 04 dc ba
       0.048046354 -0.14759247 0.18460374 -0.0016785868
0000f0 f6 5e 51 c0 d7 7f af 3d d9 03 02 3f 3b 7b fc bd
       -3.271421 0.085693054 0.5078712 -0.12328192
000100 82 98 df 3d 5f 57 b2 bc 4a a4 bc bd f6 54 48 bb
       0.109177604 -0.021770177 -0.09211023 -0.0030568219
000110 cf 34 16 3e d6 c0 91 3e 05 f9 94 3d 27 b8 80 be
       0.14668582 0.28467435 0.07274059 -0.25140497
000120 d8 d0 3d bd 3c 14 94 bc ff c3 44 be 64 0a eb 3d
       -0.046341747 -0.018076055 -0.19215392 0.11476591
000130 5d c9 85 bd 33 1b 07 bf 88 b0 ef bc fe 1a 95 be
       -0.065325476 -0.5277588 -0.029258981 -0.29122156
000140 dc 00 39 3f 5d 4c 67 3d e6 e2 7c bb 77 e9 23 3e
       0.72266936 0.05646931 -0.003858739 0.16007029
000150 f2 96 88 3e c4 6a 0c 3f 45 b4 02 3d e3 17 c8 bc
       0.26677662 0.5485041 0.0319102 -0.024425453
000160 37 4f ae 3e 3f 01 b2 3e b7 62 05 be 66 5a 45 3e
       0.3404481 0.34766576 -0.13025938 0.19272766
000170 c6 26 82 3d 02 b5 07 be 7f 49 af bd 01 f4 d1 bd
       0.06355052 -0.13252643 -0.0855894 -0.10251618
000180 75 c5 0c c0 8f e0 53 3d 7c 47 a8 bd af d9 17 bd
       -2.1995518 0.051727828 -0.082167596 -0.037072834
000190 11 40 5c bd 94 be 71 3e 56 85 ba bd b1 3b b6 3d
       -0.053772036 0.23607856 -0.09107463 0.08898104
0001a0 11 5e 14 bf dc c4 e0 3d c0 d1 d5 be 8d 1b 9c 3c
       -0.57956034 0.10975048 -0.4176159 0.019056106
0001b0 3a a5 12 be 2f 0d ce 3b c7 5f aa 3d d5 c9 4c 3e
       -0.14320841 0.0062881927 0.08319049 0.19998868
0001c0 bf 7f f1 3c 57 e0 cd bd f9 0c 8a 3e bc 38 07 bd
       0.02947986 -0.10052555 0.26963022 -0.03301309
0001d0 1f a1 1e 3d 29 ec 98 3d 5e b4 14 be 00 6f 1e 3e
       0.038727876 0.07466919 -0.1452193 0.1547203
0001e0 65 69 6c 3d 37 07 99 be 53 1b af 3e e4 51 a9 bc
       0.0577177 -0.29888317 0.34200534 -0.020668931
0001f0 4b a5 82 3f bf 65 2a 3d 11 33 be 3d 63 e5 0e be
       1.0206693 0.04160094 0.09287084 -0.13954692
000200 af 44 33 3d 30 fa f0 3d 7e 63 a0 3e 10 14 d3 be
       0.043766674 0.117664695 0.31325907 -0.41226244
000210 d5 54 2c 3e e1 9f cd 3c ec 9d 8e be aa a2 c4 bd
       0.16829236 0.02510065 -0.2785486 -0.09601338
000220 e6 a3 c2 be 99 6c 69 be cc c9 45 3e c2 fb 14 be
       -0.3801567 -0.22795333 0.1931526 -0.14549163
000230 49 c3 92 3e 82 ad 7a bd f8 ff 2a bd c1 a1 d3 3e
       0.28664616 -0.061200626 -0.041748017 0.41334346
000240 50 bb 57 3d 09 1c d2 3c ba b1 50 be f3 30 42 3e
       0.05266887 0.025648134 -0.20380297 0.18963985
000250 19 02 d2 be ee 15 44 3d 16 58 db bd 9b 44 ef bd
       -0.41017225 0.047872476 -0.107101604 -0.11683007
000260 e7 7e 8c 3e 04 3c 49 bd 2e c4 af bb 5d 78 4c 3e
       0.2744057 -0.0491295 -0.0053639626 0.1996779
000270 7d fa 27 bf e4 c8 e7 3e e1 a8 8b 3e be e8 1e 3e
       -0.6561659 0.45270455 0.27277282 0.15518472
000280 75 45 30 bd cc ac 9c 3d b0 41 5d 3d c6 9e d7 bd
       -0.04303499 0.07650146 0.054017723 -0.105283305
000290 e8 98 52 3d 36 27 87 3e 39 d2 ac be 14 8a 14 bf
       0.051415354 0.26397103 -0.33754137 -0.5802319
0002a0 da 6e 4c 3d 19 d7 57 3d 1f 9e b7 3d d5 bc 51 be
       0.049910404 0.052695367 0.08965706 -0.2048219
0002b0 34 dd 3c bd 95 78 c1 bd 48 b4 70 bd 8a 2e 8e bc
       -0.046109393 -0.09446827 -0.05876568 -0.017356176
0002c0 aa 02 ae bd b8 a3 d0 bc 62 6c 0f 3d 5b 49 fb 3d
       -0.08496602 -0.025468692 0.03501547 0.12269851
0002d0 04 99 2b bd 28 9c dd bd 98 b7 d6 3d 5e db de 3c
       -0.041893974 -0.108208 0.104842365 0.027204212
0002e0 15 cf 34 3d 31 fb 80 bd 13 a2 13 3e fb 95 84 be
       0.0441428 -0.06297911 0.14417295 -0.25895676
0002f0 87 da ee be f4 de 01 be a6 01 05 3e 80 96 06 be
       -0.46651098 -0.12682706 0.1298891 -0.13143349
000300 70 4f f6 bd 5e 21 96 3b d4 92 a9 3d b9 90 d9 bc
       -0.1202687 0.0045816144 0.08279958 -0.026558267
000310 be a1 15 be c1 46 05 be f5 c5 bc bc ac 48 f9 bc
       -0.14612481 -0.13015272 -0.023043612 -0.03043016
000320 f0 a2 18 bd d2 7a 82 bd a1 84 22 be 25 5e 0d 3e
       -0.037264764 -0.06371082 -0.15870906 0.13805445
000330 fd 50 f9 bc b5 b8 08 bd e5 a8 c0 bc 07 97 31 3d
       -0.030434126 -0.033379275 -0.023518035 0.04335692
000340 e2 f4 05 3e a0 36 8c 3d 46 d6 85 bc bb f5 41 3e
       0.13081697 0.068463564 -0.016337525 0.18941395
000350 2e 6c cc 3d 3a 6a d5 bd 8f 71 a8 be 38 8c 10 3d
       0.09981571 -0.10420652 -0.32899138 0.035289973
000360 ed 32 8e 3c 92 c9 12 bd 12 a7 01 3c 9c ac aa bd
       0.017358268 -0.035836764 0.007913368 -0.08333704
000370 f5 99 98 bd 26 c3 ed bd ce 1d 84 bd 7b 96 35 3b
       -0.0745124 -0.11609487 -0.06450997 0.0027708102
000380 f2 e4 20 3e 4e a5 f5 3b 0d 77 87 be 14 04 09 3e
       0.15712336 0.0074965125 -0.26458016 0.13380462
000390 b4 bf bd ba 37 ce 25 be 2f 79 4e 3d cb 12 50 3d
       -0.0014476688 -0.16191946 0.05040854 0.050799172
0003a0 22 69 2a be 7d 84 8b be a7 a3 71 3b bb a8 16 bd
       -0.16641667 -0.27249518 0.0036871226 -0.036782008
0003b0 fc 5f e1 bc 4b e2 0d 3e 78 59 d8 3c 1f 18 26 bc
       -0.02751159 0.13855855 0.02640985 -0.010137587
0003c0 55 e4 5f be 66 e0 af 3c ea 84 f9 3d c0 0a 4b bd
       -0.21864446 0.021469306 0.121835545 -0.0495708
0003d0 21 48 22 3d 4a fd 67 be d1 43 f0 3d c3 a4 bb bd
       0.03961957 -0.22655216 0.11731685 -0.09162285
0003e0 ba 4c 97 3e 65 1e 80 bd 2d 59 ae 3d 48 ef d9 3c
       0.29550725 -0.06255797 0.08513103 0.026603356
0003f0 2a 91 20 be ff 6b 7a 3d 46 2b e7 3c 55 53 fe bd
       -0.15680376 0.06113815 0.028218877 -0.12418238

fc2.bias f4 [200]
000000 a1 77 38 3e 68 ce c3 3f b0 1b a4 bf 9b e5 7c 3e
       0.18014385 1.5297365 -1.282095 0.24696963
000010 fe 8b 6c 3e a8 d3 97 bd 18 3c c6 3e d1 87 6a be
       0.23100278 -0.07413417 0.38717723 -0.22903372
000020 20 a4 c0 be 0b 9b 12 3f 95 d8 d3 3e 66 3d 3d be
       -0.37625217 0.57267827 0.41376176 -0.18480453
000030 2a c6 c7 be cc cd ba 3c c4 86 52 3e 5d 34 68 bf
       -0.39018375 0.02280321 0.20559222 -0.907049
000040 9e aa e7 3d 22 2f a4 3e f4 10 1e 3d 83 fd 61 be
       0.113118395 0.3206721 0.038590387 -0.22069363
000050 29 f6 00 be 92 1f 12 3e a2 05 e6 3e 9a 98 ca 3f
       -0.12593903 0.14269856 0.44926172 1.582782
000060 b0 43 37 3e 80 76 58 3e 26 b5 9c be 63 28 a1 be
       0.17896914 0.21138954 -0.30606955 -0.31476125
000070 b1 01 df 3e 95 19 0e 3f fa 45 3c bd c7 7c 1d bf
       0.43555978 0.55507785 -0.045965172 -0.6151852
000080 23 1f 63 bd bc 4a b3 3c 89 a6 2b 3e c5 da 81 3d
       -0.055449616 0.021886222 0.16762747 0.06340555
000090 76 b1 68 3f f8 f8 e4 3e f5 f0 c4 3e 3f cf 94 bf
       0.90895784 0.44721198 0.38465086 -1.1625746
0000a0 53 46 3d bf c4 0b 91 bd 6a 50 75 3f d5 e3 3c bd
       -0.7393543 -0.07082322 0.9582583 -0.046115715
0000b0 ef 2c 24 3e 8f 44 3f 3e 1d 1a b6 3e d1 65 cb be
       0.16032766 0.18678497 0.35566798 -0.39726117
0000c0 2f 29 70 3e 3a 9a 9c 3d 59 e8 72 3e 69 04 99 be
       0.2345321 0.07646604 0.23721446 -0.29886177
0000d0 65 0b 69 3e 0b 52 2d be a1 e0 8a be f9 e0 80 bd
       0.22758253 -0.16925828 -0.27124503 -0.0629291
0000e0 7b 28 8d 3f b4 e0 0f 3c 86 5b 97 bf bc 9b 3f 3e
       1.1027979 0.008781601 -1.1824806 0.18711752
0000f0 bb bc aa bd e0 6e d1 be be 40 e1 bc a3 a9 53 be
       -0.08336779 -0.40904903 -0.027496692 -0.2067018
000100 40 63 17 bf 2c 28 11 3e c1 f4 d8 3e 7d e7 a8 3b
       -0.5913582 0.1417548 0.42374232 0.0051545487
000110 79 54 5b 3f ec c3 81 3e 43 1d 33 3f 5f c3 76 bf
       0.8567577 0.2534479 0.69966525 -0.9639186
000120 fe fa b4 bc 18 ef 7d bd 49 20 72 3f f1 a1 54 3c
       -0.022092339 -0.061995596 0.94580513 0.012978063
000130 06 74 33 be 65 25 89 be b6 06 d6 bc 06 a9 b0 be
       -0.17524728 -0.26786342 -0.026126247 -0.34503955
000140 95 3b 1d 3f 59 39 6c 3e 44 78 7e bf f2 ab a4 3c
       0.6141904 0.23068751 -0.9940226 0.020101521
000150 a1 e3 11 bf 77 75 65 bf 57 5b 2e bf 68 d0 7b bf
       -0.5698796 -0.8963236 -0.68108124 -0.9836488
000160 77 44 04 be b1 02 06 bf 72 a9 20 3e bc 15 ae bf
       -0.12916742 -0.52347857 0.15689638 -1.3600383
000170 85 9f 8c 3e 69 c8 ec be 3f aa dc be 25 08 be bf
       0.27465454 -0.4624665 -0.43098637 -1.4846236
000180 a7 81 87 bf df ea 87 3f ab f5 fd 3e c8 8a 12 bf
       -1.0586442 1.0618552 0.49601492 -0.57243013
000190 37 fe a7 be d2 42 21 3e f0 6f 5a be 9d 31 28 3f
       -0.32811138 0.15748146 -0.21331763 0.65700704
0001a0 e7 ae 53 3e f8 ff e3 be c7 e7 85 bd 5d 99 32 bf
       0.20672189 -0.44531226 -0.06538349 -0.69765264
0001b0 a3 07 b9 bd 9b f8 1a bf 00 61 80 3e d7 1f f3 bd
       -0.0903466 -0.6053559 0.25074005 -0.11871307
0001c0 4e 8b ac be d5 8d 73 be 88 30 76 be a3 be f2 be
       -0.3370003 -0.23784573 -0.2404195 -0.4741107
0001d0 88 16 b7 3d 0e 55 04 be fc 21 fe 3e 8c e0 ea 3d
       0.08939844 -0.12923071 0.49635303 0.1146861
0001e0 fe 6e 05 be 59 16 c7 bd a2 b5 92 bd 27 27 c4 3f
       -0.13030621 -0.09721059 -0.0716355 1.5324448
0001f0 62 08 6d 3e 48 f2 2a bf 98 0b 17 3e 9c 98 d6 3d
       0.23147729 -0.6677594 0.14750516 0.10478327
000200 29 3d fd 3e 22 2a 13 3e a4 b8 a4 3e 2c ce 1c bf
       0.49460724 0.14371541 0.3217212 -0.61252093
000210 37 84 5b bf b8 78 e0 be f8 aa b5 3e df f4 af bf
       -0.8574862 -0.438421 0.35482 -1.3746604
000220 f0 6b a2 3c 84 51 d7 bd 53 a6 ba 3d 48 cb 24 3f
       0.01982686 -0.10513595 0.09113755 0.6437268
000230 19 11 35 bd 4b aa 9f 3e f8 d6 9f 3f 3c 20 56 bf
       -0.04420576 0.3118461 1.2487478 -0.83642936
000240 71 1f 99 be a6 ee 87 bf e2 fc 59 bc 01 69 36 3e
       -0.299068 -1.0619705 -0.013304921 0.17813493
000250 dd 6f 82 be 9c ac d4 3e d4 6f 03 be 8a 13 3f bf
       -0.2547597 0.4153794 -0.12835628 -0.7463919
000260 68 2d 59 3c 79 e6 f1 3e 79 65 0a bf bd 73 8a 3f
       0.013255455 0.4724615 -0.54061085 1.081657
000270 44 c0 13 3f 0a f4 41 3f 64 b8 16 be 40 a5 43 3e
       0.5771525 0.75763 -0.14718777 0.19106007
000280 37 a1 82 be 95 8d bb 3f 48 c2 b3 bc eb 5b a3 be
       -0.25513622 1.4652582 -0.021943226 -0.31906065
000290 b8 c3 85 3e a0 be 96 be 95 a7 80 3e 23 a0 33 bd
       0.26125884 -0.2944231 0.25127855 -0.04385389
0002a0 2c f2 78 be 4a f2 f8 3e 90 bb 99 3e b5 ee 55 be
       -0.24311131 0.48622352 0.3002591 -0.20891841
0002b0 7f 57 bd 3d c2 37 15 bf de 23 ac bc 6b c1 b4 be
       0.09245204 -0.58288205 -0.021013197 -0.35303816
0002c0 f3 22 72 3e 81 ce 06 3e 9b 5f 10 3f 8d 3f 0f 3f
       0.23646145 0.13164712 0.5639588 0.55956346
0002d0 67 bd 79 3e 33 41 a4 be 54 99 c1 3e a1 de 19 3e
       0.24388658 -0.32080993 0.37812293 0.15026332
0002e0 60 b7 3f 3f c4 b7 69 bc 47 ba ef 3e 7d 81 8c 3d
       0.74889183 -0.014265005 0.46821806 0.068606354
0002f0 f9 bb 88 3e 7b 67 53 3f 34 b9 a2 3c 51 93 b9 bc
       0.26705912 0.82579774 0.019863702 -0.022653254
000300 7d c7 6e 3e e0 a2 ce bf 64 60 ba 3e 4a a9 2b be
       0.23318286 -1.6143456 0.36401665 -0.16763797
000310 3a 5e 13 3e 05 ee de bd b2 06 b8 3d 0f ae 58 bf
       0.14391413 -0.108852424 0.08985652 -0.8464059

bn2.weight f4 [200]
000000 ea b2 c0 3f b9 2c 85 3f 5e 04 a3 3f 25 c1 8f 3f
       1.50546 1.0404273 1.2735708 1.1230818
000010 eb c1 42 3f 1e 30 13 3f f3 06 61 3f e1 17 ef 3f
       0.76077145 0.57495296 0.8790123 1.8679162
000020 1b 00 29 3f f5 38 6f 3f 40 5a af 3f f2 56 e1 3f
       0.66015786 0.93446285 1.3699417 1.7604659
000030 ae 29 ab 3f 2d 79 89 3f 05 8b 9b 3f 3a 64 5d 3f
       1.3372095 1.0740105 1.21518 0.8648106
000040 dd 11 9e 3f af d3 7a 3f 35 1f 3e 3f a6 66 77 3f
       1.2349201 0.97979254 0.7426637 0.96641004
000050 ea 41 08 3f 48 3b 80 3f 61 49 2e 3f 3d 51 84 3f
       0.53225577 1.0018091 0.6808072 1.0337292
000060 4e cb 9c 3f 9a 63 73 3f 44 df bb 3f d3 64 59 3f
       1.2249544 0.95073855 1.467751 0.8491947
000070 4a 43 9c 3f 40 3a 10 40 b6 8e ac 3f 23 6c 56 3f
       1.2208035 2.2535553 1.3481052 0.83758754
000080 d8 32 f9 3f b7 ef 7e 3f ec 8d aa 3f 62 8e 8f 3f
       1.9468641 0.99584526 1.3324561 1.1215327
000090 96 2e eb 3e 4a 27 aa 3f 53 af 79 3f fd 84 4b 3f
       0.4593398 1.329324 0.9753315 0.794998
0000a0 1b cc c2 3f 4d 68 78 3f a3 5b 99 3f f4 99 01 40
       1.5218538 0.9703415 1.198109 2.0250216
0000b0 ea 5a 83 3f 11 f2 69 3f ad b6 99 3f 9e ac 81 3f
       1.026212 0.9138499 1.2008873 1.0130804
0000c0 3a 01 b2 3f d2 df c0 3f 7d 24 84 3f b1 b5 a4 3f
       1.3906624 1.5068305 1.0323635 1.2867948
0000d0 d2 d5 96 3f d7 7f af 3f 01 e9 96 3f c6 65 68 3f
       1.1784003 1.3710889 1.1789857 0.90780294
0000e0 75 6c 47 3f ab 06 79 3f 2c 1a 22 3f 74 bd ab 3f
       0.7789987 0.972758 0.63321185 1.3417192
0000f0 39 8f b8 3f 51 94 c6 3f 3e 37 a3 3f 7f f2 ae 3f
       1.4418708 1.5514013 1.2751234 1.3667754
000100 c0 46 2e 3f 3e ad a6 3f 6e f8 b9 3f 6f 60 6d 3f
       0.68076706 1.3021619 1.452894 0.9272527
000110 08 66 8f 3f a7 54 99 3f bb 5e 51 3f e0 fa 6b 3f
       1.1203012 1.1978959 0.8178517 0.9217968
000120 73 7e 36 3f 17 fa c5 3f 2a 8f 6e 3f 4e 51 97 3f
       0.71286696 1.5466946 0.931872 1.1821687
000130 23 0e 07 3f 0e 31 8a 3f 3e 46 45 3f b1 37 32 3f
       0.52755946 1.079622 0.77060306 0.6961623
000140 5c 26 92 3f 97 f0 8c 3f 56 ac dc 3f 14 c6 74 3f
       1.1417956 1.1010922 1.7240093 0.95614743
000150 99 e6 ab 3f eb d3 83 3f c7 d4 5e 3f 4c 25 59 3f
       1.3429748 1.0299047 0.8704342 0.84822536
000160 60 bd 8a 3f c3 5e 60 3f 23 c8 a3 3f b1 16 a5 3f
       1.0839043 0.87644595 1.2795452 1.289755
000170 72 e1 36 3f c2 25 cd 3f 9a 62 11 3f a9 21 ba 3f
       0.7143775 1.6027148 0.5679108 1.4541522
000180 6e 4f 82 3f 69 8c a3 3f 4d 31 99 3f b2 43 93 3f
       1.018049 1.2777225 1.196817 1.1505034
000190 8b 51 44 3f 47 76 54 3f 6a 61 86 3f bd 1d ad 3f
       0.76686925 0.82992977 1.0498478 1.35247
0001a0 e2 53 6b 3f 90 35 3b 3f f1 96 97 3f eb 04 9a 3f
       0.9192487 0.73128605 1.1842939 1.2032751
0001b0 e6 78 86 3f e6 c7 e2 3f 69 ae 78 3f 92 23 cb 3f
       1.0505645 1.7717254 0.9714113 1.587023
0001c0 fa 48 0b 3f fd 52 f7 3f a5 b7 1b 3f 81 35 80 3f
       0.5440823 1.9322201 0.60827094 1.0016328
0001d0 ee 1c 9f 3f fa db 86 3f 0e 93 4a 3f 7f 29 6e 3f
       1.2430704 1.0535882 0.7913064 0.9303207
0001e0 c7 9d 8f 3f e5 d0 8e 3f ea 7d a4 3f 64 af 8b 3f
       1.1220025 1.11575 1.2850926 1.09129
0001f0 d1 92 91 3f b4 95 1a 3f bc e7 67 3f 70 3e c4 3f
       1.137293 0.6038468 0.90587974 1.5331554
000200 b3 c6 60 3f a0 bd 76 3f 87 da ae 3f 7e 2f 07 40
       0.8780319 0.96383095 1.3660439 2.1122737
000210 01 2e 90 3f cc a9 ae 3f 0d 57 79 3f 20 96 9c 3f
       1.1264039 1.3645568 0.97398454 1.2233315
000220 f5 8f b1 3f 82 1c 4d 3f b5 b1 70 3f f0 2c bc 3f
       1.3872057 0.80121624 0.9402116 1.4701214
000230 c2 9a 96 3f f7 f6 97 3f 84 53 9d 3f 04 00 2a 3f
       1.1765978 1.1872243 1.2291112 0.66406274
000240 f5 be 6c 3f 0f 1b 97 3f f7 81 8f 3f 11 f3 48 3f
       0.9247888 1.1805133 1.1211537 0.7849589
000250 04 d6 8c 3f 60 00 48 3f a2 67 cc 3f 23 22 64 3f
       1.1002812 0.7812557 1.5969126 0.8911459
000260 9b 0c 8e 3f c5 84 98 3f 6b cf 65 3f 84 18 11 3f
       1.1097597 1.1915518 0.8976962 0.5667803
000270 fb 8d 04 3f ed 99 2e 3f 09 5e cb 3d 27 70 8d 3f
       0.51779145 0.6820362 0.09930045 1.1049851
000280 0a 8c 8c 3f 51 24 ac 3f 88 ee 9c 3f 4f 7c 41 3f
       1.0980237 1.3448583 1.2260294 0.75580305
000290 07 95 83 3f 84 47 43 3f 18 ac 89 3f 53 9e d8 3f
       1.0279855 0.76281 1.0755644 1.6923317
0002a0 e1 81 db 3e 69 60 5e 3f 1a dc dd 3e 18 b4 2e 3f
       0.42872527 0.8686586 0.43331987 0.6824355
0002b0 7e de ab 3f 78 92 fb 3e 7a 66 4c 3f 4d 22 80 3f
       1.3427274 0.49135184 0.79843867 1.0010468
0002c0 b8 29 43 3f 58 8b 0b 3f 26 3b b8 3f 42 05 aa 3f
       0.7623553 0.54509497 1.4393051 1.3282855
0002d0 a9 07 8d 3f c5 8c 91 3f d1 67 a0 3f b6 6b f1 3f
       1.1017963 1.1371084 1.2531682 1.8860996
0002e0 e4 40 8a 3f 1f 18 40 3f c8 74 b0 3f 01 e3 a8 3f
       1.0801053 0.75036806 1.3785639 1.3194276
0002f0 72 f8 bb 3f 4f 02 03 3f 18 5a aa 3f 49 48 7c 3f
       1.4685194 0.511754 1.3308744 0.985478
000300 13 2f b4 3f 9c ce 74 3f dc e4 ac 3f fa ce 90 3f
       1.4076866 0.9562776 1.3507342 1.1313164
000310 37 3a 61 3f 87 86 b6 3f a6 89 bb 3e 6c 39 1c 3f
       0.87979454 1.4259804 0.36628455 0.6102512
