myrobot/src/not_using/DDPG/save_DDPG_models/1007_1/DDPG_Actor_EP86.pt (torch, 134569 bytes, 26 tensors)

fc1.weight f4 [128, 4]
0.15082239 0.5198483 0.6093417 -0.2742874 -1.5384921 -0.06421447 -0.47927493 0.08249899
-0.07911355 -1.0318092 0.67263776 0.31052998 1.2396356 0.10372875 0.33146727 0.2962996
0.07453888 -0.6184068 -0.3973465 -1.256595 1.2089018 0.11841465 0.51957047 0.01323774
-0.12001085 -0.13096921 0.03196235 0.90305376 0.14922139 0.07905304 0.19979434 -0.8786215
-1.1741284 0.5123942 -0.061189238 0.0037416366 0.8994817 -1.0795755 -0.7668993 0.1719649
-0.76345044 -0.5398596 -0.19630358 -0.2516123 1.4196779 0.39768103 -0.871396 0.059193935
-0.60963804 0.40582627 -0.53986835 -0.32061955 1.0157201 0.763323 1.3859034 -0.6206916
-0.40738955 -0.24396145 -0.16061532 0.66663593 1.1109067 1.3722234 -0.7380305 0.2732448
0.43786576 -0.17139168 1.2253227 0.14783163 2.370231 -0.11571801 -2.174726 0.66082543
-0.5363835 -1.1842403 0.38333398 -0.35422006 -0.55037874 1.3676656 -0.87101936 -0.9502658
0.65289867 0.3095098 1.0061378 0.06922259 -0.7448915 -0.43170315 0.7258297 -0.11302991
-0.6997128 0.32647288 -1.0494672 -0.55186886 -0.13148531 -0.24264301 -0.3206992 -1.3560034
0.8331854 1.1937886 0.7953739 0.16161905 0.21936755 -0.3517662 0.037866287 -0.38537854
-0.45594615 -0.56604064 0.62829727 0.5585029 0.46322566 0.757596 -0.019399034 0.49424487
0.34317964 -0.78411084 -0.29491225 -0.15792215 1.7514341 -0.12076795 0.23709397 0.8576085
0.68939054 -0.46812987 0.36969563 -0.18312158 0.57993466 0.42956522 -0.082050696 -0.37779093
0.043855943 -1.452952 0.39290872 -0.8479914 0.29532328 -0.19315183 -0.09875344 -1.0133306
0.7503047 1.0311141 1.6033312 0.35702455 -0.8392984 1.4933736 -1.4391522 0.3901508
0.55508256 0.07165582 0.79346454 -0.19158314 -0.30037907 -0.08722062 0.44136566 0.010601851
0.83096343 -0.65575063 0.809479 -1.0344906 0.6129364 -0.54171914 -0.23023081 0.8248649
0.36112773 0.44201288 -0.60477763 -0.2747098 0.37071663 -1.5429521 1.1688153 -0.0139019815
0.6926497 0.6628188 -1.2584397 -0.7743109 1.1862943 -0.06380001 1.414275 -1.7541782
0.78939754 -0.13325708 0.49492022 -0.05449417 0.85490584 -0.48016468 0.2048956 -0.13612466
-0.88958746 0.6026963 -1.0716534 -0.38224235 -1.3326429 0.9704073 0.08632879 0.67039406
0.090846404 -0.060901772 1.7853076 0.63030684 -0.31157014 -0.5841105 1.5684038 0.3900359
-1.0333873 0.7999683 0.17693074 -0.5483649 -1.4227206 0.01366217 -0.26044503 0.7389499
-0.059268616 0.54986256 0.50098324 0.82573545 0.13993914 -0.23283891 -0.32690942 0.71562904
-1.0658106 0.50859433 0.5072079 0.4899687 0.042520545 0.7425874 -0.29300696 0.8293828
0.0035867451 0.19029865 0.5280523 0.19211671 0.384781 -0.07257344 0.4655672 -0.95342594
-0.67713785 0.43452927 0.8070935 0.2885979 1.3291774 -1.1248405 -0.8167888 -0.14002427
-0.79237145 -0.31011435 -1.0442373 0.76206934 0.5904268 0.08833042 -0.059768498 0.24725349
0.11072496 -0.01264702 -0.6896643 0.6623386 -0.86845887 0.1433459 -0.4302307 -0.17038268
00000000: 2f71 1a3e c714 053f d1fd 1b3f 666f 8cbe
00000010: 4fed c4bf e082 83bd 8663 f5be 3bf5 a83d
00000020: 4906 a2bd 5312 84bf fd31 2c3f c9fd 9e3e
00000030: 61ac 9e3f bd6f d43d 14b6 a93e 95b4 973e
00000040: d7a7 983d e84f 1ebf 0071 cbbe 1bd8 a0bf
00000050: 4bbd 9a3f 6183 f23d 9202 053f 1be3 583c
00000060: 40c8 f5bd cb1c 06be f4ea 023d 882e 673f
00000070: 7ecd 183e 8fe6 a13d e396 4c3e 57ed 60bf
00000080: d749 96bf 442c 033f 91a1 7abd 3f36 753b
00000090: 6f44 663f 882f 8abf 8353 44bf 9117 303e
000000a0: 7d71 43bf 3d34 0abf ce03 49be 54d3 80be
000000b0: 01b8 b53f d99c cb3e cf13 5fbf 5775 723d
000000c0: 3d11 1cbf 76c8 cf3e d034 0abf 3f28 a4be
000000d0: 1e03 823f 2369 433f 4865 b13f a5e5 1ebf
000000e0: 5d95 d0be 08d1 79be 5878 24be a7a8 2a3f
000000f0: 3132 8e3f 04a5 af3f 91ef 3cbf bee6 8b3e
00000100: f12f e03e 4d81 2fbe 60d7 9c3f 2d61 173e
00000110: ddb1 1740 90fd ecbd b62e 0bc0 db2b 293f
00000120: 6e50 09bf 3095 97bf 5a44 c43e 555c b5be
00000130: 9fe5 0cbf ab0f af3f 20fb 5ebf 9f44 73bf
00000140: 5e24 273f 1278 9e3e 20c9 803f 93c4 8d3d
00000150: 36b1 3ebf 3208 ddbe facf 393f 3a7c e7bd
00000160: 6120 33bf 7427 a73e f154 86bf 4747 0dbf
00000170: 16a4 06be 6977 78be af32 a4be 8591 adbf
00000180: a34b 553f 11ce 983f a09d 4b3f 777f 253e
00000190: e3a1 603e b31a b4be ae19 1b3d 5650 c5be
000001a0: c671 e9be 0ae8 10bf 17d8 203f 0cfa 0e3f
000001b0: ea2b ed3e d0f1 413f b9ea 9ebc aa0d fd3e
000001c0: 3eb5 af3e 7dbb 48bf bdfe 96be 58b6 21be
000001d0: fe2e e03f 3055 f7bd c3c8 723e 3b8c 5b3f
000001e0: e67b 303f b8ae efbe bf48 bd3e 3984 3bbe
000001f0: 9976 143f f9ef db3e 320a a8bd d06d c1be
00000200: 4aa2 333d 55fa b9bf 552b c93e f715 59bf
00000210: 9d34 973e 98c9 45be 3e3f cabd d1b4 81bf
00000220: f813 403f 8cfb 833f f539 cd3f eccb b63e
00000230: 43dc 56bf de26 bf3f 2436 b8bf d8c1 c73e
00000240: e419 0e3f 49c0 923d 7e20 4b3f 5f2e 44be
00000250: 49cb 99be b9a0 b2bd aefa e13e 63b3 2d3c
00000260: 05ba 543f 46df 27bf 043a 4f3f 306a 84bf
00000270: 66e9 1c3f 1bae 0abf a0c1 6bbe 592a 533f
00000280: bce5 b83e 834f e23e b5d2 1abf c3a6 8cbe
00000290: 92ce bd3e 747f c5bf bd9b 953f 23c5 63bc
000002a0: 7e51 313f 7eae 293f 8d14 a1bf 3d39 46bf
000002b0: 7ed8 973f 94a9 82bd f706 b53f e988 e0bf
000002c0: f515 4a3f 8b74 08be 2f66 fd3e 4735 5fbd
000002d0: 1cdb 5a3f 25d8 f5be 27d0 513e 4364 0bbe
000002e0: 01bc 63bf 4e4a 1a3f f02b 89bf 45b5 c3be
000002f0: 0b94 aabf 9d6c 783f 26cd b03d f29e 2b3f
00000300: ae0d ba3d 2374 79bd f684 e43f ca5b 213f
00000310: 1f86 9fbe 4488 15bf 75c1 c83f c9b2 c73e
00000320: 0946 84bf b9ca 4c3f 552d 353e a461 0cbf
00000330: b51b b6bf 4bd7 5f3c 0d59 85be d22b 3d3f
00000340: a6c3 72bd cbc3 0c3f 7040 003f 6663 533f
00000350: 354c 0f3e 536d 6ebe ac60 a7be 7733 373f
00000360: 7b6c 88bf 3d33 023f 60d8 013f 2ddd fa3e
00000370: 062a 2e3d 351a 3e3f 0205 96be 6e52 543f
00000380: 990f 6b3b a6dd 423e 6f2e 073f 3eba 443e
00000390: 0402 c53e 62a1 94bd d35e ee3e b913 74bf
000003a0: e858 2dbf 9f7a de3e ae9d 4e3f 1bc3 933e
000003b0: 7c22 aa3f c6fa 8fbf 1219 51bf 8662 0fbe
000003c0: dbd8 4abf 4fc7 9ebe 91a9 85bf fa16 433f
000003d0: 3626 173f 94e6 b43d d0cf 74bd 0530 7d3e
000003e0: c5c3 e23d 7235 4fbc d78d 30bf 068f 293f
000003f0: 5253 5ebf 45c9 123e 3347 dcbe cc78 2ebe

fc1.bias f4 [128]
0.22183682 -0.25083092 0.3618218 -0.4529713 0.04029478 0.45355517 0.3805734 -0.28653303
-0.4215567 0.15729839 -0.17085661 0.07714043 0.4761334 -0.12338922 0.49728525 0.27376685
0.34228855 -0.16847073 -0.4698119 -0.10817583 0.0006281969 0.090205595 -0.06815253 -0.26053795
0.14726202 -0.4281891 -0.11343283 -0.35719097 -0.10616338 -0.14762126 0.035901148 0.43872523
-0.13458431 0.13158476 -0.047132894 -0.054478586 0.09320018 0.26706922 -0.093368515 -0.08857399
0.3851458 0.15949732 -0.44271046 0.48264456 0.28959143 0.2692147 -0.18530336 -0.49651697
-0.41837645 -0.06431969 -0.4760075 0.48565868 0.272916 0.26758537 -0.20933281 -0.02481256
0.021809708 -0.3018747 0.4977175 -0.17512165 -0.2585036 -0.15807906 -0.19773673 -0.3394507
-0.46591932 0.31924057 0.22121842 -0.32234734 -0.14663514 -0.29427093 0.12187743 -0.08303758
0.13540898 0.34254992 0.32042536 0.13170452 -0.23121998 0.42028296 0.055396017 0.11920746
0.33249304 0.4269454 -0.42431238 0.39126405 0.23942827 0.48994827 -0.07808468 -0.037087556
0.101449534 -0.24930431 -0.28991336 0.05901038 -0.430665 -0.33200505 -0.18886857 0.4563225
-0.34917563 -0.412649 0.2234364 0.13844945 -0.37393743 -0.36311117 -0.13039385 -0.38083205
-0.23484626 -0.104241416 -0.10566889 -0.3257929 -0.13942121 0.44145685 0.4709408 -0.42903316
-0.2375946 -0.2560707 -0.0016689835 -0.34873036 -0.38733202 -0.19622757 0.47403613 -0.15494691
0.31827503 0.4388976 -0.19178239 0.31608844 -0.17107742 -0.36543453 -0.20358278 -0.06382871
00000000: 3129 633e e96c 80be b540 b93e dbeb e7be
00000010: 240c 253d 6238 e83e 84da c23e 75b4 92be
00000020: 48d6 d7be d412 213e 09f5 2ebe cdfb 9d3d
00000030: c2c7 f33e 7db3 fcbd 2c9c fe3e 2b2b 8c3e
00000040: 7240 af3e 9783 2cbe 2f8b f0be 4a8b ddbd
00000050: 95ad 243a b6bd b83d 8e93 8bbd 3b65 85be
00000060: dbcb 163e 9a3b dbbe 794f e8bd bce1 b6be
00000070: 306c d9bd 072a 17be 150d 133d 98a0 e03e
00000080: 78d0 09be 28be 063e 6c0e 41bd f024 5fbd
00000090: bcdf be3d 4cbd 883e fe37 bfbd 4866 b5bd
000000a0: d531 c53e 4453 233e f2aa e2be 301d f73e
000000b0: 5445 943e 82d6 893e 2ac0 3dbe 7937 febe
000000c0: 7035 d6be 0bba 83bd 41b7 f3be 41a8 f83e
000000d0: a5bb 8b3e f300 893e 575b 56be b643 cbbc
000000e0: 46aa b23c 528f 9abe d4d4 fe3e 1753 33be
000000f0: 955a 84be 7adf 21be 7f7b 4abe 7bcc adbe
00000100: fa8c eebe 8073 a33e 1587 623e b60a a5be
00000110: 8627 16be aeaa 96be e09a f93d 9b0f aabd
00000120: a7a8 0a3e b462 af3e cb0e a43e 8ddd 063e
00000130: eec4 6cbe 542f d73e efe6 623d 0a23 f43d
00000140: 873c aa3e 9698 da3e 793f d9be c353 c83e
00000150: af2c 753e 80da fa3e dcea 9fbd 1fe9 17bd
00000160: c6c4 cf3d a149 7fbe 866f 94be deb4 713d
00000170: 1f80 dcbe 91fc a9be c366 41be 1aa3 e93e
00000180: 26c7 b2be bb46 d3be 83cc 643e b1c5 0d3e
00000190: ba74 bfbe b5e9 b9be f785 05be 6bfc c2be
000001a0: 8a7b 70be 867c d5bd ee68 d8bd 54ce a6be
000001b0: 6fc4 0ebe a206 e23e 271f f13e 3caa dbbe
000001c0: 004c 73be b31b 83be cbc1 daba c98c b2be
000001d0: 6250 c6be e1ef 48be ddb4 f23e 67aa 1ebe
000001e0: f2f4 a23e 30b7 e03e 9a62 44be 58d6 a13e
000001f0: eb2e 2fbe 3c1a bbbe 0178 50be a0b8 82bd

bn1.weight f4 [128]
0.97600496 1.0638876 0.93975925 0.93805933 0.9204422 1.2098452 0.9497471 0.8566169
1.0464492 0.96134317 1.0080061 1.0054696 0.9449598 0.91901386 1.0194021 0.93382096
0.9114021 0.94893295 0.9653493 0.952857 1.0142918 0.9647918 0.8977372 0.932942
0.92823035 0.920934 0.9961719 0.9410525 0.90720206 0.90470815 0.9634752 0.94837695
0.9168211 0.9441282 0.91727567 0.99524933 0.9165303 0.9760351 0.99561465 0.9444293
0.92881566 0.9896816 0.8968576 0.9488488 0.98945695 0.9476627 0.87185603 0.98832655
0.8759782 0.9390527 0.9644198 0.9449383 0.9834299 0.8752613 0.94344074 0.9141204
0.8738986 0.95759547 0.9485686 1.0489339 0.9961168 0.8822172 0.9764426 1.0099579
1.1364774 0.93302584 0.93347526 0.8968729 0.9071057 0.9117516 0.9299313 0.98953646
0.96716875 0.9090385 0.91890275 0.9533754 0.9654755 0.961045 0.94016993 0.9529885
0.95108557 0.94084555 1.0636762 0.921699 1.3102404 0.9435253 0.96670836 0.8997546
0.9066323 0.8967158 1.0507816 0.9615037 1.1408608 1.4808888 0.9846625 0.918916
0.94147027 0.90574384 0.91645867 0.98304784 1.3326436 0.9482213 0.906805 1.0685307
0.97701716 0.9522261 1.1001213 1.4898565 0.95492303 0.8871177 0.9546506 0.9784963
0.92525834 0.9467285 0.8913809 0.9687577 0.99427867 0.8928571 0.9339282 0.8683083
0.9758591 0.91290563 1.0069971 0.97868115 0.9562455 1.0042212 0.94174963 0.8998585
00000000: 76db 793f 782d 883f 1094 703f a824 703f
00000010: 1aa2 6b3f 35dc 9a3f a022 733f 3f4b 5b3f
00000020: 0cf2 853f 961a 763f 5806 813f 3ab3 803f
00000030: e3e8 713f 7e44 6b3f c57b 823f e40e 6f3f
00000040: a651 693f 45ed 723f 2221 773f 70ee 733f
00000050: 50d4 813f 98fc 763f 1bd2 653f 49d5 6e3f
00000060: 81a0 6d3f 55c2 6b3f 1f05 7f3f d1e8 703f
00000070: 653e 683f f49a 673f 50a6 763f d5c8 723f
00000080: cab4 6a3f 63b2 713f 94d2 6a3f a9c8 7e3f
00000090: bba1 6a3f 70dd 793f 9ae0 7e3f 1ec6 713f
000000a0: ddc6 6d3f c65b 7d3f 7698 653f c1e7 723f
000000b0: 0d4d 7d3f 069a 723f f531 5f3f f802 7d3f
000000c0: 1b40 603f c265 703f 37e4 763f 7ae7 713f
000000d0: 10c2 7b3f 2011 603f 5585 713f cb03 6a3f
000000e0: d2b7 5f3f fa24 753f 64d5 723f 7743 863f
000000f0: 8301 7f3f fdd8 613f 24f8 793f 4d46 813f
00000100: 1778 913f c8da 6e3f 3cf8 6e3f 7699 653f
00000110: 1438 683f 8e68 693f fa0f 6e3f 4352 7d3f
00000120: 5f98 773f bfb6 683f 363d 6b3f 6910 743f
00000130: 6729 773f 0c07 763f faae 703f 0ef7 733f
00000140: 587a 733f 41db 703f 8b26 883f 77f4 6b3f
00000150: f5b5 a73f e08a 713f 337a 773f 5156 663f
00000160: 0e19 683f 2b8f 653f 0380 863f 1b25 763f
00000170: ba07 923f c48d bd3f d712 7c3f 143e 6b3f
00000180: 3204 713f d4de 673f 099d 6a3f 06a9 7b3f
00000190: 1194 aa3f a2be 723f 5f24 683f 9dc5 883f
000001a0: cc1d 7a3f 17c5 733f c6d0 8c3f 9eb3 be3f
000001b0: d675 743f 251a 633f fb63 743f bc7e 7a3f
000001c0: bbdd 6c3f cd5c 723f 8a31 643f 8100 783f
000001d0: 0c89 7e3f 4892 643f eb15 6f3f 7449 5e3f
000001e0: e7d1 793f 2fb4 693f 48e5 803f d98a 7a3f
000001f0: 81cc 743f 528a 803f 8116 713f 205d 663f

bn1.bias f4 [128]
-0.037785515 0.1072257 -0.08814406 -0.07070658 -0.045789324 0.10622672 -0.013724914 -0.087809734
0.36848214 -0.0048599658 -0.072562076 0.034340598 0.0068932944 -0.18424612 0.05171462 -0.05394126
-0.08812376 -0.04551013 -0.106392786 -0.083300285 0.052777644 -0.09034171 -0.11431659 -0.045253146
-0.053335752 -0.048469342 -0.0064128106 -0.027586307 -0.1417481 -0.11342298 -0.03461642 -0.12581399
-0.035815597 -0.071112 -0.029540295 0.04011616 -0.12671582 0.047052506 -0.042301714 -0.003989273
-0.14403032 -0.110524304 -0.17040755 0.09779562 0.047742974 -0.072263144 -0.06460318 -0.06336238
-0.045822352 -0.04669607 -0.10417357 -0.0065239384 0.021190556 -0.11624004 -0.02329636 -0.1497189
-0.07817694 -0.03655108 -0.071318716 -0.08226802 -0.046448022 0.038160477 -0.0760231 0.053486146
0.030808771 -0.028572867 -0.12331876 -0.022565445 -0.017257405 -0.058062997 -0.03385727 -0.018170692
0.011454964 -0.06000982 -0.02754683 -0.18345024 -0.01297356 -0.0663591 0.07099456 -0.017439421
-0.04179401 -0.09822256 -0.08375115 -0.024643779 0.09465371 -0.07144036 0.023982376 0.007868327
-0.11389594 -0.124379985 0.067104466 0.0022661379 0.22991565 -0.16251305 -0.0702135 0.024023257
0.024824066 0.030735489 -0.09264161 -0.026081719 0.21111175 -0.06967645 -0.07328464 0.061588693
0.065944344 -0.07129881 0.27442667 -0.2690779 -0.055379957 -0.019015752 0.036190018 0.0058458485
-0.008038557 0.039330814 -0.084580205 -0.03749102 0.034910426 -0.0070336275 -0.110857464 -0.0469254
-0.036728892 -0.06809313 0.027012706 -0.012859563 -0.011606969 -0.06720396 -0.13189057 -0.03373123
00000000: fcc4 1abd 2699 db3d df84 b4bd 9dce 90bd
00000010: 968d 3bbd 658d d93d 76de 60bc 97d5 b3bd
00000020: b1a9 bc3e 5940 9fbb 6d9b 94bd baa8 0c3d
00000030: 25e1 e13b 04ab 3cbe b6d2 533d 83f1 5cbd
00000040: 3b7a b4bd d468 3abd 76e4 d9bd 5799 aabd
00000050: 5f2d 583d 1305 b9bd d11e eabd 5d5b 39bd
00000060: 9776 5abd ca87 46bd 8e22 d2bb aefc e1bc
00000070: 6a26 11be 4f4a e8bd f2c9 0dbd 62d5 00be
00000080: 60b3 12bd 2ba3 91bd 7dfe f1bc d850 243d
00000090: cbc1 01be 21ba 403d 9044 2dbd 73b8 82bb
000000a0: af7c 13be 915a e2bd 517f 2ebe 1249 c83d
000000b0: 238e 433d b3fe 93bd ac4e 84bd 23c4 81bd
000000c0: 38b0 3bbd 6144 3fbd f458 d5bd c3c6 d5bb
000000d0: d197 ad3c 420f eebd 02d8 bebc e94f 19be
000000e0: 3b1b a0bd 96b6 15bd 8c0f 92bd 237c a8bd
000000f0: 4840 3ebd 294e 1c3d 00b2 9bbd 4a14 5b3d
00000100: ad62 fc3c a511 eabc 8c8e fcbd 2bdb b8bc
00000110: 675f 8dbc 77d3 6dbd ecad 0abd b4da 94bc
00000120: 9aad 3b3c dbcc 75bd e4a9 e1bc 61da 3bbe
00000130: 0e8f 54bc 48e7 87bd 9965 913d 1edd 8ebc
00000140: 3230 2bbd e928 c9bd b985 abbd c0e1 c9bc
00000150: ced9 c13d 534f 92bd b076 c43c 28ea 003c
00000160: 4642 e9bd efba febd 116e 893d 7c83 143b
00000170: 026f 6b3e d269 26be 18cc 8fbd 6ccc c43c
00000180: d75b cb3c fec8 fb3c e2ba bdbd 54a9 d5bc
00000190: ae2d 583e 87b2 8ebd 4216 96bd 6d44 7c3d
000001a0: d40d 873d 1c05 92bd a781 8c3e 94c4 89be
000001b0: 18d6 62bd ecc6 9bbc fc3b 143d 888e bf3b
000001c0: 27b4 03bc 5919 213d 6338 adbd 2f90 19bd
000001d0: 3cfe 0e3d 587a e6bb 3d09 e3bd d934 40bd
000001e0: 0971 16bd 6974 8bbd c049 dd3c ebb0 52bc
000001f0: 282b 3ebc 3ba2 89bd 520e 07be c229 0abd

bn1.running_mean f4 [128]
-21.259197 5.310559 26.391895 29.033371 -121.383675 4.0697813 84.19916 -81.439705
1.77952 9.359254 -27.003067 5.533259 -29.265568 -50.36474 61.06591 30.594767
16.895216 55.839397 -38.231064 -85.08864 10.905055 -10.70588 -53.246017 -129.05792
23.312382 -37.895054 51.015553 49.470436 -19.243433 80.64738 -18.020172 -32.86248
-85.087265 -95.6362 42.83487 39.146236 -15.09684 1.9672742 -97.33095 74.04621
-24.76072 -5.0178204 -72.94161 -159.4353 -3.806141 -13.860902 -36.340027 66.49306
63.168587 37.87205 -47.81847 68.38635 81.37156 65.20513 48.996445 80.16053
20.318289 -88.33749 31.522657 -20.356688 66.34825 23.407753 59.75276 -17.084457
-5.365206 -4.782239 -133.92448 113.86451 -15.093024 -48.382904 6.1520586 47.735153
87.598694 85.95303 32.326202 41.28163 71.926384 108.35975 25.388126 101.44197
150.90634 -69.320175 -4.8188696 -47.07771 -1.9980953 -109.261566 13.465458 95.15346
-54.643555 -36.386734 -2.3782325 -68.94155 -1.2748262 -5.9562736 -79.85102 95.41607
-52.186268 -20.384935 -53.60981 -50.46209 2.4125443 130.88625 116.74825 3.0870156
79.94922 -124.72116 -0.25892186 -3.5251117 55.72654 72.02405 27.461727 -82.54991
16.601505 94.88325 52.44199 50.157684 58.412655 -41.954796 49.474445 39.50311
-113.190674 58.45458 6.8406644 -13.506108 -27.232643 -5.0723705 -36.722187 46.203426
00000000: d612 aac1 19f0 a940 9a22 d341 5844 e841
00000010: 71c4 f2c2 a63b 8240 f865 a842 21e1 a2c2
00000020: 50c7 e33f 81bf 1541 4806 d8c1 7510 b140
00000030: e21f eac1 7e75 49c2 7e43 7442 15c2 f441
00000040: 6729 8741 8b5b 5f42 9cec 18c2 622d aac2
00000050: 1b7b 2e41 494b 2bc1 ecfb 54c2 d40e 01c3
00000060: c27f ba41 8994 17c2 ed0f 4c42 bae1 4542
00000070: 8df2 99c1 754b a142 5029 90c1 2e73 03c2
00000080: ae2c aac2 bc45 bfc2 e856 2b42 bf95 1c42
00000090: a88c 71c1 a4cf fb3f 72a9 c2c2 a917 9442
000000a0: f415 c6c1 fc91 a0c0 1be2 91c2 706f 1fc3
000000b0: d097 73c0 41c6 5dc1 305c 11c2 72fc 8442
000000c0: a2ac 7c42 fb7c 1742 1d46 3fc2 d0c5 8842
000000d0: 3dbe a242 0769 8242 5cfc 4342 3152 a042
000000e0: db8b a241 cbac b0c2 672e fc41 7fda a2c1
000000f0: 4eb2 8442 1443 bb41 d402 6f42 f8ac 88c1
00000100: c4af abc0 1a08 99c0 abec 05c3 a1ba e342
00000110: 077d 71c1 1888 41c2 aadd c440 ccf0 3e42
00000120: 8832 af42 f4e7 ab42 084e 0142 6420 2542
00000130: 4fda 8f42 31b8 d842 e21a cb41 4ae2 ca42
00000140: 06e8 1643 eea3 8ac2 2e34 9ac0 934f 3cc2
00000150: 96c1 ffbf ec85 dac2 8472 5741 924e be42
00000160: 0093 5ac2 048c 11c2 f634 18c0 13e2 89c2
00000170: 812d a3bf cb99 bec0 b9b3 9fc2 07d5 be42
00000180: bdbe 50c2 5914 a3c1 7270 56c2 2ed9 49c2
00000190: 2067 1a40 e1e2 0243 1b7f e942 aa91 4540
000001a0: 00e6 9f42 3c71 f9c2 6891 84be 6e9b 61c0
000001b0: fae7 5e42 500c 9042 9eb1 db41 8e19 a5c2
000001c0: e2cf 8441 39c4 bd42 99c4 5142 78a1 4842
000001d0: 8fa6 6942 b6d1 27c2 d5e5 4542 2f03 1e42
000001e0: a061 e2c2 7dd1 6942 b9e6 da40 0519 58c1
000001f0: 74dc d9c1 dc50 a2c0 85e3 12c2 4fd0 3842

bn1.running_var f4 [128]
397.89944 44.065804 452.33063 415.28342 7473.9233 6.341262 3909.6384 3730.8225
4.109605 189.21793 297.2172 34.557102 479.67645 2012.5316 2150.1343 389.71603
95.78003 2390.756 613.78076 4285.54 26.120924 77.65739 1401.5544 8747.312
120.76517 707.3623 1458.4185 1163.6277 112.37085 3530.8696 168.01382 683.8397
3455.1836 4896.7275 558.5069 807.36084 204.66344 1.7683959 5220.9883 3322.8064
344.60037 20.979738 2760.7517 15104.478 20.980537 91.27799 668.901 2114.4246
1776.1351 669.9734 1489.9124 2632.6802 3194.605 2501.2393 1102.8405 3311.5479
164.03316 4419.1255 367.4706 89.08673 2916.058 297.86404 2175.9377 135.64774
14.421135 15.753439 10264.688 7805.04 182.5855 990.0156 9.38019 1361.7427
4841.5146 4784.0146 441.28287 892.7038 2783.249 5911.542 202.3834 5145.5327
11030.249 2401.3684 5.4663105 1039.214 6.9320955 7007.7744 78.32094 5952.382
1732.537 885.1887 17.253914 2668.4155 3.0023062 30.864698 4041.9692 5595.42
1869.9053 301.26825 1909.2168 1669.2786 6.669281 8281.974 6925.934 4.6715746
3808.258 8755.297 13.35501 15.224864 2158.591 2849.964 355.56244 3816.5217
108.02644 5024.9556 1182.0725 2023.8934 1791.4401 1073.6472 1563.3525 869.00543
6768.5356 2136.169 40.802025 107.8006 215.95973 91.11099 534.8269 1378.5409
00000000: 21f3 c643 6243 3042 522a e243 47a4 cf43
00000010: 638f e945 9eeb ca40 375a 7445 292d 6945
00000020: e281 8340 ca37 3d43 cd9b 9443 793a 0a42
00000030: 96d6 ef43 0391 fb44 2662 0645 a7db c243
00000040: 608f bf42 196c 1545 f871 1944 52ec 8545
00000050: a7f7 d041 9550 9b42 be31 af44 3fad 0846
00000060: c487 f142 30d7 3044 644d b644 1674 9144
00000070: e0bd e042 eaad 5c45 8a03 2843 bef5 2a44
00000080: f0f2 5745 d205 9945 71a0 0b44 18d7 4944
00000090: d7a9 4c43 cc5a e23f e827 a345 e7ac 4f45
000000a0: d94c ac43 81d6 a741 078c 2c45 e901 6c46
000000b0: 24d8 a741 558e b642 aa39 2744 cb26 0445
000000c0: 5304 de44 4c7e 2744 323d ba44 e28a 2445
000000d0: aea9 4745 d453 1c45 e5da 8944 c4f8 4e45
000000e0: 7d08 2443 0119 8a45 3dbc b743 682c b242
000000f0: ee40 3645 99ee 9443 01ff 0745 d2a5 0743
00000100: f8bc 6641 160e 7c41 c162 2046 52e8 f345
00000110: e395 3643 0081 7744 4215 1641 c437 aa44
00000120: 1e4c 9745 1e80 9545 35a4 dc43 0b2d 5f44
00000130: fcf3 2d45 56bc b845 2762 4a43 43cc a045
00000140: ff58 2c46 e515 1645 04ec ae40 d9e6 8144
00000150: bad3 dd40 32fe da45 52a4 9c42 0e03 ba45
00000160: 2f91 d844 144c 5d44 0408 8a41 a6c6 2645
00000170: c925 4040 e7ea f641 829f 7c45 5cdb ae45
00000180: f8bc e944 56a2 9643 f0a6 ee44 eaa8 d044
00000190: c06a d540 e567 0146 796f d845 8a7d 9540
000001a0: 2104 6e45 30cd 0846 1fae 5541 0b99 7341
000001b0: 75e9 0645 6d1f 3245 fec7 b143 5988 6e45
000001c0: 8a0d d842 a507 9d45 52c2 9344 97fc fc44
000001d0: 15ee df44 b634 8644 486b c344 5940 5944
000001e0: 4984 d345 b482 0545 4635 2342 e899 d742
000001f0: b1f5 5743 d438 b642 ecb4 0544 4f51 ac44

fc2.weight f4 [128, 128]
-0.20467658 0.122450575 -0.03496134 -0.058607638 0.11031983 0.08265803 0.007974652 -0.2081629
-0.11702791 0.1143032 0.016948517 0.0007295379 -0.05200836 -0.17382817 0.196605 0.10909164
0.02472019 -0.11058217 0.006092838 0.052079692 0.16745718 -0.24543662 -0.120812654 0.021573171
-0.06929588 0.1058314 -0.08332018 0.043751694 -0.113340005 0.13612542 0.10391675 0.089340225
0.047136944 0.061677653 -0.088585705 0.0001950737 -0.09383237 -0.14930521 -0.17795955 -0.16666925
-0.1307761 -0.0562507 -0.01975349 0.17549779 0.07769413 -0.04465413 -0.063840106 -0.060095586
0.10530518 0.09054199 0.22709246 -0.14052676 0.15113921 0.21766675 0.07542835 0.08606488
0.25246838 -0.015508389 0.15522179 0.08185111 -0.07775921 0.09212685 -0.023847444 0.034207694
-0.03954214 -0.09514689 -0.091503255 -0.14243136 -0.045872997 -0.16694747 -0.05656743 0.10808482
0.3474335 0.016026808 0.04478316 0.0072332215 0.15201205 -0.06847306 0.03960248 0.16192865
-0.16600396 -0.083967514 0.12510458 -0.21704738 0.43650076 -0.09805247 -0.25947723 -0.13587949
0.017407103 -0.1341469 0.18705124 0.018693592 -0.04229894 0.23627354 -0.058428593 0.26783168
0.0031038513 -0.004867431 -0.10496343 -0.19436528 -0.11564183 -0.14438541 -0.039040074 -0.033675272
0.045763154 -0.08835502 -0.06293706 0.1018071 -0.0073218783 -0.14582504 0.12790968 -0.19603592
-0.033111006 0.065508164 -0.07881249 0.28129232 -0.16012326 0.24072513 0.18279491 -0.16240418
0.13762298 0.18070781 0.0027461606 -0.34673053 -0.13677555 -0.17188801 -0.012478069 -0.09167075
-0.06077576 -0.06496769 -0.18849257 -0.009545996 0.03553477 -0.07353014 0.048657797 -0.18772072
0.019538065 0.051666554 -0.055606578 -0.051693294 -0.08898727 0.052834842 0.119753845 -0.14421634
-0.12272763 -0.040388804 0.05544626 -0.008762253 -0.0716474 -0.2894428 -0.063685834 -0.1393288
-0.11110615 0.015392926 0.02127082 0.14580512 0.04139611 0.2887947 0.1417217 0.20612697
0.038058214 0.3411482 0.080459476 -0.111837536 -0.13880433 -0.083163604 -0.1005416 -0.021717487
-0.025804708 0.19026323 0.28196672 0.09548748 0.17936587 0.021521617 0.037229918 0.12953164
0.16045941 0.1271623 -0.05918804 -0.20797203 -0.10519283 0.06683012 0.020587772 -0.013516844
-0.06960121 -0.1159397 0.07294356 -0.027141033 -0.009392187 0.19431062 -0.0149919605 0.06773378
-0.14649029 -0.0089502465 0.23356213 0.20441797 -0.09737247 0.030780688 0.15252398 0.06175643
0.02190293 -0.11048467 0.074326746 0.07971207 -0.03947749 0.06915961 0.07599287 -0.061035912
-0.17777468 0.2064345 0.45340648 0.17886262 0.3814916 -0.15753278 0.26102498 -0.122990124
-0.12991168 0.06628535 0.15912189 0.037700742 0.04473112 -0.16388403 0.1798465 -0.0022371733
-0.15392666 0.18212707 0.0006621466 -0.09183312 0.0024656323 -0.040250324 0.106931664 0.0038400404
0.035124436 0.10958839 0.07775506 0.13136344 0.06716572 0.07870747 -0.24827948 0.030082623
0.03243545 0.037189156 -0.108738825 0.013020928 -0.0638512 0.031238722 0.117239766 0.016256878
0.05480802 0.11629956 0.020647222 0.052577935 0.036444243 0.018580008 0.022268418 -0.063222826
00000000: bd96 51be 5ec7 fa3d 9f33 0fbd 900e 70bd
00000010: 5def e13d 9d48 a93d 1da8 023c a828 55be
00000020: 54ac efbd cc17 ea3d 9ed7 8a3c 763e 3f3a
00000030: b806 55bd 0300 32be d252 493e 706b df3d
00000040: ff81 ca3c e878 e2bd 6ea6 c73b 8451 553d
00000050: e579 2b3e bd53 7bbe a06c f7bd 38ba b03c
00000060: 00eb 8dbd 22be d83d c5a3 aabd fa34 333d
00000070: ce1e e8bd 7664 0b3e 4ed2 d43d 02f8 b63d
00000080: ab12 413d b5a1 7c3d 6c6c b5bd b38c 4c39
00000090: 302b c0bd 77e3 18be 073b 36be 58ab 2abe
000000a0: 2cea 05be 2267 66bd 12d2 a1bc b1b5 333e
000000b0: 1a1e 9f3d 40e7 36bd 9abe 82bd ca26 76bd
000000c0: 3eaa d73d 146e b93d ed8a 683e 3fe6 0fbe
000000d0: 3dc4 1a3e 08e4 5e3e 2e7a 9a3d c942 b03d
000000e0: 8943 813e e616 7ebc 76f2 1e3e 8ea1 a73d
000000f0: 3840 9fbd 00ad bc3d b75b c3bc 5e1d 0c3d
00000100: f0f6 21bd 5fdc c2bd 0f66 bbbd 87d9 11be
00000110: 53e5 3bbd 47f4 2abe 40b3 67bd 935b dd3d
00000120: cee2 b13e a74a 833c 8c6e 373d a904 ed3b
00000130: 0ca9 1b3e 9b3b 8cbd 3636 223d a0d0 253e
00000140: f1fc 29be 29f7 abbd 6a1b 003e ab41 5ebe
00000150: 077d df3e bccf c8bd 33da 84be fe23 0bbe
00000160: 5799 8e3c ce5d 09be 5c8a 3f3e 4e23 993c
00000170: a741 2dbd b1f1 713e d252 6fbd 3c21 893e
00000180: fc69 4b3b f87e 9fbb 11f7 d6bd b107 47be
00000190: a0d5 ecbd c5d9 13be 7ce8 1fbd 15ef 09bd
000001a0: 2572 3b3d 7af3 b4bd 25e5 80bd 3e80 d03d
000001b0: 5eec efbb 2953 15be c1fa 023e a4bd 48be
000001c0: 689f 07bd 2529 863d 7168 a1bd 8c05 903e
000001d0: 5af7 23be a680 763e 972e 3b3e 484d 26be
000001e0: 0aed 0c3e 780b 393e eef8 333b aa86 b1be
000001f0: e40e 0cbe 6903 30be d170 4cbc e0bd bbbd
00000200: 01f0 78bd c80d 85bd 3204 41be cf66 1cbc
00000210: e88c 113d f896 96bd 664d 473d dc39 40be
00000220: 4b0e a03c 4fa0 533d b9c3 63bd 59bc 53bd
00000230: f53e b6bd 5969 583d 8141 f53d 73ad 13be
00000240: a058 fbbd bb6e 25bd 9e1b 633d 8e8f 0fbc
00000250: dfbb 92bd d931 94be b86d 82bd 35ac 0ebe
00000260: 9f8b e3bd 9c32 7c3c 2540 ae3c f04d 153e
00000270: f88e 293d e6dc 933e 7e1f 113e f312 533e
00000280: eee2 1b3d faaa ae3e f0c7 a43d 140b e5bd
00000290: b922 0ebe ae51 aabd c1e8 cdbd dfe8 b1bc
000002a0: 6564 d3bc 5dd4 423e f15d 903e f18e c33d
000002b0: b0ab 373e 1a4e b03c 667e 183d f1a3 043e
000002c0: 794f 243e d536 023e 296f 72bd 9ff6 54be
000002d0: 576f d7bd 3bde 883d b0a7 a83c c175 5dbc
000002e0: 148b 8ebd cb71 edbd 6f63 953d df56 debc
000002f0: b0e1 19bc 5df9 463e d7a0 75bc 02b8 8a3d
00000300: 8d01 16be 0ea4 12bc e92a 6f3e f252 513e
00000310: 386b c7bd c827 fc3c 3f2f 1c3e 4ff4 7c3d
00000320: c66d b33c c945 e2bd 9f38 983d 1540 a33d
00000330: 26b3 21bd 8ea3 8d3d 26a2 9b3d cb00 7abd
00000340: 910a 36be 9163 533e e524 e83e c327 373e
00000350: de52 c33e 4650 21be 11a5 853e 3fe2 fbbd
00000360: 9107 05be 9dc0 873d d9f0 223e 186c 1a3d
00000370: fb37 373d 37d1 27be ae29 383e 8a9d 12bb
00000380: f39e 1dbe 857f 3a3e e893 2d3a 0113 bcbd
00000390: 7296 213b 86dd 24bd fdfe da3d 30a9 7b3b
000003a0: a4de 0f3d e16f e03d 0b3e 9f3d 2384 063e
000003b0: 2e8e 893d 6231 a13d fa3c 7ebe d56f f63c
000003c0: 09db 043d a853 183d 76b2 debd bb55 553c
000003d0: 6bc4 82bd 59e8 ff3c 671b f03d 252d 853c
000003e0: 607e 603d 772e ee3d 5d24 a93c f65b 573d
000003f0: 8f46 153d 1a35 983c 426c b63c f87a 81bd

fc2.bias f4 [128]
-0.021513468 -0.10154119 0.023452807 -0.0033326321 -0.0020059973 0.057568956 -0.017453121 -0.053081207
0.025653925 0.09986946 -0.04883008 0.05055621 -0.014790619 -0.0799174 0.12850253 -0.035539206
0.011084946 -0.002603143 0.068251595 -0.08843616 -0.0770451 -0.03923272 -0.06061616 0.0348366
-0.031480946 -0.09645384 0.07509731 0.071351156 -0.08075496 -0.026372693 0.07706153 0.06612967
-0.031962078 0.0048845834 -0.042670403 -0.10889515 0.013327235 -0.063573405 -0.041362833 -0.10016653
0.021652965 -0.038916297 -0.13393715 -0.10576755 -0.041068375 0.038279478 -0.055174917 0.027030386
0.006355706 0.11963047 -0.0146285165 0.073612 -0.030795733 -0.03715 0.04682694 -0.05484487
-0.023076346 0.03307271 0.15355653 -0.008444547 0.04600425 0.030987376 -0.009334745 -0.0100882705
-0.021418214 0.04963146 -0.11967182 -0.063177675 -0.09953871 0.06876076 -0.073210075 0.11719894
-0.006326404 0.059655424 0.05149033 0.01076901 0.022330837 0.10722395 0.03997113 -0.0022382124
-0.09787103 0.0034678904 -0.06600177 0.07634792 -0.05556652 -0.08593357 -0.11602856 -0.0031296771
0.019027585 -0.03951829 -0.044669174 -0.0022094203 -0.06619754 0.08702776 -0.04696848 -0.025521293
0.03280023 -0.014403379 0.108466305 -0.07933024 0.053861428 0.076982446 0.09438955 -0.060395174
-0.033076666 0.03182166 0.018472541 -0.06283711 0.025730465 0.07857066 -0.08271978 -0.0076335385
0.072190076 -0.0011394707 -0.065081656 0.073673636 -0.01566048 0.09695828 -0.03922474 -0.060438346
-0.059581093 -0.016661873 0.05029105 -0.05644076 0.06525143 0.06874232 0.106766365 -0.044495992
00000000: 033d b0bc d4f4 cfbd 1a20 c03c 4a68 5abb
00000010: 0d77 03bb 6dcd 6b3d d9f9 8ebc ae6b 59bd
00000020: 2e28 d23c 5c88 cc3d 0d02 48bd 0714 4f3d
00000030: 5a54 72bc bcab a3bd 2b96 033e 8f91 11bd
00000040: a29d 353c 7e99 2abb 7ec7 8b3d 041e b5bd
00000050: d2c9 9dbd 7db2 20bd a748 78bd d3b0 0e3d
00000060: 2af2 00bd 9789 c5bd 9ecc 993d 8e20 923d
00000070: db62 a5bd 8c0b d8bc 6fd2 9d3d fe6e 873d
00000080: abea 02bd db0e a03b 29c7 2ebd 6c04 dfbd
00000090: 7a5a 5a3c c632 82bd 136c 29bd 1c24 cdbd
000000a0: 8f61 b13c b266 1fbd d226 09be a89c d8bd
000000b0: 5037 28bd f1ca 1c3d 18ff 61bd d46e dd3c
000000c0: 8743 d03b d200 f53d 72ac 6fbc e3c1 963d
000000d0: 5547 fcbc 992a 18bd 9bcd 3f3d 04a5 60bd
000000e0: 9b0a bdbc 4077 073d ec3d 1d3e ff5a 0abc
000000f0: f46e 3c3d 3dd9 fd3c c2f0 18bc 4649 25bc
00000100: 4075 afbc 5c4a 4b3d 8016 f5bd 4c63 81bd
00000110: f4da cbbd 71d2 8c3d 2aef 95bd ff05 f03d
00000120: b94d cfbb 3f59 743d 86e7 523d 8070 303c
00000130: 29ef b63c 3b98 db3d c5b8 233d f9ae 12bb
00000140: 9b70 c8bd 8c45 633b f02b 87bd 4c5c 9c3d
00000150: b899 63bd f1fd afbd 62a0 edbd 451b 4dbb
00000160: bddf 9b3c eedd 21bd 06f7 36bd eccb 10bb
00000170: 9392 87bd 9c3b b23d 0562 40bd 0812 d1bc
00000180: 8959 063d 26fc 6bbc 9523 de3d e577 a2bd
00000190: cd9d 5c3d f9a8 9d3d 4f4f c13d ee60 77bd
000001a0: 667b 07bd 6e57 023d ba53 973c beb0 80bd
000001b0: b2c8 d23c a7e9 a03d fd68 a9bd c322 fabb
000001c0: 64d8 933d 4b5a 95ba 8849 85bd 34e2 963d
000001d0: 684a 80bc 1092 c63d 1faa 20bd 338e 77bd
000001e0: 4e0b 74bd 7b7e 88bc fdfd 4d3d 6d2e 67bd
000001f0: 8ba2 853d c6c8 8c3d 53a8 da3d 6e41 36bd

bn2.weight f4 [128]
0.9697557 1.0354416 1.06259 1.0676876 1.0435447 0.9940894 0.93673056 0.92775226
1.0636367 0.9351503 1.0535241 1.1323438 1.1620774 1.054359 0.9593954 1.0492686
0.92216307 0.9428454 0.9529218 0.938559 0.8893897 0.95391965 1.0196097 0.90090287
0.9886137 0.9957434 0.9734027 0.9468416 0.9816464 0.9307167 0.8998786 1.036565
0.9511418 1.0109502 0.9056301 1.1066018 0.9389869 0.98225576 1.0122409 0.91864365
0.94364965 1.0313796 0.93156755 0.9374243 1.0547348 0.94958 0.9760483 0.9954215
1.0231676 1.0331005 1.0499282 0.955749 0.9153681 1.0178276 1.040591 0.9365261
1.1328263 0.8852544 0.97025764 0.97328854 0.904876 0.97717875 0.92254674 0.9966732
0.95706826 0.93854713 1.1152025 1.1867694 0.9147997 0.9514749 1.1163138 0.94053
0.97664446 0.9228594 1.1579083 0.9651015 1.0772134 0.96827006 0.97391963 1.0253325
0.9378779 0.9862783 1.0105046 0.9268781 1.0179287 1.0350491 1.0457643 1.0911433
1.0487908 0.9706384 1.0175817 0.9678905 1.0972829 1.0000418 0.9269518 0.93790776
0.9902431 0.9733824 0.9042572 0.94122034 1.0486596 0.93458104 0.97067773 0.9597359
0.9359288 0.9523241 0.9290462 1.0607287 0.92174774 0.9537718 0.9339159 0.9183853
1.0063082 0.86144656 0.9396873 0.921289 0.943544 0.96302754 0.8790843 1.0787071
1.0147952 0.9416655 1.0062875 1.0160553 1.0071023 0.9992912 1.029512 0.96783704
00000000: e941 783f 5a89 843f f302 883f fda9 883f
00000010: df92 853f a57c 7e3f 93cd 6f3f 2c81 6d3f
00000020: 3f25 883f 0366 6f3f e1d9 863f a4f0 903f
00000030: f4be 943f 3cf5 863f f09a 753f 6f4e 863f
00000040: e112 6c3f 515e 713f aff2 733f 6745 703f
00000050: 0baf 633f 1434 743f 9282 823f 92a1 663f
00000060: ca15 7d3f 0ae9 7e3f eb30 793f 3664 723f
00000070: 2e4d 7b3f 7343 6e3f 725e 663f 29ae 843f
00000080: 077e 733f d166 813f 60d7 673f 21a5 8d3f
00000090: 7261 703f 1d75 7b3f 1c91 813f 3b2c 6b3f
000000a0: 0693 713f 3f04 843f 367b 6e3f 0afb 6f3f
000000b0: 8d01 873f ad17 733f 4dde 793f f2d3 7e3f
000000c0: 28f7 823f a33c 843f 0c64 863f f7ab 743f
000000d0: 9055 6a3f 2d48 823f 1632 853f 2dc0 6f3f
000000e0: 7400 913f 08a0 623f ce62 783f 7029 793f
000000f0: f4a5 673f 6328 7a3f 062c 6c3f fa25 7f3f
00000100: 6d02 753f a044 703f f5be 8e3f 0fe8 973f
00000110: 5030 6a3f dc93 733f 5fe3 8e3f 93c6 703f
00000120: 5f05 7a3f 8340 6c3f 5736 943f e410 773f
00000130: 21e2 893f 8ce0 773f cc52 793f 183e 833f
00000140: c418 703f bc7c 7c3f 3758 813f e247 6d3f
00000150: 7d4b 823f 7d7c 843f 9bdb 853f 95aa 8b3f
00000160: c73e 863f c27b 783f 1e40 823f acc7 773f
00000170: c473 8c3f 5f01 803f b74c 6d3f b91a 703f
00000180: 9280 7d3f 972f 793f 667d 673f d1f3 703f
00000190: 7a3a 863f b440 6f3f 567e 783f 40b1 753f
000001a0: 0899 6f3f 83cb 733f f9d5 6d3f f5c5 873f
000001b0: a9f7 6b3f 642a 743f 1d15 6f3f 4d1b 6b3f
000001c0: b5ce 803f c387 5c3f 598f 703f 99d9 6b3f
000001d0: 198c 713f f988 763f ab0b 613f 1313 8a3f
000001e0: cfe4 813f fd10 713f 07ce 803f 1a0e 823f
000001f0: bae8 803f 8cd1 7f3f 0dc7 833f 2bc4 773f

bn2.bias f4 [128]
0.013974345 -0.078615636 -0.011535818 0.05077042 0.03361421 -0.06407195 0.073083185 -0.08423578
0.08004697 -0.103001684 -0.06934245 -0.1595301 -0.12853968 -0.041002546 0.01262658 -0.108538106
-0.017690763 -0.1039084 -0.10531431 -0.21616529 -0.01221922 -0.110917 0.023006259 -0.28736743
-0.047809966 -0.16200952 -0.15022463 -0.048358236 -0.11504899 -0.07057292 -0.1326538 -0.093029104
-0.114495076 -0.14857304 -0.11974831 -0.13830586 0.014849585 -0.28487536 -0.033454947 -0.05899622
-0.073565125 0.10792237 -0.068664186 -0.070994906 -0.08664301 0.017112589 0.1197558 -0.09076927
-0.09725211 -0.15254417 -0.016129052 -0.06618128 -0.035608586 0.01317554 0.016025882 -0.025440617
-0.13498098 -0.0574709 0.057666324 -0.00022340429 -0.08199835 -0.11987574 -0.18094301 0.034459367
-0.09291267 -0.004063132 -0.034674514 -0.08642526 -0.17480431 -0.052258324 -0.097173035 -0.02072907
0.02673463 -0.112666816 0.039662875 -0.04902697 -0.021445239 -0.07832461 -0.15857063 0.009156569
-0.13462274 0.22696194 -0.1744474 -0.03367825 0.073428854 -0.09520449 -0.045888975 -0.029620392
0.07591015 -0.060155854 0.00267678 -0.016932879 -0.047590207 -0.24898729 -0.020548888 -0.013985065
-0.054802813 -0.13751246 -0.17162524 -0.0734319 -0.07199647 0.05812217 -0.15047954 0.01808734
-0.23483801 -0.08971685 -0.036774594 -0.016832337 -0.010911784 -0.113866 -0.21377425 -0.0120371
-0.03867712 -0.13671541 -0.01634086 -0.0047207773 -0.111513585 -0.13227423 -0.041981906 -0.073486604
0.05623328 -0.14081743 -0.08846168 -0.040643994 -0.12735875 -0.017941026 0.011036415 -0.18310569
00000000: a7f4 643c 3c01 a1bd ba00 3dbc a5f4 4f3d
00000010: 0eaf 093d 2838 83bd a3ac 953d cf83 acbd
00000020: aaef a33d 8cf2 d2bd 6a03 8ebd dc5b 23be
00000030: e89f 03be 49f2 27bd b7df 4e3c 3a49 debd
00000040: 38ec 90bc edcd d4bd 07af d7bd 6f5a 5dbe
00000050: 2033 48bc 7428 e3bd 9f77 bc3c d321 93be
00000060: 62d4 43bd d3e5 25be 7cd4 19be 4913 46bd
00000070: ce9e ebbd 8988 90bd 66d6 07be 0b86 bebd
00000080: 657c eabd 8823 18be 9a3e f5bd 0da0 0dbe
00000090: ac4b 733c 2fdb 91be 0e08 09bd 05a6 71bd
000000a0: 50a9 96bd 6706 dd3d cf9f 8cbd c765 91bd
000000b0: e471 b1bd b32f 8c3c 8742 f53d 3de5 b9bd
000000c0: 1d2c c7bd 8a34 1cbe 1321 84bc 0d8a 87bd
000000d0: 4fda 11bd 38de 573c b648 833c d768 d0bc
000000e0: 7438 0abe 9b66 6bbd 8633 6c3d a241 6ab9
000000f0: c0ee a7bd 6981 f5bd 2049 39be 4425 0d3d
00000100: ff48 bebd 0624 85bb dd06 0ebd baff b0bd
00000110: e7ff 32be d30c 56bd a802 c7bd 03d0 a9bc
00000120: 9502 db3c dcbd e6bd 8a75 223d 81d0 48bd
00000130: edad afbc a768 a0bd 5760 22be 6f05 163c
00000140: 8bda 09be b668 683e 57a2 32be 34f2 09bd
00000150: de61 963d 92fa c2bd 14f6 3bbd 77a6 f2bc
00000160: c876 9b3d fc65 76bd eb6c 2f3b d2b6 8abc
00000170: f3ed 42bd 86f6 7ebe 2456 a8bc 9d21 65bc
00000180: ea78 60bd 11d0 0cbe 87be 2fbe 7763 96bd
00000190: e372 93bd 8311 6e3d 4f17 1abe e72b 943c
000001a0: 6079 70be 78bd b7bd f5a0 16bd f8e3 89bc
000001b0: 57c7 32bc 9432 e9bd a3e7 5abe 4237 45bc
000001c0: e66b 1ebd 20ff 0bbe 44dd 85bc c0b0 9abb
000001d0: 3c61 e4bd e572 07be 38f5 2bbd 2580 96bd
000001e0: de54 663d 7232 10be 662b b5bd 517a 26bd
000001f0: 556a 02be 0ff9 92bc 14d2 343c 0f80 3bbe

bn2.running_mean f4 [128]
-0.0012283118 0.9985153 -0.22534944 -0.46648833 -0.9421481 0.80007976 -1.7637839 0.057635196
-0.15461507 2.574371 -0.09740396 0.90686554 -0.08309911 0.32072002 -0.85887426 -0.10858933
0.24418464 1.2552625 0.268847 1.9132085 -2.3607898 0.8342911 0.18624116 3.0526328
-1.1940985 0.36310488 2.3437848 1.6315697 0.41779977 1.3664538 -0.8073401 -0.16061184
2.8134012 0.08214355 -1.3001763 0.62311286 -1.5387328 1.9959662 0.9723332 -0.03954677
-1.0260522 -1.585858 -0.3924717 -1.507945 0.7550443 -0.25829512 -2.7732518 0.4786974
0.49054474 1.0571697 -0.36636162 0.701877 -1.2820688 1.0199724 -0.16851823 -2.1388564
-1.373624 0.124713555 -0.7928376 -0.8301691 0.4190377 2.0801392 -0.04998632 -0.08334154
2.28012 -1.3011525 0.08720228 0.4957066 -1.4492097 -0.29592714 -0.35542834 -2.9320638
-1.0506238 0.649717 -0.94815385 0.3557306 0.26787958 2.034485 1.4075003 -0.31352803
1.3299297 -0.6624354 0.7174099 -0.9597627 -0.44787508 0.34035444 -0.4522943 0.37251654
0.18501645 1.4345005 -0.18286751 -0.698494 0.15071568 0.67389053 -0.7537606 -2.384501
-0.44520035 0.18597686 1.4820899 1.4884149 0.5809939 -2.8616028 -0.3979969 -0.4900658
2.2599676 0.252227 -2.5150018 -1.91729 -1.4848752 2.4685814 2.8177888 -0.8596183
-0.10975505 0.45827332 0.25901672 -0.2205038 0.96797246 1.430792 -1.6211855 0.16447282
-0.29624477 1.4583573 1.9840823 1.8335205 0.28984305 -0.17586698 2.5187974 1.0099435
00000000: 4eff a0ba b39e 7f3f 01c2 66be 8fd7 eebe
00000010: 9e30 71bf 07d2 4c3f acc3 e1bf e212 6c3d
00000020: 6a53 1ebe 7fc2 2440 ba7b c7bd 5728 683f
00000030: de2f aabd 6a35 a43e 2fdf 5bbf 1564 debd
00000040: 8a0b 7a3e 71ac a03f 50a6 893e 04e4 f43f
00000050: 2e17 17c0 1a94 553f 01b6 3e3e 565e 4340
00000060: 38d8 98bf e2e8 b93e 9200 1640 47d7 d03f
00000070: dae9 d53e f5e7 ae3f d7ad 4ebf 6e77 24be
00000080: c40e 3440 e13a a83d 2d6c a6bf 5384 1f3f
00000090: 32f5 c4bf d27b ff3f d4ea 783f cbfb 21bd
000000a0: ae55 83bf 65fd cabf 0df2 c8be 5704 c1bf
000000b0: 954a 413f 423f 84be f57c 31c0 d317 f53e
000000c0: ae28 fb3e 5651 873f c093 bbbe 36ae 333f
000000d0: d51a a4bf 758e 823f 0b90 2cbe 06e3 08c0
000000e0: e9d2 afbf d269 ff3d 68f7 4abf f685 54bf
000000f0: 1c8c d63e 0021 0540 75be 4cbd f8ae aabd
00000100: 7ced 1140 2a8c a6bf 1c97 b23d 41cd fd3e
00000110: b47f b9bf c383 97be b4fa b5be efa6 3bc0
00000120: d77a 86bf da53 263f 36ba 72bf 5222 b63e
00000130: 8327 893e 0135 0240 f828 b43f bf86 a0be
00000140: 233b aa3f 5e95 29bf 2da8 373f 02b3 75bf
00000150: e24f e5be f042 ae3e 1e93 e7be 7dba be3e
00000160: f474 3d3e b69d b73f 9f41 3bbe 81d0 32bf
00000170: 3655 1a3e 1784 2c3f 74f6 40bf aa9b 18c0
00000180: 4df1 e3be b870 3e3e 1fb5 bd3f 6184 be3f
00000190: 04bc 143f 8024 37c0 40c6 cbbe e8e9 fabe
000001a0: 4fa3 1040 e623 813e caf5 20c0 c269 f5bf
000001b0: 6410 bebf 3dfd 1d40 a756 3440 f20f 5cbf
000001c0: 41c7 e0bd cda2 ea3e d79d 843e c0cb 61be
000001d0: 0bcd 773f 3124 b73f 0283 cfbf 906b 283e
000001e0: 65ad 97be 74ab ba3f 69f6 fd3f cdb0 ea3f
000001f0: 4f66 943e 7916 34be fa33 2140 d445 813f

bn2.running_var f4 [128]
3.6065173 0.3170358 0.47059798 0.7093486 0.6539571 0.57986087 7.674674 7.2213874
0.6103756 4.939115 1.0162771 0.40330347 0.6790622 0.49714193 4.872841 0.6225712
4.3593044 3.9625654 0.87569344 1.4249557 18.527447 1.1759107 5.4026165 3.3068411
1.98088 2.2189934 1.4391032 0.8838688 1.2467173 6.602959 8.5880785 0.8124225
4.6308155 0.49948898 1.6941918 0.5318388 3.620016 1.8102245 2.5269492 0.69576645
4.229158 6.433997 2.1155152 0.37091896 2.1029603 0.09682235 7.0490074 0.66174036
1.8601935 1.2812136 0.98545945 0.68894607 1.175725 1.1432155 0.8360268 11.636256
1.8118119 12.52423 2.5641334 0.379075 0.93714106 2.2159984 0.3305957 0.50522643
1.3133079 5.2970486 0.17018902 0.51806784 2.2140744 0.43269968 0.6722675 5.099794
6.7517896 1.1246197 0.27517363 2.4665658 0.520251 2.6424413 1.4402823 1.3330132
3.6516833 0.9936838 0.59146017 0.40203866 4.23573 0.3322873 1.492563 0.5755212
0.3863004 2.7147937 6.016024 0.38039503 0.42948243 1.6037155 0.5156965 2.6021411
0.72406304 0.356446 0.9033585 3.432724 0.6332688 3.6903026 2.0070767 4.872017
2.2026813 1.2368842 12.261697 1.5478969 1.3759308 3.6972933 4.0372653 2.0375583
0.22838584 0.44624424 0.33627465 7.7947326 0.73722756 0.8152715 10.234566 0.71308744
1.93622 1.4972585 1.4353482 3.7165575 2.4399238 1.3643427 9.501083 1.7890005
00000000: 2ed1 6640 8452 a23e 38f2 f03e df97 353f
00000010: bc69 273f c371 143f ee96 f540 9b15 e740
00000020: 9341 1c3f 3b0d 9e40 5e15 823f cb7d ce3e
00000030: 05d7 2d3f 6389 fe3e 50ee 9b40 d360 1f3f
00000040: 6c7f 8b40 ac9a 7d40 722d 603f f364 b63f
00000050: 3638 9441 3e84 963f 3ce2 ac40 49a3 5340
00000060: 7a8d fd3f fd03 0e40 8934 b83f 3a45 623f
00000070: 6f94 9f3f 714b d340 c568 0941 ecfa 4f3f
00000080: a42f 9440 05bd ff3e 47db d83f 9626 083f
00000090: 58ae 6740 70b5 e73f 89b9 2140 c01d 323f
000000a0: 4355 8740 4ee3 cd40 9a64 0740 17e9 bd3e
000000b0: e796 0640 cc4a c63d 7891 e140 d167 293f
000000c0: d21a ee3f cffe a33f 1247 7c3f c55e 303f
000000d0: 287e 963f e354 923f da05 563f 1b2e 3a41
000000e0: 74e9 e73f 3f63 4841 c31a 2440 1e16 c23e
000000f0: 7ae8 6f3f ebd2 0d40 d743 a93e 8556 013f
00000100: 791a a83f 6c81 a940 0846 2e3e 18a0 043f
00000110: 65b3 0d40 d08a dd3e b919 2c3f 8331 a340
00000120: a90e d840 8af3 8f3f 8fe3 8c3e 37dc 1d40
00000130: 2b2f 053f c21d 2940 2c5b b83f 2da0 aa3f
00000140: 2eb5 6940 1062 7e3f ef69 173f 03d8 cd3e
00000150: 1a8b 8740 9021 aa3e 4e0c bf3f 5b55 133f
00000160: 2bc9 c53e 2ebf 2d40 4583 c040 23c3 c23e
00000170: 1fe5 db3e 8d46 cd3f b004 043f 7b89 2640
00000180: 325c 393f 1780 b63e 8142 673f c0b1 5b40
00000190: e71d 223f eb2d 6c40 f273 0040 90e7 9b40
000001a0: bbf8 0c40 3952 9e3f e92f 4441 7c21 c63f
000001b0: 801e b03f 74a0 6c40 4731 8140 5b67 0240
000001c0: fadd 693e 207a e43e 312c ac3e 736e f940
000001d0: f2ba 3c3f a2b5 503f c8c0 2341 e68c 363f
000001e0: 0fd6 f73f 2ba6 bf3f 7db9 b73f 14dc 6d40
000001f0: b627 1c40 c8a2 ae3f 7004 1841 f8fd e43f

fc3.weight f4 [64, 128]
0.04237941 -0.032750677 0.17024404 0.3941682 -0.057362728 -0.11309753 -0.021164129 0.16280359
-0.08521632 -0.034792952 0.06679144 -0.13932712 -0.01799308 0.15656175 -0.0710155 0.354886
0.08570139 -0.027288923 -0.1584608 -0.09460606 -0.11312632 -0.112387165 0.006727564 -0.15418337
-0.07682394 -0.02961055 -0.1531216 0.020037245 -0.05486552 -0.08470504 -0.0911131 -0.064796604
0.064174995 -0.0813539 -0.09388769 0.08383322 -0.02717217 0.2674305 0.14800656 0.21454538
-0.029084183 -0.20166294 0.09477179 0.011563629 0.09102768 0.11618742 0.063690014 -0.32583767
-0.15387964 -0.15846255 0.1191054 0.0242282 0.09529684 0.16988266 -0.05137217 0.093170434
-0.14716135 0.11339927 -0.09975072 0.046707246 0.02430559 -0.18289739 0.11972348 -0.0654896
0.27238527 0.13933171 0.09069319 0.017115671 -0.22909914 0.14048955 0.042789202 0.11912333
0.1613633 -0.04105027 -0.3403475 -0.07361892 0.2801918 -0.0019254505 0.1408204 -0.12126108
-0.23421724 -0.3990026 -0.0043238113 -0.09022595 -0.15754761 -0.17271823 0.15331176 0.056936864
0.11968063 0.09830062 0.031113511 0.09350439 -0.060661133 0.102436274 -0.3859951 0.016151303
0.032434497 -0.05530644 0.17042175 -0.038598664 0.026596557 0.17956635 0.059391428 0.03259892
-0.09569587 -0.0482834 0.060223155 0.06308933 0.17197916 -0.045073625 0.13311851 -0.038975228
0.17170167 0.010232008 0.21615984 0.061211064 0.11649179 -0.16011192 -0.11052841 -0.047072012
0.0018514557 -0.01209038 -0.007599252 0.09298109 -0.017884502 0.04941154 -0.011267591 0.05778763
-0.13865864 -0.02011064 -0.14215618 0.14071773 0.0021173907 0.12085425 0.09980556 0.041746233
-0.2742299 -0.07818929 -0.12163572 -0.084820606 0.3278977 -0.0408736 -0.06324851 0.03174613
-0.09603718 -0.019175382 -0.16939045 0.13047427 0.051351618 -0.14427747 -0.075223014 0.05596424
0.118005045 0.00023265164 -0.05063898 -0.19967782 0.13002126 0.16174193 0.0313018 0.3046268
-0.0055137672 -0.12901387 0.07228715 -0.101466976 -0.11695586 -0.25251865 0.052557018 0.08521142
0.15327571 0.06736833 0.093174435 -0.15214203 0.14973992 0.031719312 0.14148803 0.08842238
0.25526166 -0.039962154 0.0077814157 -0.14748369 -0.09074545 -0.016896306 -0.063831225 0.0193923
0.2325695 0.0094091855 0.17260882 0.18697204 0.06811835 -0.14004844 0.17817684 0.13355504
-0.044413928 0.016627798 0.32519045 -0.08524522 0.05317577 0.015967872 0.0652867 -0.05845807
-0.22062632 -0.28803405 -0.2123706 -0.05659156 0.13166738 -0.08616825 -0.1799444 -0.010727815
0.087245755 -0.17962871 -0.13646135 -0.106801346 -0.28197253 0.034727246 0.022468718 0.15185903
0.1387011 0.06341541 -0.001238364 0.045961358 0.1308423 -0.10216691 -0.014719205 -0.06716479
-0.035034373 -0.1314016 0.0019058891 0.027231615 -0.026991934 -0.06443985 -0.1383356 0.02537267
0.25466233 0.155857 -0.1171092 -0.10607714 0.04150896 -0.02809488 -0.039201237 -0.070064634
0.025591174 0.07977584 0.12292011 -0.037513677 0.034174737 -0.10755999 -0.09573398 0.32585654
0.18971682 0.18594348 -0.05983028 -0.08053915 -0.084064454 -0.027629903 0.21381815 0.14434415
00000000: 0896 2d3d 9325 06bd 7454 2e3e 6ad0 c93e
00000010: 2ef5 6abd ae9f e7bd 6560 adbc fcb5 263e
00000020: e585 aebd 0e83 0ebd f3c9 883d c5ab 0ebe
00000030: 3966 93bc b951 203e 9370 91bd 9eb3 b53e
00000040: 3684 af3d 058d dfbc 8c43 22be d2c0 c1bd
00000050: c6ae e7bd 3e2b e6bd e672 dc3b 3fe2 1dbe
00000060: df55 9dbd d391 f2bc e9cb 1cbe 2625 a43c
00000070: abba 60bd d679 adbd 8199 babd 15b4 84bd
00000080: 2e6e 833d e09c a6bd 3048 c0bd c0b0 ab3d
00000090: 2c98 debc a7ec 883e 088f 173e c9b1 5b3e
000000a0: f441 eebc bb80 4ebe b617 c23d 6075 3d3c
000000b0: b86c ba3d acf3 ed3d e96f 823d 32d4 a6be
000000c0: a092 1dbe 0244 22be 88ed f33d 387a c63c
000000d0: fd2a c33d b8f5 2d3e a06b 52bd 24d0 be3d
000000e0: 77b1 16be e03d e83d 1b4a ccbd 1950 3f3d
000000f0: 841c c73c 7449 3bbe 9531 f53d 691f 86bd
00000100: 1576 8b3e f9ac 0e3e 5abd b93d 2a36 8c3c
00000110: f798 6abe 7edc 0f3e bb43 2f3d eff6 f33d
00000120: 6c3c 253e 5424 28bd 0742 aebe 84c5 96bd
00000130: 4d75 8f3e 665f fcba 3933 103e bb57 f8bd
00000140: a5d6 6fbe 124a ccbe c2ae 8dbb 62c8 b8bd
00000150: 2954 21be 0cdd 30be c2fd 1c3e a136 693d
00000160: 1e1b f53d d651 c93d c3e1 fe3c 3b7f bf3d
00000170: cf77 78bd 1cca d13d 26a1 c5be bd4f 843c
00000180: 09da 043d 0189 62bd 0a83 2e3e a219 1ebd
00000190: 06e1 d93c 3ee0 373e 6d44 733d 7286 053d
000001a0: 32fc c3bd d0c4 45bd 8eac 763d fb34 813d
000001b0: 4e1b 303e 1f9f 38bd 3850 083e 7da4 1fbd
000001c0: 90d2 2f3e 27a4 273c 0159 5d3e 74b8 7a3d
000001d0: 3f93 ee3d 61f4 23be b85c e2bd 95ce 40bd
000001e0: 8bac f23a bb16 46bc 2503 f9bb df6c be3d
000001f0: 8582 92bc c163 4a3d b49b 38bc b9b2 6c3d
00000200: 88fc 0dbe 12bf a4bc 6491 11be 4f18 103e
00000210: ecc3 0a3b 6f82 f73d dc66 cc3d 19fe 2a3d
00000220: dd67 8cbe b521 a0bd 261c f9bd 6db6 adbd
00000230: 35e2 a73e 136b 27bd 6f88 81bd 3b08 023d
00000240: 24af c4bd b115 9dbc b174 2dbe 0c9b 053e
00000250: 1356 523d 79bd 13be 860e 9abd c23a 653d
00000260: a1ac f13d f3f3 7339 d26a 4fbd 5878 4cbe
00000270: 4b24 053e ad9f 253e 5136 003d 0bf8 9b3e
00000280: d5ac b4bb 361c 04be 490b 943d ebcd cfbd
00000290: 8e86 efbd 204a 81be 0746 573d 5383 ae3d
000002a0: 4ff4 1c3e 68f8 893d 3dd2 be3d 1fcb 1bbe
000002b0: 6c55 193e 1cec 013d 3de2 103e cb16 b53d
000002c0: a8b1 823e 5baf 23bd 3ffb fe3b f705 17be
000002d0: c0d8 b9bd 1f6a 8abc f2b9 82bd 9adc 9e3c
000002e0: b326 6e3e fc28 1a3c 5ec0 303e 9975 3f3e
000002f0: a281 8b3d dc68 0fbe fd73 363e a7c2 083e
00000300: 61eb 35bd 0537 883c 5d7f a63e 0c95 aebd
00000310: d6ce 593d 0ecf 823c 09b5 853d bb71 6fbd
00000320: deeb 61be 3379 93be ae77 59be 8dcc 67bd
00000330: d0d3 063e fb78 b0bd 5843 38be b8c3 2fbc
00000340: e7ad b23d 97f0 37be 86bc 0bbe aaba dabd
00000350: b45e 90be 283e 0e3d 5110 b83c ef80 1b3e
00000360: a907 0e3e f0df 813d 9a50 a2ba fa41 3c3d
00000370: 86fb 053e e33c d1bd d228 71bc b28d 89bd
00000380: 3480 0fbd 248e 06be 07cf f93a d614 df3c
00000390: 301e ddbc 0af9 83bd d9a7 0dbe 58da cf3c
000003a0: 1a63 823e fa98 1f3e f3d6 efbd f93e d9bd
000003b0: 4d05 2a3d 3c27 e6bc 7a91 20bd 0c7e 8fbd
000003c0: 95a4 d13c 8461 a33d 8abd fb3d f1a7 19bd
000003d0: cffa 0b3d 6948 dcbd 2d10 c4bd abd6 a63e
000003e0: 2045 423e f867 3e3e 9810 75bd b6f1 a4bd
000003f0: fc29 acbd 1b58 e2bc 25f3 5a3e f4ce 133e

fc3.bias f4 [64]
0.078427896 0.06136055 -0.02523662 -0.07847421 0.049993403 0.056728657 0.0048628296 0.0652518
-0.06331658 -0.04548067 -0.07315627 -0.036361575 0.11492965 -0.029035958 0.03380239 -0.010695118
0.010915582 -0.04923014 0.0052863993 -0.054483213 -0.025294635 -0.053360857 -0.038506918 -0.043571603
-0.014201272 -0.05640913 -0.07607189 0.022738822 0.008132038 -0.09971333 -0.023200039 0.08093474
-0.07897569 0.060729306 -0.04068733 0.045936335 0.06915718 -0.026164856 -0.018279906 0.052162
0.04377055 -0.003458094 -0.023755437 0.09468007 -0.0032865165 -0.024837004 0.070251726 0.044779196
0.0069486825 -0.041664176 -0.06033563 0.12248561 0.08035413 0.1058011 0.013135499 0.0940536
-0.07466108 -0.007272579 0.059329208 -0.09335459 -0.060488142 0.06176947 -0.04460304 -0.060333367
00000000: ce9e a03d 3355 7b3d 07bd cebc 16b7 a0bd
00000010: e2c5 4c3d 4f5c 683d 5f58 9f3b bca2 853d
00000020: 20ac 81bd f049 3abd f4d2 95bd e0ef 14bd
00000030: 3d60 eb3d d1dc edbc 6074 0a3d 943a 2fbc
00000040: 45d7 323c 8ba5 49bd 8839 ad3b ca29 5fbd
00000050: b236 cfbc ea90 5abd 6eb9 1dbd 2378 32bd
00000060: 74ac 68bc 430d 67bd 94cb 9bbd c446 ba3c
00000070: 3d3c 053c 8136 ccbd 020e bebc 1dc1 a53d
00000080: 02be a1bd 4bbf 783d c2a7 26bd bd27 3c3d
00000090: 48a2 8d3d ae57 d6bc bebf 95bc d2a7 553d
000000a0: c048 333d 31a1 62bb c39a c2bc a0e7 c13d
000000b0: 9962 57bb f976 cbbc 23e0 8f3d 646a 373d
000000c0: c6b1 e33b 0ea8 2abd 7e22 77bd bcd9 fa3d
000000d0: b590 a43d 3fae d83d 4736 573c 2d9f c03d
000000e0: e9e7 98bd d04e eebb 2f03 733d b130 bfbd
000000f0: 6ac2 77bd fc01 7d3d adb1 36bd 1f20 77bd
