myrobot/src/SAC/saved_model/1206_3/sac_300.pt (torch, 47502 bytes, 8 tensors)

fc1.weight f4 [128, 4]
00000000: 6777 863f 7c5d a03e e524 c83e 595c fb3d
00000010: a45c 8bbe f0b0 123e 8835 8bbd 041d eabe
00000020: d218 863d 1e39 623e e329 cc3e e0b7 8a3e
00000030: 7940 8a3e b1be 15bf 6fd6 ea3d 75aa 9d3e
00000040: 9bd1 cbbe 2502 a9be c2a1 3bbf 30db 443e
00000050: b536 1bbe 5bb9 8ebe 1544 643e 1e96 0dbe
00000060: 96de 9fbf d65b 85bc 0b82 2bbe a0b7 a13d
00000070: 4be7 efbd d8e6 e03d c4e6 b0bd 2a00 64be
00000080: 0669 04bf 188d 963e ecd9 ac3d 6336 1f3e
00000090: 8bb9 823f 71bb 13bf ff59 2c3e 07a3 8a3d
000000a0: cf38 343f 9fe4 63be 7443 85bb e5dd edbd
000000b0: 8e5f a23f 2635 143d 39b1 0abf d5bf f8bb
000000c0: 46e1 bebf 6391 6f3d ea56 86be 89cf 193e
000000d0: 006f 003f 34e6 13be 0de2 2dbf 0ae2 dd3e
000000e0: 14ed 9a3f 7ffe 8d3e c86a 84be 2c83 8e3c
000000f0: 2af2 d13f 268c 34be 596a 19be 135c ab3e
00000100: bcf6 923f 7231 be3b 5ae9 1d3d ae8a cf3d
00000110: 6ac2 783f b056 2dbe a79b 1b3f 9414 eb3d
00000120: 7b3c ee3e 0aa5 273d 621e b63e 1068 b6be
00000130: 293a d3be 90b6 ac3d c284 09be 6673 af3e
00000140: 2661 823f 82c9 99bc ed0b d7be 3caa 9e3e
00000150: e096 673e f065 183f c05e 1bbe e891 afbb
00000160: 61a9 e8be 03cb 6b3e e965 0ebd afc5 a8be
00000170: 13b7 debd 1c54 9c3e 4460 4e3e bedb 843e
00000180: 5b70 97bf d81a 75be 54ea 7dbf 15de bd3e
00000190: 04cf bfbe 8650 59be 8f75 ea3e 84ef 4cbe
000001a0: 35f9 c0bb a66e f8bd 4911 98bf a792 443d
000001b0: c572 2e3f b728 88be b2c0 f73e b0ea c23e
000001c0: dac8 adbe c171 30be 90f6 05bf 409b 8b3e
000001d0: 8475 9dbf 2bf7 9b3e e900 bd3e 6216 db3c
000001e0: cf14 17be 9be3 0abe 9f47 f4bd 0478 933e
000001f0: 2b75 b2be e62f 323f 3dd8 8d3e f425 9abd
00000200: f0dc 7cbe f7ed 973e adf3 563d 747e d4be
00000210: 5f8e 303f ddfc de3e 949f 0c3f b089 c03e
00000220: b5a6 423f 1de1 303e af46 2d3e 96bc 22be
00000230: c1ad 2bbf 4486 bf3c 1443 213e f109 fe3d
00000240: c0d7 75be 6ff9 3c3d e327 23bf b072 cb3e
00000250: 58aa be3f 45d3 6c3d 3ab6 ac3e 8987 0a3e
00000260: 0ada d1be 93d6 fbbb 9577 803e a043 77be
00000270: 6207 4e3e 5980 773c abf8 f73d dfb0 b3be
00000280: 27df afbf ea31 d5be cc06 53bf 4997 b33d
00000290: f6fe 61bf 839c 2ebb 1496 15bf aa5d 9a3e
000002a0: 2c6f 433f 9025 f83e 6693 8bbf 46b9 a63c
000002b0: f5d8 30bf 363e 40bf 344c 913d 0801 59be
000002c0: 660f 6dbe a539 bb3e 601a adbd b3ef 52be
000002d0: 633b 9e3f a191 813e 7a3f e8be 7aae 943e
000002e0: dc07 1cbf 49f2 c43e f446 d6bd 7d61 d5be
000002f0: a32c ba3e 4259 a83d 5391 ae3e d187 ddbe
00000300: ff36 223e d77c c6bc 5d75 1e3f 0bc2 9d3e
00000310: d1aa 213f 5dab 9abc b10a 4e3e 0426 9ebe
00000320: 28f1 253e 7e66 cb3d 0895 1c3d 0327 a4be
00000330: 8969 053f 39bd 083e a33b 65bf f343 753e
00000340: 5b4a bbbf fa9e 1dbe 5a61 adbe 593d 513d
00000350: 3c00 75be e31a 1c3e 4240 803e aa2d 42be
00000360: 5b61 1e3f ed7b 0bbe 2712 bfbe a808 33be
00000370: 1567 24bf a8d4 dbbe 2066 133e 61c3 c0bd
00000380: 98d6 92bf e0be 45be 64a3 043d 2777 a43e
00000390: b222 06bf 98eb ea3e da4f d73e 27c9 3fbe
000003a0: 742b 8dbe e837 0a3f cc7f 203f a4db 3cbd
000003b0: daa0 41bd 6fb9 d43e 6e61 673a 614a 93be
000003c0: ad69 163f b1b8 18bf 8445 97be 3b4a f2bd
000003d0: 2f87 213f c4cc 9b3e 3b1d d93e a0fb c3be
000003e0: e2f8 373f 7bac 113f 98dc 68be cb9a b3bc
000003f0: 06cd 9d3f 65f8 4cbe 1ff7 3b3e bd97 873e
1.0505189 0.31321323 0.39090648 0.12273473 -0.27219117 0.14325309 -0.0679732 -0.45725262
0.06547703 0.22092101 0.39875707 0.2709341 0.27002314 -0.58494097 0.11466681 0.3079411
-0.39808354 -0.3300945 -0.732937 0.19224238 -0.15157588 -0.2787579 0.22291596 -0.13826796
-1.2489803 -0.016279142 -0.16748826 0.07896352 -0.117140375 0.1098153 -0.08637765 -0.22265688
-0.51722753 0.2940452 0.08440003 0.1554809 1.0212873 -0.5770789 0.16831206 0.06769376
0.70399183 -0.22255181 -0.004066879 -0.11614589 1.2685411 0.0361835 -0.5417667 -0.0075912275
-1.4912498 0.05848826 -0.26238185 0.15020575 0.5016937 -0.14443284 -0.6792305 0.43336517
1.21036 0.27733228 -0.25862718 0.017396532 1.6402028 -0.17631587 -0.14981975 0.33468685
1.1481547 0.005804234 0.03855262 0.10133873 0.9717165 -0.169276 0.6078438 0.11478534
0.46530518 0.040928878 0.35570055 -0.35626268 -0.4125531 0.084332585 -0.1342955 0.3426773
1.0185897 -0.018772844 -0.42001286 0.30989254 0.22616148 0.59530544 -0.15172863 -0.0053579696
-0.45441726 0.23026662 -0.034765158 -0.3296332 -0.108747624 0.3053292 0.2015391 0.259489
-1.1831163 -0.23936021 -0.9918568 0.37083498 -0.37462628 -0.21222124 0.45792815 -0.20013243
-0.005889083 -0.121304795 -1.1880275 0.04799142 0.68143874 -0.26593563 0.48389202 0.38069677
-0.339423 -0.17230894 -0.5232935 0.27266884 -1.2301488 0.30462012 0.36914757 0.026744071
-0.14754032 -0.13563387 -0.11927723 0.28802502 -0.34855017 0.6960434 0.2770404 -0.0752677
-0.24693656 0.2967374 0.05247848 -0.41502726 0.6896724 0.43552294 0.54930997 0.37605047
0.76035625 0.17273374 0.16921495 -0.15892252 -0.67062 0.023379453 0.15748245 0.1240424
-0.24008083 0.046136316 -0.6373274 0.39735937 1.4895735 0.05781867 0.33732778 0.13528265
-0.40986663 -0.0076854913 0.25091234 -0.2414689 0.20120004 0.015106284 0.121079765 -0.3509588
-1.3739976 -0.41639644 -0.82432246 0.0876909 -0.88279665 -0.0026643581 -0.58432126 0.30149585
0.7634151 0.48466158 -1.0904357 0.020352017 -0.6908105 -0.75094926 0.07094613 -0.211918
-0.23150405 0.36567417 -0.08452296 -0.2059925 1.2361873 0.2530642 -0.4536093 0.29039365
-0.6094949 0.384661 -0.10462752 -0.4167594 0.3636218 0.082201496 0.3409525 -0.43267682
0.15841292 -0.02422945 0.6189783 0.30812106 0.6315127 -0.01888054 0.20121266 -0.3088838
0.16205275 0.09931658 0.038228065 -0.32061014 0.5211416 0.13353433 -0.89544123 0.23951702
-1.4632066 -0.15392676 -0.33863336 0.051083896 -0.2392587 0.15244631 0.25049025 -0.18962732
0.618673 -0.13621493 -0.37318537 -0.17483771 -0.6421979 -0.4293568 0.14394426 -0.094122656
-1.1471739 -0.19311094 0.032382384 0.32122156 -0.5239669 0.4588287 0.4205311 -0.18729077
-0.27572215 0.53991556 0.62695 -0.046107903 -0.04727254 0.41547725 0.0008826469 -0.28767684
0.58755 -0.59656817 -0.29545224 -0.118305646 0.630969 0.3042966 0.42405114 -0.38277912
0.7186414 0.5690381 -0.227404 -0.021924397 1.2328193 -0.2001663 0.18355988 0.26482955

fc1.bias f4 [128]
00000000: 1c4d 67bf 0414 c53e c268 173f 81dc 70bd
00000010: dbbc 503e 5436 cfbd a2ff 903f 8daa 283f
00000020: 3315 98bf 08a5 293f e774 50bd eaa4 553e
00000030: e0ea 28bf ea30 9abe ba05 883f 9431 5fbf
00000040: 1a04 643f 8624 763e 3e5a 50bc ff7f 5a3f
00000050: f372 62bf 925c d5bd 5bb2 0abf 92cd 80bf
00000060: b867 193e cbbf f63e 7d4e 34be ff50 6c3f
00000070: ff16 89bf 2b9f 3e3e 4abb af3f 8a11 283e
00000080: afc0 833e 7acb 49bf 5ca5 d2be e378 0b3e
00000090: 447b b2be f91e 0f3f 5134 6c3d e981 b3be
000000a0: abb0 b7be 6e08 0bbf aa99 5d3e ad85 83be
000000b0: 0f45 5f3f f745 8b3f 95e1 a9be 2fed b03e
000000c0: c6bf 8a3e 1239 cebe 4076 ffbe 9097 46be
000000d0: 112a 11bf 48e5 a8be 0a15 933d 37d7 a7bc
000000e0: 080e 333f eae9 7e3d f4a3 a53e 4b1e d0be
000000f0: cabb 293f f384 cf3e 46c6 a63f 7e0f 38bf
00000100: 10b1 1f3f cc83 2bbe 79da ea3e 56eb 203f
00000110: ddd5 f0be 4267 85be 3605 68bf b9f7 cebe
00000120: 4485 9dbe 34e1 bfbe 9a8e 4e3e e9af 32bf
00000130: b697 683f 85bd b13c e49c 01bf 795c 6b3f
00000140: 63f6 e0be b811 933e fcf2 35be 40c7 8bbf
00000150: 58c2 713f ff39 a73f 10d4 dcbe 803d efbe
00000160: f138 8abf ad4d e8be 7e70 1e3f 7726 143e
00000170: a883 9b3f 38b6 923e db96 a5be 3150 0bbe
00000180: be97 3d3f 1d48 af3f c53c 063f 88b0 20bd
00000190: 0edb 1b3f 29d9 8c3d f6fc 1c3f 74ff 72bf
000001a0: 8e05 7a3f 2b24 eb3e 2275 643f 4de3 87bf
000001b0: 18bf b5bd 8ab0 2ebf b432 d1be 820e 323f
000001c0: d528 043f 2ccb d73f 67f5 903d 30af 3a3f
000001d0: 079f ea3e cdf3 fbbc 92a1 753d 1aaf d33e
000001e0: 8c74 32be 55ef 18bf a5a9 a73f 4ff9 83bf
000001f0: 478b 81bf 4041 a83f c267 703e d811 3b3e
-0.90352035 0.38491833 0.5914422 -0.05880404 0.20384543 -0.10117784 1.1328013 0.6588524
-1.188147 0.6626744 -0.050892737 0.20863691 -0.6598339 -0.30115443 1.0626748 -0.87185025
0.8906876 0.2403737 -0.012716828 0.85351557 -0.8845665 -0.10418047 -0.541784 -1.0062735
0.14980972 0.481932 -0.17608066 0.9231109 -1.0710143 0.18615405 1.3729031 0.1641294
0.25732943 -0.78826106 -0.41141784 0.13620333 -0.3485967 0.55906636 0.05766708 -0.3506005
-0.35876974 -0.5430974 0.2164065 -0.25687924 0.8721475 1.0880727 -0.33179918 0.34555957
0.27099437 -0.40277916 -0.49894905 -0.19393754 -0.56704813 -0.32987428 0.07181747 -0.020488365
0.69943285 0.062234797 0.3235165 -0.40648112 0.6630217 0.4053112 1.3029258 -0.7189864
0.6237955 -0.16749495 0.45869806 0.62859094 -0.47038165 -0.26055342 -0.9063295 -0.40423372
-0.30765736 -0.37476504 0.20171586 -0.6979967 0.9085649 0.021696815 -0.5063002 0.9193798
-0.43937978 0.28724456 -0.17768472 -1.0920181 0.9443717 1.3064574 -0.4313054 -0.46726608
-1.0798627 -0.45371762 0.618904 0.14467798 1.2149553 0.28654647 -0.32341656 -0.1360481
0.74059665 1.3693882 0.52436477 -0.039230853 0.60881126 0.068773575 0.6132349 -0.9492104
0.97664726 0.4592603 0.8924123 -1.0616242 -0.08874339 -0.6823813 -0.40858996 0.6955339
0.51624805 1.6858878 0.07078057 0.72923565 0.45824453 -0.030755902 0.05996854 0.4134453
-0.17427272 -0.5974019 1.3098646 -1.0310458 -1.0120629 1.3144913 0.2347708 0.18268526

fc2.weight f4 [64, 128]
00000000: b6da 9f3d 1980 d4bd 7cd5 9a3c e1fe 00bd
00000010: 90a9 edbb a5e5 15be c318 bd3b 02b3 47bd
00000020: 36f8 84bd b155 0e3e daa4 96bd c7c7 8fbd
00000030: 0454 d1bd d343 c8bc e63d 4b3e a371 28bc
00000040: d301 8e3d 6949 6f3d 21f7 94bd 83d3 90bd
00000050: 64da 9b3d 3d95 55bd 2395 f73d 3750 4ebc
00000060: ab22 d1bd 1891 2bbd 42fb eebd d430 2f3d
00000070: 2297 a9bd eed8 c9bd 4038 963d cb6d cb3d
00000080: 1db0 3cbc 621a 373d 6192 02bc 2af4 4bbd
00000090: 2cfb 96bd 56b6 5b3d 3919 8dbd c1ee 86bd
000000a0: 035c 66be 63ce 29bd effa 8b3d 7ba1 9c3d
000000b0: 7a79 a83d 47e6 963d 200d 2f3e 4f0b 973c
000000c0: ca9c aa3d 53f6 40bd cc9f 3d3c f9cf 60bc
000000d0: 8940 9abe 4306 7ebd f0e5 2d3d b667 05bd
000000e0: a550 9dbd c8be 5fbc b09c 44bd 1297 3e3e
000000f0: f6ea 943d d016 763d 59d8 2b3d 00f4 7c3d
00000100: b0d6 94bd 3262 8abe 979a 05bd 4e41 4d3d
00000110: 6362 cbbd 955f a6bd 8459 acbd a344 99bd
00000120: 1787 36bd 648e 9a3d 8dde dd3d 3ccf b33c
00000130: 753e 90bd 463b 6fbe 235d d7bd 4460 4ebd
00000140: 64b2 05be 8442 ab3d 0285 b23d cc50 a7bc
00000150: f9ff 0fbe 2e53 9c3d 54ed 03be 87e5 bdbe
00000160: 407b c03c 98bd e2bd abfe ad3b e1b7 d3bd
00000170: 763c 233e a905 3ebd 332a c53c 1d53 2abc
00000180: a61a b2bc d48c a63e 0c9e a93d a52b 42bd
00000190: c6c3 9ebd 1a00 4cbc 6454 0ebe bc4b 26be
000001a0: acff 60bd b64a 2abe fda1 f03b f206 71bd
000001b0: cae9 df3c 7ed4 90bd 71fe d2bc 795d 6f3d
000001c0: 228e 393d 1649 be3d d330 ba3a 570b d83d
000001d0: 06b4 c63d 8b3d 2a3c 0daf b73d 1c61 3d3d
000001e0: e36f 253d f4c6 973d 4b91 b83d 6994 343d
000001f0: 7b1c 0fbe 5788 803e 2b7e 91bd 9cfe a9bd
00000200: 8c1b dfbd b654 af3d a352 e43b c2a8 58bd
00000210: 09f5 803d 184f 7d3b aaf4 343d 068a 49bd
00000220: a98a a33d d63e a0bd ee33 9abd 8c2c 9d3e
00000230: 197d 9ebc 92f9 883d 8ba1 6cbd d975 3ebd
00000240: ce9c a6bd 38e8 d5bd 0218 393c 7078 2c3d
00000250: 0292 4bbd 4045 8ebc a52d d9bc b210 4abd
00000260: c7a8 9f3d 7df5 823c f9ad d53d 3448 153d
00000270: a603 7c3d 6797 f53b ef5b 7c3b 36fe 0bbe
00000280: 116f 8ebd 83d5 94bd af6a 52bd 2174 40bd
00000290: 9064 a43d eae5 e1bd 9333 acbd b01d 65bd
000002a0: f83d 183d 987e e9bc 7112 343e b277 9f3c
000002b0: ef2d 4bbd 0540 723a 45a8 013c 9def 08bd
000002c0: 3c0d 9ebd acd9 5b3c 8332 63bd 29d3 ee3c
000002d0: 9b3b 183e 4b06 353d a8f6 59bc 8f07 9b39
000002e0: 2304 5e3d d292 f9bc 87af 03bd 581f 87bc
000002f0: f302 6cbd 3dd6 0bbe 1f38 28bd d7c7 d9bd
00000300: 82a7 173b 9670 c53c eefd be3d 276a 9ebc
00000310: 4d48 b43d 651f eabd a3d8 223d af70 233c
00000320: dbc3 df3c 01e6 bdbc 0213 5bbd fb61 063d
00000330: 7849 babd 3f2d 1f3e 15c1 38bb d163 e7bc
00000340: 344a aa3c c3f7 1d3d ad1d b2bd 4c3b b23c
00000350: 3ca0 dc3a c5dd f23b d0eb c9bc 37a4 8a3e
00000360: 23ae 95bd 4cbc 303e 3446 2e3d d189 a53d
00000370: 7563 31be 4a18 8dbd 61c9 77bd d2e7 d5bd
00000380: a019 69bd f5e0 66bd 8c78 52bd 7a72 c9bd
00000390: aaa2 d3bc 540b f13b 2a27 c43e ff92 62bd
000003a0: 6d9a ab3c c32c 08bd 27fb 6dbc adfe 503d
000003b0: 6a32 463d 286c 02bc ed92 07bc a08d 5e3d
000003c0: bcf5 bdbc 0c92 e13c 2016 663d 21d0 96be
000003d0: 5ac2 cb3c b6c2 e23c 8a60 9cbc b7e1 993d
000003e0: 3c6b 563d a297 103b 692a 82bd 1199 c7bc
000003f0: 1e80 1bbc 3648 54be dd67 06bd 556c 43bd
0.07805388 -0.10375995 0.018900625 -0.03149307 -0.0072528794 -0.14638384 0.005770774 -0.0487547
-0.06492655 0.13899876 -0.07355662 -0.070205264 -0.10221103 -0.024446404 0.19847831 -0.010280999
0.06933942 0.05841962 -0.072736986 -0.07071593 0.07610014 -0.052144278 0.120889924 -0.012592367
-0.102116905 -0.04188642 -0.116690174 0.042771176 -0.082807794 -0.09855829 0.073349476 0.09933051
-0.011516598 0.044702895 -0.00796947 -0.0497934 -0.07372126 0.053640686 -0.068895765 -0.065885074
-0.22496037 -0.04145659 0.06834971 0.076479875 0.08226295 0.07368141 0.1709485 0.01843801
0.083306864 -0.047109913 0.011573743 -0.01372146 -0.3012736 -0.06201769 0.042455614 -0.03256961
-0.07681397 -0.013656326 -0.04800099 0.18612316 0.07271378 0.06008035 0.041954372 0.061756134
-0.07267511 -0.27028042 -0.03261813 0.050111108 -0.09930875 -0.081236996 -0.08415511 -0.074837945
-0.044562425 0.0754669 0.10833464 0.021949403 -0.07043163 -0.23362455 -0.10515811 -0.050384775
-0.13056332 0.08362296 0.087167755 -0.02042427 -0.1406249 0.07633053 -0.12883502 -0.37089178
0.02349627 -0.110713184 0.0053099 -0.103378065 0.15941033 -0.046392117 0.024067974 -0.010395792
-0.021741223 0.32529318 0.08282098 -0.047404904 -0.077521846 -0.012451196 -0.1389938 -0.16239828
-0.054931328 -0.16630062 0.0073435293 -0.058844514 0.027333159 -0.0707178 -0.025756093 0.05843875
0.045301564 0.09291284 0.0014205225 0.10549038 0.097023055 0.01039065 0.08968935 0.04623519
0.040389907 0.07410994 0.090120874 0.044086847 -0.13975708 0.2510402 -0.07104143 -0.08300516
-0.10893926 0.08561079 0.006967859 -0.052895315 0.06296737 0.003865188 0.044178642 -0.049203895
0.07985432 -0.07824485 -0.07529436 0.3069805 -0.01934676 0.06688227 -0.057771247 -0.046499107
-0.08135377 -0.10444683 0.011297228 0.042107046 -0.04969979 -0.017367005 -0.026511023 -0.04933233
0.077958636 0.015986199 0.10433573 0.03644581 0.061526917 0.007494855 0.0038506945 -0.13671193
-0.06954778 -0.07267287 -0.051371273 -0.04698575 0.08026993 -0.11030181 -0.084082745 -0.055936515
0.037168473 -0.028502747 0.1758516 0.019466255 -0.049604353 0.0009241107 0.007913654 -0.033431638
-0.07717368 0.013418596 -0.055468094 0.029153423 0.14866488 0.044195455 -0.013303436 0.00029569535
0.054203164 -0.030465517 -0.032149818 -0.016494438 -0.05762 -0.13655944 -0.041069146 -0.106338196
0.0023140614 0.024101537 0.09325777 -0.019337727 0.08802853 -0.11431769 0.039757382 0.009975596
0.02731507 -0.023180963 -0.053484924 0.032808285 -0.09096044 0.15544604 -0.0028191258 -0.028245838
0.020787336 0.038566362 -0.086970665 0.02175679 0.0016832422 0.007411691 -0.024648577 0.2707841
-0.073086046 0.1725933 0.04254742 0.08082927 -0.17323096 -0.068893984 -0.060494784 -0.10444607
-0.056909204 -0.05636688 -0.051384494 -0.09836288 -0.0258344 0.0073560867 0.3831113 -0.055315968
0.02094766 -0.033245813 -0.014525211 0.051024128 0.048387922 -0.007960357 -0.008274776 0.054334283
-0.023188464 0.02753546 0.056173444 -0.29455665 0.024872947 0.027680736 -0.019089002 0.07513755
0.05234836 0.0022063036 -0.06355745 -0.02436498 -0.009490995 -0.20730671 -0.032813895 -0.047710735

fc2.bias f4 [64]
00000000: 19a3 9f3e 38b7 5b3d d0fb 4ebe ff5b 44bd
00000010: 9293 e93d b643 80bf ab25 8f3e 2cc5 64bf
00000020: ef56 07be 3183 383f 46e8 f43e 2f42 bdbe
00000030: 4718 c9be 635c c93e 47c0 19be 9b31 4e3e
00000040: 015c 3f3f 2b58 f93d 52dd 94bd fdea f23e
00000050: a801 22bd 5133 c13d 6c1e 35be 7c88 cbbe
00000060: cd7a c3bd eefb babe 7071 293e 2586 943e
00000070: 0ced d73e b36f e73d fab4 3ebe 3826 57be
00000080: 402c 0d3f 26c1 443d c1ef ac3c 04fa 9cbe
00000090: 39dd f93c 3c30 173f 6766 26be 76d5 6f3f
000000a0: 0b1f 1abe 1ab4 b2be 0e8f fd3e af20 8a3e
000000b0: fdbf a53e 41b5 6abe fee8 b3bd 6732 b13e
000000c0: a507 d4be 654f 14be 53c3 04be f5e2 733e
000000d0: 9029 923d 9a62 2abf 6a63 88be 1fb4 253e
000000e0: 4dbb c73e b2ed c83e 10e5 e43d 84df 43bd
000000f0: 8fca 7abe 49a2 d73e 6815 6abf 6e07 3b3f
0.3117912 0.053641528 -0.20213246 -0.047939297 0.114051 -1.0020664 0.27958426 -0.8936336
-0.13216756 0.7207518 0.4783346 -0.36964557 -0.39276335 0.39328298 -0.15014754 0.2013611
0.7474976 0.1217502 -0.07268776 0.47444907 -0.03955236 0.09433616 -0.17687386 -0.39752567
-0.09544907 -0.36520332 0.16547179 0.29008594 0.4217304 0.11300602 -0.18623725 -0.21010673
0.55145645 0.048035763 0.021110417 -0.30659497 0.030500995 0.59057975 -0.16250001 0.9368509
-0.15050904 -0.34903032 0.49523205 0.2697806 0.32373038 -0.22920705 -0.08784674 0.34608766
-0.41412082 -0.14483412 -0.12965135 0.23817046 0.07136834 -0.66556704 -0.26638347 0.16181992
0.39010087 0.39243847 0.11176503 -0.047820583 -0.24491332 0.42116 -0.91438913 0.7305821

fc3.weight f4 [32, 64]
00000000: 0b87 0e3e 3d0d a8be 03cc a9bd 25ae 433e
00000010: c59c 53bd 9c54 f8bd 080e 50bd 6abe 093d
00000020: d333 403e 877c 053e 58ac 013e efb2 73bd
00000030: 8214 b0bd 4057 42bd 139e 05be 9ef0 efbd
00000040: 92e3 d53b 366e 35bd c19a 153d d0bd 25be
00000050: 7de4 33bd 908c 0cbe d5c8 b03b e8aa 4fbc
00000060: 0df4 c4bd 9145 a8bd f1e9 58be adea 14bd
00000070: 43a7 7f3e cacc 9cbe fa6c 1a3e f98b 23bd
00000080: 19c9 fdbc 338c 0f3e ca88 ea3c 50ad ff3c
00000090: e7b5 e7bd 0d4f 9f3d aa7b 78bd 0e29 8f3e
000000a0: 9e1a 8abe 0d4a e03c 120f 4f3e f2e8 99be
000000b0: 186d 6fbe 1af6 7a3d 8d05 9f3d 8516 83bd
000000c0: 8f96 5c3d 76d4 943d b5a4 b4bd a7c2 0cbd
000000d0: b749 21be 1da1 70bd 915f 7bbd 19cc 15bd
000000e0: 4731 62bd 2197 263b fff2 28be ab7e ec3d
000000f0: 8e03 e43c d666 953d bd36 8fbc 0ad3 863d
00000100: a6ac 77be f2b1 da3d cc99 d53d 646c e8be
00000110: 5524 fa3d 46d2 98be 3e4c 02bf db29 393e
00000120: a274 0ebf 100b 0d3e d4b8 f4bb 503f 66bd
00000130: 7f29 67bd 4745 34bd ea88 54bc 1a73 19be
00000140: 8931 fdbc 3672 ba3d fa34 8bbe 1dab 3f3d
00000150: e1db 69bc e5a1 693e 60f5 413d 9e28 9bbe
00000160: 91b9 ea3d a445 51be 6166 9bbd 66bd 48bd
00000170: d879 fabd 4f3c 53be 7418 babd e8a1 a7be
00000180: a5df 06be cb50 04bc 4620 9f3d bd9f 263e
00000190: d354 f8be f1bd b23d 4b28 afbc ce7d e7be
000001a0: af8c 0dbc c2c6 5e3c 99bb 85be ee73 9b3d
000001b0: 4702 52bd da0c 96be fc45 db3d e3ed 85bb
000001c0: 8c44 7cbd e144 cc3c 2b6e 98bd 40b0 8abc
000001d0: 6d85 69bd 4182 ddbd 30f8 193d 8b88 083c
000001e0: 80c5 8cbd e30a 57bd e0b6 0d3d 85d8 e53c
000001f0: 4dc7 6e3c 7670 ac3d b144 143c f039 db3d
00000200: e0b2 d4bd 727a 073e d69d f1bd 5180 8e3d
00000210: c45a 723d 07fe 68be c97c 833e 2046 5cbe
00000220: 5b74 4d3d 242f 023d b334 a13c 25ef 093e
00000230: 71dc 1b3e 7183 b5bd b793 393c d107 7fbe
00000240: 1c5e adbd c747 f33d 9423 963b b3a9 8b3c
00000250: c61a 013b 7afc 943d e1d4 d53d 69f8 88bd
00000260: 6db4 5fbc 5336 37be f22a 873b 5a52 763d
00000270: f693 7cbe 16a9 f53b df5b 4ebe ea38 003d
00000280: 2dad 12bd abf9 563e d601 e2bd 07b3 bfbe
00000290: e1e6 f53c 7490 7fbd a0c0 903c 9a2e 76bd
000002a0: 22f5 383b 9cf3 92bd 281b 94bd 17e0 0bbe
000002b0: 5ea0 cfbc 4a53 62be 003f 253e 5f5f 333d
000002c0: befc a6bd 1061 e13d 1094 a8bc 0505 ad3e
000002d0: 1dcd 27be c2de 99be e356 693d d00b b13d
000002e0: e768 a03d 8fde 09bd 2aee a23c 078f 29bd
000002f0: 8558 57be 7d1d d23e a125 0fbf f35b 5dbd
00000300: 6b6f 5b3d 450c 98be 6ea2 c3bd 2f88 c4bc
00000310: acd2 d0bc 557d 2e3d 7319 55be 02df cdbc
00000320: 6df9 a43d 4d35 3b3e fa79 b53d 3c86 613d
00000330: 27a8 4bbd efdb 803d 3a0f 43bc 5388 8c3e
00000340: 147a 19bc bb3d c83d a9e0 853c 347d 053c
00000350: cdc4 9bbd c140 46be 1e23 9fbd 1866 5fbc
00000360: 4816 ebbd 430a 9cbc b9bb 55be 0651 923d
00000370: a864 4dbd a8e1 af3d 3ec5 3fbe 4f0a 5cbc
00000380: 67c0 093e a689 94bd 5e6f b73a af70 f7bd
00000390: c901 4fbd 5889 1ebd 6a37 a6bd 29de 623d
000003a0: 15e7 83bd c0f4 ae3c bcea 973d 2b5c 9ebc
000003b0: d134 2b3e 86ec 9fbc 0d4b d2bc 9144 12be
000003c0: dc4c 213d ff45 3a3b 5fbf 8d3c 56da d1bd
000003d0: 2b2d 88bd 4865 223d 5b9f 1f3d 206f b9bd
000003e0: 8d9a 0b3e a91a 253d 3532 be3d eb67 60bd
000003f0: 7c8b dc3c b187 61bd e535 b63c 9724 f6bd
0.13918702 -0.328226 -0.08290865 0.191094 -0.05166318 -0.12125513 -0.05079463 0.03362886
0.1876977 0.13035785 0.126634 -0.059496816 -0.085976616 -0.04744649 -0.13048582 -0.11715816
0.0065273726 -0.04429456 0.036524538 -0.16185689 -0.043919075 -0.13725495 0.005395035 -0.012675025
-0.096168615 -0.08216394 -0.21182992 -0.036356617 0.24966149 -0.30624992 0.15080634 -0.03992841
-0.03097968 0.14018326 0.02862968 0.031210572 -0.11313992 0.077787496 -0.06066481 0.2796101
-0.26973432 0.02737906 0.20220593 -0.30060536 -0.2338146 0.061269857 0.077647306 -0.0640078
0.05385452 0.07267086 -0.08820478 -0.034365322 -0.15750776 -0.0587474 -0.061370436 -0.036571596
-0.055222776 0.002541967 -0.16498946 0.115475975 0.027833726 0.07295005 -0.017482156 0.06583221
-0.24186954 0.106784716 0.10429725 -0.45395195 0.12213961 -0.29847926 -0.50897586 0.18082373
-0.5564672 0.13773751 -0.0074683223 -0.056212723 -0.056436058 -0.04401138 -0.012972096 -0.14985314
-0.03090741 0.09103815 -0.27188855 0.046794046 -0.014273615 0.22815664 0.04735315 -0.30304426
0.11461175 -0.20436722 -0.075878866 -0.04900875 -0.12230271 -0.20628475 -0.09086695 -0.32740712
-0.13171251 -0.008075903 0.077698275 0.16271873 -0.48502216 0.08727635 -0.021381518 -0.4521317
-0.008639499 0.013597192 -0.26119688 0.07590471 -0.051271703 -0.2930668 0.10706708 -0.004087196
-0.06158881 0.024935188 -0.07442888 -0.016929746 -0.05701201 -0.108158596 0.037590206 0.008333336
-0.06873608 -0.052500617 0.03459823 0.028057346 0.014573884 0.08419888 0.00904958 0.1070441
-0.1038568 0.13230303 -0.11797683 0.06958068 0.059168592 -0.22753154 0.2568114 -0.21511126
0.050159793 0.031783238 0.01967845 0.13470133 0.1522081 -0.08862961 0.011326722 -0.24905325
-0.084652156 0.11878925 0.004581878 0.017048692 0.0019699796 0.072747186 0.10440994 -0.066880055
-0.013653857 -0.17891817 0.0041249925 0.06013713 -0.24665818 0.0074969633 -0.20152234 0.031304277
-0.035809685 0.20993678 -0.110355064 -0.37441275 0.030017318 -0.06239362 0.017669976 -0.060103036
0.0028222282 -0.07175371 -0.07231742 -0.13659702 -0.025345024 -0.22102085 0.16137314 0.043792125
-0.081536755 0.11004841 -0.020578414 0.33792892 -0.16386838 -0.30052763 0.056967627 0.08644831
0.078325085 -0.033659514 0.019888956 -0.041396167 -0.21029861 0.41038123 -0.5591679 -0.054042768
0.053573053 -0.2969686 -0.095524654 -0.023990719 -0.025491081 0.042599995 -0.2081049 -0.025130752
0.08055387 0.18282051 0.08861156 0.055059657 -0.04972091 0.06291949 -0.011905486 0.27447757
-0.009367485 0.09777399 0.016342478 0.0081475265 -0.07605896 -0.19360639 -0.0777037 -0.013635181
-0.11478859 -0.019047862 -0.20872392 0.0714436 -0.05014482 0.085879624 -0.18727586 -0.013430192
0.13452302 -0.07252817 0.0013994982 -0.120820396 -0.05053881 -0.0387052 -0.08116038 0.05538765
-0.0644056 0.02135694 0.07417819 -0.019331058 0.16719367 -0.019521963 -0.025670553 -0.14283969
0.03937994 0.0028423069 0.017303167 -0.102467224 -0.0664924 0.03964737 0.038970333 -0.090543985
0.13633175 0.04030863 0.0928692 -0.054786604 0.02692198 -0.055061046 0.022242496 -0.12018698

fc3.bias f4 [32]
00000000: 85b7 bc3d d601 443d b425 cabb 69db 533f
00000010: 2411 2bbe 328a 22be 5c96 85bd 99af 10be
00000020: 3e0a a93d 4886 a8be 8f4d 393e 3e2f 0b3e
00000030: 5415 d8be 9c21 bdbd e08a 28bc 6450 20bf
00000040: 961d 28be 8005 1a3e 4954 473d 5623 a23e
00000050: 29fe 37bf 98b1 a53d b1d4 313d a0c2 c73d
00000060: 5608 1e3f a22c 65bd 5c98 f13d 58d5 85be
00000070: b9c3 123f ed3a 96be c9ed 61bd a957 dc3e
0.09214691 0.047853313 -0.0061690453 0.8275667 -0.16705757 -0.1587303 -0.065228194 -0.14129485
0.08253907 -0.32914948 0.18095993 0.1359224 -0.42203772 -0.09234926 -0.010287017 -0.62622666
-0.16417536 0.1504116 0.048664365 0.31667584 -0.7187219 0.08090514 0.04341573 0.09753919
0.6173147 -0.05595077 0.11796638 -0.2613933 0.573299 -0.29341832 -0.05515841 0.4303563

fc_mu.weight f4 [1, 32]
00000000: c8c7 423e 7450 f9be 60ac 073f bced 643c
00000010: 14fd debd b9ca 32bf a08e fb3e 027d 613e
00000020: 720f 0cbf d8a7 023f ad4c 4abf 7ccf 623e
00000030: 1b1f e0be 1c55 efbd b196 a6bd 8e8f 583f
00000040: 4d53 99be abfb 93be 1030 4f3f e190 aa3e
00000050: ba19 44be 1b3f 483e b19c 04bf dd1d 053e
00000060: c0ae 8a3d a636 d3bd d8ce 9a3e 77a4 f93d
00000070: a118 703f 62a2 34bf 4ff9 fcbd 3fcc bfbf
0.19021523 -0.48694193 0.529974 0.013972696 -0.108881146 -0.6984058 0.49132252 0.22020343
-0.5471107 0.5103736 -0.7902325 0.22149462 -0.43773732 -0.11686155 -0.08134211 0.8459405
-0.29946366 -0.28902945 0.8093271 0.3331366 -0.19150439 0.19555323 -0.5180159 0.12999673
0.06771612 -0.10313158 0.30235934 0.12189572 0.9378758 -0.70560277 -0.12352239 -1.4984206

fc_std.weight f4 [1, 32]
00000000: ea38 813e 8946 49be 167d 0f3f b36b 99be
00000010: b812 01bb bcd4 043d 2902 443e 94da ac3e
00000020: 16b0 42be 1a74 623e 8de2 a43d 48d9 c13e
00000030: 3663 53be 9083 003d 3652 33be d319 2fbe
00000040: c1b9 043f 1860 363e 5111 98bd f0c1 4e3e
00000050: dafb 5a3d 687c 823e 65df ec3d 8dca de3d
00000060: aef8 59be 7260 f5bd 1c28 003e cce8 2a3e
00000070: bcb0 dd3e fc40 373e 469a e7bd 7098 843e
0.25238734 -0.19655813 0.5605024 -0.2996498 -0.0019694995 0.03242944 0.19141449 0.33760512
-0.19012484 0.22114602 0.08051024 0.37861085 -0.20643315 0.031375468 -0.1751183 -0.17099695
0.5184594 0.17810094 -0.07425178 0.20191169 0.05346284 0.2548554 0.115660466 0.10878477
-0.2128627 -0.11981286 0.125153 0.16690367 0.432989 0.17895883 -0.11308722 0.2589755
