myrobot/src/not_using/DDPG/save_DDPG_models/1006_1/DDPG_Critic_EP256.pt (torch, 288582 bytes, 32 tensors)

fc1_state.weight f4 [128, 4]
-1.9324036 -1.0227566 0.4815276 0.020431573 -0.6292002 0.15410078 0.7523204 -0.5286175
-1.457897 1.3808612 0.44800222 -0.3842885 -0.19231081 2.0246177 -1.8475109 0.057048827
-0.52035624 -1.5899625 -0.8934158 -0.0038755422 -0.38368526 0.5830876 -1.2688688 1.287555
-0.9528249 0.53184325 -1.5080398 0.5270795 1.1399173 -0.44919395 -1.2529367 0.7505116
-0.46831474 -1.5534009 0.6652844 0.62041914 0.25408977 -1.0689263 -1.6820359 0.23678249
-0.13835111 0.44218698 -0.88053477 -0.53733844 0.34336287 2.2534795 0.028096685 1.1804808
-0.28554502 -1.3771793 -0.3410165 -0.40652227 1.4745842 1.1036402 -0.28247947 0.012871429
0.67075884 0.14676252 -0.47822565 -1.1144373 0.235919 1.9508218 -0.0739196 1.0838895
0.5720215 0.335832 0.077572405 -0.25544474 -0.3247677 0.43054852 -0.6092789 0.05378037
-0.76442707 1.3441434 0.077450834 -0.08295099 -1.3731407 0.9339061 -0.054792788 0.016900163
-0.91793257 1.3316588 -1.064467 0.028524745 0.5441428 1.2052195 0.29752326 -1.4077199
-0.17956682 1.0112329 -0.3831637 0.75081164 0.2812465 2.4826918 0.5452582 -0.0043777763
1.1250644 0.38171512 -0.1289361 -0.14659527 2.0257487 1.2610781 -0.6997654 0.02024373
-0.23631366 1.9980026 -0.14746906 -1.4756702 -0.15681101 1.951387 -1.1244657 0.056299906
0.703391 0.9769725 -1.2754179 1.2522391 0.08331186 0.3278289 0.917013 -0.1703523
-0.22610497 0.36593524 0.62042576 -0.53698653 0.71552163 -0.77083886 0.22121179 -1.0493163
-0.3731979 -1.7004149 0.52556515 0.8965179 0.96386975 0.7745705 0.045461055 -0.13903633
1.0320137 -0.060338143 -0.8072522 0.5750264 -0.3046143 0.33162817 -0.58360684 -0.5195725
-0.18123372 1.3325317 0.34334782 -0.0049678846 0.24588121 -0.68377924 2.1043248 -0.15630008
0.17646225 -1.9040437 0.198304 -0.5363874 -2.493839 1.7015442 -0.40774179 0.110802025
-1.1553675 -1.7482443 0.017303161 1.199663 -0.058266725 0.4791649 -0.2564494 -0.6593178
1.9832015 -0.73571146 0.1842207 0.029553758 -0.009873841 -1.194659 -0.4500429 -1.067398
-0.63372236 1.5145118 0.9844665 -0.009719559 -0.8677736 -1.2584234 0.5332607 -1.1624613
0.8873617 -1.1616739 0.848873 -0.53452104 2.3929188 1.0574945 0.18051377 0.21580005
-0.6438424 -1.2163516 -0.6966051 0.9445657 0.50053203 -1.0081383 1.2376487 1.1063832
-1.466688 0.90536773 0.814689 -0.78702676 -1.021778 -0.7357333 0.2703942 -0.22907032
-1.1262063 -1.4126524 0.37979254 0.02185795 -0.8202562 -0.008449449 0.089966655 -0.13372612
-1.2415437 -0.18171948 -0.55596834 -0.5524362 -1.8188665 0.17792295 -0.2590874 -0.7559191
0.48217568 0.652811 -0.6106575 0.21440262 -0.47752073 -0.9753584 0.48054606 -0.18423015
-0.038522698 0.60190356 -0.8993443 -0.3904116 0.8488529 -1.6251341 0.91025335 0.25564614
1.4151945 -2.0192554 -0.29116452 0.32482162 0.9379177 -0.32229987 0.30084503 0.3748184
0.014986333 -0.008544607 0.45672846 -0.35492095 -1.5124528 -1.1858747 -1.7370327 0.44625884
00000000: 0059 f7bf b0e9 82bf c98a f63e 1d60 a73c
00000010: 4413 21bf 98cc 1d3e 1298 403f 7a53 07bf
00000020: 5e9c babf 0fc0 b03f 8c60 e53e 76c1 c4be
00000030: 20ed 44be 5693 0140 3d7b ecbf 08ac 693d
00000040: 1136 05bf e483 cbbf e6b6 64bf cffc 7dbb
00000050: 6572 c4be 3b45 153f 4b6a a2bf 9ace a43f
00000060: 55ec 73bf e126 083f 7307 c1bf afee 063f
00000070: cfe8 913f c0fc e5be 3b60 a0bf 8721 403f
00000080: f3c6 efbe d7d5 c6bf 1450 2a3f cad3 1e3f
00000090: 0e18 823e 94d2 88bf f44c d7bf 1c77 723e
000000a0: eaab 0dbe 5566 e23e ba6a 61bf 038f 09bf
000000b0: 42cd af3e 0239 1040 052b e63c ff19 973f
000000c0: f532 92be 6947 b0bf b799 aebe b023 d0be
000000d0: 2dbf bc3f 1544 8d3f 26a1 90be b0e2 523c
000000e0: dab6 2b3f ea48 163e fed9 f4be e2a5 8ebf
000000f0: c094 713e 87b4 f93f 2963 97bd e4bc 8a3f
00000100: 0070 123f 2cf2 ab3e 48de 9e3d a7c9 82be
00000110: f447 a6be db70 dc3e b4f9 1bbf ce48 5c3d
00000120: 7eb1 43bf e40c ac3f 8b9e 9e3d 35e2 a9bd
00000130: 13c3 afbf 7814 6f3f 676e 60bd 3672 8a3c
00000140: a1fd 6abf cc73 aa3f 7440 88bf baac e93c
00000150: f14c 0b3f a244 9a3f f854 983e 2a30 b4bf
00000160: 5de0 37be 1470 813f 082e c4be 3135 403f
00000170: 8bff 8f3e 6ce4 1e40 0b96 0b3f 7373 8fbb
00000180: 1c02 903f 2a70 c33e d307 04be 121d 16be
00000190: dea5 0140 026b a13f d323 33bf 2ed6 a53c
000001a0: 35fc 71be 8dbe ff3f 2102 17be c3e2 bcbf
000001b0: 1193 20be 0dc7 f93f 7eee 8fbf bb9a 663d
000001c0: 6f11 343f df1a 7a3f e540 a3bf 5f49 a03f
000001d0: 699f aa3d 31d9 a73e 5dc1 6a3f d570 2ebe
000001e0: 1088 67be dd5b bb3e 39d4 1e3f f377 09bf
000001f0: 6d2c 373f b255 45bf 5885 623e ff4f 86bf
00000200: cc13 bfbe 32a7 d9bf 708b 063f 3282 653f
00000210: 2bc0 763f 414a 463f 5f35 3a3d 8a5f 0ebe
00000220: 0619 843f 2125 77bd 15a8 4ebf ee34 133f
00000230: 68f6 9bbe 2bcb a93e 4267 15bf b402 05bf
00000240: 5595 39be 6690 aa3f 49cb af3e a3c9 a2bb
00000250: 49c8 7b3e 280c 2fbf 42ad 0640 210d 20be
00000260: 85b2 343e b4b7 f3bf 3410 4b3e af50 09bf
00000270: 0f9b 1fc0 33cc d93f 88c3 d0be 2cec e23d
00000280: 15e3 93bf 78c6 dfbf 5cbf 8d3c 8f8e 993f
00000290: 17a9 6ebd 1a55 f53e 564d 83be 0dc9 28bf
000002a0: 8cd9 fd3f 9657 3cbf 5aa4 3c3e b91a f23c
000002b0: e4c5 21bc 96ea 98bf 066c e6be 7fa0 88bf
000002c0: a13b 22bf 86db c13f ff05 7c3f c93e 1fbc
000002d0: 6926 5ebf 0514 a1bf c683 083f 88cb 94bf
000002e0: 232a 633f bbb1 94bf be4f 593f 5fd6 08bf
000002f0: 9525 1940 fb5b 873f 9ad8 383e b0fa 5c3e
00000300: dbd2 24bf 69b1 9bbf b654 32bf 0fcf 713f
00000310: de22 003f ad0a 81bf 466b 9e3f f79d 8d3f
00000320: 6fbc bbbf 2ec6 673f 758f 503f 967a 49bf
00000330: 9fc9 82bf 0459 3cbf 1c71 8a3e 6991 6abe
00000340: 8727 90bf cbd1 b4bf 2b74 c23e 720f b33c
00000350: 4ffc 51bf 8f6f 0abc 7040 b83d 80ef 08be
00000360: e7ea 9ebf ac14 3abe f153 0ebf 756c 0dbf
00000370: 9ed0 e8bf 6f31 363e 1ba7 84be ea83 41bf
00000380: bbdf f63e 9f1e 273f 0d54 1cbf 5c8c 5b3e
00000390: 997d f4be 17b1 79bf 220a f63e d4a6 3cbe
000003a0: fac9 1dbd 5a16 1a3f 6e3b 66bf 07e4 c7be
000003b0: 6c4e 593f 6504 d0bf 5d06 693f 0de4 823e
000003c0: 1825 b53f 7b3b 01c0 8413 95be 054f a63e
000003d0: 601b 703f 7d04 a5be 5c08 9a3e 33e8 bf3e
000003e0: 3d89 753c aefe 0bbc 50d8 e93e 33b8 b5be
000003f0: 0e98 c1bf beca 97bf 1657 debf 0a7c e43e

fc1_state.bias f4 [128]
0.69566727 0.36882338 -0.05832885 0.7325817 0.05154979 -0.07183684 -1.0990163 -0.3347888
0.4176574 -0.11584375 -0.03932447 -0.8939717 0.59860134 -0.19682099 0.30674836 -0.11728823
-0.061981875 -0.26718727 0.14981122 -0.4858512 0.47851 -0.37156108 -0.49902174 0.08591066
0.18190788 0.70243007 -0.13509245 -0.21186312 -0.6393037 0.17501359 -0.3748709 0.5817281
0.30118522 -0.12913524 -0.77169734 0.85752296 0.2509969 0.57782084 0.32912725 -0.0839563
0.27056754 0.4376449 0.1190337 0.49315366 0.49759626 0.20637187 0.45568186 -0.5692433
0.5844003 0.21462257 -0.36296085 -0.012953744 -0.13370366 0.2406113 -0.6219436 0.4151456
-0.23674463 0.06811108 0.8548863 -0.28244913 -0.5339516 0.6724662 -0.46279302 -0.5504977
-0.43604288 0.21919797 0.7979899 0.19288439 0.2442318 -0.35077727 -0.28264728 -0.083612144
0.53169876 0.04573395 -0.2865555 -0.006174636 -0.55824167 -0.69638807 0.076335154 -0.24401598
0.030262059 0.24983837 0.49244744 0.32710847 0.51885456 -0.5140074 -0.36870942 0.39466435
1.097615 0.41583398 -0.4989487 -0.70941705 0.5479136 -0.6049309 0.49434412 -0.8434585
-0.72955334 -0.3093078 0.5642774 0.047505025 0.5760459 -0.04030032 0.4661285 0.015628766
0.27381113 -0.40832543 0.9372733 0.28072298 -0.734022 0.5865427 0.3430465 -0.20556909
0.14493287 0.085726015 0.47704753 -0.92346764 -0.9304317 0.14485018 0.38539803 0.075724356
0.41043 0.54368293 -0.67768407 -0.2099789 -0.15950677 0.00087525276 0.4989178 0.42318702
00000000: 4017 323f 6bd6 bc3e 3bea 6ebd 798a 3b3f
00000010: df25 533d 311f 93bd 91ac 8cbf 7069 abbe
00000020: 31d7 d53e 7d3f edbd b212 21bd 54db 64bf
00000030: f03d 193f 718b 49be 1f0e 9d3e d034 f0bd
00000040: b5e0 7dbd c5cc 88be 1d68 193e 7dc1 f8be
00000050: 43ff f43e 413d bebe c77f ffbe eef1 af3d
00000060: 0f46 3a3e 75d2 333f ad55 0abe a5f2 58be
00000070: 68a9 23bf c336 333e 14ef bfbe 22ec 143f
00000080: f334 9a3e 073c 04be f58d 45bf a086 5b3f
00000090: aa82 803e 11ec 133f 5e83 a83e 48f1 abbd
000000a0: d487 8a3e fe12 e03e f1c7 f33d a37e fc3e
000000b0: f0c4 fe3e 2653 533e 224f e93e eeb9 11bf
000000c0: 429b 153f 05c6 5b3e 01d6 b9be f13b 54bc
000000d0: 9de9 08be cf62 763e b237 1fbf f78d d43e
000000e0: 2f6d 72be d27d 8b3d d4d9 5a3f 2c9d 90be
000000f0: 0db1 08bf bf26 2c3f 35f3 ecbe 6bed 0cbf
00000100: 0341 dfbe 6f75 603e 1149 4c3f 7c83 453e
00000110: e717 7a3e 1499 b3be 25b7 90be d83c abbd
00000120: 691d 083f 8653 3b3d 67b7 92be 9a54 cabb
00000130: ede8 0ebf 7d46 32bf 9b55 9c3d 53df 79be
00000140: 23e8 f73c a1d5 7f3e 1222 fc3e c37a a73e
00000150: a7d3 043f fd95 03bf 7bc7 bcbe 7211 ca3e
00000160: a67e 8c3f 31e8 d43e 3476 ffbe 5b9c 35bf
00000170: 1144 0c3f c0dc 1abf ac1a fd3e e5ec 57bf
00000180: 02c4 3abf 985d 9ebe 7c74 103f a194 423d
00000190: be77 133f f311 25bd 65a8 ee3e e607 803c
000001a0: f930 8c3e 0810 d1be 25f1 6f3f ecba 8f3e
000001b0: dee8 3bbf aa27 163f caa3 af3e b480 52be
000001c0: 4869 143e 1f91 af3d 933f f43e 6068 6cbf
000001d0: c630 6ebf 9b53 143e e452 c53e 5f15 9b3d
000001e0: e223 d23e ce2e 0b3f b47c 2dbf b504 57be
000001f0: be55 23be 3871 653a 2772 ff3e f8ab d83e

bn1_state.weight f4 [128]
1.954303 0.83514655 1.0275134 1.2969208 1.2456607 0.67282224 0.7286691 0.8117963
0.93224114 0.6371402 1.0282614 0.94706804 0.83827734 1.7017348 0.9095678 0.78287905
0.9079085 0.68114346 1.2615215 1.9662645 1.8976227 0.971962 0.90626794 1.8601258
1.2875063 1.2566236 1.2423838 1.2472869 0.7110875 0.8007909 0.89586616 1.0256904
0.8663128 1.1037449 0.83674306 1.0035878 1.3007631 1.0560002 1.3585291 1.1032367
0.9477935 0.8751163 1.7897015 0.7794369 1.4917305 1.021831 0.9948914 0.86476034
0.733336 0.9396055 0.9374099 1.2114491 1.3578566 1.0746838 0.8779479 1.02095
0.8567343 1.0334336 1.0532473 0.9990988 0.93833226 0.893162 0.8689922 0.9274924
0.9373258 0.8572898 0.9169709 0.93198174 0.8022346 1.447344 0.9249135 0.88699025
0.82839555 1.0104021 1.0523281 0.8685438 0.8723873 0.8628257 1.4031825 0.9328253
1.0942639 1.196668 1.0971675 1.4488614 1.5892699 1.1055582 1.120994 1.0752678
0.97726357 0.84397936 0.8993287 0.78638774 1.0673645 0.6733679 1.5712056 1.3592265
0.8731789 0.95139486 0.93429685 0.90401685 1.1419699 2.341131 1.3814836 1.2476494
0.60712594 1.3200855 0.9763552 1.175943 0.8633407 1.3421167 1.1056128 0.96993536
0.9041408 1.1124026 0.70143473 1.3778337 0.94319105 1.4202284 0.7676784 0.877215
1.1335653 1.8214084 0.8378081 0.8900557 0.9980373 1.0258628 0.7603287 1.3033707
00000000: 9a26 fa3f 2acc 553f 8f85 833f 8001 a63f
00000010: cf71 9f3f 143e 2c3f 0f8a 3a3f e2d1 4f3f
00000020: 5ba7 6e3f 9f1b 233f 129e 833f 0d73 723f
00000030: 5899 563f 72d2 d93f 6fd9 683f c36a 483f
00000040: b16c 683f 6b5f 2e3f 8979 a13f 8eae fb3f
00000050: 4de5 f23f 80d2 783f 2d01 683f 9a18 ee3f
00000060: 02cd a43f 0bd9 a03f 6f06 9f3f 19a7 9f3f
00000070: d509 363f a200 4d3f 7c57 653f d349 833f
00000080: adc6 5d3f 8347 8d3f cb34 563f 9175 803f
00000090: 687f a63f 042b 873f 48e4 ad3f dc36 8d3f
000000a0: 98a2 723f 9f07 603f f014 e53f 2d89 473f
000000b0: 06f1 be3f 5ccb 823f 34b1 7e3f ef60 5d3f
000000c0: e8bb 3b3f fc89 703f 18fa 6f3f c410 9b3f
000000d0: 3fce ad3f 3d8f 893f 32c1 603f 7dae 823f
000000e0: f052 5b3f 8d47 843f cfd0 863f f0c4 7f3f
000000f0: 8b36 703f 44a6 643f 4676 5e3f 2470 6d3f
00000100: 95f4 6f3f 5877 5b3f 9bbe 6a3f 5b96 6e3f
00000110: 3f5f 4d3f 9142 b93f 22c7 6c3f cb11 633f
00000120: bb11 543f db54 813f b0b2 863f e358 5e3f
00000130: c654 5f3f 25e2 5c3f 7c9b b33f a4cd 6e3f
00000140: d710 8c3f 6b2c 993f fc6f 8c3f 4a74 b93f
00000150: 326d cb3f ee82 8d3f bb7c 8f3f 60a2 893f
00000160: f22d 7a3f 080f 583f 683a 663f b550 493f
00000170: 669f 883f d761 2c3f 441d c93f 22fb ad3f
00000180: a788 5f3f 9d8e 733f 142e 6f3f a66d 673f
00000190: 122c 923f 17d5 1540 74d4 b03f fab2 9f3f
000001a0: 9b6c 1b3f 90f8 a83f 6af2 793f 4d85 963f
000001b0: e503 5d3f 7bca ab3f b884 8d3f af4d 783f
000001c0: c575 673f 3563 8e3f 3a91 333f db5c b03f
000001d0: f874 713f 0bca b53f 9286 443f 2a91 603f
000001e0: ab18 913f e923 e93f 977a 563f b1da 633f
000001f0: 5f7f 7f3f 794f 833f e7a4 423f dad4 a63f

bn1_state.bias f4 [128]
0.31437013 0.018116111 -0.08398573 0.29340017 0.4343888 0.20435533 -0.70935297 -0.25798538
0.2671978 0.14545359 0.1230204 -0.5353573 0.6538684 -0.03499063 -0.09957772 -0.44426265
-0.26370966 -0.34762487 0.101068676 -0.17486824 0.3183326 -0.1287054 -0.4939001 -0.3029199
0.14943725 0.21676585 -0.060683127 -0.24963012 -0.50816435 0.061668564 -0.10809019 0.13956977
-0.062622435 -0.054419644 -0.58323 0.3684363 -0.0014057269 0.1561222 -0.1202689 -0.24367632
0.2884854 0.25765374 -0.31426948 0.16860434 0.028777944 0.04153855 -0.0028060705 -0.3575896
0.25988743 0.32348308 0.054180503 0.031850018 -0.059091568 -0.11375496 -0.20271903 -0.0032016838
-0.47162578 0.07080069 0.42800158 0.20675379 -0.24110843 0.22972848 -0.022369944 -0.08431043
-0.42825288 0.5685403 0.52807176 0.3470481 0.022155112 -0.37823355 -0.47279435 0.19947885
0.10792132 -0.33963698 -0.12206049 -0.4065934 -0.11275636 -0.66028017 0.0037873008 -0.024451755
0.0052822637 0.052177727 0.18588245 0.055261623 0.62141573 -0.53716683 0.005640588 0.113475546
0.59845716 0.3620802 -0.1075004 -0.35244164 0.30930215 -0.6710051 0.04925327 -0.494257
-0.6198301 -0.35615054 0.2256022 -0.03734703 0.14048482 -0.063154206 0.37448582 0.074620634
-0.09890659 -0.33386695 0.5224286 0.088618144 -0.4570313 0.3688067 -0.026082547 -0.30221274
0.094909616 -0.16269317 0.25709808 -0.5985269 -0.5050271 -0.11266761 -0.024537979 -0.20252082
0.08922201 0.16160558 -0.48559195 -0.088367 0.1446025 0.054954845 0.31715882 0.028133353
00000000: 1ff5 a03e 3d68 943c b600 acbd 8c38 963e
00000010: 3568 de3e 8642 513e 2898 35bf a916 84be
00000020: 26ce 883e c9f1 143e 1ff2 fb3d 2d0d 09bf
00000030: eb63 273f 5652 0fbd 67ef cbbd 6576 e3be
00000040: f404 87be e3fb b1be 18fd ce3d a910 33be
00000050: 7efc a23e 59cb 03be 79e0 fcbe 5118 9bbe
00000060: 1406 193e def7 5d3e df8e 78bd 0a9f 7fbe
00000070: 0f17 02bf 2d98 7c3d 645e ddbd 61eb 0e3e
00000080: 3140 80bd 22e7 5ebd 904e 15bf afa3 bc3e
00000090: 5e40 b8ba 7fde 1f3e 8b4f f6bd 4986 79be
000000a0: 5cb4 933e 31eb 833e eee7 a0be 9ea6 2c3e
000000b0: b9bf eb3c 5424 2a3d 0de6 37bb fc15 b7be
000000c0: f70f 853e 939f a53e 60ec 5d3d 2a75 023d
000000d0: 000a 72bd 5cf8 e8bd 9495 4fbe 57d3 51bb
000000e0: ef78 f1be f4ff 903d 0623 db3e 44b7 533e
000000f0: 21e5 76be f13d 6b3e 2c41 b7bc f2aa acbd
00000100: f643 dbbe db8b 113f b62f 073f 4ab0 b13e
00000110: a37e b53c d4a7 c1be 1a12 f2be 2f44 4c3e
00000120: da05 dd3d e6e4 adbe dafa f9bd 032d d0be
00000130: ceec e6bd 1f08 29bf 5d34 783b 0c4f c8bc
00000140: d716 ad3b 50b8 553d f857 3e3e 035a 623d
00000150: 1a15 1f3f c483 09bf aed4 b83b de65 e83d
00000160: 7d34 193f 9362 b93e 2b29 dcbd 3b73 b4be
00000170: da5c 9e3e fdc6 2bbf ccbd 493d 410f fdbe
00000180: 2fad 1ebf 5d59 b6be 4304 673e 33f9 18bd
00000190: 41db 0f3e fe56 81bd 9bbc bf3e b4d2 983d
000001a0: 8a8f cabd 9cf0 aabe e1bd 053f 6e7d b53d
000001b0: 0200 eabe 3bd4 bc3e 11ab d5bc a1bb 9abe
000001c0: f95f c23d 0a99 26be 5ca2 833e 0f39 19bf
000001d0: 7549 01bf 47be e6bd df03 c9bc 9e61 4fbe
000001e0: 07ba b63d ef7b 253e 829f f8be c2f9 b4bd
000001f0: ae12 143e 5518 613d a462 a23e eb77 e63c

bn1_state.running_mean f4 [128]
0.0 0.0 0.0 0.0 0.0 0.0 0.0 0.0
0.0 0.0 0.0 0.0 0.0 0.0 0.0 0.0
0.0 0.0 0.0 0.0 0.0 0.0 0.0 0.0
0.0 0.0 0.0 0.0 0.0 0.0 0.0 0.0
0.0 0.0 0.0 0.0 0.0 0.0 0.0 0.0
0.0 0.0 0.0 0.0 0.0 0.0 0.0 0.0
0.0 0.0 0.0 0.0 0.0 0.0 0.0 0.0
0.0 0.0 0.0 0.0 0.0 0.0 0.0 0.0
0.0 0.0 0.0 0.0 0.0 0.0 0.0 0.0
0.0 0.0 0.0 0.0 0.0 0.0 0.0 0.0
0.0 0.0 0.0 0.0 0.0 0.0 0.0 0.0
0.0 0.0 0.0 0.0 0.0 0.0 0.0 0.0
0.0 0.0 0.0 0.0 0.0 0.0 0.0 0.0
0.0 0.0 0.0 0.0 0.0 0.0 0.0 0.0
0.0 0.0 0.0 0.0 0.0 0.0 0.0 0.0
0.0 0.0 0.0 0.0 0.0 0.0 0.0 0.0
00000000: 0000 0000 0000 0000 0000 0000 0000 0000
00000010: 0000 0000 0000 0000 0000 0000 0000 0000
00000020: 0000 0000 0000 0000 0000 0000 0000 0000
00000030: 0000 0000 0000 0000 0000 0000 0000 0000
00000040: 0000 0000 0000 0000 0000 0000 0000 0000
00000050: 0000 0000 0000 0000 0000 0000 0000 0000
00000060: 0000 0000 0000 0000 0000 0000 0000 0000
00000070: 0000 0000 0000 0000 0000 0000 0000 0000
00000080: 0000 0000 0000 0000 0000 0000 0000 0000
00000090: 0000 0000 0000 0000 0000 0000 0000 0000
000000a0: 0000 0000 0000 0000 0000 0000 0000 0000
000000b0: 0000 0000 0000 0000 0000 0000 0000 0000
000000c0: 0000 0000 0000 0000 0000 0000 0000 0000
000000d0: 0000 0000 0000 0000 0000 0000 0000 0000
000000e0: 0000 0000 0000 0000 0000 0000 0000 0000
000000f0: 0000 0000 0000 0000 0000 0000 0000 0000
00000100: 0000 0000 0000 0000 0000 0000 0000 0000
00000110: 0000 0000 0000 0000 0000 0000 0000 0000
00000120: 0000 0000 0000 0000 0000 0000 0000 0000
00000130: 0000 0000 0000 0000 0000 0000 0000 0000
00000140: 0000 0000 0000 0000 0000 0000 0000 0000
00000150: 0000 0000 0000 0000 0000 0000 0000 0000
00000160: 0000 0000 0000 0000 0000 0000 0000 0000
00000170: 0000 0000 0000 0000 0000 0000 0000 0000
00000180: 0000 0000 0000 0000 0000 0000 0000 0000
00000190: 0000 0000 0000 0000 0000 0000 0000 0000
000001a0: 0000 0000 0000 0000 0000 0000 0000 0000
000001b0: 0000 0000 0000 0000 0000 0000 0000 0000
000001c0: 0000 0000 0000 0000 0000 0000 0000 0000
000001d0: 0000 0000 0000 0000 0000 0000 0000 0000
000001e0: 0000 0000 0000 0000 0000 0000 0000 0000
000001f0: 0000 0000 0000 0000 0000 0000 0000 0000

bn1_state.running_var f4 [128]
1.0 1.0 1.0 1.0 1.0 1.0 1.0 1.0
1.0 1.0 1.0 1.0 1.0 1.0 1.0 1.0
1.0 1.0 1.0 1.0 1.0 1.0 1.0 1.0
1.0 1.0 1.0 1.0 1.0 1.0 1.0 1.0
1.0 1.0 1.0 1.0 1.0 1.0 1.0 1.0
1.0 1.0 1.0 1.0 1.0 1.0 1.0 1.0
1.0 1.0 1.0 1.0 1.0 1.0 1.0 1.0
1.0 1.0 1.0 1.0 1.0 1.0 1.0 1.0
1.0 1.0 1.0 1.0 1.0 1.0 1.0 1.0
1.0 1.0 1.0 1.0 1.0 1.0 1.0 1.0
1.0 1.0 1.0 1.0 1.0 1.0 1.0 1.0
1.0 1.0 1.0 1.0 1.0 1.0 1.0 1.0
1.0 1.0 1.0 1.0 1.0 1.0 1.0 1.0
1.0 1.0 1.0 1.0 1.0 1.0 1.0 1.0
1.0 1.0 1.0 1.0 1.0 1.0 1.0 1.0
1.0 1.0 1.0 1.0 1.0 1.0 1.0 1.0
00000000: 0000 803f 0000 803f 0000 803f 0000 803f
00000010: 0000 803f 0000 803f 0000 803f 0000 803f
00000020: 0000 803f 0000 803f 0000 803f 0000 803f
00000030: 0000 803f 0000 803f 0000 803f 0000 803f
00000040: 0000 803f 0000 803f 0000 803f 0000 803f
00000050: 0000 803f 0000 803f 0000 803f 0000 803f
00000060: 0000 803f 0000 803f 0000 803f 0000 803f
00000070: 0000 803f 0000 803f 0000 803f 0000 803f
00000080: 0000 803f 0000 803f 0000 803f 0000 803f
00000090: 0000 803f 0000 803f 0000 803f 0000 803f
000000a0: 0000 803f 0000 803f 0000 803f 0000 803f
000000b0: 0000 803f 0000 803f 0000 803f 0000 803f
000000c0: 0000 803f 0000 803f 0000 803f 0000 803f
000000d0: 0000 803f 0000 803f 0000 803f 0000 803f
000000e0: 0000 803f 0000 803f 0000 803f 0000 803f
000000f0: 0000 803f 0000 803f 0000 803f 0000 803f
00000100: 0000 803f 0000 803f 0000 803f 0000 803f
00000110: 0000 803f 0000 803f 0000 803f 0000 803f
00000120: 0000 803f 0000 803f 0000 803f 0000 803f
00000130: 0000 803f 0000 803f 0000 803f 0000 803f
00000140: 0000 803f 0000 803f 0000 803f 0000 803f
00000150: 0000 803f 0000 803f 0000 803f 0000 803f
00000160: 0000 803f 0000 803f 0000 803f 0000 803f
00000170: 0000 803f 0000 803f 0000 803f 0000 803f
00000180: 0000 803f 0000 803f 0000 803f 0000 803f
00000190: 0000 803f 0000 803f 0000 803f 0000 803f
000001a0: 0000 803f 0000 803f 0000 803f 0000 803f
000001b0: 0000 803f 0000 803f 0000 803f 0000 803f
000001c0: 0000 803f 0000 803f 0000 803f 0000 803f
000001d0: 0000 803f 0000 803f 0000 803f 0000 803f
000001e0: 0000 803f 0000 803f 0000 803f 0000 803f
000001f0: 0000 803f 0000 803f 0000 803f 0000 803f

fc1_action.weight f4 [32, 2]
0.61384326 2.9208245 0.51378125 -0.9466152 -1.0809143 1.6557394 0.5683182 -2.3198128
-1.3051069 -0.36299756 -2.259096 1.5259622 1.3968098 0.23406172 -0.6137065 -0.12498906
0.72427374 -0.43676862 -0.9299903 -0.27735606 0.32729253 1.0598786 -0.07105191 1.9518503
-1.0175207 0.39782274 -1.3447756 0.6344384 -1.9303025 -2.5877192 1.045228 -0.15126315
1.0474249 0.2574523 0.91992927 1.3430667 -0.78884697 0.0067154625 0.18780507 1.8376626
0.6655856 0.40943643 0.05541753 -0.37150168 -0.08855088 2.7858071 2.7860727 -1.0383246
-0.48126897 -0.5559507 -0.15164158 -0.6739143 -0.4770825 -0.69597596 2.0132234 0.38986608
1.0831696 2.1804585 -0.7344043 -0.011543441 0.9941266 0.9869576 1.0688281 0.50278807
00000000: d524 1d3f caee 3a40 2b87 033f 6055 72bf
00000010: 665b 8abf 45ef d33f 4d7d 113f d077 14c0
00000020: be0d a7bf d1da b9be 0795 10c0 bb52 c33f
00000030: aaca b23f e0ad 6f3e df1b 1dbf 44fa ffbd
00000040: 016a 393f 23a0 dfbe d813 6ebf 9d01 8ebe
00000050: e392 a73e 1aaa 873f aa83 91bd 3bd6 f93f
00000060: 1e3e 82bf 6caf cb3e 9b21 acbf 8e6a 223f
00000070: 2714 f7bf 319d 25c0 08ca 853f bae4 1abe
00000080: 0512 863f cad0 833e 7c80 6b3f 9ce9 ab3f
00000090: e0f1 49bf 620d dc3b f94f 403e 8738 eb3f
000000a0: d163 2a3f a7a1 d13e 7efd 623d 7835 bebe
000000b0: 2a5a b5bd aa4a 3240 044f 3240 d2e7 84bf
000000c0: e368 f6be c952 0ebf ee47 1bbe a685 2cbf
000000d0: 2844 f4be 7b2b 32bf a7d8 0040 879c c73e
000000e0: 4da5 8a3f a28c 0b40 ec01 3cbf b320 3dbc
000000f0: 157f 7e3f 41a9 7c3f 5ccf 883f b8b6 003f

fc1_action.bias f4 [32]
-0.5161656 -1.2112886 0.85818803 0.14981619 0.584144 0.15578794 1.3913686 0.9494404
-0.4395683 -0.698385 0.7178256 -0.15987164 -0.7047014 -0.33290303 -0.45525032 0.41097978
1.425381 1.1297969 1.2262028 1.0784814 1.0617778 1.115143 -0.22205421 -0.4308936
1.1241852 1.2527554 1.3846205 1.1419029 0.087543294 0.6877832 0.28617755 1.0043007
00000000: 6e23 04bf 810b 9bbf 36b2 5b3f 6a69 193e
00000010: 768a 153f e086 1f3e 5e18 b23f 870e 733f
00000020: 190f e1be 5cc9 32bf 6bc3 373f 64b5 23be
00000030: 5067 34bf 4472 aabe 9216 e9be f16b d23e
00000040: e272 b63f 2f9d 903f 37f4 9c3f ae0b 8a3f
00000050: 56e8 873f 01bd 8e3f 2e62 63be 169e dcbe
00000060: 4de5 8f3f 4a5a a03f 3f3b b13f e029 923f
00000070: e649 b33d 8f12 303f dd85 923e ed8c 803f

bn1_action.weight f4 [32]
1.8936483 1.6175747 1.3578643 2.0382946 1.4141686 1.8345829 1.3330667 1.5629989
1.8115165 1.7950506 1.3232598 2.3441043 1.6051935 1.9010627 2.3667698 1.5021404
1.476429 1.3718228 1.6239488 1.4508531 1.4151417 1.7152394 2.7044103 1.5491983
1.7602562 1.8273079 1.7814722 1.3354678 1.7646383 1.3416123 1.4116741 1.467825
00000000: 1163 f23f b00c cf3f 7fce ad3f 6b73 0240
00000010: 7a03 b53f 9dd3 ea3f eea1 aa3f 5910 c83f
00000020: c6df e73f 38c4 e53f 9460 a93f ce05 1640
00000030: fb76 cd3f 0656 f33f 2879 1740 2346 c03f
00000040: a0fb bc3f e497 af3f 8edd cf3f 8eb5 b93f
00000050: 5d23 b53f f78c db3f 0f15 2d40 214c c63f
00000060: 1350 e13f 3ae5 e93f 4807 e43f 9cf0 aa3f
00000070: abdf e13f f4b9 ab3f bdb1 b43f b1e1 bb3f

bn1_action.bias f4 [32]
0.18506329 -0.68010396 0.8743794 0.2840537 0.6084434 0.12188662 0.88426965 0.7348773
-0.10048579 -0.028128639 0.71542937 0.13364835 -0.13681422 -0.11701349 -0.16120924 0.340565
0.846149 0.78212523 0.7713881 0.6818585 0.7719073 0.68493664 0.40225655 0.011726502
0.74855757 0.70189303 0.69691026 0.7564516 0.35059175 0.7450147 0.40388608 0.814032
00000000: 3b81 3d3e 4b1b 2ebf 54d7 5f3f 7d6f 913e
00000010: f2c2 1b3f b19f f93d 7f5f 623f eb20 3c3f
00000020: 7ecb cdbd 086e e6bc 6126 373f 1ddb 083e
00000030: 0719 0cbe c5a4 efbd 0914 25be 895e ae3e
00000040: 399d 583f 5c39 483f b179 453f 478e 2e3f
00000050: b89b 453f 0258 2f3f 92f4 cd3e 8420 403c
00000060: 78a1 3f3f 43af 333f b668 323f d0a6 413f
00000070: c380 b33e 49b9 3e3f 28ca ce3e 6764 503f

bn1_action.running_mean f4 [32]
0.0 0.0 0.0 0.0 0.0 0.0 0.0 0.0
0.0 0.0 0.0 0.0 0.0 0.0 0.0 0.0
0.0 0.0 0.0 0.0 0.0 0.0 0.0 0.0
0.0 0.0 0.0 0.0 0.0 0.0 0.0 0.0
00000000: 0000 0000 0000 0000 0000 0000 0000 0000
00000010: 0000 0000 0000 0000 0000 0000 0000 0000
00000020: 0000 0000 0000 0000 0000 0000 0000 0000
00000030: 0000 0000 0000 0000 0000 0000 0000 0000
00000040: 0000 0000 0000 0000 0000 0000 0000 0000
00000050: 0000 0000 0000 0000 0000 0000 0000 0000
00000060: 0000 0000 0000 0000 0000 0000 0000 0000
00000070: 0000 0000 0000 0000 0000 0000 0000 0000

bn1_action.running_var f4 [32]
1.0 1.0 1.0 1.0 1.0 1.0 1.0 1.0
1.0 1.0 1.0 1.0 1.0 1.0 1.0 1.0
1.0 1.0 1.0 1.0 1.0 1.0 1.0 1.0
1.0 1.0 1.0 1.0 1.0 1.0 1.0 1.0
00000000: 0000 803f 0000 803f 0000 803f 0000 803f
00000010: 0000 803f 0000 803f 0000 803f 0000 803f
00000020: 0000 803f 0000 803f 0000 803f 0000 803f
00000030: 0000 803f 0000 803f 0000 803f 0000 803f
00000040: 0000 803f 0000 803f 0000 803f 0000 803f
00000050: 0000 803f 0000 803f 0000 803f 0000 803f
00000060: 0000 803f 0000 803f 0000 803f 0000 803f
00000070: 0000 803f 0000 803f 0000 803f 0000 803f

fc2.weight f4 [200, 160]
-0.25738767 -0.21457934 -0.18419948 0.1741759 -0.06209134 0.20473666 0.10717087 -0.132855
-0.12926114 -0.092674196 -0.007044642 -0.058100164 -0.013880499 0.37095338 0.09844975 0.12658067
-0.054903444 -0.16178362 0.044281427 0.0075359596 0.18765385 -0.009033871 -0.18817377 0.3839353
0.18236898 0.23078702 0.18024357 0.32074547 0.017255686 -0.22141302 -0.15145358 -0.19628178
-0.0053234897 0.13772237 -0.031085046 0.20351619 0.31852192 -0.024325116 -0.15164565 -0.10164492
-0.11230334 0.10047935 0.15301368 0.014606111 0.12691602 -0.10311284 -0.21539363 0.22323889
-0.10374397 -0.11475502 -0.23647454 -0.26141584 -0.32557002 -0.3937797 0.06422668 0.041910492
-0.020519158 -0.3131027 0.112472124 -0.104192466 -0.15005831 0.04998922 -0.0930847 0.0079279095
-0.08230916 0.15719259 -0.056881554 0.069130324 0.0666352 0.22553055 0.030363044 -0.19277087
-0.007913482 0.221611 0.24068742 0.02988943 -0.38430148 -0.050625637 -0.33372518 -0.122351296
-0.13603239 -0.3419566 -0.19029571 0.059020605 -0.7135601 -0.032400735 -0.3285566 -0.0021561957
0.13992691 -0.061599437 -0.20393507 0.25339153 0.08901957 -0.1342723 0.19331829 0.39976123
0.058436986 0.04210059 0.15540451 -0.062245302 0.12691206 0.5415793 -0.13830732 0.19913177
0.18533367 0.35318583 -0.19655189 0.16438101 -0.009526124 0.01459408 0.030712059 0.07881048
-0.040389966 0.14300343 -0.070479184 -0.043678705 -0.04584273 -0.13392496 -0.27674776 0.08902222
-0.24713138 -0.111820765 -0.15410991 0.035528537 -0.0052372124 -0.06575654 0.03515054 0.3636476
-0.28071618 0.180462 0.16864724 -0.11468954 0.45185515 0.2901764 -0.4033064 -0.10974846
0.26809585 0.21101552 -0.19139436 -0.07231418 -0.13606463 0.16041069 0.407233 -0.62981254
-0.16882178 -0.41276273 0.0077279196 -0.23900113 -0.2727599 -0.24959166 0.01619687 -0.6525688
-0.19228815 -0.36429864 -0.20081793 -0.5695395 -0.4136661 0.13016766 -0.44073102 -0.23345017
0.037833557 -0.038574893 -0.067737006 0.09111249 0.009695782 0.20605543 0.20346808 -0.11617867
-0.058217354 -0.0936866 0.16498186 -0.12963831 -0.023281874 -0.011692356 -0.2589912 0.1543865
0.15271291 0.14454101 -0.09196106 -0.1480234 0.2801545 -0.03303587 -0.107609645 -0.09387168
0.055603303 -0.21823177 -0.104064524 0.06922901 -0.12950525 0.20660208 0.075724386 -0.009598757
0.11716675 0.14139241 0.1633689 -0.008376269 0.06911783 0.069794096 0.29636455 0.24762341
-0.22125494 -0.23395805 0.19932878 -0.23345554 -0.13587417 0.08709271 0.015489626 0.17057067
0.15994167 -0.1897402 0.0251045 -0.09976804 0.45869753 0.07756727 -0.0013721208 0.066456996
-0.057851993 0.13528246 -0.0698923 0.0028050162 -0.12109709 0.017467763 0.14286509 -0.06799126
0.022039933 0.027670715 -0.086139865 -0.081103414 0.073380254 -0.25048402 -0.142316 0.05508804
-0.14224447 0.089426 0.05444688 -0.21471593 0.017851358 0.11171845 0.03879546 0.14430462
-0.10775631 0.051948212 0.029776704 -0.28564253 0.2637677 0.055254303 -0.023786284 0.2586914
0.061819408 -0.11422731 0.14042173 0.012340503 0.14610787 0.0015099008 0.452848 0.24057
00000000: 51c8 83be b0ba 5bbe ca9e 3cbe 2b5b 323e
00000010: 7d53 7ebd 7da6 513e 677c db3d 240b 08be
00000020: 085d 04be f8cb bdbd bed6 e6bb 70fa 6dbd
00000030: 086b 63bc 9aed bd3e 06a0 c93d 5d9e 013e
00000040: 6fe2 60bd 9baa 25be 7160 353d 36f0 f63b
00000050: 5528 403e cd02 14bc a0b0 40be 2b93 c43e
00000060: efbe 3a3e 6f53 6c3e c591 383e c038 a43e
00000070: cc5b 8d3c 18ba 62be a616 1bbe 17fe 48be
00000080: ab70 aebb 1807 0d3e 11a6 febc 8c66 503e
00000090: 4e15 a33e 7745 c7bc ff48 1bbe 362b d0bd
000000a0: 4bff e5bd 1ec8 cd3d 9eaf 1c3e 784e 6f3c
000000b0: 46f6 013e d32c d3bd 2690 5cbe bc98 643e
000000c0: b877 d4bd ae04 ebbd 6226 72be 4cd8 85be
000000d0: 1db1 a6be 7e9d c9be 4789 833d 56aa 2b3d
000000e0: cb17 a8bc ff4e a0be c957 e63d dc62 d5bd
000000f0: e3a8 19be 7fc1 4c3d 31a3 bebd 10e4 013c
00000100: b491 a8bd 18f7 203e a2fc 68bd 3394 8d3d
00000110: 0978 883d 7bf1 663e ebbb f83c ba65 45be
00000120: 8da7 01bc feed 623e c376 763e aeda f43c
00000130: 2ac3 c4be d45c 4fbd 07de aabe 5193 fabd
00000140: 134c 0bbe ef14 afbe e1dc 42be 97bf 713d
00000150: e0ab 36bf a2b6 04bd 9238 a8be f64e 0dbb
00000160: 0049 0f3e b14f 7cbd 5bd4 50be 89bc 813e
00000170: e44f b63d ae7e 09be 3bf5 453e 81ad cc3e
00000180: 9f5b 6f3d ab71 2c3d 5c22 1f3e eef4 7ebd
00000190: 3cf5 013e f1a4 0a3f 6fa0 0dbe 33e9 4b3e
000001a0: 1cc8 3d3e c6d4 b43e e644 49be 7f53 283e
000001b0: 7613 1cbc 021c 6f3c db97 fb3c 6467 a13d
000001c0: f36f 25bd 7e6f 123e 6457 90bd 71e8 32bd
000001d0: 96c5 3bbd a023 09be e2b1 8dbe 4851 b63d
000001e0: 0210 7dbe 4902 e5bd fdce 1dbe 5f86 113d
000001f0: ec9c abbb 5dab 86bd 03fa 0f3d 0530 ba3e
00000200: 08ba 8fbe 08cb 383e ddb1 2c3e 59e2 eabd
00000210: 8f59 e73e 0092 943e 2d7e cebe cdc3 e0bd
00000220: dc43 893e 7414 583e e2fc 43be 7519 94bd
00000230: 8754 0bbe b342 243e d880 d03e 653b 21bf
00000240: 9edf 2cbe a355 d3be 7d3a fd3b b6bc 74be
00000250: 30a7 8bbe f594 7fbe 4caf 843c c00e 27bf
00000260: 2fe7 44be 5a85 babe 37a3 4dbe 57cd 11bf
00000270: 0bcc d3be ac4a 053e 7fa7 e1be 900d 6fbe
00000280: 5cf7 1a3d b500 1ebd b3b9 8abd 2f99 ba3d
00000290: 0fdb 1e3c 3200 533e f059 503e 15ef edbd
000002a0: 5275 6ebd c3de bfbd 01f1 283e e8bf 04be
000002b0: a1b9 bebc 4c91 3fbc 7f9a 84be 7f17 1e3e
000002c0: c660 1c3e 8f02 143e 1556 bcbd 7293 17be
000002d0: 6970 8f3e 9f50 07bd 7262 dcbd cc3f c0bd
000002e0: 4ac0 633d 2678 5fbe c81f d5bd f0c7 8d3d
000002f0: 069d 04be 7f8f 533e 6315 9b3d 1b44 1dbc
00000300: 1ff5 ef3d 2cc9 103e 2d4a 273e 9e3c 09bc
00000310: a68d 8d3d 35f0 8e3d 18bd 973e fe90 7d3e
00000320: a890 62be b392 6fbe d81c 4c3e f80e 6fbe
00000330: 9922 0bbe aa5d b23d 33c8 7d3c 14aa 2e3e
00000340: c0c7 233e 414b 42be f4a7 cd3c 3053 ccbd
00000350: 67da ea3e 97db 9e3d bcd8 b3ba 9b1a 883d
00000360: 36f6 6cbd 7c87 0a3e b223 8fbd 5dd4 373b
00000370: c001 f8bd 8e18 8f3c 3a4b 123e 003f 8bbd
00000380: 178d b43c b2ad e23c 196a b0bd 8c19 a6bd
00000390: 6348 963d 713f 80be 49bb 11be ffa3 613d
000003a0: 89a8 11be fb24 b73d b103 5f3d 7ede 5bbe
000003b0: 033d 923c a5cc e43d fde7 1e3d 97c4 133e
000003c0: 57af dcbd a6c7 543d 46ee f33c bd3f 92be
000003d0: 8f0c 873e 5652 623d 74db c2bc 3373 843e
000003e0: 5936 7d3d 02f0 e9bd b7ca 0f3e d22f 4a3c
000003f0: 4d9d 153e dde7 c53a b1db e73e fb57 763e

fc2.bias f4 [200]
-0.18095022 -0.2624966 -0.041802056 -0.2247068 0.2529401 0.40886998 -0.25240466 -0.45345926
1.0167149 -0.36743656 0.16125372 0.57983875 -0.44513303 -0.3792564 0.03653898 0.24050383
0.09598695 0.06960303 -0.27128842 0.5438888 0.022156939 -0.05073551 0.061747197 -0.016156273
0.16871616 -0.1391648 -0.15557109 -0.34436384 -0.15259281 0.36393794 0.7878904 0.0369974
0.12584895 0.78550977 0.77919984 -0.11130786 -0.37272942 0.19214635 -0.13427715 -0.3974783
0.76952934 0.3139837 -0.04062593 -0.059682954 0.03224674 -0.09817551 -0.7315829 0.07790829
0.06247348 0.19606541 0.40900147 -0.6185122 0.09206724 0.26743186 0.100361995 0.34526265
0.24129358 -0.022531075 0.0014517633 0.41753516 0.41195863 0.06971431 -0.14691553 0.09682146
0.92040694 0.8421781 0.22141579 0.6048529 0.3244734 0.6107678 0.39136592 -0.042043623
0.0027486738 0.18066664 0.34145707 0.012622567 0.10038928 0.09317176 0.4368707 0.20127401
0.0620076 0.03240029 -0.12935019 -0.2852161 -0.0012003588 -0.115239814 0.70866656 -0.069011025
0.044499643 -0.15721007 0.37994027 -0.6165608 0.20150907 0.45857614 -0.11503308 0.11444037
-0.10442609 -0.043204207 -0.005079194 -0.4762633 -0.23335676 0.40951526 0.07844993 0.024908468
-0.14824711 -0.42369583 0.3345661 0.042252276 0.21314482 -0.017713496 -0.3248516 0.15741983
-0.220383 0.1871011 0.38618678 -0.33882836 -0.26613835 -0.33676484 -0.4595854 0.19663452
0.19591601 0.029162427 -0.18067387 -0.11733432 0.28330493 0.4539114 0.42121273 -0.015281551
0.4933665 0.71612704 -0.06770627 -0.23587885 0.06041574 -0.4445584 -0.55652887 -0.040841747
0.23970242 0.6655686 -0.040533055 -0.30636007 -0.66325295 0.6709723 0.19357072 -0.6003547
0.50652045 0.7436012 -0.55164534 0.03332028 -0.36336762 0.06486753 0.35604286 -0.33010364
0.5965477 0.98351616 -0.19988003 -0.10429884 0.15355982 0.56930894 0.025095934 -0.082679875
0.018775987 0.009526425 -0.13500597 -0.08421373 0.7221794 -0.021955024 -0.07033625 0.028886475
-0.2764429 -0.4860547 0.1290085 -0.095048115 0.069231614 0.083302006 0.05966376 0.15713155
0.33101475 0.46678978 -0.7557168 0.23392934 -0.19364993 -0.4634951 -0.20229176 0.5385175
0.24868166 -0.14895235 -0.073157415 0.03916572 0.26603067 0.07004059 -0.06564663 -0.1775238
0.048507363 0.044992115 0.28068846 0.33766225 -0.010794091 0.7429908 -0.08960441 -0.062283564
00000000: 044b 39be f465 86be a238 2bbd 8a19 66be
00000010: 5d81 813e 6857 d13e 2f3b 81be d02b e8be
00000020: b723 823f a520 bcbe b21f 253e 5070 143f
00000030: 7ae8 e3be e52d c2be e6a9 153d a346 763e
00000040: ce94 c43d 098c 8e3d 51e6 8abe 4c3c 0b3f
00000050: 7882 b53c 0ad0 4fbd a1ea 7c3d 295a 84bc
00000060: eec3 2c3e 3881 0ebe 074e 1fbe 7550 b0be
00000070: 4a41 1cbe 1356 ba3e 2fb3 493f 968a 173d
00000080: 8cde 003e 2b17 493f a479 473f 60f5 e3bd
00000090: 64d6 bebe 03c2 443e f37f 09be 4782 cbbe
000000a0: e0ff 443f 79c2 a03e 6067 26bd 1d76 74bd
000000b0: 2815 043d 3e10 c9bd 0449 3bbf 628e 9f3d
000000c0: 31e4 7f3d 5fc5 483e a468 d13e d156 1ebf
000000d0: c08d bc3d d4ec 883e 978a cd3d 44c6 b03e
000000e0: aa15 773e 1793 b8bc 1849 be3a 2bc7 d53e
000000f0: 3eec d23e 60c6 8e3d 0671 16be 544a c63d
00000100: ca9f 6b3f fc98 573f d2ba 623e a4d7 1a3f
00000110: 6121 a63e 475b 1c3f 1d61 c83e ef35 2cbd
00000120: 1823 343b ad00 393e 76d3 ae3e e2ce 4e3c
00000130: e598 cd3d d6d0 be3d 84ad df3e c61a 4e3e
00000140: aefb 7d3d 2bb6 043d 6074 04be d807 92be
00000150: 5c55 9dba da02 ecbd 2c6b 353f a755 8dbd
00000160: 4245 363d adfb 20be 8887 c23e eed6 1dbf
00000170: 6558 4e3e 7eca ea3e 7796 ebbd b65f ea3d
00000180: 59dd d5bd e5f6 30bd 5e6f a6bb c9d8 f3be
00000190: 13f5 6ebe fcab d13e 5baa a03d d80c cc3c
000001a0: 17ce 17be a9ee d8be 3f4c ab3e b910 2d3d
000001b0: a342 5a3e e51b 91bc f352 a6be aa32 213e
000001c0: 15ac 61be 6e97 3f3e 46ba c53e e97a adbe
000001d0: 4943 88be 716c acbe c74e ebbe 8f5a 493e
000001e0: 359e 483e 0be6 ee3c 9202 39be fa4c f0bd
000001f0: 580d 913e 1367 e83e 32a9 d73e 785f 7abc
00000200: 899a fc3e 1a54 373f 96a9 8abd 3a8a 71be
00000210: 7f76 773d 299d e3be ad78 0ebf ad49 27bd
00000220: 8d74 753e b462 2a3f fd05 26bd 3adb 9cbe
00000230: f2ca 29bf d7c4 2b3f 6737 463e d8b0 19bf
00000240: 53ab 013f a65c 3e3f a138 0dbf d97a 083d
00000250: 520b babe 44d9 843d 404b b63e 5803 a9be
00000260: 5ab7 183f b7c7 7b3f 5aad 4cbe a19a d5bd
00000270: c93e 1d3e 3bbe 113f fd95 cd3c 1154 a9bd
00000280: 19d0 993c b914 1c3c 013f 0abe 4078 acbd
00000290: c0e0 383f 06db b3bc 740c 90bd 54a3 ec3c
000002a0: ec89 8dbe 29dc f8be ce1a 043e 96a8 c2bd
000002b0: 4ec9 8d3d 3e9a aa3d fd61 743d 18e7 203e
000002c0: c47a a93e 12ff ee3e a876 41bf 2c8b 6f3e
000002d0: 2b4c 46be 3b4f edbe 9225 4fbe 48dc 093f
000002e0: 68a6 7e3e f786 18be 8ed3 95bd 3c6c 203d
000002f0: 2c35 883e 7171 8f3d be71 86bd cdc8 35be
00000300: a8af 463d a749 383d 66b6 8f3e 11e2 ac3e
00000310: b3d9 30bc a534 3e3f 8482 b7bd 0d1d 7fbd

bn2.weight f4 [200]
0.9558525 0.62099546 1.2077411 1.0910982 0.8073589 1.4793308 0.90208095 1.1206727
1.1023749 1.1739848 1.0369343 1.0493786 1.7133673 1.3998847 1.4095397 1.0168874
1.0609394 1.4847747 0.6941935 1.2926116 0.9200219 0.8408597 1.236844 0.953769
1.0452613 1.1579802 0.97327286 1.0304393 0.85165125 1.0885719 0.81620264 1.0002396
1.246412 0.96127206 1.0514287 1.0017344 0.83754337 1.1260289 1.0103492 0.9582368
1.1183813 1.0545945 1.1479362 1.0429014 1.1507365 1.0134436 0.8672643 0.93859684
0.9852596 1.0358788 1.1066972 1.0892124 1.1529735 1.0034262 1.0661476 1.4313308
0.90543395 1.1377652 0.9763525 0.7658305 1.0552596 1.077357 0.75990635 0.8503111
1.0657947 1.1493603 0.9905127 0.559613 1.0345142 1.1432112 0.781267 1.4608965
0.95297706 1.1505978 1.1536531 1.1217055 1.1044592 0.8991152 1.3406602 0.8878704
1.0049058 1.2190772 1.403267 0.8764209 1.321973 1.0805924 0.72853065 0.97244847
0.9099515 1.0874658 0.51103187 1.0194248 0.82929087 0.88168365 0.9487657 1.0631607
1.1253641 1.2110764 0.97150666 1.0351714 0.7314706 1.064564 1.0558343 1.0969733
1.1428005 1.0343595 0.90290415 1.3488058 1.0594693 0.8832703 1.3051739 1.088307
0.9863638 1.0164343 0.8378001 0.858558 1.2306155 1.1726618 1.3977454 1.1310573
1.009272 1.4126515 1.1017206 0.9710272 1.2028106 0.89269996 1.0420846 0.9982018
0.72025925 1.1648928 0.86984044 1.0012699 1.4272602 1.1685214 1.2377186 1.1300747
0.8368485 0.9042825 1.3098458 0.9075497 1.153962 1.0806866 0.97924966 0.9736191
0.8892773 0.8797281 0.77796507 1.4005558 0.78996605 1.0458311 0.9393604 1.151938
0.8566439 0.98330617 0.874936 1.2297782 0.93365836 0.9973725 1.0508088 1.2904937
1.1161646 1.181296 1.0342047 1.410699 1.1440057 0.976546 0.9117652 1.3059807
1.1672466 0.871011 1.0520118 1.0650669 1.0423639 1.296108 1.3520229 1.2387977
1.1920167 0.9418397 1.1192626 1.0771904 1.1359237 1.2635919 0.8904586 0.89238673
1.1879002 1.1551676 1.0557702 1.2819674 1.1611098 0.9160487 1.198745 1.3629802
1.1166312 1.4218463 0.9322192 0.58179903 0.94388497 1.1162943 1.287478 0.9709266
00000000: c0b2 743f 8ff9 1e3f 4397 9a3f 1ba9 8b3f
00000010: 13af 4e3f b65a bd3f c7ee 663f 3472 8f3f
00000020: 9f1a 8d3f 2245 963f 43ba 843f 0a52 863f
00000030: 9f4f db3f 6c2f b33f cc6b b43f 5e29 823f
00000040: ddcc 873f 190d be3f aab6 313f 4c74 a53f
00000050: 8e86 6b3f 9542 573f e750 9e3f 352a 743f
00000060: 1fcb 853f b238 943f 6928 793f 6fe5 833f
00000070: d105 5a3f 5356 8b3f a8f2 503f da07 803f
00000080: 6e8a 9f3f ed15 763f 3795 863f d538 803f
00000090: 3e69 563f b721 903f 1f53 813f 024f 753f
000000a0: 1e27 8f3f f4fc 863f 93ef 923f cb7d 853f
000000b0: 554b 933f 85b8 813f 0805 5e3f e247 703f
000000c0: f939 7c3f ad97 843f 41a8 8d3f 506b 8b3f
000000d0: a394 933f 4570 803f 8677 883f d935 b73f
000000e0: 85ca 673f 4aa2 913f 3df2 793f 780d 443f
000000f0: bf12 873f d6e6 893f 3989 423f fdad 593f
00000100: f66b 883f 3d1e 933f 3e92 7d3f cc42 0f3f
00000110: f66a 843f bf54 923f 1d01 483f a8fe ba3f
00000120: 4ef6 733f ca46 933f e8aa 933f 0c94 8f3f
00000130: eb5e 8d3f 6a2c 663f c19a ab3f 794b 633f
00000140: c1a0 803f b90a 9c3f 419e b33f 1f5d 603f
00000150: 6936 a93f da50 8a3f fc80 3a3f 62f2 783f
00000160: 95f2 683f 1432 8b3f fcd2 023f 837c 823f
00000170: 684c 543f 05b6 613f 4fe2 723f a615 883f
00000180: ee0b 903f 8d04 9b3f a9b4 783f 7f80 843f
00000190: a841 3b3f a243 883f 9425 873f 9f69 8c3f
000001a0: 4947 923f e465 843f ba24 673f aba5 ac3f
000001b0: b19c 873f 011e 623f f00f a73f a54d 8b3f
000001c0: 5782 7c3f 851a 823f 117a 563f 75ca 5b3f
000001d0: cf84 9d3f c819 963f 52e9 b23f 7cc6 903f
000001e0: d32f 813f c4d1 b43f 2e05 8d3f 3d95 783f
000001f0: b3f5 993f fc87 643f 0763 853f 278a 7f3f
00000200: e962 383f 351b 953f ddad 5e3f 9d29 803f
00000210: 76b0 b63f 1c92 953f 906d 9e3f 4aa6 903f
00000220: b43b 563f 0f7f 673f 07a9 a73f 2d55 683f
00000230: 07b5 933f f053 8a3f 1bb0 7a3f 1a3f 793f
00000240: ada7 633f dc35 613f b828 473f 6a45 b33f
00000250: 373b 4a3f cbdd 853f ec79 703f b472 933f
00000260: 044d 5b3f f4b9 7b3f cefb 5f3f 5f69 9d3f
00000270: 3c04 6f3f ce53 7f3f e780 863f e62e a53f
00000280: 7bde 8e3f b534 973f d260 843f c991 b43f
00000290: c76e 923f ebfe 793f 7269 693f 602a a73f
000002a0: 5668 953f 94fa 5e3f 53a8 863f 1d54 883f
000002b0: 2e6c 853f dee6 a53f 160f ad3f ec90 9e3f
000002c0: 0194 983f 681c 713f ff43 8f3f 60e1 893f
000002d0: f365 913f 61bd a13f 18f5 633f 7573 643f
000002e0: 1d0d 983f 88dc 933f 7a23 873f 8217 a43f
000002f0: 3f9f 943f 2b82 6a3f 7a70 993f 2376 ae3f
00000300: c5ed 8e3f 0fff b53f eba5 6e3f c8f0 143f
00000310: 72a2 713f bbe2 8e3f 14cc a43f a58e 783f

bn2.bias f4 [200]
-0.2483446 -0.22362946 0.03462853 -0.24421519 0.19913131 0.39398533 -0.19650853 -0.4404265
0.95031345 -0.30810153 0.12773557 0.5394559 -0.3917619 -0.36998355 0.064816326 0.22827448
0.071658 0.07813082 -0.19826311 0.5029407 -0.026672019 0.018131394 0.031120423 0.062270377
0.12214376 -0.17275175 -0.08860665 -0.41980687 -0.17660463 0.37478238 0.71851116 0.09037432
0.12865014 0.7447199 0.70605826 -0.103153795 -0.29860047 0.13351959 -0.16907026 -0.37147203
0.7096225 0.31757417 0.031646207 -0.06668908 0.017355863 -0.12181709 -0.8049693 0.053738207
0.109385766 0.19122593 0.3565254 -0.54678905 0.07731271 0.28938475 0.054092012 0.3051989
0.26709488 -0.015387475 -0.058588706 0.34677634 0.3369721 0.041945823 -0.1489013 0.09857105
0.84404606 0.7676299 0.27818075 0.66576517 0.31706157 0.6791549 0.3235585 -0.076933846
-0.009816716 0.1387422 0.28796145 -0.0067582857 0.159492 0.04133943 0.36048934 0.2523649
0.051587366 -0.0009552333 -0.094408534 -0.2460661 0.005644779 -0.07973388 0.6516735 -0.08390447
0.021098716 -0.11199433 0.35976303 -0.5927855 0.18589547 0.41601697 -0.122420415 0.10704508
-0.10156393 0.009838968 -0.070833504 -0.4692066 -0.16229397 0.48597464 0.06294986 -0.008691223
-0.09047538 -0.3605012 0.37897292 0.053414263 0.28364584 -0.08617479 -0.2792165 0.18044151
-0.19062974 0.22686172 0.3388847 -0.32503694 -0.21709217 -0.3919613 -0.48189366 0.2529445
0.13811122 -0.0021230965 -0.15744627 -0.1832003 0.24924502 0.44282797 0.4886196 -0.056232706
0.5236707 0.759312 -0.12291728 -0.16398121 0.009673323 -0.37762448 -0.5169898 -0.04822279
0.1935853 0.644801 0.03550431 -0.2744096 -0.6971115 0.6171816 0.24426132 -0.5572581
0.43084893 0.67334604 -0.48825753 0.07068549 -0.39185843 0.008987717 0.30213714 -0.3372298
0.6524274 0.97812754 -0.1346903 -0.16016953 0.106473915 0.61532885 0.019076487 -0.03842507
-0.018994454 0.04864041 -0.068074316 -0.018249614 0.67984766 -0.07535048 -0.14406686 0.0018405358
-0.3430413 -0.42455193 0.061549846 -0.020558326 0.07720879 0.05184309 0.055213746 0.09066919
0.3268985 0.43145317 -0.7039269 0.22965705 -0.24121223 -0.45813566 -0.22902365 0.5314041
0.1998541 -0.16684859 -0.014373395 0.08270124 0.3040646 0.12038573 -0.032177716 -0.18713933
0.11594792 -0.003848007 0.24375716 0.35691133 -0.0063317255 0.69210184 -0.07796161 -0.035718054
00000000: 0c4e 7ebe 1fff 64be a5d6 0d3d 8c13 7abe
00000010: 14e9 4b3e 72b8 c93e 8839 49be 957f e1be
00000020: be47 733f 7cbf 9dbe 1dcd 023e c819 0a3f
00000030: 0495 c8be 7c6e bdbe 6cbe 843d c9c0 693e
00000040: 6ec1 923d 0d03 a03d 7c05 4bbe b9c0 003f
00000050: 477f dabc 4a88 943c 42f0 fe3c 390f 7f3d
00000060: 8226 fa3d d6e5 30be 6777 b5bd edf0 d6be
00000070: d8d7 34be 7ae3 bf3e 59f0 373f 2c16 b93d
00000080: ddbc 033e f7a5 3e3f 3cc0 343f 4c42 d3bd
00000090: 29e2 98be 5cb9 083e c120 2dbe 9531 bebe
000000a0: d2a9 353f 1599 a23e 749f 013d 4994 88bd
000000b0: e22d 8e3c 3d7b f9bd 7812 4ebf 981c 5c3d
000000c0: a505 e03d bbd0 433e 7f8a b63e 5efa 0bbf
000000d0: 2056 9e3d 3d2a 943e 968f 5d3d 0843 9c3e
000000e0: a9c0 883e bf1b 7cbc b6fa 6fbd ab8c b13e
000000f0: 9b87 ac3e 62cf 2b3d 9579 18be 9edf c93d
00000100: 6713 583f 6583 443f b56d 8e3e 966f 2a3f
00000110: e555 a23e 18dd 2d3f 76a9 a53e 7e8f 9dbd
00000120: 4bd6 20bc 6f12 0e3e af6f 933e 9c74 ddbb
00000130: df51 233e 8953 293d 0f92 b83e f935 813e
00000140: 464d 533d 9f68 7aba 4359 c1bd c0f8 7bbe
00000150: d7f7 b83b 844b a3bd 13d4 263f 1bd6 abbd
00000160: 37d7 ac3c 495d e5bd dc32 b83e cac0 17bf
00000170: 625b 3e3e 2d00 d53e 8eb7 fabd 733a db3d
00000180: c000 d0bd 9f33 213c 2811 91bd d93b f0be
00000190: 6430 26be abd1 f83e dbeb 803d a265 0ebc
000001a0: 284b b9bd 9d93 b8be bd08 c23e eac8 5a3d
000001b0: 073a 913e 697c b0bd 77f5 8ebe a9c5 383e
000001c0: 7134 43be 704e 683e 4c82 ad3e 3e6b a6be
000001d0: 694d 5ebe 27af c8be c4ba f6be f181 813e
000001e0: 076d 0d3e a623 0bbb 9839 21be dc98 3bbe
000001f0: 163a 7f3e 59ba e23e 592c fa3e 4454 66bd
00000200: 480f 063f 4562 423f 0ebc fbbd b1ea 27be
00000210: db7c 1e3c ff57 c1be 7259 04bf 4385 45bd
00000220: 3a3b 463e ae11 253f f86c 113d 6a7f 8cbe
00000230: e675 32bf 9dff 1d3f a41f 7a3e 78a8 0ebf
00000240: 3b98 dc3e 6860 2c3f e4fc f9be 8ec3 903d
00000250: aba1 c8be 3841 133c b8b1 9a3e 62a9 acbe
00000260: 7b05 273f 9166 7a3f 41ec 09be 7b03 24be
00000270: ff0e da3d 3186 1d3f 4b46 9c3c 9b63 1dbd
00000280: 429a 9bbc 2b3b 473d 8c6a 8bbd 3780 95bc
00000290: 7f0a 2e3f 5a51 9abd 4386 13be 223e f13a
000002a0: 1ca3 afbe df5e d9be b11b 7c3d ef69 a8bc
000002b0: a41f 9e3d 6c59 543d cf27 623d c5b0 b93d
000002c0: 3d5f a73e 6ee7 dc3e 8e34 34bf 382b 6b3e
000002d0: 5700 77be c290 eabe 2d85 6abe 190a 083f
000002e0: 8ea6 4c3e 5bda 2abe 637e 6bbc 455f a93d
000002f0: 5bae 9b3e cb8c f63d c8cc 03bd 74a1 3fbe
00000300: 1a76 ed3d d82e 7cbb 7a9b 793e 15bd b63e
00000310: 5d7a cfbb 962d 313f 56aa 9fbd 184d 12bd

bn2.running_mean f4 [200]
0.0 0.0 0.0 0.0 0.0 0.0 0.0 0.0
0.0 0.0 0.0 0.0 0.0 0.0 0.0 0.0
0.0 0.0 0.0 0.0 0.0 0.0 0.0 0.0
0.0 0.0 0.0 0.0 0.0 0.0 0.0 0.0
0.0 0.0 0.0 0.0 0.0 0.0 0.0 0.0
0.0 0.0 0.0 0.0 0.0 0.0 0.0 0.0
0.0 0.0 0.0 0.0 0.0 0.0 0.0 0.0
0.0 0.0 0.0 0.0 0.0 0.0 0.0 0.0
0.0 0.0 0.0 0.0 0.0 0.0 0.0 0.0
0.0 0.0 0.0 0.0 0.0 0.0 0.0 0.0
0.0 0.0 0.0 0.0 0.0 0.0 0.0 0.0
0.0 0.0 0.0 0.0 0.0 0.0 0.0 0.0
0.0 0.0 0.0 0.0 0.0 0.0 0.0 0.0
0.0 0.0 0.0 0.0 0.0 0.0 0.0 0.0
0.0 0.0 0.0 0.0 0.0 0.0 0.0 0.0
0.0 0.0 0.0 0.0 0.0 0.0 0.0 0.0
0.0 0.0 0.0 0.0 0.0 0.0 0.0 0.0
0.0 0.0 0.0 0.0 0.0 0.0 0.0 0.0
0.0 0.0 0.0 0.0 0.0 0.0 0.0 0.0
0.0 0.0 0.0 0.0 0.0 0.0 0.0 0.0
0.0 0.0 0.0 0.0 0.0 0.0 0.0 0.0
0.0 0.0 0.0 0.0 0.0 0.0 0.0 0.0
0.0 0.0 0.0 0.0 0.0 0.0 0.0 0.0
0.0 0.0 0.0 0.0 0.0 0.0 0.0 0.0
0.0 0.0 0.0 0.0 0.0 0.0 0.0 0.0
00000000: 0000 0000 0000 0000 0000 0000 0000 0000
00000010: 0000 0000 0000 0000 0000 0000 0000 0000
00000020: 0000 0000 0000 0000 0000 0000 0000 0000
00000030: 0000 0000 0000 0000 0000 0000 0000 0000
00000040: 0000 0000 0000 0000 0000 0000 0000 0000
00000050: 0000 0000 0000 0000 0000 0000 0000 0000
00000060: 0000 0000 0000 0000 0000 0000 0000 0000
00000070: 0000 0000 0000 0000 0000 0000 0000 0000
00000080: 0000 0000 0000 0000 0000 0000 0000 0000
00000090: 0000 0000 0000 0000 0000 0000 0000 0000
000000a0: 0000 0000 0000 0000 0000 0000 0000 0000
000000b0: 0000 0000 0000 0000 0000 0000 0000 0000
000000c0: 0000 0000 0000 0000 0000 0000 0000 0000
000000d0: 0000 0000 0000 0000 0000 0000 0000 0000
000000e0: 0000 0000 0000 0000 0000 0000 0000 0000
000000f0: 0000 0000 0000 0000 0000 0000 0000 0000
00000100: 0000 0000 0000 0000 0000 0000 0000 0000
00000110: 0000 0000 0000 0000 0000 0000 0000 0000
00000120: 0000 0000 0000 0000 0000 0000 0000 0000
00000130: 0000 0000 0000 0000 0000 0000 0000 0000
00000140: 0000 0000 0000 0000 0000 0000 0000 0000
00000150: 0000 0000 0000 0000 0000 0000 0000 0000
00000160: 0000 0000 0000 0000 0000 0000 0000 0000
00000170: 0000 0000 0000 0000 0000 0000 0000 0000
00000180: 0000 0000 0000 0000 0000 0000 0000 0000
00000190: 0000 0000 0000 0000 0000 0000 0000 0000
000001a0: 0000 0000 0000 0000 0000 0000 0000 0000
000001b0: 0000 0000 0000 0000 0000 0000 0000 0000
000001c0: 0000 0000 0000 0000 0000 0000 0000 0000
000001d0: 0000 0000 0000 0000 0000 0000 0000 0000
000001e0: 0000 0000 0000 0000 0000 0000 0000 0000
000001f0: 0000 0000 0000 0000 0000 0000 0000 0000
00000200: 0000 0000 0000 0000 0000 0000 0000 0000
00000210: 0000 0000 0000 0000 0000 0000 0000 0000
00000220: 0000 0000 0000 0000 0000 0000 0000 0000
00000230: 0000 0000 0000 0000 0000 0000 0000 0000
00000240: 0000 0000 0000 0000 0000 0000 0000 0000
00000250: 0000 0000 0000 0000 0000 0000 0000 0000
00000260: 0000 0000 0000 0000 0000 0000 0000 0000
00000270: 0000 0000 0000 0000 0000 0000 0000 0000
00000280: 0000 0000 0000 0000 0000 0000 0000 0000
00000290: 0000 0000 0000 0000 0000 0000 0000 0000
000002a0: 0000 0000 0000 0000 0000 0000 0000 0000
000002b0: 0000 0000 0000 0000 0000 0000 0000 0000
000002c0: 0000 0000 0000 0000 0000 0000 0000 0000
000002d0: 0000 0000 0000 0000 0000 0000 0000 0000
000002e0: 0000 0000 0000 0000 0000 0000 0000 0000
000002f0: 0000 0000 0000 0000 0000 0000 0000 0000
00000300: 0000 0000 0000 0000 0000 0000 0000 0000
00000310: 0000 0000 0000 0000 0000 0000 0000 0000
