myrobot/src/not_using/DDPG/save_DDPG_models/1006_1/DDPG_Critic_EP250.pt (torch, 288582 bytes, 32 tensors)

fc1_state.weight f4 [128, 4]
00000000: 28f2 f6bf 1d9a 81bf b5e8 f53e 4ba2 a63c
00000010: 2301 1fbf ebaa 203e 98ac 413f 4c06 08bf
00000020: b57e babf 68c8 b03f 34c6 e63e 0933 c5be
00000030: 6121 46be b6f0 0040 fd33 ecbf 0a11 6c3d
00000040: db56 07bf 1314 cabf 001a 64bf 93e1 56bb
00000050: b136 bdbe 21a0 153f 638f a0bf a9e9 a53f
00000060: 7d07 72bf d03d 093f 1181 bfbf f498 083f
00000070: 8a30 943f 7288 e8be 1d33 9fbf c126 413f
00000080: f3e1 efbe a9fa c4bf a344 2a3f aa49 1f3f
00000090: 6e16 713e e23e 88bf 93a5 d5bf b3f6 7d3e
000000a0: 7e92 f3bd 0355 e33e 9fb9 5fbf 0158 0abf
000000b0: d1de af3e 93a3 0f40 2bf9 bf3c 0a4a 973f
000000c0: 62eb 8abe 4eaa b0bf 25c7 b2be aeb1 d0be
000000d0: fa25 bc3f eb38 8c3f b52b 90be 29e7 583c
000000e0: 4ac2 2a3f 534d 143e 1982 f5be 8809 8fbf
000000f0: 9bf3 713e b535 f93f 2726 a0bd b16b 8b3f
00000100: 495d 113f c8a5 ab3e bdfe 953d 96ab 83be
00000110: acf1 a1be 380c d73e e718 1abf cec9 683d
00000120: 6eed 43bf 884b ac3f 6a27 a13d 5825 a3bd
00000130: c4ac aebf debe 6c3f 61ba 5cbd 3b90 8c3c
00000140: 2791 69bf 2e84 a93f 9295 87bf e019 ec3c
00000150: f2db 0a3f 965a 993f ce6c 973e 6de6 b4bf
00000160: 805f 35be 9985 803f 546c c2be 0cbe 403f
00000170: bcb8 8f3e 0016 1e40 958d 0b3f 7cfd 8fbb
00000180: b4a8 8e3f 9d81 c23e 68fa 05be 80cf 1cbe
00000190: 6e31 0140 113f a03f 91ff 32bf 0fbe 9e3c
000001a0: 7107 72be cdb9 ff3f d85f 15be f10e bdbf
000001b0: c61f 20be e98a f83f 90a6 8fbf e3d2 683d
000001c0: dabc 2e3f ddef 783f cd87 a2bf 1852 a13f
000001d0: e9da c53d 0db5 ad3e b0e7 6c3f 4eae 1fbe
000001e0: 3032 62be 2ad6 bc3e c4e9 1e3f 020e 0abf
000001f0: 0206 383f 4937 44bf b06f 633e 2481 86bf
00000200: 33b0 bfbe 0cca d7bf cc42 063f d44d 663f
00000210: 23e6 753f 3f04 463f c584 413d d27d 0fbe
00000220: f64c 843f 606a 8bbd ffbc 4dbf 290d 143f
00000230: 0a8e 9fbe 3a77 a63e a248 18bf 88c7 05bf
00000240: 7f01 3abe d4e7 a83f 97f7 af3e 7739 a2bb
00000250: c158 793e 0ebf 2ebf 78a1 0640 e87d 1dbe
00000260: 34ab 373e db40 f3bf 2b98 4a3e 8d8c 09bf
00000270: 52c6 1ec0 fac8 d83f b38a cfbe 24e3 e53d
00000280: cbe8 93bf 84fb ddbf f2a9 8b3c fab7 993f
00000290: 5472 5cbd cd6e f13e ae88 87be cf61 2abf
000002a0: 75b4 fc3f a66f 3bbf 87e8 383e 285b f63c
000002b0: 5f55 6bbc 634e 98bf ed7f e5be 993a 89bf
000002c0: 8efa 21bf f067 c03f 8d84 7b3f 7b22 31bc
000002d0: c7a6 5ebf b502 a1bf d72a 083f ae02 95bf
000002e0: fced 633f 1031 94bf 93f2 593f 3f95 09bf
000002f0: b7ed 1740 8511 873f 7f65 363e 6c8b 613e
00000300: 4d78 21bf 6314 9bbf 6ceb 2dbf 8a2f 733f
00000310: a745 003f b40a 7fbf c01a 9e3f 4bdc 8d3f
00000320: 73b1 bbbf 0c92 673f 4f10 513f c7f3 49bf
00000330: 8ce3 82bf 421a 3bbf 195a 8a3e db0d 6abe
00000340: 7369 8fbf 38ac b2bf dc75 c13e 410b b43c
00000350: df0d 50bf f2ae 6cbc 286a b23d e5af 22be
00000360: 61b7 9dbf 57a0 3dbe 5bf0 0ebf ecef 0dbf
00000370: 050d eabf 5edd 363e 8912 7ebe 2b89 41bf
00000380: b852 ef3e 390f 263f d890 1abf df8a 5e3e
00000390: a734 f4be 55df 79bf afba f53e 5331 3fbe
000003a0: 7fcf 02bd a071 193f 64a6 66bf 9a17 c9be
000003b0: 44b2 573f 7a7e cebf 45d2 683f 3953 833e
000003c0: a6a6 b33f 86b0 ffbf 8e26 94be 328b a73e
000003d0: 8d74 703f 6320 a1be 720b 973e a849 c13e
000003e0: 2f30 bc3c db3b e33a 0ed8 eb3e 4e37 b6be
000003f0: 9146 c2bf 93d6 95bf bfca ddbf 4a55 e53e
-1.929265 -1.0125157 0.48029104 0.02034106 -0.6211111 0.156902 0.7565398 -0.5313461
-1.4569918 1.3811159 0.45073092 -0.385155 -0.1934867 2.0146918 -1.8453366 0.057633437
-0.52866906 -1.5787376 -0.8910217 -0.0032788261 -0.3695579 0.5844746 -1.2543758 1.2961932
-0.94542676 0.53609943 -1.4961263 0.5335839 1.1577313 -0.454166 -1.2437474 0.7544976
-0.46852073 -1.5388995 0.6651098 0.6222178 0.23543712 -1.064419 -1.6691154 0.2480114
-0.118931755 0.44400796 -0.8739261 -0.54040533 0.34349683 2.2443588 0.023434242 1.181947
-0.27132708 -1.3801973 -0.3491756 -0.4076056 1.469909 1.095487 -0.28158346 0.013238707
0.6670271 0.14482622 -0.4795082 -1.1174784 0.23628084 1.9469515 -0.07819777 1.089224
0.56782967 0.3352492 0.07323978 -0.25716847 -0.31629694 0.4200151 -0.6019425 0.05683308
-0.76534164 1.346055 0.07868846 -0.07966107 -1.3646474 0.9247874 -0.053888682 0.017158618
-0.9123711 1.3243463 -1.059252 0.028820932 0.5424186 1.198077 0.295752 -1.413282
-0.17712212 1.0040771 -0.37973273 0.7528999 0.2807063 2.4700928 0.5451291 -0.0043942314
1.1145234 0.37989512 -0.13083804 -0.1531353 2.018642 1.2519246 -0.69921213 0.019377736
-0.23635651 1.9978577 -0.14587343 -1.4770185 -0.1563712 1.9417392 -1.1222706 0.056841742
0.68256915 0.97241 -1.2697693 1.2603178 0.096608944 0.33927193 0.9254103 -0.15593836
-0.22089458 0.36882144 0.6207545 -0.53927624 0.7188417 -0.7664686 0.22210574 -1.050816
-0.37439117 -1.6858535 0.52445674 0.89962506 0.96054286 0.7735023 0.04724576 -0.1401284
1.0335987 -0.06807399 -0.8036651 0.5783258 -0.31163055 0.32512838 -0.5948583 -0.52257586
-0.18164633 1.3195748 0.34368584 -0.004950698 0.24350263 -0.68260276 2.1036053 -0.1538006
0.17936403 -1.9004167 0.1978461 -0.5373009 -2.4808545 1.6936333 -0.40535507 0.11224964
-1.1555418 -1.7342381 0.01704881 1.200927 -0.05381997 0.47154847 -0.26471466 -0.66555494
1.9742571 -0.73217237 0.18057452 0.030072764 -0.014363616 -1.1898922 -0.44824162 -1.0721008
-0.6327294 1.5031719 0.9824913 -0.010811443 -0.8697323 -1.2578951 0.5319037 -1.1641443
0.8903501 -1.1577473 0.85135764 -0.53743356 2.373884 1.0552222 0.17812155 0.22025841
-0.6307419 -1.2115597 -0.6793735 0.94994414 0.5010628 -0.99625707 1.2351913 1.1082853
-1.4663528 0.90457225 0.8166551 -0.788876 -1.0225692 -0.7308694 0.27021864 -0.22856848
-1.1204056 -1.3958807 0.37785232 0.021978023 -0.81271166 -0.014446007 0.08711654 -0.15887411
-1.2321588 -0.18518196 -0.55835503 -0.55444217 -1.8285223 0.17857882 -0.24811758 -0.75599927
0.46742797 0.6486698 -0.60377264 0.21732663 -0.4769642 -0.976064 0.4799399 -0.1867116
-0.031936165 0.59939003 -0.9009764 -0.3927582 0.84256387 -1.6132348 0.90945846 0.2564943
1.4035232 -1.9975746 -0.28935665 0.32723385 0.9392784 -0.31470022 0.2950092 0.37751508
0.022972194 0.0017336564 0.46063274 -0.3558907 -1.5177785 -1.1706108 -1.7327498 0.44791633

fc1_state.bias f4 [128]
00000000: 1143 313f 3a2b be3e a2bc 49bd 1d12 3c3f
00000010: a2b7 573d 9519 84bd b558 8bbf dbd6 aabe
00000020: bfcb d63e 2d59 e7bd 9b3c 1cbd 006b 64bf
00000030: 4812 173f d061 45be 001f 9e3e 3a97 e7bd
00000040: b5a3 72bd 4c94 88be d320 1e3e addb f6be
00000050: 7911 f63e a1ed bebe e256 fdbe c446 b33d
00000060: a374 373e 1ea5 333f fa76 07be 5934 56be
00000070: c3c5 23bf 41bf 3a3e db02 bebe 4eab 143f
00000080: 54c5 9b3e 27c7 03be d98c 44bf 503e 583f
00000090: 5461 813e a252 133f 5ced a73e 0c99 a1bd
000000a0: f737 8a3e 3ce7 d83e eb3e ef3d d9ff fa3e
000000b0: 5b03 ff3e dec5 503e e20f e93e e971 10bf
000000c0: cf7b 153f fbb8 5b3e 89f3 b8be 64bf 4ebc
000000d0: a42c 09be 0ddd 6a3e 316f 20bf d10f d63e
000000e0: e238 6ebe 60b1 863d 488f 593f efde 90be
000000f0: b846 07bf 8e1b 2b3f 9b67 e9be fea1 0cbf
00000100: a224 ddbe b453 583e 92f3 4b3f 8c93 423e
00000110: d30f 7c3e 17aa b2be e0bc 8dbe 6c95 b5bd
00000120: e965 063f 540b 483d 5bed 90be d8ff 86bb
00000130: 6939 0ebf 16bf 30bf 3fb4 983d 3b35 74be
00000140: 966f 073d 9c41 803e 6e71 f93e 8f81 a63e
00000150: 9aeb 033f c300 03bf bf11 bcbe 48ef c83e
00000160: 11f6 8b3f 2495 dc3e 56b2 ffbe 885e 34bf
00000170: bc16 0d3f dc60 19bf 52a9 fb3e d589 56bf
00000180: 577d 39bf c8b4 9cbe 4465 103f 8ab6 3e3d
00000190: 11c2 133f 5c95 45bd fb8e f03e bffd 653c
000001a0: 7649 8f3e 4473 cfbe 67ce 6c3f ea4b 903e
000001b0: ceb8 3bbf cdc9 143f 60b3 b23e c9f1 4ebe
000001c0: c887 113e dd7c b33d 7a4c f43e 27ad 6bbf
000001d0: eb96 6dbf a82d 163e 4900 c53e adb7 963d
000001e0: 903d d43e f51c 0c3f f826 2cbf 886e 58be
000001f0: 41b9 27be 48bb 273b b814 fe3e 43b3 d93e
0.6924296 0.37142354 -0.04925216 0.7346514 0.05266536 -0.06450192 -1.0886446 -0.33367047
0.4195232 -0.11296306 -0.038143735 -0.8922577 0.5901227 -0.19275594 0.30883026 -0.11308141
-0.059238154 -0.26675642 0.15442209 -0.48214474 0.48060206 -0.3729067 -0.4948035 0.08753732
0.17915587 0.70173824 -0.1322898 -0.20918407 -0.63973635 0.1823702 -0.37111554 0.5807389
0.30423987 -0.1286894 -0.76777416 0.8447008 0.25269568 0.5754796 0.32798278 -0.078905195
0.26995823 0.42363918 0.116819225 0.4902332 0.49807248 0.2038798 0.4551993 -0.56423813
0.5839204 0.21457283 -0.36123303 -0.012618873 -0.13395935 0.22935887 -0.62669665 0.41808942
-0.23263887 0.065768 0.84984255 -0.28295085 -0.52842283 0.6683892 -0.45586857 -0.5493468
-0.4319201 0.2112568 0.79668534 0.19001597 0.24615411 -0.34895393 -0.27683163 -0.088663906
0.5249925 0.04883893 -0.28306088 -0.0041198544 -0.5555635 -0.69041574 0.07456254 -0.23848431
0.0330654 0.25050056 0.48719352 0.3252072 0.51531374 -0.5117304 -0.3673229 0.39245057
1.0934469 0.43082535 -0.49940747 -0.70456743 0.55112815 -0.5991342 0.4915262 -0.83804065
-0.7245688 -0.30606675 0.5640452 0.0465608 0.57717997 -0.048238143 0.46984085 0.014037549
0.27985734 -0.40517628 0.92502445 0.28182918 -0.73328865 0.58120424 0.34902477 -0.20209421
0.14211953 0.0876405 0.47714597 -0.92061085 -0.9280841 0.14665854 0.3847678 0.07359252
0.41453218 0.54731685 -0.6724696 -0.21135914 -0.16379263 0.0025593806 0.49625182 0.42519578

bn1_state.weight f4 [128]
00000000: 959d f93f c8f5 563f 61d9 833f 49a4 a53f
00000010: 1804 9f3f 7766 2e3f 4416 3c3f 37dd 503f
00000020: 4d09 6f3f d7db 253f 3268 833f 9dc3 723f
00000030: f564 563f 266b d93f 6e7a 693f bdbc 493f
00000040: 3fe7 673f a9ce 2e3f 9cdb a13f f0f8 fa3f
00000050: f44a f23f 00bd 783f 7f81 683f 4b32 ed3f
00000060: d430 a43f 5244 a03f 9425 9f3f 8050 9f3f
00000070: d20d 383f 8ba4 4e3f 1f90 653f 7977 833f
00000080: 7080 5e3f 9629 8d3f cf0e 573f fd8b 803f
00000090: 07d6 a53f ae01 873f 0544 ad3f 5614 8d3f
000000a0: 8ee9 723f 2bf8 5f3f b6bd e43f dcb0 483f
000000b0: 9e59 be3f b9d3 823f a467 7f3f 17f7 5d3f
000000c0: f70b 3d3f 86f9 703f 1c93 703f 15e5 9a3f
000000d0: c6a8 ac3f 416c 893f 4e48 613f 15d0 823f
000000e0: 04fc 5b3f 1847 843f e171 863f 1acd 7f3f
000000f0: 4380 703f 2f47 653f 235e 5f3f 71c5 6d3f
00000100: 5ea3 703f dcaf 5b3f de33 6b3f 5902 6f3f
00000110: ba41 4e3f 93aa b83f a24c 6d3f 4a0d 643f
00000120: 8210 553f 3f58 813f 88c6 863f 6a0c 5f3f
00000130: 822d 603f 9a78 5d3f 4abf b23f 8c55 6f3f
00000140: 442a 8c3f f11b 993f 685b 8c3f 3bc0 b83f
00000150: 6300 cb3f 0d60 8d3f a78c 8f3f 704e 893f
00000160: 803b 7a3f 7116 593f 4fd5 663f b079 4a3f
00000170: a798 883f fafc 2d3f 8f66 c83f dac5 ad3f
00000180: 4c3c 603f 74ea 733f 8496 6f3f cfc4 673f
00000190: e817 923f d630 1540 2fce b03f 3d8e 9f3f
000001a0: 2849 1e3f b780 a83f e108 7a3f d161 963f
000001b0: 96e4 5d3f f402 aa3f 8f8b 8d3f 106d 783f
000001c0: 1ce1 673f f74a 8e3f 821f 353f 58f4 af3f
000001d0: 860a 723f 7e3c b53f ce14 463f cb1e 613f
000001e0: 7e17 913f 7d44 e83f d69f 573f 9d06 643f
000001f0: 732d 803f e9ec 823f f601 443f 9bdc a63f
1.9501215 0.8396878 1.0300714 1.2940761 1.2423124 0.681251 0.73471475 0.8158755
0.93373567 0.64788574 1.0266173 0.9482973 0.837478 1.6985824 0.9120244 0.78803617
0.9058723 0.6828409 1.2645144 1.960722 1.8929124 0.9716339 0.90822595 1.8530973
1.2827401 1.252085 1.2433343 1.2446442 0.7189609 0.8071982 0.89673036 1.0270835
0.8691473 1.1028316 0.8400697 1.0042721 1.2955941 1.0547388 1.3536383 1.1021831
0.94887626 0.8748805 1.7870395 0.78394866 1.4871099 1.0220863 0.9976752 0.86705154
0.7384638 0.9413074 0.9397447 1.210116 1.3489006 1.0736161 0.88000953 1.0219752
0.8593142 1.0334196 1.0503503 0.99922335 0.9394571 0.8956174 0.87253016 0.92879397
0.9399928 0.85815215 0.9187602 0.9336296 0.8056904 1.4427055 0.9269506 0.8908278
0.83228314 1.0105056 1.0529337 0.8712832 0.8756944 0.8651215 1.3964627 0.9348991
1.0950398 1.1961652 1.0965395 1.4433664 1.5859493 1.1044937 1.1214799 1.0727062
0.9774704 0.8479987 0.90169233 0.7909193 1.0671586 0.67964137 1.5656298 1.3576005
0.87592006 0.9527962 0.93589044 0.9053468 1.1413546 2.3311057 1.3812922 1.2465283
0.6183038 1.3164281 0.976698 1.1748601 0.8667692 1.3282151 1.1058215 0.97041416
0.90577865 1.1116627 0.707512 1.3746443 0.9454731 1.4159086 0.77375495 0.8793761
1.1335294 1.8145901 0.84228265 0.8907259 1.001387 1.0228549 0.7656549 1.3036073

bn1_state.bias f4 [128]
00000000: ad48 9f3e ea20 a93c 6581 99bd 2742 973e
00000010: 6201 df3e cdae 583e dbf3 32bf 2e8c 83be
00000020: e0ba 893e 3fd4 173e 1154 fe3d e0a0 08bf
00000030: 9e38 253f 0b9f fdbc dfb6 c7bd f456 e1be
00000040: 21a6 85be 92cc b1be 5051 d83d 9c4b 2fbe
00000050: 950a a43e 5b3d 05be 6dbf fabe b347 9abe
00000060: 2b2d 163e 1034 5d3e ba26 6dbd 17ec 7cbe
00000070: 3a39 02bf c248 8d3d 75ce d5bd dfdb 0d3e
00000080: a043 74bd 084e 5dbd 4951 14bf 2a12 b63e
00000090: 9a55 7d39 6e6c 1d3e 2eb9 f8bd ce66 74be
000000a0: b65b 933e 8b75 793e 880f a2be e5bb 293e
000000b0: 8d49 ef3c 7bb4 1f3d 4db0 5bbb c68e b4be
000000c0: ebc3 843e c091 a53e b2c2 643d e19b 033d
000000d0: 5f4a 73bd 8d08 00be 666a 54be bba1 88b9
000000e0: 5e69 efbe 1e0e 8c3d 498b d83e 7725 533e
000000f0: 384f 71be da06 673e 62fc 7dbc 1277 aabd
00000100: 322e d9be 797f 0f3f d8d6 063f 0033 b03e
00000110: ca56 c43c 57be c0be be1f efbe fd0c 473e
00000120: db6d cf3d ab54 acbe fde5 f2bd d828 cfbe
00000130: 6d71 e1bd 0e84 27bf a550 073b 3f8e 9bbc
00000140: d5d5 033c 3738 583d 51eb 383e 1679 5a3d
00000150: 302a 1e3f b4f1 08bf a09b e43b 49c2 e33d
00000160: 0f24 183f 1b13 c13e 463b ddbd a100 b2be
00000170: e0fb 9f3e 2d4f 2abf 0109 3e3d d04d fabe
00000180: da69 1dbf efb7 b4be 93b8 663e 1e1e 1dbd
00000190: defd 103e 42a7 91bd daa0 c13e f575 953d
000001a0: 6f52 bebd 3a59 a9be 6a9b 023f b2a7 b73d
000001b0: b598 e9be 9c16 ba3e 2d24 a5bc 2efa 98be
000001c0: d085 bc3d 39b1 24be c3a4 833e 2b80 18bf
000001d0: b9b2 00bf 3920 e3bd 28c7 cebc 25a2 51be
000001e0: d200 bf3d 312a 293e 4700 f6be a69e b7bd
000001f0: 50ab 0f3e 0ac1 673d 6efc a03e faac f63c
0.31110135 0.020645577 -0.07495383 0.29542658 0.43555743 0.21160431 -0.69903344 -0.25692886
0.26900387 0.14827059 0.12418378 -0.53370476 0.64539516 -0.030959627 -0.09751677 -0.44011652
-0.2610331 -0.34726387 0.10562384 -0.17118686 0.32039323 -0.13011687 -0.4897417 -0.30132827
0.14665668 0.21601892 -0.05789826 -0.24699436 -0.5086857 0.06898643 -0.10439769 0.13853405
-0.059634805 -0.054029495 -0.5793653 0.35560733 0.00024159849 0.15373394 -0.12144695 -0.23867342
0.28780907 0.24361245 -0.31652474 0.16575582 0.029209876 0.03899048 -0.0033521832 -0.35265177
0.25930724 0.3233776 0.05584974 0.03213108 -0.059397098 -0.12503262 -0.20743713 -0.0002606044
-0.46760076 0.0683863 0.42293766 0.2061976 -0.23565376 0.22561207 -0.015502067 -0.08323492
-0.42418057 0.5605388 0.52671576 0.3441391 0.023967165 -0.37645218 -0.46703905 0.19438548
0.10128375 -0.33658347 -0.11860273 -0.4046085 -0.110079624 -0.65435874 0.0020647433 -0.018988727
0.008046587 0.052787986 0.18058516 0.053338133 0.61783123 -0.5349381 0.0069765598 0.11121041
0.5943002 0.3770989 -0.10802321 -0.34766105 0.31246853 -0.6652706 0.046395306 -0.4888749
-0.6148964 -0.3529658 0.22531347 -0.0383588 0.14159343 -0.0711198 0.37818033 0.07297889
-0.09293067 -0.33075887 0.51018393 0.08967532 -0.4562432 0.36345375 -0.020158852 -0.29878372
0.0920521 -0.1608323 0.2571164 -0.5957057 -0.5027271 -0.1109013 -0.02524145 -0.2047201
0.09326328 0.16520001 -0.48047087 -0.08965807 0.14030194 0.05658058 0.3144259 0.030111779

bn1_state.running_mean f4 [128]
00000000: 0000 0000 0000 0000 0000 0000 0000 0000
00000010: 0000 0000 0000 0000 0000 0000 0000 0000
00000020: 0000 0000 0000 0000 0000 0000 0000 0000
00000030: 0000 0000 0000 0000 0000 0000 0000 0000
00000040: 0000 0000 0000 0000 0000 0000 0000 0000
00000050: 0000 0000 0000 0000 0000 0000 0000 0000
00000060: 0000 0000 0000 0000 0000 0000 0000 0000
00000070: 0000 0000 0000 0000 0000 0000 0000 0000
00000080: 0000 0000 0000 0000 0000 0000 0000 0000
00000090: 0000 0000 0000 0000 0000 0000 0000 0000
000000a0: 0000 0000 0000 0000 0000 0000 0000 0000
000000b0: 0000 0000 0000 0000 0000 0000 0000 0000
000000c0: 0000 0000 0000 0000 0000 0000 0000 0000
000000d0: 0000 0000 0000 0000 0000 0000 0000 0000
000000e0: 0000 0000 0000 0000 0000 0000 0000 0000
000000f0: 0000 0000 0000 0000 0000 0000 0000 0000
00000100: 0000 0000 0000 0000 0000 0000 0000 0000
00000110: 0000 0000 0000 0000 0000 0000 0000 0000
00000120: 0000 0000 0000 0000 0000 0000 0000 0000
00000130: 0000 0000 0000 0000 0000 0000 0000 0000
00000140: 0000 0000 0000 0000 0000 0000 0000 0000
00000150: 0000 0000 0000 0000 0000 0000 0000 0000
00000160: 0000 0000 0000 0000 0000 0000 0000 0000
00000170: 0000 0000 0000 0000 0000 0000 0000 0000
00000180: 0000 0000 0000 0000 0000 0000 0000 0000
00000190: 0000 0000 0000 0000 0000 0000 0000 0000
000001a0: 0000 0000 0000 0000 0000 0000 0000 0000
000001b0: 0000 0000 0000 0000 0000 0000 0000 0000
000001c0: 0000 0000 0000 0000 0000 0000 0000 0000
000001d0: 0000 0000 0000 0000 0000 0000 0000 0000
000001e0: 0000 0000 0000 0000 0000 0000 0000 0000
000001f0: 0000 0000 0000 0000 0000 0000 0000 0000
0.0 0.0 0.0 0.0 0.0 0.0 0.0 0.0
0.0 0.0 0.0 0.0 0.0 0.0 0.0 0.0
0.0 0.0 0.0 0.0 0.0 0.0 0.0 0.0
0.0 0.0 0.0 0.0 0.0 0.0 0.0 0.0
0.0 0.0 0.0 0.0 0.0 0.0 0.0 0.0
0.0 0.0 0.0 0.0 0.0 0.0 0.0 0.0
0.0 0.0 0.0 0.0 0.0 0.0 0.0 0.0
0.0 0.0 0.0 0.0 0.0 0.0 0.0 0.0
0.0 0.0 0.0 0.0 0.0 0.0 0.0 0.0
0.0 0.0 0.0 0.0 0.0 0.0 0.0 0.0
0.0 0.0 0.0 0.0 0.0 0.0 0.0 0.0
0.0 0.0 0.0 0.0 0.0 0.0 0.0 0.0
0.0 0.0 0.0 0.0 0.0 0.0 0.0 0.0
0.0 0.0 0.0 0.0 0.0 0.0 0.0 0.0
0.0 0.0 0.0 0.0 0.0 0.0 0.0 0.0
0.0 0.0 0.0 0.0 0.0 0.0 0.0 0.0

bn1_state.running_var f4 [128]
00000000: 0000 803f 0000 803f 0000 803f 0000 803f
00000010: 0000 803f 0000 803f 0000 803f 0000 803f
00000020: 0000 803f 0000 803f 0000 803f 0000 803f
00000030: 0000 803f 0000 803f 0000 803f 0000 803f
00000040: 0000 803f 0000 803f 0000 803f 0000 803f
00000050: 0000 803f 0000 803f 0000 803f 0000 803f
00000060: 0000 803f 0000 803f 0000 803f 0000 803f
00000070: 0000 803f 0000 803f 0000 803f 0000 803f
00000080: 0000 803f 0000 803f 0000 803f 0000 803f
00000090: 0000 803f 0000 803f 0000 803f 0000 803f
000000a0: 0000 803f 0000 803f 0000 803f 0000 803f
000000b0: 0000 803f 0000 803f 0000 803f 0000 803f
000000c0: 0000 803f 0000 803f 0000 803f 0000 803f
000000d0: 0000 803f 0000 803f 0000 803f 0000 803f
000000e0: 0000 803f 0000 803f 0000 803f 0000 803f
000000f0: 0000 803f 0000 803f 0000 803f 0000 803f
00000100: 0000 803f 0000 803f 0000 803f 0000 803f
00000110: 0000 803f 0000 803f 0000 803f 0000 803f
00000120: 0000 803f 0000 803f 0000 803f 0000 803f
00000130: 0000 803f 0000 803f 0000 803f 0000 803f
00000140: 0000 803f 0000 803f 0000 803f 0000 803f
00000150: 0000 803f 0000 803f 0000 803f 0000 803f
00000160: 0000 803f 0000 803f 0000 803f 0000 803f
00000170: 0000 803f 0000 803f 0000 803f 0000 803f
00000180: 0000 803f 0000 803f 0000 803f 0000 803f
00000190: 0000 803f 0000 803f 0000 803f 0000 803f
000001a0: 0000 803f 0000 803f 0000 803f 0000 803f
000001b0: 0000 803f 0000 803f 0000 803f 0000 803f
000001c0: 0000 803f 0000 803f 0000 803f 0000 803f
000001d0: 0000 803f 0000 803f 0000 803f 0000 803f
000001e0: 0000 803f 0000 803f 0000 803f 0000 803f
000001f0: 0000 803f 0000 803f 0000 803f 0000 803f
1.0 1.0 1.0 1.0 1.0 1.0 1.0 1.0
1.0 1.0 1.0 1.0 1.0 1.0 1.0 1.0
1.0 1.0 1.0 1.0 1.0 1.0 1.0 1.0
1.0 1.0 1.0 1.0 1.0 1.0 1.0 1.0
1.0 1.0 1.0 1.0 1.0 1.0 1.0 1.0
1.0 1.0 1.0 1.0 1.0 1.0 1.0 1.0
1.0 1.0 1.0 1.0 1.0 1.0 1.0 1.0
1.0 1.0 1.0 1.0 1.0 1.0 1.0 1.0
1.0 1.0 1.0 1.0 1.0 1.0 1.0 1.0
1.0 1.0 1.0 1.0 1.0 1.0 1.0 1.0
1.0 1.0 1.0 1.0 1.0 1.0 1.0 1.0
1.0 1.0 1.0 1.0 1.0 1.0 1.0 1.0
1.0 1.0 1.0 1.0 1.0 1.0 1.0 1.0
1.0 1.0 1.0 1.0 1.0 1.0 1.0 1.0
1.0 1.0 1.0 1.0 1.0 1.0 1.0 1.0
1.0 1.0 1.0 1.0 1.0 1.0 1.0 1.0

fc1_action.weight f4 [32, 2]
00000000: 329e 1c3f 6d70 3a40 0fbf 023f 3c66 72bf
00000010: dfb5 8abf 7cfb d33f 85c1 113f 3989 14c0
00000020: 5907 a6bf edee babe bdc7 0fc0 d818 c23f
00000030: c758 b33f 2729 723e a450 1cbf 0b2c f9bd
00000040: bc56 383f f0ec e8be 4d79 6ebf 35f9 8ebe
00000050: bdc7 a83e 7fd3 873f 1b11 93bd 4d4e f83f
00000060: ba21 82bf 767c c73e f221 aabf 3dfa 1c3f
00000070: 289c f5bf 40bd 26c0 547d 863f eab5 1cbe
00000080: a542 863f 456a 853e dfdc 6b3f d001 ac3f
00000090: c16c 49bf 5d5b 173c df93 423e 544c eb3f
000000a0: 5c0b 2b3f fc1a d23e 1ae9 6e3d 185e bdbe
000000b0: 26b3 b2bd a7b3 3040 29ff 3140 3263 86bf
000000c0: cb61 f4be 4af7 0dbf 1364 17be ca2d 2cbf
000000d0: 3e6a f2be 1ade 31bf 4f36 0140 1186 c73e
000000e0: dd9f 893f 54fa 0a40 a1d0 3abf 8ef5 35bc
000000f0: 83e5 7d3f 17d2 7b3f 104d 893f c425 013f
0.61178887 2.913112 0.5107278 -0.9468725 -1.0836753 1.6561122 0.5693591 -2.3208754
-1.2970992 -0.3651041 -2.246566 1.5163832 1.4011468 0.23648511 -0.6106055 -0.12166604
0.72007346 -0.4549327 -0.9315384 -0.27924505 0.32964888 1.0611418 -0.07180997 1.9398896
-1.0166543 0.38962144 -1.3291609 0.61319333 -1.918828 -2.605301 1.0506997 -0.1530377
1.0489088 0.2605764 0.921339 1.3438053 -0.7868157 0.009238091 0.19001721 1.8382668
0.6681421 0.41036212 0.05832777 -0.3698585 -0.08725576 2.760965 2.7811987 -1.0499022
-0.4773086 -0.5545546 -0.14784269 -0.6725737 -0.4734668 -0.69479525 2.0189397 0.38969472
1.0751911 2.1715288 -0.7297459 -0.011105908 0.9917833 0.98367447 1.0726643 0.5044825

fc1_action.bias f4 [32]
00000000: dbf8 02bf f5a2 9abf 3820 5a3f 33b4 0f3e
00000010: aa60 153f f510 203e 6c7d b13f 9331 723f
00000020: 1714 dfbe 0ed3 30bf 17f0 363f 9cde 27be
00000030: da4c 33bf 37f7 aabe 9dc1 e8be f13b cf3e
00000040: cb07 b63f 372b 903f bf81 9c3f 5591 893f
00000050: ae8a 873f a751 8e3f b230 6bbe 31dd dbbe
00000060: b975 8f3f 9fe8 9f3f 9fca b03f 6aad 913f
00000070: 2d03 b93d eb3b 2f3f cc49 923e dce5 7f3f
-0.51160973 -1.208098 0.8520541 0.14033584 0.5835062 0.15631469 1.3866401 0.94606894
-0.43570015 -0.69072044 0.714601 -0.16393512 -0.7003914 -0.33391735 -0.45460215 0.4047542
1.4221128 1.1263188 1.2227095 1.0747477 1.0589197 1.1118668 -0.22967795 -0.42942193
1.1207801 1.2492865 1.3811835 1.1381047 0.09033809 0.684508 0.28571928 0.9996011

bn1_action.weight f4 [32]
00000000: b074 f03f 67a7 ce3f f594 ad3f 4b6c 0240
00000010: 1c43 b43f c04d e93f 7a74 aa3f 6c87 c73f
00000020: ead4 e63f c1ad e43f 2f36 a93f f732 1540
00000030: 0e71 cc3f a29b f03f aadc 1640 5871 c03f
00000040: 41b7 bc3f bd5d af3f e464 cf3f 7e6e b93f
00000050: 1ff4 b43f b418 db3f 9453 2b40 95b1 c53f
00000060: 38b4 e03f 5c56 e93f 8170 e33f 8b17 ab3f
00000070: b095 e03f 2b19 ab3f e45b b43f 41bc bb3f
1.878561 1.6144837 1.3561083 2.0378597 1.408298 1.8226852 1.3316796 1.5588202
1.8033726 1.7865525 1.321966 2.3312356 1.5972002 1.8797495 2.3572183 1.503459
1.4743425 1.3700482 1.6202664 1.4486845 1.4137 1.7116914 2.6769762 1.5444819
1.7554998 1.822948 1.7768708 1.336656 1.7545681 1.3367056 1.4090543 1.4666826

bn1_action.bias f4 [32]
00000000: a825 423e 0248 2dbf 0b43 5e3f c491 8c3e
00000010: c996 1b3f faa8 fa3d 3b27 613f c641 3b3f
00000020: 5ef2 c5bd 71dc a7bc 6d50 363f 66ad 043e
00000030: b4b8 07be 57bd f1bd 7670 24be ca2a ab3e
00000040: a9c4 573f c052 473f 9591 443f e296 2d3f
00000050: 40dd 443f cb7e 2e3f e70b ca3e 3df7 573c
00000060: 97bf 3e3f cdc9 323f b884 313f 21ab 403f
00000070: adeb b43e 41e0 3d3f 1a8a ce3e 662e 4f3f
0.18959677 -0.67688 0.8682105 0.2745496 0.60776955 0.12239261 0.87950486 0.7314724
-0.096653685 -0.020490857 0.7121647 0.12956771 -0.13254052 -0.11803692 -0.16058525 0.33431083
0.84284455 0.7786064 0.7678464 0.67808354 0.769001 0.6816222 0.39462206 0.013181505
0.7451109 0.69839174 0.6934314 0.7526112 0.35336056 0.7417031 0.40339738 0.80930173

bn1_action.running_mean f4 [32]
00000000: 0000 0000 0000 0000 0000 0000 0000 0000
00000010: 0000 0000 0000 0000 0000 0000 0000 0000
00000020: 0000 0000 0000 0000 0000 0000 0000 0000
00000030: 0000 0000 0000 0000 0000 0000 0000 0000
00000040: 0000 0000 0000 0000 0000 0000 0000 0000
00000050: 0000 0000 0000 0000 0000 0000 0000 0000
00000060: 0000 0000 0000 0000 0000 0000 0000 0000
00000070: 0000 0000 0000 0000 0000 0000 0000 0000
0.0 0.0 0.0 0.0 0.0 0.0 0.0 0.0
0.0 0.0 0.0 0.0 0.0 0.0 0.0 0.0
0.0 0.0 0.0 0.0 0.0 0.0 0.0 0.0
0.0 0.0 0.0 0.0 0.0 0.0 0.0 0.0

bn1_action.running_var f4 [32]
00000000: 0000 803f 0000 803f 0000 803f 0000 803f
00000010: 0000 803f 0000 803f 0000 803f 0000 803f
00000020: 0000 803f 0000 803f 0000 803f 0000 803f
00000030: 0000 803f 0000 803f 0000 803f 0000 803f
00000040: 0000 803f 0000 803f 0000 803f 0000 803f
00000050: 0000 803f 0000 803f 0000 803f 0000 803f
00000060: 0000 803f 0000 803f 0000 803f 0000 803f
00000070: 0000 803f 0000 803f 0000 803f 0000 803f
1.0 1.0 1.0 1.0 1.0 1.0 1.0 1.0
1.0 1.0 1.0 1.0 1.0 1.0 1.0 1.0
1.0 1.0 1.0 1.0 1.0 1.0 1.0 1.0
1.0 1.0 1.0 1.0 1.0 1.0 1.0 1.0

fc2.weight f4 [200, 160]
00000000: 5b0b 81be e6ef 4dbe 81ab 2fbe 20d2 373e
00000010: 85c8 84bd 42c5 4d3e 0838 d33d 7e8e 0cbe
00000020: 56cf 08be 8349 c7bd 8ea5 d5ba b465 7ebd
00000030: 25e1 3cbc 5596 bc3e fe19 c53d 3942 fb3d
00000040: 2128 67bd 927c 28be 3f5f 4e3d f466 993c
00000050: 0c54 4d3e 4356 24bb 7abb 44be 574f c73e
00000060: 3cad 383e 55ee 6b3e 93a6 413e 70b9 a53e
00000070: 0aca 583c 87b7 5bbe f749 10be 4318 46be
00000080: 732e 1fbc 5088 0d3e 5f33 12bd 5490 5c3e
00000090: 6ee2 a63e fbd0 9ebc e6f5 15be 4431 cabd
000000a0: 6992 eebd 0342 e23d 5263 093e c778 983c
000000b0: 9def 093e dc09 c3bd b076 54be c6c7 5e3e
000000c0: cfa4 dcbd e106 f4bd 9ff9 64be ce0b 80be
000000d0: 7c26 a3be 0b9b ccbe 782d 8c3d 4185 353d
000000e0: d658 cabc c319 9abe ec4b f93d 8117 e1bd
000000f0: bf3a 20be 1b72 3a3d e0cb aebd 264e 843b
00000100: 3170 b0bd 6daf 1a3e 6049 77bd 9eab 833d
00000110: bce4 813d 62cd 6b3e 176e d93c 630b 40be
00000120: c83a 83bb bbdc 633e bc8e 753e 37a3 de3c
00000130: 2b5f c2be 0e31 60bd 45f9 adbe fdce e7bd
00000140: 6892 fcbd 19e7 a8be 8af8 3ebe 6959 3c3d
00000150: bee6 38bf 5ce4 1ebd 1e48 a4be 5a5d 3c3b
00000160: e0ef 153e ce49 6cbd 2fd7 48be 0b81 7e3e
00000170: 4c19 ab3d 5abc 0dbe 0da7 453e 50d5 cc3e
00000180: 9dce 5e3d 1f88 1d3d 3845 1a3e 648b 86bd
00000190: 9d7a 063e 73e4 073f df00 0fbe 3d00 4e3e
000001a0: e846 393e 7bd0 b73e b42d 45be 0867 263e
000001b0: 4c89 bbbb c82d 883b f546 0d3d b8d4 993d
000001c0: 5fea fabc 1f19 143e 43b2 98bd f8fd 35bd
000001d0: 3fd5 4abd 5e9d 04be b0af 86be dd1f af3d
000001e0: 085f 73be 61b2 c2bd 0dd7 21be dc8b 0b3d
000001f0: 8a01 033b 94ee 53bd 521e 033d c157 bc3e
00000200: 682b 88be 24fc 333e 799c 2f3e 8cab f3bd
00000210: 1577 e63e 252c 923e 4ae7 c7be 9136 dabd
00000220: d537 813e 2623 523e b09a 3abe d8ad 8abd
00000230: 56b9 08be d279 1f3e 0607 cd3e d20b 1cbf
00000240: 5726 21be 0263 cdbe 07be 313c ef66 6cbe
00000250: 2950 86be d9d3 78be 2c48 b33c b7fc 25bf
00000260: 8b28 41be 0ad0 b7be dd9f 49be 0ef2 0dbf
00000270: f1e3 c8be 40b2 073e a364 d8be e2cc 61be
00000280: cbf7 2c3d 9c82 f7bc c927 77bd 1b53 b73d
00000290: 3495 3b3a 0807 513e bcf1 4d3e 9a64 f3bd
000002a0: 6102 60bd c978 babd bbd4 2c3e 4cfa 05be
000002b0: 589b cfbc 4686 66bc 04a2 7dbe d3a9 1c3e
000002c0: 2763 2a3e 10c2 0f3e d950 b4bd 29db 15be
000002d0: 12f3 8e3e 8dca a4bc 9658 e0bd a585 b1bd
000002e0: f9a6 723d b3a9 61be dec4 cbbd 518a 8a3d
000002f0: 64e7 06be 170e 5c3e 4e67 ad3d 05e9 35bb
00000300: fc6d f13d 9c2e 1e3e fc77 243e 84cc 0dbb
00000310: b050 9d3d 7a6f 9f3d 9063 963e 57bb 7d3e
00000320: 0fd3 63be 9efc 69be 03be 553e 0a55 6fbe
00000330: a6dd 01be 185b bd3d 7b36 be3c b1f2 2f3e
00000340: bc4b 223e a5e6 3ebe 7a12 073d 3186 c5bd
00000350: e8f2 eb3e d1cc 9b3d 3b59 aebb 84b1 753d
00000360: 6bb2 78bd 570e 113e 08f1 81bd 4fa6 7d3c
00000370: b545 ebbd 6a25 a23c f195 1a3e 1ac7 8abd
00000380: 1b0e a83c 2a39 893c e5ed b2bd 5456 a2bd
00000390: 963a 943d be15 77be 1c64 12be d129 7e3d
000003a0: 6cd0 11be b3b5 b33d 4a1e 8e3d 98a0 55be
000003b0: 3c2a c13c 2f70 ec3d 63aa 103d f6af 1b3e
000003c0: 886c c5bd bc8f 703d 49dc 113d fea8 8abe
000003d0: 18b2 803e ad85 5d3d 94f1 98bc 8e46 893e
000003e0: 71cf 5c3d 144b e9bd d6bc 173e 5435 223c
000003f0: dc3d 213e af22 f939 20c0 e23e 24b1 7f3e
-0.25203976 -0.20111045 -0.17155267 0.1795125 -0.064835586 0.20094779 0.103134215 -0.13726231
-0.13360342 -0.09730818 -0.001629995 -0.06210871 -0.011528288 0.36833444 0.09624098 0.1226849
-0.056434754 -0.1645377 0.050383803 0.01872585 0.20051593 -0.002507583 -0.19212142 0.3892772
0.18034834 0.23040135 0.189112 0.3236804 0.013231764 -0.21456729 -0.14090715 -0.19345193
-0.009715664 0.1382153 -0.035693523 0.21539432 0.32594627 -0.019386759 -0.14644584 -0.09872678
-0.11649019 0.11047747 0.13416794 0.018612279 0.13470311 -0.09523365 -0.207484 0.21755895
-0.10773622 -0.119153745 -0.22360848 -0.25009006 -0.318653 -0.39962038 0.0684461 0.044316534
-0.024700563 -0.3009778 0.12172684 -0.10990811 -0.1564741 0.045518976 -0.0853498 0.0040376363
-0.08615149 0.15105982 -0.06037271 0.06429218 0.06342456 0.23027566 0.026541753 -0.18754344
-0.00400481 0.2225217 0.2398023 0.027177436 -0.37963232 -0.054734282 -0.3397924 -0.11318777
-0.12332612 -0.32988814 -0.18649498 0.045983706 -0.72227085 -0.038792 -0.3208627 0.0028742165
0.14642286 -0.057687573 -0.19613336 0.24853913 0.08354434 -0.13841382 0.19302006 0.40006495
0.05439626 0.038459893 0.15065467 -0.065695554 0.13132711 0.5308296 -0.13965176 0.20117278
0.18093455 0.35901245 -0.19255716 0.16250241 -0.005723154 0.004155848 0.034491498 0.07511276
-0.030629335 0.14462708 -0.07455876 -0.044431657 -0.049519774 -0.12950656 -0.26305914 0.08550999
-0.2376672 -0.09506679 -0.15804692 0.034068927 0.001998993 -0.051741198 0.032011338 0.367857
-0.26595616 0.17576653 0.17149533 -0.11897954 0.45012727 0.28549305 -0.39043647 -0.10654939
0.2523791 0.2052122 -0.18223071 -0.06771439 -0.1335195 0.15573815 0.4004442 -0.60955536
-0.15737282 -0.401146 0.010848529 -0.23086141 -0.26233032 -0.24299563 0.021885 -0.6483874
-0.18863122 -0.3590091 -0.19689889 -0.5544747 -0.39236405 0.1325159 -0.4226428 -0.22050813
0.0422285 -0.030213647 -0.060340676 0.08951398 0.0007155717 0.20412838 0.20111746 -0.118844226
-0.05468977 -0.09105069 0.16878025 -0.13083762 -0.025342628 -0.014070099 -0.24768835 0.15299158
0.16639386 0.14038873 -0.08804483 -0.14634384 0.27919823 -0.020116115 -0.109543964 -0.08668069
0.05924127 -0.22037391 -0.09949659 0.06764663 -0.13174206 0.2148975 0.084669694 -0.0027757299
0.11788556 0.15447468 0.16061395 -0.0021636793 0.076814055 0.07784934 0.29372835 0.24778496
-0.22248481 -0.22850272 0.20873265 -0.23372284 -0.12682208 0.092458904 0.023219338 0.17182423
0.15849203 -0.18642671 0.032976605 -0.096447356 0.4608376 0.07607425 -0.0053206957 0.059983745
-0.060717028 0.14165626 -0.06344801 0.015481546 -0.11487905 0.019793231 0.1509626 -0.06776257
0.020514539 0.01675089 -0.08736781 -0.07926622 0.07237737 -0.24129388 -0.14296001 0.062051598
-0.14239663 0.08774891 0.06939371 -0.20862043 0.02357971 0.11544835 0.035318743 0.15203843
-0.09639841 0.058730826 0.03561047 -0.27082056 0.25135875 0.05408256 -0.01866988 0.2681164
0.05390877 -0.11391273 0.14818129 0.00990041 0.15746254 0.00047518822 0.44287205 0.24969918

fc2.bias f4 [200]
00000000: bd96 32be 0d30 82be 1a85 33bd acb5 64be
00000010: d20e 813e a35e d23e 2fab 7fbe 73a2 e7be
00000020: e37c 813f 3dab bebe 7e34 293e 5b83 143f
00000030: 5e15 e3be 3750 c1be 2097 143d bebc 753e
00000040: d3ab c03d f862 933d 1686 8bbe 6945 0b3f
00000050: 06eb ec3c bb45 4bbd 0f85 7c3d 7210 85bc
00000060: 3ce0 2e3e 15d9 10be 60eb 1cbe 02da adbe
00000070: 1ab5 1abe 7b87 b63e 6ff1 483f c788 233d
00000080: 98be ef3d 73d5 483f 61cc 463f 0adf d3bd
00000090: 3c7e bdbe 2716 4c3e b0a3 04be 9da6 c9be
000000a0: e57a 443f ad0b 9f3e e3ad 48bd d7ae 64bd
000000b0: d212 fd3c ccec c2bd 76be 38bf 9e2e 963d
000000c0: af39 7e3d 9f97 423e 3449 d23e c617 1dbf
000000d0: 55c7 b83d 7f52 883e 8617 cf3d fd20 b13e
000000e0: 70c7 6d3e 145b b0bc b0df 303b 5034 d53e
000000f0: 85e2 d03e 5259 913d 8451 16be 27e9 d13d
00000100: ee0b 6a3f b9eb 553f dcad 643e 0b6a 1a3f
00000110: 996b a83e e557 1b3f 12c2 c83e 83cb 25bd
00000120: 3bc2 aa3a 6694 3b3e 4153 ae3e 27b6 d33b
00000130: 3ebb c33d cf36 b13d 7c7e de3e 8847 4d3e
00000140: 1a52 803d 0c66 023d cf6a 02be a6f8 90be
00000150: 6ded f739 65c4 e5bd 5212 353f a83e 93bd
00000160: b9c4 353d 1d67 20be f018 bd3e 7bfb 1dbf
00000170: 4d4f 593e f155 eb3e 23b3 e8bd cc6c dd3d
00000180: b274 dcbd d52c 0ebd af87 f5bb 9e7c f4be
00000190: 36ad 65be 184a ce3e e76b a13d 9983 ce3c
000001a0: ce0f 10be 7977 d8be 9792 a83e 99a8 183d
000001b0: edbc 5e3e bd7c a4bc 4b91 a4be 46c9 223e
000001c0: 81b2 5abe 3c4d 423e 3b00 c53e cdb2 acbe
000001d0: a473 88be 77bd acbe 268c e9be f1d0 453e
000001e0: 8cc0 473e 2cbf c23c 68d9 2cbe 8037 ebbd
000001f0: bf1e 913e 330f e53e f905 d93e 2fe1 a7bc
00000200: 41f6 fd3e a66f 353f 2ebd 5ebd 34ee 72be
00000210: 4714 803d 26ad e1be a268 0ebf 6083 37bd
00000220: d6d9 773e 7969 2a3f 077b 27bd 51a0 9bbe
00000230: d025 28bf dca2 2b3f 963a 513e a8cf 19bf
00000240: 101c 023f fa75 3d3f 670d 0cbf 8600 033d
00000250: c163 b9be 64d2 8d3d 7c85 b93e 17eb a9be
00000260: a245 193f ce95 7a3f 8c7d 44be 12df d4bd
00000270: c842 273e 05e2 0f3f 6fbf 803c f930 a2bd
00000280: 92b0 943c 8efe d03b f807 07be d29f aebd
00000290: aae1 373f 3435 e7bc c60e 8cbd 5938 ae3c
000002a0: 6eaf 8cbe a1ac fbbe ee08 0a3e c770 cbbd
000002b0: b002 8e3d bb35 b13d bddd 723d 84a6 203e
000002c0: 6e55 a93e fa9e f13e 3135 40bf a709 753e
000002d0: c976 43be a3b8 f0be 8e60 4cbe e7d3 093f
000002e0: 95f5 7c3e f5df 14be e762 9cbd 791d 183d
000002f0: 4d1c 873e 666e 883d e419 83bd 58b5 2fbe
00000300: aad2 433d 63b8 453d 519b 903e b146 ac3e
00000310: edd4 33bc d446 3d3f db60 c3bd 928d 6fbd
-0.17440315 -0.25427285 -0.043828107 -0.22334927 0.2520662 0.41087827 -0.24967645 -0.45241126
1.0116237 -0.3724002 0.1652393 0.5801293 -0.4435224 -0.37756512 0.036276937 0.2399778
0.09407773 0.07196611 -0.27250737 0.54402786 0.028920662 -0.049627047 0.061650332 -0.016243193
0.17077726 -0.1414531 -0.15324163 -0.3395539 -0.15108147 0.35650238 0.784934 0.039925363
0.11706275 0.784507 0.7765561 -0.10345276 -0.37010372 0.19930325 -0.12953067 -0.39384928
0.7675002 0.31063595 -0.048993956 -0.055830803 0.030892763 -0.09517822 -0.7216562 0.0733311
0.06206673 0.19003151 0.41071475 -0.613644 0.090223946 0.2662544 0.101119086 0.3459548
0.2322061 -0.021527804 0.0026988797 0.41641474 0.4079782 0.070971146 -0.14679533 0.102495484
0.91424453 0.8356281 0.22331947 0.6031806 0.3289459 0.6068099 0.39210564 -0.040477287
0.0013027856 0.18318328 0.34047893 0.0064609232 0.09557198 0.08653032 0.43455875 0.20046818
0.0626566 0.0318356 -0.12736057 -0.28314704 0.00047288407 -0.112191 0.7073108 -0.07189685
0.044377062 -0.15664335 0.36933088 -0.61711854 0.21221657 0.45964006 -0.113622926 0.10811767
-0.10764445 -0.034710724 -0.0074929814 -0.47751325 -0.22429356 0.40290904 0.07881909 0.025209235
-0.14068529 -0.4227865 0.3292434 0.037270162 0.21751757 -0.020079011 -0.321421 0.15897092
-0.21357156 0.18974775 0.38476738 -0.33730164 -0.26650727 -0.337383 -0.45614737 0.19317986
0.19507045 0.023772798 -0.16879809 -0.11485195 0.2834377 0.4473816 0.4238737 -0.020493118
0.4960194 0.70873487 -0.054379635 -0.2372368 0.062538676 -0.44077414 -0.55628407 -0.044803023
0.24204192 0.6656719 -0.040888812 -0.3039575 -0.656827 0.6704538 0.20432505 -0.60082483
0.5082407 0.7400814 -0.5470795 0.03198292 -0.3620892 0.069248945 0.36234653 -0.33187172
0.59871876 0.97884834 -0.19188517 -0.1039411 0.16334069 0.56204253 0.015716283 -0.07919497
0.018150602 0.0063780015 -0.13186634 -0.08526577 0.7182871 -0.028223611 -0.06838755 0.021267103
-0.27477592 -0.49155143 0.13479969 -0.0993362 0.06934106 0.086528264 0.059293497 0.1568852
0.3307299 0.47191602 -0.75081164 0.23929463 -0.19088282 -0.47015867 -0.19958708 0.5383896
0.24703057 -0.14538558 -0.076360516 0.037137482 0.2638878 0.06661682 -0.064014226 -0.17159021
0.047808327 0.048271548 0.28243497 0.33647683 -0.010976058 0.739362 -0.09539958 -0.05848462

bn2.weight f4 [200]
00000000: 0636 753f efe1 1e3f 842f 9a3f 9a87 8b3f
00000010: e44b 523f f5af be3f 3318 673f 2204 903f
00000020: 2263 8d3f c468 943f 58f9 843f e82b 873f
00000030: 546c db3f 3475 b33f b747 b33f 8b04 823f
00000040: e12c 863f 3d52 bd3f 0355 333f 2b39 a63f
00000050: 47b0 6c3f d290 583f 90a1 9e3f 5225 753f
00000060: 166c 863f 59c4 923f c55e 7b3f b62e 843f
00000070: 96a3 5c3f 53a5 8b3f 1a81 523f 5648 803f
00000080: 7aaf 9e3f f622 773f 6ee9 863f d316 823f
00000090: 2aad 533f d9ed 903f 04d0 803f d198 763f
000000a0: cbab 8f3f fd20 873f 2ff8 923f ffd1 863f
000000b0: c632 923f 72f0 813f 1fdb 5c3f 563a 723f
000000c0: ae36 7b3f 56e3 843f 1ec4 8d3f e30a 8c3f
000000d0: e94f 943f 3602 813f de3f 893f dc83 b73f
000000e0: 3966 653f 862e 923f b8e6 793f ad7d 473f
000000f0: c100 873f 7b16 893f d58c 433f b6ab 5d3f
00000100: 2c27 883f 3252 933f b808 7b3f ba81 113f
00000110: 5c87 863f bd7f 923f 6245 4a3f c38f ba3f
00000120: 630c 743f c2dc 923f dc9c 933f 916d 8e3f
00000130: a733 8d3f 2c84 683f 7696 ab3f 484f 633f
00000140: 6206 803f e093 9c3f d316 b43f b4be 603f
00000150: 68b4 a83f 3a0b 8a3f 2089 3c3f 72fb 793f
00000160: ae62 693f 8c9d 8a3f 87c1 013f 9778 823f
00000170: a9e3 523f cc7c 623f f145 743f bd0c 863f
00000180: ab6e 903f 6fe8 9a3f 1477 793f aba0 843f
00000190: 0bf5 3b3f a7cf 873f 60ba 873f c3b2 8c3f
000001a0: df82 913f 3123 853f 9a41 653f 5da7 ab3f
000001b0: 2a43 873f dfb5 613f a0e3 a53f ca40 8b3f
000001c0: 8499 7a3f 8d5e 813f 38c0 553f e510 5e3f
000001d0: 0012 9e3f bd3c 963f 51e4 b23f ec19 913f
000001e0: 0c61 813f b15d b63f ec8e 8d3f 76be 793f
000001f0: f6a7 9a3f ad48 663f 8319 833f 4fe0 7f3f
00000200: 3271 3b3f 7f06 953f dd90 5f3f d875 803f
00000210: b120 b73f 531e 963f 5a5b 9e3f 7131 903f
00000220: e5b7 573f 4764 693f d5ed a93f d48f 6a3f
00000230: d25f 933f f015 8a3f 0054 7d3f dc83 7b3f
00000240: 7059 643f 35b8 623f 4b71 473f 2e2f b33f
00000250: 020e 493f 4f53 863f 4cbd 703f 0108 943f
00000260: bb6c 5e3f 1ebe 7c3f 9f8f 5f3f 1540 9d3f
00000270: db1d 6f3f 0d05 803f 819d 853f 4884 a33f
00000280: bfee 8e3f e6ce 963f 3b07 853f 3b14 b33f
00000290: d73c 933f a42f 7b3f 1cd3 693f 78e0 a53f
000002a0: 3b37 953f 033c 603f cbb3 873f cc91 873f
000002b0: 8ba9 853f 7b85 a53f 3034 ad3f a209 9f3f
000002c0: 17da 973f 2060 743f 88d3 8e3f f7a1 8a3f
000002d0: 04b5 923f a975 a03f 7916 633f 2384 663f
000002e0: f5d3 973f d1b7 933f 70e3 863f 26b3 a33f
000002f0: f091 943f 390b 673f 5289 983f f9d6 ae3f
00000300: 42f5 8d3f 1f1a b63f 05ad 723f 9662 173f
00000310: 7921 6e3f 9965 8e3f 5bc9 a33f ab0f 773f
0.9578556 0.620635 1.2045751 1.0900757 0.8214705 1.4897448 0.902713 1.1251261
1.1045878 1.1594472 1.0388594 1.0560274 1.7142434 1.4020143 1.4006261 1.0157636
1.0482446 1.4790722 0.7005159 1.2986196 0.9245648 0.8459598 1.2393055 0.9576007
1.0501735 1.146617 0.9819148 1.0326755 0.8618711 1.0909828 0.82228243 1.0022075
1.2397301 0.9653772 1.0539987 1.0163215 0.826861 1.1322585 1.0063481 0.9632693
1.1224302 1.0556942 1.148199 1.0532836 1.1421745 1.0151503 0.8627185 0.94620264
0.9813031 1.0381877 1.1075475 1.0940822 1.1586887 1.00788 1.0722616 1.4337115
0.89609104 1.1420448 0.97617674 0.7792614 1.0547105 1.0709985 0.7638677 0.86590135
1.0636954 1.1509459 0.9806018 0.5683857 1.0510058 1.1445233 0.7901212 1.4575123
0.953314 1.147362 1.1532245 1.1127187 1.1031388 0.9082668 1.3405292 0.8879285
1.0001948 1.2232628 1.4069465 0.8779099 1.3180056 1.0784676 0.73646736 0.976493
0.911662 1.082933 0.50685924 1.0193051 0.8237863 0.88471675 0.9541922 1.0472637
1.1283773 1.2102183 0.97447324 1.0361532 0.7342078 1.0610245 1.0603752 1.0992054
1.1368064 1.0401365 0.89553225 1.341045 1.0567372 0.8816814 1.2960091 1.0879147
0.97890496 1.010698 0.8349643 0.8674453 1.2349243 1.1737286 1.3975927 1.1336036
1.0107741 1.4247342 1.1059241 0.97556245 1.2082508 0.89954644 1.024216 0.9995164
0.732196 1.1642607 0.8733042 1.0035963 1.4306852 1.1728004 1.2371628 1.1265088
0.84264976 0.91168636 1.3275706 0.91625714 1.1513617 1.0787945 0.989563 0.98248076
0.8919897 0.8856233 0.77907246 1.3998773 0.78537 1.0494174 0.94038844 1.1564943
0.8688466 0.98727596 0.87328523 1.2285181 0.9340493 1.0001541 1.0438691 1.2774744
1.116661 1.178189 1.0392832 1.3990549 1.1502942 0.9811957 0.9133775 1.2959127
1.165748 0.8759157 1.0601743 1.0591369 1.0442365 1.293136 1.3531551 1.2424815
1.1863431 0.95459175 1.1158304 1.0830678 1.1461492 1.2535907 0.88706166 0.90045375
1.1861559 1.1540471 1.0538158 1.2789047 1.1607037 0.902515 1.1916907 1.3659354
1.1090472 1.4226722 0.94795257 0.59134805 0.93019825 1.1124755 1.2795824 0.9650828

bn2.bias f4 [200]
00000000: c2a1 77be 2f9d 5cbe f872 053d 03bc 78be
00000010: 0ef5 4a3e a1bb ca3e a97d 46be eefa e0be
00000020: 68f6 713f e84e a0be 52d3 063e 2d29 0a3f
00000030: 23c5 c7be 8195 bcbe 642c 843d 7333 693e
00000040: a0c3 8e3d eace a43d 0f57 4cbe 17c7 003f
00000050: 9869 a3bc c92c 9d3c 7a1f fe3c 8178 7e3d
00000060: e445 fe3d 9343 33be 9bd5 b0bd 117f d4be
00000070: 1362 33be 6c0c bc3e ae29 373f 81fb be3d
00000080: dd68 f53d 805f 3e3f 150f 343f 8734 c3bd
00000090: 0a8f 97be 1305 103e c54e 28be 735e bcbe
000000a0: 7221 353f 30dc a03e 805a be3c a3d2 80bd
000000b0: a3fc 823c 7e57 f3bd 328e 4bbf a02e 493d
000000c0: b00e df3d 0597 3d3e b563 b73e a3be 0abf
000000d0: 8e70 9a3d fe87 933e 7f78 603d c997 9c3e
000000e0: ef10 843e 9bca 6bbc 94ab 6abd 06ed b03e
000000f0: 4c72 aa3e 83c8 303d 0d62 18be a469 d53d
00000100: 1c7b 563f ced2 423f 0565 8f3e 0dfa 293f
00000110: cc9b a43e 9ed6 2c3f 74ff a53e 1072 9abd
00000120: e3a7 38bc 409a 103e 69eb 923e e043 54bc
00000130: dd55 1e3e 0621 0e3d 5a5d b73e 80c5 803e
00000140: 8dbc 553d 9d6a cdba b44c bdbd 6eee 79be
00000150: 4aae ee3b 8509 9dbd 1476 263f 2fe6 b1bd
00000160: f264 ab3c d439 e4bd e5ba b23e fce9 17bf
00000170: 9844 493e 5782 d53e bbe1 f7bd 003b ce3d
00000180: 7cb1 d6bd a6ca 953c 4b1a 96bd 23e3 f0be
00000190: f0f5 1cbe 3a6a f53e 6b99 813d 3628 08bc
000001a0: 58e2 a9bd b022 b8be 1d48 bf3e f63e 463d
000001b0: bd70 933e 8181 b5bd cd37 8dbe 6753 3a3e
000001c0: d14a 3cbe f0fc 6a3e 14c4 ac3e 5fa1 a5be
000001d0: 29b3 5ebe fc06 c9be c8fb f4be f065 7f3e
000001e0: c67f 0c3e c9d3 f6bb 1a17 15be 5021 39be
000001f0: 7451 7f3e 9359 df3e 8b82 fb3e 0c89 7bbd
00000200: b6b8 063f ef79 403f d17a e0bd 2360 29be
00000210: e399 403c 516c bfbe 474b 04bf dde0 55bd
00000220: a88c 483e 1313 253f 47f0 0f3d 034e 8bbe
00000230: e0d3 30bf a0d9 1d3f 9d8b 823e f1ca 0ebf
00000240: 9371 dd3e 9574 2b3f 07ab f7be 14f4 8d3d
00000250: bdff c7be f46d 5a3c 37e5 9d3e e696 adbe
00000260: f88e 273f 0b30 793f 53c8 01be 3db2 23be
00000270: 0901 ee3d 48a6 1b3f 3a6a 1e3c 6612 0fbd
00000280: 484e a0bc 2633 3a3d b40a 85bd f655 9ebc
00000290: 3706 2d3f 6b25 a7bd 5896 11be 0741 bebb
000002a0: e3d0 aebe 0e37 dcbe 05d0 893d 787d cbbc
000002b0: 8e3b 9e3d 866e 613d 2d8b 603d 5a1f b93d
000002c0: 3f34 a73e 0c82 df3e a2f6 32bf 459d 703e
000002d0: 5238 74be 41fd edbe 97ce 67be 60fd 073f
000002e0: 30ec 4a3e 0838 27be ed34 90bc 6f1f a53d
000002f0: 458f 9a3e 186b ef3d 438b fabc 4b8f 39be
00000300: 60f0 eb3d 1480 15ba cd61 7b3e 6617 b63e
00000310: e2dc d6bb e23b 303f e397 abbd e5fb 02bd
-0.241828 -0.21544336 0.032580346 -0.24290471 0.19820043 0.39596274 -0.19383873 -0.43941444
0.9451661 -0.313102 0.1316655 0.5396908 -0.3901759 -0.36832812 0.06453779 0.22773533
0.06970906 0.08047278 -0.19955085 0.50303787 -0.019947812 0.019186394 0.031020869 0.06212664
0.12415674 -0.17506246 -0.08634492 -0.41503194 -0.17517881 0.36728227 0.71547973 0.09325314
0.11982892 0.7436447 0.70335513 -0.09531503 -0.29601318 0.14064436 -0.16436298 -0.3679081
0.7075416 0.3141799 0.023236513 -0.06290176 0.015989607 -0.11881922 -0.7951385 0.04911673
0.10891473 0.1851464 0.35818258 -0.5419714 0.07540999 0.2881469 0.054802414 0.30584553
0.2579417 -0.014391567 -0.057292536 0.34555835 0.33290327 0.043159973 -0.14881153 0.1042054
0.837816 0.7610291 0.2800676 0.6639717 0.32150114 0.6751498 0.32421458 -0.07541287
-0.011270496 0.14121342 0.2869523 -0.012955636 0.15462442 0.034699462 0.3581341 0.2515068
0.05218177 -0.0015672032 -0.092431456 -0.2440736 0.0072839605 -0.07667831 0.6502392 -0.08686482
0.020922158 -0.11143842 0.34908214 -0.59341407 0.19655073 0.41701004 -0.121036015 0.10069847
-0.10483071 0.018285107 -0.07329234 -0.47048292 -0.15328193 0.47932607 0.0632809 -0.008310368
-0.08295125 -0.35963964 0.37359706 0.048399888 0.2879695 -0.088625915 -0.27581635 0.18195878
-0.18387915 0.2294805 0.33743346 -0.3234968 -0.21748032 -0.3926314 -0.47848344 0.2494123
0.13720617 -0.007532571 -0.14559594 -0.18079114 0.24933416 0.43623027 0.49123034 -0.061409995
0.52625597 0.75186056 -0.10960925 -0.1654058 0.011755439 -0.37387326 -0.51677364 -0.0522164
0.19584906 0.6448223 0.035141256 -0.27207956 -0.69073296 0.61660194 0.2549714 -0.55778414
0.43250713 0.66974765 -0.4837267 0.0693132 -0.390623 0.013331879 0.3083894 -0.3390419
0.6545253 0.9733893 -0.12674074 -0.15985961 0.11621291 0.608006 0.009668881 -0.034929655
-0.019568577 0.045458935 -0.06496182 -0.019328099 0.6758761 -0.08161434 -0.14217508 -0.0058060917
-0.34143743 -0.43010753 0.0672913 -0.024840102 0.07726203 0.055037044 0.05482023 0.09039183
0.32657048 0.43653905 -0.6990758 0.23497494 -0.2384961 -0.4648228 -0.22637402 0.53120995
0.19816661 -0.16329968 -0.017603362 0.08062636 0.3018743 0.116903484 -0.030583983 -0.18121068
0.11520457 -0.0005702984 0.24549027 0.35564727 -0.006557093 0.68841374 -0.083785795 -0.031978507

bn2.running_mean f4 [200]
00000000: 0000 0000 0000 0000 0000 0000 0000 0000
00000010: 0000 0000 0000 0000 0000 0000 0000 0000
00000020: 0000 0000 0000 0000 0000 0000 0000 0000
00000030: 0000 0000 0000 0000 0000 0000 0000 0000
00000040: 0000 0000 0000 0000 0000 0000 0000 0000
00000050: 0000 0000 0000 0000 0000 0000 0000 0000
00000060: 0000 0000 0000 0000 0000 0000 0000 0000
00000070: 0000 0000 0000 0000 0000 0000 0000 0000
00000080: 0000 0000 0000 0000 0000 0000 0000 0000
00000090: 0000 0000 0000 0000 0000 0000 0000 0000
000000a0: 0000 0000 0000 0000 0000 0000 0000 0000
000000b0: 0000 0000 0000 0000 0000 0000 0000 0000
000000c0: 0000 0000 0000 0000 0000 0000 0000 0000
000000d0: 0000 0000 0000 0000 0000 0000 0000 0000
000000e0: 0000 0000 0000 0000 0000 0000 0000 0000
000000f0: 0000 0000 0000 0000 0000 0000 0000 0000
00000100: 0000 0000 0000 0000 0000 0000 0000 0000
00000110: 0000 0000 0000 0000 0000 0000 0000 0000
00000120: 0000 0000 0000 0000 0000 0000 0000 0000
00000130: 0000 0000 0000 0000 0000 0000 0000 0000
00000140: 0000 0000 0000 0000 0000 0000 0000 0000
00000150: 0000 0000 0000 0000 0000 0000 0000 0000
00000160: 0000 0000 0000 0000 0000 0000 0000 0000
00000170: 0000 0000 0000 0000 0000 0000 0000 0000
00000180: 0000 0000 0000 0000 0000 0000 0000 0000
00000190: 0000 0000 0000 0000 0000 0000 0000 0000
000001a0: 0000 0000 0000 0000 0000 0000 0000 0000
000001b0: 0000 0000 0000 0000 0000 0000 0000 0000
000001c0: 0000 0000 0000 0000 0000 0000 0000 0000
000001d0: 0000 0000 0000 0000 0000 0000 0000 0000
000001e0: 0000 0000 0000 0000 0000 0000 0000 0000
000001f0: 0000 0000 0000 0000 0000 0000 0000 0000
00000200: 0000 0000 0000 0000 0000 0000 0000 0000
00000210: 0000 0000 0000 0000 0000 0000 0000 0000
00000220: 0000 0000 0000 0000 0000 0000 0000 0000
00000230: 0000 0000 0000 0000 0000 0000 0000 0000
00000240: 0000 0000 0000 0000 0000 0000 0000 0000
00000250: 0000 0000 0000 0000 0000 0000 0000 0000
00000260: 0000 0000 0000 0000 0000 0000 0000 0000
00000270: 0000 0000 0000 0000 0000 0000 0000 0000
00000280: 0000 0000 0000 0000 0000 0000 0000 0000
00000290: 0000 0000 0000 0000 0000 0000 0000 0000
000002a0: 0000 0000 0000 0000 0000 0000 0000 0000
000002b0: 0000 0000 0000 0000 0000 0000 0000 0000
000002c0: 0000 0000 0000 0000 0000 0000 0000 0000
000002d0: 0000 0000 0000 0000 0000 0000 0000 0000
000002e0: 0000 0000 0000 0000 0000 0000 0000 0000
000002f0: 0000 0000 0000 0000 0000 0000 0000 0000
00000300: 0000 0000 0000 0000 0000 0000 0000 0000
00000310: 0000 0000 0000 0000 0000 0000 0000 0000
0.0 0.0 0.0 0.0 0.0 0.0 0.0 0.0
0.0 0.0 0.0 0.0 0.0 0.0 0.0 0.0
0.0 0.0 0.0 0.0 0.0 0.0 0.0 0.0
0.0 0.0 0.0 0.0 0.0 0.0 0.0 0.0
0.0 0.0 0.0 0.0 0.0 0.0 0.0 0.0
0.0 0.0 0.0 0.0 0.0 0.0 0.0 0.0
0.0 0.0 0.0 0.0 0.0 0.0 0.0 0.0
0.0 0.0 0.0 0.0 0.0 0.0 0.0 0.0
0.0 0.0 0.0 0.0 0.0 0.0 0.0 0.0
0.0 0.0 0.0 0.0 0.0 0.0 0.0 0.0
0.0 0.0 0.0 0.0 0.0 0.0 0.0 0.0
0.0 0.0 0.0 0.0 0.0 0.0 0.0 0.0
0.0 0.0 0.0 0.0 0.0 0.0 0.0 0.0
0.0 0.0 0.0 0.0 0.0 0.0 0.0 0.0
0.0 0.0 0.0 0.0 0.0 0.0 0.0 0.0
0.0 0.0 0.0 0.0 0.0 0.0 0.0 0.0
0.0 0.0 0.0 0.0 0.0 0.0 0.0 0.0
0.0 0.0 0.0 0.0 0.0 0.0 0.0 0.0
0.0 0.0 0.0 0.0 0.0 0.0 0.0 0.0
0.0 0.0 0.0 0.0 0.0 0.0 0.0 0.0
0.0 0.0 0.0 0.0 0.0 0.0 0.0 0.0
0.0 0.0 0.0 0.0 0.0 0.0 0.0 0.0
0.0 0.0 0.0 0.0 0.0 0.0 0.0 0.0
0.0 0.0 0.0 0.0 0.0 0.0 0.0 0.0
0.0 0.0 0.0 0.0 0.0 0.0 0.0 0.0
