myrobot/src/not_using/DDPG/save_DDPG_models/1006_1/DDPG_Critic_EP66.pt (torch, 288582 bytes, 32 tensors)

fc1_state.weight f4 [128, 4]
00000000: 7809 eabf 3bed 0dbf 5fd5 ca3e c62a b83c
00000010: 275d 00bf db9e 813e 7087 553f 5082 1dbf
00000020: e191 a2bf de24 9b3f ef06 023f fcd7 0dbf
00000030: 8768 6cbe 4a14 bb3f e494 e7bf cbaa 893d
00000040: 7ef8 fabe f966 7fbf 7076 64bf 958b e5bb
00000050: caef 1bbe aa1b 973e c58b 68bf b89b c43f
00000060: 44ff 31bf 46fd f73e 5996 8fbf 1419 413f
00000070: 0cd0 ba3f 5090 36bf 34ff 93bf 952b 613f
00000080: a7ab d1be ce77 62bf 4b77 2c3f 9bc7 2b3f
00000090: ea30 503e f985 0cbf 1f5d 9ebf f96b 0b3f
000000a0: 8a3a 6abe 0e9f 8f3e 09fd 4cbf 910e 22bf
000000b0: 9df9 b13e f5b3 da3f bd2e df3c 49db 9b3f
000000c0: ce54 92be 2a54 98bf b1a4 07bf b26a 13bf
000000d0: 01f4 b13f 31fe 093f 44de 83be 9b27 dc3b
000000e0: 4f31 133f ad59 6e3c 7869 0fbf 2865 99bf
000000f0: d634 273e f1d0 c63f 0b3d afbd 1120 9e3f
00000100: c514 053f 2744 b83e d50d 083e 0dae b1be
00000110: acb2 8cbd 56ab 623e b3eb e7be 76c9 793e
00000120: 93c1 4fbf d253 9a3f 1c16 df3d db3a 98bd
00000130: ad53 a2bf f4cc e43e 4038 9abd 51c8 053c
00000140: 8863 59bf b4e2 513f c5dc 83bf 904d 593c
00000150: 7d56 083f 8d1a 913f a3ff ac3e a984 c1bf
00000160: 9604 d4bd 0a21 f93e 25b0 bcbe 3597 4f3f
00000170: 0bc3 753e f6c1 eb3f 59a5 123f ea82 32bc
00000180: e1e8 893f 7455 663e 0817 08be 5d99 37be
00000190: 6b11 de3f f719 393f 8d24 24bf fbea 613d
000001a0: 160e aabe 9492 f23f 4cb6 08be f0a6 c2bf
000001b0: 1767 18be 80cb b33f b995 8cbf db80 823d
000001c0: f754 ed3e 1d31 473f 9179 6dbf b451 be3f
000001d0: d0cd 1a3e 3bc8 a03e 8ddf 8a3f b300 4fbe
000001e0: 1dc8 0bbe 10da 093f 1341 253f d652 0cbf
000001f0: 3882 2c3f b10b 19bf 424b 703e 4052 8ebf
00000200: a05a a1be bb99 6abf f869 063f 331b 7a3f
00000210: ff02 763f 461c 273f ec6f 933d 13e9 5bbe
00000220: 0320 7f3f 8881 03bf 22de 45bf b051 2b3f
00000230: ac9c 5bbe b774 8e3e 8eb6 39bf 38fa 11bf
00000240: 4e94 46be 3579 463f 248c bf3e 1b49 04bd
00000250: 4a49 543e 8066 1bbf aa79 0340 110b 96be
00000260: 8ef4 153e b196 e1bf 981e 413e 31c9 12bf
00000270: 1fad 0ec0 650e a13f 8cbf b0be a84d 223e
00000280: 550d 8dbf 6bb0 83bf 4e82 8d3d 1ea4 9e3f
00000290: 2b75 afbd 5d18 bb3e 7155 9dbe d432 56bf
000002a0: 64cf cc3f 224e d5be de78 b63d 35d6 593c
000002b0: 51ae 7bbd 9c15 4cbf 4feb e9be f969 9cbf
000002c0: 9a80 22bf 37c8 6e3f b7cc 713f 6179 53bc
000002d0: fb05 5fbf 1d40 93bf 2f40 0c3f 658e 9bbf
000002e0: 06f8 5c3f 4119 88bf df8b 5a3f f55a 10bf
000002f0: c09b 0040 baf5 6b3f 841c 4e3e bef8 bd3e
00000300: e989 25be ccc6 79bf 5f4f f7be e6a4 963f
00000310: e9f3 023f 9bef cdbe f330 983f 16c0 933f
00000320: 62c5 a8bf b710 673f 7d87 5d3f aaf4 61bf
00000330: cc4a 80bf 2232 1bbf 6b58 8b3e 1d8d 83be
00000340: 79b9 8ebf 1426 0cbf a443 c73e 5ce7 ed3c
00000350: b2f7 16bf 325a 6abd 1847 be3d cc05 b8be
00000360: fd3e 5bbf 9a07 43be d779 2abf a1fb 2bbf
00000370: 2a20 a2bf 7c2f 393e f19b 83be 3e64 4dbf
00000380: 9c58 b53e 1d94 dc3e 453b 83be cb20 b03e
00000390: 6a1c f2be c3b5 5fbf 99ac f93e 0c98 6abe
000003a0: 831e f33d 0db7 103f 7a46 6bbf c0f1 d1be
000003b0: 3f48 3f3f 9fa1 71bf 9fdd 633f b8bf 943e
000003c0: 5281 a03f 82db 8bbf 50f3 2dbe 1de4 cc3e
000003d0: b163 533f a68a ca3d 27e2 853e b72c ed3e
000003e0: 0981 373d 1696 0d3d 734f f73e c83d c2be
000003f0: c034 b7bf cc67 e6be 4d60 c3bf b2b6 fe3e
-1.828414 -0.5544011 0.39615914 0.022481333 -0.5014214 0.2531651 0.83409786 -0.61526966
-1.2700769 1.2120626 0.5079183 -0.5540769 -0.23086749 1.4615567 -1.8092313 0.06722029
-0.4901771 -0.997665 -0.8924322 -0.007005165 -0.15228191 0.29513294 -0.9083827 1.5360022
-0.6953013 0.4843542 -1.1217757 0.7542889 1.4594741 -0.71313953 -1.1562257 0.87957126
-0.40951273 -0.8846406 0.67369527 0.6710145 0.20331159 -0.54891926 -1.2372168 0.5446163
-0.22873893 0.28051037 -0.800736 -0.63303477 0.34760752 1.7086169 0.027243966 1.2176296
-0.28580326 -1.1900685 -0.52985674 -0.5758468 1.3902589 0.5390349 -0.25755513 0.0067185885
0.57497114 0.014547748 -0.5602031 -1.1983995 0.16328749 1.5532514 -0.08556565 1.2353536
0.51984817 0.35989496 0.13286527 -0.34703103 -0.068700165 0.22135672 -0.45297012 0.24393257
-0.81154746 1.205683 0.10892889 -0.07433101 -1.2681786 0.44687617 -0.0753026 0.008165435
-0.849175 0.81986547 -1.0301749 0.013263121 0.5325697 1.1336228 0.33788785 -1.511861
-0.10352437 0.4865802 -0.36853138 0.810901 0.24000184 1.8418567 0.5728355 -0.01089547
1.0774194 0.22493535 -0.13290036 -0.17929597 1.7349066 0.72305244 -0.6411827 0.055155735
-0.33213872 1.8950982 -0.1335079 -1.5207195 -0.14883076 1.4046478 -1.0983192 0.063722335
0.46353886 0.77809316 -0.9276362 1.4868684 0.15117574 0.31402764 1.0849472 -0.2021511
-0.13650556 0.5384836 0.6455242 -0.548139 0.673862 -0.59783465 0.23466209 -1.1118851
-0.31514454 -0.91640824 0.52505445 0.9769775 0.9609832 0.65277517 0.07199082 -0.2147563
0.9965822 -0.51369524 -0.7729207 0.6692152 -0.21446484 0.2782342 -0.7254418 -0.5702243
-0.19392511 0.775287 0.37411606 -0.03229628 0.20731083 -0.6070328 2.0543008 -0.29305318
0.14644071 -1.7624112 0.18859327 -0.57338244 -2.2293165 1.2582518 -0.3452114 0.15849936
-1.1019694 -1.0288213 0.06909619 1.2393835 -0.0856727 0.36542025 -0.3072925 -0.8367131
1.600079 -0.41661173 0.08909772 0.0132957 -0.061445538 -0.79720473 -0.4568734 -1.221984
-0.6347748 0.93274254 0.94452995 -0.012907357 -0.871185 -1.1503941 0.54785436 -1.215283
0.86315954 -1.0632707 0.85369676 -0.5638879 2.0095062 0.92171824 0.20128065 0.37103838
-0.1616589 -0.97568965 -0.48302743 1.1769073 0.5115343 -0.40221867 1.1889938 1.1542995
-1.3185236 0.9025988 0.86534864 -0.8826395 -1.0022826 -0.6062337 0.27215895 -0.25693598
-1.1150352 -0.547456 0.38918793 0.029040985 -0.58971703 -0.057214923 0.09290904 -0.35941923
-0.8564299 -0.19045869 -0.6659216 -0.6718083 -1.2666066 0.1808452 -0.2570491 -0.8023108
0.35419166 0.4308175 -0.25631157 0.3440002 -0.47287303 -0.8738672 0.48764494 -0.22909564
0.11871054 0.56529313 -0.91904414 -0.41004753 0.74719614 -0.9438724 0.8901004 0.2905252
1.2539465 -1.0926363 -0.16987348 0.40017787 0.8257399 0.09889726 0.26149103 0.46323177
0.044800792 0.03456696 0.48302802 -0.3793776 -1.4312973 -0.45001066 -1.5263764 0.4974876

fc1_state.bias f4 [128]
00000000: 686d e63e b2f0 e43e cf1e a2bd 7432 483f
00000010: d0cf 38bd 20dc 8d3c 25a8 25bf 1d1c 5fbe
00000020: f620 c83e b191 34bd 98de 9dbd 4379 41bf
00000030: 2634 a33e 75cb a3bd 9b07 433e e603 c33c
00000040: c4ba 6b3d 351b f13c f290 1e3e 236b aebe
00000050: c097 013f c7a5 a7be c99d acbe e76a 393e
00000060: b30f c43d 6180 443f 3e5f fbbd b2e8 c4bd
00000070: 89f1 debe dde0 1c3e fe69 a2be 36d4 0a3f
00000080: 0319 b93e 8e7c f1bd c5ae 04bf 5d8c 393f
00000090: 1bc7 af3e 05da f63e 1346 9c3e 13b5 f43d
000000a0: 5cc8 6b3e 8ec1 a03e 6eb5 353e 04de bf3e
000000b0: c34b 0a3f ab93 5e3e 3e06 d73e ada9 84be
000000c0: 861f 1b3f 7926 123e 74a0 b7be 7e39 b8bc
000000d0: 7e40 d3bd cf4e b83e 2bbd 37bf b9ab c23e
000000e0: 0eb2 e2bc 7309 433d 9d23 483f eaac afbe
000000f0: ea6a dbbe 082b 293f dbbf 02bf 9508 09bf
00000100: 5121 91be 32a9 143d 7be7 343f dc9f bf3d
00000110: 5ab8 913e dc98 81be 80e2 b9bd 6ccd 3fbe
00000120: ad3b c73e e199 4e3e 3f9b 0cbe 1910 7f3e
00000130: 3691 16bf aaf8 f4be 10cf 91bc 1326 8ebe
00000140: 5223 8a3b 3538 723e f548 d93e 7030 cd3e
00000150: 7f55 c73e 1d59 cabe 7029 babe 3afe bb3e
00000160: 261d 4f3f 4996 a93e 98a6 febe 1a60 14bf
00000170: d631 fb3e 2712 83be 1090 d93e bd64 25bf
00000180: 2485 07bf ff6c 4bbe d351 fe3e 6f7d 003d
00000190: e5c0 193f f1ff 42be 9304 e33e addb 803d
000001a0: 8a33 e83e e4cc 9ebe a218 2e3f b729 be3e
000001b0: 6854 28bf d241 e03e c2a4 c83e d762 4abd
000001c0: a30e f43d f2ef 343e ed81 bf3e 2230 2abf
000001d0: 4051 45bf 6c42 463e b4a4 d13e 7808 d33d
000001e0: 5cb5 b83e d572 0f3f 8c1c ebbe fb8f 9bbe
000001f0: d66d 81be c0dd 64bc 2898 f13e bf92 d33e
0.45005345 0.44714886 -0.079160325 0.78201985 -0.04512006 0.017316878 -0.64709693 -0.21788068
0.39087647 -0.044084255 -0.07708472 -0.75575656 0.31875724 -0.07997791 0.1904587 0.02380557
0.05755116 0.029431919 0.1548498 -0.34066114 0.5062218 -0.32743666 -0.3371413 0.18107186
0.09573307 0.7675839 -0.122740254 -0.096146956 -0.43543652 0.15320154 -0.3172149 0.5423006
0.36151895 -0.11791335 -0.5182918 0.724798 0.34331593 0.4821321 0.30522212 0.119486
0.2302565 0.3139767 0.17744991 0.37474072 0.54021853 0.21736018 0.4199695 -0.25910702
0.60594976 0.14272489 -0.35864604 -0.022488352 -0.10315035 0.35997626 -0.7177302 0.3802164
-0.027672794 0.047616433 0.7817934 -0.3431161 -0.42855006 0.66081285 -0.51074 -0.5352872
-0.2834573 0.03629417 0.7066571 0.09356663 0.28460962 -0.25311935 -0.090764046 -0.18730706
0.38912717 0.20175888 -0.13731097 0.24908485 -0.58815324 -0.47845966 -0.01779893 -0.27763423
0.0042156363 0.23654254 0.42438474 0.40076017 0.38932416 -0.39521113 -0.3635974 0.36717397
0.8090385 0.3312247 -0.49736476 -0.5795914 0.4906146 -0.25599787 0.42492723 -0.6460684
-0.5293753 -0.19865797 0.49671802 0.031369623 0.6005996 -0.19042946 0.44339427 0.062919
0.4535182 -0.31015694 0.68006337 0.371412 -0.65753794 0.43800217 0.391882 -0.049410667
0.11916854 0.17669657 0.37403813 -0.66479695 -0.770771 0.19361275 0.4094597 0.1030435
0.36075866 0.56034595 -0.45920217 -0.30383286 -0.2527911 -0.013968885 0.47186399 0.41322896

bn1_state.weight f4 [128]
00000000: cc3e db3f 83e2 703f ba7e 813f 2cb5 933f
00000010: cffc 8b3f 8977 6a3f c774 713f 019d 723f
00000020: 1c98 783f 1261 6a3f c05e 823f 8a2b 793f
00000030: 50fc 713f 37ad c13f 83c0 793f 229f 6c3f
00000040: 90aa 7c3f 1246 5e3f 0fe1 963f 8bbe e23f
00000050: ee97 d23f 0283 833f 811c 763f badb b93f
00000060: a77b 9f3f 346f 903f 65af 963f c6b6 8e3f
00000070: 0b58 703f 6116 763f 9dc5 703f 59d0 843f
00000080: 5d92 6f3f d38c 8c3f 3803 6f3f 60a3 853f
00000090: d987 8b3f e70a 813f 29de 913f 90ef 8a3f
000000a0: 87d8 7a3f e993 7b3f 9c2e cc3f 336a 6d3f
000000b0: b3fc 9f3f 214d 873f 443c 7c3f 377c 7a3f
000000c0: b15b 763f 2848 7b3f 5f10 803f ab5c 983f
000000d0: b6e4 883f ad8e 8c3f 6823 7c3f 7232 833f
000000e0: 5cc1 793f 21ee 833f 3744 853f ca58 803f
000000f0: 0ef9 7a3f 3c5b 7a3f bee7 693f 6ba3 753f
00000100: 5351 7e3f 5508 763f fe6f 793f d5b3 7e3f
00000110: b2c9 683f 7f10 9c3f 3c56 793f 015e 703f
00000120: 0ca5 6d3f fca8 813f f87c 893f ce6c 7a3f
00000130: 3964 763f 1807 713f f5a4 913f 8a89 733f
00000140: 1cda 893f 883e 903f ef5b 893f 3559 ab3f
00000150: d4bf b53f a076 8b3f a1e0 8a3f b25f 883f
00000160: 8c00 763f 54d7 763f 423e 753f 7bf4 683f
00000170: b4ae 853f d08f 723f 7981 913f d039 ac3f
00000180: 56a5 7b3f f534 7c3f 2085 7b3f e36e 713f
00000190: f500 923f bf44 e93f b9c7 963f b0fa 953f
000001a0: f428 713f abed 943f 1bc8 7c3f bf30 903f
000001b0: 0499 763f 8f5d 843f 5cac 8c3f 667f 7d3f
000001c0: 1f89 723f f7fa 883f 44e9 6f3f 60cc a03f
000001d0: fe29 7d3f b2b0 9d3f 4271 5b3f 6fc3 773f
000001e0: 3a22 8a3f d18a c03f d3cd 783f 9435 703f
000001f0: ee45 823f 26ff 823f 3c89 743f 4a8c 9a3f
1.7128539 0.9409563 1.0116799 1.1539664 1.0936526 0.91588646 0.94318813 0.9477082
0.971071 0.9155437 1.0185165 0.9733206 0.94525623 1.5130986 0.97559375 0.9243032
0.9869776 0.8682567 1.1787432 1.7714399 1.6452615 1.0274355 0.96137244 1.452018
1.2459611 1.1283937 1.1772276 1.1149528 0.9388434 0.961279 0.94051534 1.0376083
0.9358271 1.0980476 0.93364286 1.0440483 1.0900832 1.0081452 1.1395923 1.0854359
0.97986645 0.9827257 1.5951724 0.9274017 1.2498993 1.0570413 0.9852946 0.97845787
0.9623366 0.98156977 1.0004996 1.190328 1.0694797 1.0981041 0.98491526 1.024977
0.9756067 1.0307046 1.0411443 1.0027096 0.9803628 0.9779546 0.91369236 0.9595248
0.9934284 0.96106464 0.9743651 0.9949315 0.9093276 1.2192534 0.9739721 0.9389344
0.92829967 1.0129695 1.0741262 0.9782227 0.9624668 0.9415145 1.1378466 0.9513174
1.0769687 1.1269083 1.0731181 1.3386599 1.4199166 1.0895576 1.0849801 1.0654204
0.96094584 0.96422315 0.9579812 0.9099805 1.044394 0.9475069 1.1367637 1.3455143
0.9829916 0.98518306 0.9825001 0.94309825 1.1406542 1.8224105 1.17797 1.1717129
0.94203115 1.163503 0.98742837 1.1264876 0.96327233 1.0341052 1.09901 0.9902252
0.9474048 1.0701588 0.9371531 1.256237 0.988922 1.2319548 0.8571969 0.96782583
1.0791695 1.5042363 0.9718906 0.93831754 1.0177591 1.0234115 0.95521903 1.2074063

bn1_state.bias f4 [128]
00000000: 4ff2 8a3d 7495 c13d 5e9a dabd 37c7 ae3e
00000010: bbc5 ad3e 690b 953e 4b9f 84be 6f5c 12be
00000020: a56a 743e 2796 5c3e af5c ae3d 5c3e ccbe
00000030: 300b c03e 7d60 a53d 5369 5dbe 7620 9cbe
00000040: e7a5 15be ff7d 59bd f488 d53d d8b0 f9bc
00000050: c1ae b03e e425 b1bd 21e8 aabe 03fb 55be
00000060: 76e3 7e3d a75f 8f3e 8594 47bd a98b 0abe
00000070: 1ce5 9cbe e602 1d3d 849d 56bd a931 ca3d
00000080: 28de 8abb c64c 38bd f8dc a9be f542 713e
00000090: 0fc7 b63d a90b 703d 07a4 14be 3504 2bbd
000000a0: 962d 7c3e 67b3 083e abb0 83be 3767 563d
000000b0: fa3c 8f3d 5c6b 503d ad4e 26bd eb68 49bd
000000c0: 5ed6 8e3e a8e5 7f3e e51b 6a3d 0e3c a93c
000000d0: 25f5 f6bc 4388 9a3b 43ef 97be d2e6 1bbd
000000e0: 9167 87be 3157 443d ba64 b53e 34dd 133e
000000f0: e368 0dbe bcc5 5d3e 0c96 94bd 66e5 91bd
00000100: 17ee 8dbe c56b c43e c5c5 de3e 1525 7c3e
00000110: 0607 733d de57 90be 57c0 90be fa71 c13d
00000120: a7b1 05bd e3a3 3dbe 698d d83c f6ef 1cbe
00000130: 28d3 11be a44d e3be e69f b5bd cd8e 76bd
00000140: 8ff3 b1bc a750 173d 4641 ee3d 7705 033e
00000150: 093d fb3e f7f0 d6be 05d6 123c 6e5b ac3d
00000160: 1614 9f3e 1ec1 8e3e 012d ddbd 4af6 65be
00000170: 6c42 803e 37de a5be 3c39 b0bc 8b8e 98be
00000180: 639e d7be e21d 7dbe ee25 203e 8b64 63bd
00000190: cf9b 283e 4379 5bbe 5022 b43e 9017 f63d
000001a0: d927 a13d 2ebb 72be c164 883e 09f2 353e
000001b0: f009 c2be b4f7 603e 8b8a ab3c 7c14 17be
000001c0: 2153 8b3d a641 96bd e272 1b3e 21a1 aebe
000001d0: d69d b1be 85f2 85bd ef11 23bb 7c42 35be
000001e0: 8b2d 193d 2855 353e d632 8abe afc9 37be
000001f0: 0482 513d 3de4 1d3d 3f75 933e d1ed 8b3c
0.06784498 0.09452334 -0.106739745 0.34136364 0.3393992 0.29110268 -0.2590278 -0.14293073
0.23868807 0.21541654 0.08513772 -0.39891326 0.37508535 0.08075044 -0.21622209 -0.30493516
-0.14614068 -0.053098675 0.10426512 -0.030479833 0.34508327 -0.08649805 -0.33380225 -0.20896535
0.062228642 0.28002664 -0.048725624 -0.13529839 -0.30643547 0.038332842 -0.052396312 0.09872753
-0.004237909 -0.04499509 -0.33176398 0.23560698 0.08924686 0.05860487 -0.14515696 -0.04175206
0.24626765 0.13349687 -0.25720724 0.052344527 0.06994052 0.050883636 -0.040602375 -0.049172323
0.27897924 0.2498995 0.05715551 0.02065852 -0.03014619 0.0047159507 -0.2967473 -0.038061924
-0.26446202 0.047934715 0.3542841 0.14439851 -0.13809542 0.21657461 -0.07255182 -0.071238324
-0.2772071 0.38363472 0.4351026 0.2462352 0.05933287 -0.28192037 -0.28271744 0.094455674
-0.032640126 -0.18519549 0.026434617 -0.15325913 -0.14240706 -0.44395173 -0.08868389 -0.06019478
-0.021722583 0.03694215 0.11633544 0.12795053 0.49070004 -0.41980717 0.008962159 0.08415876
0.31070012 0.27881712 -0.107995994 -0.22457233 0.25050676 -0.323961 -0.021511666 -0.29796252
-0.42113027 -0.2471843 0.15639469 -0.055515807 0.16465686 -0.21432976 0.35182428 0.12016213
0.078689285 -0.23704216 0.2663937 0.1776811 -0.37898207 0.21969491 0.020940086 -0.14753908
0.06802965 -0.0733674 0.15180543 -0.34107307 -0.34690732 -0.065403976 -0.0024882515 -0.17701143
0.03739695 0.17708266 -0.2699191 -0.1794803 0.051149383 0.038547743 0.2880039 0.017081173

bn1_state.running_mean f4 [128]
00000000: 0000 0000 0000 0000 0000 0000 0000 0000
00000010: 0000 0000 0000 0000 0000 0000 0000 0000
00000020: 0000 0000 0000 0000 0000 0000 0000 0000
00000030: 0000 0000 0000 0000 0000 0000 0000 0000
00000040: 0000 0000 0000 0000 0000 0000 0000 0000
00000050: 0000 0000 0000 0000 0000 0000 0000 0000
00000060: 0000 0000 0000 0000 0000 0000 0000 0000
00000070: 0000 0000 0000 0000 0000 0000 0000 0000
00000080: 0000 0000 0000 0000 0000 0000 0000 0000
00000090: 0000 0000 0000 0000 0000 0000 0000 0000
000000a0: 0000 0000 0000 0000 0000 0000 0000 0000
000000b0: 0000 0000 0000 0000 0000 0000 0000 0000
000000c0: 0000 0000 0000 0000 0000 0000 0000 0000
000000d0: 0000 0000 0000 0000 0000 0000 0000 0000
000000e0: 0000 0000 0000 0000 0000 0000 0000 0000
000000f0: 0000 0000 0000 0000 0000 0000 0000 0000
00000100: 0000 0000 0000 0000 0000 0000 0000 0000
00000110: 0000 0000 0000 0000 0000 0000 0000 0000
00000120: 0000 0000 0000 0000 0000 0000 0000 0000
00000130: 0000 0000 0000 0000 0000 0000 0000 0000
00000140: 0000 0000 0000 0000 0000 0000 0000 0000
00000150: 0000 0000 0000 0000 0000 0000 0000 0000
00000160: 0000 0000 0000 0000 0000 0000 0000 0000
00000170: 0000 0000 0000 0000 0000 0000 0000 0000
00000180: 0000 0000 0000 0000 0000 0000 0000 0000
00000190: 0000 0000 0000 0000 0000 0000 0000 0000
000001a0: 0000 0000 0000 0000 0000 0000 0000 0000
000001b0: 0000 0000 0000 0000 0000 0000 0000 0000
000001c0: 0000 0000 0000 0000 0000 0000 0000 0000
000001d0: 0000 0000 0000 0000 0000 0000 0000 0000
000001e0: 0000 0000 0000 0000 0000 0000 0000 0000
000001f0: 0000 0000 0000 0000 0000 0000 0000 0000
0.0 0.0 0.0 0.0 0.0 0.0 0.0 0.0
0.0 0.0 0.0 0.0 0.0 0.0 0.0 0.0
0.0 0.0 0.0 0.0 0.0 0.0 0.0 0.0
0.0 0.0 0.0 0.0 0.0 0.0 0.0 0.0
0.0 0.0 0.0 0.0 0.0 0.0 0.0 0.0
0.0 0.0 0.0 0.0 0.0 0.0 0.0 0.0
0.0 0.0 0.0 0.0 0.0 0.0 0.0 0.0
0.0 0.0 0.0 0.0 0.0 0.0 0.0 0.0
0.0 0.0 0.0 0.0 0.0 0.0 0.0 0.0
0.0 0.0 0.0 0.0 0.0 0.0 0.0 0.0
0.0 0.0 0.0 0.0 0.0 0.0 0.0 0.0
0.0 0.0 0.0 0.0 0.0 0.0 0.0 0.0
0.0 0.0 0.0 0.0 0.0 0.0 0.0 0.0
0.0 0.0 0.0 0.0 0.0 0.0 0.0 0.0
0.0 0.0 0.0 0.0 0.0 0.0 0.0 0.0
0.0 0.0 0.0 0.0 0.0 0.0 0.0 0.0

bn1_state.running_var f4 [128]
00000000: 0000 803f 0000 803f 0000 803f 0000 803f
00000010: 0000 803f 0000 803f 0000 803f 0000 803f
00000020: 0000 803f 0000 803f 0000 803f 0000 803f
00000030: 0000 803f 0000 803f 0000 803f 0000 803f
00000040: 0000 803f 0000 803f 0000 803f 0000 803f
00000050: 0000 803f 0000 803f 0000 803f 0000 803f
00000060: 0000 803f 0000 803f 0000 803f 0000 803f
00000070: 0000 803f 0000 803f 0000 803f 0000 803f
00000080: 0000 803f 0000 803f 0000 803f 0000 803f
00000090: 0000 803f 0000 803f 0000 803f 0000 803f
000000a0: 0000 803f 0000 803f 0000 803f 0000 803f
000000b0: 0000 803f 0000 803f 0000 803f 0000 803f
000000c0: 0000 803f 0000 803f 0000 803f 0000 803f
000000d0: 0000 803f 0000 803f 0000 803f 0000 803f
000000e0: 0000 803f 0000 803f 0000 803f 0000 803f
000000f0: 0000 803f 0000 803f 0000 803f 0000 803f
00000100: 0000 803f 0000 803f 0000 803f 0000 803f
00000110: 0000 803f 0000 803f 0000 803f 0000 803f
00000120: 0000 803f 0000 803f 0000 803f 0000 803f
00000130: 0000 803f 0000 803f 0000 803f 0000 803f
00000140: 0000 803f 0000 803f 0000 803f 0000 803f
00000150: 0000 803f 0000 803f 0000 803f 0000 803f
00000160: 0000 803f 0000 803f 0000 803f 0000 803f
00000170: 0000 803f 0000 803f 0000 803f 0000 803f
00000180: 0000 803f 0000 803f 0000 803f 0000 803f
00000190: 0000 803f 0000 803f 0000 803f 0000 803f
000001a0: 0000 803f 0000 803f 0000 803f 0000 803f
000001b0: 0000 803f 0000 803f 0000 803f 0000 803f
000001c0: 0000 803f 0000 803f 0000 803f 0000 803f
000001d0: 0000 803f 0000 803f 0000 803f 0000 803f
000001e0: 0000 803f 0000 803f 0000 803f 0000 803f
000001f0: 0000 803f 0000 803f 0000 803f 0000 803f
1.0 1.0 1.0 1.0 1.0 1.0 1.0 1.0
1.0 1.0 1.0 1.0 1.0 1.0 1.0 1.0
1.0 1.0 1.0 1.0 1.0 1.0 1.0 1.0
1.0 1.0 1.0 1.0 1.0 1.0 1.0 1.0
1.0 1.0 1.0 1.0 1.0 1.0 1.0 1.0
1.0 1.0 1.0 1.0 1.0 1.0 1.0 1.0
1.0 1.0 1.0 1.0 1.0 1.0 1.0 1.0
1.0 1.0 1.0 1.0 1.0 1.0 1.0 1.0
1.0 1.0 1.0 1.0 1.0 1.0 1.0 1.0
1.0 1.0 1.0 1.0 1.0 1.0 1.0 1.0
1.0 1.0 1.0 1.0 1.0 1.0 1.0 1.0
1.0 1.0 1.0 1.0 1.0 1.0 1.0 1.0
1.0 1.0 1.0 1.0 1.0 1.0 1.0 1.0
1.0 1.0 1.0 1.0 1.0 1.0 1.0 1.0
1.0 1.0 1.0 1.0 1.0 1.0 1.0 1.0
1.0 1.0 1.0 1.0 1.0 1.0 1.0 1.0

fc1_action.weight f4 [32, 2]
00000000: 9b37 293f 4e72 2040 aad2 f53e b83b 74bf
00000010: 103d 91bf 6d6e d13f fcc5 053f 7911 dabf
00000020: 3e7d 96bf aca8 98be 7240 e9bf aa2b 993f
00000030: 947f c13f 3b92 933e be3f 14bf 1d27 95bd
00000040: 33e4 1b3f 95f6 23bf 4e57 55bf d531 adbe
00000050: c74b b33e c0c9 8a3f fadf babb 8961 b33f
00000060: c44c 6cbf c8f9 7e3e 6f14 72bf 73a8 613d
00000070: d170 d3bf 9779 0bc0 3704 633f a9cc f7bd
00000080: 4925 823f a126 a13e 0333 693f d329 ae3f
00000090: 7f14 3dbf 091b 473d 1526 4b3e 1668 ec3f
000000a0: 6636 2f3f ae16 e33e 3e74 9d3d f561 a4be
000000b0: ba5a 043a 556e f03f 8eb0 2040 9cff 88bf
000000c0: 5606 dcbe 2214 02bf f6b7 f1bd 89d0 1ebf
000000d0: d28b e1be e83b 25bf d9f3 0140 ac09 d63e
000000e0: 30b9 5a3f b6a4 d23f 0676 2bbf 911f f63c
000000f0: 1035 513f d55c 7a3f 5d17 963f dfae 013f
0.6610047 2.5069766 0.48012286 -0.95403624 -1.134676 1.6361824 0.52255225 -1.7036582
-1.1756971 -0.29816186 -1.8222792 1.196645 1.5117059 0.28822502 -0.5790976 -0.07282851
0.6089508 -0.6404813 -0.8333634 -0.3382708 0.3501875 1.0842819 -0.0057029696 1.401414
-0.92304635 0.24899971 -0.9456243 0.055092286 -1.6518804 -2.1792963 0.88678306 -0.12099583
1.0167629 0.31474784 0.9109346 1.3606514 -0.738594 0.048609767 0.19838746 1.8469265
0.6844238 0.4435324 0.07688187 -0.32105985 0.00050489197 1.8783671 2.510776 -1.0703006
-0.42973584 -0.5081197 -0.11802666 -0.6203695 -0.44051987 -0.64544535 2.0305083 0.41804254
0.85438824 1.6456516 -0.66976964 0.030044349 0.8172159 0.977979 1.172588 0.5065746

fc1_action.bias f4 [32]
00000000: 02eb 1cbf e4b9 81bf ac3f 0c3f 13a1 493c
00000010: 5076 de3e e9b4 ab3d 9683 8e3f 0e90 373f
00000020: 6d5c a9be acd9 29bf aa99 043f 1173 76be
00000030: 0558 26bf 6db6 93be c7e2 cabe 89ea 683e
00000040: 9168 983f fdcd 6a3f d9bf 7a3f 768a 5c3f
00000050: f5c2 5b3f 343a 673f 9887 eabe 370c 0abf
00000060: c781 693f c718 843f 5fbd 963f 7807 6d3f
00000070: dca3 f0bd a187 f43e 43a6 2f3e 78ea 373f
-0.61296093 -1.0134854 0.54784656 0.0123064695 0.4344964 0.08384115 1.1133907 0.71704185
-0.33078328 -0.66347766 0.5179697 -0.24067332 -0.6497806 -0.28850117 -0.39626142 0.22745718
1.1906911 0.91720563 0.97948986 0.86148775 0.85844356 0.90323186 -0.45806575 -0.5392489
0.9121365 1.0320061 1.1776541 0.9258952 -0.11750004 0.47759727 0.17153268 0.71842146

bn1_action.weight f4 [32]
00000000: 4e3d b43f 43a8 ba3f e68e 9d3f 89a3 c13f
00000010: e52a 9f3f 2edb b43f cb40 983f fbd1 ab3f
00000020: fbf9 bf3f 960c bd3f 6040 9a3f 6772 d63f
00000030: 25b3 a83f fb67 a83f 4576 b83f 923f a83f
00000040: 6d78 a13f a89c 9c3f 5de0 b13f a6d6 a73f
00000050: 5b92 a03f a6e7 bd3f 0cf7 cc3f 5fae 9c3f
00000060: a814 c23f 3490 c83f 5fa4 c53f 77ee 9d3f
00000070: b16c a83f c2a8 933f 4e42 a23f 40a2 aa3f
1.4081209 1.4582599 1.2309234 1.5128032 1.2434965 1.4129388 1.1894773 1.3423456
1.4998163 1.4769466 1.2050896 1.6753663 1.317967 1.3156732 1.4411093 1.31444
1.2614876 1.2235308 1.3896595 1.311238 1.2544664 1.4836318 1.6012893 1.2240714
1.5162554 1.5669007 1.5440787 1.2338399 1.315817 1.1535876 1.2676485 1.3330765

bn1_action.bias f4 [32]
00000000: 50d7 b23d bd59 f6be 8d14 103f 3b75 153e
00000010: cb50 ea3e 6bf9 483d d4e2 1a3f 505a 003f
00000020: d34f f23b c975 c23b 24a2 033f 3e33 553d
00000030: eef4 a9bd 9bb9 96bd 4ecc d2bd 279d 1f3e
00000040: 9b3c 1c3f 3077 113f e70a 063f fa57 ed3e
00000050: 2b3b 113f 3a99 f13e 6bb3 293e 262f c8bd
00000060: 1e13 093f fad0 f53e 0050 fa3e ef05 0a3f
00000070: 2719 143e 2da0 083f e374 933e f2e9 063f
0.08732474 -0.4811534 0.5628136 0.14595501 0.45764765 0.04906599 0.6050236 0.50137806
0.0073947697 0.0059344512 0.5141928 0.05205082 -0.0829867 -0.0735962 -0.10292874 0.15587293
0.61029977 0.5682249 0.52360386 0.46356183 0.5673091 0.47187215 0.16572349 -0.09774618
0.53544796 0.48011 0.4888916 0.53915304 0.1446272 0.5336941 0.28800115 0.5270072

bn1_action.running_mean f4 [32]
00000000: 0000 0000 0000 0000 0000 0000 0000 0000
00000010: 0000 0000 0000 0000 0000 0000 0000 0000
00000020: 0000 0000 0000 0000 0000 0000 0000 0000
00000030: 0000 0000 0000 0000 0000 0000 0000 0000
00000040: 0000 0000 0000 0000 0000 0000 0000 0000
00000050: 0000 0000 0000 0000 0000 0000 0000 0000
00000060: 0000 0000 0000 0000 0000 0000 0000 0000
00000070: 0000 0000 0000 0000 0000 0000 0000 0000
0.0 0.0 0.0 0.0 0.0 0.0 0.0 0.0
0.0 0.0 0.0 0.0 0.0 0.0 0.0 0.0
0.0 0.0 0.0 0.0 0.0 0.0 0.0 0.0
0.0 0.0 0.0 0.0 0.0 0.0 0.0 0.0

bn1_action.running_var f4 [32]
00000000: 0000 803f 0000 803f 0000 803f 0000 803f
00000010: 0000 803f 0000 803f 0000 803f 0000 803f
00000020: 0000 803f 0000 803f 0000 803f 0000 803f
00000030: 0000 803f 0000 803f 0000 803f 0000 803f
00000040: 0000 803f 0000 803f 0000 803f 0000 803f
00000050: 0000 803f 0000 803f 0000 803f 0000 803f
00000060: 0000 803f 0000 803f 0000 803f 0000 803f
00000070: 0000 803f 0000 803f 0000 803f 0000 803f
1.0 1.0 1.0 1.0 1.0 1.0 1.0 1.0
1.0 1.0 1.0 1.0 1.0 1.0 1.0 1.0
1.0 1.0 1.0 1.0 1.0 1.0 1.0 1.0
1.0 1.0 1.0 1.0 1.0 1.0 1.0 1.0

fc2.weight f4 [200, 160]
00000000: adfc 1d3d 2b5a 8ebd 6867 bdbd e85b d93d
00000010: bcc0 913d fcb5 523e 4140 0c3e b81f fdbd
00000020: cb84 fcbd b72c 75bd 46dd 15bd 50af 94bd
00000030: ddc9 e6bb 8eb3 1a3e 56de 5c3c 1e85 e73d
00000040: 1a21 ffbd 3d39 cdbd 5d14 c8bb 94d7 683e
00000050: 9f69 6a3e e7d1 21bb 4633 41be c5e5 d73d
00000060: 5a47 2e3e abe5 e83d e03e 2a3e bbf4 893e
00000070: da1c 953c 839f 04be 3ea8 1dbd ccca d8bd
00000080: 90e9 f2ba ed42 043e 65f6 a1bc 8bf4 443e
00000090: aa01 3c3e 6f71 b23d 4dfe 94bd 93db 2dbd
000000a0: e205 dabd 63da cc3d bec7 653d 990c c83c
000000b0: 4554 5d3c 4992 41bb b08b dcbc ec22 313e
000000c0: 07b6 c6bd fe61 f7bd cb5a 08be 98c5 f2bd
000000d0: a896 d8bd 1710 42be e037 aa3d 454c 353e
000000e0: 36da d5bc 5e7c d2bd 4ffd aa3d 7e66 b1bd
000000f0: 7bac 04be 1300 f63c d342 bcbc c455 a33d
00000100: b974 d1bd 7866 053e 88c2 6cbd 2219 723d
00000110: b5e2 773d 8882 8f3d 37fa d53c b047 01be
00000120: 4245 5c3b 912e 7a3e ffe3 083e 30be a23c
00000130: 8b74 b7be 7812 86bd 52a2 46be ed67 89bc
00000140: 8fb2 53bd 85e2 8dbd a5c9 0cbd 1e43 a53d
00000150: 256a d7be 200e ecbd acd2 6dbe d4c9 553d
00000160: 9b37 3fbd 21d7 41bd c9ba cfbd f2e3 723e
00000170: ddcb 003e f020 f8bd 92aa d03d 7383 c03e
00000180: b97b 4b3d c4a4 cb3c 381b 183e 2752 3ebc
00000190: 4ef0 6f3d c3d4 d53e 4d2e d0bd bb21 413e
000001a0: 3a84 1f3e 1182 953e b0d1 2cbe 2637 ac3c
000001b0: 8bba 42b8 362d 5d3d 4436 373c a101 243d
000001c0: 5c6a aa3d 764b 013e 84a6 76bd ebf8 b5bc
000001d0: 30b2 a9bc eac9 f3bd 8d5b ccbd 7a17 f83d
000001e0: 493c 8bbd 648b 1fbd 16f3 0cbe 8417 843d
000001f0: 0f75 113b 567b 883d d62e 593d a732 ab3e
00000200: ae75 d13c 4098 573e 46d3 983d 2423 32be
00000210: 2e6f 983e 77de 3b3e bd0e 82be 6c68 31be
00000220: d7a9 ec3d 38aa 9c3e ed87 fdbd b78e 79bd
00000230: bec8 553d 4002 123e a0a5 a93e 02b3 8abe
00000240: 5123 60bd 782d 97be e25f 65bd cda1 47be
00000250: cf98 36be c760 71be 98ab 783d 1a8e 9abe
00000260: 7ccf 77be 3387 c1be e0e6 7abe 9ae6 a3be
00000270: cf7a 98bd 17d5 523d ad88 25be 9e46 a7bd
00000280: 4fc5 adbd 4f7e 00be dbb7 5fbe f439 7d3b
00000290: 88fd bcba 7dca 4c3e 8613 3b3e 3760 e9bd
000002a0: 0da1 d0bc d38f d2bd 5f5e c03d 7080 0bbe
000002b0: 6839 1dbd 2968 f9bc 1274 4cbe 84d9 143e
000002c0: f4d0 eb3d b76c aa3d 5086 95be 05b2 98be
000002d0: b9bf 293e 8caf 8bbd 31e3 f3bd eabf b0bd
000002e0: 55a3 8d3d 2640 7cbe 7188 1dbe 71c4 2cbc
000002f0: 8d8c 0cbe 9f11 c93d e616 55bb 3c14 8abd
00000300: 50c4 0a3e 2ad0 3d3d 2c3e 273e 8525 c7bd
00000310: 0407 723d 6a1e 01bd 4358 333e 90ff 293e
00000320: 0c85 5dbe d9d2 8fbe de9f 203e 59bd 75be
00000330: c214 0ebe 5a88 963c 8e99 b8bd 0d89 433e
00000340: f2b9 283e 89a3 1ebe 0f0a 49bd 1c15 3bbe
00000350: 3076 a83e d59c d73c 729d 01bd ac29 f33c
00000360: 185c a3bd 61ce f43c 5d99 8fbd b00d 243d
00000370: 6f33 a4bd 135c 4b3d fc31 4a3d cc9f a3bd
00000380: a1f8 ff3b a8f0 43bb 1bcd b5bd b67e 46bd
00000390: 9513 753d 8287 7bbe ce68 13be ac64 01bb
000003a0: 63b6 16be fd2c 9d3c f97c 4b3d e4bf 46be
000003b0: 5e33 98b9 9b2d 073e a57c 793d c5bc 193d
000003c0: 22a8 d7bd bfa8 60bd 1fde 2abd ff86 223b
000003d0: fefa ed3d 38e8 703d 3a83 d4bd 9b5f 513e
000003e0: 8d08 273d 449d e9bd 3516 373d be46 f93b
000003f0: 7b8e 293e 8c36 9d39 fe4f e63d eda8 5e3e
0.03857105 -0.06950792 -0.09248239 0.10613233 0.07116839 0.20577234 0.13696386 -0.123595655
-0.12330016 -0.059857097 -0.036587976 -0.07260001 -0.007043107 0.15107557 0.013480743 0.11304687
-0.124574855 -0.10020683 -0.006105943 0.22738487 0.22891854 -0.0024691762 -0.18867216 0.10541872
0.17019406 0.11371931 0.16625547 0.26944527 0.018202234 -0.12951474 -0.038490526 -0.105855554
-0.0018532742 0.12916155 -0.01977081 0.1923391 0.1836001 0.08713042 -0.072750665 -0.04244573
-0.10645653 0.100025915 0.056098692 0.02442007 0.013508861 -0.0029536656 -0.026922077 0.17298478
-0.09702688 -0.120792374 -0.13315885 -0.11854094 -0.105756104 -0.1895145 0.083114386 0.17704876
-0.026105028 -0.102776274 0.08349096 -0.08662127 -0.12956421 0.030029332 -0.022981083 0.07975343
-0.10227341 0.1302737 -0.057802707 0.059106 0.06051894 0.07007319 0.026120288 -0.12625003
0.0033610617 0.24431826 0.13368224 0.01986608 -0.35831103 -0.065464914 -0.19397858 -0.016773188
-0.05168396 -0.06927971 -0.03437199 0.08069442 -0.4207317 -0.11526132 -0.23224896 0.05219443
-0.04668389 -0.047324304 -0.10143048 0.23719767 0.12577768 -0.12115657 0.10188784 0.37600288
0.049678538 0.02485884 0.14854133 -0.011616266 0.05857878 0.41763887 -0.10165081 0.18860523
0.15577784 0.29200795 -0.16876864 0.02102239 -4.6426936e-05 0.053998195 0.0111823715 0.040040616
0.08321068 0.12626442 -0.060217395 -0.02221342 -0.02071485 -0.119037464 -0.099783994 0.12113853
-0.06798608 -0.038951293 -0.13764605 0.06449798 0.0022195016 0.066641495 0.05302318 0.33437082
0.02556881 0.21054173 0.07462172 -0.17396218 0.29772323 0.18346582 -0.2540187 -0.1732499
0.11555832 0.30598617 -0.123794414 -0.06092712 0.052193396 0.14258671 0.33134174 -0.27089697
-0.05472118 -0.29526877 -0.055999644 -0.19495316 -0.1783173 -0.23572074 0.06071052 -0.3018654
-0.24200243 -0.3779846 -0.24502134 -0.32011873 -0.07445299 0.05147275 -0.16165419 -0.08167766
-0.08484899 -0.12548183 -0.21847479 0.003863928 -0.001441882 0.19999118 0.18269166 -0.11395305
-0.02546742 -0.102813385 0.09393 -0.13623214 -0.038384825 -0.030445175 -0.19966152 0.145361
0.11514464 0.08321517 -0.29204035 -0.29823318 0.16577043 -0.06820592 -0.11908568 -0.08630355
0.06915919 -0.24633846 -0.1538408 -0.010544882 -0.13725491 0.09817814 -0.003251487 -0.06742141
0.1355145 0.0463411 0.1633231 -0.09723953 0.059088722 -0.031523146 0.17514138 0.16601396
-0.21632785 -0.28090551 0.15685984 -0.23998012 -0.13875106 0.018375564 -0.09013663 0.1909525
0.16477183 -0.15492071 -0.04908186 -0.18269771 0.3290267 0.0263199 -0.031644292 0.029682957
-0.0797655 0.029883565 -0.070116736 0.040052116 -0.08017623 0.049648356 0.049364075 -0.07989463
0.0078116213 -0.002989808 -0.088770114 -0.048460685 0.059833128 -0.24563411 -0.14395449 -0.0019743843
-0.14718013 0.019186491 0.04967973 -0.19409138 -0.0002902997 0.13200991 0.060909886 0.03753354
-0.10530116 -0.05484843 -0.041715737 0.0024799702 0.116201386 0.05881521 -0.10376592 0.20446627
0.04077964 -0.11406949 0.044698913 0.00760731 0.16558258 0.00029986014 0.11245726 0.21744128

fc2.bias f4 [200]
00000000: d5b7 2dbe f547 6fbe b03a 1dbd f7c3 4bbe
00000010: f822 3c3e 56e8 bc3e ef93 40be 470c a9be
00000020: 35f2 203f 7a0c a0be 1417 283e 8561 d03e
00000030: 41ec c5be 2426 9dbe 50f6 903d d1ca 8b3e
00000040: f3ec a93d de0f f8bc f0bc 49be 4b17 d13e
00000050: 7662 573c b0fe 65bd 3684 6b3d ec57 073d
00000060: 8714 e63d 0984 2dbe 50ce fabd aac2 7dbe
00000070: eedb 1abd 643f 6e3e 57ed fe3e 5721 b5bc
00000080: f9ab b93d 9305 073f 15e4 0f3f 9fcd 90bd
00000090: a042 a3be 65e3 633e 5354 ecbd dbc0 86be
000000a0: 16db f53e c4b6 893e 1451 82bd 7993 303d
000000b0: 21fa 743c 5e9a 3cbd 4343 c4be 8712 d43d
000000c0: 75ac 723b 56d6 2c3e bb91 a73e f2a2 abbe
000000d0: 9f08 903d 480f 833e 1193 023e 4615 6c3e
000000e0: 2381 893e 2850 44bc 9188 333d 6dc3 b13e
000000f0: 0e0c 913e 9dae 003e 1268 efbd 5771 223e
00000100: 373f 293f f560 0b3f 22b8 6f3e ee46 f53e
00000110: bee6 973e 94ab a03e 3af8 863e 9952 16bd
00000120: 446a 103c b945 4d3e 7f18 b33e 991e 503c
00000130: 8510 943d ee6d 0e3e 1cd1 c53e 962c 683e
00000140: 6fbb b33d 583b 0b3d e493 3ebe c88d 67be
00000150: 0832 183d aed3 b7bd 57ee 083f 7310 a139
00000160: 2af1 dc3d 5ee6 e7bd 7521 c03e db93 d1be
00000170: 4266 1d3e 0ff8 863e 0312 3abe 8206 ac3d
00000180: 80d0 afbd 7cd1 a83b 9dc3 6dbd dc5a 9fbe
00000190: c28f 81be 2c3d 853e 8e04 133e 8a3d f23c
000001a0: b3a3 d0bd 915c 97be 6856 723e cf2c 7f3c
000001b0: 3046 383e 094c ed3c bd67 adbe b09e d33d
000001c0: 442b 53be 607a f43d 92e3 a23e 6364 80be
000001d0: e78c 3fbe 6a05 7fbe 1a08 a4be e782 303e
000001e0: 9bf8 483e 53cb 963c c3eb 23be 7d41 c0bb
000001f0: 8725 843e 44b9 883e 9d76 b63e aacd fabb
00000200: 1e54 ab3e df68 e93e 2361 ddba f616 46be
00000210: c419 233d def5 99be fbaa e3be d4a2 d7bc
00000220: f606 623e c6a8 f53e bcc3 3dbd 23df 51be
00000230: 7169 c7be 33f9 f63e ee66 a03e fc6b d6be
00000240: ca75 c63e d794 fb3e a90b c5be d39c fc3c
00000250: 72c7 90be d183 5c3d 5abd ac3e 4598 8bbe
00000260: d011 c53e 5015 1f3f 95db 26be 0761 25bd
00000270: 9f66 533e 4aa2 b03e 094f b03d 5398 c9bd
00000280: 385e 813d 7817 26bd 2752 aebd e6d6 abbd
00000290: 3319 0c3f 9077 a33c 91c6 893c 9689 173d
000002a0: 32d2 d1bd c4df cabe 60ed 183e 3a08 74bd
000002b0: 0b28 9b3d a02d 8e3d dc14 d23d b047 003e
000002c0: 5a65 813e 2e37 d73e 170b f2be d607 693e
000002d0: 50d2 43bd daa4 d3be 0891 4abe 6470 f73e
000002e0: cd87 613e 889e 0bbe ed6f 6ebd 975e c43c
000002f0: 3975 853e ef05 f93d 1436 91bd 1285 13be
00000300: 02d9 0b3d 514e 413d 774b aa3e ef3e b73e
00000310: 68b4 22bd 50c0 033f 06c1 dfbd efd6 82bd
-0.16964658 -0.23367293 -0.038386047 -0.19898973 0.18372715 0.36896008 -0.18806432 -0.3301718
0.6286958 -0.3125952 0.16415054 0.40699401 -0.3865681 -0.3069316 0.070782304 0.27303174
0.082971476 -0.030281004 -0.1970098 0.40838084 0.0131460335 -0.056151092 0.057499133 0.033042833
0.11234384 -0.16944899 -0.12246382 -0.2478129 -0.037807398 0.23266369 0.4979045 -0.022110624
0.09066004 0.5274288 0.562074 -0.07070469 -0.31886768 0.22254713 -0.11539521 -0.26319012
0.48018712 0.26897252 -0.06363121 0.04310939 0.0149522135 -0.046045654 -0.38332567 0.10355096
0.0037029062 0.16878638 0.3272837 -0.33522755 0.07032894 0.25597596 0.12751414 0.2305499
0.26856336 -0.011982001 0.04383141 0.3471941 0.2832951 0.1256661 -0.11689772 0.15863548
0.66112083 0.5444482 0.23410085 0.47905678 0.2966823 0.31380904 0.26361257 -0.036699865
0.008814398 0.20046128 0.34979627 0.012702608 0.07229713 0.13909122 0.386361 0.22673258
0.087759845 0.03399214 -0.18611103 -0.22612679 0.03715709 -0.089759216 0.5348868 0.0003072057
0.10788186 -0.11323236 0.37525526 -0.40933117 0.1537104 0.2636113 -0.18170933 0.08399679
-0.0858469 0.0051519256 -0.05804788 -0.31124008 -0.2530499 0.26023233 0.14357206 0.02957036
-0.10187473 -0.2956281 0.23665774 0.015574648 0.17995524 0.02896692 -0.3386821 0.103330016
-0.20621973 0.11937404 0.31814247 -0.2507659 -0.18706094 -0.24904409 -0.3203743 0.17237435
0.19626085 0.0184075 -0.16007905 -0.005867182 0.2580988 0.26703846 0.3563737 -0.0076539116
0.33462614 0.45587823 -0.0016889911 -0.19344696 0.039819494 -0.30070394 -0.44466385 -0.02632276
0.22072968 0.47980326 -0.046329245 -0.20495276 -0.38947633 0.48237 0.3132853 -0.4187926
0.3876174 0.49136993 -0.38485458 0.030836498 -0.28277165 0.053836647 0.33738214 -0.2726461
0.38490152 0.62141895 -0.16294701 -0.040375736 0.20644616 0.34498817 0.08608825 -0.09843507
0.06316799 -0.040549725 -0.08511763 -0.08390598 0.5472595 0.019954473 0.016818317 0.036996447
-0.1024517 -0.39623845 0.14934301 -0.059578158 0.07575997 0.06942296 0.10257885 0.12527347
0.25272638 0.42034286 -0.47274086 0.22756895 -0.04780799 -0.4133671 -0.19781888 0.48327935
0.2202446 -0.13634694 -0.05821221 0.023970885 0.26065996 0.12159335 -0.07090393 -0.14406231
0.0341425 0.04719383 0.332607 0.35790202 -0.03972283 0.5146532 -0.10925488 -0.063886516

bn2.weight f4 [200]
00000000: 11d0 703f 0fd3 683f 1ab5 913f 47e6 833f
00000010: 5b63 6d3f 371e 9c3f 7227 603f 6137 963f
00000020: b684 953f 636b 6f3f c5ba 873f 9abb 933f
00000030: ee8b aa3f b98d 9f3f 8335 913f b8b8 8c3f
00000040: f415 8b3f 7834 933f 7df2 713f 5201 a93f
00000050: d7e9 803f 3a05 6d3f 3229 973f 9549 873f
00000060: 191c 843f 5a78 763f f713 7e3f 6d89 863f
00000070: a688 8f3f 200a 903f 17de 783f 6f5c 903f
00000080: dfe9 913f 39ac 8a3f 6708 8d3f b2ff 903f
00000090: 197f 703f b8d1 7e3f c794 723f af15 843f
000000a0: 460e 963f ca54 803f f22b 853f 9f29 a33f
000000b0: 4714 5e3f 2aa9 8b3f 269f 763f b107 893f
000000c0: a46f 853f cf91 873f f98d 883f 971e 943f
000000d0: e0db 963f 1543 893f 8696 8e3f 7f1d b23f
000000e0: a4a5 823f e6d0 823f 3710 853f 8a2f 933f
000000f0: 6aab 8b3f 4321 893f 6a89 843f ea2f 803f
00000100: 9f76 863f 9c40 9b3f e359 823f b35e 813f
00000110: 9c1d 7f3f deff 973f 5b3c 7b3f 2ea1 9b3f
00000120: 8b1c 833f dc90 903f a5d3 9d3f 26f9 8b3f
00000130: 8a9b 943f 759f 523f edb4 8f3f 07cd 813f
00000140: 281c 8c3f ce24 a43f 1fdb a13f 4c51 8a3f
00000150: 633a a93f f6d9 8f3f f67f 8c3f ab2b 993f
00000160: 70f0 7a3f f40c 9b3f e620 733f 5643 833f
00000170: c212 6b3f 855b 753f a757 763f 9649 833f
00000180: 1038 933f 5c55 853f c866 833f f844 7d3f
00000190: 802e 6d3f ae1c 883f 147b 8c3f d122 963f
000001a0: 266d 7b3f f0c0 933f 9d46 763f af3a 833f
000001b0: a7b8 7d3f fb5d 833f b0b6 983f 1639 873f
000001c0: 2446 6d3f 364f 8f3f caa1 653f b436 9d3f
000001d0: 978f 963f bd92 993f 1040 ae3f e6e4 983f
000001e0: 135d 853f ba41 a03f 6d69 873f 4782 843f
000001f0: b197 9c3f 0307 6b3f be1f 813f d040 873f
00000200: e3d5 7b3f 14be 9d3f 7ffc 763f 8d5f 8f3f
00000210: e6c7 c23f 0361 9f3f dd61 9f3f 1221 723f
00000220: d481 7e3f 0c35 8a3f 9a72 8d3f 4ceb 883f
00000230: a783 923f fbb2 883f 17af 8a3f e209 803f
00000240: 74a7 7f3f 7263 7c3f 6636 6d3f 1801 b63f
00000250: 8135 743f 1a2c 873f 6a2a 833f d997 943f
00000260: 1918 863f 605a 973f cc39 693f 88a6 8f3f
00000270: d73c 8d3f fe0a 933f b4f7 853f b0a2 923f
00000280: 4ee8 913f 2e28 963f 42f0 8b3f 3d46 a33f
00000290: cd83 a63f e0f9 883f c245 773f 5b08 953f
000002a0: 4627 8e3f 2937 803f b8fb 8f3f c8da 943f
000002b0: 7ad8 833f b3c9 983f a458 923f 2aa9 983f
000002c0: ffc0 913f d00e 923f 1621 993f 50b3 813f
000002d0: da75 9f3f df11 8a3f e0d5 723f 5c7c 823f
000002e0: 2361 993f 730e 953f 528e 8f3f 04bc 9a3f
000002f0: bd92 9a3f a2ba 593f 6939 8f3f cf70 a13f
00000300: 33ae 803f dadf af3f 84b3 733f 358d 773f
00000310: 419f 7c3f fb44 843f 7c96 943f 4737 7a3f
0.94067484 0.9094705 1.1383393 1.030465 0.9272973 1.2196721 0.8756019 1.173565
1.1681125 0.93523234 1.0603873 1.1541626 1.3323953 1.2465125 1.1344455 1.0993872
1.0866075 1.1500387 0.9451063 1.3203528 1.0071362 0.925861 1.1809447 1.056933
1.0321075 0.9627739 0.99249214 1.0510689 1.1213577 1.125309 0.9721388 1.1278208
1.1399497 1.0833808 1.1018189 1.1328032 0.93943936 0.99538755 0.94758266 1.0319117
1.1723106 1.0025876 1.0404036 1.2747077 0.8674969 1.0911 0.9633659 1.0705472
1.0424695 1.0591372 1.0668327 1.1571835 1.178585 1.0723597 1.1139686 1.3915251
1.02068 1.0220001 1.0395573 1.1498883 1.0911686 1.0713276 1.0354435 1.0014622
1.050495 1.2129092 1.0183681 1.0107025 0.99654555 1.187496 0.9813897 1.2158563
1.0243086 1.1294208 1.2330214 1.0935409 1.1609967 0.8227456 1.1227089 1.0140694
1.0946093 1.2823732 1.2644995 1.080606 1.3220943 1.1238391 1.097655 1.1966451
0.9802313 1.2113328 0.94972074 1.0254924 0.918255 0.9584277 0.96227497 1.0256832
1.1501484 1.0416675 1.0265741 0.9893336 0.9264908 1.0633752 1.097506 1.1729375
0.9821342 1.1543255 0.962015 1.0252284 0.9910988 1.0263056 1.1930752 1.0564296
0.9268515 1.1196048 0.89699996 1.2282319 1.176257 1.1997906 1.36133 1.1944854
1.0419029 1.2520058 1.0579048 1.0352257 1.2233793 0.91807574 1.0087812 1.0566654
0.9837324 1.2323632 0.9647903 1.1201035 1.5217254 1.2451481 1.245174 0.9458171
0.9941685 1.0797439 1.1050599 1.0696807 1.1446427 1.067962 1.0834683 1.0003016
0.9986489 0.9858924 0.9266113 1.4219084 0.9539414 1.0560334 1.0247319 1.160884
1.0476104 1.1824455 0.91103816 1.1222696 1.1034192 1.148773 1.0466218 1.1455898
1.1399019 1.1731012 1.0932696 1.275581 1.3008972 1.0701256 0.96590817 1.1643175
1.1105735 1.0016834 1.1248693 1.1629267 1.0300438 1.1936554 1.1433301 1.1926625
1.1387023 1.141077 1.1963222 1.0132847 1.245784 1.0786704 0.948576 1.0194201
1.1982769 1.1645035 1.1215308 1.2088628 1.2076031 0.85050404 1.1189395 1.2612551
1.0053161 1.3740189 0.95195794 0.9669984 0.986805 1.0333551 1.1608424 0.97740597

bn2.bias f4 [200]
00000000: 5be8 73be c99c 46be 6e0c 193d 0364 61be
00000010: dd83 033e f4c7 b43e e151 09be 7a1a a3be
00000020: 3f5e 0f3f f88a 82be a3f8 033e 15dc ba3e
00000030: e0ff aabe 21fc 98be 18f3 c93d a923 853e
00000040: fbf2 6a3d 38f3 b7bc 5f4d 01be 2b6b bb3e
00000050: 5a69 18bd a0a2 323c 67bb dc3c 32ae e03d
00000060: 1113 843d 6c56 51be d424 6cbd d12d a6be
00000070: 0e5a 83bd d09f 773e 082d da3e f288 f33c
00000080: 7264 bc3d f5ee f73e ea5c f93e 3959 82bd
00000090: 3e63 7cbe 0b6e 263e b858 1bbe debc 74be
000000a0: 714b d63e 1397 8a3e cf72 ee3b c5ef 0c3d
000000b0: 0902 f7b9 d569 8ebd 11eb eabe 8609 9f3d
000000c0: 826c 483d 449a 263e acf1 8b3e 49ae 87be
000000d0: 9632 5d3d 0594 8d3e 21fd a33d 85b8 413e
000000e0: 98a7 953e c018 b8bb 3cf0 85bc bbdc 8b3e
000000f0: 5772 523e b653 c53d bc6a f7bd 7b9c 223e
00000100: e02b 153f 5cb6 ef3e 7645 943e 9449 093f
00000110: f24d 933e 15c7 c23e ee72 463e cfa0 94bd
00000120: 13ec a9bb a5d6 203e 1b0d 973e ba32 fdbb
00000130: ddf4 043e f3ff af3d 2518 9e3e 9f43 8d3e
00000140: 8538 9b3d 8d4f 29ba 6b67 1bbe 27bd 41be
00000150: b98d 303d 6730 5dbd 5265 f33e 8b38 8abc
00000160: 815c aa3d ea40 8cbd 3658 b43e 72a2 c6be
00000170: 0ea5 0c3e bb14 603e dcdb 42be 7a84 9a3d
00000180: 0f53 adbd 41d0 683d 511f 00be 2455 9cbe
00000190: e442 3cbe b377 ab3e 506c 013e ebda 22bb
000001a0: 61d4 39bd 007c 6fbe 15f7 8e3e 8cac cc3c
000001b0: 4c2f 7f3e d7f7 2bbd c393 96be 7978 003e
000001c0: ba91 36be 2774 213e 90c7 893e 3ebf 71be
000001d0: ed69 0dbe 6d8a 9cbe 14eb afbe 7a92 673e
000001e0: c201 0c3e 7250 5dbc b281 0dbe 3df6 96bd
000001f0: f3cc 633e 3f08 823e 2e2c d83e 326f 46bd
00000200: 5372 b93e 298c fe3e 0eeb 66bd 67e4 fcbd
00000210: 1690 47bc 9b87 70be 69f9 cfbe c0cf 0dbd
00000220: b425 313e e0d0 e93e 4ad3 ea3c eb67 33be
00000230: ab82 d9be 2d85 da3e 16e0 b93e f03d c1be
00000240: e6c7 9e3e 0e6d d63e 535d a5be 9e2d 893d
00000250: 0e24 a0be 2278 55bb 113a 903e d2e5 8fbe
00000260: 2991 e03e f706 1d3f 53b9 cbbd b339 c8bd
00000270: ebc9 213e b80c c73e e09c a13d 2e64 61bd
00000280: 60b4 d73c 103e 33bb 6a6d 9abc ad65 99bc
00000290: 4491 003f 2c76 09bd d9e5 70bd 0994 153c
000002a0: 6210 2fbe 5f1f acbe 7154 a43d bbab 6b3c
000002b0: 80df a73d 6b02 183d 7ae7 c73d 0926 6c3d
000002c0: 5525 7d3e 9938 c43e 6f75 d8be 7b9c 633e
000002d0: a470 c6bd b286 d1be ad90 67be 51ce f23e
000002e0: 9a7e 2e3e 59a5 1ebe b374 cfb9 573b 873d
000002f0: 452d 983e c6d4 2e3e 308e 1cbd b5da 1dbe
00000300: 7705 cd3d aebd d9ba c9d3 963e f5cf bf3e
00000310: 10a3 16bd bb7f ec3e 3084 c9bd 0f90 1ebd
-0.23819105 -0.19395746 0.03736537 -0.22010808 0.1284327 0.35308802 -0.1341014 -0.31856138
0.56003183 -0.2549665 0.12887816 0.36496034 -0.33398342 -0.2987986 0.098608196 0.2600377
0.05736063 -0.022454843 -0.12627171 0.366052 -0.037209846 0.010903031 0.02694483 0.10970725
0.06448949 -0.20443124 -0.05765231 -0.3245683 -0.06413661 0.24182057 0.4261248 0.029728387
0.09198846 0.48424497 0.487037 -0.06364674 -0.24647233 0.16252916 -0.15170562 -0.23900172
0.41854432 0.27068385 0.00727687 0.03440835 -0.00047113028 -0.069537796 -0.45882466 0.07765488
0.048931606 0.16269785 0.27332819 -0.26500157 0.05400332 0.27651992 0.08007265 0.18918045
0.29229426 -0.005618185 -0.016349904 0.2731684 0.2055143 0.09635107 -0.12080905 0.15880005
0.5827007 0.46818817 0.28959244 0.53627896 0.28770405 0.38042513 0.1937978 -0.07257234
-0.005185613 0.1570688 0.29502186 -0.0077269943 0.12984033 0.0859374 0.30877796 0.27590653
0.075791396 -0.00064586924 -0.1517617 -0.18919812 0.043103907 -0.05400124 0.4753824 -0.016872665
0.08318425 -0.06848319 0.3522355 -0.3879581 0.13734838 0.21882908 -0.19029182 0.07544799
-0.08463108 0.05683923 -0.12511946 -0.30533707 -0.18384892 0.3348976 0.12638974 -0.0024849724
-0.045368556 -0.23387146 0.27922884 0.02498462 0.24920386 -0.041984405 -0.29409608 0.12545957
-0.17829028 0.15766965 0.26910067 -0.2360811 -0.13809939 -0.3057436 -0.34359038 0.2261447
0.13672546 -0.013507949 -0.13819006 -0.07371185 0.2224615 0.25396916 0.42221206 -0.048445888
0.36220035 0.4971631 -0.05637651 -0.12348252 -0.012180349 -0.2348923 -0.40619972 -0.034621954
0.17299539 0.4566717 0.028665204 -0.1752011 -0.42482504 0.4267973 0.36303777 -0.37742567
0.31011885 0.41880077 -0.32297763 0.06698154 -0.31277508 -0.0032572825 0.281693 -0.28105026
0.43860748 0.6133875 -0.09947457 -0.0977663 0.15799682 0.3887689 0.0789125 -0.05502718
0.026331127 -0.0027350225 -0.018851 -0.01872524 0.5022166 -0.033559963 -0.05881295 0.009129533
-0.17096093 -0.33617684 0.080239184 0.014384205 0.08196926 0.03711168 0.097609475 0.05765346
0.24721272 0.3832443 -0.42277095 0.22227661 -0.09689453 -0.40923077 -0.22613783 0.47423032
0.17040482 -0.15492763 -0.00039569064 0.06603115 0.29722038 0.17073354 -0.038221538 -0.15415461
0.10010808 -0.0016612315 0.29458454 0.37463346 -0.036776602 0.461912 -0.09839666 -0.038711604

bn2.running_mean f4 [200]
00000000: 0000 0000 0000 0000 0000 0000 0000 0000
00000010: 0000 0000 0000 0000 0000 0000 0000 0000
00000020: 0000 0000 0000 0000 0000 0000 0000 0000
00000030: 0000 0000 0000 0000 0000 0000 0000 0000
00000040: 0000 0000 0000 0000 0000 0000 0000 0000
00000050: 0000 0000 0000 0000 0000 0000 0000 0000
00000060: 0000 0000 0000 0000 0000 0000 0000 0000
00000070: 0000 0000 0000 0000 0000 0000 0000 0000
00000080: 0000 0000 0000 0000 0000 0000 0000 0000
00000090: 0000 0000 0000 0000 0000 0000 0000 0000
000000a0: 0000 0000 0000 0000 0000 0000 0000 0000
000000b0: 0000 0000 0000 0000 0000 0000 0000 0000
000000c0: 0000 0000 0000 0000 0000 0000 0000 0000
000000d0: 0000 0000 0000 0000 0000 0000 0000 0000
000000e0: 0000 0000 0000 0000 0000 0000 0000 0000
000000f0: 0000 0000 0000 0000 0000 0000 0000 0000
00000100: 0000 0000 0000 0000 0000 0000 0000 0000
00000110: 0000 0000 0000 0000 0000 0000 0000 0000
00000120: 0000 0000 0000 0000 0000 0000 0000 0000
00000130: 0000 0000 0000 0000 0000 0000 0000 0000
00000140: 0000 0000 0000 0000 0000 0000 0000 0000
00000150: 0000 0000 0000 0000 0000 0000 0000 0000
00000160: 0000 0000 0000 0000 0000 0000 0000 0000
00000170: 0000 0000 0000 0000 0000 0000 0000 0000
00000180: 0000 0000 0000 0000 0000 0000 0000 0000
00000190: 0000 0000 0000 0000 0000 0000 0000 0000
000001a0: 0000 0000 0000 0000 0000 0000 0000 0000
000001b0: 0000 0000 0000 0000 0000 0000 0000 0000
000001c0: 0000 0000 0000 0000 0000 0000 0000 0000
000001d0: 0000 0000 0000 0000 0000 0000 0000 0000
000001e0: 0000 0000 0000 0000 0000 0000 0000 0000
000001f0: 0000 0000 0000 0000 0000 0000 0000 0000
00000200: 0000 0000 0000 0000 0000 0000 0000 0000
00000210: 0000 0000 0000 0000 0000 0000 0000 0000
00000220: 0000 0000 0000 0000 0000 0000 0000 0000
00000230: 0000 0000 0000 0000 0000 0000 0000 0000
00000240: 0000 0000 0000 0000 0000 0000 0000 0000
00000250: 0000 0000 0000 0000 0000 0000 0000 0000
00000260: 0000 0000 0000 0000 0000 0000 0000 0000
00000270: 0000 0000 0000 0000 0000 0000 0000 0000
00000280: 0000 0000 0000 0000 0000 0000 0000 0000
00000290: 0000 0000 0000 0000 0000 0000 0000 0000
000002a0: 0000 0000 0000 0000 0000 0000 0000 0000
000002b0: 0000 0000 0000 0000 0000 0000 0000 0000
000002c0: 0000 0000 0000 0000 0000 0000 0000 0000
000002d0: 0000 0000 0000 0000 0000 0000 0000 0000
000002e0: 0000 0000 0000 0000 0000 0000 0000 0000
000002f0: 0000 0000 0000 0000 0000 0000 0000 0000
00000300: 0000 0000 0000 0000 0000 0000 0000 0000
00000310: 0000 0000 0000 0000 0000 0000 0000 0000
0.0 0.0 0.0 0.0 0.0 0.0 0.0 0.0
0.0 0.0 0.0 0.0 0.0 0.0 0.0 0.0
0.0 0.0 0.0 0.0 0.0 0.0 0.0 0.0
0.0 0.0 0.0 0.0 0.0 0.0 0.0 0.0
0.0 0.0 0.0 0.0 0.0 0.0 0.0 0.0
0.0 0.0 0.0 0.0 0.0 0.0 0.0 0.0
0.0 0.0 0.0 0.0 0.0 0.0 0.0 0.0
0.0 0.0 0.0 0.0 0.0 0.0 0.0 0.0
0.0 0.0 0.0 0.0 0.0 0.0 0.0 0.0
0.0 0.0 0.0 0.0 0.0 0.0 0.0 0.0
0.0 0.0 0.0 0.0 0.0 0.0 0.0 0.0
0.0 0.0 0.0 0.0 0.0 0.0 0.0 0.0
0.0 0.0 0.0 0.0 0.0 0.0 0.0 0.0
0.0 0.0 0.0 0.0 0.0 0.0 0.0 0.0
0.0 0.0 0.0 0.0 0.0 0.0 0.0 0.0
0.0 0.0 0.0 0.0 0.0 0.0 0.0 0.0
0.0 0.0 0.0 0.0 0.0 0.0 0.0 0.0
0.0 0.0 0.0 0.0 0.0 0.0 0.0 0.0
0.0 0.0 0.0 0.0 0.0 0.0 0.0 0.0
0.0 0.0 0.0 0.0 0.0 0.0 0.0 0.0
0.0 0.0 0.0 0.0 0.0 0.0 0.0 0.0
0.0 0.0 0.0 0.0 0.0 0.0 0.0 0.0
0.0 0.0 0.0 0.0 0.0 0.0 0.0 0.0
0.0 0.0 0.0 0.0 0.0 0.0 0.0 0.0
0.0 0.0 0.0 0.0 0.0 0.0 0.0 0.0
